module attributes {tf.versions = {bad_consumers = [], min_consumer = 12 : i32, producer = 1482 : i32}, tf_saved_model.semantics} {
  "tf_saved_model.global_tensor"() {is_mutable, sym_name = "__sm_node27__model.layer-1._query_dense.kernel", tf_saved_model.exported_names = [], type = tensor<5x3x5xf32>, value = dense<[[[… > : tensor<5x3x5xf32>} : () -> ()
  "tf_saved_model.global_tensor"() {is_mutable, sym_name = "__sm_node28__model.layer-1._query_dense.bias", tf_saved_model.exported_names = [], type = tensor<3x5xf32>, value = dense<0.000000e+00> : tensor<3x5xf32>} : () -> ()
  "tf_saved_model.global_tensor"() {is_mutable, sym_name = "__sm_node29__model.layer-1._key_dense.kernel", tf_saved_model.exported_names = [], type = tensor<5x3x5xf32>, value = dense<[[[… > : tensor<5x3x5xf32>} : () -> ()
  "tf_saved_model.global_tensor"() {is_mutable, sym_name = "__sm_node30__model.layer-1._key_dense.bias", tf_saved_model.exported_names = [], type = tensor<3x5xf32>, value = dense<0.000000e+00> : tensor<3x5xf32>} : () -> ()
  "tf_saved_model.global_tensor"() {is_mutable, sym_name = "__sm_node31__model.layer-1._value_dense.kernel", tf_saved_model.exported_names = [], type = tensor<5x3x5xf32>, value = dense<[[[… > : tensor<5x3x5xf32>} : () -> ()
  "tf_saved_model.global_tensor"() {is_mutable, sym_name = "__sm_node32__model.layer-1._value_dense.bias", tf_saved_model.exported_names = [], type = tensor<3x5xf32>, value = dense<0.000000e+00> : tensor<3x5xf32>} : () -> ()
  "tf_saved_model.global_tensor"() {is_mutable, sym_name = "__sm_node33__model.layer-1._output_dense.kernel", tf_saved_model.exported_names = [], type = tensor<3x5x5xf32>, value = dense<[[[… > : tensor<3x5x5xf32>} : () -> ()
  "tf_saved_model.global_tensor"() {is_mutable, sym_name = "__sm_node34__model.layer-1._output_dense.bias", tf_saved_model.exported_names = [], type = tensor<5xf32>, value = dense<0.000000e+00> : tensor<5xf32>} : () -> ()
  func.func @__inference_my_predict_1490(%arg0: tensor<16x7x5xf32> {tf._user_specified_name = "x", tf_saved_model.index_path = [0]}, %arg1: tensor<!tf_type.resource<tensor<5x3x5xf32>>> {tf._user_specified_name = "resource", tf_saved_model.bound_input = @"__sm_node27__model.layer-1._query_dense.kernel"}, %arg2: tensor<!tf_type.resource<tensor<3x5xf32>>> {tf._user_specified_name = "resource", tf_saved_model.bound_input = @"__sm_node28__model.layer-1._query_dense.bias"}, %arg3: tensor<!tf_type.resource<tensor<5x3x5xf32>>> {tf._user_specified_name = "resource", tf_saved_model.bound_input = @"__sm_node29__model.layer-1._key_dense.kernel"}, %arg4: tensor<!tf_type.resource<tensor<3x5xf32>>> {tf._user_specified_name = "resource", tf_saved_model.bound_input = @"__sm_node30__model.layer-1._key_dense.bias"}, %arg5: tensor<!tf_type.resource<tensor<5x3x5xf32>>> {tf._user_specified_name = "resource", tf_saved_model.bound_input = @"__sm_node31__model.layer-1._value_dense.kernel"}, %arg6: tensor<!tf_type.resource<tensor<3x5xf32>>> {tf._user_specified_name = "resource", tf_saved_model.bound_input = @"__sm_node32__model.layer-1._value_dense.bias"}, %arg7: tensor<!tf_type.resource<tensor<3x5x5xf32>>> {tf._user_specified_name = "resource", tf_saved_model.bound_input = @"__sm_node33__model.layer-1._output_dense.kernel"}, %arg8: tensor<!tf_type.resource<tensor<5xf32>>> {tf._user_specified_name = "resource", tf_saved_model.bound_input = @"__sm_node34__model.layer-1._output_dense.bias"}) -> (tensor<16x7x5xf32> {tf_saved_model.index_path = []}) attributes {tf._construction_context = "kEagerRuntime", tf._input_shapes = [#tf_type.shape<16x7x5>, #tf_type.shape<>, #tf_type.shape<>, #tf_type.shape<>, #tf_type.shape<>, #tf_type.shape<>, #tf_type.shape<>, #tf_type.shape<>, #tf_type.shape<>], tf.signature.is_stateful, tf_saved_model.exported_names = ["my_predict"]} {
    %cst = "tf.Const"() {device = "", value = dense<0.44721359> : tensor<f32>} : () -> tensor<f32>
    %0 = "tf.ReadVariableOp"(%arg8) : (tensor<!tf_type.resource<tensor<5xf32>>>) -> tensor<5xf32>
    %1 = "tf.ReadVariableOp"(%arg7) : (tensor<!tf_type.resource<tensor<3x5x5xf32>>>) -> tensor<3x5x5xf32>
    %2 = "tf.ReadVariableOp"(%arg4) : (tensor<!tf_type.resource<tensor<3x5xf32>>>) -> tensor<3x5xf32>
    %3 = "tf.ReadVariableOp"(%arg3) : (tensor<!tf_type.resource<tensor<5x3x5xf32>>>) -> tensor<5x3x5xf32>
    %4 = "tf.ReadVariableOp"(%arg2) : (tensor<!tf_type.resource<tensor<3x5xf32>>>) -> tensor<3x5xf32>
    %5 = "tf.ReadVariableOp"(%arg1) : (tensor<!tf_type.resource<tensor<5x3x5xf32>>>) -> tensor<5x3x5xf32>
    %6 = "tf.ReadVariableOp"(%arg6) : (tensor<!tf_type.resource<tensor<3x5xf32>>>) -> tensor<3x5xf32>
    %7 = "tf.ReadVariableOp"(%arg5) : (tensor<!tf_type.resource<tensor<5x3x5xf32>>>) -> tensor<5x3x5xf32>
    %8 = "tf.Einsum"(%arg0, %3) {device = "", equation = "abc,cde->abde"} : (tensor<16x7x5xf32>, tensor<5x3x5xf32>) -> tensor<16x7x3x5xf32>
    %9 = "tf.AddV2"(%8, %2) {device = ""} : (tensor<16x7x3x5xf32>, tensor<3x5xf32>) -> tensor<16x7x3x5xf32>
    %10 = "tf.Einsum"(%arg0, %5) {device = "", equation = "abc,cde->abde"} : (tensor<16x7x5xf32>, tensor<5x3x5xf32>) -> tensor<16x7x3x5xf32>
    %11 = "tf.AddV2"(%10, %4) {device = ""} : (tensor<16x7x3x5xf32>, tensor<3x5xf32>) -> tensor<16x7x3x5xf32>
    %12 = "tf.Mul"(%11, %cst) {device = ""} : (tensor<16x7x3x5xf32>, tensor<f32>) -> tensor<16x7x3x5xf32>
    %13 = "tf.Einsum"(%9, %12) {device = "", equation = "aecd,abcd->acbe"} : (tensor<16x7x3x5xf32>, tensor<16x7x3x5xf32>) -> tensor<16x3x7x7xf32>
    %14 = "tf.Softmax"(%13) {device = ""} : (tensor<16x3x7x7xf32>) -> tensor<16x3x7x7xf32>
    %15 = "tf.Identity"(%14) {device = ""} : (tensor<16x3x7x7xf32>) -> tensor<16x3x7x7xf32>
    %16 = "tf.Einsum"(%arg0, %7) {device = "", equation = "abc,cde->abde"} : (tensor<16x7x5xf32>, tensor<5x3x5xf32>) -> tensor<16x7x3x5xf32>
    %17 = "tf.AddV2"(%16, %6) {device = ""} : (tensor<16x7x3x5xf32>, tensor<3x5xf32>) -> tensor<16x7x3x5xf32>
    %18 = "tf.Einsum"(%15, %17) {device = "", equation = "acbe,aecd->abcd"} : (tensor<16x3x7x7xf32>, tensor<16x7x3x5xf32>) -> tensor<16x7x3x5xf32>
    %19 = "tf.Einsum"(%18, %1) {device = "", equation = "abcd,cde->abe"} : (tensor<16x7x3x5xf32>, tensor<3x5x5xf32>) -> tensor<16x7x5xf32>
    %20 = "tf.AddV2"(%19, %0) {device = ""} : (tensor<16x7x5xf32>, tensor<5xf32>) -> tensor<16x7x5xf32>
    %21 = "tf.Identity"(%20) {device = ""} : (tensor<16x7x5xf32>) -> tensor<16x7x5xf32>
    return %21 : tensor<16x7x5xf32>
  }
  func.func private @__inference__wrapped_model_2050(%arg0: tensor<?x7x5xf32> {tf._user_specified_name = "inputs"}, %arg1: tensor<!tf_type.resource> {tf._user_specified_name = "resource"}, %arg2: tensor<!tf_type.resource> {tf._user_specified_name = "resource"}, %arg3: tensor<!tf_type.resource> {tf._user_specified_name = "resource"}, %arg4: tensor<!tf_type.resource> {tf._user_specified_name = "resource"}, %arg5: tensor<!tf_type.resource> {tf._user_specified_name = "resource"}, %arg6: tensor<!tf_type.resource> {tf._user_specified_name = "resource"}, %arg7: tensor<!tf_type.resource> {tf._user_specified_name = "resource"}, %arg8: tensor<!tf_type.resource> {tf._user_specified_name = "resource"}) -> tensor<?x7x5xf32> attributes {tf._construction_context = "kEagerRuntime", tf._input_shapes = [#tf_type.shape<?x7x5>, #tf_type.shape<>, #tf_type.shape<>, #tf_type.shape<>, #tf_type.shape<>, #tf_type.shape<>, #tf_type.shape<>, #tf_type.shape<>, #tf_type.shape<>], tf.signature.is_stateful} {
    %cst = "tf.Const"() {device = "", value = dense<0.44721359> : tensor<f32>} : () -> tensor<f32>
    %0 = "tf.ReadVariableOp"(%arg8) {device = ""} : (tensor<!tf_type.resource>) -> tensor<5xf32>
    %1 = "tf.ReadVariableOp"(%arg7) {device = ""} : (tensor<!tf_type.resource>) -> tensor<3x5x5xf32>
    %2 = "tf.ReadVariableOp"(%arg4) {device = ""} : (tensor<!tf_type.resource>) -> tensor<3x5xf32>
    %3 = "tf.ReadVariableOp"(%arg3) {device = ""} : (tensor<!tf_type.resource>) -> tensor<5x3x5xf32>
    %4 = "tf.Einsum"(%arg0, %3) {device = "", equation = "abc,cde->abde"} : (tensor<?x7x5xf32>, tensor<5x3x5xf32>) -> tensor<?x7x3x5xf32>
    %5 = "tf.AddV2"(%4, %2) {device = ""} : (tensor<?x7x3x5xf32>, tensor<3x5xf32>) -> tensor<?x7x3x5xf32>
    %6 = "tf.ReadVariableOp"(%arg2) {device = ""} : (tensor<!tf_type.resource>) -> tensor<3x5xf32>
    %7 = "tf.ReadVariableOp"(%arg1) {device = ""} : (tensor<!tf_type.resource>) -> tensor<5x3x5xf32>
    %8 = "tf.Einsum"(%arg0, %7) {device = "", equation = "abc,cde->abde"} : (tensor<?x7x5xf32>, tensor<5x3x5xf32>) -> tensor<?x7x3x5xf32>
    %9 = "tf.AddV2"(%8, %6) {device = ""} : (tensor<?x7x3x5xf32>, tensor<3x5xf32>) -> tensor<?x7x3x5xf32>
    %10 = "tf.Mul"(%9, %cst) {device = ""} : (tensor<?x7x3x5xf32>, tensor<f32>) -> tensor<?x7x3x5xf32>
    %11 = "tf.Einsum"(%5, %10) {device = "", equation = "aecd,abcd->acbe"} : (tensor<?x7x3x5xf32>, tensor<?x7x3x5xf32>) -> tensor<?x3x7x7xf32>
    %12 = "tf.Softmax"(%11) {device = ""} : (tensor<?x3x7x7xf32>) -> tensor<?x3x7x7xf32>
    %13 = "tf.Identity"(%12) {device = ""} : (tensor<?x3x7x7xf32>) -> tensor<?x3x7x7xf32>
    %14 = "tf.ReadVariableOp"(%arg6) {device = ""} : (tensor<!tf_type.resource>) -> tensor<3x5xf32>
    %15 = "tf.ReadVariableOp"(%arg5) {device = ""} : (tensor<!tf_type.resource>) -> tensor<5x3x5xf32>
    %16 = "tf.Einsum"(%arg0, %15) {device = "", equation = "abc,cde->abde"} : (tensor<?x7x5xf32>, tensor<5x3x5xf32>) -> tensor<?x7x3x5xf32>
    %17 = "tf.AddV2"(%16, %14) {device = ""} : (tensor<?x7x3x5xf32>, tensor<3x5xf32>) -> tensor<?x7x3x5xf32>
    %18 = "tf.Einsum"(%13, %17) {device = "", equation = "acbe,aecd->abcd"} : (tensor<?x3x7x7xf32>, tensor<?x7x3x5xf32>) -> tensor<?x7x3x5xf32>
    %19 = "tf.Einsum"(%18, %1) {device = "", equation = "abcd,cde->abe"} : (tensor<?x7x3x5xf32>, tensor<3x5x5xf32>) -> tensor<?x7x5xf32>
    %20 = "tf.AddV2"(%19, %0) {device = ""} : (tensor<?x7x5xf32>, tensor<5xf32>) -> tensor<?x7x5xf32>
    %21 = "tf.Identity"(%20) {device = ""} : (tensor<?x7x5xf32>) -> tensor<?x7x5xf32>
    return %21 : tensor<?x7x5xf32>
  }
  func.func private @__inference_multi_head_attention_layer_call_and_return_conditional_losses_2420(%arg0: tensor<?x7x5xf32> {tf._user_specified_name = "query"}, %arg1: tensor<?x7x5xf32> {tf._user_specified_name = "value"}, %arg2: tensor<!tf_type.resource> {tf._user_specified_name = "resource"}, %arg3: tensor<!tf_type.resource> {tf._user_specified_name = "resource"}, %arg4: tensor<!tf_type.resource> {tf._user_specified_name = "resource"}, %arg5: tensor<!tf_type.resource> {tf._user_specified_name = "resource"}, %arg6: tensor<!tf_type.resource> {tf._user_specified_name = "resource"}, %arg7: tensor<!tf_type.resource> {tf._user_specified_name = "resource"}, %arg8: tensor<!tf_type.resource> {tf._user_specified_name = "resource"}, %arg9: tensor<!tf_type.resource> {tf._user_specified_name = "resource"}) -> tensor<?x7x5xf32> attributes {tf._construction_context = "kEagerRuntime", tf._input_shapes = [#tf_type.shape<?x7x5>, #tf_type.shape<?x7x5>, #tf_type.shape<>, #tf_type.shape<>, #tf_type.shape<>, #tf_type.shape<>, #tf_type.shape<>, #tf_type.shape<>, #tf_type.shape<>, #tf_type.shape<>], tf.signature.is_stateful} {
    %cst = "tf.Const"() {device = "", value = dense<0.44721359> : tensor<f32>} : () -> tensor<f32>
    %0 = "tf.ReadVariableOp"(%arg9) {device = ""} : (tensor<!tf_type.resource>) -> tensor<5xf32>
    %1 = "tf.ReadVariableOp"(%arg8) {device = ""} : (tensor<!tf_type.resource>) -> tensor<3x5x5xf32>
    %2 = "tf.ReadVariableOp"(%arg5) {device = ""} : (tensor<!tf_type.resource>) -> tensor<3x5xf32>
    %3 = "tf.ReadVariableOp"(%arg4) {device = ""} : (tensor<!tf_type.resource>) -> tensor<5x3x5xf32>
    %4 = "tf.ReadVariableOp"(%arg3) {device = ""} : (tensor<!tf_type.resource>) -> tensor<3x5xf32>
    %5 = "tf.ReadVariableOp"(%arg2) {device = ""} : (tensor<!tf_type.resource>) -> tensor<5x3x5xf32>
    %6 = "tf.Einsum"(%arg0, %5) {device = "", equation = "abc,cde->abde"} : (tensor<?x7x5xf32>, tensor<5x3x5xf32>) -> tensor<?x7x3x5xf32>
    %7 = "tf.AddV2"(%6, %4) {device = ""} : (tensor<?x7x3x5xf32>, tensor<3x5xf32>) -> tensor<?x7x3x5xf32>
    %8 = "tf.Mul"(%7, %cst) {device = ""} : (tensor<?x7x3x5xf32>, tensor<f32>) -> tensor<?x7x3x5xf32>
    %9 = "tf.Einsum"(%arg1, %3) {device = "", equation = "abc,cde->abde"} : (tensor<?x7x5xf32>, tensor<5x3x5xf32>) -> tensor<?x7x3x5xf32>
    %10 = "tf.AddV2"(%9, %2) {device = ""} : (tensor<?x7x3x5xf32>, tensor<3x5xf32>) -> tensor<?x7x3x5xf32>
    %11 = "tf.Einsum"(%10, %8) {device = "", equation = "aecd,abcd->acbe"} : (tensor<?x7x3x5xf32>, tensor<?x7x3x5xf32>) -> tensor<?x3x7x7xf32>
    %12 = "tf.Softmax"(%11) {device = ""} : (tensor<?x3x7x7xf32>) -> tensor<?x3x7x7xf32>
    %13 = "tf.Identity"(%12) {device = ""} : (tensor<?x3x7x7xf32>) -> tensor<?x3x7x7xf32>
    %14 = "tf.ReadVariableOp"(%arg7) {device = ""} : (tensor<!tf_type.resource>) -> tensor<3x5xf32>
    %15 = "tf.ReadVariableOp"(%arg6) {device = ""} : (tensor<!tf_type.resource>) -> tensor<5x3x5xf32>
    %16 = "tf.Einsum"(%arg1, %15) {device = "", equation = "abc,cde->abde"} : (tensor<?x7x5xf32>, tensor<5x3x5xf32>) -> tensor<?x7x3x5xf32>
    %17 = "tf.AddV2"(%16, %14) {device = ""} : (tensor<?x7x3x5xf32>, tensor<3x5xf32>) -> tensor<?x7x3x5xf32>
    %18 = "tf.Einsum"(%13, %17) {device = "", equation = "acbe,aecd->abcd"} : (tensor<?x3x7x7xf32>, tensor<?x7x3x5xf32>) -> tensor<?x7x3x5xf32>
    %19 = "tf.Einsum"(%18, %1) {device = "", equation = "abcd,cde->abe"} : (tensor<?x7x3x5xf32>, tensor<3x5x5xf32>) -> tensor<?x7x5xf32>
    %20 = "tf.AddV2"(%19, %0) {device = ""} : (tensor<?x7x5xf32>, tensor<5xf32>) -> tensor<?x7x5xf32>
    %21 = "tf.Identity"(%20) {device = ""} : (tensor<?x7x5xf32>) -> tensor<?x7x5xf32>
    return %21 : tensor<?x7x5xf32>
  }
  func.func private @__inference_multi_head_attention_layer_call_and_return_conditional_losses_2980(%arg0: tensor<?x7x5xf32> {tf._user_specified_name = "query"}, %arg1: tensor<?x7x5xf32> {tf._user_specified_name = "value"}, %arg2: tensor<!tf_type.resource> {tf._user_specified_name = "resource"}, %arg3: tensor<!tf_type.resource> {tf._user_specified_name = "resource"}, %arg4: tensor<!tf_type.resource> {tf._user_specified_name = "resource"}, %arg5: tensor<!tf_type.resource> {tf._user_specified_name = "resource"}, %arg6: tensor<!tf_type.resource> {tf._user_specified_name = "resource"}, %arg7: tensor<!tf_type.resource> {tf._user_specified_name = "resource"}, %arg8: tensor<!tf_type.resource> {tf._user_specified_name = "resource"}, %arg9: tensor<!tf_type.resource> {tf._user_specified_name = "resource"}) -> tensor<?x7x5xf32> attributes {tf._construction_context = "kEagerRuntime", tf._input_shapes = [#tf_type.shape<?x7x5>, #tf_type.shape<?x7x5>, #tf_type.shape<>, #tf_type.shape<>, #tf_type.shape<>, #tf_type.shape<>, #tf_type.shape<>, #tf_type.shape<>, #tf_type.shape<>, #tf_type.shape<>], tf.signature.is_stateful} {
    %cst = "tf.Const"() {device = "", value = dense<0.44721359> : tensor<f32>} : () -> tensor<f32>
    %0 = "tf.ReadVariableOp"(%arg9) {device = ""} : (tensor<!tf_type.resource>) -> tensor<5xf32>
    %1 = "tf.ReadVariableOp"(%arg8) {device = ""} : (tensor<!tf_type.resource>) -> tensor<3x5x5xf32>
    %2 = "tf.ReadVariableOp"(%arg5) {device = ""} : (tensor<!tf_type.resource>) -> tensor<3x5xf32>
    %3 = "tf.ReadVariableOp"(%arg4) {device = ""} : (tensor<!tf_type.resource>) -> tensor<5x3x5xf32>
    %4 = "tf.ReadVariableOp"(%arg3) {device = ""} : (tensor<!tf_type.resource>) -> tensor<3x5xf32>
    %5 = "tf.ReadVariableOp"(%arg2) {device = ""} : (tensor<!tf_type.resource>) -> tensor<5x3x5xf32>
    %6 = "tf.Einsum"(%arg0, %5) {device = "", equation = "abc,cde->abde"} : (tensor<?x7x5xf32>, tensor<5x3x5xf32>) -> tensor<?x7x3x5xf32>
    %7 = "tf.AddV2"(%6, %4) {device = ""} : (tensor<?x7x3x5xf32>, tensor<3x5xf32>) -> tensor<?x7x3x5xf32>
    %8 = "tf.Mul"(%7, %cst) {device = ""} : (tensor<?x7x3x5xf32>, tensor<f32>) -> tensor<?x7x3x5xf32>
    %9 = "tf.Einsum"(%arg1, %3) {device = "", equation = "abc,cde->abde"} : (tensor<?x7x5xf32>, tensor<5x3x5xf32>) -> tensor<?x7x3x5xf32>
    %10 = "tf.AddV2"(%9, %2) {device = ""} : (tensor<?x7x3x5xf32>, tensor<3x5xf32>) -> tensor<?x7x3x5xf32>
    %11 = "tf.Einsum"(%10, %8) {device = "", equation = "aecd,abcd->acbe"} : (tensor<?x7x3x5xf32>, tensor<?x7x3x5xf32>) -> tensor<?x3x7x7xf32>
    %12 = "tf.Softmax"(%11) {device = ""} : (tensor<?x3x7x7xf32>) -> tensor<?x3x7x7xf32>
    %13 = "tf.Identity"(%12) {device = ""} : (tensor<?x3x7x7xf32>) -> tensor<?x3x7x7xf32>
    %14 = "tf.ReadVariableOp"(%arg7) {device = ""} : (tensor<!tf_type.resource>) -> tensor<3x5xf32>
    %15 = "tf.ReadVariableOp"(%arg6) {device = ""} : (tensor<!tf_type.resource>) -> tensor<5x3x5xf32>
    %16 = "tf.Einsum"(%arg1, %15) {device = "", equation = "abc,cde->abde"} : (tensor<?x7x5xf32>, tensor<5x3x5xf32>) -> tensor<?x7x3x5xf32>
    %17 = "tf.AddV2"(%16, %14) {device = ""} : (tensor<?x7x3x5xf32>, tensor<3x5xf32>) -> tensor<?x7x3x5xf32>
    %18 = "tf.Einsum"(%13, %17) {device = "", equation = "acbe,aecd->abcd"} : (tensor<?x3x7x7xf32>, tensor<?x7x3x5xf32>) -> tensor<?x7x3x5xf32>
    %19 = "tf.Einsum"(%18, %1) {device = "", equation = "abcd,cde->abe"} : (tensor<?x7x3x5xf32>, tensor<3x5x5xf32>) -> tensor<?x7x5xf32>
    %20 = "tf.AddV2"(%19, %0) {device = ""} : (tensor<?x7x5xf32>, tensor<5xf32>) -> tensor<?x7x5xf32>
    %21 = "tf.Identity"(%20) {device = ""} : (tensor<?x7x5xf32>) -> tensor<?x7x5xf32>
    return %21 : tensor<?x7x5xf32>
  }
  func.func private @__inference_multi_head_attention_layer_call_and_return_conditional_losses_4820(%arg0: tensor<?x7x5xf32> {tf._user_specified_name = "query"}, %arg1: tensor<?x7x5xf32> {tf._user_specified_name = "value"}, %arg2: tensor<!tf_type.resource> {tf._user_specified_name = "resource"}, %arg3: tensor<!tf_type.resource> {tf._user_specified_name = "resource"}, %arg4: tensor<!tf_type.resource> {tf._user_specified_name = "resource"}, %arg5: tensor<!tf_type.resource> {tf._user_specified_name = "resource"}, %arg6: tensor<!tf_type.resource> {tf._user_specified_name = "resource"}, %arg7: tensor<!tf_type.resource> {tf._user_specified_name = "resource"}, %arg8: tensor<!tf_type.resource> {tf._user_specified_name = "resource"}, %arg9: tensor<!tf_type.resource> {tf._user_specified_name = "resource"}) -> tensor<?x7x5xf32> attributes {tf._construction_context = "kEagerRuntime", tf._input_shapes = [#tf_type.shape<?x7x5>, #tf_type.shape<?x7x5>, #tf_type.shape<>, #tf_type.shape<>, #tf_type.shape<>, #tf_type.shape<>, #tf_type.shape<>, #tf_type.shape<>, #tf_type.shape<>, #tf_type.shape<>], tf.signature.is_stateful} {
    %cst = "tf.Const"() {device = "", value = dense<0.44721359> : tensor<f32>} : () -> tensor<f32>
    %0 = "tf.ReadVariableOp"(%arg9) {device = ""} : (tensor<!tf_type.resource>) -> tensor<5xf32>
    %1 = "tf.ReadVariableOp"(%arg8) {device = ""} : (tensor<!tf_type.resource>) -> tensor<3x5x5xf32>
    %2 = "tf.ReadVariableOp"(%arg5) {device = ""} : (tensor<!tf_type.resource>) -> tensor<3x5xf32>
    %3 = "tf.ReadVariableOp"(%arg4) {device = ""} : (tensor<!tf_type.resource>) -> tensor<5x3x5xf32>
    %4 = "tf.ReadVariableOp"(%arg3) {device = ""} : (tensor<!tf_type.resource>) -> tensor<3x5xf32>
    %5 = "tf.ReadVariableOp"(%arg2) {device = ""} : (tensor<!tf_type.resource>) -> tensor<5x3x5xf32>
    %6 = "tf.Einsum"(%arg0, %5) {device = "", equation = "abc,cde->abde"} : (tensor<?x7x5xf32>, tensor<5x3x5xf32>) -> tensor<?x7x3x5xf32>
    %7 = "tf.AddV2"(%6, %4) {device = ""} : (tensor<?x7x3x5xf32>, tensor<3x5xf32>) -> tensor<?x7x3x5xf32>
    %8 = "tf.Mul"(%7, %cst) {device = ""} : (tensor<?x7x3x5xf32>, tensor<f32>) -> tensor<?x7x3x5xf32>
    %9 = "tf.Einsum"(%arg1, %3) {device = "", equation = "abc,cde->abde"} : (tensor<?x7x5xf32>, tensor<5x3x5xf32>) -> tensor<?x7x3x5xf32>
    %10 = "tf.AddV2"(%9, %2) {device = ""} : (tensor<?x7x3x5xf32>, tensor<3x5xf32>) -> tensor<?x7x3x5xf32>
    %11 = "tf.Einsum"(%10, %8) {device = "", equation = "aecd,abcd->acbe"} : (tensor<?x7x3x5xf32>, tensor<?x7x3x5xf32>) -> tensor<?x3x7x7xf32>
    %12 = "tf.Softmax"(%11) {device = ""} : (tensor<?x3x7x7xf32>) -> tensor<?x3x7x7xf32>
    %13 = "tf.Identity"(%12) {device = ""} : (tensor<?x3x7x7xf32>) -> tensor<?x3x7x7xf32>
    %14 = "tf.ReadVariableOp"(%arg7) {device = ""} : (tensor<!tf_type.resource>) -> tensor<3x5xf32>
    %15 = "tf.ReadVariableOp"(%arg6) {device = ""} : (tensor<!tf_type.resource>) -> tensor<5x3x5xf32>
    %16 = "tf.Einsum"(%arg1, %15) {device = "", equation = "abc,cde->abde"} : (tensor<?x7x5xf32>, tensor<5x3x5xf32>) -> tensor<?x7x3x5xf32>
    %17 = "tf.AddV2"(%16, %14) {device = ""} : (tensor<?x7x3x5xf32>, tensor<3x5xf32>) -> tensor<?x7x3x5xf32>
    %18 = "tf.Einsum"(%13, %17) {device = "", equation = "acbe,aecd->abcd"} : (tensor<?x3x7x7xf32>, tensor<?x7x3x5xf32>) -> tensor<?x7x3x5xf32>
    %19 = "tf.Einsum"(%18, %1) {device = "", equation = "abcd,cde->abe"} : (tensor<?x7x3x5xf32>, tensor<3x5x5xf32>) -> tensor<?x7x5xf32>
    %20 = "tf.AddV2"(%19, %0) {device = ""} : (tensor<?x7x5xf32>, tensor<5xf32>) -> tensor<?x7x5xf32>
    %21 = "tf.Identity"(%20) {device = ""} : (tensor<?x7x5xf32>) -> tensor<?x7x5xf32>
    return %21 : tensor<?x7x5xf32>
  }
  func.func private @__inference_multi_head_attention_layer_call_and_return_conditional_losses_5170(%arg0: tensor<?x7x5xf32> {tf._user_specified_name = "query"}, %arg1: tensor<?x7x5xf32> {tf._user_specified_name = "value"}, %arg2: tensor<!tf_type.resource> {tf._user_specified_name = "resource"}, %arg3: tensor<!tf_type.resource> {tf._user_specified_name = "resource"}, %arg4: tensor<!tf_type.resource> {tf._user_specified_name = "resource"}, %arg5: tensor<!tf_type.resource> {tf._user_specified_name = "resource"}, %arg6: tensor<!tf_type.resource> {tf._user_specified_name = "resource"}, %arg7: tensor<!tf_type.resource> {tf._user_specified_name = "resource"}, %arg8: tensor<!tf_type.resource> {tf._user_specified_name = "resource"}, %arg9: tensor<!tf_type.resource> {tf._user_specified_name = "resource"}) -> tensor<?x7x5xf32> attributes {tf._construction_context = "kEagerRuntime", tf._input_shapes = [#tf_type.shape<?x7x5>, #tf_type.shape<?x7x5>, #tf_type.shape<>, #tf_type.shape<>, #tf_type.shape<>, #tf_type.shape<>, #tf_type.shape<>, #tf_type.shape<>, #tf_type.shape<>, #tf_type.shape<>], tf.signature.is_stateful} {
    %cst = "tf.Const"() {device = "", value = dense<0.44721359> : tensor<f32>} : () -> tensor<f32>
    %0 = "tf.ReadVariableOp"(%arg9) {device = ""} : (tensor<!tf_type.resource>) -> tensor<5xf32>
    %1 = "tf.ReadVariableOp"(%arg8) {device = ""} : (tensor<!tf_type.resource>) -> tensor<3x5x5xf32>
    %2 = "tf.ReadVariableOp"(%arg5) {device = ""} : (tensor<!tf_type.resource>) -> tensor<3x5xf32>
    %3 = "tf.ReadVariableOp"(%arg4) {device = ""} : (tensor<!tf_type.resource>) -> tensor<5x3x5xf32>
    %4 = "tf.ReadVariableOp"(%arg3) {device = ""} : (tensor<!tf_type.resource>) -> tensor<3x5xf32>
    %5 = "tf.ReadVariableOp"(%arg2) {device = ""} : (tensor<!tf_type.resource>) -> tensor<5x3x5xf32>
    %6 = "tf.Einsum"(%arg0, %5) {device = "", equation = "abc,cde->abde"} : (tensor<?x7x5xf32>, tensor<5x3x5xf32>) -> tensor<?x7x3x5xf32>
    %7 = "tf.AddV2"(%6, %4) {device = ""} : (tensor<?x7x3x5xf32>, tensor<3x5xf32>) -> tensor<?x7x3x5xf32>
    %8 = "tf.Mul"(%7, %cst) {device = ""} : (tensor<?x7x3x5xf32>, tensor<f32>) -> tensor<?x7x3x5xf32>
    %9 = "tf.Einsum"(%arg1, %3) {device = "", equation = "abc,cde->abde"} : (tensor<?x7x5xf32>, tensor<5x3x5xf32>) -> tensor<?x7x3x5xf32>
    %10 = "tf.AddV2"(%9, %2) {device = ""} : (tensor<?x7x3x5xf32>, tensor<3x5xf32>) -> tensor<?x7x3x5xf32>
    %11 = "tf.Einsum"(%10, %8) {device = "", equation = "aecd,abcd->acbe"} : (tensor<?x7x3x5xf32>, tensor<?x7x3x5xf32>) -> tensor<?x3x7x7xf32>
    %12 = "tf.Softmax"(%11) {device = ""} : (tensor<?x3x7x7xf32>) -> tensor<?x3x7x7xf32>
    %13 = "tf.Identity"(%12) {device = ""} : (tensor<?x3x7x7xf32>) -> tensor<?x3x7x7xf32>
    %14 = "tf.ReadVariableOp"(%arg7) {device = ""} : (tensor<!tf_type.resource>) -> tensor<3x5xf32>
    %15 = "tf.ReadVariableOp"(%arg6) {device = ""} : (tensor<!tf_type.resource>) -> tensor<5x3x5xf32>
    %16 = "tf.Einsum"(%arg1, %15) {device = "", equation = "abc,cde->abde"} : (tensor<?x7x5xf32>, tensor<5x3x5xf32>) -> tensor<?x7x3x5xf32>
    %17 = "tf.AddV2"(%16, %14) {device = ""} : (tensor<?x7x3x5xf32>, tensor<3x5xf32>) -> tensor<?x7x3x5xf32>
    %18 = "tf.Einsum"(%13, %17) {device = "", equation = "acbe,aecd->abcd"} : (tensor<?x3x7x7xf32>, tensor<?x7x3x5xf32>) -> tensor<?x7x3x5xf32>
    %19 = "tf.Einsum"(%18, %1) {device = "", equation = "abcd,cde->abe"} : (tensor<?x7x3x5xf32>, tensor<3x5x5xf32>) -> tensor<?x7x5xf32>
    %20 = "tf.AddV2"(%19, %0) {device = ""} : (tensor<?x7x5xf32>, tensor<5xf32>) -> tensor<?x7x5xf32>
    %21 = "tf.Identity"(%20) {device = ""} : (tensor<?x7x5xf32>) -> tensor<?x7x5xf32>
    return %21 : tensor<?x7x5xf32>
  }
  func.func private @__inference_multi_head_attention_layer_call_fn_4250(%arg0: tensor<?x7x5xf32> {tf._user_specified_name = "query"}, %arg1: tensor<?x7x5xf32> {tf._user_specified_name = "value"}, %arg2: tensor<!tf_type.resource> {tf._user_specified_name = "407"}, %arg3: tensor<!tf_type.resource> {tf._user_specified_name = "409"}, %arg4: tensor<!tf_type.resource> {tf._user_specified_name = "411"}, %arg5: tensor<!tf_type.resource> {tf._user_specified_name = "413"}, %arg6: tensor<!tf_type.resource> {tf._user_specified_name = "415"}, %arg7: tensor<!tf_type.resource> {tf._user_specified_name = "417"}, %arg8: tensor<!tf_type.resource> {tf._user_specified_name = "419"}, %arg9: tensor<!tf_type.resource> {tf._user_specified_name = "421"}) -> tensor<*xf32> attributes {tf._construction_context = "kEagerRuntime", tf._input_shapes = [#tf_type.shape<?x7x5>, #tf_type.shape<?x7x5>, #tf_type.shape<>, #tf_type.shape<>, #tf_type.shape<>, #tf_type.shape<>, #tf_type.shape<>, #tf_type.shape<>, #tf_type.shape<>, #tf_type.shape<>], tf.signature.is_stateful} {
    %0 = "tf.StatefulPartitionedCall"(%arg0, %arg1, %arg2, %arg3, %arg4, %arg5, %arg6, %arg7, %arg8, %arg9) {_collective_manager_ids = [], _read_only_resource_inputs = [2, 3, 4, 5, 6, 7, 8, 9], config = "", config_proto = "\0A\07\0A\03CPU\10\01\0A\07\0A\03GPU\10\002\02J\008\01\82\01\00", device = "", executor_type = "", f = @__inference_multi_head_attention_layer_call_and_return_conditional_losses_2420} : (tensor<?x7x5xf32>, tensor<?x7x5xf32>, tensor<!tf_type.resource>, tensor<!tf_type.resource>, tensor<!tf_type.resource>, tensor<!tf_type.resource>, tensor<!tf_type.resource>, tensor<!tf_type.resource>, tensor<!tf_type.resource>, tensor<!tf_type.resource>) -> tensor<*xf32>
    %1 = "tf.Identity"(%0) {device = ""} : (tensor<*xf32>) -> tensor<*xf32>
    return %1 : tensor<*xf32>
  }
  func.func private @__inference_multi_head_attention_layer_call_fn_4470(%arg0: tensor<?x7x5xf32> {tf._user_specified_name = "query"}, %arg1: tensor<?x7x5xf32> {tf._user_specified_name = "value"}, %arg2: tensor<!tf_type.resource> {tf._user_specified_name = "429"}, %arg3: tensor<!tf_type.resource> {tf._user_specified_name = "431"}, %arg4: tensor<!tf_type.resource> {tf._user_specified_name = "433"}, %arg5: tensor<!tf_type.resource> {tf._user_specified_name = "435"}, %arg6: tensor<!tf_type.resource> {tf._user_specified_name = "437"}, %arg7: tensor<!tf_type.resource> {tf._user_specified_name = "439"}, %arg8: tensor<!tf_type.resource> {tf._user_specified_name = "441"}, %arg9: tensor<!tf_type.resource> {tf._user_specified_name = "443"}) -> tensor<*xf32> attributes {tf._construction_context = "kEagerRuntime", tf._input_shapes = [#tf_type.shape<?x7x5>, #tf_type.shape<?x7x5>, #tf_type.shape<>, #tf_type.shape<>, #tf_type.shape<>, #tf_type.shape<>, #tf_type.shape<>, #tf_type.shape<>, #tf_type.shape<>, #tf_type.shape<>], tf.signature.is_stateful} {
    %0 = "tf.StatefulPartitionedCall"(%arg0, %arg1, %arg2, %arg3, %arg4, %arg5, %arg6, %arg7, %arg8, %arg9) {_collective_manager_ids = [], _read_only_resource_inputs = [2, 3, 4, 5, 6, 7, 8, 9], config = "", config_proto = "\0A\07\0A\03CPU\10\01\0A\07\0A\03GPU\10\002\02J\008\01\82\01\00", device = "", executor_type = "", f = @__inference_multi_head_attention_layer_call_and_return_conditional_losses_2980} : (tensor<?x7x5xf32>, tensor<?x7x5xf32>, tensor<!tf_type.resource>, tensor<!tf_type.resource>, tensor<!tf_type.resource>, tensor<!tf_type.resource>, tensor<!tf_type.resource>, tensor<!tf_type.resource>, tensor<!tf_type.resource>, tensor<!tf_type.resource>) -> tensor<*xf32>
    %1 = "tf.Identity"(%0) {device = ""} : (tensor<*xf32>) -> tensor<*xf32>
    return %1 : tensor<*xf32>
  }
  func.func private @__inference_transformer_encoder_layer_call_and_return_conditional_losses_2610(%arg0: tensor<?x7x5xf32> {tf._user_specified_name = "inputs"}, %arg1: tensor<!tf_type.resource> {tf._user_specified_name = "243"}, %arg2: tensor<!tf_type.resource> {tf._user_specified_name = "245"}, %arg3: tensor<!tf_type.resource> {tf._user_specified_name = "247"}, %arg4: tensor<!tf_type.resource> {tf._user_specified_name = "249"}, %arg5: tensor<!tf_type.resource> {tf._user_specified_name = "251"}, %arg6: tensor<!tf_type.resource> {tf._user_specified_name = "253"}, %arg7: tensor<!tf_type.resource> {tf._user_specified_name = "255"}, %arg8: tensor<!tf_type.resource> {tf._user_specified_name = "257"}) -> tensor<*xf32> attributes {tf._construction_context = "kEagerRuntime", tf._input_shapes = [#tf_type.shape<?x7x5>, #tf_type.shape<>, #tf_type.shape<>, #tf_type.shape<>, #tf_type.shape<>, #tf_type.shape<>, #tf_type.shape<>, #tf_type.shape<>, #tf_type.shape<>], tf.signature.is_stateful} {
    %0 = "tf.StatefulPartitionedCall"(%arg0, %arg0, %arg1, %arg2, %arg3, %arg4, %arg5, %arg6, %arg7, %arg8) {_collective_manager_ids = [], _read_only_resource_inputs = [2, 3, 4, 5, 6, 7, 8, 9], config = "", config_proto = "\0A\07\0A\03CPU\10\01\0A\07\0A\03GPU\10\002\02J\008\01\82\01\00", device = "", executor_type = "", f = @__inference_multi_head_attention_layer_call_and_return_conditional_losses_2420} : (tensor<?x7x5xf32>, tensor<?x7x5xf32>, tensor<!tf_type.resource>, tensor<!tf_type.resource>, tensor<!tf_type.resource>, tensor<!tf_type.resource>, tensor<!tf_type.resource>, tensor<!tf_type.resource>, tensor<!tf_type.resource>, tensor<!tf_type.resource>) -> tensor<*xf32>
    %1 = "tf.Identity"(%0) {device = ""} : (tensor<*xf32>) -> tensor<*xf32>
    return %1 : tensor<*xf32>
  }
  func.func private @__inference_transformer_encoder_layer_call_and_return_conditional_losses_3170(%arg0: tensor<?x7x5xf32> {tf._user_specified_name = "inputs"}, %arg1: tensor<!tf_type.resource> {tf._user_specified_name = "299"}, %arg2: tensor<!tf_type.resource> {tf._user_specified_name = "301"}, %arg3: tensor<!tf_type.resource> {tf._user_specified_name = "303"}, %arg4: tensor<!tf_type.resource> {tf._user_specified_name = "305"}, %arg5: tensor<!tf_type.resource> {tf._user_specified_name = "307"}, %arg6: tensor<!tf_type.resource> {tf._user_specified_name = "309"}, %arg7: tensor<!tf_type.resource> {tf._user_specified_name = "311"}, %arg8: tensor<!tf_type.resource> {tf._user_specified_name = "313"}) -> tensor<*xf32> attributes {tf._construction_context = "kEagerRuntime", tf._input_shapes = [#tf_type.shape<?x7x5>, #tf_type.shape<>, #tf_type.shape<>, #tf_type.shape<>, #tf_type.shape<>, #tf_type.shape<>, #tf_type.shape<>, #tf_type.shape<>, #tf_type.shape<>], tf.signature.is_stateful} {
    %0 = "tf.StatefulPartitionedCall"(%arg0, %arg0, %arg1, %arg2, %arg3, %arg4, %arg5, %arg6, %arg7, %arg8) {_collective_manager_ids = [], _read_only_resource_inputs = [2, 3, 4, 5, 6, 7, 8, 9], config = "", config_proto = "\0A\07\0A\03CPU\10\01\0A\07\0A\03GPU\10\002\02J\008\01\82\01\00", device = "", executor_type = "", f = @__inference_multi_head_attention_layer_call_and_return_conditional_losses_2980} : (tensor<?x7x5xf32>, tensor<?x7x5xf32>, tensor<!tf_type.resource>, tensor<!tf_type.resource>, tensor<!tf_type.resource>, tensor<!tf_type.resource>, tensor<!tf_type.resource>, tensor<!tf_type.resource>, tensor<!tf_type.resource>, tensor<!tf_type.resource>) -> tensor<*xf32>
    %1 = "tf.Identity"(%0) {device = ""} : (tensor<*xf32>) -> tensor<*xf32>
    return %1 : tensor<*xf32>
  }
  func.func private @__inference_transformer_encoder_layer_call_fn_3380(%arg0: tensor<?x7x5xf32> {tf._user_specified_name = "inputs"}, %arg1: tensor<!tf_type.resource> {tf._user_specified_name = "320"}, %arg2: tensor<!tf_type.resource> {tf._user_specified_name = "322"}, %arg3: tensor<!tf_type.resource> {tf._user_specified_name = "324"}, %arg4: tensor<!tf_type.resource> {tf._user_specified_name = "326"}, %arg5: tensor<!tf_type.resource> {tf._user_specified_name = "328"}, %arg6: tensor<!tf_type.resource> {tf._user_specified_name = "330"}, %arg7: tensor<!tf_type.resource> {tf._user_specified_name = "332"}, %arg8: tensor<!tf_type.resource> {tf._user_specified_name = "334"}) -> tensor<*xf32> attributes {tf._construction_context = "kEagerRuntime", tf._input_shapes = [#tf_type.shape<?x7x5>, #tf_type.shape<>, #tf_type.shape<>, #tf_type.shape<>, #tf_type.shape<>, #tf_type.shape<>, #tf_type.shape<>, #tf_type.shape<>, #tf_type.shape<>], tf.signature.is_stateful} {
    %0 = "tf.StatefulPartitionedCall"(%arg0, %arg1, %arg2, %arg3, %arg4, %arg5, %arg6, %arg7, %arg8) {_collective_manager_ids = [], _read_only_resource_inputs = [1, 2, 3, 4, 5, 6, 7, 8], config = "", config_proto = "\0A\07\0A\03CPU\10\01\0A\07\0A\03GPU\10\002\02J\008\01\82\01\00", device = "", executor_type = "", f = @__inference_transformer_encoder_layer_call_and_return_conditional_losses_2610} : (tensor<?x7x5xf32>, tensor<!tf_type.resource>, tensor<!tf_type.resource>, tensor<!tf_type.resource>, tensor<!tf_type.resource>, tensor<!tf_type.resource>, tensor<!tf_type.resource>, tensor<!tf_type.resource>, tensor<!tf_type.resource>) -> tensor<*xf32>
    %1 = "tf.Identity"(%0) {device = ""} : (tensor<*xf32>) -> tensor<*xf32>
    return %1 : tensor<*xf32>
  }
  func.func private @__inference_transformer_encoder_layer_call_fn_3590(%arg0: tensor<?x7x5xf32> {tf._user_specified_name = "inputs"}, %arg1: tensor<!tf_type.resource> {tf._user_specified_name = "341"}, %arg2: tensor<!tf_type.resource> {tf._user_specified_name = "343"}, %arg3: tensor<!tf_type.resource> {tf._user_specified_name = "345"}, %arg4: tensor<!tf_type.resource> {tf._user_specified_name = "347"}, %arg5: tensor<!tf_type.resource> {tf._user_specified_name = "349"}, %arg6: tensor<!tf_type.resource> {tf._user_specified_name = "351"}, %arg7: tensor<!tf_type.resource> {tf._user_specified_name = "353"}, %arg8: tensor<!tf_type.resource> {tf._user_specified_name = "355"}) -> tensor<*xf32> attributes {tf._construction_context = "kEagerRuntime", tf._input_shapes = [#tf_type.shape<?x7x5>, #tf_type.shape<>, #tf_type.shape<>, #tf_type.shape<>, #tf_type.shape<>, #tf_type.shape<>, #tf_type.shape<>, #tf_type.shape<>, #tf_type.shape<>], tf.signature.is_stateful} {
    %0 = "tf.StatefulPartitionedCall"(%arg0, %arg1, %arg2, %arg3, %arg4, %arg5, %arg6, %arg7, %arg8) {_collective_manager_ids = [], _read_only_resource_inputs = [1, 2, 3, 4, 5, 6, 7, 8], config = "", config_proto = "\0A\07\0A\03CPU\10\01\0A\07\0A\03GPU\10\002\02J\008\01\82\01\00", device = "", executor_type = "", f = @__inference_transformer_encoder_layer_call_and_return_conditional_losses_3170} : (tensor<?x7x5xf32>, tensor<!tf_type.resource>, tensor<!tf_type.resource>, tensor<!tf_type.resource>, tensor<!tf_type.resource>, tensor<!tf_type.resource>, tensor<!tf_type.resource>, tensor<!tf_type.resource>, tensor<!tf_type.resource>) -> tensor<*xf32>
    %1 = "tf.Identity"(%0) {device = ""} : (tensor<*xf32>) -> tensor<*xf32>
    return %1 : tensor<*xf32>
  }
}

