module attributes {tf.versions = {bad_consumers = [], min_consumer = 12 : i32, producer = 1482 : i32}, tf_saved_model.semantics} {
  "tf_saved_model.global_tensor"() {is_mutable, sym_name = "__sm_node27__model.layer-1._query_dense.kernel", tf_saved_model.exported_names = [], type = tensor<5x3x5xf32>, value = dense<[[[… > : tensor<5x3x5xf32>} : () -> ()
  "tf_saved_model.global_tensor"() {is_mutable, sym_name = "__sm_node28__model.layer-1._query_dense.bias", tf_saved_model.exported_names = [], type = tensor<3x5xf32>, value = dense<0.000000e+00> : tensor<3x5xf32>} : () -> ()
  "tf_saved_model.global_tensor"() {is_mutable, sym_name = "__sm_node29__model.layer-1._key_dense.kernel", tf_saved_model.exported_names = [], type = tensor<5x3x5xf32>, value = dense<[[[… > : tensor<5x3x5xf32>} : () -> ()
  "tf_saved_model.global_tensor"() {is_mutable, sym_name = "__sm_node30__model.layer-1._key_dense.bias", tf_saved_model.exported_names = [], type = tensor<3x5xf32>, value = dense<0.000000e+00> : tensor<3x5xf32>} : () -> ()
  "tf_saved_model.global_tensor"() {is_mutable, sym_name = "__sm_node31__model.layer-1._value_dense.kernel", tf_saved_model.exported_names = [], type = tensor<5x3x5xf32>, value = dense<[[[… > : tensor<5x3x5xf32>} : () -> ()
  "tf_saved_model.global_tensor"() {is_mutable, sym_name = "__sm_node32__model.layer-1._value_dense.bias", tf_saved_model.exported_names = [], type = tensor<3x5xf32>, value = dense<0.000000e+00> : tensor<3x5xf32>} : () -> ()
  "tf_saved_model.global_tensor"() {is_mutable, sym_name = "__sm_node33__model.layer-1._output_dense.kernel", tf_saved_model.exported_names = [], type = tensor<3x5x5xf32>, value = dense<[[[… > : tensor<3x5x5xf32>} : () -> ()
  "tf_saved_model.global_tensor"() {is_mutable, sym_name = "__sm_node34__model.layer-1._output_dense.bias", tf_saved_model.exported_names = [], type = tensor<5xf32>, value = dense<0.000000e+00> : tensor<5xf32>} : () -> ()
  func.func @__inference_my_predict_1490(%arg0: tensor<16x7x5xf32> {tf._user_specified_name = "x", tf_saved_model.index_path = [0]}, %arg1: tensor<!tf_type.resource<tensor<5x3x5xf32>>> {tf._user_specified_name = "resource", tf_saved_model.bound_input = @"__sm_node27__model.layer-1._query_dense.kernel"}, %arg2: tensor<!tf_type.resource<tensor<3x5xf32>>> {tf._user_specified_name = "resource", tf_saved_model.bound_input = @"__sm_node28__model.layer-1._query_dense.bias"}, %arg3: tensor<!tf_type.resource<tensor<5x3x5xf32>>> {tf._user_specified_name = "resource", tf_saved_model.bound_input = @"__sm_node29__model.layer-1._key_dense.kernel"}, %arg4: tensor<!tf_type.resource<tensor<3x5xf32>>> {tf._user_specified_name = "resource", tf_saved_model.bound_input = @"__sm_node30__model.layer-1._key_dense.bias"}, %arg5: tensor<!tf_type.resource<tensor<5x3x5xf32>>> {tf._user_specified_name = "resource", tf_saved_model.bound_input = @"__sm_node31__model.layer-1._value_dense.kernel"}, %arg6: tensor<!tf_type.resource<tensor<3x5xf32>>> {tf._user_specified_name = "resource", tf_saved_model.bound_input = @"__sm_node32__model.layer-1._value_dense.bias"}, %arg7: tensor<!tf_type.resource<tensor<3x5x5xf32>>> {tf._user_specified_name = "resource", tf_saved_model.bound_input = @"__sm_node33__model.layer-1._output_dense.kernel"}, %arg8: tensor<!tf_type.resource<tensor<5xf32>>> {tf._user_specified_name = "resource", tf_saved_model.bound_input = @"__sm_node34__model.layer-1._output_dense.bias"}) -> (tensor<16x7x5xf32> {tf_saved_model.index_path = []}) attributes {tf._construction_context = "kEagerRuntime", tf._input_shapes = [#tf_type.shape<16x7x5>, #tf_type.shape<>, #tf_type.shape<>, #tf_type.shape<>, #tf_type.shape<>, #tf_type.shape<>, #tf_type.shape<>, #tf_type.shape<>, #tf_type.shape<>], tf.signature.is_stateful, tf_saved_model.exported_names = ["my_predict"]} {
    %cst = arith.constant 0.44721359 : f32
    %cst_0 = arith.constant 1.000000e+00 : f32
    %cst_1 = arith.constant -3.40282347E+38 : f32
    %cst_2 = arith.constant 0.000000e+00 : f32
    %0 = "tf.ReadVariableOp"(%arg8) : (tensor<!tf_type.resource<tensor<5xf32>>>) -> tensor<5xf32>
    %1 = bufferization.to_memref %0 : memref<5xf32>
    %2 = "tf.ReadVariableOp"(%arg7) : (tensor<!tf_type.resource<tensor<3x5x5xf32>>>) -> tensor<3x5x5xf32>
    %3 = "tf.ReadVariableOp"(%arg4) : (tensor<!tf_type.resource<tensor<3x5xf32>>>) -> tensor<3x5xf32>
    %4 = bufferization.to_memref %3 : memref<3x5xf32>
    %5 = "tf.ReadVariableOp"(%arg3) : (tensor<!tf_type.resource<tensor<5x3x5xf32>>>) -> tensor<5x3x5xf32>
    %6 = "tf.ReadVariableOp"(%arg2) : (tensor<!tf_type.resource<tensor<3x5xf32>>>) -> tensor<3x5xf32>
    %7 = bufferization.to_memref %6 : memref<3x5xf32>
    %8 = "tf.ReadVariableOp"(%arg1) : (tensor<!tf_type.resource<tensor<5x3x5xf32>>>) -> tensor<5x3x5xf32>
    %9 = "tf.ReadVariableOp"(%arg6) : (tensor<!tf_type.resource<tensor<3x5xf32>>>) -> tensor<3x5xf32>
    %10 = bufferization.to_memref %9 : memref<3x5xf32>
    %11 = "tf.ReadVariableOp"(%arg5) : (tensor<!tf_type.resource<tensor<5x3x5xf32>>>) -> tensor<5x3x5xf32>
    %collapsed = tensor.collapse_shape %5 [[0], [1, 2]] : tensor<5x3x5xf32> into tensor<5x15xf32>
    %12 = "tf.BatchMatMulV2"(%arg0, %collapsed) {adj_x = false, adj_y = false} : (tensor<16x7x5xf32>, tensor<5x15xf32>) -> tensor<16x7x15xf32>
    %expanded = tensor.expand_shape %12 [[0], [1], [2, 3]] : tensor<16x7x15xf32> into tensor<16x7x3x5xf32>
    %13 = bufferization.to_memref %expanded : memref<16x7x3x5xf32>
    %collapsed_3 = tensor.collapse_shape %8 [[0], [1, 2]] : tensor<5x3x5xf32> into tensor<5x15xf32>
    %14 = "tf.BatchMatMulV2"(%arg0, %collapsed_3) {adj_x = false, adj_y = false} : (tensor<16x7x5xf32>, tensor<5x15xf32>) -> tensor<16x7x15xf32>
    %expanded_4 = tensor.expand_shape %14 [[0], [1], [2, 3]] : tensor<16x7x15xf32> into tensor<16x7x3x5xf32>
    %15 = bufferization.to_memref %expanded_4 : memref<16x7x3x5xf32>
    %alloc = memref.alloc() {alignment = 64 : i64} : memref<16x3x7x5xf32>
    affine.for %arg9 = 0 to 16 {
      affine.for %arg10 = 0 to 3 {
        affine.for %arg11 = 0 to 7 {
          affine.for %arg12 = 0 to 5 {
            %34 = affine.load %13[%arg9, %arg11, %arg10, %arg12] : memref<16x7x3x5xf32>
            %35 = affine.load %4[%arg10, %arg12] : memref<3x5xf32>
            %36 = arith.addf %34, %35 : f32
            affine.store %36, %alloc[%arg9, %arg10, %arg11, %arg12] : memref<16x3x7x5xf32>
          }
        }
      }
    }
    %16 = bufferization.to_tensor %alloc : memref<16x3x7x5xf32>
    %alloc_5 = memref.alloc() {alignment = 64 : i64} : memref<16x3x5x7xf32>
    affine.for %arg9 = 0 to 16 {
      affine.for %arg10 = 0 to 3 {
        affine.for %arg11 = 0 to 5 {
          affine.for %arg12 = 0 to 7 {
            %34 = affine.load %15[%arg9, %arg12, %arg10, %arg11] : memref<16x7x3x5xf32>
            %35 = affine.load %7[%arg10, %arg11] : memref<3x5xf32>
            %36 = arith.addf %34, %35 : f32
            %37 = arith.mulf %36, %cst : f32
            affine.store %37, %alloc_5[%arg9, %arg10, %arg11, %arg12] : memref<16x3x5x7xf32>
          }
        }
      }
    }
    %17 = bufferization.to_tensor %alloc_5 : memref<16x3x5x7xf32>
    %collapsed_6 = tensor.collapse_shape %16 [[0, 1], [2], [3]] : tensor<16x3x7x5xf32> into tensor<48x7x5xf32>
    %18 = bufferization.to_memref %collapsed_6 : memref<48x7x5xf32>
    %collapsed_7 = tensor.collapse_shape %17 [[0, 1], [2], [3]] : tensor<16x3x5x7xf32> into tensor<48x5x7xf32>
    %19 = bufferization.to_memref %collapsed_7 : memref<48x5x7xf32>
    %alloc_8 = memref.alloc() {alignment = 64 : i64} : memref<48x7x7xf32>
    affine.for %arg9 = 0 to 48 {
      affine.for %arg10 = 0 to 7 {
        affine.for %arg11 = 0 to 7 {
          affine.store %cst_2, %alloc_8[%arg9, %arg10, %arg11] : memref<48x7x7xf32>
        }
      }
    }
    %alloc_9 = memref.alloc() {alignment = 64 : i64} : memref<48x7x7xf32>
    memref.copy %alloc_8, %alloc_9 : memref<48x7x7xf32> to memref<48x7x7xf32>
    affine.for %arg9 = 0 to 48 {
      affine.for %arg10 = 0 to 7 {
        affine.for %arg11 = 0 to 7 {
          affine.for %arg12 = 0 to 5 {
            %34 = affine.load %18[%arg9, %arg10, %arg12] : memref<48x7x5xf32>
            %35 = affine.load %19[%arg9, %arg12, %arg11] : memref<48x5x7xf32>
            %36 = affine.load %alloc_9[%arg9, %arg10, %arg11] : memref<48x7x7xf32>
            %37 = arith.mulf %34, %35 : f32
            %38 = arith.addf %36, %37 : f32
            affine.store %38, %alloc_9[%arg9, %arg10, %arg11] : memref<48x7x7xf32>
          }
        }
      }
    }
    %20 = bufferization.to_tensor %alloc_9 : memref<48x7x7xf32>
    %expanded_10 = tensor.expand_shape %20 [[0, 1], [2], [3]] : tensor<48x7x7xf32> into tensor<16x3x7x7xf32>
    %21 = bufferization.to_memref %expanded_10 : memref<16x3x7x7xf32>
    %alloc_11 = memref.alloc() {alignment = 64 : i64} : memref<16x3x7x7xf32>
    affine.for %arg9 = 0 to 16 {
      affine.for %arg10 = 0 to 3 {
        affine.for %arg11 = 0 to 7 {
          affine.for %arg12 = 0 to 7 {
            %34 = affine.load %21[%arg9, %arg10, %arg12, %arg11] : memref<16x3x7x7xf32>
            affine.store %34, %alloc_11[%arg9, %arg10, %arg11, %arg12] : memref<16x3x7x7xf32>
          }
        }
      }
    }
    %alloc_12 = memref.alloc() {alignment = 64 : i64} : memref<16x3x7xf32>
    affine.for %arg9 = 0 to 16 {
      affine.for %arg10 = 0 to 3 {
        affine.for %arg11 = 0 to 7 {
          affine.store %cst_1, %alloc_12[%arg9, %arg10, %arg11] : memref<16x3x7xf32>
        }
      }
    }
    %alloc_13 = memref.alloc() {alignment = 64 : i64} : memref<16x3x7xf32>
    memref.copy %alloc_12, %alloc_13 : memref<16x3x7xf32> to memref<16x3x7xf32>
    affine.for %arg9 = 0 to 16 {
      affine.for %arg10 = 0 to 3 {
        affine.for %arg11 = 0 to 7 {
          affine.for %arg12 = 0 to 7 {
            %34 = affine.load %alloc_11[%arg9, %arg10, %arg11, %arg12] : memref<16x3x7x7xf32>
            %35 = affine.load %alloc_13[%arg9, %arg10, %arg11] : memref<16x3x7xf32>
            %36 = arith.maximumf %34, %35 : f32
            affine.store %36, %alloc_13[%arg9, %arg10, %arg11] : memref<16x3x7xf32>
          }
        }
      }
    }
    %alloc_14 = memref.alloc() {alignment = 64 : i64} : memref<16x3x7x7xf32>
    affine.for %arg9 = 0 to 16 {
      affine.for %arg10 = 0 to 3 {
        affine.for %arg11 = 0 to 7 {
          affine.for %arg12 = 0 to 7 {
            %34 = affine.load %alloc_11[%arg9, %arg10, %arg11, %arg12] : memref<16x3x7x7xf32>
            %35 = affine.load %alloc_13[%arg9, %arg10, %arg11] : memref<16x3x7xf32>
            %36 = arith.subf %34, %35 : f32
            %37 = math.exp %36 : f32
            affine.store %37, %alloc_14[%arg9, %arg10, %arg11, %arg12] : memref<16x3x7x7xf32>
          }
        }
      }
    }
    %alloc_15 = memref.alloc() {alignment = 64 : i64} : memref<16x3x7xf32>
    affine.for %arg9 = 0 to 16 {
      affine.for %arg10 = 0 to 3 {
        affine.for %arg11 = 0 to 7 {
          affine.store %cst_2, %alloc_15[%arg9, %arg10, %arg11] : memref<16x3x7xf32>
        }
      }
    }
    %alloc_16 = memref.alloc() {alignment = 64 : i64} : memref<16x3x7xf32>
    memref.copy %alloc_15, %alloc_16 : memref<16x3x7xf32> to memref<16x3x7xf32>
    affine.for %arg9 = 0 to 16 {
      affine.for %arg10 = 0 to 3 {
        affine.for %arg11 = 0 to 7 {
          affine.for %arg12 = 0 to 7 {
            %34 = affine.load %alloc_14[%arg9, %arg10, %arg11, %arg12] : memref<16x3x7x7xf32>
            %35 = affine.load %alloc_16[%arg9, %arg10, %arg11] : memref<16x3x7xf32>
            %36 = arith.addf %34, %35 : f32
            affine.store %36, %alloc_16[%arg9, %arg10, %arg11] : memref<16x3x7xf32>
          }
        }
      }
    }
    %alloc_17 = memref.alloc() {alignment = 64 : i64} : memref<16x3x7x7xf32>
    affine.for %arg9 = 0 to 16 {
      affine.for %arg10 = 0 to 3 {
        affine.for %arg11 = 0 to 7 {
          affine.for %arg12 = 0 to 7 {
            %34 = affine.load %alloc_14[%arg9, %arg10, %arg11, %arg12] : memref<16x3x7x7xf32>
            %35 = affine.load %alloc_16[%arg9, %arg10, %arg11] : memref<16x3x7xf32>
            %36 = arith.divf %cst_0, %35 : f32
            %37 = arith.mulf %34, %36 : f32
            affine.store %37, %alloc_17[%arg9, %arg10, %arg11, %arg12] : memref<16x3x7x7xf32>
          }
        }
      }
    }
    %22 = bufferization.to_tensor %alloc_17 : memref<16x3x7x7xf32>
    %collapsed_18 = tensor.collapse_shape %11 [[0], [1, 2]] : tensor<5x3x5xf32> into tensor<5x15xf32>
    %23 = "tf.BatchMatMulV2"(%arg0, %collapsed_18) {adj_x = false, adj_y = false} : (tensor<16x7x5xf32>, tensor<5x15xf32>) -> tensor<16x7x15xf32>
    %expanded_19 = tensor.expand_shape %23 [[0], [1], [2, 3]] : tensor<16x7x15xf32> into tensor<16x7x3x5xf32>
    %24 = bufferization.to_memref %expanded_19 : memref<16x7x3x5xf32>
    %alloc_20 = memref.alloc() {alignment = 64 : i64} : memref<16x3x7x5xf32>
    affine.for %arg9 = 0 to 16 {
      affine.for %arg10 = 0 to 3 {
        affine.for %arg11 = 0 to 7 {
          affine.for %arg12 = 0 to 5 {
            %34 = affine.load %24[%arg9, %arg11, %arg10, %arg12] : memref<16x7x3x5xf32>
            %35 = affine.load %10[%arg10, %arg12] : memref<3x5xf32>
            %36 = arith.addf %34, %35 : f32
            affine.store %36, %alloc_20[%arg9, %arg10, %arg11, %arg12] : memref<16x3x7x5xf32>
          }
        }
      }
    }
    %25 = bufferization.to_tensor %alloc_20 : memref<16x3x7x5xf32>
    %collapsed_21 = tensor.collapse_shape %22 [[0, 1], [2], [3]] : tensor<16x3x7x7xf32> into tensor<48x7x7xf32>
    %26 = bufferization.to_memref %collapsed_21 : memref<48x7x7xf32>
    %collapsed_22 = tensor.collapse_shape %25 [[0, 1], [2], [3]] : tensor<16x3x7x5xf32> into tensor<48x7x5xf32>
    %27 = bufferization.to_memref %collapsed_22 : memref<48x7x5xf32>
    %alloc_23 = memref.alloc() {alignment = 64 : i64} : memref<48x7x5xf32>
    affine.for %arg9 = 0 to 48 {
      affine.for %arg10 = 0 to 7 {
        affine.for %arg11 = 0 to 5 {
          affine.store %cst_2, %alloc_23[%arg9, %arg10, %arg11] : memref<48x7x5xf32>
        }
      }
    }
    %alloc_24 = memref.alloc() {alignment = 64 : i64} : memref<48x7x5xf32>
    memref.copy %alloc_23, %alloc_24 : memref<48x7x5xf32> to memref<48x7x5xf32>
    affine.for %arg9 = 0 to 48 {
      affine.for %arg10 = 0 to 7 {
        affine.for %arg11 = 0 to 5 {
          affine.for %arg12 = 0 to 7 {
            %34 = affine.load %26[%arg9, %arg10, %arg12] : memref<48x7x7xf32>
            %35 = affine.load %27[%arg9, %arg12, %arg11] : memref<48x7x5xf32>
            %36 = affine.load %alloc_24[%arg9, %arg10, %arg11] : memref<48x7x5xf32>
            %37 = arith.mulf %34, %35 : f32
            %38 = arith.addf %36, %37 : f32
            affine.store %38, %alloc_24[%arg9, %arg10, %arg11] : memref<48x7x5xf32>
            // %alloc_24[%arg9, %arg10, %arg11] <- %alloc_24[%arg9, %arg10, %arg11] + %26[%arg9, %arg10, %arg12] * %27[%arg9, %arg12, %arg11]
          }
        }
      }
    }
    %28 = bufferization.to_tensor %alloc_24 : memref<48x7x5xf32>
    %expanded_25 = tensor.expand_shape %28 [[0, 1], [2], [3]] : tensor<48x7x5xf32> into tensor<16x3x7x5xf32>
    %29 = bufferization.to_memref %expanded_25 : memref<16x3x7x5xf32>
    %alloc_26 = memref.alloc() {alignment = 64 : i64} : memref<16x7x3x5xf32>
    affine.for %arg9 = 0 to 16 {
      affine.for %arg10 = 0 to 7 {
        affine.for %arg11 = 0 to 3 {
          affine.for %arg12 = 0 to 5 {
            %34 = affine.load %29[%arg9, %arg11, %arg10, %arg12] : memref<16x3x7x5xf32>
            affine.store %34, %alloc_26[%arg9, %arg10, %arg11, %arg12] : memref<16x7x3x5xf32>
          }
        }
      }
    }
    %30 = bufferization.to_tensor %alloc_26 : memref<16x7x3x5xf32>
    %collapsed_27 = tensor.collapse_shape %30 [[0], [1], [2, 3]] : tensor<16x7x3x5xf32> into tensor<16x7x15xf32>
    %collapsed_28 = tensor.collapse_shape %2 [[0, 1], [2]] : tensor<3x5x5xf32> into tensor<15x5xf32>
    %31 = "tf.BatchMatMulV2"(%collapsed_27, %collapsed_28) {adj_x = false, adj_y = false} : (tensor<16x7x15xf32>, tensor<15x5xf32>) -> tensor<16x7x5xf32>
    %32 = bufferization.to_memref %31 : memref<16x7x5xf32>
    %alloc_29 = memref.alloc() {alignment = 64 : i64} : memref<16x7x5xf32>
    affine.for %arg9 = 0 to 16 {
      affine.for %arg10 = 0 to 7 {
        affine.for %arg11 = 0 to 5 {
          %34 = affine.load %32[%arg9, %arg10, %arg11] : memref<16x7x5xf32>
          %35 = affine.load %1[%arg11] : memref<5xf32>
          %36 = arith.addf %34, %35 : f32
          affine.store %36, %alloc_29[%arg9, %arg10, %arg11] : memref<16x7x5xf32>
        }
      }
    }
    %33 = bufferization.to_tensor %alloc_29 : memref<16x7x5xf32>
    return %33 : tensor<16x7x5xf32>
  }
}

