#map = affine_map<(d0, d1, d2, d3) -> (d0, d1, d2, d3)>
#map1 = affine_map<(d0, d1, d2, d3) -> (0, 0, d2, d3)>
#map2 = affine_map<(d0, d1, d2, d3) -> (0, 0, 0, 0)>
#map3 = affine_map<(d0, d1, d2, d3) -> (d0, d2, d1, d3)>
#map4 = affine_map<(d0, d1, d2, d3) -> (d0, d3, d1, d2)>
#map5 = affine_map<(d0, d1, d2, d3) -> (d0, d1, d3, d2)>
#map6 = affine_map<(d0, d1, d2, d3) -> (d0, d1, d2)>
#map7 = affine_map<(d0, d1, d2, d3) -> (d0, d1, d2, 0)>
#map8 = affine_map<(d0, d1, d2) -> (d0, d1, d2)>
#map9 = affine_map<(d0, d1, d2) -> (0, 0, d2)>
module attributes {tf.versions = {bad_consumers = [], min_consumer = 12 : i32, producer = 1482 : i32}, tf_saved_model.semantics} {
  "tf_saved_model.global_tensor"() {is_mutable, sym_name = "__sm_node27__model.layer-1._query_dense.kernel", tf_saved_model.exported_names = [], type = tensor<5x3x5xf32>, value = dense<[[[… > : tensor<5x3x5xf32>} : () -> ()
  "tf_saved_model.global_tensor"() {is_mutable, sym_name = "__sm_node28__model.layer-1._query_dense.bias", tf_saved_model.exported_names = [], type = tensor<3x5xf32>, value = dense<0.000000e+00> : tensor<3x5xf32>} : () -> ()
  "tf_saved_model.global_tensor"() {is_mutable, sym_name = "__sm_node29__model.layer-1._key_dense.kernel", tf_saved_model.exported_names = [], type = tensor<5x3x5xf32>, value = dense<[[[… > : tensor<5x3x5xf32>} : () -> ()
  "tf_saved_model.global_tensor"() {is_mutable, sym_name = "__sm_node30__model.layer-1._key_dense.bias", tf_saved_model.exported_names = [], type = tensor<3x5xf32>, value = dense<0.000000e+00> : tensor<3x5xf32>} : () -> ()
  "tf_saved_model.global_tensor"() {is_mutable, sym_name = "__sm_node31__model.layer-1._value_dense.kernel", tf_saved_model.exported_names = [], type = tensor<5x3x5xf32>, value = dense<[[[… > : tensor<5x3x5xf32>} : () -> ()
  "tf_saved_model.global_tensor"() {is_mutable, sym_name = "__sm_node32__model.layer-1._value_dense.bias", tf_saved_model.exported_names = [], type = tensor<3x5xf32>, value = dense<0.000000e+00> : tensor<3x5xf32>} : () -> ()
  "tf_saved_model.global_tensor"() {is_mutable, sym_name = "__sm_node33__model.layer-1._output_dense.kernel", tf_saved_model.exported_names = [], type = tensor<3x5x5xf32>, value = dense<[[[… > : tensor<3x5x5xf32>} : () -> ()
  "tf_saved_model.global_tensor"() {is_mutable, sym_name = "__sm_node34__model.layer-1._output_dense.bias", tf_saved_model.exported_names = [], type = tensor<5xf32>, value = dense<0.000000e+00> : tensor<5xf32>} : () -> ()
  func.func @__inference_my_predict_1490(%arg0: tensor<16x7x5xf32> {tf._user_specified_name = "x", tf_saved_model.index_path = [0]}, %arg1: tensor<!tf_type.resource<tensor<5x3x5xf32>>> {tf._user_specified_name = "resource", tf_saved_model.bound_input = @"__sm_node27__model.layer-1._query_dense.kernel"}, %arg2: tensor<!tf_type.resource<tensor<3x5xf32>>> {tf._user_specified_name = "resource", tf_saved_model.bound_input = @"__sm_node28__model.layer-1._query_dense.bias"}, %arg3: tensor<!tf_type.resource<tensor<5x3x5xf32>>> {tf._user_specified_name = "resource", tf_saved_model.bound_input = @"__sm_node29__model.layer-1._key_dense.kernel"}, %arg4: tensor<!tf_type.resource<tensor<3x5xf32>>> {tf._user_specified_name = "resource", tf_saved_model.bound_input = @"__sm_node30__model.layer-1._key_dense.bias"}, %arg5: tensor<!tf_type.resource<tensor<5x3x5xf32>>> {tf._user_specified_name = "resource", tf_saved_model.bound_input = @"__sm_node31__model.layer-1._value_dense.kernel"}, %arg6: tensor<!tf_type.resource<tensor<3x5xf32>>> {tf._user_specified_name = "resource", tf_saved_model.bound_input = @"__sm_node32__model.layer-1._value_dense.bias"}, %arg7: tensor<!tf_type.resource<tensor<3x5x5xf32>>> {tf._user_specified_name = "resource", tf_saved_model.bound_input = @"__sm_node33__model.layer-1._output_dense.kernel"}, %arg8: tensor<!tf_type.resource<tensor<5xf32>>> {tf._user_specified_name = "resource", tf_saved_model.bound_input = @"__sm_node34__model.layer-1._output_dense.bias"}) -> (tensor<16x7x5xf32> {tf_saved_model.index_path = []}) attributes {tf._construction_context = "kEagerRuntime", tf._input_shapes = [#tf_type.shape<16x7x5>, #tf_type.shape<>, #tf_type.shape<>, #tf_type.shape<>, #tf_type.shape<>, #tf_type.shape<>, #tf_type.shape<>, #tf_type.shape<>, #tf_type.shape<>], tf.signature.is_stateful, tf_saved_model.exported_names = ["my_predict"]} {
    %cst = arith.constant dense<0.44721359> : tensor<1x1x1x1xf32>
    %cst_0 = arith.constant dense<[0, 2, 1, 3]> : tensor<4xi32>
    %cst_1 = arith.constant dense<[0, 2, 3, 1]> : tensor<4xi32>
    %cst_2 = arith.constant dense<[0, 1, 3, 2]> : tensor<4xi32>
    %0 = "tf.ReadVariableOp"(%arg8) : (tensor<!tf_type.resource<tensor<5xf32>>>) -> tensor<5xf32>
    %1 = "tf.ReadVariableOp"(%arg7) : (tensor<!tf_type.resource<tensor<3x5x5xf32>>>) -> tensor<3x5x5xf32>
    %2 = "tf.ReadVariableOp"(%arg4) : (tensor<!tf_type.resource<tensor<3x5xf32>>>) -> tensor<3x5xf32>
    %3 = "tf.ReadVariableOp"(%arg3) : (tensor<!tf_type.resource<tensor<5x3x5xf32>>>) -> tensor<5x3x5xf32>
    %4 = "tf.ReadVariableOp"(%arg2) : (tensor<!tf_type.resource<tensor<3x5xf32>>>) -> tensor<3x5xf32>
    %5 = "tf.ReadVariableOp"(%arg1) : (tensor<!tf_type.resource<tensor<5x3x5xf32>>>) -> tensor<5x3x5xf32>
    %6 = "tf.ReadVariableOp"(%arg6) : (tensor<!tf_type.resource<tensor<3x5xf32>>>) -> tensor<3x5xf32>
    %7 = "tf.ReadVariableOp"(%arg5) : (tensor<!tf_type.resource<tensor<5x3x5xf32>>>) -> tensor<5x3x5xf32>
    %collapsed = tensor.collapse_shape %3 [[0], [1, 2]] : tensor<5x3x5xf32> into tensor<5x15xf32>
    %8 = "tf.BatchMatMulV2"(%arg0, %collapsed) {adj_x = false, adj_y = false} : (tensor<16x7x5xf32>, tensor<5x15xf32>) -> tensor<16x7x15xf32>
    %expanded = tensor.expand_shape %8 [[0], [1], [2, 3]] : tensor<16x7x15xf32> into tensor<16x7x3x5xf32>
    %expanded_3 = tensor.expand_shape %2 [[0, 1, 2], [3]] : tensor<3x5xf32> into tensor<1x1x3x5xf32>
    %9 = tensor.empty() : tensor<16x7x3x5xf32>
    %10 = linalg.generic {indexing_maps = [#map, #map1, #map], iterator_types = ["parallel", "parallel", "parallel", "parallel"]} ins(%expanded, %expanded_3 : tensor<16x7x3x5xf32>, tensor<1x1x3x5xf32>) outs(%9 : tensor<16x7x3x5xf32>) {
    ^bb0(%in: f32, %in_25: f32, %out: f32):
      %52 = arith.addf %in, %in_25 : f32
      linalg.yield %52 : f32
    } -> tensor<16x7x3x5xf32>
    %collapsed_4 = tensor.collapse_shape %5 [[0], [1, 2]] : tensor<5x3x5xf32> into tensor<5x15xf32>
    %11 = "tf.BatchMatMulV2"(%arg0, %collapsed_4) {adj_x = false, adj_y = false} : (tensor<16x7x5xf32>, tensor<5x15xf32>) -> tensor<16x7x15xf32>
    %expanded_5 = tensor.expand_shape %11 [[0], [1], [2, 3]] : tensor<16x7x15xf32> into tensor<16x7x3x5xf32>
    %expanded_6 = tensor.expand_shape %4 [[0, 1, 2], [3]] : tensor<3x5xf32> into tensor<1x1x3x5xf32>
    %12 = tensor.empty() : tensor<16x7x3x5xf32>
    %13 = linalg.generic {indexing_maps = [#map, #map1, #map], iterator_types = ["parallel", "parallel", "parallel", "parallel"]} ins(%expanded_5, %expanded_6 : tensor<16x7x3x5xf32>, tensor<1x1x3x5xf32>) outs(%12 : tensor<16x7x3x5xf32>) {
    ^bb0(%in: f32, %in_25: f32, %out: f32):
      %52 = arith.addf %in, %in_25 : f32
      linalg.yield %52 : f32
    } -> tensor<16x7x3x5xf32>
    %14 = tensor.empty() : tensor<16x7x3x5xf32>
    %15 = linalg.generic {indexing_maps = [#map, #map2, #map], iterator_types = ["parallel", "parallel", "parallel", "parallel"]} ins(%13, %cst : tensor<16x7x3x5xf32>, tensor<1x1x1x1xf32>) outs(%14 : tensor<16x7x3x5xf32>) {
    ^bb0(%in: f32, %in_25: f32, %out: f32):
      %52 = arith.mulf %in, %in_25 : f32
      linalg.yield %52 : f32
    } -> tensor<16x7x3x5xf32>
    %16 = tensor.empty() : tensor<16x3x7x5xf32>
    %17 = linalg.generic {indexing_maps = [#map3, #map], iterator_types = ["parallel", "parallel", "parallel", "parallel"]} ins(%10 : tensor<16x7x3x5xf32>) outs(%16 : tensor<16x3x7x5xf32>) {
    ^bb0(%in: f32, %out: f32):
      linalg.yield %in : f32
    } -> tensor<16x3x7x5xf32>
    %18 = tensor.empty() : tensor<16x3x5x7xf32>
    %19 = linalg.generic {indexing_maps = [#map4, #map], iterator_types = ["parallel", "parallel", "parallel", "parallel"]} ins(%15 : tensor<16x7x3x5xf32>) outs(%18 : tensor<16x3x5x7xf32>) {
    ^bb0(%in: f32, %out: f32):
      linalg.yield %in : f32
    } -> tensor<16x3x5x7xf32>
    %collapsed_7 = tensor.collapse_shape %17 [[0, 1], [2], [3]] : tensor<16x3x7x5xf32> into tensor<48x7x5xf32>
    %collapsed_8 = tensor.collapse_shape %19 [[0, 1], [2], [3]] : tensor<16x3x5x7xf32> into tensor<48x5x7xf32>
    %cst_9 = arith.constant 0.000000e+00 : f32
    %20 = tensor.empty() : tensor<48x7x7xf32>
    %21 = linalg.fill ins(%cst_9 : f32) outs(%20 : tensor<48x7x7xf32>) -> tensor<48x7x7xf32>
    %22 = linalg.batch_matmul ins(%collapsed_7, %collapsed_8 : tensor<48x7x5xf32>, tensor<48x5x7xf32>) outs(%21 : tensor<48x7x7xf32>) -> tensor<48x7x7xf32>
    %expanded_10 = tensor.expand_shape %22 [[0, 1], [2], [3]] : tensor<48x7x7xf32> into tensor<16x3x7x7xf32>
    %23 = tensor.empty() : tensor<16x3x7x7xf32>
    %24 = linalg.generic {indexing_maps = [#map5, #map], iterator_types = ["parallel", "parallel", "parallel", "parallel"]} ins(%expanded_10 : tensor<16x3x7x7xf32>) outs(%23 : tensor<16x3x7x7xf32>) {
    ^bb0(%in: f32, %out: f32):
      linalg.yield %in : f32
    } -> tensor<16x3x7x7xf32>
    %25 = tensor.empty() : tensor<16x3x7xf32>
    %cst_11 = arith.constant -3.40282347E+38 : f32
    %26 = linalg.fill ins(%cst_11 : f32) outs(%25 : tensor<16x3x7xf32>) -> tensor<16x3x7xf32>
    %27 = linalg.generic {indexing_maps = [#map, #map6], iterator_types = ["parallel", "parallel", "parallel", "reduction"]} ins(%24 : tensor<16x3x7x7xf32>) outs(%26 : tensor<16x3x7xf32>) {
    ^bb0(%in: f32, %out: f32):
      %52 = arith.maxf %in, %out : f32
      linalg.yield %52 : f32
    } -> tensor<16x3x7xf32>
    %expanded_12 = tensor.expand_shape %27 [[0], [1], [2, 3]] : tensor<16x3x7xf32> into tensor<16x3x7x1xf32>
    %28 = tensor.empty() : tensor<16x3x7x7xf32>
    %29 = linalg.generic {indexing_maps = [#map, #map7, #map], iterator_types = ["parallel", "parallel", "parallel", "parallel"]} ins(%24, %expanded_12 : tensor<16x3x7x7xf32>, tensor<16x3x7x1xf32>) outs(%28 : tensor<16x3x7x7xf32>) {
    ^bb0(%in: f32, %in_25: f32, %out: f32):
      %52 = arith.subf %in, %in_25 : f32
      linalg.yield %52 : f32
    } -> tensor<16x3x7x7xf32>
    %30 = tensor.empty() : tensor<16x3x7x7xf32>
    %31 = linalg.generic {indexing_maps = [#map, #map], iterator_types = ["parallel", "parallel", "parallel", "parallel"]} ins(%29 : tensor<16x3x7x7xf32>) outs(%30 : tensor<16x3x7x7xf32>) {
    ^bb0(%in: f32, %out: f32):
      %52 = math.exp %in : f32
      linalg.yield %52 : f32
    } -> tensor<16x3x7x7xf32>
    %32 = tensor.empty() : tensor<16x3x7xf32>
    %cst_13 = arith.constant 0.000000e+00 : f32
    %33 = linalg.fill ins(%cst_13 : f32) outs(%32 : tensor<16x3x7xf32>) -> tensor<16x3x7xf32>
    %34 = linalg.generic {indexing_maps = [#map, #map6], iterator_types = ["parallel", "parallel", "parallel", "reduction"]} ins(%31 : tensor<16x3x7x7xf32>) outs(%33 : tensor<16x3x7xf32>) {
    ^bb0(%in: f32, %out: f32):
      %52 = arith.addf %in, %out : f32
      linalg.yield %52 : f32
    } -> tensor<16x3x7xf32>
    %expanded_14 = tensor.expand_shape %34 [[0], [1], [2, 3]] : tensor<16x3x7xf32> into tensor<16x3x7x1xf32>
    %35 = tensor.empty() : tensor<16x3x7x1xf32>
    %36 = linalg.generic {indexing_maps = [#map7, #map], iterator_types = ["parallel", "parallel", "parallel", "parallel"]} ins(%expanded_14 : tensor<16x3x7x1xf32>) outs(%35 : tensor<16x3x7x1xf32>) {
    ^bb0(%in: f32, %out: f32):
      %cst_25 = arith.constant 1.000000e+00 : f32
      %52 = arith.divf %cst_25, %in : f32
      linalg.yield %52 : f32
    } -> tensor<16x3x7x1xf32>
    %37 = tensor.empty() : tensor<16x3x7x7xf32>
    %38 = linalg.generic {indexing_maps = [#map, #map7, #map], iterator_types = ["parallel", "parallel", "parallel", "parallel"]} ins(%31, %36 : tensor<16x3x7x7xf32>, tensor<16x3x7x1xf32>) outs(%37 : tensor<16x3x7x7xf32>) {
    ^bb0(%in: f32, %in_25: f32, %out: f32):
      %52 = arith.mulf %in, %in_25 : f32
      linalg.yield %52 : f32
    } -> tensor<16x3x7x7xf32>
    %collapsed_15 = tensor.collapse_shape %7 [[0], [1, 2]] : tensor<5x3x5xf32> into tensor<5x15xf32>
    %39 = "tf.BatchMatMulV2"(%arg0, %collapsed_15) {adj_x = false, adj_y = false} : (tensor<16x7x5xf32>, tensor<5x15xf32>) -> tensor<16x7x15xf32>
    %expanded_16 = tensor.expand_shape %39 [[0], [1], [2, 3]] : tensor<16x7x15xf32> into tensor<16x7x3x5xf32>
    %expanded_17 = tensor.expand_shape %6 [[0, 1, 2], [3]] : tensor<3x5xf32> into tensor<1x1x3x5xf32>
    %40 = tensor.empty() : tensor<16x7x3x5xf32>
    %41 = linalg.generic {indexing_maps = [#map, #map1, #map], iterator_types = ["parallel", "parallel", "parallel", "parallel"]} ins(%expanded_16, %expanded_17 : tensor<16x7x3x5xf32>, tensor<1x1x3x5xf32>) outs(%40 : tensor<16x7x3x5xf32>) {
    ^bb0(%in: f32, %in_25: f32, %out: f32):
      %52 = arith.addf %in, %in_25 : f32
      linalg.yield %52 : f32
    } -> tensor<16x7x3x5xf32>
    %42 = tensor.empty() : tensor<16x3x7x5xf32>
    %43 = linalg.generic {indexing_maps = [#map3, #map], iterator_types = ["parallel", "parallel", "parallel", "parallel"]} ins(%41 : tensor<16x7x3x5xf32>) outs(%42 : tensor<16x3x7x5xf32>) {
    ^bb0(%in: f32, %out: f32):
      linalg.yield %in : f32
    } -> tensor<16x3x7x5xf32>
    %collapsed_18 = tensor.collapse_shape %38 [[0, 1], [2], [3]] : tensor<16x3x7x7xf32> into tensor<48x7x7xf32>
    %collapsed_19 = tensor.collapse_shape %43 [[0, 1], [2], [3]] : tensor<16x3x7x5xf32> into tensor<48x7x5xf32>
    %cst_20 = arith.constant 0.000000e+00 : f32
    %44 = tensor.empty() : tensor<48x7x5xf32>
    %45 = linalg.fill ins(%cst_20 : f32) outs(%44 : tensor<48x7x5xf32>) -> tensor<48x7x5xf32>
    %46 = linalg.batch_matmul ins(%collapsed_18, %collapsed_19 : tensor<48x7x7xf32>, tensor<48x7x5xf32>) outs(%45 : tensor<48x7x5xf32>) -> tensor<48x7x5xf32>
    %expanded_21 = tensor.expand_shape %46 [[0, 1], [2], [3]] : tensor<48x7x5xf32> into tensor<16x3x7x5xf32>
    %47 = tensor.empty() : tensor<16x7x3x5xf32>
    %48 = linalg.generic {indexing_maps = [#map3, #map], iterator_types = ["parallel", "parallel", "parallel", "parallel"]} ins(%expanded_21 : tensor<16x3x7x5xf32>) outs(%47 : tensor<16x7x3x5xf32>) {
    ^bb0(%in: f32, %out: f32):
      linalg.yield %in : f32
    } -> tensor<16x7x3x5xf32>
    %collapsed_22 = tensor.collapse_shape %48 [[0], [1], [2, 3]] : tensor<16x7x3x5xf32> into tensor<16x7x15xf32>
    %collapsed_23 = tensor.collapse_shape %1 [[0, 1], [2]] : tensor<3x5x5xf32> into tensor<15x5xf32>
    %49 = "tf.BatchMatMulV2"(%collapsed_22, %collapsed_23) {adj_x = false, adj_y = false} : (tensor<16x7x15xf32>, tensor<15x5xf32>) -> tensor<16x7x5xf32>
    %expanded_24 = tensor.expand_shape %0 [[0, 1, 2]] : tensor<5xf32> into tensor<1x1x5xf32>
    %50 = tensor.empty() : tensor<16x7x5xf32>
    %51 = linalg.generic {indexing_maps = [#map8, #map9, #map8], iterator_types = ["parallel", "parallel", "parallel"]} ins(%49, %expanded_24 : tensor<16x7x5xf32>, tensor<1x1x5xf32>) outs(%50 : tensor<16x7x5xf32>) {
    ^bb0(%in: f32, %in_25: f32, %out: f32):
      %52 = arith.addf %in, %in_25 : f32
      linalg.yield %52 : f32
    } -> tensor<16x7x5xf32>
    return %51 : tensor<16x7x5xf32>
  }
}

