module attributes {tf.versions = {bad_consumers = [], min_consumer = 12 : i32, producer = 1482 : i32}, tf_saved_model.semantics} {
  "tf_saved_model.global_tensor"() {is_mutable, sym_name = "__sm_node26__model.layer-0.kernel", tf_saved_model.exported_names = [], type = tensor<3x3x3x2xf32>, value = dense<[[[[… > : tensor<3x3x3x2xf32>} : () -> ()
  "tf_saved_model.global_tensor"() {is_mutable, sym_name = "__sm_node27__model.layer-0.bias", tf_saved_model.exported_names = [], type = tensor<2xf32>, value = dense<0.000000e+00> : tensor<2xf32>} : () -> ()
  "tf_saved_model.global_tensor"() {is_mutable, sym_name = "__sm_node41__model.layer-2.kernel", tf_saved_model.exported_names = [], type = tensor<3x3x2x3xf32>, value = dense<[[[[… > : tensor<3x3x2x3xf32>} : () -> ()
  "tf_saved_model.global_tensor"() {is_mutable, sym_name = "__sm_node42__model.layer-2.bias", tf_saved_model.exported_names = [], type = tensor<3xf32>, value = dense<0.000000e+00> : tensor<3xf32>} : () -> ()
  "tf_saved_model.global_tensor"() {is_mutable, sym_name = "__sm_node62__model.layer-5.kernel", tf_saved_model.exported_names = [], type = tensor<75x4xf32>, value = dense<"…"> : tensor<75x4xf32>} : () -> ()
  "tf_saved_model.global_tensor"() {is_mutable, sym_name = "__sm_node63__model.layer-5.bias", tf_saved_model.exported_names = [], type = tensor<4xf32>, value = dense<0.000000e+00> : tensor<4xf32>} : () -> ()
  "tf_saved_model.global_tensor"() {is_mutable, sym_name = "__sm_node70__model.layer-6.kernel", tf_saved_model.exported_names = [], type = tensor<4x1xf32>, value = dense<[[0.725377917], [-0.0616925955], [0.417314529], [0.662358046]]> : tensor<4x1xf32>} : () -> ()
  "tf_saved_model.global_tensor"() {is_mutable, sym_name = "__sm_node71__model.layer-6.bias", tf_saved_model.exported_names = [], type = tensor<1xf32>, value = dense<0.000000e+00> : tensor<1xf32>} : () -> ()
  func.func @__inference_my_predict_1640(%arg0: tensor<16x28x28x3xf32> {tf._user_specified_name = "x", tf_saved_model.index_path = [0]}, %arg1: tensor<!tf_type.resource<tensor<3x3x3x2xf32>>> {tf._user_specified_name = "resource", tf_saved_model.bound_input = @"__sm_node26__model.layer-0.kernel"}, %arg2: tensor<!tf_type.resource<tensor<2xf32>>> {tf._user_specified_name = "resource", tf_saved_model.bound_input = @"__sm_node27__model.layer-0.bias"}, %arg3: tensor<!tf_type.resource<tensor<3x3x2x3xf32>>> {tf._user_specified_name = "resource", tf_saved_model.bound_input = @"__sm_node41__model.layer-2.kernel"}, %arg4: tensor<!tf_type.resource<tensor<3xf32>>> {tf._user_specified_name = "resource", tf_saved_model.bound_input = @"__sm_node42__model.layer-2.bias"}, %arg5: tensor<!tf_type.resource<tensor<75x4xf32>>> {tf._user_specified_name = "resource", tf_saved_model.bound_input = @"__sm_node62__model.layer-5.kernel"}, %arg6: tensor<!tf_type.resource<tensor<4xf32>>> {tf._user_specified_name = "resource", tf_saved_model.bound_input = @"__sm_node63__model.layer-5.bias"}, %arg7: tensor<!tf_type.resource<tensor<4x1xf32>>> {tf._user_specified_name = "resource", tf_saved_model.bound_input = @"__sm_node70__model.layer-6.kernel"}, %arg8: tensor<!tf_type.resource<tensor<1xf32>>> {tf._user_specified_name = "resource", tf_saved_model.bound_input = @"__sm_node71__model.layer-6.bias"}) -> (tensor<16x1xf32> {tf_saved_model.index_path = []}) attributes {tf._construction_context = "kEagerRuntime", tf._input_shapes = [#tf_type.shape<16x28x28x3>, #tf_type.shape<>, #tf_type.shape<>, #tf_type.shape<>, #tf_type.shape<>, #tf_type.shape<>, #tf_type.shape<>, #tf_type.shape<>, #tf_type.shape<>], tf.signature.is_stateful, tf_saved_model.exported_names = ["my_predict"]} {
    %0 = "tf.Cast"(%arg1) {Truncate = false} : (tensor<!tf_type.resource<tensor<3x3x3x2xf32>>>) -> tensor<!tf_type.resource>
    %1 = "tf.Cast"(%arg2) {Truncate = false} : (tensor<!tf_type.resource<tensor<2xf32>>>) -> tensor<!tf_type.resource>
    %2 = "tf.Cast"(%arg3) {Truncate = false} : (tensor<!tf_type.resource<tensor<3x3x2x3xf32>>>) -> tensor<!tf_type.resource>
    %3 = "tf.Cast"(%arg4) {Truncate = false} : (tensor<!tf_type.resource<tensor<3xf32>>>) -> tensor<!tf_type.resource>
    %4 = "tf.Cast"(%arg5) {Truncate = false} : (tensor<!tf_type.resource<tensor<75x4xf32>>>) -> tensor<!tf_type.resource>
    %5 = "tf.Cast"(%arg6) {Truncate = false} : (tensor<!tf_type.resource<tensor<4xf32>>>) -> tensor<!tf_type.resource>
    %6 = "tf.Cast"(%arg7) {Truncate = false} : (tensor<!tf_type.resource<tensor<4x1xf32>>>) -> tensor<!tf_type.resource>
    %7 = "tf.Cast"(%arg8) {Truncate = false} : (tensor<!tf_type.resource<tensor<1xf32>>>) -> tensor<!tf_type.resource>
    %8 = tf_executor.graph {
      %outputs, %control = tf_executor.island wraps "tf.Const"() {device = "", value = dense<[-1, 75]> : tensor<2xi32>} : () -> tensor<2xi32>
      %outputs_0, %control_1 = tf_executor.island wraps "tf.ReadVariableOp"(%3) {device = ""} : (tensor<!tf_type.resource>) -> tensor<3xf32>
      %outputs_2, %control_3 = tf_executor.island wraps "tf.ReadVariableOp"(%2) {device = ""} : (tensor<!tf_type.resource>) -> tensor<3x3x2x3xf32>
      %outputs_4, %control_5 = tf_executor.island wraps "tf.ReadVariableOp"(%1) {device = ""} : (tensor<!tf_type.resource>) -> tensor<2xf32>
      %outputs_6, %control_7 = tf_executor.island wraps "tf.ReadVariableOp"(%0) {device = ""} : (tensor<!tf_type.resource>) -> tensor<3x3x3x2xf32>
      %outputs_8, %control_9 = tf_executor.island wraps "tf.ReadVariableOp"(%7) {device = ""} : (tensor<!tf_type.resource>) -> tensor<1xf32>
      %outputs_10, %control_11 = tf_executor.island wraps "tf.ReadVariableOp"(%6) {device = ""} : (tensor<!tf_type.resource>) -> tensor<4x1xf32>
      %outputs_12, %control_13 = tf_executor.island wraps "tf.ReadVariableOp"(%5) {device = ""} : (tensor<!tf_type.resource>) -> tensor<4xf32>
      %outputs_14, %control_15 = tf_executor.island wraps "tf.ReadVariableOp"(%4) {device = ""} : (tensor<!tf_type.resource>) -> tensor<75x4xf32>
      %control_16 = tf_executor.island(%control_7, %control_5, %control_3, %control_1, %control_15, %control_13, %control_11, %control_9) wraps "tf.NoOp"() {device = ""} : () -> ()
      %outputs_17, %control_18 = tf_executor.island wraps "tf.Conv2D"(%arg0, %outputs_6) {data_format = "NHWC", device = "", dilations = [1, 1, 1, 1], explicit_paddings = [], padding = "VALID", strides = [1, 1, 1, 1], use_cudnn_on_gpu = true} : (tensor<16x28x28x3xf32>, tensor<3x3x3x2xf32>) -> tensor<16x26x26x2xf32>
      %outputs_19, %control_20 = tf_executor.island wraps "tf.BiasAdd"(%outputs_17, %outputs_4) {data_format = "NHWC", device = ""} : (tensor<16x26x26x2xf32>, tensor<2xf32>) -> tensor<16x26x26x2xf32>
      %outputs_21, %control_22 = tf_executor.island wraps "tf.Relu"(%outputs_19) {device = ""} : (tensor<16x26x26x2xf32>) -> tensor<16x26x26x2xf32>
      %outputs_23, %control_24 = tf_executor.island wraps "tf.MaxPool"(%outputs_21) {data_format = "NHWC", device = "", explicit_paddings = [], ksize = [1, 2, 2, 1], padding = "VALID", strides = [1, 2, 2, 1]} : (tensor<16x26x26x2xf32>) -> tensor<16x13x13x2xf32>
      %outputs_25, %control_26 = tf_executor.island wraps "tf.Conv2D"(%outputs_23, %outputs_2) {data_format = "NHWC", device = "", dilations = [1, 1, 1, 1], explicit_paddings = [], padding = "VALID", strides = [1, 1, 1, 1], use_cudnn_on_gpu = true} : (tensor<16x13x13x2xf32>, tensor<3x3x2x3xf32>) -> tensor<16x11x11x3xf32>
      %outputs_27, %control_28 = tf_executor.island wraps "tf.BiasAdd"(%outputs_25, %outputs_0) {data_format = "NHWC", device = ""} : (tensor<16x11x11x3xf32>, tensor<3xf32>) -> tensor<16x11x11x3xf32>
      %outputs_29, %control_30 = tf_executor.island wraps "tf.Relu"(%outputs_27) {device = ""} : (tensor<16x11x11x3xf32>) -> tensor<16x11x11x3xf32>
      %outputs_31, %control_32 = tf_executor.island wraps "tf.MaxPool"(%outputs_29) {data_format = "NHWC", device = "", explicit_paddings = [], ksize = [1, 2, 2, 1], padding = "VALID", strides = [1, 2, 2, 1]} : (tensor<16x11x11x3xf32>) -> tensor<16x5x5x3xf32>
      %outputs_33, %control_34 = tf_executor.island wraps "tf.Reshape"(%outputs_31, %outputs) {device = ""} : (tensor<16x5x5x3xf32>, tensor<2xi32>) -> tensor<16x75xf32>
      %outputs_35, %control_36 = tf_executor.island wraps "tf.MatMul"(%outputs_33, %outputs_14) {device = "", transpose_a = false, transpose_b = false} : (tensor<16x75xf32>, tensor<75x4xf32>) -> tensor<16x4xf32>
      %outputs_37, %control_38 = tf_executor.island wraps "tf.BiasAdd"(%outputs_35, %outputs_12) {data_format = "NHWC", device = ""} : (tensor<16x4xf32>, tensor<4xf32>) -> tensor<16x4xf32>
      %outputs_39, %control_40 = tf_executor.island wraps "tf.Relu"(%outputs_37) {device = ""} : (tensor<16x4xf32>) -> tensor<16x4xf32>
      %outputs_41, %control_42 = tf_executor.island wraps "tf.MatMul"(%outputs_39, %outputs_10) {device = "", transpose_a = false, transpose_b = false} : (tensor<16x4xf32>, tensor<4x1xf32>) -> tensor<16x1xf32>
      %outputs_43, %control_44 = tf_executor.island wraps "tf.BiasAdd"(%outputs_41, %outputs_8) {data_format = "NHWC", device = ""} : (tensor<16x1xf32>, tensor<1xf32>) -> tensor<16x1xf32>
      %outputs_45, %control_46 = tf_executor.island wraps "tf.Softmax"(%outputs_43) {device = ""} : (tensor<16x1xf32>) -> tensor<16x1xf32>
      %outputs_47, %control_48 = tf_executor.island(%control_16) wraps "tf.Identity"(%outputs_45) {device = ""} : (tensor<16x1xf32>) -> tensor<16x1xf32>
      tf_executor.fetch %outputs_47, %control_7, %control_5, %control_3, %control_1, %control_15, %control_13, %control_11, %control_9 : tensor<16x1xf32>, !tf_executor.control, !tf_executor.control, !tf_executor.control, !tf_executor.control, !tf_executor.control, !tf_executor.control, !tf_executor.control, !tf_executor.control
    }
    return %8 : tensor<16x1xf32>
  }
  func.func private @__inference__wrapped_model_2220(%arg0: tensor<?x28x28x3xf32> {tf._user_specified_name = "conv2d_input"}, %arg1: tensor<!tf_type.resource> {tf._user_specified_name = "resource"}, %arg2: tensor<!tf_type.resource> {tf._user_specified_name = "resource"}, %arg3: tensor<!tf_type.resource> {tf._user_specified_name = "resource"}, %arg4: tensor<!tf_type.resource> {tf._user_specified_name = "resource"}, %arg5: tensor<!tf_type.resource> {tf._user_specified_name = "resource"}, %arg6: tensor<!tf_type.resource> {tf._user_specified_name = "resource"}, %arg7: tensor<!tf_type.resource> {tf._user_specified_name = "resource"}, %arg8: tensor<!tf_type.resource> {tf._user_specified_name = "resource"}) -> tensor<?x1xf32> attributes {tf._construction_context = "kEagerRuntime", tf._input_shapes = [#tf_type.shape<?x28x28x3>, #tf_type.shape<>, #tf_type.shape<>, #tf_type.shape<>, #tf_type.shape<>, #tf_type.shape<>, #tf_type.shape<>, #tf_type.shape<>, #tf_type.shape<>], tf.signature.is_stateful} {
    %0 = tf_executor.graph {
      %outputs, %control = tf_executor.island wraps "tf.Const"() {device = "", value = dense<[-1, 75]> : tensor<2xi32>} : () -> tensor<2xi32>
      %outputs_0, %control_1 = tf_executor.island wraps "tf.ReadVariableOp"(%arg4) {device = ""} : (tensor<!tf_type.resource>) -> tensor<3xf32>
      %outputs_2, %control_3 = tf_executor.island wraps "tf.ReadVariableOp"(%arg3) {device = ""} : (tensor<!tf_type.resource>) -> tensor<3x3x2x3xf32>
      %outputs_4, %control_5 = tf_executor.island wraps "tf.ReadVariableOp"(%arg2) {device = ""} : (tensor<!tf_type.resource>) -> tensor<2xf32>
      %outputs_6, %control_7 = tf_executor.island wraps "tf.ReadVariableOp"(%arg1) {device = ""} : (tensor<!tf_type.resource>) -> tensor<3x3x3x2xf32>
      %outputs_8, %control_9 = tf_executor.island wraps "tf.Conv2D"(%arg0, %outputs_6) {data_format = "NHWC", device = "", dilations = [1, 1, 1, 1], explicit_paddings = [], padding = "VALID", strides = [1, 1, 1, 1], use_cudnn_on_gpu = true} : (tensor<?x28x28x3xf32>, tensor<3x3x3x2xf32>) -> tensor<?x26x26x2xf32>
      %outputs_10, %control_11 = tf_executor.island wraps "tf.BiasAdd"(%outputs_8, %outputs_4) {data_format = "NHWC", device = ""} : (tensor<?x26x26x2xf32>, tensor<2xf32>) -> tensor<?x26x26x2xf32>
      %outputs_12, %control_13 = tf_executor.island wraps "tf.Relu"(%outputs_10) {device = ""} : (tensor<?x26x26x2xf32>) -> tensor<?x26x26x2xf32>
      %outputs_14, %control_15 = tf_executor.island wraps "tf.MaxPool"(%outputs_12) {data_format = "NHWC", device = "", explicit_paddings = [], ksize = [1, 2, 2, 1], padding = "VALID", strides = [1, 2, 2, 1]} : (tensor<?x26x26x2xf32>) -> tensor<?x13x13x2xf32>
      %outputs_16, %control_17 = tf_executor.island wraps "tf.Conv2D"(%outputs_14, %outputs_2) {data_format = "NHWC", device = "", dilations = [1, 1, 1, 1], explicit_paddings = [], padding = "VALID", strides = [1, 1, 1, 1], use_cudnn_on_gpu = true} : (tensor<?x13x13x2xf32>, tensor<3x3x2x3xf32>) -> tensor<?x11x11x3xf32>
      %outputs_18, %control_19 = tf_executor.island wraps "tf.BiasAdd"(%outputs_16, %outputs_0) {data_format = "NHWC", device = ""} : (tensor<?x11x11x3xf32>, tensor<3xf32>) -> tensor<?x11x11x3xf32>
      %outputs_20, %control_21 = tf_executor.island wraps "tf.Relu"(%outputs_18) {device = ""} : (tensor<?x11x11x3xf32>) -> tensor<?x11x11x3xf32>
      %outputs_22, %control_23 = tf_executor.island wraps "tf.MaxPool"(%outputs_20) {data_format = "NHWC", device = "", explicit_paddings = [], ksize = [1, 2, 2, 1], padding = "VALID", strides = [1, 2, 2, 1]} : (tensor<?x11x11x3xf32>) -> tensor<?x5x5x3xf32>
      %outputs_24, %control_25 = tf_executor.island wraps "tf.Reshape"(%outputs_22, %outputs) {device = ""} : (tensor<?x5x5x3xf32>, tensor<2xi32>) -> tensor<?x75xf32>
      %outputs_26, %control_27 = tf_executor.island wraps "tf.ReadVariableOp"(%arg8) {device = ""} : (tensor<!tf_type.resource>) -> tensor<1xf32>
      %outputs_28, %control_29 = tf_executor.island wraps "tf.ReadVariableOp"(%arg7) {device = ""} : (tensor<!tf_type.resource>) -> tensor<4x1xf32>
      %outputs_30, %control_31 = tf_executor.island wraps "tf.ReadVariableOp"(%arg6) {device = ""} : (tensor<!tf_type.resource>) -> tensor<4xf32>
      %outputs_32, %control_33 = tf_executor.island wraps "tf.ReadVariableOp"(%arg5) {device = ""} : (tensor<!tf_type.resource>) -> tensor<75x4xf32>
      %control_34 = tf_executor.island(%control_7, %control_5, %control_3, %control_1, %control_33, %control_31, %control_29, %control_27) wraps "tf.NoOp"() {device = ""} : () -> ()
      %outputs_35, %control_36 = tf_executor.island wraps "tf.MatMul"(%outputs_24, %outputs_32) {device = "", transpose_a = false, transpose_b = false} : (tensor<?x75xf32>, tensor<75x4xf32>) -> tensor<?x4xf32>
      %outputs_37, %control_38 = tf_executor.island wraps "tf.BiasAdd"(%outputs_35, %outputs_30) {data_format = "NHWC", device = ""} : (tensor<?x4xf32>, tensor<4xf32>) -> tensor<?x4xf32>
      %outputs_39, %control_40 = tf_executor.island wraps "tf.Relu"(%outputs_37) {device = ""} : (tensor<?x4xf32>) -> tensor<?x4xf32>
      %outputs_41, %control_42 = tf_executor.island wraps "tf.MatMul"(%outputs_39, %outputs_28) {device = "", transpose_a = false, transpose_b = false} : (tensor<?x4xf32>, tensor<4x1xf32>) -> tensor<?x1xf32>
      %outputs_43, %control_44 = tf_executor.island wraps "tf.BiasAdd"(%outputs_41, %outputs_26) {data_format = "NHWC", device = ""} : (tensor<?x1xf32>, tensor<1xf32>) -> tensor<?x1xf32>
      %outputs_45, %control_46 = tf_executor.island wraps "tf.Softmax"(%outputs_43) {device = ""} : (tensor<?x1xf32>) -> tensor<?x1xf32>
      %outputs_47, %control_48 = tf_executor.island(%control_34) wraps "tf.Identity"(%outputs_45) {device = ""} : (tensor<?x1xf32>) -> tensor<?x1xf32>
      tf_executor.fetch %outputs_47, %control_7, %control_5, %control_3, %control_1, %control_33, %control_31, %control_29, %control_27 : tensor<?x1xf32>, !tf_executor.control, !tf_executor.control, !tf_executor.control, !tf_executor.control, !tf_executor.control, !tf_executor.control, !tf_executor.control, !tf_executor.control
    }
    return %0 : tensor<?x1xf32>
  }
  func.func private @__inference_conv2d_1_layer_call_and_return_conditional_losses_2720(%arg0: tensor<?x13x13x2xf32> {tf._user_specified_name = "inputs"}, %arg1: tensor<!tf_type.resource> {tf._user_specified_name = "resource"}, %arg2: tensor<!tf_type.resource> {tf._user_specified_name = "resource"}) -> tensor<?x11x11x3xf32> attributes {tf._construction_context = "kEagerRuntime", tf._input_shapes = [#tf_type.shape<?x13x13x2>, #tf_type.shape<>, #tf_type.shape<>], tf.signature.is_stateful} {
    %0 = tf_executor.graph {
      %outputs, %control = tf_executor.island wraps "tf.ReadVariableOp"(%arg2) {device = ""} : (tensor<!tf_type.resource>) -> tensor<3xf32>
      %outputs_0, %control_1 = tf_executor.island wraps "tf.ReadVariableOp"(%arg1) {device = ""} : (tensor<!tf_type.resource>) -> tensor<3x3x2x3xf32>
      %control_2 = tf_executor.island(%control_1, %control) wraps "tf.NoOp"() {device = ""} : () -> ()
      %outputs_3, %control_4 = tf_executor.island wraps "tf.Conv2D"(%arg0, %outputs_0) {data_format = "NHWC", device = "", dilations = [1, 1, 1, 1], explicit_paddings = [], padding = "VALID", strides = [1, 1, 1, 1], use_cudnn_on_gpu = true} : (tensor<?x13x13x2xf32>, tensor<3x3x2x3xf32>) -> tensor<?x11x11x3xf32>
      %outputs_5, %control_6 = tf_executor.island wraps "tf.BiasAdd"(%outputs_3, %outputs) {data_format = "NHWC", device = ""} : (tensor<?x11x11x3xf32>, tensor<3xf32>) -> tensor<?x11x11x3xf32>
      %outputs_7, %control_8 = tf_executor.island wraps "tf.Relu"(%outputs_5) {device = ""} : (tensor<?x11x11x3xf32>) -> tensor<?x11x11x3xf32>
      %outputs_9, %control_10 = tf_executor.island(%control_2) wraps "tf.Identity"(%outputs_7) {device = ""} : (tensor<?x11x11x3xf32>) -> tensor<?x11x11x3xf32>
      tf_executor.fetch %outputs_9, %control_1, %control : tensor<?x11x11x3xf32>, !tf_executor.control, !tf_executor.control
    }
    return %0 : tensor<?x11x11x3xf32>
  }
  func.func private @__inference_conv2d_1_layer_call_and_return_conditional_losses_4790(%arg0: tensor<?x13x13x2xf32> {tf._user_specified_name = "inputs"}, %arg1: tensor<!tf_type.resource> {tf._user_specified_name = "resource"}, %arg2: tensor<!tf_type.resource> {tf._user_specified_name = "resource"}) -> tensor<?x11x11x3xf32> attributes {tf._construction_context = "kEagerRuntime", tf._input_shapes = [#tf_type.shape<?x13x13x2>, #tf_type.shape<>, #tf_type.shape<>], tf.signature.is_stateful} {
    %0 = tf_executor.graph {
      %outputs, %control = tf_executor.island wraps "tf.ReadVariableOp"(%arg2) {device = ""} : (tensor<!tf_type.resource>) -> tensor<3xf32>
      %outputs_0, %control_1 = tf_executor.island wraps "tf.ReadVariableOp"(%arg1) {device = ""} : (tensor<!tf_type.resource>) -> tensor<3x3x2x3xf32>
      %control_2 = tf_executor.island(%control_1, %control) wraps "tf.NoOp"() {device = ""} : () -> ()
      %outputs_3, %control_4 = tf_executor.island wraps "tf.Conv2D"(%arg0, %outputs_0) {data_format = "NHWC", device = "", dilations = [1, 1, 1, 1], explicit_paddings = [], padding = "VALID", strides = [1, 1, 1, 1], use_cudnn_on_gpu = true} : (tensor<?x13x13x2xf32>, tensor<3x3x2x3xf32>) -> tensor<?x11x11x3xf32>
      %outputs_5, %control_6 = tf_executor.island wraps "tf.BiasAdd"(%outputs_3, %outputs) {data_format = "NHWC", device = ""} : (tensor<?x11x11x3xf32>, tensor<3xf32>) -> tensor<?x11x11x3xf32>
      %outputs_7, %control_8 = tf_executor.island wraps "tf.Relu"(%outputs_5) {device = ""} : (tensor<?x11x11x3xf32>) -> tensor<?x11x11x3xf32>
      %outputs_9, %control_10 = tf_executor.island(%control_2) wraps "tf.Identity"(%outputs_7) {device = ""} : (tensor<?x11x11x3xf32>) -> tensor<?x11x11x3xf32>
      tf_executor.fetch %outputs_9, %control_1, %control : tensor<?x11x11x3xf32>, !tf_executor.control, !tf_executor.control
    }
    return %0 : tensor<?x11x11x3xf32>
  }
  func.func private @__inference_conv2d_1_layer_call_fn_4680(%arg0: tensor<?x13x13x2xf32> {tf._user_specified_name = "inputs"}, %arg1: tensor<!tf_type.resource> {tf._user_specified_name = "462"}, %arg2: tensor<!tf_type.resource> {tf._user_specified_name = "464"}) -> tensor<?x?x?x?xf32> attributes {tf._construction_context = "kEagerRuntime", tf._input_shapes = [#tf_type.shape<?x13x13x2>, #tf_type.shape<>, #tf_type.shape<>], tf.signature.is_stateful} {
    %0 = tf_executor.graph {
      %outputs, %control = tf_executor.island wraps "tf.StatefulPartitionedCall"(%arg0, %arg1, %arg2) {_collective_manager_ids = [], _read_only_resource_inputs = [1, 2], config = "", config_proto = "\0A\07\0A\03CPU\10\01\0A\07\0A\03GPU\10\002\02J\008\01\82\01\00", device = "", executor_type = "", f = @__inference_conv2d_1_layer_call_and_return_conditional_losses_2720} : (tensor<?x13x13x2xf32>, tensor<!tf_type.resource>, tensor<!tf_type.resource>) -> tensor<?x?x?x?xf32>
      %control_0 = tf_executor.island(%control) wraps "tf.NoOp"() {device = ""} : () -> ()
      %outputs_1, %control_2 = tf_executor.island(%control_0) wraps "tf.Identity"(%outputs) {device = ""} : (tensor<?x?x?x?xf32>) -> tensor<?x?x?x?xf32>
      tf_executor.fetch %outputs_1, %control : tensor<?x?x?x?xf32>, !tf_executor.control
    }
    return %0 : tensor<?x?x?x?xf32>
  }
  func.func private @__inference_conv2d_layer_call_and_return_conditional_losses_2550(%arg0: tensor<?x28x28x3xf32> {tf._user_specified_name = "inputs"}, %arg1: tensor<!tf_type.resource> {tf._user_specified_name = "resource"}, %arg2: tensor<!tf_type.resource> {tf._user_specified_name = "resource"}) -> tensor<?x26x26x2xf32> attributes {tf._construction_context = "kEagerRuntime", tf._input_shapes = [#tf_type.shape<?x28x28x3>, #tf_type.shape<>, #tf_type.shape<>], tf.signature.is_stateful} {
    %0 = tf_executor.graph {
      %outputs, %control = tf_executor.island wraps "tf.ReadVariableOp"(%arg2) {device = ""} : (tensor<!tf_type.resource>) -> tensor<2xf32>
      %outputs_0, %control_1 = tf_executor.island wraps "tf.ReadVariableOp"(%arg1) {device = ""} : (tensor<!tf_type.resource>) -> tensor<3x3x3x2xf32>
      %control_2 = tf_executor.island(%control_1, %control) wraps "tf.NoOp"() {device = ""} : () -> ()
      %outputs_3, %control_4 = tf_executor.island wraps "tf.Conv2D"(%arg0, %outputs_0) {data_format = "NHWC", device = "", dilations = [1, 1, 1, 1], explicit_paddings = [], padding = "VALID", strides = [1, 1, 1, 1], use_cudnn_on_gpu = true} : (tensor<?x28x28x3xf32>, tensor<3x3x3x2xf32>) -> tensor<?x26x26x2xf32>
      %outputs_5, %control_6 = tf_executor.island wraps "tf.BiasAdd"(%outputs_3, %outputs) {data_format = "NHWC", device = ""} : (tensor<?x26x26x2xf32>, tensor<2xf32>) -> tensor<?x26x26x2xf32>
      %outputs_7, %control_8 = tf_executor.island wraps "tf.Relu"(%outputs_5) {device = ""} : (tensor<?x26x26x2xf32>) -> tensor<?x26x26x2xf32>
      %outputs_9, %control_10 = tf_executor.island(%control_2) wraps "tf.Identity"(%outputs_7) {device = ""} : (tensor<?x26x26x2xf32>) -> tensor<?x26x26x2xf32>
      tf_executor.fetch %outputs_9, %control_1, %control : tensor<?x26x26x2xf32>, !tf_executor.control, !tf_executor.control
    }
    return %0 : tensor<?x26x26x2xf32>
  }
  func.func private @__inference_conv2d_layer_call_and_return_conditional_losses_4490(%arg0: tensor<?x28x28x3xf32> {tf._user_specified_name = "inputs"}, %arg1: tensor<!tf_type.resource> {tf._user_specified_name = "resource"}, %arg2: tensor<!tf_type.resource> {tf._user_specified_name = "resource"}) -> tensor<?x26x26x2xf32> attributes {tf._construction_context = "kEagerRuntime", tf._input_shapes = [#tf_type.shape<?x28x28x3>, #tf_type.shape<>, #tf_type.shape<>], tf.signature.is_stateful} {
    %0 = tf_executor.graph {
      %outputs, %control = tf_executor.island wraps "tf.ReadVariableOp"(%arg2) {device = ""} : (tensor<!tf_type.resource>) -> tensor<2xf32>
      %outputs_0, %control_1 = tf_executor.island wraps "tf.ReadVariableOp"(%arg1) {device = ""} : (tensor<!tf_type.resource>) -> tensor<3x3x3x2xf32>
      %control_2 = tf_executor.island(%control_1, %control) wraps "tf.NoOp"() {device = ""} : () -> ()
      %outputs_3, %control_4 = tf_executor.island wraps "tf.Conv2D"(%arg0, %outputs_0) {data_format = "NHWC", device = "", dilations = [1, 1, 1, 1], explicit_paddings = [], padding = "VALID", strides = [1, 1, 1, 1], use_cudnn_on_gpu = true} : (tensor<?x28x28x3xf32>, tensor<3x3x3x2xf32>) -> tensor<?x26x26x2xf32>
      %outputs_5, %control_6 = tf_executor.island wraps "tf.BiasAdd"(%outputs_3, %outputs) {data_format = "NHWC", device = ""} : (tensor<?x26x26x2xf32>, tensor<2xf32>) -> tensor<?x26x26x2xf32>
      %outputs_7, %control_8 = tf_executor.island wraps "tf.Relu"(%outputs_5) {device = ""} : (tensor<?x26x26x2xf32>) -> tensor<?x26x26x2xf32>
      %outputs_9, %control_10 = tf_executor.island(%control_2) wraps "tf.Identity"(%outputs_7) {device = ""} : (tensor<?x26x26x2xf32>) -> tensor<?x26x26x2xf32>
      tf_executor.fetch %outputs_9, %control_1, %control : tensor<?x26x26x2xf32>, !tf_executor.control, !tf_executor.control
    }
    return %0 : tensor<?x26x26x2xf32>
  }
  func.func private @__inference_conv2d_layer_call_fn_4380(%arg0: tensor<?x28x28x3xf32> {tf._user_specified_name = "inputs"}, %arg1: tensor<!tf_type.resource> {tf._user_specified_name = "432"}, %arg2: tensor<!tf_type.resource> {tf._user_specified_name = "434"}) -> tensor<?x?x?x?xf32> attributes {tf._construction_context = "kEagerRuntime", tf._input_shapes = [#tf_type.shape<?x28x28x3>, #tf_type.shape<>, #tf_type.shape<>], tf.signature.is_stateful} {
    %0 = tf_executor.graph {
      %outputs, %control = tf_executor.island wraps "tf.StatefulPartitionedCall"(%arg0, %arg1, %arg2) {_collective_manager_ids = [], _read_only_resource_inputs = [1, 2], config = "", config_proto = "\0A\07\0A\03CPU\10\01\0A\07\0A\03GPU\10\002\02J\008\01\82\01\00", device = "", executor_type = "", f = @__inference_conv2d_layer_call_and_return_conditional_losses_2550} : (tensor<?x28x28x3xf32>, tensor<!tf_type.resource>, tensor<!tf_type.resource>) -> tensor<?x?x?x?xf32>
      %control_0 = tf_executor.island(%control) wraps "tf.NoOp"() {device = ""} : () -> ()
      %outputs_1, %control_2 = tf_executor.island(%control_0) wraps "tf.Identity"(%outputs) {device = ""} : (tensor<?x?x?x?xf32>) -> tensor<?x?x?x?xf32>
      tf_executor.fetch %outputs_1, %control : tensor<?x?x?x?xf32>, !tf_executor.control
    }
    return %0 : tensor<?x?x?x?xf32>
  }
  func.func private @__inference_dense_1_layer_call_and_return_conditional_losses_3120(%arg0: tensor<?x4xf32> {tf._user_specified_name = "inputs"}, %arg1: tensor<!tf_type.resource> {tf._user_specified_name = "resource"}, %arg2: tensor<!tf_type.resource> {tf._user_specified_name = "resource"}) -> tensor<?x1xf32> attributes {tf._construction_context = "kEagerRuntime", tf._input_shapes = [#tf_type.shape<?x4>, #tf_type.shape<>, #tf_type.shape<>], tf.signature.is_stateful} {
    %0 = tf_executor.graph {
      %outputs, %control = tf_executor.island wraps "tf.ReadVariableOp"(%arg2) {device = ""} : (tensor<!tf_type.resource>) -> tensor<1xf32>
      %outputs_0, %control_1 = tf_executor.island wraps "tf.ReadVariableOp"(%arg1) {device = ""} : (tensor<!tf_type.resource>) -> tensor<4x1xf32>
      %outputs_2, %control_3 = tf_executor.island wraps "tf.MatMul"(%arg0, %outputs_0) {device = "", transpose_a = false, transpose_b = false} : (tensor<?x4xf32>, tensor<4x1xf32>) -> tensor<?x1xf32>
      %outputs_4, %control_5 = tf_executor.island wraps "tf.BiasAdd"(%outputs_2, %outputs) {data_format = "NHWC", device = ""} : (tensor<?x1xf32>, tensor<1xf32>) -> tensor<?x1xf32>
      %outputs_6, %control_7 = tf_executor.island wraps "tf.Softmax"(%outputs_4) {device = ""} : (tensor<?x1xf32>) -> tensor<?x1xf32>
      %control_8 = tf_executor.island(%control_1, %control) wraps "tf.NoOp"() {device = ""} : () -> ()
      %outputs_9, %control_10 = tf_executor.island(%control_8) wraps "tf.Identity"(%outputs_6) {device = ""} : (tensor<?x1xf32>) -> tensor<?x1xf32>
      tf_executor.fetch %outputs_9, %control_1, %control : tensor<?x1xf32>, !tf_executor.control, !tf_executor.control
    }
    return %0 : tensor<?x1xf32>
  }
  func.func private @__inference_dense_1_layer_call_and_return_conditional_losses_5400(%arg0: tensor<?x4xf32> {tf._user_specified_name = "inputs"}, %arg1: tensor<!tf_type.resource> {tf._user_specified_name = "resource"}, %arg2: tensor<!tf_type.resource> {tf._user_specified_name = "resource"}) -> tensor<?x1xf32> attributes {tf._construction_context = "kEagerRuntime", tf._input_shapes = [#tf_type.shape<?x4>, #tf_type.shape<>, #tf_type.shape<>], tf.signature.is_stateful} {
    %0 = tf_executor.graph {
      %outputs, %control = tf_executor.island wraps "tf.ReadVariableOp"(%arg2) {device = ""} : (tensor<!tf_type.resource>) -> tensor<1xf32>
      %outputs_0, %control_1 = tf_executor.island wraps "tf.ReadVariableOp"(%arg1) {device = ""} : (tensor<!tf_type.resource>) -> tensor<4x1xf32>
      %outputs_2, %control_3 = tf_executor.island wraps "tf.MatMul"(%arg0, %outputs_0) {device = "", transpose_a = false, transpose_b = false} : (tensor<?x4xf32>, tensor<4x1xf32>) -> tensor<?x1xf32>
      %outputs_4, %control_5 = tf_executor.island wraps "tf.BiasAdd"(%outputs_2, %outputs) {data_format = "NHWC", device = ""} : (tensor<?x1xf32>, tensor<1xf32>) -> tensor<?x1xf32>
      %outputs_6, %control_7 = tf_executor.island wraps "tf.Softmax"(%outputs_4) {device = ""} : (tensor<?x1xf32>) -> tensor<?x1xf32>
      %control_8 = tf_executor.island(%control_1, %control) wraps "tf.NoOp"() {device = ""} : () -> ()
      %outputs_9, %control_10 = tf_executor.island(%control_8) wraps "tf.Identity"(%outputs_6) {device = ""} : (tensor<?x1xf32>) -> tensor<?x1xf32>
      tf_executor.fetch %outputs_9, %control_1, %control : tensor<?x1xf32>, !tf_executor.control, !tf_executor.control
    }
    return %0 : tensor<?x1xf32>
  }
  func.func private @__inference_dense_1_layer_call_fn_5290(%arg0: tensor<?x4xf32> {tf._user_specified_name = "inputs"}, %arg1: tensor<!tf_type.resource> {tf._user_specified_name = "523"}, %arg2: tensor<!tf_type.resource> {tf._user_specified_name = "525"}) -> tensor<?x?xf32> attributes {tf._construction_context = "kEagerRuntime", tf._input_shapes = [#tf_type.shape<?x4>, #tf_type.shape<>, #tf_type.shape<>], tf.signature.is_stateful} {
    %0 = tf_executor.graph {
      %outputs, %control = tf_executor.island wraps "tf.StatefulPartitionedCall"(%arg0, %arg1, %arg2) {_collective_manager_ids = [], _read_only_resource_inputs = [1, 2], config = "", config_proto = "\0A\07\0A\03CPU\10\01\0A\07\0A\03GPU\10\002\02J\008\01\82\01\00", device = "", executor_type = "", f = @__inference_dense_1_layer_call_and_return_conditional_losses_3120} : (tensor<?x4xf32>, tensor<!tf_type.resource>, tensor<!tf_type.resource>) -> tensor<?x?xf32>
      %control_0 = tf_executor.island(%control) wraps "tf.NoOp"() {device = ""} : () -> ()
      %outputs_1, %control_2 = tf_executor.island(%control_0) wraps "tf.Identity"(%outputs) {device = ""} : (tensor<?x?xf32>) -> tensor<?x?xf32>
      tf_executor.fetch %outputs_1, %control : tensor<?x?xf32>, !tf_executor.control
    }
    return %0 : tensor<?x?xf32>
  }
  func.func private @__inference_dense_layer_call_and_return_conditional_losses_2960(%arg0: tensor<?x75xf32> {tf._user_specified_name = "inputs"}, %arg1: tensor<!tf_type.resource> {tf._user_specified_name = "resource"}, %arg2: tensor<!tf_type.resource> {tf._user_specified_name = "resource"}) -> tensor<?x4xf32> attributes {tf._construction_context = "kEagerRuntime", tf._input_shapes = [#tf_type.shape<?x75>, #tf_type.shape<>, #tf_type.shape<>], tf.signature.is_stateful} {
    %0 = tf_executor.graph {
      %outputs, %control = tf_executor.island wraps "tf.ReadVariableOp"(%arg2) {device = ""} : (tensor<!tf_type.resource>) -> tensor<4xf32>
      %outputs_0, %control_1 = tf_executor.island wraps "tf.ReadVariableOp"(%arg1) {device = ""} : (tensor<!tf_type.resource>) -> tensor<75x4xf32>
      %outputs_2, %control_3 = tf_executor.island wraps "tf.MatMul"(%arg0, %outputs_0) {device = "", transpose_a = false, transpose_b = false} : (tensor<?x75xf32>, tensor<75x4xf32>) -> tensor<?x4xf32>
      %outputs_4, %control_5 = tf_executor.island wraps "tf.BiasAdd"(%outputs_2, %outputs) {data_format = "NHWC", device = ""} : (tensor<?x4xf32>, tensor<4xf32>) -> tensor<?x4xf32>
      %outputs_6, %control_7 = tf_executor.island wraps "tf.Relu"(%outputs_4) {device = ""} : (tensor<?x4xf32>) -> tensor<?x4xf32>
      %control_8 = tf_executor.island(%control_1, %control) wraps "tf.NoOp"() {device = ""} : () -> ()
      %outputs_9, %control_10 = tf_executor.island(%control_8) wraps "tf.Identity"(%outputs_6) {device = ""} : (tensor<?x4xf32>) -> tensor<?x4xf32>
      tf_executor.fetch %outputs_9, %control_1, %control : tensor<?x4xf32>, !tf_executor.control, !tf_executor.control
    }
    return %0 : tensor<?x4xf32>
  }
  func.func private @__inference_dense_layer_call_and_return_conditional_losses_5200(%arg0: tensor<?x75xf32> {tf._user_specified_name = "inputs"}, %arg1: tensor<!tf_type.resource> {tf._user_specified_name = "resource"}, %arg2: tensor<!tf_type.resource> {tf._user_specified_name = "resource"}) -> tensor<?x4xf32> attributes {tf._construction_context = "kEagerRuntime", tf._input_shapes = [#tf_type.shape<?x75>, #tf_type.shape<>, #tf_type.shape<>], tf.signature.is_stateful} {
    %0 = tf_executor.graph {
      %outputs, %control = tf_executor.island wraps "tf.ReadVariableOp"(%arg2) {device = ""} : (tensor<!tf_type.resource>) -> tensor<4xf32>
      %outputs_0, %control_1 = tf_executor.island wraps "tf.ReadVariableOp"(%arg1) {device = ""} : (tensor<!tf_type.resource>) -> tensor<75x4xf32>
      %outputs_2, %control_3 = tf_executor.island wraps "tf.MatMul"(%arg0, %outputs_0) {device = "", transpose_a = false, transpose_b = false} : (tensor<?x75xf32>, tensor<75x4xf32>) -> tensor<?x4xf32>
      %outputs_4, %control_5 = tf_executor.island wraps "tf.BiasAdd"(%outputs_2, %outputs) {data_format = "NHWC", device = ""} : (tensor<?x4xf32>, tensor<4xf32>) -> tensor<?x4xf32>
      %outputs_6, %control_7 = tf_executor.island wraps "tf.Relu"(%outputs_4) {device = ""} : (tensor<?x4xf32>) -> tensor<?x4xf32>
      %control_8 = tf_executor.island(%control_1, %control) wraps "tf.NoOp"() {device = ""} : () -> ()
      %outputs_9, %control_10 = tf_executor.island(%control_8) wraps "tf.Identity"(%outputs_6) {device = ""} : (tensor<?x4xf32>) -> tensor<?x4xf32>
      tf_executor.fetch %outputs_9, %control_1, %control : tensor<?x4xf32>, !tf_executor.control, !tf_executor.control
    }
    return %0 : tensor<?x4xf32>
  }
  func.func private @__inference_dense_layer_call_fn_5090(%arg0: tensor<?x75xf32> {tf._user_specified_name = "inputs"}, %arg1: tensor<!tf_type.resource> {tf._user_specified_name = "503"}, %arg2: tensor<!tf_type.resource> {tf._user_specified_name = "505"}) -> tensor<?x?xf32> attributes {tf._construction_context = "kEagerRuntime", tf._input_shapes = [#tf_type.shape<?x75>, #tf_type.shape<>, #tf_type.shape<>], tf.signature.is_stateful} {
    %0 = tf_executor.graph {
      %outputs, %control = tf_executor.island wraps "tf.StatefulPartitionedCall"(%arg0, %arg1, %arg2) {_collective_manager_ids = [], _read_only_resource_inputs = [1, 2], config = "", config_proto = "\0A\07\0A\03CPU\10\01\0A\07\0A\03GPU\10\002\02J\008\01\82\01\00", device = "", executor_type = "", f = @__inference_dense_layer_call_and_return_conditional_losses_2960} : (tensor<?x75xf32>, tensor<!tf_type.resource>, tensor<!tf_type.resource>) -> tensor<?x?xf32>
      %control_0 = tf_executor.island(%control) wraps "tf.NoOp"() {device = ""} : () -> ()
      %outputs_1, %control_2 = tf_executor.island(%control_0) wraps "tf.Identity"(%outputs) {device = ""} : (tensor<?x?xf32>) -> tensor<?x?xf32>
      tf_executor.fetch %outputs_1, %control : tensor<?x?xf32>, !tf_executor.control
    }
    return %0 : tensor<?x?xf32>
  }
  func.func private @__inference_flatten_layer_call_and_return_conditional_losses_2840(%arg0: tensor<?x5x5x3xf32> {tf._user_specified_name = "inputs"}) -> tensor<?x75xf32> attributes {tf._construction_context = "kEagerRuntime", tf._input_shapes = [#tf_type.shape<?x5x5x3>]} {
    %0 = tf_executor.graph {
      %outputs, %control = tf_executor.island wraps "tf.Const"() {device = "", value = dense<[-1, 75]> : tensor<2xi32>} : () -> tensor<2xi32>
      %outputs_0, %control_1 = tf_executor.island wraps "tf.Reshape"(%arg0, %outputs) {device = ""} : (tensor<?x5x5x3xf32>, tensor<2xi32>) -> tensor<?x75xf32>
      %outputs_2, %control_3 = tf_executor.island wraps "tf.Identity"(%outputs_0) {device = ""} : (tensor<?x75xf32>) -> tensor<?x75xf32>
      tf_executor.fetch %outputs_2 : tensor<?x75xf32>
    }
    return %0 : tensor<?x75xf32>
  }
  func.func private @__inference_flatten_layer_call_and_return_conditional_losses_5000(%arg0: tensor<?x5x5x3xf32> {tf._user_specified_name = "inputs"}) -> tensor<?x75xf32> attributes {tf._construction_context = "kEagerRuntime", tf._input_shapes = [#tf_type.shape<?x5x5x3>]} {
    %0 = tf_executor.graph {
      %outputs, %control = tf_executor.island wraps "tf.Const"() {device = "", value = dense<[-1, 75]> : tensor<2xi32>} : () -> tensor<2xi32>
      %outputs_0, %control_1 = tf_executor.island wraps "tf.Reshape"(%arg0, %outputs) {device = ""} : (tensor<?x5x5x3xf32>, tensor<2xi32>) -> tensor<?x75xf32>
      %outputs_2, %control_3 = tf_executor.island wraps "tf.Identity"(%outputs_0) {device = ""} : (tensor<?x75xf32>) -> tensor<?x75xf32>
      tf_executor.fetch %outputs_2 : tensor<?x75xf32>
    }
    return %0 : tensor<?x75xf32>
  }
  func.func private @__inference_flatten_layer_call_fn_4940(%arg0: tensor<?x5x5x3xf32> {tf._user_specified_name = "inputs"}) -> tensor<?x75xf32> attributes {tf._construction_context = "kEagerRuntime", tf._input_shapes = [#tf_type.shape<?x5x5x3>]} {
    %0 = tf_executor.graph {
      %outputs, %control = tf_executor.island wraps "tf.PartitionedCall"(%arg0) {_collective_manager_ids = [], _read_only_resource_inputs = [], config = "", config_proto = "\0A\07\0A\03CPU\10\01\0A\07\0A\03GPU\10\002\02J\008\01\82\01\00", device = "", executor_type = "", f = @__inference_flatten_layer_call_and_return_conditional_losses_2840} : (tensor<?x5x5x3xf32>) -> tensor<?x75xf32>
      %outputs_0, %control_1 = tf_executor.island wraps "tf.Identity"(%outputs) {device = ""} : (tensor<?x75xf32>) -> tensor<?x75xf32>
      tf_executor.fetch %outputs_0 : tensor<?x75xf32>
    }
    return %0 : tensor<?x75xf32>
  }
  func.func private @__inference_max_pooling2d_1_layer_call_and_return_conditional_losses_2370(%arg0: tensor<?x?x?x?xf32> {tf._user_specified_name = "inputs"}) -> tensor<?x?x?x?xf32> attributes {tf._construction_context = "kEagerRuntime", tf._input_shapes = [#tf_type.shape<?x?x?x?>]} {
    %0 = tf_executor.graph {
      %outputs, %control = tf_executor.island wraps "tf.MaxPool"(%arg0) {data_format = "NHWC", device = "", explicit_paddings = [], ksize = [1, 2, 2, 1], padding = "VALID", strides = [1, 2, 2, 1]} : (tensor<?x?x?x?xf32>) -> tensor<?x?x?x?xf32>
      %outputs_0, %control_1 = tf_executor.island wraps "tf.Identity"(%outputs) {device = ""} : (tensor<?x?x?x?xf32>) -> tensor<?x?x?x?xf32>
      tf_executor.fetch %outputs_0 : tensor<?x?x?x?xf32>
    }
    return %0 : tensor<?x?x?x?xf32>
  }
  func.func private @__inference_max_pooling2d_1_layer_call_and_return_conditional_losses_4890(%arg0: tensor<?x?x?x?xf32> {tf._user_specified_name = "inputs"}) -> tensor<?x?x?x?xf32> attributes {tf._construction_context = "kEagerRuntime", tf._input_shapes = [#tf_type.shape<?x?x?x?>]} {
    %0 = tf_executor.graph {
      %outputs, %control = tf_executor.island wraps "tf.MaxPool"(%arg0) {data_format = "NHWC", device = "", explicit_paddings = [], ksize = [1, 2, 2, 1], padding = "VALID", strides = [1, 2, 2, 1]} : (tensor<?x?x?x?xf32>) -> tensor<?x?x?x?xf32>
      %outputs_0, %control_1 = tf_executor.island wraps "tf.Identity"(%outputs) {device = ""} : (tensor<?x?x?x?xf32>) -> tensor<?x?x?x?xf32>
      tf_executor.fetch %outputs_0 : tensor<?x?x?x?xf32>
    }
    return %0 : tensor<?x?x?x?xf32>
  }
  func.func private @__inference_max_pooling2d_1_layer_call_fn_4840(%arg0: tensor<?x?x?x?xf32> {tf._user_specified_name = "inputs"}) -> tensor<?x?x?x?xf32> attributes {tf._construction_context = "kEagerRuntime", tf._input_shapes = [#tf_type.shape<?x?x?x?>]} {
    %0 = tf_executor.graph {
      %outputs, %control = tf_executor.island wraps "tf.PartitionedCall"(%arg0) {_collective_manager_ids = [], _read_only_resource_inputs = [], config = "", config_proto = "\0A\07\0A\03CPU\10\01\0A\07\0A\03GPU\10\002\02J\008\01\82\01\00", device = "", executor_type = "", f = @__inference_max_pooling2d_1_layer_call_and_return_conditional_losses_2370} : (tensor<?x?x?x?xf32>) -> tensor<?x?x?x?xf32>
      %outputs_0, %control_1 = tf_executor.island wraps "tf.Identity"(%outputs) {device = ""} : (tensor<?x?x?x?xf32>) -> tensor<?x?x?x?xf32>
      tf_executor.fetch %outputs_0 : tensor<?x?x?x?xf32>
    }
    return %0 : tensor<?x?x?x?xf32>
  }
  func.func private @__inference_max_pooling2d_layer_call_and_return_conditional_losses_2270(%arg0: tensor<?x?x?x?xf32> {tf._user_specified_name = "inputs"}) -> tensor<?x?x?x?xf32> attributes {tf._construction_context = "kEagerRuntime", tf._input_shapes = [#tf_type.shape<?x?x?x?>]} {
    %0 = tf_executor.graph {
      %outputs, %control = tf_executor.island wraps "tf.MaxPool"(%arg0) {data_format = "NHWC", device = "", explicit_paddings = [], ksize = [1, 2, 2, 1], padding = "VALID", strides = [1, 2, 2, 1]} : (tensor<?x?x?x?xf32>) -> tensor<?x?x?x?xf32>
      %outputs_0, %control_1 = tf_executor.island wraps "tf.Identity"(%outputs) {device = ""} : (tensor<?x?x?x?xf32>) -> tensor<?x?x?x?xf32>
      tf_executor.fetch %outputs_0 : tensor<?x?x?x?xf32>
    }
    return %0 : tensor<?x?x?x?xf32>
  }
  func.func private @__inference_max_pooling2d_layer_call_and_return_conditional_losses_4590(%arg0: tensor<?x?x?x?xf32> {tf._user_specified_name = "inputs"}) -> tensor<?x?x?x?xf32> attributes {tf._construction_context = "kEagerRuntime", tf._input_shapes = [#tf_type.shape<?x?x?x?>]} {
    %0 = tf_executor.graph {
      %outputs, %control = tf_executor.island wraps "tf.MaxPool"(%arg0) {data_format = "NHWC", device = "", explicit_paddings = [], ksize = [1, 2, 2, 1], padding = "VALID", strides = [1, 2, 2, 1]} : (tensor<?x?x?x?xf32>) -> tensor<?x?x?x?xf32>
      %outputs_0, %control_1 = tf_executor.island wraps "tf.Identity"(%outputs) {device = ""} : (tensor<?x?x?x?xf32>) -> tensor<?x?x?x?xf32>
      tf_executor.fetch %outputs_0 : tensor<?x?x?x?xf32>
    }
    return %0 : tensor<?x?x?x?xf32>
  }
  func.func private @__inference_max_pooling2d_layer_call_fn_4540(%arg0: tensor<?x?x?x?xf32> {tf._user_specified_name = "inputs"}) -> tensor<?x?x?x?xf32> attributes {tf._construction_context = "kEagerRuntime", tf._input_shapes = [#tf_type.shape<?x?x?x?>]} {
    %0 = tf_executor.graph {
      %outputs, %control = tf_executor.island wraps "tf.PartitionedCall"(%arg0) {_collective_manager_ids = [], _read_only_resource_inputs = [], config = "", config_proto = "\0A\07\0A\03CPU\10\01\0A\07\0A\03GPU\10\002\02J\008\01\82\01\00", device = "", executor_type = "", f = @__inference_max_pooling2d_layer_call_and_return_conditional_losses_2270} : (tensor<?x?x?x?xf32>) -> tensor<?x?x?x?xf32>
      %outputs_0, %control_1 = tf_executor.island wraps "tf.Identity"(%outputs) {device = ""} : (tensor<?x?x?x?xf32>) -> tensor<?x?x?x?xf32>
      tf_executor.fetch %outputs_0 : tensor<?x?x?x?xf32>
    }
    return %0 : tensor<?x?x?x?xf32>
  }
  func.func private @__inference_sequential_layer_call_and_return_conditional_losses_3190(%arg0: tensor<?x28x28x3xf32> {tf._user_specified_name = "conv2d_input"}, %arg1: tensor<!tf_type.resource> {tf._user_specified_name = "256"}, %arg2: tensor<!tf_type.resource> {tf._user_specified_name = "258"}, %arg3: tensor<!tf_type.resource> {tf._user_specified_name = "273"}, %arg4: tensor<!tf_type.resource> {tf._user_specified_name = "275"}, %arg5: tensor<!tf_type.resource> {tf._user_specified_name = "297"}, %arg6: tensor<!tf_type.resource> {tf._user_specified_name = "299"}, %arg7: tensor<!tf_type.resource> {tf._user_specified_name = "313"}, %arg8: tensor<!tf_type.resource> {tf._user_specified_name = "315"}) -> tensor<?x?xf32> attributes {tf._construction_context = "kEagerRuntime", tf._input_shapes = [#tf_type.shape<?x28x28x3>, #tf_type.shape<>, #tf_type.shape<>, #tf_type.shape<>, #tf_type.shape<>, #tf_type.shape<>, #tf_type.shape<>, #tf_type.shape<>, #tf_type.shape<>], tf.signature.is_stateful} {
    %0 = tf_executor.graph {
      %outputs, %control = tf_executor.island wraps "tf.StatefulPartitionedCall"(%arg0, %arg1, %arg2) {_collective_manager_ids = [], _read_only_resource_inputs = [1, 2], config = "", config_proto = "\0A\07\0A\03CPU\10\01\0A\07\0A\03GPU\10\002\02J\008\01\82\01\00", device = "", executor_type = "", f = @__inference_conv2d_layer_call_and_return_conditional_losses_2550} : (tensor<?x28x28x3xf32>, tensor<!tf_type.resource>, tensor<!tf_type.resource>) -> tensor<?x?x?x?xf32>
      %outputs_0, %control_1 = tf_executor.island wraps "tf.PartitionedCall"(%outputs) {_collective_manager_ids = [], _read_only_resource_inputs = [], config = "", config_proto = "\0A\07\0A\03CPU\10\01\0A\07\0A\03GPU\10\002\02J\008\01\82\01\00", device = "", executor_type = "", f = @__inference_max_pooling2d_layer_call_and_return_conditional_losses_2270} : (tensor<?x?x?x?xf32>) -> tensor<?x?x?x?xf32>
      %outputs_2, %control_3 = tf_executor.island wraps "tf.StatefulPartitionedCall"(%outputs_0, %arg3, %arg4) {_collective_manager_ids = [], _read_only_resource_inputs = [1, 2], config = "", config_proto = "\0A\07\0A\03CPU\10\01\0A\07\0A\03GPU\10\002\02J\008\01\82\01\00", device = "", executor_type = "", f = @__inference_conv2d_1_layer_call_and_return_conditional_losses_2720} : (tensor<?x?x?x?xf32>, tensor<!tf_type.resource>, tensor<!tf_type.resource>) -> tensor<?x?x?x?xf32>
      %outputs_4, %control_5 = tf_executor.island wraps "tf.PartitionedCall"(%outputs_2) {_collective_manager_ids = [], _read_only_resource_inputs = [], config = "", config_proto = "\0A\07\0A\03CPU\10\01\0A\07\0A\03GPU\10\002\02J\008\01\82\01\00", device = "", executor_type = "", f = @__inference_max_pooling2d_1_layer_call_and_return_conditional_losses_2370} : (tensor<?x?x?x?xf32>) -> tensor<?x?x?x?xf32>
      %outputs_6, %control_7 = tf_executor.island wraps "tf.PartitionedCall"(%outputs_4) {_collective_manager_ids = [], _read_only_resource_inputs = [], config = "", config_proto = "\0A\07\0A\03CPU\10\01\0A\07\0A\03GPU\10\002\02J\008\01\82\01\00", device = "", executor_type = "", f = @__inference_flatten_layer_call_and_return_conditional_losses_2840} : (tensor<?x?x?x?xf32>) -> tensor<?x75xf32>
      %outputs_8, %control_9 = tf_executor.island wraps "tf.StatefulPartitionedCall"(%outputs_6, %arg5, %arg6) {_collective_manager_ids = [], _read_only_resource_inputs = [1, 2], config = "", config_proto = "\0A\07\0A\03CPU\10\01\0A\07\0A\03GPU\10\002\02J\008\01\82\01\00", device = "", executor_type = "", f = @__inference_dense_layer_call_and_return_conditional_losses_2960} : (tensor<?x75xf32>, tensor<!tf_type.resource>, tensor<!tf_type.resource>) -> tensor<?x?xf32>
      %outputs_10, %control_11 = tf_executor.island wraps "tf.StatefulPartitionedCall"(%outputs_8, %arg7, %arg8) {_collective_manager_ids = [], _read_only_resource_inputs = [1, 2], config = "", config_proto = "\0A\07\0A\03CPU\10\01\0A\07\0A\03GPU\10\002\02J\008\01\82\01\00", device = "", executor_type = "", f = @__inference_dense_1_layer_call_and_return_conditional_losses_3120} : (tensor<?x?xf32>, tensor<!tf_type.resource>, tensor<!tf_type.resource>) -> tensor<?x?xf32>
      %control_12 = tf_executor.island(%control, %control_3, %control_9, %control_11) wraps "tf.NoOp"() {device = ""} : () -> ()
      %outputs_13, %control_14 = tf_executor.island(%control_12) wraps "tf.Identity"(%outputs_10) {device = ""} : (tensor<?x?xf32>) -> tensor<?x?xf32>
      tf_executor.fetch %outputs_13, %control, %control_3, %control_9, %control_11 : tensor<?x?xf32>, !tf_executor.control, !tf_executor.control, !tf_executor.control, !tf_executor.control
    }
    return %0 : tensor<?x?xf32>
  }
  func.func private @__inference_sequential_layer_call_and_return_conditional_losses_3460(%arg0: tensor<?x28x28x3xf32> {tf._user_specified_name = "conv2d_input"}, %arg1: tensor<!tf_type.resource> {tf._user_specified_name = "322"}, %arg2: tensor<!tf_type.resource> {tf._user_specified_name = "324"}, %arg3: tensor<!tf_type.resource> {tf._user_specified_name = "328"}, %arg4: tensor<!tf_type.resource> {tf._user_specified_name = "330"}, %arg5: tensor<!tf_type.resource> {tf._user_specified_name = "335"}, %arg6: tensor<!tf_type.resource> {tf._user_specified_name = "337"}, %arg7: tensor<!tf_type.resource> {tf._user_specified_name = "340"}, %arg8: tensor<!tf_type.resource> {tf._user_specified_name = "342"}) -> tensor<?x?xf32> attributes {tf._construction_context = "kEagerRuntime", tf._input_shapes = [#tf_type.shape<?x28x28x3>, #tf_type.shape<>, #tf_type.shape<>, #tf_type.shape<>, #tf_type.shape<>, #tf_type.shape<>, #tf_type.shape<>, #tf_type.shape<>, #tf_type.shape<>], tf.signature.is_stateful} {
    %0 = tf_executor.graph {
      %outputs, %control = tf_executor.island wraps "tf.StatefulPartitionedCall"(%arg0, %arg1, %arg2) {_collective_manager_ids = [], _read_only_resource_inputs = [1, 2], config = "", config_proto = "\0A\07\0A\03CPU\10\01\0A\07\0A\03GPU\10\002\02J\008\01\82\01\00", device = "", executor_type = "", f = @__inference_conv2d_layer_call_and_return_conditional_losses_2550} : (tensor<?x28x28x3xf32>, tensor<!tf_type.resource>, tensor<!tf_type.resource>) -> tensor<?x?x?x?xf32>
      %outputs_0, %control_1 = tf_executor.island wraps "tf.PartitionedCall"(%outputs) {_collective_manager_ids = [], _read_only_resource_inputs = [], config = "", config_proto = "\0A\07\0A\03CPU\10\01\0A\07\0A\03GPU\10\002\02J\008\01\82\01\00", device = "", executor_type = "", f = @__inference_max_pooling2d_layer_call_and_return_conditional_losses_2270} : (tensor<?x?x?x?xf32>) -> tensor<?x?x?x?xf32>
      %outputs_2, %control_3 = tf_executor.island wraps "tf.StatefulPartitionedCall"(%outputs_0, %arg3, %arg4) {_collective_manager_ids = [], _read_only_resource_inputs = [1, 2], config = "", config_proto = "\0A\07\0A\03CPU\10\01\0A\07\0A\03GPU\10\002\02J\008\01\82\01\00", device = "", executor_type = "", f = @__inference_conv2d_1_layer_call_and_return_conditional_losses_2720} : (tensor<?x?x?x?xf32>, tensor<!tf_type.resource>, tensor<!tf_type.resource>) -> tensor<?x?x?x?xf32>
      %outputs_4, %control_5 = tf_executor.island wraps "tf.PartitionedCall"(%outputs_2) {_collective_manager_ids = [], _read_only_resource_inputs = [], config = "", config_proto = "\0A\07\0A\03CPU\10\01\0A\07\0A\03GPU\10\002\02J\008\01\82\01\00", device = "", executor_type = "", f = @__inference_max_pooling2d_1_layer_call_and_return_conditional_losses_2370} : (tensor<?x?x?x?xf32>) -> tensor<?x?x?x?xf32>
      %outputs_6, %control_7 = tf_executor.island wraps "tf.PartitionedCall"(%outputs_4) {_collective_manager_ids = [], _read_only_resource_inputs = [], config = "", config_proto = "\0A\07\0A\03CPU\10\01\0A\07\0A\03GPU\10\002\02J\008\01\82\01\00", device = "", executor_type = "", f = @__inference_flatten_layer_call_and_return_conditional_losses_2840} : (tensor<?x?x?x?xf32>) -> tensor<?x75xf32>
      %outputs_8, %control_9 = tf_executor.island wraps "tf.StatefulPartitionedCall"(%outputs_6, %arg5, %arg6) {_collective_manager_ids = [], _read_only_resource_inputs = [1, 2], config = "", config_proto = "\0A\07\0A\03CPU\10\01\0A\07\0A\03GPU\10\002\02J\008\01\82\01\00", device = "", executor_type = "", f = @__inference_dense_layer_call_and_return_conditional_losses_2960} : (tensor<?x75xf32>, tensor<!tf_type.resource>, tensor<!tf_type.resource>) -> tensor<?x?xf32>
      %outputs_10, %control_11 = tf_executor.island wraps "tf.StatefulPartitionedCall"(%outputs_8, %arg7, %arg8) {_collective_manager_ids = [], _read_only_resource_inputs = [1, 2], config = "", config_proto = "\0A\07\0A\03CPU\10\01\0A\07\0A\03GPU\10\002\02J\008\01\82\01\00", device = "", executor_type = "", f = @__inference_dense_1_layer_call_and_return_conditional_losses_3120} : (tensor<?x?xf32>, tensor<!tf_type.resource>, tensor<!tf_type.resource>) -> tensor<?x?xf32>
      %control_12 = tf_executor.island(%control, %control_3, %control_9, %control_11) wraps "tf.NoOp"() {device = ""} : () -> ()
      %outputs_13, %control_14 = tf_executor.island(%control_12) wraps "tf.Identity"(%outputs_10) {device = ""} : (tensor<?x?xf32>) -> tensor<?x?xf32>
      tf_executor.fetch %outputs_13, %control, %control_3, %control_9, %control_11 : tensor<?x?xf32>, !tf_executor.control, !tf_executor.control, !tf_executor.control, !tf_executor.control
    }
    return %0 : tensor<?x?xf32>
  }
  func.func private @__inference_sequential_layer_call_fn_3670(%arg0: tensor<?x28x28x3xf32> {tf._user_specified_name = "conv2d_input"}, %arg1: tensor<!tf_type.resource> {tf._user_specified_name = "349"}, %arg2: tensor<!tf_type.resource> {tf._user_specified_name = "351"}, %arg3: tensor<!tf_type.resource> {tf._user_specified_name = "353"}, %arg4: tensor<!tf_type.resource> {tf._user_specified_name = "355"}, %arg5: tensor<!tf_type.resource> {tf._user_specified_name = "357"}, %arg6: tensor<!tf_type.resource> {tf._user_specified_name = "359"}, %arg7: tensor<!tf_type.resource> {tf._user_specified_name = "361"}, %arg8: tensor<!tf_type.resource> {tf._user_specified_name = "363"}) -> tensor<?x?xf32> attributes {tf._construction_context = "kEagerRuntime", tf._input_shapes = [#tf_type.shape<?x28x28x3>, #tf_type.shape<>, #tf_type.shape<>, #tf_type.shape<>, #tf_type.shape<>, #tf_type.shape<>, #tf_type.shape<>, #tf_type.shape<>, #tf_type.shape<>], tf.signature.is_stateful} {
    %0 = tf_executor.graph {
      %outputs, %control = tf_executor.island wraps "tf.StatefulPartitionedCall"(%arg0, %arg1, %arg2, %arg3, %arg4, %arg5, %arg6, %arg7, %arg8) {_collective_manager_ids = [], _read_only_resource_inputs = [1, 2, 3, 4, 5, 6, 7, 8], config = "", config_proto = "\0A\07\0A\03CPU\10\01\0A\07\0A\03GPU\10\002\02J\008\01\82\01\00", device = "", executor_type = "", f = @__inference_sequential_layer_call_and_return_conditional_losses_3190} : (tensor<?x28x28x3xf32>, tensor<!tf_type.resource>, tensor<!tf_type.resource>, tensor<!tf_type.resource>, tensor<!tf_type.resource>, tensor<!tf_type.resource>, tensor<!tf_type.resource>, tensor<!tf_type.resource>, tensor<!tf_type.resource>) -> tensor<?x?xf32>
      %control_0 = tf_executor.island(%control) wraps "tf.NoOp"() {device = ""} : () -> ()
      %outputs_1, %control_2 = tf_executor.island(%control_0) wraps "tf.Identity"(%outputs) {device = ""} : (tensor<?x?xf32>) -> tensor<?x?xf32>
      tf_executor.fetch %outputs_1, %control : tensor<?x?xf32>, !tf_executor.control
    }
    return %0 : tensor<?x?xf32>
  }
  func.func private @__inference_sequential_layer_call_fn_3880(%arg0: tensor<?x28x28x3xf32> {tf._user_specified_name = "conv2d_input"}, %arg1: tensor<!tf_type.resource> {tf._user_specified_name = "370"}, %arg2: tensor<!tf_type.resource> {tf._user_specified_name = "372"}, %arg3: tensor<!tf_type.resource> {tf._user_specified_name = "374"}, %arg4: tensor<!tf_type.resource> {tf._user_specified_name = "376"}, %arg5: tensor<!tf_type.resource> {tf._user_specified_name = "378"}, %arg6: tensor<!tf_type.resource> {tf._user_specified_name = "380"}, %arg7: tensor<!tf_type.resource> {tf._user_specified_name = "382"}, %arg8: tensor<!tf_type.resource> {tf._user_specified_name = "384"}) -> tensor<?x?xf32> attributes {tf._construction_context = "kEagerRuntime", tf._input_shapes = [#tf_type.shape<?x28x28x3>, #tf_type.shape<>, #tf_type.shape<>, #tf_type.shape<>, #tf_type.shape<>, #tf_type.shape<>, #tf_type.shape<>, #tf_type.shape<>, #tf_type.shape<>], tf.signature.is_stateful} {
    %0 = tf_executor.graph {
      %outputs, %control = tf_executor.island wraps "tf.StatefulPartitionedCall"(%arg0, %arg1, %arg2, %arg3, %arg4, %arg5, %arg6, %arg7, %arg8) {_collective_manager_ids = [], _read_only_resource_inputs = [1, 2, 3, 4, 5, 6, 7, 8], config = "", config_proto = "\0A\07\0A\03CPU\10\01\0A\07\0A\03GPU\10\002\02J\008\01\82\01\00", device = "", executor_type = "", f = @__inference_sequential_layer_call_and_return_conditional_losses_3460} : (tensor<?x28x28x3xf32>, tensor<!tf_type.resource>, tensor<!tf_type.resource>, tensor<!tf_type.resource>, tensor<!tf_type.resource>, tensor<!tf_type.resource>, tensor<!tf_type.resource>, tensor<!tf_type.resource>, tensor<!tf_type.resource>) -> tensor<?x?xf32>
      %control_0 = tf_executor.island(%control) wraps "tf.NoOp"() {device = ""} : () -> ()
      %outputs_1, %control_2 = tf_executor.island(%control_0) wraps "tf.Identity"(%outputs) {device = ""} : (tensor<?x?xf32>) -> tensor<?x?xf32>
      tf_executor.fetch %outputs_1, %control : tensor<?x?xf32>, !tf_executor.control
    }
    return %0 : tensor<?x?xf32>
  }
}
