{"linalg.matmul ins(%arg0, %arg1 : tensor<1200x1500xf32>, tensor<1500x1000xf32>) outs(%arg2 : tensor<1200x1000xf32>) -> tensor<1200x1000xf32>": {"operation": "linalg.matmul ins(%arg0, %arg1 : tensor<1200x1500xf32>, tensor<1500x1000xf32>) outs(%arg2 : tensor<1200x1000xf32>) -> tensor<1200x1000xf32>", "wrapped_operation": "func.func @func_call(%arg0: tensor<1200x1500xf32>, %arg1: tensor<1500x1000xf32>, %arg2: tensor<1200x1000xf32>) -> tensor<1200x1000xf32> {\n  %ret = linalg.matmul ins(%arg0, %arg1 : tensor<1200x1500xf32>, tensor<1500x1000xf32>) outs(%arg2 : tensor<1200x1000xf32>) -> tensor<1200x1000xf32>\n  return %ret : tensor<1200x1000xf32>\n}", "lowered_operation": "module {\n  func.func @func_call(%arg0: tensor<1200x1500xf32>, %arg1: tensor<1500x1000xf32>, %arg2: tensor<1200x1000xf32>) -> tensor<1200x1000xf32> {\n    %0 = bufferization.to_memref %arg1 : memref<1500x1000xf32>\n    %1 = bufferization.to_memref %arg0 : memref<1200x1500xf32>\n    %2 = bufferization.to_memref %arg2 : memref<1200x1000xf32>\n    %alloc = memref.alloc() {alignment = 64 : i64} : memref<1200x1000xf32>\n    memref.copy %2, %alloc : memref<1200x1000xf32> to memref<1200x1000xf32>\n    affine.for %arg3 = 0 to 1200 {\n      affine.for %arg4 = 0 to 1000 {\n        affine.for %arg5 = 0 to 1500 {\n          %4 = affine.load %1[%arg3, %arg5] : memref<1200x1500xf32>\n          %5 = affine.load %0[%arg5, %arg4] : memref<1500x1000xf32>\n          %6 = affine.load %alloc[%arg3, %arg4] : memref<1200x1000xf32>\n          %7 = arith.mulf %4, %5 : f32\n          %8 = arith.addf %6, %7 : f32\n          affine.store %8, %alloc[%arg3, %arg4] : memref<1200x1000xf32>\n        }\n      }\n    }\n    %3 = bufferization.to_tensor %alloc : memref<1200x1000xf32>\n    return %3 : tensor<1200x1000xf32>\n  }\n}\n\n", "transform_wrapped_operation": "module attributes {torch.debug_module_name = \"Net\"} {\nfunc.func private @nanoTime() -> i64 attributes { llvm.emit_c_interface }\nfunc.func private @printFlops(f64)\nfunc.func private @printI64(i64)\nfunc.func private @printNewline()\nfunc.func private @printMemrefF32(tensor<*xf32>)\n\n\nfunc.func @matmul() -> tensor<1200x1000xf32>{\n\n%val = arith.constant 2.00000e+00 : f32\n%zero = arith.constant 0.00000e+00 : f32\n\n%tmp_arg0 = bufferization.alloc_tensor() : tensor<1200x1500xf32>\n%arg0 = linalg.fill ins(%val : f32) outs(%tmp_arg0 : tensor<1200x1500xf32>) -> tensor<1200x1500xf32>\n%tmp_arg1 = bufferization.alloc_tensor() : tensor<1500x1000xf32>\n%arg1 = linalg.fill ins(%val : f32) outs(%tmp_arg1 : tensor<1500x1000xf32>) -> tensor<1500x1000xf32>\n%tmp_arg2 = bufferization.alloc_tensor() : tensor<1200x1000xf32>\n%arg2 = linalg.fill ins(%val : f32) outs(%tmp_arg2 : tensor<1200x1000xf32>) -> tensor<1200x1000xf32>\n\n%t0 = func.call @nanoTime() : () -> (i64)\n\n%return_arg = linalg.matmul ins(%arg0, %arg1 : tensor<1200x1500xf32>, tensor<1500x1000xf32>) outs(%arg2 : tensor<1200x1000xf32>) -> tensor<1200x1000xf32>\n%t = func.call @nanoTime() : () -> (i64)\n%delta = arith.subi %t, %t0 : i64\n%fp = arith.uitofp %delta : i64 to f64\n// func.call @printFlops(%fp) : (f64) -> ()\nfunc.call @printI64(%delta) : (i64) -> ()\nfunc.call @printNewline() : () -> ()\n\nreturn %return_arg : tensor<1200x1000xf32> \n}\n\nfunc.func @main(){\n    %c1 = arith.constant 1: index\n    %c0 = arith.constant 0 : index\n    %n = arith.constant 2: index\n    scf.for %i = %c0 to %n step %c1 {\n    %outputmain = func.call @matmul() : () -> tensor<1200x1000xf32>\n    }\n    return\n}\n}\n", "loops_data": {"nested_loops": [["%arg3", 0, 1200, 1], ["%arg4", 0, 1000, 1], ["%arg5", 0, 1500, 1]], "op_count": {"+": 1, "-": 0, "*": 1, "/": 0, "exp": 0}, "load_data": [["%arg3", "%arg5"], ["%arg5", "%arg4"], ["%arg3", "%arg4"]], "store_data": []}, "execution_time": 6849649638}, "linalg.conv_2d_nchw_fchw {dilations = dense<1> : vector<2xi64>, strides = dense<2> : vector<2xi64>} ins (%input, %filter: tensor<32x3x230x230xf32>, tensor<64x3x7x7xf32>) outs (%init: tensor<32x64x112x112xf32>) -> tensor<32x64x112x112xf32>": {"operation": "linalg.conv_2d_nchw_fchw {dilations = dense<1> : vector<2xi64>, strides = dense<2> : vector<2xi64>} ins (%input, %filter: tensor<32x3x230x230xf32>, tensor<64x3x7x7xf32>) outs (%init: tensor<32x64x112x112xf32>) -> tensor<32x64x112x112xf32>", "wrapped_operation": "func.func @func_call(%input: tensor<32x3x230x230xf32>, %filter: tensor<64x3x7x7xf32>, %init: tensor<32x64x112x112xf32>) -> tensor<32x64x112x112xf32> {\n  %ret = linalg.conv_2d_nchw_fchw {dilations = dense<1> : vector<2xi64>, strides = dense<2> : vector<2xi64>} ins (%input, %filter: tensor<32x3x230x230xf32>, tensor<64x3x7x7xf32>) outs (%init: tensor<32x64x112x112xf32>) -> tensor<32x64x112x112xf32>\n  return %ret : tensor<32x64x112x112xf32>\n}", "lowered_operation": "#map = affine_map<(d0, d1) -> (d0 * 2 + d1)>\nmodule {\n  func.func @func_call(%arg0: tensor<32x3x230x230xf32>, %arg1: tensor<64x3x7x7xf32>, %arg2: tensor<32x64x112x112xf32>) -> tensor<32x64x112x112xf32> {\n    %0 = bufferization.to_memref %arg1 : memref<64x3x7x7xf32>\n    %1 = bufferization.to_memref %arg0 : memref<32x3x230x230xf32>\n    %2 = bufferization.to_memref %arg2 : memref<32x64x112x112xf32>\n    %alloc = memref.alloc() {alignment = 64 : i64} : memref<32x64x112x112xf32>\n    memref.copy %2, %alloc : memref<32x64x112x112xf32> to memref<32x64x112x112xf32>\n    affine.for %arg3 = 0 to 32 {\n      affine.for %arg4 = 0 to 64 {\n        affine.for %arg5 = 0 to 112 {\n          affine.for %arg6 = 0 to 112 {\n            affine.for %arg7 = 0 to 3 {\n              affine.for %arg8 = 0 to 7 {\n                affine.for %arg9 = 0 to 7 {\n                  %4 = affine.apply #map(%arg5, %arg8)\n                  %5 = affine.apply #map(%arg6, %arg9)\n                  %6 = affine.load %1[%arg3, %arg7, %4, %5] : memref<32x3x230x230xf32>\n                  %7 = affine.load %0[%arg4, %arg7, %arg8, %arg9] : memref<64x3x7x7xf32>\n                  %8 = affine.load %alloc[%arg3, %arg4, %arg5, %arg6] : memref<32x64x112x112xf32>\n                  %9 = arith.mulf %6, %7 : f32\n                  %10 = arith.addf %8, %9 : f32\n                  affine.store %10, %alloc[%arg3, %arg4, %arg5, %arg6] : memref<32x64x112x112xf32>\n                }\n              }\n            }\n          }\n        }\n      }\n    }\n    %3 = bufferization.to_tensor %alloc : memref<32x64x112x112xf32>\n    return %3 : tensor<32x64x112x112xf32>\n  }\n}\n\n", "transform_wrapped_operation": "module attributes {torch.debug_module_name = \"Net\"} {\nfunc.func private @nanoTime() -> i64 attributes { llvm.emit_c_interface }\nfunc.func private @printFlops(f64)\nfunc.func private @printI64(i64)\nfunc.func private @printNewline()\nfunc.func private @printMemrefF32(tensor<*xf32>)\n\n\nfunc.func @matmul() -> tensor<32x64x112x112xf32>{\n\n%val = arith.constant 2.00000e+00 : f32\n%zero = arith.constant 0.00000e+00 : f32\n\n%tmp_input = bufferization.alloc_tensor() : tensor<32x3x230x230xf32>\n%input = linalg.fill ins(%val : f32) outs(%tmp_input : tensor<32x3x230x230xf32>) -> tensor<32x3x230x230xf32>\n%tmp_filter = bufferization.alloc_tensor() : tensor<64x3x7x7xf32>\n%filter = linalg.fill ins(%val : f32) outs(%tmp_filter : tensor<64x3x7x7xf32>) -> tensor<64x3x7x7xf32>\n%tmp_init = bufferization.alloc_tensor() : tensor<32x64x112x112xf32>\n%init = linalg.fill ins(%val : f32) outs(%tmp_init : tensor<32x64x112x112xf32>) -> tensor<32x64x112x112xf32>\n\n%t0 = func.call @nanoTime() : () -> (i64)\n\n%return_arg = linalg.conv_2d_nchw_fchw {dilations = dense<1> : vector<2xi64>, strides = dense<2> : vector<2xi64>} ins (%input, %filter: tensor<32x3x230x230xf32>, tensor<64x3x7x7xf32>) outs (%init: tensor<32x64x112x112xf32>) -> tensor<32x64x112x112xf32>\n%t = func.call @nanoTime() : () -> (i64)\n%delta = arith.subi %t, %t0 : i64\n%fp = arith.uitofp %delta : i64 to f64\n// func.call @printFlops(%fp) : (f64) -> ()\nfunc.call @printI64(%delta) : (i64) -> ()\nfunc.call @printNewline() : () -> ()\n\nreturn %return_arg : tensor<32x64x112x112xf32> \n}\n\nfunc.func @main(){\n    %c1 = arith.constant 1: index\n    %c0 = arith.constant 0 : index\n    %n = arith.constant 2: index\n    scf.for %i = %c0 to %n step %c1 {\n    %outputmain = func.call @matmul() : () -> tensor<32x64x112x112xf32>\n    }\n    return\n}\n}\n", "loops_data": {"nested_loops": [["%arg3", 0, 32, 1], ["%arg4", 0, 64, 1], ["%arg5", 0, 112, 1], ["%arg6", 0, 112, 1], ["%arg7", 0, 3, 1], ["%arg8", 0, 7, 1], ["%arg9", 0, 7, 1]], "op_count": {"+": 1, "-": 0, "*": 1, "/": 0, "exp": 0}, "load_data": [["%arg3", "%arg7", "%arg5 * 2 + %arg8", "%arg6 * 2 + %arg9"], ["%arg4", "%arg7", "%arg8", "%arg9"], ["%arg3", "%arg4", "%arg5", "%arg6"]], "store_data": []}, "execution_time": 13559757855}}