{"linalg.pooling_nchw_max {dilations = dense<1> : tensor<2xi64>, strides = dense<1> : tensor<2xi64>} ins (%input, %filter: tensor<16x512x256x32xf32>, tensor<1x1xf32>) outs (%init: tensor<16x512x256x32xf32>) -> tensor<16x512x256x32xf32>": {"operation": "linalg.pooling_nchw_max {dilations = dense<1> : tensor<2xi64>, strides = dense<1> : tensor<2xi64>} ins (%input, %filter: tensor<16x512x256x32xf32>, tensor<1x1xf32>) outs (%init: tensor<16x512x256x32xf32>) -> tensor<16x512x256x32xf32>", "wrapped_operation": "func.func @func_call(%input: tensor<16x512x256x32xf32>, %filter: tensor<1x1xf32>, %init: tensor<16x512x256x32xf32>) -> tensor<16x512x256x32xf32> {\n  %ret = linalg.pooling_nchw_max {dilations = dense<1> : tensor<2xi64>, strides = dense<1> : tensor<2xi64>} ins (%input, %filter: tensor<16x512x256x32xf32>, tensor<1x1xf32>) outs (%init: tensor<16x512x256x32xf32>) -> tensor<16x512x256x32xf32>\n  return %ret : tensor<16x512x256x32xf32>\n}", "lowered_operation": "#map = affine_map<(d0, d1) -> (d0 + d1)>\nmodule {\n  func.func @func_call(%arg0: tensor<16x512x256x32xf32>, %arg1: tensor<1x1xf32>, %arg2: tensor<16x512x256x32xf32>) -> tensor<16x512x256x32xf32> {\n    %0 = bufferization.to_memref %arg0 : memref<16x512x256x32xf32>\n    %1 = bufferization.to_memref %arg2 : memref<16x512x256x32xf32>\n    %alloc = memref.alloc() {alignment = 64 : i64} : memref<16x512x256x32xf32>\n    memref.copy %1, %alloc : memref<16x512x256x32xf32> to memref<16x512x256x32xf32>\n    affine.for %arg3 = 0 to 16 {\n      affine.for %arg4 = 0 to 512 {\n        affine.for %arg5 = 0 to 256 {\n          affine.for %arg6 = 0 to 32 {\n            affine.for %arg7 = 0 to 1 {\n              affine.for %arg8 = 0 to 1 {\n                %3 = affine.apply #map(%arg5, %arg7)\n                %4 = affine.apply #map(%arg6, %arg8)\n                %5 = affine.load %0[%arg3, %arg4, %3, %4] : memref<16x512x256x32xf32>\n                %6 = affine.load %alloc[%arg3, %arg4, %arg5, %arg6] : memref<16x512x256x32xf32>\n                %7 = arith.maximumf %6, %5 : f32\n                affine.store %7, %alloc[%arg3, %arg4, %arg5, %arg6] : memref<16x512x256x32xf32>\n              }\n            }\n          }\n        }\n      }\n    }\n    %2 = bufferization.to_tensor %alloc : memref<16x512x256x32xf32>\n    return %2 : tensor<16x512x256x32xf32>\n  }\n}\n\n", "transform_wrapped_operation": "module attributes {torch.debug_module_name = \"Net\"} {\nfunc.func private @nanoTime() -> i64 attributes { llvm.emit_c_interface }\nfunc.func private @printFlops(f64)\nfunc.func private @printI64(i64)\nfunc.func private @printNewline()\nfunc.func private @printMemrefF32(tensor<*xf32>)\n\n\nfunc.func @matmul() -> tensor<16x512x256x32xf32>{\n\n%val = arith.constant 2.00000e+00 : f32\n%zero = arith.constant 0.00000e+00 : f32\n\n%tmp_input = bufferization.alloc_tensor() : tensor<16x512x256x32xf32>\n%input = linalg.fill ins(%val : f32) outs(%tmp_input : tensor<16x512x256x32xf32>) -> tensor<16x512x256x32xf32>\n%tmp_filter = bufferization.alloc_tensor() : tensor<1x1xf32>\n%filter = linalg.fill ins(%val : f32) outs(%tmp_filter : tensor<1x1xf32>) -> tensor<1x1xf32>\n%tmp_init = bufferization.alloc_tensor() : tensor<16x512x256x32xf32>\n%init = linalg.fill ins(%val : f32) outs(%tmp_init : tensor<16x512x256x32xf32>) -> tensor<16x512x256x32xf32>\n\n%t0 = func.call @nanoTime() : () -> (i64)\n\n%return_arg = linalg.pooling_nchw_max {dilations = dense<1> : tensor<2xi64>, strides = dense<1> : tensor<2xi64>} ins (%input, %filter: tensor<16x512x256x32xf32>, tensor<1x1xf32>) outs (%init: tensor<16x512x256x32xf32>) -> tensor<16x512x256x32xf32>\n%t = func.call @nanoTime() : () -> (i64)\n%delta = arith.subi %t, %t0 : i64\n%fp = arith.uitofp %delta : i64 to f64\n// func.call @printFlops(%fp) : (f64) -> ()\nfunc.call @printI64(%delta) : (i64) -> ()\nfunc.call @printNewline() : () -> ()\n\nreturn %return_arg : tensor<16x512x256x32xf32> \n}\n\nfunc.func @main(){\n    %c1 = arith.constant 1: index\n    %c0 = arith.constant 0 : index\n    %n = arith.constant 2: index\n    scf.for %i = %c0 to %n step %c1 {\n    %outputmain = func.call @matmul() : () -> tensor<16x512x256x32xf32>\n    }\n    return\n}\n}\n", "loops_data": {"nested_loops": [["%arg3", 0, 16, 1], ["%arg4", 0, 512, 1], ["%arg5", 0, 256, 1], ["%arg6", 0, 32, 1], ["%arg7", 0, 1, 1], ["%arg8", 0, 1, 1]], "op_count": {"+": 0, "-": 0, "*": 0, "/": 0, "exp": 0}, "load_data": [["%arg3", "%arg4", "%arg5 + %arg7", "%arg6 + %arg8"], ["%arg3", "%arg4", "%arg5", "%arg6"]], "store_data": []}, "execution_time": 97800172}, "linalg.pooling_nchw_max {dilations = dense<1> : tensor<2xi64>, strides = dense<2> : tensor<2xi64>} ins (%input, %filter: tensor<16x256x256x32xf32>, tensor<5x5xf32>) outs (%init: tensor<16x256x126x14xf32>) -> tensor<16x256x126x14xf32>": {"operation": "linalg.pooling_nchw_max {dilations = dense<1> : tensor<2xi64>, strides = dense<2> : tensor<2xi64>} ins (%input, %filter: tensor<16x256x256x32xf32>, tensor<5x5xf32>) outs (%init: tensor<16x256x126x14xf32>) -> tensor<16x256x126x14xf32>", "wrapped_operation": "func.func @func_call(%input: tensor<16x256x256x32xf32>, %filter: tensor<5x5xf32>, %init: tensor<16x256x126x14xf32>) -> tensor<16x256x126x14xf32> {\n  %ret = linalg.pooling_nchw_max {dilations = dense<1> : tensor<2xi64>, strides = dense<2> : tensor<2xi64>} ins (%input, %filter: tensor<16x256x256x32xf32>, tensor<5x5xf32>) outs (%init: tensor<16x256x126x14xf32>) -> tensor<16x256x126x14xf32>\n  return %ret : tensor<16x256x126x14xf32>\n}", "lowered_operation": "#map = affine_map<(d0, d1) -> (d0 * 2 + d1)>\nmodule {\n  func.func @func_call(%arg0: tensor<16x256x256x32xf32>, %arg1: tensor<5x5xf32>, %arg2: tensor<16x256x126x14xf32>) -> tensor<16x256x126x14xf32> {\n    %0 = bufferization.to_memref %arg0 : memref<16x256x256x32xf32>\n    %1 = bufferization.to_memref %arg2 : memref<16x256x126x14xf32>\n    %alloc = memref.alloc() {alignment = 64 : i64} : memref<16x256x126x14xf32>\n    memref.copy %1, %alloc : memref<16x256x126x14xf32> to memref<16x256x126x14xf32>\n    affine.for %arg3 = 0 to 16 {\n      affine.for %arg4 = 0 to 256 {\n        affine.for %arg5 = 0 to 126 {\n          affine.for %arg6 = 0 to 14 {\n            affine.for %arg7 = 0 to 5 {\n              affine.for %arg8 = 0 to 5 {\n                %3 = affine.apply #map(%arg5, %arg7)\n                %4 = affine.apply #map(%arg6, %arg8)\n                %5 = affine.load %0[%arg3, %arg4, %3, %4] : memref<16x256x256x32xf32>\n                %6 = affine.load %alloc[%arg3, %arg4, %arg5, %arg6] : memref<16x256x126x14xf32>\n                %7 = arith.maximumf %6, %5 : f32\n                affine.store %7, %alloc[%arg3, %arg4, %arg5, %arg6] : memref<16x256x126x14xf32>\n              }\n            }\n          }\n        }\n      }\n    }\n    %2 = bufferization.to_tensor %alloc : memref<16x256x126x14xf32>\n    return %2 : tensor<16x256x126x14xf32>\n  }\n}\n\n", "transform_wrapped_operation": "module attributes {torch.debug_module_name = \"Net\"} {\nfunc.func private @nanoTime() -> i64 attributes { llvm.emit_c_interface }\nfunc.func private @printFlops(f64)\nfunc.func private @printI64(i64)\nfunc.func private @printNewline()\nfunc.func private @printMemrefF32(tensor<*xf32>)\n\n\nfunc.func @matmul() -> tensor<16x256x126x14xf32>{\n\n%val = arith.constant 2.00000e+00 : f32\n%zero = arith.constant 0.00000e+00 : f32\n\n%tmp_input = bufferization.alloc_tensor() : tensor<16x256x256x32xf32>\n%input = linalg.fill ins(%val : f32) outs(%tmp_input : tensor<16x256x256x32xf32>) -> tensor<16x256x256x32xf32>\n%tmp_filter = bufferization.alloc_tensor() : tensor<5x5xf32>\n%filter = linalg.fill ins(%val : f32) outs(%tmp_filter : tensor<5x5xf32>) -> tensor<5x5xf32>\n%tmp_init = bufferization.alloc_tensor() : tensor<16x256x126x14xf32>\n%init = linalg.fill ins(%val : f32) outs(%tmp_init : tensor<16x256x126x14xf32>) -> tensor<16x256x126x14xf32>\n\n%t0 = func.call @nanoTime() : () -> (i64)\n\n%return_arg = linalg.pooling_nchw_max {dilations = dense<1> : tensor<2xi64>, strides = dense<2> : tensor<2xi64>} ins (%input, %filter: tensor<16x256x256x32xf32>, tensor<5x5xf32>) outs (%init: tensor<16x256x126x14xf32>) -> tensor<16x256x126x14xf32>\n%t = func.call @nanoTime() : () -> (i64)\n%delta = arith.subi %t, %t0 : i64\n%fp = arith.uitofp %delta : i64 to f64\n// func.call @printFlops(%fp) : (f64) -> ()\nfunc.call @printI64(%delta) : (i64) -> ()\nfunc.call @printNewline() : () -> ()\n\nreturn %return_arg : tensor<16x256x126x14xf32> \n}\n\nfunc.func @main(){\n    %c1 = arith.constant 1: index\n    %c0 = arith.constant 0 : index\n    %n = arith.constant 2: index\n    scf.for %i = %c0 to %n step %c1 {\n    %outputmain = func.call @matmul() : () -> tensor<16x256x126x14xf32>\n    }\n    return\n}\n}\n", "loops_data": {"nested_loops": [["%arg3", 0, 16, 1], ["%arg4", 0, 256, 1], ["%arg5", 0, 126, 1], ["%arg6", 0, 14, 1], ["%arg7", 0, 5, 1], ["%arg8", 0, 5, 1]], "op_count": {"+": 0, "-": 0, "*": 0, "/": 0, "exp": 0}, "load_data": [["%arg3", "%arg4", "%arg5 * 2 + %arg7", "%arg6 * 2 + %arg8"], ["%arg3", "%arg4", "%arg5", "%arg6"]], "store_data": []}, "execution_time": 607403294}, "linalg.pooling_nchw_max {dilations = dense<1> : tensor<2xi64>, strides = dense<1> : tensor<2xi64>} ins (%input, %filter: tensor<32x8x32x64xf32>, tensor<7x7xf32>) outs (%init: tensor<32x8x26x58xf32>) -> tensor<32x8x26x58xf32>": {"operation": "linalg.pooling_nchw_max {dilations = dense<1> : tensor<2xi64>, strides = dense<1> : tensor<2xi64>} ins (%input, %filter: tensor<32x8x32x64xf32>, tensor<7x7xf32>) outs (%init: tensor<32x8x26x58xf32>) -> tensor<32x8x26x58xf32>", "wrapped_operation": "func.func @func_call(%input: tensor<32x8x32x64xf32>, %filter: tensor<7x7xf32>, %init: tensor<32x8x26x58xf32>) -> tensor<32x8x26x58xf32> {\n  %ret = linalg.pooling_nchw_max {dilations = dense<1> : tensor<2xi64>, strides = dense<1> : tensor<2xi64>} ins (%input, %filter: tensor<32x8x32x64xf32>, tensor<7x7xf32>) outs (%init: tensor<32x8x26x58xf32>) -> tensor<32x8x26x58xf32>\n  return %ret : tensor<32x8x26x58xf32>\n}", "lowered_operation": "#map = affine_map<(d0, d1) -> (d0 + d1)>\nmodule {\n  func.func @func_call(%arg0: tensor<32x8x32x64xf32>, %arg1: tensor<7x7xf32>, %arg2: tensor<32x8x26x58xf32>) -> tensor<32x8x26x58xf32> {\n    %0 = bufferization.to_memref %arg0 : memref<32x8x32x64xf32>\n    %1 = bufferization.to_memref %arg2 : memref<32x8x26x58xf32>\n    %alloc = memref.alloc() {alignment = 64 : i64} : memref<32x8x26x58xf32>\n    memref.copy %1, %alloc : memref<32x8x26x58xf32> to memref<32x8x26x58xf32>\n    affine.for %arg3 = 0 to 32 {\n      affine.for %arg4 = 0 to 8 {\n        affine.for %arg5 = 0 to 26 {\n          affine.for %arg6 = 0 to 58 {\n            affine.for %arg7 = 0 to 7 {\n              affine.for %arg8 = 0 to 7 {\n                %3 = affine.apply #map(%arg5, %arg7)\n                %4 = affine.apply #map(%arg6, %arg8)\n                %5 = affine.load %0[%arg3, %arg4, %3, %4] : memref<32x8x32x64xf32>\n                %6 = affine.load %alloc[%arg3, %arg4, %arg5, %arg6] : memref<32x8x26x58xf32>\n                %7 = arith.maximumf %6, %5 : f32\n                affine.store %7, %alloc[%arg3, %arg4, %arg5, %arg6] : memref<32x8x26x58xf32>\n              }\n            }\n          }\n        }\n      }\n    }\n    %2 = bufferization.to_tensor %alloc : memref<32x8x26x58xf32>\n    return %2 : tensor<32x8x26x58xf32>\n  }\n}\n\n", "transform_wrapped_operation": "module attributes {torch.debug_module_name = \"Net\"} {\nfunc.func private @nanoTime() -> i64 attributes { llvm.emit_c_interface }\nfunc.func private @printFlops(f64)\nfunc.func private @printI64(i64)\nfunc.func private @printNewline()\nfunc.func private @printMemrefF32(tensor<*xf32>)\n\n\nfunc.func @matmul() -> tensor<32x8x26x58xf32>{\n\n%val = arith.constant 2.00000e+00 : f32\n%zero = arith.constant 0.00000e+00 : f32\n\n%tmp_input = bufferization.alloc_tensor() : tensor<32x8x32x64xf32>\n%input = linalg.fill ins(%val : f32) outs(%tmp_input : tensor<32x8x32x64xf32>) -> tensor<32x8x32x64xf32>\n%tmp_filter = bufferization.alloc_tensor() : tensor<7x7xf32>\n%filter = linalg.fill ins(%val : f32) outs(%tmp_filter : tensor<7x7xf32>) -> tensor<7x7xf32>\n%tmp_init = bufferization.alloc_tensor() : tensor<32x8x26x58xf32>\n%init = linalg.fill ins(%val : f32) outs(%tmp_init : tensor<32x8x26x58xf32>) -> tensor<32x8x26x58xf32>\n\n%t0 = func.call @nanoTime() : () -> (i64)\n\n%return_arg = linalg.pooling_nchw_max {dilations = dense<1> : tensor<2xi64>, strides = dense<1> : tensor<2xi64>} ins (%input, %filter: tensor<32x8x32x64xf32>, tensor<7x7xf32>) outs (%init: tensor<32x8x26x58xf32>) -> tensor<32x8x26x58xf32>\n%t = func.call @nanoTime() : () -> (i64)\n%delta = arith.subi %t, %t0 : i64\n%fp = arith.uitofp %delta : i64 to f64\n// func.call @printFlops(%fp) : (f64) -> ()\nfunc.call @printI64(%delta) : (i64) -> ()\nfunc.call @printNewline() : () -> ()\n\nreturn %return_arg : tensor<32x8x26x58xf32> \n}\n\nfunc.func @main(){\n    %c1 = arith.constant 1: index\n    %c0 = arith.constant 0 : index\n    %n = arith.constant 2: index\n    scf.for %i = %c0 to %n step %c1 {\n    %outputmain = func.call @matmul() : () -> tensor<32x8x26x58xf32>\n    }\n    return\n}\n}\n", "loops_data": {"nested_loops": [["%arg3", 0, 32, 1], ["%arg4", 0, 8, 1], ["%arg5", 0, 26, 1], ["%arg6", 0, 58, 1], ["%arg7", 0, 7, 1], ["%arg8", 0, 7, 1]], "op_count": {"+": 0, "-": 0, "*": 0, "/": 0, "exp": 0}, "load_data": [["%arg3", "%arg4", "%arg5 + %arg7", "%arg6 + %arg8"], ["%arg3", "%arg4", "%arg5", "%arg6"]], "store_data": []}, "execution_time": 75215548}, "linalg.pooling_nchw_max {dilations = dense<1> : tensor<2xi64>, strides = dense<1> : tensor<2xi64>} ins (%input, %filter: tensor<16x256x64x128xf32>, tensor<5x5xf32>) outs (%init: tensor<16x256x60x124xf32>) -> tensor<16x256x60x124xf32>": {"operation": "linalg.pooling_nchw_max {dilations = dense<1> : tensor<2xi64>, strides = dense<1> : tensor<2xi64>} ins (%input, %filter: tensor<16x256x64x128xf32>, tensor<5x5xf32>) outs (%init: tensor<16x256x60x124xf32>) -> tensor<16x256x60x124xf32>", "wrapped_operation": "func.func @func_call(%input: tensor<16x256x64x128xf32>, %filter: tensor<5x5xf32>, %init: tensor<16x256x60x124xf32>) -> tensor<16x256x60x124xf32> {\n  %ret = linalg.pooling_nchw_max {dilations = dense<1> : tensor<2xi64>, strides = dense<1> : tensor<2xi64>} ins (%input, %filter: tensor<16x256x64x128xf32>, tensor<5x5xf32>) outs (%init: tensor<16x256x60x124xf32>) -> tensor<16x256x60x124xf32>\n  return %ret : tensor<16x256x60x124xf32>\n}", "lowered_operation": "#map = affine_map<(d0, d1) -> (d0 + d1)>\nmodule {\n  func.func @func_call(%arg0: tensor<16x256x64x128xf32>, %arg1: tensor<5x5xf32>, %arg2: tensor<16x256x60x124xf32>) -> tensor<16x256x60x124xf32> {\n    %0 = bufferization.to_memref %arg0 : memref<16x256x64x128xf32>\n    %1 = bufferization.to_memref %arg2 : memref<16x256x60x124xf32>\n    %alloc = memref.alloc() {alignment = 64 : i64} : memref<16x256x60x124xf32>\n    memref.copy %1, %alloc : memref<16x256x60x124xf32> to memref<16x256x60x124xf32>\n    affine.for %arg3 = 0 to 16 {\n      affine.for %arg4 = 0 to 256 {\n        affine.for %arg5 = 0 to 60 {\n          affine.for %arg6 = 0 to 124 {\n            affine.for %arg7 = 0 to 5 {\n              affine.for %arg8 = 0 to 5 {\n                %3 = affine.apply #map(%arg5, %arg7)\n                %4 = affine.apply #map(%arg6, %arg8)\n                %5 = affine.load %0[%arg3, %arg4, %3, %4] : memref<16x256x64x128xf32>\n                %6 = affine.load %alloc[%arg3, %arg4, %arg5, %arg6] : memref<16x256x60x124xf32>\n                %7 = arith.maximumf %6, %5 : f32\n                affine.store %7, %alloc[%arg3, %arg4, %arg5, %arg6] : memref<16x256x60x124xf32>\n              }\n            }\n          }\n        }\n      }\n    }\n    %2 = bufferization.to_tensor %alloc : memref<16x256x60x124xf32>\n    return %2 : tensor<16x256x60x124xf32>\n  }\n}\n\n", "transform_wrapped_operation": "module attributes {torch.debug_module_name = \"Net\"} {\nfunc.func private @nanoTime() -> i64 attributes { llvm.emit_c_interface }\nfunc.func private @printFlops(f64)\nfunc.func private @printI64(i64)\nfunc.func private @printNewline()\nfunc.func private @printMemrefF32(tensor<*xf32>)\n\n\nfunc.func @matmul() -> tensor<16x256x60x124xf32>{\n\n%val = arith.constant 2.00000e+00 : f32\n%zero = arith.constant 0.00000e+00 : f32\n\n%tmp_input = bufferization.alloc_tensor() : tensor<16x256x64x128xf32>\n%input = linalg.fill ins(%val : f32) outs(%tmp_input : tensor<16x256x64x128xf32>) -> tensor<16x256x64x128xf32>\n%tmp_filter = bufferization.alloc_tensor() : tensor<5x5xf32>\n%filter = linalg.fill ins(%val : f32) outs(%tmp_filter : tensor<5x5xf32>) -> tensor<5x5xf32>\n%tmp_init = bufferization.alloc_tensor() : tensor<16x256x60x124xf32>\n%init = linalg.fill ins(%val : f32) outs(%tmp_init : tensor<16x256x60x124xf32>) -> tensor<16x256x60x124xf32>\n\n%t0 = func.call @nanoTime() : () -> (i64)\n\n%return_arg = linalg.pooling_nchw_max {dilations = dense<1> : tensor<2xi64>, strides = dense<1> : tensor<2xi64>} ins (%input, %filter: tensor<16x256x64x128xf32>, tensor<5x5xf32>) outs (%init: tensor<16x256x60x124xf32>) -> tensor<16x256x60x124xf32>\n%t = func.call @nanoTime() : () -> (i64)\n%delta = arith.subi %t, %t0 : i64\n%fp = arith.uitofp %delta : i64 to f64\n// func.call @printFlops(%fp) : (f64) -> ()\nfunc.call @printI64(%delta) : (i64) -> ()\nfunc.call @printNewline() : () -> ()\n\nreturn %return_arg : tensor<16x256x60x124xf32> \n}\n\nfunc.func @main(){\n    %c1 = arith.constant 1: index\n    %c0 = arith.constant 0 : index\n    %n = arith.constant 2: index\n    scf.for %i = %c0 to %n step %c1 {\n    %outputmain = func.call @matmul() : () -> tensor<16x256x60x124xf32>\n    }\n    return\n}\n}\n", "loops_data": {"nested_loops": [["%arg3", 0, 16, 1], ["%arg4", 0, 256, 1], ["%arg5", 0, 60, 1], ["%arg6", 0, 124, 1], ["%arg7", 0, 5, 1], ["%arg8", 0, 5, 1]], "op_count": {"+": 0, "-": 0, "*": 0, "/": 0, "exp": 0}, "load_data": [["%arg3", "%arg4", "%arg5 + %arg7", "%arg6 + %arg8"], ["%arg3", "%arg4", "%arg5", "%arg6"]], "store_data": []}, "execution_time": 2523121993}, "linalg.pooling_nchw_max {dilations = dense<1> : tensor<2xi64>, strides = dense<2> : tensor<2xi64>} ins (%input, %filter: tensor<32x1024x32x32xf32>, tensor<7x7xf32>) outs (%init: tensor<32x1024x13x13xf32>) -> tensor<32x1024x13x13xf32>": {"operation": "linalg.pooling_nchw_max {dilations = dense<1> : tensor<2xi64>, strides = dense<2> : tensor<2xi64>} ins (%input, %filter: tensor<32x1024x32x32xf32>, tensor<7x7xf32>) outs (%init: tensor<32x1024x13x13xf32>) -> tensor<32x1024x13x13xf32>", "wrapped_operation": "func.func @func_call(%input: tensor<32x1024x32x32xf32>, %filter: tensor<7x7xf32>, %init: tensor<32x1024x13x13xf32>) -> tensor<32x1024x13x13xf32> {\n  %ret = linalg.pooling_nchw_max {dilations = dense<1> : tensor<2xi64>, strides = dense<2> : tensor<2xi64>} ins (%input, %filter: tensor<32x1024x32x32xf32>, tensor<7x7xf32>) outs (%init: tensor<32x1024x13x13xf32>) -> tensor<32x1024x13x13xf32>\n  return %ret : tensor<32x1024x13x13xf32>\n}", "lowered_operation": "#map = affine_map<(d0, d1) -> (d0 * 2 + d1)>\nmodule {\n  func.func @func_call(%arg0: tensor<32x1024x32x32xf32>, %arg1: tensor<7x7xf32>, %arg2: tensor<32x1024x13x13xf32>) -> tensor<32x1024x13x13xf32> {\n    %0 = bufferization.to_memref %arg0 : memref<32x1024x32x32xf32>\n    %1 = bufferization.to_memref %arg2 : memref<32x1024x13x13xf32>\n    %alloc = memref.alloc() {alignment = 64 : i64} : memref<32x1024x13x13xf32>\n    memref.copy %1, %alloc : memref<32x1024x13x13xf32> to memref<32x1024x13x13xf32>\n    affine.for %arg3 = 0 to 32 {\n      affine.for %arg4 = 0 to 1024 {\n        affine.for %arg5 = 0 to 13 {\n          affine.for %arg6 = 0 to 13 {\n            affine.for %arg7 = 0 to 7 {\n              affine.for %arg8 = 0 to 7 {\n                %3 = affine.apply #map(%arg5, %arg7)\n                %4 = affine.apply #map(%arg6, %arg8)\n                %5 = affine.load %0[%arg3, %arg4, %3, %4] : memref<32x1024x32x32xf32>\n                %6 = affine.load %alloc[%arg3, %arg4, %arg5, %arg6] : memref<32x1024x13x13xf32>\n                %7 = arith.maximumf %6, %5 : f32\n                affine.store %7, %alloc[%arg3, %arg4, %arg5, %arg6] : memref<32x1024x13x13xf32>\n              }\n            }\n          }\n        }\n      }\n    }\n    %2 = bufferization.to_tensor %alloc : memref<32x1024x13x13xf32>\n    return %2 : tensor<32x1024x13x13xf32>\n  }\n}\n\n", "transform_wrapped_operation": "module attributes {torch.debug_module_name = \"Net\"} {\nfunc.func private @nanoTime() -> i64 attributes { llvm.emit_c_interface }\nfunc.func private @printFlops(f64)\nfunc.func private @printI64(i64)\nfunc.func private @printNewline()\nfunc.func private @printMemrefF32(tensor<*xf32>)\n\n\nfunc.func @matmul() -> tensor<32x1024x13x13xf32>{\n\n%val = arith.constant 2.00000e+00 : f32\n%zero = arith.constant 0.00000e+00 : f32\n\n%tmp_input = bufferization.alloc_tensor() : tensor<32x1024x32x32xf32>\n%input = linalg.fill ins(%val : f32) outs(%tmp_input : tensor<32x1024x32x32xf32>) -> tensor<32x1024x32x32xf32>\n%tmp_filter = bufferization.alloc_tensor() : tensor<7x7xf32>\n%filter = linalg.fill ins(%val : f32) outs(%tmp_filter : tensor<7x7xf32>) -> tensor<7x7xf32>\n%tmp_init = bufferization.alloc_tensor() : tensor<32x1024x13x13xf32>\n%init = linalg.fill ins(%val : f32) outs(%tmp_init : tensor<32x1024x13x13xf32>) -> tensor<32x1024x13x13xf32>\n\n%t0 = func.call @nanoTime() : () -> (i64)\n\n%return_arg = linalg.pooling_nchw_max {dilations = dense<1> : tensor<2xi64>, strides = dense<2> : tensor<2xi64>} ins (%input, %filter: tensor<32x1024x32x32xf32>, tensor<7x7xf32>) outs (%init: tensor<32x1024x13x13xf32>) -> tensor<32x1024x13x13xf32>\n%t = func.call @nanoTime() : () -> (i64)\n%delta = arith.subi %t, %t0 : i64\n%fp = arith.uitofp %delta : i64 to f64\n// func.call @printFlops(%fp) : (f64) -> ()\nfunc.call @printI64(%delta) : (i64) -> ()\nfunc.call @printNewline() : () -> ()\n\nreturn %return_arg : tensor<32x1024x13x13xf32> \n}\n\nfunc.func @main(){\n    %c1 = arith.constant 1: index\n    %c0 = arith.constant 0 : index\n    %n = arith.constant 2: index\n    scf.for %i = %c0 to %n step %c1 {\n    %outputmain = func.call @matmul() : () -> tensor<32x1024x13x13xf32>\n    }\n    return\n}\n}\n", "loops_data": {"nested_loops": [["%arg3", 0, 32, 1], ["%arg4", 0, 1024, 1], ["%arg5", 0, 13, 1], ["%arg6", 0, 13, 1], ["%arg7", 0, 7, 1], ["%arg8", 0, 7, 1]], "op_count": {"+": 0, "-": 0, "*": 0, "/": 0, "exp": 0}, "load_data": [["%arg3", "%arg4", "%arg5 * 2 + %arg7", "%arg6 * 2 + %arg8"], ["%arg3", "%arg4", "%arg5", "%arg6"]], "store_data": []}, "execution_time": 1086473446}, "linalg.pooling_nchw_max {dilations = dense<1> : tensor<2xi64>, strides = dense<2> : tensor<2xi64>} ins (%input, %filter: tensor<16x256x256x128xf32>, tensor<1x1xf32>) outs (%init: tensor<16x256x128x64xf32>) -> tensor<16x256x128x64xf32>": {"operation": "linalg.pooling_nchw_max {dilations = dense<1> : tensor<2xi64>, strides = dense<2> : tensor<2xi64>} ins (%input, %filter: tensor<16x256x256x128xf32>, tensor<1x1xf32>) outs (%init: tensor<16x256x128x64xf32>) -> tensor<16x256x128x64xf32>", "wrapped_operation": "func.func @func_call(%input: tensor<16x256x256x128xf32>, %filter: tensor<1x1xf32>, %init: tensor<16x256x128x64xf32>) -> tensor<16x256x128x64xf32> {\n  %ret = linalg.pooling_nchw_max {dilations = dense<1> : tensor<2xi64>, strides = dense<2> : tensor<2xi64>} ins (%input, %filter: tensor<16x256x256x128xf32>, tensor<1x1xf32>) outs (%init: tensor<16x256x128x64xf32>) -> tensor<16x256x128x64xf32>\n  return %ret : tensor<16x256x128x64xf32>\n}", "lowered_operation": "#map = affine_map<(d0, d1) -> (d0 * 2 + d1)>\nmodule {\n  func.func @func_call(%arg0: tensor<16x256x256x128xf32>, %arg1: tensor<1x1xf32>, %arg2: tensor<16x256x128x64xf32>) -> tensor<16x256x128x64xf32> {\n    %0 = bufferization.to_memref %arg0 : memref<16x256x256x128xf32>\n    %1 = bufferization.to_memref %arg2 : memref<16x256x128x64xf32>\n    %alloc = memref.alloc() {alignment = 64 : i64} : memref<16x256x128x64xf32>\n    memref.copy %1, %alloc : memref<16x256x128x64xf32> to memref<16x256x128x64xf32>\n    affine.for %arg3 = 0 to 16 {\n      affine.for %arg4 = 0 to 256 {\n        affine.for %arg5 = 0 to 128 {\n          affine.for %arg6 = 0 to 64 {\n            affine.for %arg7 = 0 to 1 {\n              affine.for %arg8 = 0 to 1 {\n                %3 = affine.apply #map(%arg5, %arg7)\n                %4 = affine.apply #map(%arg6, %arg8)\n                %5 = affine.load %0[%arg3, %arg4, %3, %4] : memref<16x256x256x128xf32>\n                %6 = affine.load %alloc[%arg3, %arg4, %arg5, %arg6] : memref<16x256x128x64xf32>\n                %7 = arith.maximumf %6, %5 : f32\n                affine.store %7, %alloc[%arg3, %arg4, %arg5, %arg6] : memref<16x256x128x64xf32>\n              }\n            }\n          }\n        }\n      }\n    }\n    %2 = bufferization.to_tensor %alloc : memref<16x256x128x64xf32>\n    return %2 : tensor<16x256x128x64xf32>\n  }\n}\n\n", "transform_wrapped_operation": "module attributes {torch.debug_module_name = \"Net\"} {\nfunc.func private @nanoTime() -> i64 attributes { llvm.emit_c_interface }\nfunc.func private @printFlops(f64)\nfunc.func private @printI64(i64)\nfunc.func private @printNewline()\nfunc.func private @printMemrefF32(tensor<*xf32>)\n\n\nfunc.func @matmul() -> tensor<16x256x128x64xf32>{\n\n%val = arith.constant 2.00000e+00 : f32\n%zero = arith.constant 0.00000e+00 : f32\n\n%tmp_input = bufferization.alloc_tensor() : tensor<16x256x256x128xf32>\n%input = linalg.fill ins(%val : f32) outs(%tmp_input : tensor<16x256x256x128xf32>) -> tensor<16x256x256x128xf32>\n%tmp_filter = bufferization.alloc_tensor() : tensor<1x1xf32>\n%filter = linalg.fill ins(%val : f32) outs(%tmp_filter : tensor<1x1xf32>) -> tensor<1x1xf32>\n%tmp_init = bufferization.alloc_tensor() : tensor<16x256x128x64xf32>\n%init = linalg.fill ins(%val : f32) outs(%tmp_init : tensor<16x256x128x64xf32>) -> tensor<16x256x128x64xf32>\n\n%t0 = func.call @nanoTime() : () -> (i64)\n\n%return_arg = linalg.pooling_nchw_max {dilations = dense<1> : tensor<2xi64>, strides = dense<2> : tensor<2xi64>} ins (%input, %filter: tensor<16x256x256x128xf32>, tensor<1x1xf32>) outs (%init: tensor<16x256x128x64xf32>) -> tensor<16x256x128x64xf32>\n%t = func.call @nanoTime() : () -> (i64)\n%delta = arith.subi %t, %t0 : i64\n%fp = arith.uitofp %delta : i64 to f64\n// func.call @printFlops(%fp) : (f64) -> ()\nfunc.call @printI64(%delta) : (i64) -> ()\nfunc.call @printNewline() : () -> ()\n\nreturn %return_arg : tensor<16x256x128x64xf32> \n}\n\nfunc.func @main(){\n    %c1 = arith.constant 1: index\n    %c0 = arith.constant 0 : index\n    %n = arith.constant 2: index\n    scf.for %i = %c0 to %n step %c1 {\n    %outputmain = func.call @matmul() : () -> tensor<16x256x128x64xf32>\n    }\n    return\n}\n}\n", "loops_data": {"nested_loops": [["%arg3", 0, 16, 1], ["%arg4", 0, 256, 1], ["%arg5", 0, 128, 1], ["%arg6", 0, 64, 1], ["%arg7", 0, 1, 1], ["%arg8", 0, 1, 1]], "op_count": {"+": 0, "-": 0, "*": 0, "/": 0, "exp": 0}, "load_data": [["%arg3", "%arg4", "%arg5 * 2 + %arg7", "%arg6 * 2 + %arg8"], ["%arg3", "%arg4", "%arg5", "%arg6"]], "store_data": []}, "execution_time": 67928670}, "linalg.pooling_nchw_max {dilations = dense<1> : tensor<2xi64>, strides = dense<1> : tensor<2xi64>} ins (%input, %filter: tensor<4x16x512x64xf32>, tensor<5x5xf32>) outs (%init: tensor<4x16x508x60xf32>) -> tensor<4x16x508x60xf32>": {"operation": "linalg.pooling_nchw_max {dilations = dense<1> : tensor<2xi64>, strides = dense<1> : tensor<2xi64>} ins (%input, %filter: tensor<4x16x512x64xf32>, tensor<5x5xf32>) outs (%init: tensor<4x16x508x60xf32>) -> tensor<4x16x508x60xf32>", "wrapped_operation": "func.func @func_call(%input: tensor<4x16x512x64xf32>, %filter: tensor<5x5xf32>, %init: tensor<4x16x508x60xf32>) -> tensor<4x16x508x60xf32> {\n  %ret = linalg.pooling_nchw_max {dilations = dense<1> : tensor<2xi64>, strides = dense<1> : tensor<2xi64>} ins (%input, %filter: tensor<4x16x512x64xf32>, tensor<5x5xf32>) outs (%init: tensor<4x16x508x60xf32>) -> tensor<4x16x508x60xf32>\n  return %ret : tensor<4x16x508x60xf32>\n}", "lowered_operation": "#map = affine_map<(d0, d1) -> (d0 + d1)>\nmodule {\n  func.func @func_call(%arg0: tensor<4x16x512x64xf32>, %arg1: tensor<5x5xf32>, %arg2: tensor<4x16x508x60xf32>) -> tensor<4x16x508x60xf32> {\n    %0 = bufferization.to_memref %arg0 : memref<4x16x512x64xf32>\n    %1 = bufferization.to_memref %arg2 : memref<4x16x508x60xf32>\n    %alloc = memref.alloc() {alignment = 64 : i64} : memref<4x16x508x60xf32>\n    memref.copy %1, %alloc : memref<4x16x508x60xf32> to memref<4x16x508x60xf32>\n    affine.for %arg3 = 0 to 4 {\n      affine.for %arg4 = 0 to 16 {\n        affine.for %arg5 = 0 to 508 {\n          affine.for %arg6 = 0 to 60 {\n            affine.for %arg7 = 0 to 5 {\n              affine.for %arg8 = 0 to 5 {\n                %3 = affine.apply #map(%arg5, %arg7)\n                %4 = affine.apply #map(%arg6, %arg8)\n                %5 = affine.load %0[%arg3, %arg4, %3, %4] : memref<4x16x512x64xf32>\n                %6 = affine.load %alloc[%arg3, %arg4, %arg5, %arg6] : memref<4x16x508x60xf32>\n                %7 = arith.maximumf %6, %5 : f32\n                affine.store %7, %alloc[%arg3, %arg4, %arg5, %arg6] : memref<4x16x508x60xf32>\n              }\n            }\n          }\n        }\n      }\n    }\n    %2 = bufferization.to_tensor %alloc : memref<4x16x508x60xf32>\n    return %2 : tensor<4x16x508x60xf32>\n  }\n}\n\n", "transform_wrapped_operation": "module attributes {torch.debug_module_name = \"Net\"} {\nfunc.func private @nanoTime() -> i64 attributes { llvm.emit_c_interface }\nfunc.func private @printFlops(f64)\nfunc.func private @printI64(i64)\nfunc.func private @printNewline()\nfunc.func private @printMemrefF32(tensor<*xf32>)\n\n\nfunc.func @matmul() -> tensor<4x16x508x60xf32>{\n\n%val = arith.constant 2.00000e+00 : f32\n%zero = arith.constant 0.00000e+00 : f32\n\n%tmp_input = bufferization.alloc_tensor() : tensor<4x16x512x64xf32>\n%input = linalg.fill ins(%val : f32) outs(%tmp_input : tensor<4x16x512x64xf32>) -> tensor<4x16x512x64xf32>\n%tmp_filter = bufferization.alloc_tensor() : tensor<5x5xf32>\n%filter = linalg.fill ins(%val : f32) outs(%tmp_filter : tensor<5x5xf32>) -> tensor<5x5xf32>\n%tmp_init = bufferization.alloc_tensor() : tensor<4x16x508x60xf32>\n%init = linalg.fill ins(%val : f32) outs(%tmp_init : tensor<4x16x508x60xf32>) -> tensor<4x16x508x60xf32>\n\n%t0 = func.call @nanoTime() : () -> (i64)\n\n%return_arg = linalg.pooling_nchw_max {dilations = dense<1> : tensor<2xi64>, strides = dense<1> : tensor<2xi64>} ins (%input, %filter: tensor<4x16x512x64xf32>, tensor<5x5xf32>) outs (%init: tensor<4x16x508x60xf32>) -> tensor<4x16x508x60xf32>\n%t = func.call @nanoTime() : () -> (i64)\n%delta = arith.subi %t, %t0 : i64\n%fp = arith.uitofp %delta : i64 to f64\n// func.call @printFlops(%fp) : (f64) -> ()\nfunc.call @printI64(%delta) : (i64) -> ()\nfunc.call @printNewline() : () -> ()\n\nreturn %return_arg : tensor<4x16x508x60xf32> \n}\n\nfunc.func @main(){\n    %c1 = arith.constant 1: index\n    %c0 = arith.constant 0 : index\n    %n = arith.constant 2: index\n    scf.for %i = %c0 to %n step %c1 {\n    %outputmain = func.call @matmul() : () -> tensor<4x16x508x60xf32>\n    }\n    return\n}\n}\n", "loops_data": {"nested_loops": [["%arg3", 0, 4, 1], ["%arg4", 0, 16, 1], ["%arg5", 0, 508, 1], ["%arg6", 0, 60, 1], ["%arg7", 0, 5, 1], ["%arg8", 0, 5, 1]], "op_count": {"+": 0, "-": 0, "*": 0, "/": 0, "exp": 0}, "load_data": [["%arg3", "%arg4", "%arg5 + %arg7", "%arg6 + %arg8"], ["%arg3", "%arg4", "%arg5", "%arg6"]], "store_data": []}, "execution_time": 161464713}, "linalg.pooling_nchw_max {dilations = dense<1> : tensor<2xi64>, strides = dense<2> : tensor<2xi64>} ins (%input, %filter: tensor<32x512x64x256xf32>, tensor<5x5xf32>) outs (%init: tensor<32x512x30x126xf32>) -> tensor<32x512x30x126xf32>": {"operation": "linalg.pooling_nchw_max {dilations = dense<1> : tensor<2xi64>, strides = dense<2> : tensor<2xi64>} ins (%input, %filter: tensor<32x512x64x256xf32>, tensor<5x5xf32>) outs (%init: tensor<32x512x30x126xf32>) -> tensor<32x512x30x126xf32>", "wrapped_operation": "func.func @func_call(%input: tensor<32x512x64x256xf32>, %filter: tensor<5x5xf32>, %init: tensor<32x512x30x126xf32>) -> tensor<32x512x30x126xf32> {\n  %ret = linalg.pooling_nchw_max {dilations = dense<1> : tensor<2xi64>, strides = dense<2> : tensor<2xi64>} ins (%input, %filter: tensor<32x512x64x256xf32>, tensor<5x5xf32>) outs (%init: tensor<32x512x30x126xf32>) -> tensor<32x512x30x126xf32>\n  return %ret : tensor<32x512x30x126xf32>\n}", "lowered_operation": "#map = affine_map<(d0, d1) -> (d0 * 2 + d1)>\nmodule {\n  func.func @func_call(%arg0: tensor<32x512x64x256xf32>, %arg1: tensor<5x5xf32>, %arg2: tensor<32x512x30x126xf32>) -> tensor<32x512x30x126xf32> {\n    %0 = bufferization.to_memref %arg0 : memref<32x512x64x256xf32>\n    %1 = bufferization.to_memref %arg2 : memref<32x512x30x126xf32>\n    %alloc = memref.alloc() {alignment = 64 : i64} : memref<32x512x30x126xf32>\n    memref.copy %1, %alloc : memref<32x512x30x126xf32> to memref<32x512x30x126xf32>\n    affine.for %arg3 = 0 to 32 {\n      affine.for %arg4 = 0 to 512 {\n        affine.for %arg5 = 0 to 30 {\n          affine.for %arg6 = 0 to 126 {\n            affine.for %arg7 = 0 to 5 {\n              affine.for %arg8 = 0 to 5 {\n                %3 = affine.apply #map(%arg5, %arg7)\n                %4 = affine.apply #map(%arg6, %arg8)\n                %5 = affine.load %0[%arg3, %arg4, %3, %4] : memref<32x512x64x256xf32>\n                %6 = affine.load %alloc[%arg3, %arg4, %arg5, %arg6] : memref<32x512x30x126xf32>\n                %7 = arith.maximumf %6, %5 : f32\n                affine.store %7, %alloc[%arg3, %arg4, %arg5, %arg6] : memref<32x512x30x126xf32>\n              }\n            }\n          }\n        }\n      }\n    }\n    %2 = bufferization.to_tensor %alloc : memref<32x512x30x126xf32>\n    return %2 : tensor<32x512x30x126xf32>\n  }\n}\n\n", "transform_wrapped_operation": "module attributes {torch.debug_module_name = \"Net\"} {\nfunc.func private @nanoTime() -> i64 attributes { llvm.emit_c_interface }\nfunc.func private @printFlops(f64)\nfunc.func private @printI64(i64)\nfunc.func private @printNewline()\nfunc.func private @printMemrefF32(tensor<*xf32>)\n\n\nfunc.func @matmul() -> tensor<32x512x30x126xf32>{\n\n%val = arith.constant 2.00000e+00 : f32\n%zero = arith.constant 0.00000e+00 : f32\n\n%tmp_input = bufferization.alloc_tensor() : tensor<32x512x64x256xf32>\n%input = linalg.fill ins(%val : f32) outs(%tmp_input : tensor<32x512x64x256xf32>) -> tensor<32x512x64x256xf32>\n%tmp_filter = bufferization.alloc_tensor() : tensor<5x5xf32>\n%filter = linalg.fill ins(%val : f32) outs(%tmp_filter : tensor<5x5xf32>) -> tensor<5x5xf32>\n%tmp_init = bufferization.alloc_tensor() : tensor<32x512x30x126xf32>\n%init = linalg.fill ins(%val : f32) outs(%tmp_init : tensor<32x512x30x126xf32>) -> tensor<32x512x30x126xf32>\n\n%t0 = func.call @nanoTime() : () -> (i64)\n\n%return_arg = linalg.pooling_nchw_max {dilations = dense<1> : tensor<2xi64>, strides = dense<2> : tensor<2xi64>} ins (%input, %filter: tensor<32x512x64x256xf32>, tensor<5x5xf32>) outs (%init: tensor<32x512x30x126xf32>) -> tensor<32x512x30x126xf32>\n%t = func.call @nanoTime() : () -> (i64)\n%delta = arith.subi %t, %t0 : i64\n%fp = arith.uitofp %delta : i64 to f64\n// func.call @printFlops(%fp) : (f64) -> ()\nfunc.call @printI64(%delta) : (i64) -> ()\nfunc.call @printNewline() : () -> ()\n\nreturn %return_arg : tensor<32x512x30x126xf32> \n}\n\nfunc.func @main(){\n    %c1 = arith.constant 1: index\n    %c0 = arith.constant 0 : index\n    %n = arith.constant 2: index\n    scf.for %i = %c0 to %n step %c1 {\n    %outputmain = func.call @matmul() : () -> tensor<32x512x30x126xf32>\n    }\n    return\n}\n}\n", "loops_data": {"nested_loops": [["%arg3", 0, 32, 1], ["%arg4", 0, 512, 1], ["%arg5", 0, 30, 1], ["%arg6", 0, 126, 1], ["%arg7", 0, 5, 1], ["%arg8", 0, 5, 1]], "op_count": {"+": 0, "-": 0, "*": 0, "/": 0, "exp": 0}, "load_data": [["%arg3", "%arg4", "%arg5 * 2 + %arg7", "%arg6 * 2 + %arg8"], ["%arg3", "%arg4", "%arg5", "%arg6"]], "store_data": []}, "execution_time": 5162160136}, "linalg.pooling_nchw_max {dilations = dense<1> : tensor<2xi64>, strides = dense<2> : tensor<2xi64>} ins (%input, %filter: tensor<4x128x512x32xf32>, tensor<3x3xf32>) outs (%init: tensor<4x128x255x15xf32>) -> tensor<4x128x255x15xf32>": {"operation": "linalg.pooling_nchw_max {dilations = dense<1> : tensor<2xi64>, strides = dense<2> : tensor<2xi64>} ins (%input, %filter: tensor<4x128x512x32xf32>, tensor<3x3xf32>) outs (%init: tensor<4x128x255x15xf32>) -> tensor<4x128x255x15xf32>", "wrapped_operation": "func.func @func_call(%input: tensor<4x128x512x32xf32>, %filter: tensor<3x3xf32>, %init: tensor<4x128x255x15xf32>) -> tensor<4x128x255x15xf32> {\n  %ret = linalg.pooling_nchw_max {dilations = dense<1> : tensor<2xi64>, strides = dense<2> : tensor<2xi64>} ins (%input, %filter: tensor<4x128x512x32xf32>, tensor<3x3xf32>) outs (%init: tensor<4x128x255x15xf32>) -> tensor<4x128x255x15xf32>\n  return %ret : tensor<4x128x255x15xf32>\n}", "lowered_operation": "#map = affine_map<(d0, d1) -> (d0 * 2 + d1)>\nmodule {\n  func.func @func_call(%arg0: tensor<4x128x512x32xf32>, %arg1: tensor<3x3xf32>, %arg2: tensor<4x128x255x15xf32>) -> tensor<4x128x255x15xf32> {\n    %0 = bufferization.to_memref %arg0 : memref<4x128x512x32xf32>\n    %1 = bufferization.to_memref %arg2 : memref<4x128x255x15xf32>\n    %alloc = memref.alloc() {alignment = 64 : i64} : memref<4x128x255x15xf32>\n    memref.copy %1, %alloc : memref<4x128x255x15xf32> to memref<4x128x255x15xf32>\n    affine.for %arg3 = 0 to 4 {\n      affine.for %arg4 = 0 to 128 {\n        affine.for %arg5 = 0 to 255 {\n          affine.for %arg6 = 0 to 15 {\n            affine.for %arg7 = 0 to 3 {\n              affine.for %arg8 = 0 to 3 {\n                %3 = affine.apply #map(%arg5, %arg7)\n                %4 = affine.apply #map(%arg6, %arg8)\n                %5 = affine.load %0[%arg3, %arg4, %3, %4] : memref<4x128x512x32xf32>\n                %6 = affine.load %alloc[%arg3, %arg4, %arg5, %arg6] : memref<4x128x255x15xf32>\n                %7 = arith.maximumf %6, %5 : f32\n                affine.store %7, %alloc[%arg3, %arg4, %arg5, %arg6] : memref<4x128x255x15xf32>\n              }\n            }\n          }\n        }\n      }\n    }\n    %2 = bufferization.to_tensor %alloc : memref<4x128x255x15xf32>\n    return %2 : tensor<4x128x255x15xf32>\n  }\n}\n\n", "transform_wrapped_operation": "module attributes {torch.debug_module_name = \"Net\"} {\nfunc.func private @nanoTime() -> i64 attributes { llvm.emit_c_interface }\nfunc.func private @printFlops(f64)\nfunc.func private @printI64(i64)\nfunc.func private @printNewline()\nfunc.func private @printMemrefF32(tensor<*xf32>)\n\n\nfunc.func @matmul() -> tensor<4x128x255x15xf32>{\n\n%val = arith.constant 2.00000e+00 : f32\n%zero = arith.constant 0.00000e+00 : f32\n\n%tmp_input = bufferization.alloc_tensor() : tensor<4x128x512x32xf32>\n%input = linalg.fill ins(%val : f32) outs(%tmp_input : tensor<4x128x512x32xf32>) -> tensor<4x128x512x32xf32>\n%tmp_filter = bufferization.alloc_tensor() : tensor<3x3xf32>\n%filter = linalg.fill ins(%val : f32) outs(%tmp_filter : tensor<3x3xf32>) -> tensor<3x3xf32>\n%tmp_init = bufferization.alloc_tensor() : tensor<4x128x255x15xf32>\n%init = linalg.fill ins(%val : f32) outs(%tmp_init : tensor<4x128x255x15xf32>) -> tensor<4x128x255x15xf32>\n\n%t0 = func.call @nanoTime() : () -> (i64)\n\n%return_arg = linalg.pooling_nchw_max {dilations = dense<1> : tensor<2xi64>, strides = dense<2> : tensor<2xi64>} ins (%input, %filter: tensor<4x128x512x32xf32>, tensor<3x3xf32>) outs (%init: tensor<4x128x255x15xf32>) -> tensor<4x128x255x15xf32>\n%t = func.call @nanoTime() : () -> (i64)\n%delta = arith.subi %t, %t0 : i64\n%fp = arith.uitofp %delta : i64 to f64\n// func.call @printFlops(%fp) : (f64) -> ()\nfunc.call @printI64(%delta) : (i64) -> ()\nfunc.call @printNewline() : () -> ()\n\nreturn %return_arg : tensor<4x128x255x15xf32> \n}\n\nfunc.func @main(){\n    %c1 = arith.constant 1: index\n    %c0 = arith.constant 0 : index\n    %n = arith.constant 2: index\n    scf.for %i = %c0 to %n step %c1 {\n    %outputmain = func.call @matmul() : () -> tensor<4x128x255x15xf32>\n    }\n    return\n}\n}\n", "loops_data": {"nested_loops": [["%arg3", 0, 4, 1], ["%arg4", 0, 128, 1], ["%arg5", 0, 255, 1], ["%arg6", 0, 15, 1], ["%arg7", 0, 3, 1], ["%arg8", 0, 3, 1]], "op_count": {"+": 0, "-": 0, "*": 0, "/": 0, "exp": 0}, "load_data": [["%arg3", "%arg4", "%arg5 * 2 + %arg7", "%arg6 * 2 + %arg8"], ["%arg3", "%arg4", "%arg5", "%arg6"]], "store_data": []}, "execution_time": 43026638}, "linalg.pooling_nchw_max {dilations = dense<1> : tensor<2xi64>, strides = dense<1> : tensor<2xi64>} ins (%input, %filter: tensor<64x8x256x256xf32>, tensor<1x1xf32>) outs (%init: tensor<64x8x256x256xf32>) -> tensor<64x8x256x256xf32>": {"operation": "linalg.pooling_nchw_max {dilations = dense<1> : tensor<2xi64>, strides = dense<1> : tensor<2xi64>} ins (%input, %filter: tensor<64x8x256x256xf32>, tensor<1x1xf32>) outs (%init: tensor<64x8x256x256xf32>) -> tensor<64x8x256x256xf32>", "wrapped_operation": "func.func @func_call(%input: tensor<64x8x256x256xf32>, %filter: tensor<1x1xf32>, %init: tensor<64x8x256x256xf32>) -> tensor<64x8x256x256xf32> {\n  %ret = linalg.pooling_nchw_max {dilations = dense<1> : tensor<2xi64>, strides = dense<1> : tensor<2xi64>} ins (%input, %filter: tensor<64x8x256x256xf32>, tensor<1x1xf32>) outs (%init: tensor<64x8x256x256xf32>) -> tensor<64x8x256x256xf32>\n  return %ret : tensor<64x8x256x256xf32>\n}", "lowered_operation": "#map = affine_map<(d0, d1) -> (d0 + d1)>\nmodule {\n  func.func @func_call(%arg0: tensor<64x8x256x256xf32>, %arg1: tensor<1x1xf32>, %arg2: tensor<64x8x256x256xf32>) -> tensor<64x8x256x256xf32> {\n    %0 = bufferization.to_memref %arg0 : memref<64x8x256x256xf32>\n    %1 = bufferization.to_memref %arg2 : memref<64x8x256x256xf32>\n    %alloc = memref.alloc() {alignment = 64 : i64} : memref<64x8x256x256xf32>\n    memref.copy %1, %alloc : memref<64x8x256x256xf32> to memref<64x8x256x256xf32>\n    affine.for %arg3 = 0 to 64 {\n      affine.for %arg4 = 0 to 8 {\n        affine.for %arg5 = 0 to 256 {\n          affine.for %arg6 = 0 to 256 {\n            affine.for %arg7 = 0 to 1 {\n              affine.for %arg8 = 0 to 1 {\n                %3 = affine.apply #map(%arg5, %arg7)\n                %4 = affine.apply #map(%arg6, %arg8)\n                %5 = affine.load %0[%arg3, %arg4, %3, %4] : memref<64x8x256x256xf32>\n                %6 = affine.load %alloc[%arg3, %arg4, %arg5, %arg6] : memref<64x8x256x256xf32>\n                %7 = arith.maximumf %6, %5 : f32\n                affine.store %7, %alloc[%arg3, %arg4, %arg5, %arg6] : memref<64x8x256x256xf32>\n              }\n            }\n          }\n        }\n      }\n    }\n    %2 = bufferization.to_tensor %alloc : memref<64x8x256x256xf32>\n    return %2 : tensor<64x8x256x256xf32>\n  }\n}\n\n", "transform_wrapped_operation": "module attributes {torch.debug_module_name = \"Net\"} {\nfunc.func private @nanoTime() -> i64 attributes { llvm.emit_c_interface }\nfunc.func private @printFlops(f64)\nfunc.func private @printI64(i64)\nfunc.func private @printNewline()\nfunc.func private @printMemrefF32(tensor<*xf32>)\n\n\nfunc.func @matmul() -> tensor<64x8x256x256xf32>{\n\n%val = arith.constant 2.00000e+00 : f32\n%zero = arith.constant 0.00000e+00 : f32\n\n%tmp_input = bufferization.alloc_tensor() : tensor<64x8x256x256xf32>\n%input = linalg.fill ins(%val : f32) outs(%tmp_input : tensor<64x8x256x256xf32>) -> tensor<64x8x256x256xf32>\n%tmp_filter = bufferization.alloc_tensor() : tensor<1x1xf32>\n%filter = linalg.fill ins(%val : f32) outs(%tmp_filter : tensor<1x1xf32>) -> tensor<1x1xf32>\n%tmp_init = bufferization.alloc_tensor() : tensor<64x8x256x256xf32>\n%init = linalg.fill ins(%val : f32) outs(%tmp_init : tensor<64x8x256x256xf32>) -> tensor<64x8x256x256xf32>\n\n%t0 = func.call @nanoTime() : () -> (i64)\n\n%return_arg = linalg.pooling_nchw_max {dilations = dense<1> : tensor<2xi64>, strides = dense<1> : tensor<2xi64>} ins (%input, %filter: tensor<64x8x256x256xf32>, tensor<1x1xf32>) outs (%init: tensor<64x8x256x256xf32>) -> tensor<64x8x256x256xf32>\n%t = func.call @nanoTime() : () -> (i64)\n%delta = arith.subi %t, %t0 : i64\n%fp = arith.uitofp %delta : i64 to f64\n// func.call @printFlops(%fp) : (f64) -> ()\nfunc.call @printI64(%delta) : (i64) -> ()\nfunc.call @printNewline() : () -> ()\n\nreturn %return_arg : tensor<64x8x256x256xf32> \n}\n\nfunc.func @main(){\n    %c1 = arith.constant 1: index\n    %c0 = arith.constant 0 : index\n    %n = arith.constant 2: index\n    scf.for %i = %c0 to %n step %c1 {\n    %outputmain = func.call @matmul() : () -> tensor<64x8x256x256xf32>\n    }\n    return\n}\n}\n", "loops_data": {"nested_loops": [["%arg3", 0, 64, 1], ["%arg4", 0, 8, 1], ["%arg5", 0, 256, 1], ["%arg6", 0, 256, 1], ["%arg7", 0, 1, 1], ["%arg8", 0, 1, 1]], "op_count": {"+": 0, "-": 0, "*": 0, "/": 0, "exp": 0}, "load_data": [["%arg3", "%arg4", "%arg5 + %arg7", "%arg6 + %arg8"], ["%arg3", "%arg4", "%arg5", "%arg6"]], "store_data": []}, "execution_time": 48797314}, "linalg.pooling_nchw_max {dilations = dense<1> : tensor<2xi64>, strides = dense<1> : tensor<2xi64>} ins (%input, %filter: tensor<64x32x32x64xf32>, tensor<1x1xf32>) outs (%init: tensor<64x32x32x64xf32>) -> tensor<64x32x32x64xf32>": {"operation": "linalg.pooling_nchw_max {dilations = dense<1> : tensor<2xi64>, strides = dense<1> : tensor<2xi64>} ins (%input, %filter: tensor<64x32x32x64xf32>, tensor<1x1xf32>) outs (%init: tensor<64x32x32x64xf32>) -> tensor<64x32x32x64xf32>", "wrapped_operation": "func.func @func_call(%input: tensor<64x32x32x64xf32>, %filter: tensor<1x1xf32>, %init: tensor<64x32x32x64xf32>) -> tensor<64x32x32x64xf32> {\n  %ret = linalg.pooling_nchw_max {dilations = dense<1> : tensor<2xi64>, strides = dense<1> : tensor<2xi64>} ins (%input, %filter: tensor<64x32x32x64xf32>, tensor<1x1xf32>) outs (%init: tensor<64x32x32x64xf32>) -> tensor<64x32x32x64xf32>\n  return %ret : tensor<64x32x32x64xf32>\n}", "lowered_operation": "#map = affine_map<(d0, d1) -> (d0 + d1)>\nmodule {\n  func.func @func_call(%arg0: tensor<64x32x32x64xf32>, %arg1: tensor<1x1xf32>, %arg2: tensor<64x32x32x64xf32>) -> tensor<64x32x32x64xf32> {\n    %0 = bufferization.to_memref %arg0 : memref<64x32x32x64xf32>\n    %1 = bufferization.to_memref %arg2 : memref<64x32x32x64xf32>\n    %alloc = memref.alloc() {alignment = 64 : i64} : memref<64x32x32x64xf32>\n    memref.copy %1, %alloc : memref<64x32x32x64xf32> to memref<64x32x32x64xf32>\n    affine.for %arg3 = 0 to 64 {\n      affine.for %arg4 = 0 to 32 {\n        affine.for %arg5 = 0 to 32 {\n          affine.for %arg6 = 0 to 64 {\n            affine.for %arg7 = 0 to 1 {\n              affine.for %arg8 = 0 to 1 {\n                %3 = affine.apply #map(%arg5, %arg7)\n                %4 = affine.apply #map(%arg6, %arg8)\n                %5 = affine.load %0[%arg3, %arg4, %3, %4] : memref<64x32x32x64xf32>\n                %6 = affine.load %alloc[%arg3, %arg4, %arg5, %arg6] : memref<64x32x32x64xf32>\n                %7 = arith.maximumf %6, %5 : f32\n                affine.store %7, %alloc[%arg3, %arg4, %arg5, %arg6] : memref<64x32x32x64xf32>\n              }\n            }\n          }\n        }\n      }\n    }\n    %2 = bufferization.to_tensor %alloc : memref<64x32x32x64xf32>\n    return %2 : tensor<64x32x32x64xf32>\n  }\n}\n\n", "transform_wrapped_operation": "module attributes {torch.debug_module_name = \"Net\"} {\nfunc.func private @nanoTime() -> i64 attributes { llvm.emit_c_interface }\nfunc.func private @printFlops(f64)\nfunc.func private @printI64(i64)\nfunc.func private @printNewline()\nfunc.func private @printMemrefF32(tensor<*xf32>)\n\n\nfunc.func @matmul() -> tensor<64x32x32x64xf32>{\n\n%val = arith.constant 2.00000e+00 : f32\n%zero = arith.constant 0.00000e+00 : f32\n\n%tmp_input = bufferization.alloc_tensor() : tensor<64x32x32x64xf32>\n%input = linalg.fill ins(%val : f32) outs(%tmp_input : tensor<64x32x32x64xf32>) -> tensor<64x32x32x64xf32>\n%tmp_filter = bufferization.alloc_tensor() : tensor<1x1xf32>\n%filter = linalg.fill ins(%val : f32) outs(%tmp_filter : tensor<1x1xf32>) -> tensor<1x1xf32>\n%tmp_init = bufferization.alloc_tensor() : tensor<64x32x32x64xf32>\n%init = linalg.fill ins(%val : f32) outs(%tmp_init : tensor<64x32x32x64xf32>) -> tensor<64x32x32x64xf32>\n\n%t0 = func.call @nanoTime() : () -> (i64)\n\n%return_arg = linalg.pooling_nchw_max {dilations = dense<1> : tensor<2xi64>, strides = dense<1> : tensor<2xi64>} ins (%input, %filter: tensor<64x32x32x64xf32>, tensor<1x1xf32>) outs (%init: tensor<64x32x32x64xf32>) -> tensor<64x32x32x64xf32>\n%t = func.call @nanoTime() : () -> (i64)\n%delta = arith.subi %t, %t0 : i64\n%fp = arith.uitofp %delta : i64 to f64\n// func.call @printFlops(%fp) : (f64) -> ()\nfunc.call @printI64(%delta) : (i64) -> ()\nfunc.call @printNewline() : () -> ()\n\nreturn %return_arg : tensor<64x32x32x64xf32> \n}\n\nfunc.func @main(){\n    %c1 = arith.constant 1: index\n    %c0 = arith.constant 0 : index\n    %n = arith.constant 2: index\n    scf.for %i = %c0 to %n step %c1 {\n    %outputmain = func.call @matmul() : () -> tensor<64x32x32x64xf32>\n    }\n    return\n}\n}\n", "loops_data": {"nested_loops": [["%arg3", 0, 64, 1], ["%arg4", 0, 32, 1], ["%arg5", 0, 32, 1], ["%arg6", 0, 64, 1], ["%arg7", 0, 1, 1], ["%arg8", 0, 1, 1]], "op_count": {"+": 0, "-": 0, "*": 0, "/": 0, "exp": 0}, "load_data": [["%arg3", "%arg4", "%arg5 + %arg7", "%arg6 + %arg8"], ["%arg3", "%arg4", "%arg5", "%arg6"]], "store_data": []}, "execution_time": 6272715}, "linalg.pooling_nchw_max {dilations = dense<1> : tensor<2xi64>, strides = dense<1> : tensor<2xi64>} ins (%input, %filter: tensor<4x1024x128x64xf32>, tensor<3x3xf32>) outs (%init: tensor<4x1024x126x62xf32>) -> tensor<4x1024x126x62xf32>": {"operation": "linalg.pooling_nchw_max {dilations = dense<1> : tensor<2xi64>, strides = dense<1> : tensor<2xi64>} ins (%input, %filter: tensor<4x1024x128x64xf32>, tensor<3x3xf32>) outs (%init: tensor<4x1024x126x62xf32>) -> tensor<4x1024x126x62xf32>", "wrapped_operation": "func.func @func_call(%input: tensor<4x1024x128x64xf32>, %filter: tensor<3x3xf32>, %init: tensor<4x1024x126x62xf32>) -> tensor<4x1024x126x62xf32> {\n  %ret = linalg.pooling_nchw_max {dilations = dense<1> : tensor<2xi64>, strides = dense<1> : tensor<2xi64>} ins (%input, %filter: tensor<4x1024x128x64xf32>, tensor<3x3xf32>) outs (%init: tensor<4x1024x126x62xf32>) -> tensor<4x1024x126x62xf32>\n  return %ret : tensor<4x1024x126x62xf32>\n}", "lowered_operation": "#map = affine_map<(d0, d1) -> (d0 + d1)>\nmodule {\n  func.func @func_call(%arg0: tensor<4x1024x128x64xf32>, %arg1: tensor<3x3xf32>, %arg2: tensor<4x1024x126x62xf32>) -> tensor<4x1024x126x62xf32> {\n    %0 = bufferization.to_memref %arg0 : memref<4x1024x128x64xf32>\n    %1 = bufferization.to_memref %arg2 : memref<4x1024x126x62xf32>\n    %alloc = memref.alloc() {alignment = 64 : i64} : memref<4x1024x126x62xf32>\n    memref.copy %1, %alloc : memref<4x1024x126x62xf32> to memref<4x1024x126x62xf32>\n    affine.for %arg3 = 0 to 4 {\n      affine.for %arg4 = 0 to 1024 {\n        affine.for %arg5 = 0 to 126 {\n          affine.for %arg6 = 0 to 62 {\n            affine.for %arg7 = 0 to 3 {\n              affine.for %arg8 = 0 to 3 {\n                %3 = affine.apply #map(%arg5, %arg7)\n                %4 = affine.apply #map(%arg6, %arg8)\n                %5 = affine.load %0[%arg3, %arg4, %3, %4] : memref<4x1024x128x64xf32>\n                %6 = affine.load %alloc[%arg3, %arg4, %arg5, %arg6] : memref<4x1024x126x62xf32>\n                %7 = arith.maximumf %6, %5 : f32\n                affine.store %7, %alloc[%arg3, %arg4, %arg5, %arg6] : memref<4x1024x126x62xf32>\n              }\n            }\n          }\n        }\n      }\n    }\n    %2 = bufferization.to_tensor %alloc : memref<4x1024x126x62xf32>\n    return %2 : tensor<4x1024x126x62xf32>\n  }\n}\n\n", "transform_wrapped_operation": "module attributes {torch.debug_module_name = \"Net\"} {\nfunc.func private @nanoTime() -> i64 attributes { llvm.emit_c_interface }\nfunc.func private @printFlops(f64)\nfunc.func private @printI64(i64)\nfunc.func private @printNewline()\nfunc.func private @printMemrefF32(tensor<*xf32>)\n\n\nfunc.func @matmul() -> tensor<4x1024x126x62xf32>{\n\n%val = arith.constant 2.00000e+00 : f32\n%zero = arith.constant 0.00000e+00 : f32\n\n%tmp_input = bufferization.alloc_tensor() : tensor<4x1024x128x64xf32>\n%input = linalg.fill ins(%val : f32) outs(%tmp_input : tensor<4x1024x128x64xf32>) -> tensor<4x1024x128x64xf32>\n%tmp_filter = bufferization.alloc_tensor() : tensor<3x3xf32>\n%filter = linalg.fill ins(%val : f32) outs(%tmp_filter : tensor<3x3xf32>) -> tensor<3x3xf32>\n%tmp_init = bufferization.alloc_tensor() : tensor<4x1024x126x62xf32>\n%init = linalg.fill ins(%val : f32) outs(%tmp_init : tensor<4x1024x126x62xf32>) -> tensor<4x1024x126x62xf32>\n\n%t0 = func.call @nanoTime() : () -> (i64)\n\n%return_arg = linalg.pooling_nchw_max {dilations = dense<1> : tensor<2xi64>, strides = dense<1> : tensor<2xi64>} ins (%input, %filter: tensor<4x1024x128x64xf32>, tensor<3x3xf32>) outs (%init: tensor<4x1024x126x62xf32>) -> tensor<4x1024x126x62xf32>\n%t = func.call @nanoTime() : () -> (i64)\n%delta = arith.subi %t, %t0 : i64\n%fp = arith.uitofp %delta : i64 to f64\n// func.call @printFlops(%fp) : (f64) -> ()\nfunc.call @printI64(%delta) : (i64) -> ()\nfunc.call @printNewline() : () -> ()\n\nreturn %return_arg : tensor<4x1024x126x62xf32> \n}\n\nfunc.func @main(){\n    %c1 = arith.constant 1: index\n    %c0 = arith.constant 0 : index\n    %n = arith.constant 2: index\n    scf.for %i = %c0 to %n step %c1 {\n    %outputmain = func.call @matmul() : () -> tensor<4x1024x126x62xf32>\n    }\n    return\n}\n}\n", "loops_data": {"nested_loops": [["%arg3", 0, 4, 1], ["%arg4", 0, 1024, 1], ["%arg5", 0, 126, 1], ["%arg6", 0, 62, 1], ["%arg7", 0, 3, 1], ["%arg8", 0, 3, 1]], "op_count": {"+": 0, "-": 0, "*": 0, "/": 0, "exp": 0}, "load_data": [["%arg3", "%arg4", "%arg5 + %arg7", "%arg6 + %arg8"], ["%arg3", "%arg4", "%arg5", "%arg6"]], "store_data": []}, "execution_time": 691786732}, "linalg.pooling_nchw_max {dilations = dense<1> : tensor<2xi64>, strides = dense<1> : tensor<2xi64>} ins (%input, %filter: tensor<4x64x32x128xf32>, tensor<1x1xf32>) outs (%init: tensor<4x64x32x128xf32>) -> tensor<4x64x32x128xf32>": {"operation": "linalg.pooling_nchw_max {dilations = dense<1> : tensor<2xi64>, strides = dense<1> : tensor<2xi64>} ins (%input, %filter: tensor<4x64x32x128xf32>, tensor<1x1xf32>) outs (%init: tensor<4x64x32x128xf32>) -> tensor<4x64x32x128xf32>", "wrapped_operation": "func.func @func_call(%input: tensor<4x64x32x128xf32>, %filter: tensor<1x1xf32>, %init: tensor<4x64x32x128xf32>) -> tensor<4x64x32x128xf32> {\n  %ret = linalg.pooling_nchw_max {dilations = dense<1> : tensor<2xi64>, strides = dense<1> : tensor<2xi64>} ins (%input, %filter: tensor<4x64x32x128xf32>, tensor<1x1xf32>) outs (%init: tensor<4x64x32x128xf32>) -> tensor<4x64x32x128xf32>\n  return %ret : tensor<4x64x32x128xf32>\n}", "lowered_operation": "#map = affine_map<(d0, d1) -> (d0 + d1)>\nmodule {\n  func.func @func_call(%arg0: tensor<4x64x32x128xf32>, %arg1: tensor<1x1xf32>, %arg2: tensor<4x64x32x128xf32>) -> tensor<4x64x32x128xf32> {\n    %0 = bufferization.to_memref %arg0 : memref<4x64x32x128xf32>\n    %1 = bufferization.to_memref %arg2 : memref<4x64x32x128xf32>\n    %alloc = memref.alloc() {alignment = 64 : i64} : memref<4x64x32x128xf32>\n    memref.copy %1, %alloc : memref<4x64x32x128xf32> to memref<4x64x32x128xf32>\n    affine.for %arg3 = 0 to 4 {\n      affine.for %arg4 = 0 to 64 {\n        affine.for %arg5 = 0 to 32 {\n          affine.for %arg6 = 0 to 128 {\n            affine.for %arg7 = 0 to 1 {\n              affine.for %arg8 = 0 to 1 {\n                %3 = affine.apply #map(%arg5, %arg7)\n                %4 = affine.apply #map(%arg6, %arg8)\n                %5 = affine.load %0[%arg3, %arg4, %3, %4] : memref<4x64x32x128xf32>\n                %6 = affine.load %alloc[%arg3, %arg4, %arg5, %arg6] : memref<4x64x32x128xf32>\n                %7 = arith.maximumf %6, %5 : f32\n                affine.store %7, %alloc[%arg3, %arg4, %arg5, %arg6] : memref<4x64x32x128xf32>\n              }\n            }\n          }\n        }\n      }\n    }\n    %2 = bufferization.to_tensor %alloc : memref<4x64x32x128xf32>\n    return %2 : tensor<4x64x32x128xf32>\n  }\n}\n\n", "transform_wrapped_operation": "module attributes {torch.debug_module_name = \"Net\"} {\nfunc.func private @nanoTime() -> i64 attributes { llvm.emit_c_interface }\nfunc.func private @printFlops(f64)\nfunc.func private @printI64(i64)\nfunc.func private @printNewline()\nfunc.func private @printMemrefF32(tensor<*xf32>)\n\n\nfunc.func @matmul() -> tensor<4x64x32x128xf32>{\n\n%val = arith.constant 2.00000e+00 : f32\n%zero = arith.constant 0.00000e+00 : f32\n\n%tmp_input = bufferization.alloc_tensor() : tensor<4x64x32x128xf32>\n%input = linalg.fill ins(%val : f32) outs(%tmp_input : tensor<4x64x32x128xf32>) -> tensor<4x64x32x128xf32>\n%tmp_filter = bufferization.alloc_tensor() : tensor<1x1xf32>\n%filter = linalg.fill ins(%val : f32) outs(%tmp_filter : tensor<1x1xf32>) -> tensor<1x1xf32>\n%tmp_init = bufferization.alloc_tensor() : tensor<4x64x32x128xf32>\n%init = linalg.fill ins(%val : f32) outs(%tmp_init : tensor<4x64x32x128xf32>) -> tensor<4x64x32x128xf32>\n\n%t0 = func.call @nanoTime() : () -> (i64)\n\n%return_arg = linalg.pooling_nchw_max {dilations = dense<1> : tensor<2xi64>, strides = dense<1> : tensor<2xi64>} ins (%input, %filter: tensor<4x64x32x128xf32>, tensor<1x1xf32>) outs (%init: tensor<4x64x32x128xf32>) -> tensor<4x64x32x128xf32>\n%t = func.call @nanoTime() : () -> (i64)\n%delta = arith.subi %t, %t0 : i64\n%fp = arith.uitofp %delta : i64 to f64\n// func.call @printFlops(%fp) : (f64) -> ()\nfunc.call @printI64(%delta) : (i64) -> ()\nfunc.call @printNewline() : () -> ()\n\nreturn %return_arg : tensor<4x64x32x128xf32> \n}\n\nfunc.func @main(){\n    %c1 = arith.constant 1: index\n    %c0 = arith.constant 0 : index\n    %n = arith.constant 2: index\n    scf.for %i = %c0 to %n step %c1 {\n    %outputmain = func.call @matmul() : () -> tensor<4x64x32x128xf32>\n    }\n    return\n}\n}\n", "loops_data": {"nested_loops": [["%arg3", 0, 4, 1], ["%arg4", 0, 64, 1], ["%arg5", 0, 32, 1], ["%arg6", 0, 128, 1], ["%arg7", 0, 1, 1], ["%arg8", 0, 1, 1]], "op_count": {"+": 0, "-": 0, "*": 0, "/": 0, "exp": 0}, "load_data": [["%arg3", "%arg4", "%arg5 + %arg7", "%arg6 + %arg8"], ["%arg3", "%arg4", "%arg5", "%arg6"]], "store_data": []}, "execution_time": 1432851}, "linalg.pooling_nchw_max {dilations = dense<1> : tensor<2xi64>, strides = dense<2> : tensor<2xi64>} ins (%input, %filter: tensor<256x32x32x256xf32>, tensor<1x1xf32>) outs (%init: tensor<256x32x16x128xf32>) -> tensor<256x32x16x128xf32>": {"operation": "linalg.pooling_nchw_max {dilations = dense<1> : tensor<2xi64>, strides = dense<2> : tensor<2xi64>} ins (%input, %filter: tensor<256x32x32x256xf32>, tensor<1x1xf32>) outs (%init: tensor<256x32x16x128xf32>) -> tensor<256x32x16x128xf32>", "wrapped_operation": "func.func @func_call(%input: tensor<256x32x32x256xf32>, %filter: tensor<1x1xf32>, %init: tensor<256x32x16x128xf32>) -> tensor<256x32x16x128xf32> {\n  %ret = linalg.pooling_nchw_max {dilations = dense<1> : tensor<2xi64>, strides = dense<2> : tensor<2xi64>} ins (%input, %filter: tensor<256x32x32x256xf32>, tensor<1x1xf32>) outs (%init: tensor<256x32x16x128xf32>) -> tensor<256x32x16x128xf32>\n  return %ret : tensor<256x32x16x128xf32>\n}", "lowered_operation": "#map = affine_map<(d0, d1) -> (d0 * 2 + d1)>\nmodule {\n  func.func @func_call(%arg0: tensor<256x32x32x256xf32>, %arg1: tensor<1x1xf32>, %arg2: tensor<256x32x16x128xf32>) -> tensor<256x32x16x128xf32> {\n    %0 = bufferization.to_memref %arg0 : memref<256x32x32x256xf32>\n    %1 = bufferization.to_memref %arg2 : memref<256x32x16x128xf32>\n    %alloc = memref.alloc() {alignment = 64 : i64} : memref<256x32x16x128xf32>\n    memref.copy %1, %alloc : memref<256x32x16x128xf32> to memref<256x32x16x128xf32>\n    affine.for %arg3 = 0 to 256 {\n      affine.for %arg4 = 0 to 32 {\n        affine.for %arg5 = 0 to 16 {\n          affine.for %arg6 = 0 to 128 {\n            affine.for %arg7 = 0 to 1 {\n              affine.for %arg8 = 0 to 1 {\n                %3 = affine.apply #map(%arg5, %arg7)\n                %4 = affine.apply #map(%arg6, %arg8)\n                %5 = affine.load %0[%arg3, %arg4, %3, %4] : memref<256x32x32x256xf32>\n                %6 = affine.load %alloc[%arg3, %arg4, %arg5, %arg6] : memref<256x32x16x128xf32>\n                %7 = arith.maximumf %6, %5 : f32\n                affine.store %7, %alloc[%arg3, %arg4, %arg5, %arg6] : memref<256x32x16x128xf32>\n              }\n            }\n          }\n        }\n      }\n    }\n    %2 = bufferization.to_tensor %alloc : memref<256x32x16x128xf32>\n    return %2 : tensor<256x32x16x128xf32>\n  }\n}\n\n", "transform_wrapped_operation": "module attributes {torch.debug_module_name = \"Net\"} {\nfunc.func private @nanoTime() -> i64 attributes { llvm.emit_c_interface }\nfunc.func private @printFlops(f64)\nfunc.func private @printI64(i64)\nfunc.func private @printNewline()\nfunc.func private @printMemrefF32(tensor<*xf32>)\n\n\nfunc.func @matmul() -> tensor<256x32x16x128xf32>{\n\n%val = arith.constant 2.00000e+00 : f32\n%zero = arith.constant 0.00000e+00 : f32\n\n%tmp_input = bufferization.alloc_tensor() : tensor<256x32x32x256xf32>\n%input = linalg.fill ins(%val : f32) outs(%tmp_input : tensor<256x32x32x256xf32>) -> tensor<256x32x32x256xf32>\n%tmp_filter = bufferization.alloc_tensor() : tensor<1x1xf32>\n%filter = linalg.fill ins(%val : f32) outs(%tmp_filter : tensor<1x1xf32>) -> tensor<1x1xf32>\n%tmp_init = bufferization.alloc_tensor() : tensor<256x32x16x128xf32>\n%init = linalg.fill ins(%val : f32) outs(%tmp_init : tensor<256x32x16x128xf32>) -> tensor<256x32x16x128xf32>\n\n%t0 = func.call @nanoTime() : () -> (i64)\n\n%return_arg = linalg.pooling_nchw_max {dilations = dense<1> : tensor<2xi64>, strides = dense<2> : tensor<2xi64>} ins (%input, %filter: tensor<256x32x32x256xf32>, tensor<1x1xf32>) outs (%init: tensor<256x32x16x128xf32>) -> tensor<256x32x16x128xf32>\n%t = func.call @nanoTime() : () -> (i64)\n%delta = arith.subi %t, %t0 : i64\n%fp = arith.uitofp %delta : i64 to f64\n// func.call @printFlops(%fp) : (f64) -> ()\nfunc.call @printI64(%delta) : (i64) -> ()\nfunc.call @printNewline() : () -> ()\n\nreturn %return_arg : tensor<256x32x16x128xf32> \n}\n\nfunc.func @main(){\n    %c1 = arith.constant 1: index\n    %c0 = arith.constant 0 : index\n    %n = arith.constant 2: index\n    scf.for %i = %c0 to %n step %c1 {\n    %outputmain = func.call @matmul() : () -> tensor<256x32x16x128xf32>\n    }\n    return\n}\n}\n", "loops_data": {"nested_loops": [["%arg3", 0, 256, 1], ["%arg4", 0, 32, 1], ["%arg5", 0, 16, 1], ["%arg6", 0, 128, 1], ["%arg7", 0, 1, 1], ["%arg8", 0, 1, 1]], "op_count": {"+": 0, "-": 0, "*": 0, "/": 0, "exp": 0}, "load_data": [["%arg3", "%arg4", "%arg5 * 2 + %arg7", "%arg6 * 2 + %arg8"], ["%arg3", "%arg4", "%arg5", "%arg6"]], "store_data": []}, "execution_time": 36486524}, "linalg.pooling_nchw_max {dilations = dense<1> : tensor<2xi64>, strides = dense<1> : tensor<2xi64>} ins (%input, %filter: tensor<4x8x512x32xf32>, tensor<5x5xf32>) outs (%init: tensor<4x8x508x28xf32>) -> tensor<4x8x508x28xf32>": {"operation": "linalg.pooling_nchw_max {dilations = dense<1> : tensor<2xi64>, strides = dense<1> : tensor<2xi64>} ins (%input, %filter: tensor<4x8x512x32xf32>, tensor<5x5xf32>) outs (%init: tensor<4x8x508x28xf32>) -> tensor<4x8x508x28xf32>", "wrapped_operation": "func.func @func_call(%input: tensor<4x8x512x32xf32>, %filter: tensor<5x5xf32>, %init: tensor<4x8x508x28xf32>) -> tensor<4x8x508x28xf32> {\n  %ret = linalg.pooling_nchw_max {dilations = dense<1> : tensor<2xi64>, strides = dense<1> : tensor<2xi64>} ins (%input, %filter: tensor<4x8x512x32xf32>, tensor<5x5xf32>) outs (%init: tensor<4x8x508x28xf32>) -> tensor<4x8x508x28xf32>\n  return %ret : tensor<4x8x508x28xf32>\n}", "lowered_operation": "#map = affine_map<(d0, d1) -> (d0 + d1)>\nmodule {\n  func.func @func_call(%arg0: tensor<4x8x512x32xf32>, %arg1: tensor<5x5xf32>, %arg2: tensor<4x8x508x28xf32>) -> tensor<4x8x508x28xf32> {\n    %0 = bufferization.to_memref %arg0 : memref<4x8x512x32xf32>\n    %1 = bufferization.to_memref %arg2 : memref<4x8x508x28xf32>\n    %alloc = memref.alloc() {alignment = 64 : i64} : memref<4x8x508x28xf32>\n    memref.copy %1, %alloc : memref<4x8x508x28xf32> to memref<4x8x508x28xf32>\n    affine.for %arg3 = 0 to 4 {\n      affine.for %arg4 = 0 to 8 {\n        affine.for %arg5 = 0 to 508 {\n          affine.for %arg6 = 0 to 28 {\n            affine.for %arg7 = 0 to 5 {\n              affine.for %arg8 = 0 to 5 {\n                %3 = affine.apply #map(%arg5, %arg7)\n                %4 = affine.apply #map(%arg6, %arg8)\n                %5 = affine.load %0[%arg3, %arg4, %3, %4] : memref<4x8x512x32xf32>\n                %6 = affine.load %alloc[%arg3, %arg4, %arg5, %arg6] : memref<4x8x508x28xf32>\n                %7 = arith.maximumf %6, %5 : f32\n                affine.store %7, %alloc[%arg3, %arg4, %arg5, %arg6] : memref<4x8x508x28xf32>\n              }\n            }\n          }\n        }\n      }\n    }\n    %2 = bufferization.to_tensor %alloc : memref<4x8x508x28xf32>\n    return %2 : tensor<4x8x508x28xf32>\n  }\n}\n\n", "transform_wrapped_operation": "module attributes {torch.debug_module_name = \"Net\"} {\nfunc.func private @nanoTime() -> i64 attributes { llvm.emit_c_interface }\nfunc.func private @printFlops(f64)\nfunc.func private @printI64(i64)\nfunc.func private @printNewline()\nfunc.func private @printMemrefF32(tensor<*xf32>)\n\n\nfunc.func @matmul() -> tensor<4x8x508x28xf32>{\n\n%val = arith.constant 2.00000e+00 : f32\n%zero = arith.constant 0.00000e+00 : f32\n\n%tmp_input = bufferization.alloc_tensor() : tensor<4x8x512x32xf32>\n%input = linalg.fill ins(%val : f32) outs(%tmp_input : tensor<4x8x512x32xf32>) -> tensor<4x8x512x32xf32>\n%tmp_filter = bufferization.alloc_tensor() : tensor<5x5xf32>\n%filter = linalg.fill ins(%val : f32) outs(%tmp_filter : tensor<5x5xf32>) -> tensor<5x5xf32>\n%tmp_init = bufferization.alloc_tensor() : tensor<4x8x508x28xf32>\n%init = linalg.fill ins(%val : f32) outs(%tmp_init : tensor<4x8x508x28xf32>) -> tensor<4x8x508x28xf32>\n\n%t0 = func.call @nanoTime() : () -> (i64)\n\n%return_arg = linalg.pooling_nchw_max {dilations = dense<1> : tensor<2xi64>, strides = dense<1> : tensor<2xi64>} ins (%input, %filter: tensor<4x8x512x32xf32>, tensor<5x5xf32>) outs (%init: tensor<4x8x508x28xf32>) -> tensor<4x8x508x28xf32>\n%t = func.call @nanoTime() : () -> (i64)\n%delta = arith.subi %t, %t0 : i64\n%fp = arith.uitofp %delta : i64 to f64\n// func.call @printFlops(%fp) : (f64) -> ()\nfunc.call @printI64(%delta) : (i64) -> ()\nfunc.call @printNewline() : () -> ()\n\nreturn %return_arg : tensor<4x8x508x28xf32> \n}\n\nfunc.func @main(){\n    %c1 = arith.constant 1: index\n    %c0 = arith.constant 0 : index\n    %n = arith.constant 2: index\n    scf.for %i = %c0 to %n step %c1 {\n    %outputmain = func.call @matmul() : () -> tensor<4x8x508x28xf32>\n    }\n    return\n}\n}\n", "loops_data": {"nested_loops": [["%arg3", 0, 4, 1], ["%arg4", 0, 8, 1], ["%arg5", 0, 508, 1], ["%arg6", 0, 28, 1], ["%arg7", 0, 5, 1], ["%arg8", 0, 5, 1]], "op_count": {"+": 0, "-": 0, "*": 0, "/": 0, "exp": 0}, "load_data": [["%arg3", "%arg4", "%arg5 + %arg7", "%arg6 + %arg8"], ["%arg3", "%arg4", "%arg5", "%arg6"]], "store_data": []}, "execution_time": 37687610}, "linalg.pooling_nchw_max {dilations = dense<1> : tensor<2xi64>, strides = dense<2> : tensor<2xi64>} ins (%input, %filter: tensor<16x16x256x512xf32>, tensor<1x1xf32>) outs (%init: tensor<16x16x128x256xf32>) -> tensor<16x16x128x256xf32>": {"operation": "linalg.pooling_nchw_max {dilations = dense<1> : tensor<2xi64>, strides = dense<2> : tensor<2xi64>} ins (%input, %filter: tensor<16x16x256x512xf32>, tensor<1x1xf32>) outs (%init: tensor<16x16x128x256xf32>) -> tensor<16x16x128x256xf32>", "wrapped_operation": "func.func @func_call(%input: tensor<16x16x256x512xf32>, %filter: tensor<1x1xf32>, %init: tensor<16x16x128x256xf32>) -> tensor<16x16x128x256xf32> {\n  %ret = linalg.pooling_nchw_max {dilations = dense<1> : tensor<2xi64>, strides = dense<2> : tensor<2xi64>} ins (%input, %filter: tensor<16x16x256x512xf32>, tensor<1x1xf32>) outs (%init: tensor<16x16x128x256xf32>) -> tensor<16x16x128x256xf32>\n  return %ret : tensor<16x16x128x256xf32>\n}", "lowered_operation": "#map = affine_map<(d0, d1) -> (d0 * 2 + d1)>\nmodule {\n  func.func @func_call(%arg0: tensor<16x16x256x512xf32>, %arg1: tensor<1x1xf32>, %arg2: tensor<16x16x128x256xf32>) -> tensor<16x16x128x256xf32> {\n    %0 = bufferization.to_memref %arg0 : memref<16x16x256x512xf32>\n    %1 = bufferization.to_memref %arg2 : memref<16x16x128x256xf32>\n    %alloc = memref.alloc() {alignment = 64 : i64} : memref<16x16x128x256xf32>\n    memref.copy %1, %alloc : memref<16x16x128x256xf32> to memref<16x16x128x256xf32>\n    affine.for %arg3 = 0 to 16 {\n      affine.for %arg4 = 0 to 16 {\n        affine.for %arg5 = 0 to 128 {\n          affine.for %arg6 = 0 to 256 {\n            affine.for %arg7 = 0 to 1 {\n              affine.for %arg8 = 0 to 1 {\n                %3 = affine.apply #map(%arg5, %arg7)\n                %4 = affine.apply #map(%arg6, %arg8)\n                %5 = affine.load %0[%arg3, %arg4, %3, %4] : memref<16x16x256x512xf32>\n                %6 = affine.load %alloc[%arg3, %arg4, %arg5, %arg6] : memref<16x16x128x256xf32>\n                %7 = arith.maximumf %6, %5 : f32\n                affine.store %7, %alloc[%arg3, %arg4, %arg5, %arg6] : memref<16x16x128x256xf32>\n              }\n            }\n          }\n        }\n      }\n    }\n    %2 = bufferization.to_tensor %alloc : memref<16x16x128x256xf32>\n    return %2 : tensor<16x16x128x256xf32>\n  }\n}\n\n", "transform_wrapped_operation": "module attributes {torch.debug_module_name = \"Net\"} {\nfunc.func private @nanoTime() -> i64 attributes { llvm.emit_c_interface }\nfunc.func private @printFlops(f64)\nfunc.func private @printI64(i64)\nfunc.func private @printNewline()\nfunc.func private @printMemrefF32(tensor<*xf32>)\n\n\nfunc.func @matmul() -> tensor<16x16x128x256xf32>{\n\n%val = arith.constant 2.00000e+00 : f32\n%zero = arith.constant 0.00000e+00 : f32\n\n%tmp_input = bufferization.alloc_tensor() : tensor<16x16x256x512xf32>\n%input = linalg.fill ins(%val : f32) outs(%tmp_input : tensor<16x16x256x512xf32>) -> tensor<16x16x256x512xf32>\n%tmp_filter = bufferization.alloc_tensor() : tensor<1x1xf32>\n%filter = linalg.fill ins(%val : f32) outs(%tmp_filter : tensor<1x1xf32>) -> tensor<1x1xf32>\n%tmp_init = bufferization.alloc_tensor() : tensor<16x16x128x256xf32>\n%init = linalg.fill ins(%val : f32) outs(%tmp_init : tensor<16x16x128x256xf32>) -> tensor<16x16x128x256xf32>\n\n%t0 = func.call @nanoTime() : () -> (i64)\n\n%return_arg = linalg.pooling_nchw_max {dilations = dense<1> : tensor<2xi64>, strides = dense<2> : tensor<2xi64>} ins (%input, %filter: tensor<16x16x256x512xf32>, tensor<1x1xf32>) outs (%init: tensor<16x16x128x256xf32>) -> tensor<16x16x128x256xf32>\n%t = func.call @nanoTime() : () -> (i64)\n%delta = arith.subi %t, %t0 : i64\n%fp = arith.uitofp %delta : i64 to f64\n// func.call @printFlops(%fp) : (f64) -> ()\nfunc.call @printI64(%delta) : (i64) -> ()\nfunc.call @printNewline() : () -> ()\n\nreturn %return_arg : tensor<16x16x128x256xf32> \n}\n\nfunc.func @main(){\n    %c1 = arith.constant 1: index\n    %c0 = arith.constant 0 : index\n    %n = arith.constant 2: index\n    scf.for %i = %c0 to %n step %c1 {\n    %outputmain = func.call @matmul() : () -> tensor<16x16x128x256xf32>\n    }\n    return\n}\n}\n", "loops_data": {"nested_loops": [["%arg3", 0, 16, 1], ["%arg4", 0, 16, 1], ["%arg5", 0, 128, 1], ["%arg6", 0, 256, 1], ["%arg7", 0, 1, 1], ["%arg8", 0, 1, 1]], "op_count": {"+": 0, "-": 0, "*": 0, "/": 0, "exp": 0}, "load_data": [["%arg3", "%arg4", "%arg5 * 2 + %arg7", "%arg6 * 2 + %arg8"], ["%arg3", "%arg4", "%arg5", "%arg6"]], "store_data": []}, "execution_time": 16062931}, "linalg.pooling_nchw_max {dilations = dense<1> : tensor<2xi64>, strides = dense<1> : tensor<2xi64>} ins (%input, %filter: tensor<64x32x512x32xf32>, tensor<5x5xf32>) outs (%init: tensor<64x32x508x28xf32>) -> tensor<64x32x508x28xf32>": {"operation": "linalg.pooling_nchw_max {dilations = dense<1> : tensor<2xi64>, strides = dense<1> : tensor<2xi64>} ins (%input, %filter: tensor<64x32x512x32xf32>, tensor<5x5xf32>) outs (%init: tensor<64x32x508x28xf32>) -> tensor<64x32x508x28xf32>", "wrapped_operation": "func.func @func_call(%input: tensor<64x32x512x32xf32>, %filter: tensor<5x5xf32>, %init: tensor<64x32x508x28xf32>) -> tensor<64x32x508x28xf32> {\n  %ret = linalg.pooling_nchw_max {dilations = dense<1> : tensor<2xi64>, strides = dense<1> : tensor<2xi64>} ins (%input, %filter: tensor<64x32x512x32xf32>, tensor<5x5xf32>) outs (%init: tensor<64x32x508x28xf32>) -> tensor<64x32x508x28xf32>\n  return %ret : tensor<64x32x508x28xf32>\n}", "lowered_operation": "#map = affine_map<(d0, d1) -> (d0 + d1)>\nmodule {\n  func.func @func_call(%arg0: tensor<64x32x512x32xf32>, %arg1: tensor<5x5xf32>, %arg2: tensor<64x32x508x28xf32>) -> tensor<64x32x508x28xf32> {\n    %0 = bufferization.to_memref %arg0 : memref<64x32x512x32xf32>\n    %1 = bufferization.to_memref %arg2 : memref<64x32x508x28xf32>\n    %alloc = memref.alloc() {alignment = 64 : i64} : memref<64x32x508x28xf32>\n    memref.copy %1, %alloc : memref<64x32x508x28xf32> to memref<64x32x508x28xf32>\n    affine.for %arg3 = 0 to 64 {\n      affine.for %arg4 = 0 to 32 {\n        affine.for %arg5 = 0 to 508 {\n          affine.for %arg6 = 0 to 28 {\n            affine.for %arg7 = 0 to 5 {\n              affine.for %arg8 = 0 to 5 {\n                %3 = affine.apply #map(%arg5, %arg7)\n                %4 = affine.apply #map(%arg6, %arg8)\n                %5 = affine.load %0[%arg3, %arg4, %3, %4] : memref<64x32x512x32xf32>\n                %6 = affine.load %alloc[%arg3, %arg4, %arg5, %arg6] : memref<64x32x508x28xf32>\n                %7 = arith.maximumf %6, %5 : f32\n                affine.store %7, %alloc[%arg3, %arg4, %arg5, %arg6] : memref<64x32x508x28xf32>\n              }\n            }\n          }\n        }\n      }\n    }\n    %2 = bufferization.to_tensor %alloc : memref<64x32x508x28xf32>\n    return %2 : tensor<64x32x508x28xf32>\n  }\n}\n\n", "transform_wrapped_operation": "module attributes {torch.debug_module_name = \"Net\"} {\nfunc.func private @nanoTime() -> i64 attributes { llvm.emit_c_interface }\nfunc.func private @printFlops(f64)\nfunc.func private @printI64(i64)\nfunc.func private @printNewline()\nfunc.func private @printMemrefF32(tensor<*xf32>)\n\n\nfunc.func @matmul() -> tensor<64x32x508x28xf32>{\n\n%val = arith.constant 2.00000e+00 : f32\n%zero = arith.constant 0.00000e+00 : f32\n\n%tmp_input = bufferization.alloc_tensor() : tensor<64x32x512x32xf32>\n%input = linalg.fill ins(%val : f32) outs(%tmp_input : tensor<64x32x512x32xf32>) -> tensor<64x32x512x32xf32>\n%tmp_filter = bufferization.alloc_tensor() : tensor<5x5xf32>\n%filter = linalg.fill ins(%val : f32) outs(%tmp_filter : tensor<5x5xf32>) -> tensor<5x5xf32>\n%tmp_init = bufferization.alloc_tensor() : tensor<64x32x508x28xf32>\n%init = linalg.fill ins(%val : f32) outs(%tmp_init : tensor<64x32x508x28xf32>) -> tensor<64x32x508x28xf32>\n\n%t0 = func.call @nanoTime() : () -> (i64)\n\n%return_arg = linalg.pooling_nchw_max {dilations = dense<1> : tensor<2xi64>, strides = dense<1> : tensor<2xi64>} ins (%input, %filter: tensor<64x32x512x32xf32>, tensor<5x5xf32>) outs (%init: tensor<64x32x508x28xf32>) -> tensor<64x32x508x28xf32>\n%t = func.call @nanoTime() : () -> (i64)\n%delta = arith.subi %t, %t0 : i64\n%fp = arith.uitofp %delta : i64 to f64\n// func.call @printFlops(%fp) : (f64) -> ()\nfunc.call @printI64(%delta) : (i64) -> ()\nfunc.call @printNewline() : () -> ()\n\nreturn %return_arg : tensor<64x32x508x28xf32> \n}\n\nfunc.func @main(){\n    %c1 = arith.constant 1: index\n    %c0 = arith.constant 0 : index\n    %n = arith.constant 2: index\n    scf.for %i = %c0 to %n step %c1 {\n    %outputmain = func.call @matmul() : () -> tensor<64x32x508x28xf32>\n    }\n    return\n}\n}\n", "loops_data": {"nested_loops": [["%arg3", 0, 64, 1], ["%arg4", 0, 32, 1], ["%arg5", 0, 508, 1], ["%arg6", 0, 28, 1], ["%arg7", 0, 5, 1], ["%arg8", 0, 5, 1]], "op_count": {"+": 0, "-": 0, "*": 0, "/": 0, "exp": 0}, "load_data": [["%arg3", "%arg4", "%arg5 + %arg7", "%arg6 + %arg8"], ["%arg3", "%arg4", "%arg5", "%arg6"]], "store_data": []}, "execution_time": 2419316093}, "linalg.pooling_nchw_max {dilations = dense<1> : tensor<2xi64>, strides = dense<1> : tensor<2xi64>} ins (%input, %filter: tensor<64x64x512x64xf32>, tensor<3x3xf32>) outs (%init: tensor<64x64x510x62xf32>) -> tensor<64x64x510x62xf32>": {"operation": "linalg.pooling_nchw_max {dilations = dense<1> : tensor<2xi64>, strides = dense<1> : tensor<2xi64>} ins (%input, %filter: tensor<64x64x512x64xf32>, tensor<3x3xf32>) outs (%init: tensor<64x64x510x62xf32>) -> tensor<64x64x510x62xf32>", "wrapped_operation": "func.func @func_call(%input: tensor<64x64x512x64xf32>, %filter: tensor<3x3xf32>, %init: tensor<64x64x510x62xf32>) -> tensor<64x64x510x62xf32> {\n  %ret = linalg.pooling_nchw_max {dilations = dense<1> : tensor<2xi64>, strides = dense<1> : tensor<2xi64>} ins (%input, %filter: tensor<64x64x512x64xf32>, tensor<3x3xf32>) outs (%init: tensor<64x64x510x62xf32>) -> tensor<64x64x510x62xf32>\n  return %ret : tensor<64x64x510x62xf32>\n}", "lowered_operation": "#map = affine_map<(d0, d1) -> (d0 + d1)>\nmodule {\n  func.func @func_call(%arg0: tensor<64x64x512x64xf32>, %arg1: tensor<3x3xf32>, %arg2: tensor<64x64x510x62xf32>) -> tensor<64x64x510x62xf32> {\n    %0 = bufferization.to_memref %arg0 : memref<64x64x512x64xf32>\n    %1 = bufferization.to_memref %arg2 : memref<64x64x510x62xf32>\n    %alloc = memref.alloc() {alignment = 64 : i64} : memref<64x64x510x62xf32>\n    memref.copy %1, %alloc : memref<64x64x510x62xf32> to memref<64x64x510x62xf32>\n    affine.for %arg3 = 0 to 64 {\n      affine.for %arg4 = 0 to 64 {\n        affine.for %arg5 = 0 to 510 {\n          affine.for %arg6 = 0 to 62 {\n            affine.for %arg7 = 0 to 3 {\n              affine.for %arg8 = 0 to 3 {\n                %3 = affine.apply #map(%arg5, %arg7)\n                %4 = affine.apply #map(%arg6, %arg8)\n                %5 = affine.load %0[%arg3, %arg4, %3, %4] : memref<64x64x512x64xf32>\n                %6 = affine.load %alloc[%arg3, %arg4, %arg5, %arg6] : memref<64x64x510x62xf32>\n                %7 = arith.maximumf %6, %5 : f32\n                affine.store %7, %alloc[%arg3, %arg4, %arg5, %arg6] : memref<64x64x510x62xf32>\n              }\n            }\n          }\n        }\n      }\n    }\n    %2 = bufferization.to_tensor %alloc : memref<64x64x510x62xf32>\n    return %2 : tensor<64x64x510x62xf32>\n  }\n}\n\n", "transform_wrapped_operation": "module attributes {torch.debug_module_name = \"Net\"} {\nfunc.func private @nanoTime() -> i64 attributes { llvm.emit_c_interface }\nfunc.func private @printFlops(f64)\nfunc.func private @printI64(i64)\nfunc.func private @printNewline()\nfunc.func private @printMemrefF32(tensor<*xf32>)\n\n\nfunc.func @matmul() -> tensor<64x64x510x62xf32>{\n\n%val = arith.constant 2.00000e+00 : f32\n%zero = arith.constant 0.00000e+00 : f32\n\n%tmp_input = bufferization.alloc_tensor() : tensor<64x64x512x64xf32>\n%input = linalg.fill ins(%val : f32) outs(%tmp_input : tensor<64x64x512x64xf32>) -> tensor<64x64x512x64xf32>\n%tmp_filter = bufferization.alloc_tensor() : tensor<3x3xf32>\n%filter = linalg.fill ins(%val : f32) outs(%tmp_filter : tensor<3x3xf32>) -> tensor<3x3xf32>\n%tmp_init = bufferization.alloc_tensor() : tensor<64x64x510x62xf32>\n%init = linalg.fill ins(%val : f32) outs(%tmp_init : tensor<64x64x510x62xf32>) -> tensor<64x64x510x62xf32>\n\n%t0 = func.call @nanoTime() : () -> (i64)\n\n%return_arg = linalg.pooling_nchw_max {dilations = dense<1> : tensor<2xi64>, strides = dense<1> : tensor<2xi64>} ins (%input, %filter: tensor<64x64x512x64xf32>, tensor<3x3xf32>) outs (%init: tensor<64x64x510x62xf32>) -> tensor<64x64x510x62xf32>\n%t = func.call @nanoTime() : () -> (i64)\n%delta = arith.subi %t, %t0 : i64\n%fp = arith.uitofp %delta : i64 to f64\n// func.call @printFlops(%fp) : (f64) -> ()\nfunc.call @printI64(%delta) : (i64) -> ()\nfunc.call @printNewline() : () -> ()\n\nreturn %return_arg : tensor<64x64x510x62xf32> \n}\n\nfunc.func @main(){\n    %c1 = arith.constant 1: index\n    %c0 = arith.constant 0 : index\n    %n = arith.constant 2: index\n    scf.for %i = %c0 to %n step %c1 {\n    %outputmain = func.call @matmul() : () -> tensor<64x64x510x62xf32>\n    }\n    return\n}\n}\n", "loops_data": {"nested_loops": [["%arg3", 0, 64, 1], ["%arg4", 0, 64, 1], ["%arg5", 0, 510, 1], ["%arg6", 0, 62, 1], ["%arg7", 0, 3, 1], ["%arg8", 0, 3, 1]], "op_count": {"+": 0, "-": 0, "*": 0, "/": 0, "exp": 0}, "load_data": [["%arg3", "%arg4", "%arg5 + %arg7", "%arg6 + %arg8"], ["%arg3", "%arg4", "%arg5", "%arg6"]], "store_data": []}, "execution_time": 2800794459}, "linalg.pooling_nchw_max {dilations = dense<1> : tensor<2xi64>, strides = dense<1> : tensor<2xi64>} ins (%input, %filter: tensor<16x16x256x128xf32>, tensor<1x1xf32>) outs (%init: tensor<16x16x256x128xf32>) -> tensor<16x16x256x128xf32>": {"operation": "linalg.pooling_nchw_max {dilations = dense<1> : tensor<2xi64>, strides = dense<1> : tensor<2xi64>} ins (%input, %filter: tensor<16x16x256x128xf32>, tensor<1x1xf32>) outs (%init: tensor<16x16x256x128xf32>) -> tensor<16x16x256x128xf32>", "wrapped_operation": "func.func @func_call(%input: tensor<16x16x256x128xf32>, %filter: tensor<1x1xf32>, %init: tensor<16x16x256x128xf32>) -> tensor<16x16x256x128xf32> {\n  %ret = linalg.pooling_nchw_max {dilations = dense<1> : tensor<2xi64>, strides = dense<1> : tensor<2xi64>} ins (%input, %filter: tensor<16x16x256x128xf32>, tensor<1x1xf32>) outs (%init: tensor<16x16x256x128xf32>) -> tensor<16x16x256x128xf32>\n  return %ret : tensor<16x16x256x128xf32>\n}", "lowered_operation": "#map = affine_map<(d0, d1) -> (d0 + d1)>\nmodule {\n  func.func @func_call(%arg0: tensor<16x16x256x128xf32>, %arg1: tensor<1x1xf32>, %arg2: tensor<16x16x256x128xf32>) -> tensor<16x16x256x128xf32> {\n    %0 = bufferization.to_memref %arg0 : memref<16x16x256x128xf32>\n    %1 = bufferization.to_memref %arg2 : memref<16x16x256x128xf32>\n    %alloc = memref.alloc() {alignment = 64 : i64} : memref<16x16x256x128xf32>\n    memref.copy %1, %alloc : memref<16x16x256x128xf32> to memref<16x16x256x128xf32>\n    affine.for %arg3 = 0 to 16 {\n      affine.for %arg4 = 0 to 16 {\n        affine.for %arg5 = 0 to 256 {\n          affine.for %arg6 = 0 to 128 {\n            affine.for %arg7 = 0 to 1 {\n              affine.for %arg8 = 0 to 1 {\n                %3 = affine.apply #map(%arg5, %arg7)\n                %4 = affine.apply #map(%arg6, %arg8)\n                %5 = affine.load %0[%arg3, %arg4, %3, %4] : memref<16x16x256x128xf32>\n                %6 = affine.load %alloc[%arg3, %arg4, %arg5, %arg6] : memref<16x16x256x128xf32>\n                %7 = arith.maximumf %6, %5 : f32\n                affine.store %7, %alloc[%arg3, %arg4, %arg5, %arg6] : memref<16x16x256x128xf32>\n              }\n            }\n          }\n        }\n      }\n    }\n    %2 = bufferization.to_tensor %alloc : memref<16x16x256x128xf32>\n    return %2 : tensor<16x16x256x128xf32>\n  }\n}\n\n", "transform_wrapped_operation": "module attributes {torch.debug_module_name = \"Net\"} {\nfunc.func private @nanoTime() -> i64 attributes { llvm.emit_c_interface }\nfunc.func private @printFlops(f64)\nfunc.func private @printI64(i64)\nfunc.func private @printNewline()\nfunc.func private @printMemrefF32(tensor<*xf32>)\n\n\nfunc.func @matmul() -> tensor<16x16x256x128xf32>{\n\n%val = arith.constant 2.00000e+00 : f32\n%zero = arith.constant 0.00000e+00 : f32\n\n%tmp_input = bufferization.alloc_tensor() : tensor<16x16x256x128xf32>\n%input = linalg.fill ins(%val : f32) outs(%tmp_input : tensor<16x16x256x128xf32>) -> tensor<16x16x256x128xf32>\n%tmp_filter = bufferization.alloc_tensor() : tensor<1x1xf32>\n%filter = linalg.fill ins(%val : f32) outs(%tmp_filter : tensor<1x1xf32>) -> tensor<1x1xf32>\n%tmp_init = bufferization.alloc_tensor() : tensor<16x16x256x128xf32>\n%init = linalg.fill ins(%val : f32) outs(%tmp_init : tensor<16x16x256x128xf32>) -> tensor<16x16x256x128xf32>\n\n%t0 = func.call @nanoTime() : () -> (i64)\n\n%return_arg = linalg.pooling_nchw_max {dilations = dense<1> : tensor<2xi64>, strides = dense<1> : tensor<2xi64>} ins (%input, %filter: tensor<16x16x256x128xf32>, tensor<1x1xf32>) outs (%init: tensor<16x16x256x128xf32>) -> tensor<16x16x256x128xf32>\n%t = func.call @nanoTime() : () -> (i64)\n%delta = arith.subi %t, %t0 : i64\n%fp = arith.uitofp %delta : i64 to f64\n// func.call @printFlops(%fp) : (f64) -> ()\nfunc.call @printI64(%delta) : (i64) -> ()\nfunc.call @printNewline() : () -> ()\n\nreturn %return_arg : tensor<16x16x256x128xf32> \n}\n\nfunc.func @main(){\n    %c1 = arith.constant 1: index\n    %c0 = arith.constant 0 : index\n    %n = arith.constant 2: index\n    scf.for %i = %c0 to %n step %c1 {\n    %outputmain = func.call @matmul() : () -> tensor<16x16x256x128xf32>\n    }\n    return\n}\n}\n", "loops_data": {"nested_loops": [["%arg3", 0, 16, 1], ["%arg4", 0, 16, 1], ["%arg5", 0, 256, 1], ["%arg6", 0, 128, 1], ["%arg7", 0, 1, 1], ["%arg8", 0, 1, 1]], "op_count": {"+": 0, "-": 0, "*": 0, "/": 0, "exp": 0}, "load_data": [["%arg3", "%arg4", "%arg5 + %arg7", "%arg6 + %arg8"], ["%arg3", "%arg4", "%arg5", "%arg6"]], "store_data": []}, "execution_time": 12598877}, "linalg.pooling_nchw_max {dilations = dense<1> : tensor<2xi64>, strides = dense<1> : tensor<2xi64>} ins (%input, %filter: tensor<4x128x128x128xf32>, tensor<7x7xf32>) outs (%init: tensor<4x128x122x122xf32>) -> tensor<4x128x122x122xf32>": {"operation": "linalg.pooling_nchw_max {dilations = dense<1> : tensor<2xi64>, strides = dense<1> : tensor<2xi64>} ins (%input, %filter: tensor<4x128x128x128xf32>, tensor<7x7xf32>) outs (%init: tensor<4x128x122x122xf32>) -> tensor<4x128x122x122xf32>", "wrapped_operation": "func.func @func_call(%input: tensor<4x128x128x128xf32>, %filter: tensor<7x7xf32>, %init: tensor<4x128x122x122xf32>) -> tensor<4x128x122x122xf32> {\n  %ret = linalg.pooling_nchw_max {dilations = dense<1> : tensor<2xi64>, strides = dense<1> : tensor<2xi64>} ins (%input, %filter: tensor<4x128x128x128xf32>, tensor<7x7xf32>) outs (%init: tensor<4x128x122x122xf32>) -> tensor<4x128x122x122xf32>\n  return %ret : tensor<4x128x122x122xf32>\n}", "lowered_operation": "#map = affine_map<(d0, d1) -> (d0 + d1)>\nmodule {\n  func.func @func_call(%arg0: tensor<4x128x128x128xf32>, %arg1: tensor<7x7xf32>, %arg2: tensor<4x128x122x122xf32>) -> tensor<4x128x122x122xf32> {\n    %0 = bufferization.to_memref %arg0 : memref<4x128x128x128xf32>\n    %1 = bufferization.to_memref %arg2 : memref<4x128x122x122xf32>\n    %alloc = memref.alloc() {alignment = 64 : i64} : memref<4x128x122x122xf32>\n    memref.copy %1, %alloc : memref<4x128x122x122xf32> to memref<4x128x122x122xf32>\n    affine.for %arg3 = 0 to 4 {\n      affine.for %arg4 = 0 to 128 {\n        affine.for %arg5 = 0 to 122 {\n          affine.for %arg6 = 0 to 122 {\n            affine.for %arg7 = 0 to 7 {\n              affine.for %arg8 = 0 to 7 {\n                %3 = affine.apply #map(%arg5, %arg7)\n                %4 = affine.apply #map(%arg6, %arg8)\n                %5 = affine.load %0[%arg3, %arg4, %3, %4] : memref<4x128x128x128xf32>\n                %6 = affine.load %alloc[%arg3, %arg4, %arg5, %arg6] : memref<4x128x122x122xf32>\n                %7 = arith.maximumf %6, %5 : f32\n                affine.store %7, %alloc[%arg3, %arg4, %arg5, %arg6] : memref<4x128x122x122xf32>\n              }\n            }\n          }\n        }\n      }\n    }\n    %2 = bufferization.to_tensor %alloc : memref<4x128x122x122xf32>\n    return %2 : tensor<4x128x122x122xf32>\n  }\n}\n\n", "transform_wrapped_operation": "module attributes {torch.debug_module_name = \"Net\"} {\nfunc.func private @nanoTime() -> i64 attributes { llvm.emit_c_interface }\nfunc.func private @printFlops(f64)\nfunc.func private @printI64(i64)\nfunc.func private @printNewline()\nfunc.func private @printMemrefF32(tensor<*xf32>)\n\n\nfunc.func @matmul() -> tensor<4x128x122x122xf32>{\n\n%val = arith.constant 2.00000e+00 : f32\n%zero = arith.constant 0.00000e+00 : f32\n\n%tmp_input = bufferization.alloc_tensor() : tensor<4x128x128x128xf32>\n%input = linalg.fill ins(%val : f32) outs(%tmp_input : tensor<4x128x128x128xf32>) -> tensor<4x128x128x128xf32>\n%tmp_filter = bufferization.alloc_tensor() : tensor<7x7xf32>\n%filter = linalg.fill ins(%val : f32) outs(%tmp_filter : tensor<7x7xf32>) -> tensor<7x7xf32>\n%tmp_init = bufferization.alloc_tensor() : tensor<4x128x122x122xf32>\n%init = linalg.fill ins(%val : f32) outs(%tmp_init : tensor<4x128x122x122xf32>) -> tensor<4x128x122x122xf32>\n\n%t0 = func.call @nanoTime() : () -> (i64)\n\n%return_arg = linalg.pooling_nchw_max {dilations = dense<1> : tensor<2xi64>, strides = dense<1> : tensor<2xi64>} ins (%input, %filter: tensor<4x128x128x128xf32>, tensor<7x7xf32>) outs (%init: tensor<4x128x122x122xf32>) -> tensor<4x128x122x122xf32>\n%t = func.call @nanoTime() : () -> (i64)\n%delta = arith.subi %t, %t0 : i64\n%fp = arith.uitofp %delta : i64 to f64\n// func.call @printFlops(%fp) : (f64) -> ()\nfunc.call @printI64(%delta) : (i64) -> ()\nfunc.call @printNewline() : () -> ()\n\nreturn %return_arg : tensor<4x128x122x122xf32> \n}\n\nfunc.func @main(){\n    %c1 = arith.constant 1: index\n    %c0 = arith.constant 0 : index\n    %n = arith.constant 2: index\n    scf.for %i = %c0 to %n step %c1 {\n    %outputmain = func.call @matmul() : () -> tensor<4x128x122x122xf32>\n    }\n    return\n}\n}\n", "loops_data": {"nested_loops": [["%arg3", 0, 4, 1], ["%arg4", 0, 128, 1], ["%arg5", 0, 122, 1], ["%arg6", 0, 122, 1], ["%arg7", 0, 7, 1], ["%arg8", 0, 7, 1]], "op_count": {"+": 0, "-": 0, "*": 0, "/": 0, "exp": 0}, "load_data": [["%arg3", "%arg4", "%arg5 + %arg7", "%arg6 + %arg8"], ["%arg3", "%arg4", "%arg5", "%arg6"]], "store_data": []}, "execution_time": 1486880091}, "linalg.pooling_nchw_max {dilations = dense<1> : tensor<2xi64>, strides = dense<2> : tensor<2xi64>} ins (%input, %filter: tensor<16x32x64x32xf32>, tensor<5x5xf32>) outs (%init: tensor<16x32x30x14xf32>) -> tensor<16x32x30x14xf32>": {"operation": "linalg.pooling_nchw_max {dilations = dense<1> : tensor<2xi64>, strides = dense<2> : tensor<2xi64>} ins (%input, %filter: tensor<16x32x64x32xf32>, tensor<5x5xf32>) outs (%init: tensor<16x32x30x14xf32>) -> tensor<16x32x30x14xf32>", "wrapped_operation": "func.func @func_call(%input: tensor<16x32x64x32xf32>, %filter: tensor<5x5xf32>, %init: tensor<16x32x30x14xf32>) -> tensor<16x32x30x14xf32> {\n  %ret = linalg.pooling_nchw_max {dilations = dense<1> : tensor<2xi64>, strides = dense<2> : tensor<2xi64>} ins (%input, %filter: tensor<16x32x64x32xf32>, tensor<5x5xf32>) outs (%init: tensor<16x32x30x14xf32>) -> tensor<16x32x30x14xf32>\n  return %ret : tensor<16x32x30x14xf32>\n}", "lowered_operation": "#map = affine_map<(d0, d1) -> (d0 * 2 + d1)>\nmodule {\n  func.func @func_call(%arg0: tensor<16x32x64x32xf32>, %arg1: tensor<5x5xf32>, %arg2: tensor<16x32x30x14xf32>) -> tensor<16x32x30x14xf32> {\n    %0 = bufferization.to_memref %arg0 : memref<16x32x64x32xf32>\n    %1 = bufferization.to_memref %arg2 : memref<16x32x30x14xf32>\n    %alloc = memref.alloc() {alignment = 64 : i64} : memref<16x32x30x14xf32>\n    memref.copy %1, %alloc : memref<16x32x30x14xf32> to memref<16x32x30x14xf32>\n    affine.for %arg3 = 0 to 16 {\n      affine.for %arg4 = 0 to 32 {\n        affine.for %arg5 = 0 to 30 {\n          affine.for %arg6 = 0 to 14 {\n            affine.for %arg7 = 0 to 5 {\n              affine.for %arg8 = 0 to 5 {\n                %3 = affine.apply #map(%arg5, %arg7)\n                %4 = affine.apply #map(%arg6, %arg8)\n                %5 = affine.load %0[%arg3, %arg4, %3, %4] : memref<16x32x64x32xf32>\n                %6 = affine.load %alloc[%arg3, %arg4, %arg5, %arg6] : memref<16x32x30x14xf32>\n                %7 = arith.maximumf %6, %5 : f32\n                affine.store %7, %alloc[%arg3, %arg4, %arg5, %arg6] : memref<16x32x30x14xf32>\n              }\n            }\n          }\n        }\n      }\n    }\n    %2 = bufferization.to_tensor %alloc : memref<16x32x30x14xf32>\n    return %2 : tensor<16x32x30x14xf32>\n  }\n}\n\n", "transform_wrapped_operation": "module attributes {torch.debug_module_name = \"Net\"} {\nfunc.func private @nanoTime() -> i64 attributes { llvm.emit_c_interface }\nfunc.func private @printFlops(f64)\nfunc.func private @printI64(i64)\nfunc.func private @printNewline()\nfunc.func private @printMemrefF32(tensor<*xf32>)\n\n\nfunc.func @matmul() -> tensor<16x32x30x14xf32>{\n\n%val = arith.constant 2.00000e+00 : f32\n%zero = arith.constant 0.00000e+00 : f32\n\n%tmp_input = bufferization.alloc_tensor() : tensor<16x32x64x32xf32>\n%input = linalg.fill ins(%val : f32) outs(%tmp_input : tensor<16x32x64x32xf32>) -> tensor<16x32x64x32xf32>\n%tmp_filter = bufferization.alloc_tensor() : tensor<5x5xf32>\n%filter = linalg.fill ins(%val : f32) outs(%tmp_filter : tensor<5x5xf32>) -> tensor<5x5xf32>\n%tmp_init = bufferization.alloc_tensor() : tensor<16x32x30x14xf32>\n%init = linalg.fill ins(%val : f32) outs(%tmp_init : tensor<16x32x30x14xf32>) -> tensor<16x32x30x14xf32>\n\n%t0 = func.call @nanoTime() : () -> (i64)\n\n%return_arg = linalg.pooling_nchw_max {dilations = dense<1> : tensor<2xi64>, strides = dense<2> : tensor<2xi64>} ins (%input, %filter: tensor<16x32x64x32xf32>, tensor<5x5xf32>) outs (%init: tensor<16x32x30x14xf32>) -> tensor<16x32x30x14xf32>\n%t = func.call @nanoTime() : () -> (i64)\n%delta = arith.subi %t, %t0 : i64\n%fp = arith.uitofp %delta : i64 to f64\n// func.call @printFlops(%fp) : (f64) -> ()\nfunc.call @printI64(%delta) : (i64) -> ()\nfunc.call @printNewline() : () -> ()\n\nreturn %return_arg : tensor<16x32x30x14xf32> \n}\n\nfunc.func @main(){\n    %c1 = arith.constant 1: index\n    %c0 = arith.constant 0 : index\n    %n = arith.constant 2: index\n    scf.for %i = %c0 to %n step %c1 {\n    %outputmain = func.call @matmul() : () -> tensor<16x32x30x14xf32>\n    }\n    return\n}\n}\n", "loops_data": {"nested_loops": [["%arg3", 0, 16, 1], ["%arg4", 0, 32, 1], ["%arg5", 0, 30, 1], ["%arg6", 0, 14, 1], ["%arg7", 0, 5, 1], ["%arg8", 0, 5, 1]], "op_count": {"+": 0, "-": 0, "*": 0, "/": 0, "exp": 0}, "load_data": [["%arg3", "%arg4", "%arg5 * 2 + %arg7", "%arg6 * 2 + %arg8"], ["%arg3", "%arg4", "%arg5", "%arg6"]], "store_data": []}, "execution_time": 17898122}, "linalg.pooling_nchw_max {dilations = dense<1> : tensor<2xi64>, strides = dense<1> : tensor<2xi64>} ins (%input, %filter: tensor<8x8x64x64xf32>, tensor<1x1xf32>) outs (%init: tensor<8x8x64x64xf32>) -> tensor<8x8x64x64xf32>": {"operation": "linalg.pooling_nchw_max {dilations = dense<1> : tensor<2xi64>, strides = dense<1> : tensor<2xi64>} ins (%input, %filter: tensor<8x8x64x64xf32>, tensor<1x1xf32>) outs (%init: tensor<8x8x64x64xf32>) -> tensor<8x8x64x64xf32>", "wrapped_operation": "func.func @func_call(%input: tensor<8x8x64x64xf32>, %filter: tensor<1x1xf32>, %init: tensor<8x8x64x64xf32>) -> tensor<8x8x64x64xf32> {\n  %ret = linalg.pooling_nchw_max {dilations = dense<1> : tensor<2xi64>, strides = dense<1> : tensor<2xi64>} ins (%input, %filter: tensor<8x8x64x64xf32>, tensor<1x1xf32>) outs (%init: tensor<8x8x64x64xf32>) -> tensor<8x8x64x64xf32>\n  return %ret : tensor<8x8x64x64xf32>\n}", "lowered_operation": "#map = affine_map<(d0, d1) -> (d0 + d1)>\nmodule {\n  func.func @func_call(%arg0: tensor<8x8x64x64xf32>, %arg1: tensor<1x1xf32>, %arg2: tensor<8x8x64x64xf32>) -> tensor<8x8x64x64xf32> {\n    %0 = bufferization.to_memref %arg0 : memref<8x8x64x64xf32>\n    %1 = bufferization.to_memref %arg2 : memref<8x8x64x64xf32>\n    %alloc = memref.alloc() {alignment = 64 : i64} : memref<8x8x64x64xf32>\n    memref.copy %1, %alloc : memref<8x8x64x64xf32> to memref<8x8x64x64xf32>\n    affine.for %arg3 = 0 to 8 {\n      affine.for %arg4 = 0 to 8 {\n        affine.for %arg5 = 0 to 64 {\n          affine.for %arg6 = 0 to 64 {\n            affine.for %arg7 = 0 to 1 {\n              affine.for %arg8 = 0 to 1 {\n                %3 = affine.apply #map(%arg5, %arg7)\n                %4 = affine.apply #map(%arg6, %arg8)\n                %5 = affine.load %0[%arg3, %arg4, %3, %4] : memref<8x8x64x64xf32>\n                %6 = affine.load %alloc[%arg3, %arg4, %arg5, %arg6] : memref<8x8x64x64xf32>\n                %7 = arith.maximumf %6, %5 : f32\n                affine.store %7, %alloc[%arg3, %arg4, %arg5, %arg6] : memref<8x8x64x64xf32>\n              }\n            }\n          }\n        }\n      }\n    }\n    %2 = bufferization.to_tensor %alloc : memref<8x8x64x64xf32>\n    return %2 : tensor<8x8x64x64xf32>\n  }\n}\n\n", "transform_wrapped_operation": "module attributes {torch.debug_module_name = \"Net\"} {\nfunc.func private @nanoTime() -> i64 attributes { llvm.emit_c_interface }\nfunc.func private @printFlops(f64)\nfunc.func private @printI64(i64)\nfunc.func private @printNewline()\nfunc.func private @printMemrefF32(tensor<*xf32>)\n\n\nfunc.func @matmul() -> tensor<8x8x64x64xf32>{\n\n%val = arith.constant 2.00000e+00 : f32\n%zero = arith.constant 0.00000e+00 : f32\n\n%tmp_input = bufferization.alloc_tensor() : tensor<8x8x64x64xf32>\n%input = linalg.fill ins(%val : f32) outs(%tmp_input : tensor<8x8x64x64xf32>) -> tensor<8x8x64x64xf32>\n%tmp_filter = bufferization.alloc_tensor() : tensor<1x1xf32>\n%filter = linalg.fill ins(%val : f32) outs(%tmp_filter : tensor<1x1xf32>) -> tensor<1x1xf32>\n%tmp_init = bufferization.alloc_tensor() : tensor<8x8x64x64xf32>\n%init = linalg.fill ins(%val : f32) outs(%tmp_init : tensor<8x8x64x64xf32>) -> tensor<8x8x64x64xf32>\n\n%t0 = func.call @nanoTime() : () -> (i64)\n\n%return_arg = linalg.pooling_nchw_max {dilations = dense<1> : tensor<2xi64>, strides = dense<1> : tensor<2xi64>} ins (%input, %filter: tensor<8x8x64x64xf32>, tensor<1x1xf32>) outs (%init: tensor<8x8x64x64xf32>) -> tensor<8x8x64x64xf32>\n%t = func.call @nanoTime() : () -> (i64)\n%delta = arith.subi %t, %t0 : i64\n%fp = arith.uitofp %delta : i64 to f64\n// func.call @printFlops(%fp) : (f64) -> ()\nfunc.call @printI64(%delta) : (i64) -> ()\nfunc.call @printNewline() : () -> ()\n\nreturn %return_arg : tensor<8x8x64x64xf32> \n}\n\nfunc.func @main(){\n    %c1 = arith.constant 1: index\n    %c0 = arith.constant 0 : index\n    %n = arith.constant 2: index\n    scf.for %i = %c0 to %n step %c1 {\n    %outputmain = func.call @matmul() : () -> tensor<8x8x64x64xf32>\n    }\n    return\n}\n}\n", "loops_data": {"nested_loops": [["%arg3", 0, 8, 1], ["%arg4", 0, 8, 1], ["%arg5", 0, 64, 1], ["%arg6", 0, 64, 1], ["%arg7", 0, 1, 1], ["%arg8", 0, 1, 1]], "op_count": {"+": 0, "-": 0, "*": 0, "/": 0, "exp": 0}, "load_data": [["%arg3", "%arg4", "%arg5 + %arg7", "%arg6 + %arg8"], ["%arg3", "%arg4", "%arg5", "%arg6"]], "store_data": []}, "execution_time": 378129}, "linalg.pooling_nchw_max {dilations = dense<1> : tensor<2xi64>, strides = dense<1> : tensor<2xi64>} ins (%input, %filter: tensor<16x16x128x256xf32>, tensor<1x1xf32>) outs (%init: tensor<16x16x128x256xf32>) -> tensor<16x16x128x256xf32>": {"operation": "linalg.pooling_nchw_max {dilations = dense<1> : tensor<2xi64>, strides = dense<1> : tensor<2xi64>} ins (%input, %filter: tensor<16x16x128x256xf32>, tensor<1x1xf32>) outs (%init: tensor<16x16x128x256xf32>) -> tensor<16x16x128x256xf32>", "wrapped_operation": "func.func @func_call(%input: tensor<16x16x128x256xf32>, %filter: tensor<1x1xf32>, %init: tensor<16x16x128x256xf32>) -> tensor<16x16x128x256xf32> {\n  %ret = linalg.pooling_nchw_max {dilations = dense<1> : tensor<2xi64>, strides = dense<1> : tensor<2xi64>} ins (%input, %filter: tensor<16x16x128x256xf32>, tensor<1x1xf32>) outs (%init: tensor<16x16x128x256xf32>) -> tensor<16x16x128x256xf32>\n  return %ret : tensor<16x16x128x256xf32>\n}", "lowered_operation": "#map = affine_map<(d0, d1) -> (d0 + d1)>\nmodule {\n  func.func @func_call(%arg0: tensor<16x16x128x256xf32>, %arg1: tensor<1x1xf32>, %arg2: tensor<16x16x128x256xf32>) -> tensor<16x16x128x256xf32> {\n    %0 = bufferization.to_memref %arg0 : memref<16x16x128x256xf32>\n    %1 = bufferization.to_memref %arg2 : memref<16x16x128x256xf32>\n    %alloc = memref.alloc() {alignment = 64 : i64} : memref<16x16x128x256xf32>\n    memref.copy %1, %alloc : memref<16x16x128x256xf32> to memref<16x16x128x256xf32>\n    affine.for %arg3 = 0 to 16 {\n      affine.for %arg4 = 0 to 16 {\n        affine.for %arg5 = 0 to 128 {\n          affine.for %arg6 = 0 to 256 {\n            affine.for %arg7 = 0 to 1 {\n              affine.for %arg8 = 0 to 1 {\n                %3 = affine.apply #map(%arg5, %arg7)\n                %4 = affine.apply #map(%arg6, %arg8)\n                %5 = affine.load %0[%arg3, %arg4, %3, %4] : memref<16x16x128x256xf32>\n                %6 = affine.load %alloc[%arg3, %arg4, %arg5, %arg6] : memref<16x16x128x256xf32>\n                %7 = arith.maximumf %6, %5 : f32\n                affine.store %7, %alloc[%arg3, %arg4, %arg5, %arg6] : memref<16x16x128x256xf32>\n              }\n            }\n          }\n        }\n      }\n    }\n    %2 = bufferization.to_tensor %alloc : memref<16x16x128x256xf32>\n    return %2 : tensor<16x16x128x256xf32>\n  }\n}\n\n", "transform_wrapped_operation": "module attributes {torch.debug_module_name = \"Net\"} {\nfunc.func private @nanoTime() -> i64 attributes { llvm.emit_c_interface }\nfunc.func private @printFlops(f64)\nfunc.func private @printI64(i64)\nfunc.func private @printNewline()\nfunc.func private @printMemrefF32(tensor<*xf32>)\n\n\nfunc.func @matmul() -> tensor<16x16x128x256xf32>{\n\n%val = arith.constant 2.00000e+00 : f32\n%zero = arith.constant 0.00000e+00 : f32\n\n%tmp_input = bufferization.alloc_tensor() : tensor<16x16x128x256xf32>\n%input = linalg.fill ins(%val : f32) outs(%tmp_input : tensor<16x16x128x256xf32>) -> tensor<16x16x128x256xf32>\n%tmp_filter = bufferization.alloc_tensor() : tensor<1x1xf32>\n%filter = linalg.fill ins(%val : f32) outs(%tmp_filter : tensor<1x1xf32>) -> tensor<1x1xf32>\n%tmp_init = bufferization.alloc_tensor() : tensor<16x16x128x256xf32>\n%init = linalg.fill ins(%val : f32) outs(%tmp_init : tensor<16x16x128x256xf32>) -> tensor<16x16x128x256xf32>\n\n%t0 = func.call @nanoTime() : () -> (i64)\n\n%return_arg = linalg.pooling_nchw_max {dilations = dense<1> : tensor<2xi64>, strides = dense<1> : tensor<2xi64>} ins (%input, %filter: tensor<16x16x128x256xf32>, tensor<1x1xf32>) outs (%init: tensor<16x16x128x256xf32>) -> tensor<16x16x128x256xf32>\n%t = func.call @nanoTime() : () -> (i64)\n%delta = arith.subi %t, %t0 : i64\n%fp = arith.uitofp %delta : i64 to f64\n// func.call @printFlops(%fp) : (f64) -> ()\nfunc.call @printI64(%delta) : (i64) -> ()\nfunc.call @printNewline() : () -> ()\n\nreturn %return_arg : tensor<16x16x128x256xf32> \n}\n\nfunc.func @main(){\n    %c1 = arith.constant 1: index\n    %c0 = arith.constant 0 : index\n    %n = arith.constant 2: index\n    scf.for %i = %c0 to %n step %c1 {\n    %outputmain = func.call @matmul() : () -> tensor<16x16x128x256xf32>\n    }\n    return\n}\n}\n", "loops_data": {"nested_loops": [["%arg3", 0, 16, 1], ["%arg4", 0, 16, 1], ["%arg5", 0, 128, 1], ["%arg6", 0, 256, 1], ["%arg7", 0, 1, 1], ["%arg8", 0, 1, 1]], "op_count": {"+": 0, "-": 0, "*": 0, "/": 0, "exp": 0}, "load_data": [["%arg3", "%arg4", "%arg5 + %arg7", "%arg6 + %arg8"], ["%arg3", "%arg4", "%arg5", "%arg6"]], "store_data": []}, "execution_time": 12271711}, "linalg.pooling_nchw_max {dilations = dense<1> : tensor<2xi64>, strides = dense<1> : tensor<2xi64>} ins (%input, %filter: tensor<64x32x32x32xf32>, tensor<5x5xf32>) outs (%init: tensor<64x32x28x28xf32>) -> tensor<64x32x28x28xf32>": {"operation": "linalg.pooling_nchw_max {dilations = dense<1> : tensor<2xi64>, strides = dense<1> : tensor<2xi64>} ins (%input, %filter: tensor<64x32x32x32xf32>, tensor<5x5xf32>) outs (%init: tensor<64x32x28x28xf32>) -> tensor<64x32x28x28xf32>", "wrapped_operation": "func.func @func_call(%input: tensor<64x32x32x32xf32>, %filter: tensor<5x5xf32>, %init: tensor<64x32x28x28xf32>) -> tensor<64x32x28x28xf32> {\n  %ret = linalg.pooling_nchw_max {dilations = dense<1> : tensor<2xi64>, strides = dense<1> : tensor<2xi64>} ins (%input, %filter: tensor<64x32x32x32xf32>, tensor<5x5xf32>) outs (%init: tensor<64x32x28x28xf32>) -> tensor<64x32x28x28xf32>\n  return %ret : tensor<64x32x28x28xf32>\n}", "lowered_operation": "#map = affine_map<(d0, d1) -> (d0 + d1)>\nmodule {\n  func.func @func_call(%arg0: tensor<64x32x32x32xf32>, %arg1: tensor<5x5xf32>, %arg2: tensor<64x32x28x28xf32>) -> tensor<64x32x28x28xf32> {\n    %0 = bufferization.to_memref %arg0 : memref<64x32x32x32xf32>\n    %1 = bufferization.to_memref %arg2 : memref<64x32x28x28xf32>\n    %alloc = memref.alloc() {alignment = 64 : i64} : memref<64x32x28x28xf32>\n    memref.copy %1, %alloc : memref<64x32x28x28xf32> to memref<64x32x28x28xf32>\n    affine.for %arg3 = 0 to 64 {\n      affine.for %arg4 = 0 to 32 {\n        affine.for %arg5 = 0 to 28 {\n          affine.for %arg6 = 0 to 28 {\n            affine.for %arg7 = 0 to 5 {\n              affine.for %arg8 = 0 to 5 {\n                %3 = affine.apply #map(%arg5, %arg7)\n                %4 = affine.apply #map(%arg6, %arg8)\n                %5 = affine.load %0[%arg3, %arg4, %3, %4] : memref<64x32x32x32xf32>\n                %6 = affine.load %alloc[%arg3, %arg4, %arg5, %arg6] : memref<64x32x28x28xf32>\n                %7 = arith.maximumf %6, %5 : f32\n                affine.store %7, %alloc[%arg3, %arg4, %arg5, %arg6] : memref<64x32x28x28xf32>\n              }\n            }\n          }\n        }\n      }\n    }\n    %2 = bufferization.to_tensor %alloc : memref<64x32x28x28xf32>\n    return %2 : tensor<64x32x28x28xf32>\n  }\n}\n\n", "transform_wrapped_operation": "module attributes {torch.debug_module_name = \"Net\"} {\nfunc.func private @nanoTime() -> i64 attributes { llvm.emit_c_interface }\nfunc.func private @printFlops(f64)\nfunc.func private @printI64(i64)\nfunc.func private @printNewline()\nfunc.func private @printMemrefF32(tensor<*xf32>)\n\n\nfunc.func @matmul() -> tensor<64x32x28x28xf32>{\n\n%val = arith.constant 2.00000e+00 : f32\n%zero = arith.constant 0.00000e+00 : f32\n\n%tmp_input = bufferization.alloc_tensor() : tensor<64x32x32x32xf32>\n%input = linalg.fill ins(%val : f32) outs(%tmp_input : tensor<64x32x32x32xf32>) -> tensor<64x32x32x32xf32>\n%tmp_filter = bufferization.alloc_tensor() : tensor<5x5xf32>\n%filter = linalg.fill ins(%val : f32) outs(%tmp_filter : tensor<5x5xf32>) -> tensor<5x5xf32>\n%tmp_init = bufferization.alloc_tensor() : tensor<64x32x28x28xf32>\n%init = linalg.fill ins(%val : f32) outs(%tmp_init : tensor<64x32x28x28xf32>) -> tensor<64x32x28x28xf32>\n\n%t0 = func.call @nanoTime() : () -> (i64)\n\n%return_arg = linalg.pooling_nchw_max {dilations = dense<1> : tensor<2xi64>, strides = dense<1> : tensor<2xi64>} ins (%input, %filter: tensor<64x32x32x32xf32>, tensor<5x5xf32>) outs (%init: tensor<64x32x28x28xf32>) -> tensor<64x32x28x28xf32>\n%t = func.call @nanoTime() : () -> (i64)\n%delta = arith.subi %t, %t0 : i64\n%fp = arith.uitofp %delta : i64 to f64\n// func.call @printFlops(%fp) : (f64) -> ()\nfunc.call @printI64(%delta) : (i64) -> ()\nfunc.call @printNewline() : () -> ()\n\nreturn %return_arg : tensor<64x32x28x28xf32> \n}\n\nfunc.func @main(){\n    %c1 = arith.constant 1: index\n    %c0 = arith.constant 0 : index\n    %n = arith.constant 2: index\n    scf.for %i = %c0 to %n step %c1 {\n    %outputmain = func.call @matmul() : () -> tensor<64x32x28x28xf32>\n    }\n    return\n}\n}\n", "loops_data": {"nested_loops": [["%arg3", 0, 64, 1], ["%arg4", 0, 32, 1], ["%arg5", 0, 28, 1], ["%arg6", 0, 28, 1], ["%arg7", 0, 5, 1], ["%arg8", 0, 5, 1]], "op_count": {"+": 0, "-": 0, "*": 0, "/": 0, "exp": 0}, "load_data": [["%arg3", "%arg4", "%arg5 + %arg7", "%arg6 + %arg8"], ["%arg3", "%arg4", "%arg5", "%arg6"]], "store_data": []}, "execution_time": 133296016}, "linalg.pooling_nchw_max {dilations = dense<1> : tensor<2xi64>, strides = dense<1> : tensor<2xi64>} ins (%input, %filter: tensor<64x16x64x64xf32>, tensor<3x3xf32>) outs (%init: tensor<64x16x62x62xf32>) -> tensor<64x16x62x62xf32>": {"operation": "linalg.pooling_nchw_max {dilations = dense<1> : tensor<2xi64>, strides = dense<1> : tensor<2xi64>} ins (%input, %filter: tensor<64x16x64x64xf32>, tensor<3x3xf32>) outs (%init: tensor<64x16x62x62xf32>) -> tensor<64x16x62x62xf32>", "wrapped_operation": "func.func @func_call(%input: tensor<64x16x64x64xf32>, %filter: tensor<3x3xf32>, %init: tensor<64x16x62x62xf32>) -> tensor<64x16x62x62xf32> {\n  %ret = linalg.pooling_nchw_max {dilations = dense<1> : tensor<2xi64>, strides = dense<1> : tensor<2xi64>} ins (%input, %filter: tensor<64x16x64x64xf32>, tensor<3x3xf32>) outs (%init: tensor<64x16x62x62xf32>) -> tensor<64x16x62x62xf32>\n  return %ret : tensor<64x16x62x62xf32>\n}", "lowered_operation": "#map = affine_map<(d0, d1) -> (d0 + d1)>\nmodule {\n  func.func @func_call(%arg0: tensor<64x16x64x64xf32>, %arg1: tensor<3x3xf32>, %arg2: tensor<64x16x62x62xf32>) -> tensor<64x16x62x62xf32> {\n    %0 = bufferization.to_memref %arg0 : memref<64x16x64x64xf32>\n    %1 = bufferization.to_memref %arg2 : memref<64x16x62x62xf32>\n    %alloc = memref.alloc() {alignment = 64 : i64} : memref<64x16x62x62xf32>\n    memref.copy %1, %alloc : memref<64x16x62x62xf32> to memref<64x16x62x62xf32>\n    affine.for %arg3 = 0 to 64 {\n      affine.for %arg4 = 0 to 16 {\n        affine.for %arg5 = 0 to 62 {\n          affine.for %arg6 = 0 to 62 {\n            affine.for %arg7 = 0 to 3 {\n              affine.for %arg8 = 0 to 3 {\n                %3 = affine.apply #map(%arg5, %arg7)\n                %4 = affine.apply #map(%arg6, %arg8)\n                %5 = affine.load %0[%arg3, %arg4, %3, %4] : memref<64x16x64x64xf32>\n                %6 = affine.load %alloc[%arg3, %arg4, %arg5, %arg6] : memref<64x16x62x62xf32>\n                %7 = arith.maximumf %6, %5 : f32\n                affine.store %7, %alloc[%arg3, %arg4, %arg5, %arg6] : memref<64x16x62x62xf32>\n              }\n            }\n          }\n        }\n      }\n    }\n    %2 = bufferization.to_tensor %alloc : memref<64x16x62x62xf32>\n    return %2 : tensor<64x16x62x62xf32>\n  }\n}\n\n", "transform_wrapped_operation": "module attributes {torch.debug_module_name = \"Net\"} {\nfunc.func private @nanoTime() -> i64 attributes { llvm.emit_c_interface }\nfunc.func private @printFlops(f64)\nfunc.func private @printI64(i64)\nfunc.func private @printNewline()\nfunc.func private @printMemrefF32(tensor<*xf32>)\n\n\nfunc.func @matmul() -> tensor<64x16x62x62xf32>{\n\n%val = arith.constant 2.00000e+00 : f32\n%zero = arith.constant 0.00000e+00 : f32\n\n%tmp_input = bufferization.alloc_tensor() : tensor<64x16x64x64xf32>\n%input = linalg.fill ins(%val : f32) outs(%tmp_input : tensor<64x16x64x64xf32>) -> tensor<64x16x64x64xf32>\n%tmp_filter = bufferization.alloc_tensor() : tensor<3x3xf32>\n%filter = linalg.fill ins(%val : f32) outs(%tmp_filter : tensor<3x3xf32>) -> tensor<3x3xf32>\n%tmp_init = bufferization.alloc_tensor() : tensor<64x16x62x62xf32>\n%init = linalg.fill ins(%val : f32) outs(%tmp_init : tensor<64x16x62x62xf32>) -> tensor<64x16x62x62xf32>\n\n%t0 = func.call @nanoTime() : () -> (i64)\n\n%return_arg = linalg.pooling_nchw_max {dilations = dense<1> : tensor<2xi64>, strides = dense<1> : tensor<2xi64>} ins (%input, %filter: tensor<64x16x64x64xf32>, tensor<3x3xf32>) outs (%init: tensor<64x16x62x62xf32>) -> tensor<64x16x62x62xf32>\n%t = func.call @nanoTime() : () -> (i64)\n%delta = arith.subi %t, %t0 : i64\n%fp = arith.uitofp %delta : i64 to f64\n// func.call @printFlops(%fp) : (f64) -> ()\nfunc.call @printI64(%delta) : (i64) -> ()\nfunc.call @printNewline() : () -> ()\n\nreturn %return_arg : tensor<64x16x62x62xf32> \n}\n\nfunc.func @main(){\n    %c1 = arith.constant 1: index\n    %c0 = arith.constant 0 : index\n    %n = arith.constant 2: index\n    scf.for %i = %c0 to %n step %c1 {\n    %outputmain = func.call @matmul() : () -> tensor<64x16x62x62xf32>\n    }\n    return\n}\n}\n", "loops_data": {"nested_loops": [["%arg3", 0, 64, 1], ["%arg4", 0, 16, 1], ["%arg5", 0, 62, 1], ["%arg6", 0, 62, 1], ["%arg7", 0, 3, 1], ["%arg8", 0, 3, 1]], "op_count": {"+": 0, "-": 0, "*": 0, "/": 0, "exp": 0}, "load_data": [["%arg3", "%arg4", "%arg5 + %arg7", "%arg6 + %arg8"], ["%arg3", "%arg4", "%arg5", "%arg6"]], "store_data": []}, "execution_time": 84228186}, "linalg.pooling_nchw_max {dilations = dense<1> : tensor<2xi64>, strides = dense<2> : tensor<2xi64>} ins (%input, %filter: tensor<8x256x512x64xf32>, tensor<7x7xf32>) outs (%init: tensor<8x256x253x29xf32>) -> tensor<8x256x253x29xf32>": {"operation": "linalg.pooling_nchw_max {dilations = dense<1> : tensor<2xi64>, strides = dense<2> : tensor<2xi64>} ins (%input, %filter: tensor<8x256x512x64xf32>, tensor<7x7xf32>) outs (%init: tensor<8x256x253x29xf32>) -> tensor<8x256x253x29xf32>", "wrapped_operation": "func.func @func_call(%input: tensor<8x256x512x64xf32>, %filter: tensor<7x7xf32>, %init: tensor<8x256x253x29xf32>) -> tensor<8x256x253x29xf32> {\n  %ret = linalg.pooling_nchw_max {dilations = dense<1> : tensor<2xi64>, strides = dense<2> : tensor<2xi64>} ins (%input, %filter: tensor<8x256x512x64xf32>, tensor<7x7xf32>) outs (%init: tensor<8x256x253x29xf32>) -> tensor<8x256x253x29xf32>\n  return %ret : tensor<8x256x253x29xf32>\n}", "lowered_operation": "#map = affine_map<(d0, d1) -> (d0 * 2 + d1)>\nmodule {\n  func.func @func_call(%arg0: tensor<8x256x512x64xf32>, %arg1: tensor<7x7xf32>, %arg2: tensor<8x256x253x29xf32>) -> tensor<8x256x253x29xf32> {\n    %0 = bufferization.to_memref %arg0 : memref<8x256x512x64xf32>\n    %1 = bufferization.to_memref %arg2 : memref<8x256x253x29xf32>\n    %alloc = memref.alloc() {alignment = 64 : i64} : memref<8x256x253x29xf32>\n    memref.copy %1, %alloc : memref<8x256x253x29xf32> to memref<8x256x253x29xf32>\n    affine.for %arg3 = 0 to 8 {\n      affine.for %arg4 = 0 to 256 {\n        affine.for %arg5 = 0 to 253 {\n          affine.for %arg6 = 0 to 29 {\n            affine.for %arg7 = 0 to 7 {\n              affine.for %arg8 = 0 to 7 {\n                %3 = affine.apply #map(%arg5, %arg7)\n                %4 = affine.apply #map(%arg6, %arg8)\n                %5 = affine.load %0[%arg3, %arg4, %3, %4] : memref<8x256x512x64xf32>\n                %6 = affine.load %alloc[%arg3, %arg4, %arg5, %arg6] : memref<8x256x253x29xf32>\n                %7 = arith.maximumf %6, %5 : f32\n                affine.store %7, %alloc[%arg3, %arg4, %arg5, %arg6] : memref<8x256x253x29xf32>\n              }\n            }\n          }\n        }\n      }\n    }\n    %2 = bufferization.to_tensor %alloc : memref<8x256x253x29xf32>\n    return %2 : tensor<8x256x253x29xf32>\n  }\n}\n\n", "transform_wrapped_operation": "module attributes {torch.debug_module_name = \"Net\"} {\nfunc.func private @nanoTime() -> i64 attributes { llvm.emit_c_interface }\nfunc.func private @printFlops(f64)\nfunc.func private @printI64(i64)\nfunc.func private @printNewline()\nfunc.func private @printMemrefF32(tensor<*xf32>)\n\n\nfunc.func @matmul() -> tensor<8x256x253x29xf32>{\n\n%val = arith.constant 2.00000e+00 : f32\n%zero = arith.constant 0.00000e+00 : f32\n\n%tmp_input = bufferization.alloc_tensor() : tensor<8x256x512x64xf32>\n%input = linalg.fill ins(%val : f32) outs(%tmp_input : tensor<8x256x512x64xf32>) -> tensor<8x256x512x64xf32>\n%tmp_filter = bufferization.alloc_tensor() : tensor<7x7xf32>\n%filter = linalg.fill ins(%val : f32) outs(%tmp_filter : tensor<7x7xf32>) -> tensor<7x7xf32>\n%tmp_init = bufferization.alloc_tensor() : tensor<8x256x253x29xf32>\n%init = linalg.fill ins(%val : f32) outs(%tmp_init : tensor<8x256x253x29xf32>) -> tensor<8x256x253x29xf32>\n\n%t0 = func.call @nanoTime() : () -> (i64)\n\n%return_arg = linalg.pooling_nchw_max {dilations = dense<1> : tensor<2xi64>, strides = dense<2> : tensor<2xi64>} ins (%input, %filter: tensor<8x256x512x64xf32>, tensor<7x7xf32>) outs (%init: tensor<8x256x253x29xf32>) -> tensor<8x256x253x29xf32>\n%t = func.call @nanoTime() : () -> (i64)\n%delta = arith.subi %t, %t0 : i64\n%fp = arith.uitofp %delta : i64 to f64\n// func.call @printFlops(%fp) : (f64) -> ()\nfunc.call @printI64(%delta) : (i64) -> ()\nfunc.call @printNewline() : () -> ()\n\nreturn %return_arg : tensor<8x256x253x29xf32> \n}\n\nfunc.func @main(){\n    %c1 = arith.constant 1: index\n    %c0 = arith.constant 0 : index\n    %n = arith.constant 2: index\n    scf.for %i = %c0 to %n step %c1 {\n    %outputmain = func.call @matmul() : () -> tensor<8x256x253x29xf32>\n    }\n    return\n}\n}\n", "loops_data": {"nested_loops": [["%arg3", 0, 8, 1], ["%arg4", 0, 256, 1], ["%arg5", 0, 253, 1], ["%arg6", 0, 29, 1], ["%arg7", 0, 7, 1], ["%arg8", 0, 7, 1]], "op_count": {"+": 0, "-": 0, "*": 0, "/": 0, "exp": 0}, "load_data": [["%arg3", "%arg4", "%arg5 * 2 + %arg7", "%arg6 * 2 + %arg8"], ["%arg3", "%arg4", "%arg5", "%arg6"]], "store_data": []}, "execution_time": 2992464175}, "linalg.pooling_nchw_max {dilations = dense<1> : tensor<2xi64>, strides = dense<1> : tensor<2xi64>} ins (%input, %filter: tensor<4x128x128x128xf32>, tensor<1x1xf32>) outs (%init: tensor<4x128x128x128xf32>) -> tensor<4x128x128x128xf32>": {"operation": "linalg.pooling_nchw_max {dilations = dense<1> : tensor<2xi64>, strides = dense<1> : tensor<2xi64>} ins (%input, %filter: tensor<4x128x128x128xf32>, tensor<1x1xf32>) outs (%init: tensor<4x128x128x128xf32>) -> tensor<4x128x128x128xf32>", "wrapped_operation": "func.func @func_call(%input: tensor<4x128x128x128xf32>, %filter: tensor<1x1xf32>, %init: tensor<4x128x128x128xf32>) -> tensor<4x128x128x128xf32> {\n  %ret = linalg.pooling_nchw_max {dilations = dense<1> : tensor<2xi64>, strides = dense<1> : tensor<2xi64>} ins (%input, %filter: tensor<4x128x128x128xf32>, tensor<1x1xf32>) outs (%init: tensor<4x128x128x128xf32>) -> tensor<4x128x128x128xf32>\n  return %ret : tensor<4x128x128x128xf32>\n}", "lowered_operation": "#map = affine_map<(d0, d1) -> (d0 + d1)>\nmodule {\n  func.func @func_call(%arg0: tensor<4x128x128x128xf32>, %arg1: tensor<1x1xf32>, %arg2: tensor<4x128x128x128xf32>) -> tensor<4x128x128x128xf32> {\n    %0 = bufferization.to_memref %arg0 : memref<4x128x128x128xf32>\n    %1 = bufferization.to_memref %arg2 : memref<4x128x128x128xf32>\n    %alloc = memref.alloc() {alignment = 64 : i64} : memref<4x128x128x128xf32>\n    memref.copy %1, %alloc : memref<4x128x128x128xf32> to memref<4x128x128x128xf32>\n    affine.for %arg3 = 0 to 4 {\n      affine.for %arg4 = 0 to 128 {\n        affine.for %arg5 = 0 to 128 {\n          affine.for %arg6 = 0 to 128 {\n            affine.for %arg7 = 0 to 1 {\n              affine.for %arg8 = 0 to 1 {\n                %3 = affine.apply #map(%arg5, %arg7)\n                %4 = affine.apply #map(%arg6, %arg8)\n                %5 = affine.load %0[%arg3, %arg4, %3, %4] : memref<4x128x128x128xf32>\n                %6 = affine.load %alloc[%arg3, %arg4, %arg5, %arg6] : memref<4x128x128x128xf32>\n                %7 = arith.maximumf %6, %5 : f32\n                affine.store %7, %alloc[%arg3, %arg4, %arg5, %arg6] : memref<4x128x128x128xf32>\n              }\n            }\n          }\n        }\n      }\n    }\n    %2 = bufferization.to_tensor %alloc : memref<4x128x128x128xf32>\n    return %2 : tensor<4x128x128x128xf32>\n  }\n}\n\n", "transform_wrapped_operation": "module attributes {torch.debug_module_name = \"Net\"} {\nfunc.func private @nanoTime() -> i64 attributes { llvm.emit_c_interface }\nfunc.func private @printFlops(f64)\nfunc.func private @printI64(i64)\nfunc.func private @printNewline()\nfunc.func private @printMemrefF32(tensor<*xf32>)\n\n\nfunc.func @matmul() -> tensor<4x128x128x128xf32>{\n\n%val = arith.constant 2.00000e+00 : f32\n%zero = arith.constant 0.00000e+00 : f32\n\n%tmp_input = bufferization.alloc_tensor() : tensor<4x128x128x128xf32>\n%input = linalg.fill ins(%val : f32) outs(%tmp_input : tensor<4x128x128x128xf32>) -> tensor<4x128x128x128xf32>\n%tmp_filter = bufferization.alloc_tensor() : tensor<1x1xf32>\n%filter = linalg.fill ins(%val : f32) outs(%tmp_filter : tensor<1x1xf32>) -> tensor<1x1xf32>\n%tmp_init = bufferization.alloc_tensor() : tensor<4x128x128x128xf32>\n%init = linalg.fill ins(%val : f32) outs(%tmp_init : tensor<4x128x128x128xf32>) -> tensor<4x128x128x128xf32>\n\n%t0 = func.call @nanoTime() : () -> (i64)\n\n%return_arg = linalg.pooling_nchw_max {dilations = dense<1> : tensor<2xi64>, strides = dense<1> : tensor<2xi64>} ins (%input, %filter: tensor<4x128x128x128xf32>, tensor<1x1xf32>) outs (%init: tensor<4x128x128x128xf32>) -> tensor<4x128x128x128xf32>\n%t = func.call @nanoTime() : () -> (i64)\n%delta = arith.subi %t, %t0 : i64\n%fp = arith.uitofp %delta : i64 to f64\n// func.call @printFlops(%fp) : (f64) -> ()\nfunc.call @printI64(%delta) : (i64) -> ()\nfunc.call @printNewline() : () -> ()\n\nreturn %return_arg : tensor<4x128x128x128xf32> \n}\n\nfunc.func @main(){\n    %c1 = arith.constant 1: index\n    %c0 = arith.constant 0 : index\n    %n = arith.constant 2: index\n    scf.for %i = %c0 to %n step %c1 {\n    %outputmain = func.call @matmul() : () -> tensor<4x128x128x128xf32>\n    }\n    return\n}\n}\n", "loops_data": {"nested_loops": [["%arg3", 0, 4, 1], ["%arg4", 0, 128, 1], ["%arg5", 0, 128, 1], ["%arg6", 0, 128, 1], ["%arg7", 0, 1, 1], ["%arg8", 0, 1, 1]], "op_count": {"+": 0, "-": 0, "*": 0, "/": 0, "exp": 0}, "load_data": [["%arg3", "%arg4", "%arg5 + %arg7", "%arg6 + %arg8"], ["%arg3", "%arg4", "%arg5", "%arg6"]], "store_data": []}, "execution_time": 12556089}, "linalg.pooling_nchw_max {dilations = dense<1> : tensor<2xi64>, strides = dense<2> : tensor<2xi64>} ins (%input, %filter: tensor<16x1024x128x64xf32>, tensor<7x7xf32>) outs (%init: tensor<16x1024x61x29xf32>) -> tensor<16x1024x61x29xf32>": {"operation": "linalg.pooling_nchw_max {dilations = dense<1> : tensor<2xi64>, strides = dense<2> : tensor<2xi64>} ins (%input, %filter: tensor<16x1024x128x64xf32>, tensor<7x7xf32>) outs (%init: tensor<16x1024x61x29xf32>) -> tensor<16x1024x61x29xf32>", "wrapped_operation": "func.func @func_call(%input: tensor<16x1024x128x64xf32>, %filter: tensor<7x7xf32>, %init: tensor<16x1024x61x29xf32>) -> tensor<16x1024x61x29xf32> {\n  %ret = linalg.pooling_nchw_max {dilations = dense<1> : tensor<2xi64>, strides = dense<2> : tensor<2xi64>} ins (%input, %filter: tensor<16x1024x128x64xf32>, tensor<7x7xf32>) outs (%init: tensor<16x1024x61x29xf32>) -> tensor<16x1024x61x29xf32>\n  return %ret : tensor<16x1024x61x29xf32>\n}", "lowered_operation": "#map = affine_map<(d0, d1) -> (d0 * 2 + d1)>\nmodule {\n  func.func @func_call(%arg0: tensor<16x1024x128x64xf32>, %arg1: tensor<7x7xf32>, %arg2: tensor<16x1024x61x29xf32>) -> tensor<16x1024x61x29xf32> {\n    %0 = bufferization.to_memref %arg0 : memref<16x1024x128x64xf32>\n    %1 = bufferization.to_memref %arg2 : memref<16x1024x61x29xf32>\n    %alloc = memref.alloc() {alignment = 64 : i64} : memref<16x1024x61x29xf32>\n    memref.copy %1, %alloc : memref<16x1024x61x29xf32> to memref<16x1024x61x29xf32>\n    affine.for %arg3 = 0 to 16 {\n      affine.for %arg4 = 0 to 1024 {\n        affine.for %arg5 = 0 to 61 {\n          affine.for %arg6 = 0 to 29 {\n            affine.for %arg7 = 0 to 7 {\n              affine.for %arg8 = 0 to 7 {\n                %3 = affine.apply #map(%arg5, %arg7)\n                %4 = affine.apply #map(%arg6, %arg8)\n                %5 = affine.load %0[%arg3, %arg4, %3, %4] : memref<16x1024x128x64xf32>\n                %6 = affine.load %alloc[%arg3, %arg4, %arg5, %arg6] : memref<16x1024x61x29xf32>\n                %7 = arith.maximumf %6, %5 : f32\n                affine.store %7, %alloc[%arg3, %arg4, %arg5, %arg6] : memref<16x1024x61x29xf32>\n              }\n            }\n          }\n        }\n      }\n    }\n    %2 = bufferization.to_tensor %alloc : memref<16x1024x61x29xf32>\n    return %2 : tensor<16x1024x61x29xf32>\n  }\n}\n\n", "transform_wrapped_operation": "module attributes {torch.debug_module_name = \"Net\"} {\nfunc.func private @nanoTime() -> i64 attributes { llvm.emit_c_interface }\nfunc.func private @printFlops(f64)\nfunc.func private @printI64(i64)\nfunc.func private @printNewline()\nfunc.func private @printMemrefF32(tensor<*xf32>)\n\n\nfunc.func @matmul() -> tensor<16x1024x61x29xf32>{\n\n%val = arith.constant 2.00000e+00 : f32\n%zero = arith.constant 0.00000e+00 : f32\n\n%tmp_input = bufferization.alloc_tensor() : tensor<16x1024x128x64xf32>\n%input = linalg.fill ins(%val : f32) outs(%tmp_input : tensor<16x1024x128x64xf32>) -> tensor<16x1024x128x64xf32>\n%tmp_filter = bufferization.alloc_tensor() : tensor<7x7xf32>\n%filter = linalg.fill ins(%val : f32) outs(%tmp_filter : tensor<7x7xf32>) -> tensor<7x7xf32>\n%tmp_init = bufferization.alloc_tensor() : tensor<16x1024x61x29xf32>\n%init = linalg.fill ins(%val : f32) outs(%tmp_init : tensor<16x1024x61x29xf32>) -> tensor<16x1024x61x29xf32>\n\n%t0 = func.call @nanoTime() : () -> (i64)\n\n%return_arg = linalg.pooling_nchw_max {dilations = dense<1> : tensor<2xi64>, strides = dense<2> : tensor<2xi64>} ins (%input, %filter: tensor<16x1024x128x64xf32>, tensor<7x7xf32>) outs (%init: tensor<16x1024x61x29xf32>) -> tensor<16x1024x61x29xf32>\n%t = func.call @nanoTime() : () -> (i64)\n%delta = arith.subi %t, %t0 : i64\n%fp = arith.uitofp %delta : i64 to f64\n// func.call @printFlops(%fp) : (f64) -> ()\nfunc.call @printI64(%delta) : (i64) -> ()\nfunc.call @printNewline() : () -> ()\n\nreturn %return_arg : tensor<16x1024x61x29xf32> \n}\n\nfunc.func @main(){\n    %c1 = arith.constant 1: index\n    %c0 = arith.constant 0 : index\n    %n = arith.constant 2: index\n    scf.for %i = %c0 to %n step %c1 {\n    %outputmain = func.call @matmul() : () -> tensor<16x1024x61x29xf32>\n    }\n    return\n}\n}\n", "loops_data": {"nested_loops": [["%arg3", 0, 16, 1], ["%arg4", 0, 1024, 1], ["%arg5", 0, 61, 1], ["%arg6", 0, 29, 1], ["%arg7", 0, 7, 1], ["%arg8", 0, 7, 1]], "op_count": {"+": 0, "-": 0, "*": 0, "/": 0, "exp": 0}, "load_data": [["%arg3", "%arg4", "%arg5 * 2 + %arg7", "%arg6 * 2 + %arg8"], ["%arg3", "%arg4", "%arg5", "%arg6"]], "store_data": []}, "execution_time": 5773040422}, "linalg.pooling_nchw_max {dilations = dense<1> : tensor<2xi64>, strides = dense<2> : tensor<2xi64>} ins (%input, %filter: tensor<8x256x256x128xf32>, tensor<7x7xf32>) outs (%init: tensor<8x256x125x61xf32>) -> tensor<8x256x125x61xf32>": {"operation": "linalg.pooling_nchw_max {dilations = dense<1> : tensor<2xi64>, strides = dense<2> : tensor<2xi64>} ins (%input, %filter: tensor<8x256x256x128xf32>, tensor<7x7xf32>) outs (%init: tensor<8x256x125x61xf32>) -> tensor<8x256x125x61xf32>", "wrapped_operation": "func.func @func_call(%input: tensor<8x256x256x128xf32>, %filter: tensor<7x7xf32>, %init: tensor<8x256x125x61xf32>) -> tensor<8x256x125x61xf32> {\n  %ret = linalg.pooling_nchw_max {dilations = dense<1> : tensor<2xi64>, strides = dense<2> : tensor<2xi64>} ins (%input, %filter: tensor<8x256x256x128xf32>, tensor<7x7xf32>) outs (%init: tensor<8x256x125x61xf32>) -> tensor<8x256x125x61xf32>\n  return %ret : tensor<8x256x125x61xf32>\n}", "lowered_operation": "#map = affine_map<(d0, d1) -> (d0 * 2 + d1)>\nmodule {\n  func.func @func_call(%arg0: tensor<8x256x256x128xf32>, %arg1: tensor<7x7xf32>, %arg2: tensor<8x256x125x61xf32>) -> tensor<8x256x125x61xf32> {\n    %0 = bufferization.to_memref %arg0 : memref<8x256x256x128xf32>\n    %1 = bufferization.to_memref %arg2 : memref<8x256x125x61xf32>\n    %alloc = memref.alloc() {alignment = 64 : i64} : memref<8x256x125x61xf32>\n    memref.copy %1, %alloc : memref<8x256x125x61xf32> to memref<8x256x125x61xf32>\n    affine.for %arg3 = 0 to 8 {\n      affine.for %arg4 = 0 to 256 {\n        affine.for %arg5 = 0 to 125 {\n          affine.for %arg6 = 0 to 61 {\n            affine.for %arg7 = 0 to 7 {\n              affine.for %arg8 = 0 to 7 {\n                %3 = affine.apply #map(%arg5, %arg7)\n                %4 = affine.apply #map(%arg6, %arg8)\n                %5 = affine.load %0[%arg3, %arg4, %3, %4] : memref<8x256x256x128xf32>\n                %6 = affine.load %alloc[%arg3, %arg4, %arg5, %arg6] : memref<8x256x125x61xf32>\n                %7 = arith.maximumf %6, %5 : f32\n                affine.store %7, %alloc[%arg3, %arg4, %arg5, %arg6] : memref<8x256x125x61xf32>\n              }\n            }\n          }\n        }\n      }\n    }\n    %2 = bufferization.to_tensor %alloc : memref<8x256x125x61xf32>\n    return %2 : tensor<8x256x125x61xf32>\n  }\n}\n\n", "transform_wrapped_operation": "module attributes {torch.debug_module_name = \"Net\"} {\nfunc.func private @nanoTime() -> i64 attributes { llvm.emit_c_interface }\nfunc.func private @printFlops(f64)\nfunc.func private @printI64(i64)\nfunc.func private @printNewline()\nfunc.func private @printMemrefF32(tensor<*xf32>)\n\n\nfunc.func @matmul() -> tensor<8x256x125x61xf32>{\n\n%val = arith.constant 2.00000e+00 : f32\n%zero = arith.constant 0.00000e+00 : f32\n\n%tmp_input = bufferization.alloc_tensor() : tensor<8x256x256x128xf32>\n%input = linalg.fill ins(%val : f32) outs(%tmp_input : tensor<8x256x256x128xf32>) -> tensor<8x256x256x128xf32>\n%tmp_filter = bufferization.alloc_tensor() : tensor<7x7xf32>\n%filter = linalg.fill ins(%val : f32) outs(%tmp_filter : tensor<7x7xf32>) -> tensor<7x7xf32>\n%tmp_init = bufferization.alloc_tensor() : tensor<8x256x125x61xf32>\n%init = linalg.fill ins(%val : f32) outs(%tmp_init : tensor<8x256x125x61xf32>) -> tensor<8x256x125x61xf32>\n\n%t0 = func.call @nanoTime() : () -> (i64)\n\n%return_arg = linalg.pooling_nchw_max {dilations = dense<1> : tensor<2xi64>, strides = dense<2> : tensor<2xi64>} ins (%input, %filter: tensor<8x256x256x128xf32>, tensor<7x7xf32>) outs (%init: tensor<8x256x125x61xf32>) -> tensor<8x256x125x61xf32>\n%t = func.call @nanoTime() : () -> (i64)\n%delta = arith.subi %t, %t0 : i64\n%fp = arith.uitofp %delta : i64 to f64\n// func.call @printFlops(%fp) : (f64) -> ()\nfunc.call @printI64(%delta) : (i64) -> ()\nfunc.call @printNewline() : () -> ()\n\nreturn %return_arg : tensor<8x256x125x61xf32> \n}\n\nfunc.func @main(){\n    %c1 = arith.constant 1: index\n    %c0 = arith.constant 0 : index\n    %n = arith.constant 2: index\n    scf.for %i = %c0 to %n step %c1 {\n    %outputmain = func.call @matmul() : () -> tensor<8x256x125x61xf32>\n    }\n    return\n}\n}\n", "loops_data": {"nested_loops": [["%arg3", 0, 8, 1], ["%arg4", 0, 256, 1], ["%arg5", 0, 125, 1], ["%arg6", 0, 61, 1], ["%arg7", 0, 7, 1], ["%arg8", 0, 7, 1]], "op_count": {"+": 0, "-": 0, "*": 0, "/": 0, "exp": 0}, "load_data": [["%arg3", "%arg4", "%arg5 * 2 + %arg7", "%arg6 * 2 + %arg8"], ["%arg3", "%arg4", "%arg5", "%arg6"]], "store_data": []}, "execution_time": 3047373360}, "linalg.pooling_nchw_max {dilations = dense<1> : tensor<2xi64>, strides = dense<2> : tensor<2xi64>} ins (%input, %filter: tensor<16x512x512x256xf32>, tensor<3x3xf32>) outs (%init: tensor<16x512x255x127xf32>) -> tensor<16x512x255x127xf32>": {"operation": "linalg.pooling_nchw_max {dilations = dense<1> : tensor<2xi64>, strides = dense<2> : tensor<2xi64>} ins (%input, %filter: tensor<16x512x512x256xf32>, tensor<3x3xf32>) outs (%init: tensor<16x512x255x127xf32>) -> tensor<16x512x255x127xf32>", "wrapped_operation": "func.func @func_call(%input: tensor<16x512x512x256xf32>, %filter: tensor<3x3xf32>, %init: tensor<16x512x255x127xf32>) -> tensor<16x512x255x127xf32> {\n  %ret = linalg.pooling_nchw_max {dilations = dense<1> : tensor<2xi64>, strides = dense<2> : tensor<2xi64>} ins (%input, %filter: tensor<16x512x512x256xf32>, tensor<3x3xf32>) outs (%init: tensor<16x512x255x127xf32>) -> tensor<16x512x255x127xf32>\n  return %ret : tensor<16x512x255x127xf32>\n}", "lowered_operation": "#map = affine_map<(d0, d1) -> (d0 * 2 + d1)>\nmodule {\n  func.func @func_call(%arg0: tensor<16x512x512x256xf32>, %arg1: tensor<3x3xf32>, %arg2: tensor<16x512x255x127xf32>) -> tensor<16x512x255x127xf32> {\n    %0 = bufferization.to_memref %arg0 : memref<16x512x512x256xf32>\n    %1 = bufferization.to_memref %arg2 : memref<16x512x255x127xf32>\n    %alloc = memref.alloc() {alignment = 64 : i64} : memref<16x512x255x127xf32>\n    memref.copy %1, %alloc : memref<16x512x255x127xf32> to memref<16x512x255x127xf32>\n    affine.for %arg3 = 0 to 16 {\n      affine.for %arg4 = 0 to 512 {\n        affine.for %arg5 = 0 to 255 {\n          affine.for %arg6 = 0 to 127 {\n            affine.for %arg7 = 0 to 3 {\n              affine.for %arg8 = 0 to 3 {\n                %3 = affine.apply #map(%arg5, %arg7)\n                %4 = affine.apply #map(%arg6, %arg8)\n                %5 = affine.load %0[%arg3, %arg4, %3, %4] : memref<16x512x512x256xf32>\n                %6 = affine.load %alloc[%arg3, %arg4, %arg5, %arg6] : memref<16x512x255x127xf32>\n                %7 = arith.maximumf %6, %5 : f32\n                affine.store %7, %alloc[%arg3, %arg4, %arg5, %arg6] : memref<16x512x255x127xf32>\n              }\n            }\n          }\n        }\n      }\n    }\n    %2 = bufferization.to_tensor %alloc : memref<16x512x255x127xf32>\n    return %2 : tensor<16x512x255x127xf32>\n  }\n}\n\n", "transform_wrapped_operation": "module attributes {torch.debug_module_name = \"Net\"} {\nfunc.func private @nanoTime() -> i64 attributes { llvm.emit_c_interface }\nfunc.func private @printFlops(f64)\nfunc.func private @printI64(i64)\nfunc.func private @printNewline()\nfunc.func private @printMemrefF32(tensor<*xf32>)\n\n\nfunc.func @matmul() -> tensor<16x512x255x127xf32>{\n\n%val = arith.constant 2.00000e+00 : f32\n%zero = arith.constant 0.00000e+00 : f32\n\n%tmp_input = bufferization.alloc_tensor() : tensor<16x512x512x256xf32>\n%input = linalg.fill ins(%val : f32) outs(%tmp_input : tensor<16x512x512x256xf32>) -> tensor<16x512x512x256xf32>\n%tmp_filter = bufferization.alloc_tensor() : tensor<3x3xf32>\n%filter = linalg.fill ins(%val : f32) outs(%tmp_filter : tensor<3x3xf32>) -> tensor<3x3xf32>\n%tmp_init = bufferization.alloc_tensor() : tensor<16x512x255x127xf32>\n%init = linalg.fill ins(%val : f32) outs(%tmp_init : tensor<16x512x255x127xf32>) -> tensor<16x512x255x127xf32>\n\n%t0 = func.call @nanoTime() : () -> (i64)\n\n%return_arg = linalg.pooling_nchw_max {dilations = dense<1> : tensor<2xi64>, strides = dense<2> : tensor<2xi64>} ins (%input, %filter: tensor<16x512x512x256xf32>, tensor<3x3xf32>) outs (%init: tensor<16x512x255x127xf32>) -> tensor<16x512x255x127xf32>\n%t = func.call @nanoTime() : () -> (i64)\n%delta = arith.subi %t, %t0 : i64\n%fp = arith.uitofp %delta : i64 to f64\n// func.call @printFlops(%fp) : (f64) -> ()\nfunc.call @printI64(%delta) : (i64) -> ()\nfunc.call @printNewline() : () -> ()\n\nreturn %return_arg : tensor<16x512x255x127xf32> \n}\n\nfunc.func @main(){\n    %c1 = arith.constant 1: index\n    %c0 = arith.constant 0 : index\n    %n = arith.constant 2: index\n    scf.for %i = %c0 to %n step %c1 {\n    %outputmain = func.call @matmul() : () -> tensor<16x512x255x127xf32>\n    }\n    return\n}\n}\n", "loops_data": {"nested_loops": [["%arg3", 0, 16, 1], ["%arg4", 0, 512, 1], ["%arg5", 0, 255, 1], ["%arg6", 0, 127, 1], ["%arg7", 0, 3, 1], ["%arg8", 0, 3, 1]], "op_count": {"+": 0, "-": 0, "*": 0, "/": 0, "exp": 0}, "load_data": [["%arg3", "%arg4", "%arg5 * 2 + %arg7", "%arg6 * 2 + %arg8"], ["%arg3", "%arg4", "%arg5", "%arg6"]], "store_data": []}, "execution_time": 5749336352}, "linalg.pooling_nchw_max {dilations = dense<1> : tensor<2xi64>, strides = dense<1> : tensor<2xi64>} ins (%input, %filter: tensor<4x64x32x32xf32>, tensor<3x3xf32>) outs (%init: tensor<4x64x30x30xf32>) -> tensor<4x64x30x30xf32>": {"operation": "linalg.pooling_nchw_max {dilations = dense<1> : tensor<2xi64>, strides = dense<1> : tensor<2xi64>} ins (%input, %filter: tensor<4x64x32x32xf32>, tensor<3x3xf32>) outs (%init: tensor<4x64x30x30xf32>) -> tensor<4x64x30x30xf32>", "wrapped_operation": "func.func @func_call(%input: tensor<4x64x32x32xf32>, %filter: tensor<3x3xf32>, %init: tensor<4x64x30x30xf32>) -> tensor<4x64x30x30xf32> {\n  %ret = linalg.pooling_nchw_max {dilations = dense<1> : tensor<2xi64>, strides = dense<1> : tensor<2xi64>} ins (%input, %filter: tensor<4x64x32x32xf32>, tensor<3x3xf32>) outs (%init: tensor<4x64x30x30xf32>) -> tensor<4x64x30x30xf32>\n  return %ret : tensor<4x64x30x30xf32>\n}", "lowered_operation": "#map = affine_map<(d0, d1) -> (d0 + d1)>\nmodule {\n  func.func @func_call(%arg0: tensor<4x64x32x32xf32>, %arg1: tensor<3x3xf32>, %arg2: tensor<4x64x30x30xf32>) -> tensor<4x64x30x30xf32> {\n    %0 = bufferization.to_memref %arg0 : memref<4x64x32x32xf32>\n    %1 = bufferization.to_memref %arg2 : memref<4x64x30x30xf32>\n    %alloc = memref.alloc() {alignment = 64 : i64} : memref<4x64x30x30xf32>\n    memref.copy %1, %alloc : memref<4x64x30x30xf32> to memref<4x64x30x30xf32>\n    affine.for %arg3 = 0 to 4 {\n      affine.for %arg4 = 0 to 64 {\n        affine.for %arg5 = 0 to 30 {\n          affine.for %arg6 = 0 to 30 {\n            affine.for %arg7 = 0 to 3 {\n              affine.for %arg8 = 0 to 3 {\n                %3 = affine.apply #map(%arg5, %arg7)\n                %4 = affine.apply #map(%arg6, %arg8)\n                %5 = affine.load %0[%arg3, %arg4, %3, %4] : memref<4x64x32x32xf32>\n                %6 = affine.load %alloc[%arg3, %arg4, %arg5, %arg6] : memref<4x64x30x30xf32>\n                %7 = arith.maximumf %6, %5 : f32\n                affine.store %7, %alloc[%arg3, %arg4, %arg5, %arg6] : memref<4x64x30x30xf32>\n              }\n            }\n          }\n        }\n      }\n    }\n    %2 = bufferization.to_tensor %alloc : memref<4x64x30x30xf32>\n    return %2 : tensor<4x64x30x30xf32>\n  }\n}\n\n", "transform_wrapped_operation": "module attributes {torch.debug_module_name = \"Net\"} {\nfunc.func private @nanoTime() -> i64 attributes { llvm.emit_c_interface }\nfunc.func private @printFlops(f64)\nfunc.func private @printI64(i64)\nfunc.func private @printNewline()\nfunc.func private @printMemrefF32(tensor<*xf32>)\n\n\nfunc.func @matmul() -> tensor<4x64x30x30xf32>{\n\n%val = arith.constant 2.00000e+00 : f32\n%zero = arith.constant 0.00000e+00 : f32\n\n%tmp_input = bufferization.alloc_tensor() : tensor<4x64x32x32xf32>\n%input = linalg.fill ins(%val : f32) outs(%tmp_input : tensor<4x64x32x32xf32>) -> tensor<4x64x32x32xf32>\n%tmp_filter = bufferization.alloc_tensor() : tensor<3x3xf32>\n%filter = linalg.fill ins(%val : f32) outs(%tmp_filter : tensor<3x3xf32>) -> tensor<3x3xf32>\n%tmp_init = bufferization.alloc_tensor() : tensor<4x64x30x30xf32>\n%init = linalg.fill ins(%val : f32) outs(%tmp_init : tensor<4x64x30x30xf32>) -> tensor<4x64x30x30xf32>\n\n%t0 = func.call @nanoTime() : () -> (i64)\n\n%return_arg = linalg.pooling_nchw_max {dilations = dense<1> : tensor<2xi64>, strides = dense<1> : tensor<2xi64>} ins (%input, %filter: tensor<4x64x32x32xf32>, tensor<3x3xf32>) outs (%init: tensor<4x64x30x30xf32>) -> tensor<4x64x30x30xf32>\n%t = func.call @nanoTime() : () -> (i64)\n%delta = arith.subi %t, %t0 : i64\n%fp = arith.uitofp %delta : i64 to f64\n// func.call @printFlops(%fp) : (f64) -> ()\nfunc.call @printI64(%delta) : (i64) -> ()\nfunc.call @printNewline() : () -> ()\n\nreturn %return_arg : tensor<4x64x30x30xf32> \n}\n\nfunc.func @main(){\n    %c1 = arith.constant 1: index\n    %c0 = arith.constant 0 : index\n    %n = arith.constant 2: index\n    scf.for %i = %c0 to %n step %c1 {\n    %outputmain = func.call @matmul() : () -> tensor<4x64x30x30xf32>\n    }\n    return\n}\n}\n", "loops_data": {"nested_loops": [["%arg3", 0, 4, 1], ["%arg4", 0, 64, 1], ["%arg5", 0, 30, 1], ["%arg6", 0, 30, 1], ["%arg7", 0, 3, 1], ["%arg8", 0, 3, 1]], "op_count": {"+": 0, "-": 0, "*": 0, "/": 0, "exp": 0}, "load_data": [["%arg3", "%arg4", "%arg5 + %arg7", "%arg6 + %arg8"], ["%arg3", "%arg4", "%arg5", "%arg6"]], "store_data": []}, "execution_time": 4955585}, "linalg.pooling_nchw_max {dilations = dense<1> : tensor<2xi64>, strides = dense<2> : tensor<2xi64>} ins (%input, %filter: tensor<256x64x32x32xf32>, tensor<1x1xf32>) outs (%init: tensor<256x64x16x16xf32>) -> tensor<256x64x16x16xf32>": {"operation": "linalg.pooling_nchw_max {dilations = dense<1> : tensor<2xi64>, strides = dense<2> : tensor<2xi64>} ins (%input, %filter: tensor<256x64x32x32xf32>, tensor<1x1xf32>) outs (%init: tensor<256x64x16x16xf32>) -> tensor<256x64x16x16xf32>", "wrapped_operation": "func.func @func_call(%input: tensor<256x64x32x32xf32>, %filter: tensor<1x1xf32>, %init: tensor<256x64x16x16xf32>) -> tensor<256x64x16x16xf32> {\n  %ret = linalg.pooling_nchw_max {dilations = dense<1> : tensor<2xi64>, strides = dense<2> : tensor<2xi64>} ins (%input, %filter: tensor<256x64x32x32xf32>, tensor<1x1xf32>) outs (%init: tensor<256x64x16x16xf32>) -> tensor<256x64x16x16xf32>\n  return %ret : tensor<256x64x16x16xf32>\n}", "lowered_operation": "#map = affine_map<(d0, d1) -> (d0 * 2 + d1)>\nmodule {\n  func.func @func_call(%arg0: tensor<256x64x32x32xf32>, %arg1: tensor<1x1xf32>, %arg2: tensor<256x64x16x16xf32>) -> tensor<256x64x16x16xf32> {\n    %0 = bufferization.to_memref %arg0 : memref<256x64x32x32xf32>\n    %1 = bufferization.to_memref %arg2 : memref<256x64x16x16xf32>\n    %alloc = memref.alloc() {alignment = 64 : i64} : memref<256x64x16x16xf32>\n    memref.copy %1, %alloc : memref<256x64x16x16xf32> to memref<256x64x16x16xf32>\n    affine.for %arg3 = 0 to 256 {\n      affine.for %arg4 = 0 to 64 {\n        affine.for %arg5 = 0 to 16 {\n          affine.for %arg6 = 0 to 16 {\n            affine.for %arg7 = 0 to 1 {\n              affine.for %arg8 = 0 to 1 {\n                %3 = affine.apply #map(%arg5, %arg7)\n                %4 = affine.apply #map(%arg6, %arg8)\n                %5 = affine.load %0[%arg3, %arg4, %3, %4] : memref<256x64x32x32xf32>\n                %6 = affine.load %alloc[%arg3, %arg4, %arg5, %arg6] : memref<256x64x16x16xf32>\n                %7 = arith.maximumf %6, %5 : f32\n                affine.store %7, %alloc[%arg3, %arg4, %arg5, %arg6] : memref<256x64x16x16xf32>\n              }\n            }\n          }\n        }\n      }\n    }\n    %2 = bufferization.to_tensor %alloc : memref<256x64x16x16xf32>\n    return %2 : tensor<256x64x16x16xf32>\n  }\n}\n\n", "transform_wrapped_operation": "module attributes {torch.debug_module_name = \"Net\"} {\nfunc.func private @nanoTime() -> i64 attributes { llvm.emit_c_interface }\nfunc.func private @printFlops(f64)\nfunc.func private @printI64(i64)\nfunc.func private @printNewline()\nfunc.func private @printMemrefF32(tensor<*xf32>)\n\n\nfunc.func @matmul() -> tensor<256x64x16x16xf32>{\n\n%val = arith.constant 2.00000e+00 : f32\n%zero = arith.constant 0.00000e+00 : f32\n\n%tmp_input = bufferization.alloc_tensor() : tensor<256x64x32x32xf32>\n%input = linalg.fill ins(%val : f32) outs(%tmp_input : tensor<256x64x32x32xf32>) -> tensor<256x64x32x32xf32>\n%tmp_filter = bufferization.alloc_tensor() : tensor<1x1xf32>\n%filter = linalg.fill ins(%val : f32) outs(%tmp_filter : tensor<1x1xf32>) -> tensor<1x1xf32>\n%tmp_init = bufferization.alloc_tensor() : tensor<256x64x16x16xf32>\n%init = linalg.fill ins(%val : f32) outs(%tmp_init : tensor<256x64x16x16xf32>) -> tensor<256x64x16x16xf32>\n\n%t0 = func.call @nanoTime() : () -> (i64)\n\n%return_arg = linalg.pooling_nchw_max {dilations = dense<1> : tensor<2xi64>, strides = dense<2> : tensor<2xi64>} ins (%input, %filter: tensor<256x64x32x32xf32>, tensor<1x1xf32>) outs (%init: tensor<256x64x16x16xf32>) -> tensor<256x64x16x16xf32>\n%t = func.call @nanoTime() : () -> (i64)\n%delta = arith.subi %t, %t0 : i64\n%fp = arith.uitofp %delta : i64 to f64\n// func.call @printFlops(%fp) : (f64) -> ()\nfunc.call @printI64(%delta) : (i64) -> ()\nfunc.call @printNewline() : () -> ()\n\nreturn %return_arg : tensor<256x64x16x16xf32> \n}\n\nfunc.func @main(){\n    %c1 = arith.constant 1: index\n    %c0 = arith.constant 0 : index\n    %n = arith.constant 2: index\n    scf.for %i = %c0 to %n step %c1 {\n    %outputmain = func.call @matmul() : () -> tensor<256x64x16x16xf32>\n    }\n    return\n}\n}\n", "loops_data": {"nested_loops": [["%arg3", 0, 256, 1], ["%arg4", 0, 64, 1], ["%arg5", 0, 16, 1], ["%arg6", 0, 16, 1], ["%arg7", 0, 1, 1], ["%arg8", 0, 1, 1]], "op_count": {"+": 0, "-": 0, "*": 0, "/": 0, "exp": 0}, "load_data": [["%arg3", "%arg4", "%arg5 * 2 + %arg7", "%arg6 * 2 + %arg8"], ["%arg3", "%arg4", "%arg5", "%arg6"]], "store_data": []}, "execution_time": 9604866}, "linalg.pooling_nchw_max {dilations = dense<1> : tensor<2xi64>, strides = dense<2> : tensor<2xi64>} ins (%input, %filter: tensor<256x16x256x64xf32>, tensor<5x5xf32>) outs (%init: tensor<256x16x126x30xf32>) -> tensor<256x16x126x30xf32>": {"operation": "linalg.pooling_nchw_max {dilations = dense<1> : tensor<2xi64>, strides = dense<2> : tensor<2xi64>} ins (%input, %filter: tensor<256x16x256x64xf32>, tensor<5x5xf32>) outs (%init: tensor<256x16x126x30xf32>) -> tensor<256x16x126x30xf32>", "wrapped_operation": "func.func @func_call(%input: tensor<256x16x256x64xf32>, %filter: tensor<5x5xf32>, %init: tensor<256x16x126x30xf32>) -> tensor<256x16x126x30xf32> {\n  %ret = linalg.pooling_nchw_max {dilations = dense<1> : tensor<2xi64>, strides = dense<2> : tensor<2xi64>} ins (%input, %filter: tensor<256x16x256x64xf32>, tensor<5x5xf32>) outs (%init: tensor<256x16x126x30xf32>) -> tensor<256x16x126x30xf32>\n  return %ret : tensor<256x16x126x30xf32>\n}", "lowered_operation": "#map = affine_map<(d0, d1) -> (d0 * 2 + d1)>\nmodule {\n  func.func @func_call(%arg0: tensor<256x16x256x64xf32>, %arg1: tensor<5x5xf32>, %arg2: tensor<256x16x126x30xf32>) -> tensor<256x16x126x30xf32> {\n    %0 = bufferization.to_memref %arg0 : memref<256x16x256x64xf32>\n    %1 = bufferization.to_memref %arg2 : memref<256x16x126x30xf32>\n    %alloc = memref.alloc() {alignment = 64 : i64} : memref<256x16x126x30xf32>\n    memref.copy %1, %alloc : memref<256x16x126x30xf32> to memref<256x16x126x30xf32>\n    affine.for %arg3 = 0 to 256 {\n      affine.for %arg4 = 0 to 16 {\n        affine.for %arg5 = 0 to 126 {\n          affine.for %arg6 = 0 to 30 {\n            affine.for %arg7 = 0 to 5 {\n              affine.for %arg8 = 0 to 5 {\n                %3 = affine.apply #map(%arg5, %arg7)\n                %4 = affine.apply #map(%arg6, %arg8)\n                %5 = affine.load %0[%arg3, %arg4, %3, %4] : memref<256x16x256x64xf32>\n                %6 = affine.load %alloc[%arg3, %arg4, %arg5, %arg6] : memref<256x16x126x30xf32>\n                %7 = arith.maximumf %6, %5 : f32\n                affine.store %7, %alloc[%arg3, %arg4, %arg5, %arg6] : memref<256x16x126x30xf32>\n              }\n            }\n          }\n        }\n      }\n    }\n    %2 = bufferization.to_tensor %alloc : memref<256x16x126x30xf32>\n    return %2 : tensor<256x16x126x30xf32>\n  }\n}\n\n", "transform_wrapped_operation": "module attributes {torch.debug_module_name = \"Net\"} {\nfunc.func private @nanoTime() -> i64 attributes { llvm.emit_c_interface }\nfunc.func private @printFlops(f64)\nfunc.func private @printI64(i64)\nfunc.func private @printNewline()\nfunc.func private @printMemrefF32(tensor<*xf32>)\n\n\nfunc.func @matmul() -> tensor<256x16x126x30xf32>{\n\n%val = arith.constant 2.00000e+00 : f32\n%zero = arith.constant 0.00000e+00 : f32\n\n%tmp_input = bufferization.alloc_tensor() : tensor<256x16x256x64xf32>\n%input = linalg.fill ins(%val : f32) outs(%tmp_input : tensor<256x16x256x64xf32>) -> tensor<256x16x256x64xf32>\n%tmp_filter = bufferization.alloc_tensor() : tensor<5x5xf32>\n%filter = linalg.fill ins(%val : f32) outs(%tmp_filter : tensor<5x5xf32>) -> tensor<5x5xf32>\n%tmp_init = bufferization.alloc_tensor() : tensor<256x16x126x30xf32>\n%init = linalg.fill ins(%val : f32) outs(%tmp_init : tensor<256x16x126x30xf32>) -> tensor<256x16x126x30xf32>\n\n%t0 = func.call @nanoTime() : () -> (i64)\n\n%return_arg = linalg.pooling_nchw_max {dilations = dense<1> : tensor<2xi64>, strides = dense<2> : tensor<2xi64>} ins (%input, %filter: tensor<256x16x256x64xf32>, tensor<5x5xf32>) outs (%init: tensor<256x16x126x30xf32>) -> tensor<256x16x126x30xf32>\n%t = func.call @nanoTime() : () -> (i64)\n%delta = arith.subi %t, %t0 : i64\n%fp = arith.uitofp %delta : i64 to f64\n// func.call @printFlops(%fp) : (f64) -> ()\nfunc.call @printI64(%delta) : (i64) -> ()\nfunc.call @printNewline() : () -> ()\n\nreturn %return_arg : tensor<256x16x126x30xf32> \n}\n\nfunc.func @main(){\n    %c1 = arith.constant 1: index\n    %c0 = arith.constant 0 : index\n    %n = arith.constant 2: index\n    scf.for %i = %c0 to %n step %c1 {\n    %outputmain = func.call @matmul() : () -> tensor<256x16x126x30xf32>\n    }\n    return\n}\n}\n", "loops_data": {"nested_loops": [["%arg3", 0, 256, 1], ["%arg4", 0, 16, 1], ["%arg5", 0, 126, 1], ["%arg6", 0, 30, 1], ["%arg7", 0, 5, 1], ["%arg8", 0, 5, 1]], "op_count": {"+": 0, "-": 0, "*": 0, "/": 0, "exp": 0}, "load_data": [["%arg3", "%arg4", "%arg5 * 2 + %arg7", "%arg6 * 2 + %arg8"], ["%arg3", "%arg4", "%arg5", "%arg6"]], "store_data": []}, "execution_time": 1294474198}, "linalg.pooling_nchw_max {dilations = dense<1> : tensor<2xi64>, strides = dense<2> : tensor<2xi64>} ins (%input, %filter: tensor<8x512x32x32xf32>, tensor<7x7xf32>) outs (%init: tensor<8x512x13x13xf32>) -> tensor<8x512x13x13xf32>": {"operation": "linalg.pooling_nchw_max {dilations = dense<1> : tensor<2xi64>, strides = dense<2> : tensor<2xi64>} ins (%input, %filter: tensor<8x512x32x32xf32>, tensor<7x7xf32>) outs (%init: tensor<8x512x13x13xf32>) -> tensor<8x512x13x13xf32>", "wrapped_operation": "func.func @func_call(%input: tensor<8x512x32x32xf32>, %filter: tensor<7x7xf32>, %init: tensor<8x512x13x13xf32>) -> tensor<8x512x13x13xf32> {\n  %ret = linalg.pooling_nchw_max {dilations = dense<1> : tensor<2xi64>, strides = dense<2> : tensor<2xi64>} ins (%input, %filter: tensor<8x512x32x32xf32>, tensor<7x7xf32>) outs (%init: tensor<8x5…
0, 5, 1]], "op_count": {"+": 0, "-": 0, "*": 0, "/": 0, "exp": 0}, "load_data": [["%arg3", "%arg4", "%arg5 * 2 + %arg7", "%arg6 * 2 + %arg8"], ["%arg3", "%arg4", "%arg5", "%arg6"]], "store_data": []}, "execution_time": 1335204133}, "linalg.pooling_nchw_max {dilations = dense<1> : tensor<2xi64>, strides = dense<1> : tensor<2xi64>} ins (%input, %filter: tensor<32x512x256x256xf32>, tensor<1x1xf32>) outs (%init: tensor<32x512x256x256xf32>) -> tensor<32x512x256x256xf32>": {"operation": "linalg.pooling_nchw_max {dilations = dense<1> : tensor<2xi64>, strides = dense<1> : tensor<2xi64>} ins (%input, %filter: tensor<32x512x256x256xf32>, tensor<1x1xf32>) outs (%init: tensor<32x512x256x256xf32>) -> tensor<32x512x256x256xf32>", "wrapped_operation": "func.func @func_call(%input: tensor<32x512x256x256xf32>, %filter: tensor<1x1xf32>, %init: tensor<32x512x256x256xf32>) -> tensor<32x512x256x256xf32> {\n  %ret = linalg.pooling_nchw_max {dilations = dense<1> : tensor<2xi64>, strides = dense<1> : tensor<2xi64>} ins (%input, %filter: tensor<32x512x256x256xf32>, tensor<1x1xf32>) outs (%init: tensor<32x512x256x256xf32>) -> tensor<32x512x256x256xf32>\n  return %ret : tensor<32x512x256x256xf32>\n}", "lowered_operation": "#map = affine_map<(d0, d1) -> (d0 + d1)>\nmodule {\n  func.func @func_call(%arg0: tensor<32x512x256x256xf32>, %arg1: tensor<1x1xf32>, %arg2: tensor<32x512x256x256xf32>) -> tensor<32x512x256x256xf32> {\n    %0 = bufferization.to_memref %arg0 : memref<32x512x256x256xf32>\n    %1 = bufferization.to_memref %arg2 : memref<32x512x256x256xf32>\n    %alloc = memref.alloc() {alignment = 64 : i64} : memref<32x512x256x256xf32>\n    memref.copy %1, %alloc : memref<32x512x256x256xf32> to memref<32x512x256x256xf32>\n    affine.for %arg3 = 0 to 32 {\n      affine.for %arg4 = 0 to 512 {\n        affine.for %arg5 = 0 to 256 {\n          affine.for %arg6 = 0 to 256 {\n            affine.for %arg7 = 0 to 1 {\n              affine.for %arg8 = 0 to 1 {\n                %3 = affine.apply #map(%arg5, %arg7)\n                %4 = affine.apply #map(%arg6, %arg8)\n                %5 = affine.load %0[%arg3, %arg4, %3, %4] : memref<32x512x256x256xf32>\n                %6 = affine.load %alloc[%arg3, %arg4, %arg5, %arg6] : memref<32x512x256x256xf32>\n                %7 = arith.maximumf %6, %5 : f32\n                affine.store %7, %alloc[%arg3, %arg4, %arg5, %arg6] : memref<32x512x256x256xf32>\n              }\n            }\n          }\n        }\n      }\n    }\n    %2 = bufferization.to_tensor %alloc : memref<32x512x256x256xf32>\n    return %2 : tensor<32x512x256x256xf32>\n  }\n}\n\n", "transform_wrapped_operation": "module attributes {torch.debug_module_name = \"Net\"} {\nfunc.func private @nanoTime() -> i64 attributes { llvm.emit_c_interface }\nfunc.func private @printFlops(f64)\nfunc.func private @printI64(i64)\nfunc.func private @printNewline()\nfunc.func private @printMemrefF32(tensor<*xf32>)\n\n\nfunc.func @matmul() -> tensor<32x512x256x256xf32>{\n\n%val = arith.constant 2.00000e+00 : f32\n%zero = arith.constant 0.00000e+00 : f32\n\n%tmp_input = bufferization.alloc_tensor() : tensor<32x512x256x256xf32>\n%input = linalg.fill ins(%val : f32) outs(%tmp_input : tensor<32x512x256x256xf32>) -> tensor<32x512x256x256xf32>\n%tmp_filter = bufferization.alloc_tensor() : tensor<1x1xf32>\n%filter = linalg.fill ins(%val : f32) outs(%tmp_filter : tensor<1x1xf32>) -> tensor<1x1xf32>\n%tmp_init = bufferization.alloc_tensor() : tensor<32x512x256x256xf32>\n%init = linalg.fill ins(%val : f32) outs(%tmp_init : tensor<32x512x256x256xf32>) -> tensor<32x512x256x256xf32>\n\n%t0 = func.call @nanoTime() : () -> (i64)\n\n%return_arg = linalg.pooling_nchw_max {dilations = dense<1> : tensor<2xi64>, strides = dense<1> : tensor<2xi64>} ins (%input, %filter: tensor<32x512x256x256xf32>, tensor<1x1xf32>) outs (%init: tensor<32x512x256x256xf32>) -> tensor<32x512x256x256xf32>\n%t = func.call @nanoTime() : () -> (i64)\n%delta = arith.subi %t, %t0 : i64\n%fp = arith.uitofp %delta : i64 to f64\n// func.call @printFlops(%fp) : (f64) -> ()\nfunc.call @printI64(%delta) : (i64) -> ()\nfunc.call @printNewline() : () -> ()\n\nreturn %return_arg : tensor<32x512x256x256xf32> \n}\n\nfunc.func @main(){\n    %c1 = arith.constant 1: index\n    %c0 = arith.constant 0 : index\n    %n = arith.constant 2: index\n    scf.for %i = %c0 to %n step %c1 {\n    %outputmain = func.call @matmul() : () -> tensor<32x512x256x256xf32>\n    }\n    return\n}\n}\n", "loops_data": {"nested_loops": [["%arg3", 0, 32, 1], ["%arg4", 0, 512, 1], ["%arg5", 0, 256, 1], ["%arg6", 0, 256, 1], ["%arg7", 0, 1, 1], ["%arg8", 0, 1, 1]], "op_count": {"+": 0, "-": 0, "*": 0, "/": 0, "exp": 0}, "load_data": [["%arg3", "%arg4", "%arg5 + %arg7", "%arg6 + %arg8"], ["%arg3", "%arg4", "%arg5", "%arg6"]], "store_data": []}, "execution_time": 1564673402}, "linalg.pooling_nchw_max {dilations = dense<1> : tensor<2xi64>, strides = dense<2> : tensor<2xi64>} ins (%input, %filter: tensor<256x128x256x32xf32>, tensor<5x5xf32>) outs (%init: tensor<256x128x126x14xf32>) -> tensor<256x128x126x14xf32>": {"operation": "linalg.pooling_nchw_max {dilations = dense<1> : tensor<2xi64>, strides = dense<2> : tensor<2xi64>} ins (%input, %filter: tensor<256x128x256x32xf32>, tensor<5x5xf32>) outs (%init: tensor<256x128x126x14xf32>) -> tensor<256x128x126x14xf32>", "wrapped_operation": "func.func @func_call(%input: tensor<256x128x256x32xf32>, %filter: tensor<5x5xf32>, %init: tensor<256x128x126x14xf32>) -> tensor<256x128x126x14xf32> {\n  %ret = linalg.pooling_nchw_max {dilations = dense<1> : tensor<2xi64>, strides = dense<2> : tensor<2xi64>} ins (%input, %filter: tensor<256x128x256x32xf32>, tensor<5x5xf32>) outs (%init: tensor<256x128x126x14xf32>) -> tensor<256x128x126x14xf32>\n  return %ret : tensor<256x128x126x14xf32>\n}", "lowered_operation": "#map = affine_map<(d0, d1) -> (d0 * 2 + d1)>\nmodule {\n  func.func @func_call(%arg0: tensor<256x128x256x32xf32>, %arg1: tensor<5x5xf32>, %arg2: tensor<256x128x126x14xf32>) -> tensor<256x128x126x14xf32> {\n    %0 = bufferization.to_memref %arg0 : memref<256x128x256x32xf32>\n    %1 = bufferization.to_memref %arg2 : memref<256x128x126x14xf32>\n    %alloc = memref.alloc() {alignment = 64 : i64} : memref<256x128x126x14xf32>\n    memref.copy %1, %alloc : memref<256x128x126x14xf32> to memref<256x128x126x14xf32>\n    affine.for %arg3 = 0 to 256 {\n      affine.for %arg4 = 0 to 128 {\n        affine.for %arg5 = 0 to 126 {\n          affine.for %arg6 = 0 to 14 {\n            affine.for %arg7 = 0 to 5 {\n              affine.for %arg8 = 0 to 5 {\n                %3 = affine.apply #map(%arg5, %arg7)\n                %4 = affine.apply #map(%arg6, %arg8)\n                %5 = affine.load %0[%arg3, %arg4, %3, %4] : memref<256x128x256x32xf32>\n                %6 = affine.load %alloc[%arg3, %arg4, %arg5, %arg6] : memref<256x128x126x14xf32>\n                %7 = arith.maximumf %6, %5 : f32\n                affine.store %7, %alloc[%arg3, %arg4, %arg5, %arg6] : memref<256x128x126x14xf32>\n              }\n            }\n          }\n        }\n      }\n    }\n    %2 = bufferization.to_tensor %alloc : memref<256x128x126x14xf32>\n    return %2 : tensor<256x128x126x14xf32>\n  }\n}\n\n", "transform_wrapped_operation": "module attributes {torch.debug_module_name = \"Net\"} {\nfunc.func private @nanoTime() -> i64 attributes { llvm.emit_c_interface }\nfunc.func private @printFlops(f64)\nfunc.func private @printI64(i64)\nfunc.func private @printNewline()\nfunc.func private @printMemrefF32(tensor<*xf32>)\n\n\nfunc.func @matmul() -> tensor<256x128x126x14xf32>{\n\n%val = arith.constant 2.00000e+00 : f32\n%zero = arith.constant 0.00000e+00 : f32\n\n%tmp_input = bufferization.alloc_tensor() : tensor<256x128x256x32xf32>\n%input = linalg.fill ins(%val : f32) outs(%tmp_input : tensor<256x128x256x32xf32>) -> tensor<256x128x256x32xf32>\n%tmp_filter = bufferization.alloc_tensor() : tensor<5x5xf32>\n%filter = linalg.fill ins(%val : f32) outs(%tmp_filter : tensor<5x5xf32>) -> tensor<5x5xf32>\n%tmp_init = bufferization.alloc_tensor() : tensor<256x128x126x14xf32>\n%init = linalg.fill ins(%val : f32) outs(%tmp_init : tensor<256x128x126x14xf32>) -> tensor<256x128x126x14xf32>\n\n%t0 = func.call @nanoTime() : () -> (i64)\n\n%return_arg = linalg.pooling_nchw_max {dilations = dense<1> : tensor<2xi64>, strides = dense<2> : tensor<2xi64>} ins (%input, %filter: tensor<256x128x256x32xf32>, tensor<5x5xf32>) outs (%init: tensor<256x128x126x14xf32>) -> tensor<256x128x126x14xf32>\n%t = func.call @nanoTime() : () -> (i64)\n%delta = arith.subi %t, %t0 : i64\n%fp = arith.uitofp %delta : i64 to f64\n// func.call @printFlops(%fp) : (f64) -> ()\nfunc.call @printI64(%delta) : (i64) -> ()\nfunc.call @printNewline() : () -> ()\n\nreturn %return_arg : tensor<256x128x126x14xf32> \n}\n\nfunc.func @main(){\n    %c1 = arith.constant 1: index\n    %c0 = arith.constant 0 : index\n    %n = arith.constant 2: index\n    scf.for %i = %c0 to %n step %c1 {\n    %outputmain = func.call @matmul() : () -> tensor<256x128x126x14xf32>\n    }\n    return\n}\n}\n", "loops_data": {"nested_loops": [["%arg3", 0, 256, 1], ["%arg4", 0, 128, 1], ["%arg5", 0, 126, 1], ["%arg6", 0, 14, 1], ["%arg7", 0, 5, 1], ["%arg8", 0, 5, 1]], "op_count": {"+": 0, "-": 0, "*": 0, "/": 0, "exp": 0}, "load_data": [["%arg3", "%arg4", "%arg5 * 2 + %arg7", "%arg6 * 2 + %arg8"], ["%arg3", "%arg4", "%arg5", "%arg6"]], "store_data": []}, "execution_time": 4869896023}, "linalg.pooling_nchw_max {dilations = dense<1> : tensor<2xi64>, strides = dense<1> : tensor<2xi64>} ins (%input, %filter: tensor<8x8x32x512xf32>, tensor<7x7xf32>) outs (%init: tensor<8x8x26x506xf32>) -> tensor<8x8x26x506xf32>": {"operation": "linalg.pooling_nchw_max {dilations = dense<1> : tensor<2xi64>, strides = dense<1> : tensor<2xi64>} ins (%input, %filter: tensor<8x8x32x512xf32>, tensor<7x7xf32>) outs (%init: tensor<8x8x26x506xf32>) -> tensor<8x8x26x506xf32>", "wrapped_operation": "func.func @func_call(%input: tensor<8x8x32x512xf32>, %filter: tensor<7x7xf32>, %init: tensor<8x8x26x506xf32>) -> tensor<8x8x26x506xf32> {\n  %ret = linalg.pooling_nchw_max {dilations = dense<1> : tensor<2xi64>, strides = dense<1> : tensor<2xi64>} ins (%input, %filter: tensor<8x8x32x512xf32>, tensor<7x7xf32>) outs (%init: tensor<8x8x26x506xf32>) -> tensor<8x8x26x506xf32>\n  return %ret : tensor<8x8x26x506xf32>\n}", "lowered_operation": "#map = affine_map<(d0, d1) -> (d0 + d1)>\nmodule {\n  func.func @func_call(%arg0: tensor<8x8x32x512xf32>, %arg1: tensor<7x7xf32>, %arg2: tensor<8x8x26x506xf32>) -> tensor<8x8x26x506xf32> {\n    %0 = bufferization.to_memref %arg0 : memref<8x8x32x512xf32>\n    %1 = bufferization.to_memref %arg2 : memref<8x8x26x506xf32>\n    %alloc = memref.alloc() {alignment = 64 : i64} : memref<8x8x26x506xf32>\n    memref.copy %1, %alloc : memref<8x8x26x506xf32> to memref<8x8x26x506xf32>\n    affine.for %arg3 = 0 to 8 {\n      affine.for %arg4 = 0 to 8 {\n        affine.for %arg5 = 0 to 26 {\n          affine.for %arg6 = 0 to 506 {\n            affine.for %arg7 = 0 to 7 {\n              affine.for %arg8 = 0 to 7 {\n                %3 = affine.apply #map(%arg5, %arg7)\n                %4 = affine.apply #map(%arg6, %arg8)\n                %5 = affine.load %0[%arg3, %arg4, %3, %4] : memref<8x8x32x512xf32>\n                %6 = affine.load %alloc[%arg3, %arg4, %arg5, %arg6] : memref<8x8x26x506xf32>\n                %7 = arith.maximumf %6, %5 : f32\n                affine.store %7, %alloc[%arg3, %arg4, %arg5, %arg6] : memref<8x8x26x506xf32>\n              }\n            }\n          }\n        }\n      }\n    }\n    %2 = bufferization.to_tensor %alloc : memref<8x8x26x506xf32>\n    return %2 : tensor<8x8x26x506xf32>\n  }\n}\n\n", "transform_wrapped_operation": "module attributes {torch.debug_module_name = \"Net\"} {\nfunc.func private @nanoTime() -> i64 attributes { llvm.emit_c_interface }\nfunc.func private @printFlops(f64)\nfunc.func private @printI64(i64)\nfunc.func private @printNewline()\nfunc.func private @printMemrefF32(tensor<*xf32>)\n\n\nfunc.func @matmul() -> tensor<8x8x26x506xf32>{\n\n%val = arith.constant 2.00000e+00 : f32\n%zero = arith.constant 0.00000e+00 : f32\n\n%tmp_input = bufferization.alloc_tensor() : tensor<8x8x32x512xf32>\n%input = linalg.fill ins(%val : f32) outs(%tmp_input : tensor<8x8x32x512xf32>) -> tensor<8x8x32x512xf32>\n%tmp_filter = bufferization.alloc_tensor() : tensor<7x7xf32>\n%filter = linalg.fill ins(%val : f32) outs(%tmp_filter : tensor<7x7xf32>) -> tensor<7x7xf32>\n%tmp_init = bufferization.alloc_tensor() : tensor<8x8x26x506xf32>\n%init = linalg.fill ins(%val : f32) outs(%tmp_init : tensor<8x8x26x506xf32>) -> tensor<8x8x26x506xf32>\n\n%t0 = func.call @nanoTime() : () -> (i64)\n\n%return_arg = linalg.pooling_nchw_max {dilations = dense<1> : tensor<2xi64>, strides = dense<1> : tensor<2xi64>} ins (%input, %filter: tensor<8x8x32x512xf32>, tensor<7x7xf32>) outs (%init: tensor<8x8x26x506xf32>) -> tensor<8x8x26x506xf32>\n%t = func.call @nanoTime() : () -> (i64)\n%delta = arith.subi %t, %t0 : i64\n%fp = arith.uitofp %delta : i64 to f64\n// func.call @printFlops(%fp) : (f64) -> ()\nfunc.call @printI64(%delta) : (i64) -> ()\nfunc.call @printNewline() : () -> ()\n\nreturn %return_arg : tensor<8x8x26x506xf32> \n}\n\nfunc.func @main(){\n    %c1 = arith.constant 1: index\n    %c0 = arith.constant 0 : index\n    %n = arith.constant 2: index\n    scf.for %i = %c0 to %n step %c1 {\n    %outputmain = func.call @matmul() : () -> tensor<8x8x26x506xf32>\n    }\n    return\n}\n}\n", "loops_data": {"nested_loops": [["%arg3", 0, 8, 1], ["%arg4", 0, 8, 1], ["%arg5", 0, 26, 1], ["%arg6", 0, 506, 1], ["%arg7", 0, 7, 1], ["%arg8", 0, 7, 1]], "op_count": {"+": 0, "-": 0, "*": 0, "/": 0, "exp": 0}, "load_data": [["%arg3", "%arg4", "%arg5 + %arg7", "%arg6 + %arg8"], ["%arg3", "%arg4", "%arg5", "%arg6"]], "store_data": []}, "execution_time": 164157447}, "linalg.pooling_nchw_max {dilations = dense<1> : tensor<2xi64>, strides = dense<2> : tensor<2xi64>} ins (%input, %filter: tensor<16x512x128x256xf32>, tensor<5x5xf32>) outs (%init: tensor<16x512x62x126xf32>) -> tensor<16x512x62x126xf32>": {"operation": "linalg.pooling_nchw_max {dilations = dense<1> : tensor<2xi64>, strides = dense<2> : tensor<2xi64>} ins (%input, %filter: tensor<16x512x128x256xf32>, tensor<5x5xf32>) outs (%init: tensor<16x512x62x126xf32>) -> tensor<16x512x62x126xf32>", "wrapped_operation": "func.func @func_call(%input: tensor<16x512x128x256xf32>, %filter: tensor<5x5xf32>, %init: tensor<16x512x62x126xf32>) -> tensor<16x512x62x126xf32> {\n  %ret = linalg.pooling_nchw_max {dilations = dense<1> : tensor<2xi64>, strides = dense<2> : tensor<2xi64>} ins (%input, %filter: tensor<16x512x128x256xf32>, tensor<5x5xf32>) outs (%init: tensor<16x512x62x126xf32>) -> tensor<16x512x62x126xf32>\n  return %ret : tensor<16x512x62x126xf32>\n}", "lowered_operation": "#map = affine_map<(d0, d1) -> (d0 * 2 + d1)>\nmodule {\n  func.func @func_call(%arg0: tensor<16x512x128x256xf32>, %arg1: tensor<5x5xf32>, %arg2: tensor<16x512x62x126xf32>) -> tensor<16x512x62x126xf32> {\n    %0 = bufferization.to_memref %arg0 : memref<16x512x128x256xf32>\n    %1 = bufferization.to_memref %arg2 : memref<16x512x62x126xf32>\n    %alloc = memref.alloc() {alignment = 64 : i64} : memref<16x512x62x126xf32>\n    memref.copy %1, %alloc : memref<16x512x62x126xf32> to memref<16x512x62x126xf32>\n    affine.for %arg3 = 0 to 16 {\n      affine.for %arg4 = 0 to 512 {\n        affine.for %arg5 = 0 to 62 {\n          affine.for %arg6 = 0 to 126 {\n            affine.for %arg7 = 0 to 5 {\n              affine.for %arg8 = 0 to 5 {\n                %3 = affine.apply #map(%arg5, %arg7)\n                %4 = affine.apply #map(%arg6, %arg8)\n                %5 = affine.load %0[%arg3, %arg4, %3, %4] : memref<16x512x128x256xf32>\n                %6 = affine.load %alloc[%arg3, %arg4, %arg5, %arg6] : memref<16x512x62x126xf32>\n                %7 = arith.maximumf %6, %5 : f32\n                affine.store %7, %alloc[%arg3, %arg4, %arg5, %arg6] : memref<16x512x62x126xf32>\n              }\n            }\n          }\n        }\n      }\n    }\n    %2 = bufferization.to_tensor %alloc : memref<16x512x62x126xf32>\n    return %2 : tensor<16x512x62x126xf32>\n  }\n}\n\n", "transform_wrapped_operation": "module attributes {torch.debug_module_name = \"Net\"} {\nfunc.func private @nanoTime() -> i64 attributes { llvm.emit_c_interface }\nfunc.func private @printFlops(f64)\nfunc.func private @printI64(i64)\nfunc.func private @printNewline()\nfunc.func private @printMemrefF32(tensor<*xf32>)\n\n\nfunc.func @matmul() -> tensor<16x512x62x126xf32>{\n\n%val = arith.constant 2.00000e+00 : f32\n%zero = arith.constant 0.00000e+00 : f32\n\n%tmp_input = bufferization.alloc_tensor() : tensor<16x512x128x256xf32>\n%input = linalg.fill ins(%val : f32) outs(%tmp_input : tensor<16x512x128x256xf32>) -> tensor<16x512x128x256xf32>\n%tmp_filter = bufferization.alloc_tensor() : tensor<5x5xf32>\n%filter = linalg.fill ins(%val : f32) outs(%tmp_filter : tensor<5x5xf32>) -> tensor<5x5xf32>\n%tmp_init = bufferization.alloc_tensor() : tensor<16x512x62x126xf32>\n%init = linalg.fill ins(%val : f32) outs(%tmp_init : tensor<16x512x62x126xf32>) -> tensor<16x512x62x126xf32>\n\n%t0 = func.call @nanoTime() : () -> (i64)\n\n%return_arg = linalg.pooling_nchw_max {dilations = dense<1> : tensor<2xi64>, strides = dense<2> : tensor<2xi64>} ins (%input, %filter: tensor<16x512x128x256xf32>, tensor<5x5xf32>) outs (%init: tensor<16x512x62x126xf32>) -> tensor<16x512x62x126xf32>\n%t = func.call @nanoTime() : () -> (i64)\n%delta = arith.subi %t, %t0 : i64\n%fp = arith.uitofp %delta : i64 to f64\n// func.call @printFlops(%fp) : (f64) -> ()\nfunc.call @printI64(%delta) : (i64) -> ()\nfunc.call @printNewline() : () -> ()\n\nreturn %return_arg : tensor<16x512x62x126xf32> \n}\n\nfunc.func @main(){\n    %c1 = arith.constant 1: index\n    %c0 = arith.constant 0 : index\n    %n = arith.constant 2: index\n    scf.for %i = %c0 to %n step %c1 {\n    %outputmain = func.call @matmul() : () -> tensor<16x512x62x126xf32>\n    }\n    return\n}\n}\n", "loops_data": {"nested_loops": [["%arg3", 0, 16, 1], ["%arg4", 0, 512, 1], ["%arg5", 0, 62, 1], ["%arg6", 0, 126, 1], ["%arg7", 0, 5, 1], ["%arg8", 0, 5, 1]], "op_count": {"+": 0, "-": 0, "*": 0, "/": 0, "exp": 0}, "load_data": [["%arg3", "%arg4", "%arg5 * 2 + %arg7", "%arg6 * 2 + %arg8"], ["%arg3", "%arg4", "%arg5", "%arg6"]], "store_data": []}, "execution_time": 5346951462}, "linalg.pooling_nchw_max {dilations = dense<1> : tensor<2xi64>, strides = dense<2> : tensor<2xi64>} ins (%input, %filter: tensor<64x8x256x64xf32>, tensor<7x7xf32>) outs (%init: tensor<64x8x125x29xf32>) -> tensor<64x8x125x29xf32>": {"operation": "linalg.pooling_nchw_max {dilations = dense<1> : tensor<2xi64>, strides = dense<2> : tensor<2xi64>} ins (%input, %filter: tensor<64x8x256x64xf32>, tensor<7x7xf32>) outs (%init: tensor<64x8x125x29xf32>) -> tensor<64x8x125x29xf32>", "wrapped_operation": "func.func @func_call(%input: tensor<64x8x256x64xf32>, %filter: tensor<7x7xf32>, %init: tensor<64x8x125x29xf32>) -> tensor<64x8x125x29xf32> {\n  %ret = linalg.pooling_nchw_max {dilations = dense<1> : tensor<2xi64>, strides = dense<2> : tensor<2xi64>} ins (%input, %filter: tensor<64x8x256x64xf32>, tensor<7x7xf32>) outs (%init: tensor<64x8x125x29xf32>) -> tensor<64x8x125x29xf32>\n  return %ret : tensor<64x8x125x29xf32>\n}", "lowered_operation": "#map = affine_map<(d0, d1) -> (d0 * 2 + d1)>\nmodule {\n  func.func @func_call(%arg0: tensor<64x8x256x64xf32>, %arg1: tensor<7x7xf32>, %arg2: tensor<64x8x125x29xf32>) -> tensor<64x8x125x29xf32> {\n    %0 = bufferization.to_memref %arg0 : memref<64x8x256x64xf32>\n    %1 = bufferization.to_memref %arg2 : memref<64x8x125x29xf32>\n    %alloc = memref.alloc() {alignment = 64 : i64} : memref<64x8x125x29xf32>\n    memref.copy %1, %alloc : memref<64x8x125x29xf32> to memref<64x8x125x29xf32>\n    affine.for %arg3 = 0 to 64 {\n      affine.for %arg4 = 0 to 8 {\n        affine.for %arg5 = 0 to 125 {\n          affine.for %arg6 = 0 to 29 {\n            affine.for %arg7 = 0 to 7 {\n              affine.for %arg8 = 0 to 7 {\n                %3 = affine.apply #map(%arg5, %arg7)\n                %4 = affine.apply #map(%arg6, %arg8)\n                %5 = affine.load %0[%arg3, %arg4, %3, %4] : memref<64x8x256x64xf32>\n                %6 = affine.load %alloc[%arg3, %arg4, %arg5, %arg6] : memref<64x8x125x29xf32>\n                %7 = arith.maximumf %6, %5 : f32\n                affine.store %7, %alloc[%arg3, %arg4, %arg5, %arg6] : memref<64x8x125x29xf32>\n              }\n            }\n          }\n        }\n      }\n    }\n    %2 = bufferization.to_tensor %alloc : memref<64x8x125x29xf32>\n    return %2 : tensor<64x8x125x29xf32>\n  }\n}\n\n", "transform_wrapped_operation": "module attributes {torch.debug_module_name = \"Net\"} {\nfunc.func private @nanoTime() -> i64 attributes { llvm.emit_c_interface }\nfunc.func private @printFlops(f64)\nfunc.func private @printI64(i64)\nfunc.func private @printNewline()\nfunc.func private @printMemrefF32(tensor<*xf32>)\n\n\nfunc.func @matmul() -> tensor<64x8x125x29xf32>{\n\n%val = arith.constant 2.00000e+00 : f32\n%zero = arith.constant 0.00000e+00 : f32\n\n%tmp_input = bufferization.alloc_tensor() : tensor<64x8x256x64xf32>\n%input = linalg.fill ins(%val : f32) outs(%tmp_input : tensor<64x8x256x64xf32>) -> tensor<64x8x256x64xf32>\n%tmp_filter = bufferization.alloc_tensor() : tensor<7x7xf32>\n%filter = linalg.fill ins(%val : f32) outs(%tmp_filter : tensor<7x7xf32>) -> tensor<7x7xf32>\n%tmp_init = bufferization.alloc_tensor() : tensor<64x8x125x29xf32>\n%init = linalg.fill ins(%val : f32) outs(%tmp_init : tensor<64x8x125x29xf32>) -> tensor<64x8x125x29xf32>\n\n%t0 = func.call @nanoTime() : () -> (i64)\n\n%return_arg = linalg.pooling_nchw_max {dilations = dense<1> : tensor<2xi64>, strides = dense<2> : tensor<2xi64>} ins (%input, %filter: tensor<64x8x256x64xf32>, tensor<7x7xf32>) outs (%init: tensor<64x8x125x29xf32>) -> tensor<64x8x125x29xf32>\n%t = func.call @nanoTime() : () -> (i64)\n%delta = arith.subi %t, %t0 : i64\n%fp = arith.uitofp %delta : i64 to f64\n// func.call @printFlops(%fp) : (f64) -> ()\nfunc.call @printI64(%delta) : (i64) -> ()\nfunc.call @printNewline() : () -> ()\n\nreturn %return_arg : tensor<64x8x125x29xf32> \n}\n\nfunc.func @main(){\n    %c1 = arith.constant 1: index\n    %c0 = arith.constant 0 : index\n    %n = arith.constant 2: index\n    scf.for %i = %c0 to %n step %c1 {\n    %outputmain = func.call @matmul() : () -> tensor<64x8x125x29xf32>\n    }\n    return\n}\n}\n", "loops_data": {"nested_loops": [["%arg3", 0, 64, 1], ["%arg4", 0, 8, 1], ["%arg5", 0, 125, 1], ["%arg6", 0, 29, 1], ["%arg7", 0, 7, 1], ["%arg8", 0, 7, 1]], "op_count": {"+": 0, "-": 0, "*": 0, "/": 0, "exp": 0}, "load_data": [["%arg3", "%arg4", "%arg5 * 2 + %arg7", "%arg6 * 2 + %arg8"], ["%arg3", "%arg4", "%arg5", "%arg6"]], "store_data": []}, "execution_time": 369729554}, "linalg.pooling_nchw_max {dilations = dense<1> : tensor<2xi64>, strides = dense<1> : tensor<2xi64>} ins (%input, %filter: tensor<8x8x32x64xf32>, tensor<5x5xf32>) outs (%init: tensor<8x8x28x60xf32>) -> tensor<8x8x28x60xf32>": {"operation": "linalg.pooling_nchw_max {dilations = dense<1> : tensor<2xi64>, strides = dense<1> : tensor<2xi64>} ins (%input, %filter: tensor<8x8x32x64xf32>, tensor<5x5xf32>) outs (%init: tensor<8x8x28x60xf32>) -> tensor<8x8x28x60xf32>", "wrapped_operation": "func.func @func_call(%input: tensor<8x8x32x64xf32>, %filter: tensor<5x5xf32>, %init: tensor<8x8x28x60xf32>) -> tensor<8x8x28x60xf32> {\n  %ret = linalg.pooling_nchw_max {dilations = dense<1> : tensor<2xi64>, strides = dense<1> : tensor<2xi64>} ins (%input, %filter: tensor<8x8x32x64xf32>, tensor<5x5xf32>) outs (%init: tensor<8x8x28x60xf32>) -> tensor<8x8x28x60xf32>\n  return %ret : tensor<8x8x28x60xf32>\n}", "lowered_operation": "#map = affine_map<(d0, d1) -> (d0 + d1)>\nmodule {\n  func.func @func_call(%arg0: tensor<8x8x32x64xf32>, %arg1: tensor<5x5xf32>, %arg2: tensor<8x8x28x60xf32>) -> tensor<8x8x28x60xf32> {\n    %0 = bufferization.to_memref %arg0 : memref<8x8x32x64xf32>\n    %1 = bufferization.to_memref %arg2 : memref<8x8x28x60xf32>\n    %alloc = memref.alloc() {alignment = 64 : i64} : memref<8x8x28x60xf32>\n    memref.copy %1, %alloc : memref<8x8x28x60xf32> to memref<8x8x28x60xf32>\n    affine.for %arg3 = 0 to 8 {\n      affine.for %arg4 = 0 to 8 {\n        affine.for %arg5 = 0 to 28 {\n          affine.for %arg6 = 0 to 60 {\n            affine.for %arg7 = 0 to 5 {\n              affine.for %arg8 = 0 to 5 {\n                %3 = affine.apply #map(%arg5, %arg7)\n                %4 = affine.apply #map(%arg6, %arg8)\n                %5 = affine.load %0[%arg3, %arg4, %3, %4] : memref<8x8x32x64xf32>\n                %6 = affine.load %alloc[%arg3, %arg4, %arg5, %arg6] : memref<8x8x28x60xf32>\n                %7 = arith.maximumf %6, %5 : f32\n                affine.store %7, %alloc[%arg3, %arg4, %arg5, %arg6] : memref<8x8x28x60xf32>\n              }\n            }\n          }\n        }\n      }\n    }\n    %2 = bufferization.to_tensor %alloc : memref<8x8x28x60xf32>\n    return %2 : tensor<8x8x28x60xf32>\n  }\n}\n\n", "transform_wrapped_operation": "module attributes {torch.debug_module_name = \"Net\"} {\nfunc.func private @nanoTime() -> i64 attributes { llvm.emit_c_interface }\nfunc.func private @printFlops(f64)\nfunc.func private @printI64(i64)\nfunc.func private @printNewline()\nfunc.func private @printMemrefF32(tensor<*xf32>)\n\n\nfunc.func @matmul() -> tensor<8x8x28x60xf32>{\n\n%val = arith.constant 2.00000e+00 : f32\n%zero = arith.constant 0.00000e+00 : f32\n\n%tmp_input = bufferization.alloc_tensor() : tensor<8x8x32x64xf32>\n%input = linalg.fill ins(%val : f32) outs(%tmp_input : tensor<8x8x32x64xf32>) -> tensor<8x8x32x64xf32>\n%tmp_filter = bufferization.alloc_tensor() : tensor<5x5xf32>\n%filter = linalg.fill ins(%val : f32) outs(%tmp_filter : tensor<5x5xf32>) -> tensor<5x5xf32>\n%tmp_init = bufferization.alloc_tensor() : tensor<8x8x28x60xf32>\n%init = linalg.fill ins(%val : f32) outs(%tmp_init : tensor<8x8x28x60xf32>) -> tensor<8x8x28x60xf32>\n\n%t0 = func.call @nanoTime() : () -> (i64)\n\n%return_arg = linalg.pooling_nchw_max {dilations = dense<1> : tensor<2xi64>, strides = dense<1> : tensor<2xi64>} ins (%input, %filter: tensor<8x8x32x64xf32>, tensor<5x5xf32>) outs (%init: tensor<8x8x28x60xf32>) -> tensor<8x8x28x60xf32>\n%t = func.call @nanoTime() : () -> (i64)\n%delta = arith.subi %t, %t0 : i64\n%fp = arith.uitofp %delta : i64 to f64\n// func.call @printFlops(%fp) : (f64) -> ()\nfunc.call @printI64(%delta) : (i64) -> ()\nfunc.call @printNewline() : () -> ()\n\nreturn %return_arg : tensor<8x8x28x60xf32> \n}\n\nfunc.func @main(){\n    %c1 = arith.constant 1: index\n    %c0 = arith.constant 0 : index\n    %n = arith.constant 2: index\n    scf.for %i = %c0 to %n step %c1 {\n    %outputmain = func.call @matmul() : () -> tensor<8x8x28x60xf32>\n    }\n    return\n}\n}\n", "loops_data": {"nested_loops": [["%arg3", 0, 8, 1], ["%arg4", 0, 8, 1], ["%arg5", 0, 28, 1], ["%arg6", 0, 60, 1], ["%arg7", 0, 5, 1], ["%arg8", 0, 5, 1]], "op_count": {"+": 0, "-": 0, "*": 0, "/": 0, "exp": 0}, "load_data": [["%arg3", "%arg4", "%arg5 + %arg7", "%arg6 + %arg8"], ["%arg3", "%arg4", "%arg5", "%arg6"]], "store_data": []}, "execution_time": 8886717}, "linalg.pooling_nchw_max {dilations = dense<1> : tensor<2xi64>, strides = dense<2> : tensor<2xi64>} ins (%input, %filter: tensor<256x1024x32x256xf32>, tensor<3x3xf32>) outs (%init: tensor<256x1024x15x127xf32>) -> tensor<256x1024x15x127xf32>": {"operation": "linalg.pooling_nchw_max {dilations = dense<1> : tensor<2xi64>, strides = dense<2> : tensor<2xi64>} ins (%input, %filter: tensor<256x1024x32x256xf32>, tensor<3x3xf32>) outs (%init: tensor<256x1024x15x127xf32>) -> tensor<256x1024x15x127xf32>", "wrapped_operation": "func.func @func_call(%input: tensor<256x1024x32x256xf32>, %filter: tensor<3x3xf32>, %init: tensor<256x1024x15x127xf32>) -> tensor<256x1024x15x127xf32> {\n  %ret = linalg.pooling_nchw_max {dilations = dense<1> : tensor<2xi64>, strides = dense<2> : tensor<2xi64>} ins (%input, %filter: tensor<256x1024x32x256xf32>, tensor<3x3xf32>) outs (%init: tensor<256x1024x15x127xf32>) -> tensor<256x1024x15x127xf32>\n  return %ret : tensor<256x1024x15x127xf32>\n}", "lowered_operation": "#map = affine_map<(d0, d1) -> (d0 * 2 + d1)>\nmodule {\n  func.func @func_call(%arg0: tensor<256x1024x32x256xf32>, %arg1: tensor<3x3xf32>, %arg2: tensor<256x1024x15x127xf32>) -> tensor<256x1024x15x127xf32> {\n    %0 = bufferization.to_memref %arg0 : memref<256x1024x32x256xf32>\n    %1 = bufferization.to_memref %arg2 : memref<256x1024x15x127xf32>\n    %alloc = memref.alloc() {alignment = 64 : i64} : memref<256x1024x15x127xf32>\n    memref.copy %1, %alloc : memref<256x1024x15x127xf32> to memref<256x1024x15x127xf32>\n    affine.for %arg3 = 0 to 256 {\n      affine.for %arg4 = 0 to 1024 {\n        affine.for %arg5 = 0 to 15 {\n          affine.for %arg6 = 0 to 127 {\n            affine.for %arg7 = 0 to 3 {\n              affine.for %arg8 = 0 to 3 {\n                %3 = affine.apply #map(%arg5, %arg7)\n                %4 = affine.apply #map(%arg6, %arg8)\n                %5 = affine.load %0[%arg3, %arg4, %3, %4] : memref<256x1024x32x256xf32>\n                %6 = affine.load %alloc[%arg3, %arg4, %arg5, %arg6] : memref<256x1024x15x127xf32>\n                %7 = arith.maximumf %6, %5 : f32\n                affine.store %7, %alloc[%arg3, %arg4, %arg5, %arg6] : memref<256x1024x15x127xf32>\n              }\n            }\n          }\n        }\n      }\n    }\n    %2 = bufferization.to_tensor %alloc : memref<256x1024x15x127xf32>\n    return %2 : tensor<256x1024x15x127xf32>\n  }\n}\n\n", "transform_wrapped_operation": "module attributes {torch.debug_module_name = \"Net\"} {\nfunc.func private @nanoTime() -> i64 attributes { llvm.emit_c_interface }\nfunc.func private @printFlops(f64)\nfunc.func private @printI64(i64)\nfunc.func private @printNewline()\nfunc.func private @printMemrefF32(tensor<*xf32>)\n\n\nfunc.func @matmul() -> tensor<256x1024x15x127xf32>{\n\n%val = arith.constant 2.00000e+00 : f32\n%zero = arith.constant 0.00000e+00 : f32\n\n%tmp_input = bufferization.alloc_tensor() : tensor<256x1024x32x256xf32>\n%input = linalg.fill ins(%val : f32) outs(%tmp_input : tensor<256x1024x32x256xf32>) -> tensor<256x1024x32x256xf32>\n%tmp_filter = bufferization.alloc_tensor() : tensor<3x3xf32>\n%filter = linalg.fill ins(%val : f32) outs(%tmp_filter : tensor<3x3xf32>) -> tensor<3x3xf32>\n%tmp_init = bufferization.alloc_tensor() : tensor<256x1024x15x127xf32>\n%init = linalg.fill ins(%val : f32) outs(%tmp_init : tensor<256x1024x15x127xf32>) -> tensor<256x1024x15x127xf32>\n\n%t0 = func.call @nanoTime() : () -> (i64)\n\n%return_arg = linalg.pooling_nchw_max {dilations = dense<1> : tensor<2xi64>, strides = dense<2> : tensor<2xi64>} ins (%input, %filter: tensor<256x1024x32x256xf32>, tensor<3x3xf32>) outs (%init: tensor<256x1024x15x127xf32>) -> tensor<256x1024x15x127xf32>\n%t = func.call @nanoTime() : () -> (i64)\n%delta = arith.subi %t, %t0 : i64\n%fp = arith.uitofp %delta : i64 to f64\n// func.call @printFlops(%fp) : (f64) -> ()\nfunc.call @printI64(%delta) : (i64) -> ()\nfunc.call @printNewline() : () -> ()\n\nreturn %return_arg : tensor<256x1024x15x127xf32> \n}\n\nfunc.func @main(){\n    %c1 = arith.constant 1: index\n    %c0 = arith.constant 0 : index\n    %n = arith.constant 2: index\n    scf.for %i = %c0 to %n step %c1 {\n    %outputmain = func.call @matmul() : () -> tensor<256x1024x15x127xf32>\n    }\n    return\n}\n}\n", "loops_data": {"nested_loops": [["%arg3", 0, 256, 1], ["%arg4", 0, 1024, 1], ["%arg5", 0, 15, 1], ["%arg6", 0, 127, 1], ["%arg7", 0, 3, 1], ["%arg8", 0, 3, 1]], "op_count": {"+": 0, "-": 0, "*": 0, "/": 0, "exp": 0}, "load_data": [["%arg3", "%arg4", "%arg5 * 2 + %arg7", "%arg6 * 2 + %arg8"], ["%arg3", "%arg4", "%arg5", "%arg6"]], "store_data": []}, "execution_time": 10860194111}, "linalg.pooling_nchw_max {dilations = dense<1> : tensor<2xi64>, strides = dense<2> : tensor<2xi64>} ins (%input, %filter: tensor<8x8x128x128xf32>, tensor<3x3xf32>) outs (%init: tensor<8x8x63x63xf32>) -> tensor<8x8x63x63xf32>": {"operation": "linalg.pooling_nchw_max {dilations = dense<1> : tensor<2xi64>, strides = dense<2> : tensor<2xi64>} ins (%input, %filter: tensor<8x8x128x128xf32>, tensor<3x3xf32>) outs (%init: tensor<8x8x63x63xf32>) -> tensor<8x8x63x63xf32>", "wrapped_operation": "func.func @func_call(%input: tensor<8x8x128x128xf32>, %filter: tensor<3x3xf32>, %init: tensor<8x8x63x63xf32>) -> tensor<8x8x63x63xf32> {\n  %ret = linalg.pooling_nchw_max {dilations = dense<1> : tensor<2xi64>, strides = dense<2> : tensor<2xi64>} ins (%input, %filter: tensor<8x8x128x128xf32>, tensor<3x3xf32>) outs (%init: tensor<8x8x63x63xf32>) -> tensor<8x8x63x63xf32>\n  return %ret : tensor<8x8x63x63xf32>\n}", "lowered_operation": "#map = affine_map<(d0, d1) -> (d0 * 2 + d1)>\nmodule {\n  func.func @func_call(%arg0: tensor<8x8x128x128xf32>, %arg1: tensor<3x3xf32>, %arg2: tensor<8x8x63x63xf32>) -> tensor<8x8x63x63xf32> {\n    %0 = bufferization.to_memref %arg0 : memref<8x8x128x128xf32>\n    %1 = bufferization.to_memref %arg2 : memref<8x8x63x63xf32>\n    %alloc = memref.alloc() {alignment = 64 : i64} : memref<8x8x63x63xf32>\n    memref.copy %1, %alloc : memref<8x8x63x63xf32> to memref<8x8x63x63xf32>\n    affine.for %arg3 = 0 to 8 {\n      affine.for %arg4 = 0 to 8 {\n        affine.for %arg5 = 0 to 63 {\n          affine.for %arg6 = 0 to 63 {\n            affine.for %arg7 = 0 to 3 {\n              affine.for %arg8 = 0 to 3 {\n                %3 = affine.apply #map(%arg5, %arg7)\n                %4 = affine.apply #map(%arg6, %arg8)\n                %5 = affine.load %0[%arg3, %arg4, %3, %4] : memref<8x8x128x128xf32>\n                %6 = affine.load %alloc[%arg3, %arg4, %arg5, %arg6] : memref<8x8x63x63xf32>\n                %7 = arith.maximumf %6, %5 : f32\n                affine.store %7, %alloc[%arg3, %arg4, %arg5, %arg6] : memref<8x8x63x63xf32>\n              }\n            }\n          }\n        }\n      }\n    }\n    %2 = bufferization.to_tensor %alloc : memref<8x8x63x63xf32>\n    return %2 : tensor<8x8x63x63xf32>\n  }\n}\n\n", "transform_wrapped_operation": "module attributes {torch.debug_module_name = \"Net\"} {\nfunc.func private @nanoTime() -> i64 attributes { llvm.emit_c_interface }\nfunc.func private @printFlops(f64)\nfunc.func private @printI64(i64)\nfunc.func private @printNewline()\nfunc.func private @printMemrefF32(tensor<*xf32>)\n\n\nfunc.func @matmul() -> tensor<8x8x63x63xf32>{\n\n%val = arith.constant 2.00000e+00 : f32\n%zero = arith.constant 0.00000e+00 : f32\n\n%tmp_input = bufferization.alloc_tensor() : tensor<8x8x128x128xf32>\n%input = linalg.fill ins(%val : f32) outs(%tmp_input : tensor<8x8x128x128xf32>) -> tensor<8x8x128x128xf32>\n%tmp_filter = bufferization.alloc_tensor() : tensor<3x3xf32>\n%filter = linalg.fill ins(%val : f32) outs(%tmp_filter : tensor<3x3xf32>) -> tensor<3x3xf32>\n%tmp_init = bufferization.alloc_tensor() : tensor<8x8x63x63xf32>\n%init = linalg.fill ins(%val : f32) outs(%tmp_init : tensor<8x8x63x63xf32>) -> tensor<8x8x63x63xf32>\n\n%t0 = func.call @nanoTime() : () -> (i64)\n\n%return_arg = linalg.pooling_nchw_max {dilations = dense<1> : tensor<2xi64>, strides = dense<2> : tensor<2xi64>} ins (%input, %filter: tensor<8x8x128x128xf32>, tensor<3x3xf32>) outs (%init: tensor<8x8x63x63xf32>) -> tensor<8x8x63x63xf32>\n%t = func.call @nanoTime() : () -> (i64)\n%delta = arith.subi %t, %t0 : i64\n%fp = arith.uitofp %delta : i64 to f64\n// func.call @printFlops(%fp) : (f64) -> ()\nfunc.call @printI64(%delta) : (i64) -> ()\nfunc.call @printNewline() : () -> ()\n\nreturn %return_arg : tensor<8x8x63x63xf32> \n}\n\nfunc.func @main(){\n    %c1 = arith.constant 1: index\n    %c0 = arith.constant 0 : index\n    %n = arith.constant 2: index\n    scf.for %i = %c0 to %n step %c1 {\n    %outputmain = func.call @matmul() : () -> tensor<8x8x63x63xf32>\n    }\n    return\n}\n}\n", "loops_data": {"nested_loops": [["%arg3", 0, 8, 1], ["%arg4", 0, 8, 1], ["%arg5", 0, 63, 1], ["%arg6", 0, 63, 1], ["%arg7", 0, 3, 1], ["%arg8", 0, 3, 1]], "op_count": {"+": 0, "-": 0, "*": 0, "/": 0, "exp": 0}, "load_data": [["%arg3", "%arg4", "%arg5 * 2 + %arg7", "%arg6 * 2 + %arg8"], ["%arg3", "%arg4", "%arg5", "%arg6"]], "store_data": []}, "execution_time": 5405171}, "linalg.pooling_nchw_max {dilations = dense<1> : tensor<2xi64>, strides = dense<1> : tensor<2xi64>} ins (%input, %filter: tensor<32x128x128x256xf32>, tensor<5x5xf32>) outs (%init: tensor<32x128x124x252xf32>) -> tensor<32x128x124x252xf32>": {"operation": "linalg.pooling_nchw_max {dilations = dense<1> : tensor<2xi64>, strides = dense<1> : tensor<2xi64>} ins (%input, %filter: tensor<32x128x128x256xf32>, tensor<5x5xf32>) outs (%init: tensor<32x128x124x252xf32>) -> tensor<32x128x124x252xf32>", "wrapped_operation": "func.func @func_call(%input: tensor<32x128x128x256xf32>, %filter: tensor<5x5xf32>, %init: tensor<32x128x124x252xf32>) -> tensor<32x128x124x252xf32> {\n  %ret = linalg.pooling_nchw_max {dilations = dense<1> : tensor<2xi64>, strides = dense<1> : tensor<2xi64>} ins (%input, %filter: tensor<32x128x128x256xf32>, tensor<5x5xf32>) outs (%init: tensor<32x128x124x252xf32>) -> tensor<32x128x124x252xf32>\n  return %ret : tensor<32x128x124x252xf32>\n}", "lowered_operation": "#map = affine_map<(d0, d1) -> (d0 + d1)>\nmodule {\n  func.func @func_call(%arg0: tensor<32x128x128x256xf32>, %arg1: tensor<5x5xf32>, %arg2: tensor<32x128x124x252xf32>) -> tensor<32x128x124x252xf32> {\n    %0 = bufferization.to_memref %arg0 : memref<32x128x128x256xf32>\n    %1 = bufferization.to_memref %arg2 : memref<32x128x124x252xf32>\n    %alloc = memref.alloc() {alignment = 64 : i64} : memref<32x128x124x252xf32>\n    memref.copy %1, %alloc : memref<32x128x124x252xf32> to memref<32x128x124x252xf32>\n    affine.for %arg3 = 0 to 32 {\n      affine.for %arg4 = 0 to 128 {\n        affine.for %arg5 = 0 to 124 {\n          affine.for %arg6 = 0 to 252 {\n            affine.for %arg7 = 0 to 5 {\n              affine.for %arg8 = 0 to 5 {\n                %3 = affine.apply #map(%arg5, %arg7)\n                %4 = affine.apply #map(%arg6, %arg8)\n                %5 = affine.load %0[%arg3, %arg4, %3, %4] : memref<32x128x128x256xf32>\n                %6 = affine.load %alloc[%arg3, %arg4, %arg5, %arg6] : memref<32x128x124x252xf32>\n                %7 = arith.maximumf %6, %5 : f32\n                affine.store %7, %alloc[%arg3, %arg4, %arg5, %arg6] : memref<32x128x124x252xf32>\n              }\n            }\n          }\n        }\n      }\n    }\n    %2 = bufferization.to_tensor %alloc : memref<32x128x124x252xf32>\n    return %2 : tensor<32x128x124x252xf32>\n  }\n}\n\n", "transform_wrapped_operation": "module attributes {torch.debug_module_name = \"Net\"} {\nfunc.func private @nanoTime() -> i64 attributes { llvm.emit_c_interface }\nfunc.func private @printFlops(f64)\nfunc.func private @printI64(i64)\nfunc.func private @printNewline()\nfunc.func private @printMemrefF32(tensor<*xf32>)\n\n\nfunc.func @matmul() -> tensor<32x128x124x252xf32>{\n\n%val = arith.constant 2.00000e+00 : f32\n%zero = arith.constant 0.00000e+00 : f32\n\n%tmp_input = bufferization.alloc_tensor() : tensor<32x128x128x256xf32>\n%input = linalg.fill ins(%val : f32) outs(%tmp_input : tensor<32x128x128x256xf32>) -> tensor<32x128x128x256xf32>\n%tmp_filter = bufferization.alloc_tensor() : tensor<5x5xf32>\n%filter = linalg.fill ins(%val : f32) outs(%tmp_filter : tensor<5x5xf32>) -> tensor<5x5xf32>\n%tmp_init = bufferization.alloc_tensor() : tensor<32x128x124x252xf32>\n%init = linalg.fill ins(%val : f32) outs(%tmp_init : tensor<32x128x124x252xf32>) -> tensor<32x128x124x252xf32>\n\n%t0 = func.call @nanoTime() : () -> (i64)\n\n%return_arg = linalg.pooling_nchw_max {dilations = dense<1> : tensor<2xi64>, strides = dense<1> : tensor<2xi64>} ins (%input, %filter: tensor<32x128x128x256xf32>, tensor<5x5xf32>) outs (%init: tensor<32x128x124x252xf32>) -> tensor<32x128x124x252xf32>\n%t = func.call @nanoTime() : () -> (i64)\n%delta = arith.subi %t, %t0 : i64\n%fp = arith.uitofp %delta : i64 to f64\n// func.call @printFlops(%fp) : (f64) -> ()\nfunc.call @printI64(%delta) : (i64) -> ()\nfunc.call @printNewline() : () -> ()\n\nreturn %return_arg : tensor<32x128x124x252xf32> \n}\n\nfunc.func @main(){\n    %c1 = arith.constant 1: index\n    %c0 = arith.constant 0 : index\n    %n = arith.constant 2: index\n    scf.for %i = %c0 to %n step %c1 {\n    %outputmain = func.call @matmul() : () -> tensor<32x128x124x252xf32>\n    }\n    return\n}\n}\n", "loops_data": {"nested_loops": [["%arg3", 0, 32, 1], ["%arg4", 0, 128, 1], ["%arg5", 0, 124, 1], ["%arg6", 0, 252, 1], ["%arg7", 0, 5, 1], ["%arg8", 0, 5, 1]], "op_count": {"+": 0, "-": 0, "*": 0, "/": 0, "exp": 0}, "load_data": [["%arg3", "%arg4", "%arg5 + %arg7", "%arg6 + %arg8"], ["%arg3", "%arg4", "%arg5", "%arg6"]], "store_data": []}, "execution_time": 10589651134}, "linalg.pooling_nchw_max {dilations = dense<1> : tensor<2xi64>, strides = dense<1> : tensor<2xi64>} ins (%input, %filter: tensor<8x16x512x128xf32>, tensor<5x5xf32>) outs (%init: tensor<8x16x508x124xf32>) -> tensor<8x16x508x124xf32>": {"operation": "linalg.pooling_nchw_max {dilations = dense<1> : tensor<2xi64>, strides = dense<1> : tensor<2xi64>} ins (%input, %filter: tensor<8x16x512x128xf32>, tensor<5x5xf32>) outs (%init: tensor<8x16x508x124xf32>) -> tensor<8x16x508x124xf32>", "wrapped_operation": "func.func @func_call(%input: tensor<8x16x512x128xf32>, %filter: tensor<5x5xf32>, %init: tensor<8x16x508x124xf32>) -> tensor<8x16x508x124xf32> {\n  %ret = linalg.pooling_nchw_max {dilations = dense<1> : tensor<2xi64>, strides = dense<1> : tensor<2xi64>} ins (%input, %filter: tensor<8x16x512x128xf32>, tensor<5x5xf32>) outs (%init: tensor<8x16x508x124xf32>) -> tensor<8x16x508x124xf32>\n  return %ret : tensor<8x16x508x124xf32>\n}", "lowered_operation": "#map = affine_map<(d0, d1) -> (d0 + d1)>\nmodule {\n  func.func @func_call(%arg0: tensor<8x16x512x128xf32>, %arg1: tensor<5x5xf32>, %arg2: tensor<8x16x508x124xf32>) -> tensor<8x16x508x124xf32> {\n    %0 = bufferization.to_memref %arg0 : memref<8x16x512x128xf32>\n    %1 = bufferization.to_memref %arg2 : memref<8x16x508x124xf32>\n    %alloc = memref.alloc() {alignment = 64 : i64} : memref<8x16x508x124xf32>\n    memref.copy %1, %alloc : memref<8x16x508x124xf32> to memref<8x16x508x124xf32>\n    affine.for %arg3 = 0 to 8 {\n      affine.for %arg4 = 0 to 16 {\n        affine.for %arg5 = 0 to 508 {\n          affine.for %arg6 = 0 to 124 {\n            affine.for %arg7 = 0 to 5 {\n              affine.for %arg8 = 0 to 5 {\n                %3 = affine.apply #map(%arg5, %arg7)\n                %4 = affine.apply #map(%arg6, %arg8)\n                %5 = affine.load %0[%arg3, %arg4, %3, %4] : memref<8x16x512x128xf32>\n                %6 = affine.load %alloc[%arg3, %arg4, %arg5, %arg6] : memref<8x16x508x124xf32>\n                %7 = arith.maximumf %6, %5 : f32\n                affine.store %7, %alloc[%arg3, %arg4, %arg5, %arg6] : memref<8x16x508x124xf32>\n              }\n            }\n          }\n        }\n      }\n    }\n    %2 = bufferization.to_tensor %alloc : memref<8x16x508x124xf32>\n    return %2 : tensor<8x16x508x124xf32>\n  }\n}\n\n", "transform_wrapped_operation": "module attributes {torch.debug_module_name = \"Net\"} {\nfunc.func private @nanoTime() -> i64 attributes { llvm.emit_c_interface }\nfunc.func private @printFlops(f64)\nfunc.func private @printI64(i64)\nfunc.func private @printNewline()\nfunc.func private @printMemrefF32(tensor<*xf32>)\n\n\nfunc.func @matmul() -> tensor<8x16x508x124xf32>{\n\n%val = arith.constant 2.00000e+00 : f32\n%zero = arith.constant 0.00000e+00 : f32\n\n%tmp_input = bufferization.alloc_tensor() : tensor<8x16x512x128xf32>\n%input = linalg.fill ins(%val : f32) outs(%tmp_input : tensor<8x16x512x128xf32>) -> tensor<8x16x512x128xf32>\n%tmp_filter = bufferization.alloc_tensor() : tensor<5x5xf32>\n%filter = linalg.fill ins(%val : f32) outs(%tmp_filter : tensor<5x5xf32>) -> tensor<5x5xf32>\n%tmp_init = bufferization.alloc_tensor() : tensor<8x16x508x124xf32>\n%init = linalg.fill ins(%val : f32) outs(%tmp_init : tensor<8x16x508x124xf32>) -> tensor<8x16x508x124xf32>\n\n%t0 = func.call @nanoTime() : () -> (i64)\n\n%return_arg = linalg.pooling_nchw_max {dilations = dense<1> : tensor<2xi64>, strides = dense<1> : tensor<2xi64>} ins (%input, %filter: tensor<8x16x512x128xf32>, tensor<5x5xf32>) outs (%init: tensor<8x16x508x124xf32>) -> tensor<8x16x508x124xf32>\n%t = func.call @nanoTime() : () -> (i64)\n%delta = arith.subi %t, %t0 : i64\n%fp = arith.uitofp %delta : i64 to f64\n// func.call @printFlops(%fp) : (f64) -> ()\nfunc.call @printI64(%delta) : (i64) -> ()\nfunc.call @printNewline() : () -> ()\n\nreturn %return_arg : tensor<8x16x508x124xf32> \n}\n\nfunc.func @main(){\n    %c1 = arith.constant 1: index\n    %c0 = arith.constant 0 : index\n    %n = arith.constant 2: index\n    scf.for %i = %c0 to %n step %c1 {\n    %outputmain = func.call @matmul() : () -> tensor<8x16x508x124xf32>\n    }\n    return\n}\n}\n", "loops_data": {"nested_loops": [["%arg3", 0, 8, 1], ["%arg4", 0, 16, 1], ["%arg5", 0, 508, 1], ["%arg6", 0, 124, 1], ["%arg7", 0, 5, 1], ["%arg8", 0, 5, 1]], "op_count": {"+": 0, "-": 0, "*": 0, "/": 0, "exp": 0}, "load_data": [["%arg3", "%arg4", "%arg5 + %arg7", "%arg6 + %arg8"], ["%arg3", "%arg4", "%arg5", "%arg6"]], "store_data": []}, "execution_time": 667609555}, "linalg.pooling_nchw_max {dilations = dense<1> : tensor<2xi64>, strides = dense<1> : tensor<2xi64>} ins (%input, %filter: tensor<8x64x256x128xf32>, tensor<7x7xf32>) outs (%init: tensor<8x64x250x122xf32>) -> tensor<8x64x250x122xf32>": {"operation": "linalg.pooling_nchw_max {dilations = dense<1> : tensor<2xi64>, strides = dense<1> : tensor<2xi64>} ins (%input, %filter: tensor<8x64x256x128xf32>, tensor<7x7xf32>) outs (%init: tensor<8x64x250x122xf32>) -> tensor<8x64x250x122xf32>", "wrapped_operation": "func.func @func_call(%input: tensor<8x64x256x128xf32>, %filter: tensor<7x7xf32>, %init: tensor<8x64x250x122xf32>) -> tensor<8x64x250x122xf32> {\n  %ret = linalg.pooling_nchw_max {dilations = dense<1> : tensor<2xi64>, strides = dense<1> : tensor<2xi64>} ins (%input, %filter: tensor<8x64x256x128xf32>, tensor<7x7xf32>) outs (%init: tensor<8x64x250x122xf32>) -> tensor<8x64x250x122xf32>\n  return %ret : tensor<8x64x250x122xf32>\n}", "lowered_operation": "#map = affine_map<(d0, d1) -> (d0 + d1)>\nmodule {\n  func.func @func_call(%arg0: tensor<8x64x256x128xf32>, %arg1: tensor<7x7xf32>, %arg2: tensor<8x64x250x122xf32>) -> tensor<8x64x250x122xf32> {\n    %0 = bufferization.to_memref %arg0 : memref<8x64x256x128xf32>\n    %1 = bufferization.to_memref %arg2 : memref<8x64x250x122xf32>\n    %alloc = memref.alloc() {alignment = 64 : i64} : memref<8x64x250x122xf32>\n    memref.copy %1, %alloc : memref<8x64x250x122xf32> to memref<8x64x250x122xf32>\n    affine.for %arg3 = 0 to 8 {\n      affine.for %arg4 = 0 to 64 {\n        affine.for %arg5 = 0 to 250 {\n          affine.for %arg6 = 0 to 122 {\n            affine.for %arg7 = 0 to 7 {\n              affine.for %arg8 = 0 to 7 {\n                %3 = affine.apply #map(%arg5, %arg7)\n                %4 = affine.apply #map(%arg6, %arg8)\n                %5 = affine.load %0[%arg3, %arg4, %3, %4] : memref<8x64x256x128xf32>\n                %6 = affine.load %alloc[%arg3, %arg4, %arg5, %arg6] : memref<8x64x250x122xf32>\n                %7 = arith.maximumf %6, %5 : f32\n                affine.store %7, %alloc[%arg3, %arg4, %arg5, %arg6] : memref<8x64x250x122xf32>\n              }\n            }\n          }\n        }\n      }\n    }\n    %2 = bufferization.to_tensor %alloc : memref<8x64x250x122xf32>\n    return %2 : tensor<8x64x250x122xf32>\n  }\n}\n\n", "transform_wrapped_operation": "module attributes {torch.debug_module_name = \"Net\"} {\nfunc.func private @nanoTime() -> i64 attributes { llvm.emit_c_interface }\nfunc.func private @printFlops(f64)\nfunc.func private @printI64(i64)\nfunc.func private @printNewline()\nfunc.func private @printMemrefF32(tensor<*xf32>)\n\n\nfunc.func @matmul() -> tensor<8x64x250x122xf32>{\n\n%val = arith.constant 2.00000e+00 : f32\n%zero = arith.constant 0.00000e+00 : f32\n\n%tmp_input = bufferization.alloc_tensor() : tensor<8x64x256x128xf32>\n%input = linalg.fill ins(%val : f32) outs(%tmp_input : tensor<8x64x256x128xf32>) -> tensor<8x64x256x128xf32>\n%tmp_filter = bufferization.alloc_tensor() : tensor<7x7xf32>\n%filter = linalg.fill ins(%val : f32) outs(%tmp_filter : tensor<7x7xf32>) -> tensor<7x7xf32>\n%tmp_init = bufferization.alloc_tensor() : tensor<8x64x250x122xf32>\n%init = linalg.fill ins(%val : f32) outs(%tmp_init : tensor<8x64x250x122xf32>) -> tensor<8x64x250x122xf32>\n\n%t0 = func.call @nanoTime() : () -> (i64)\n\n%return_arg = linalg.pooling_nchw_max {dilations = dense<1> : tensor<2xi64>, strides = dense<1> : tensor<2xi64>} ins (%input, %filter: tensor<8x64x256x128xf32>, tensor<7x7xf32>) outs (%init: tensor<8x64x250x122xf32>) -> tensor<8x64x250x122xf32>\n%t = func.call @nanoTime() : () -> (i64)\n%delta = arith.subi %t, %t0 : i64\n%fp = arith.uitofp %delta : i64 to f64\n// func.call @printFlops(%fp) : (f64) -> ()\nfunc.call @printI64(%delta) : (i64) -> ()\nfunc.call @printNewline() : () -> ()\n\nreturn %return_arg : tensor<8x64x250x122xf32> \n}\n\nfunc.func @main(){\n    %c1 = arith.constant 1: index\n    %c0 = arith.constant 0 : index\n    %n = arith.constant 2: index\n    scf.for %i = %c0 to %n step %c1 {\n    %outputmain = func.call @matmul() : () -> tensor<8x64x250x122xf32>\n    }\n    return\n}\n}\n", "loops_data": {"nested_loops": [["%arg3", 0, 8, 1], ["%arg4", 0, 64, 1], ["%arg5", 0, 250, 1], ["%arg6", 0, 122, 1], ["%arg7", 0, 7, 1], ["%arg8", 0, 7, 1]], "op_count": {"+": 0, "-": 0, "*": 0, "/": 0, "exp": 0}, "load_data": [["%arg3", "%arg4", "%arg5 + %arg7", "%arg6 + %arg8"], ["%arg3", "%arg4", "%arg5", "%arg6"]], "store_data": []}, "execution_time": 3045710991}}