[["linalg.conv_2d_nhwc_hwcf {dilations = dense<1> : tensor<2xi64>, strides = dense<1> : tensor<2xi64>} ins(%1, %3 : tensor<512x1x1x224xf32>, tensor<1x1x224x2240xf32>) outs(%7 : tensor<512x1x1x2240xf32>) -> tensor<512x1x1x2240xf32>", {"operation": "linalg.conv_2d_nhwc_hwcf {dilations = dense<1> : tensor<2xi64>, strides = dense<1> : tensor<2xi64>} ins(%1, %3 : tensor<512x1x1x224xf32>, tensor<1x1x224x2240xf32>) outs(%7 : tensor<512x1x1x2240xf32>) -> tensor<512x1x1x2240xf32>", "wrapped_operation": "func.func @func_call(%1: tensor<512x1x1x224xf32>, %3: tensor<1x1x224x2240xf32>, %7: tensor<512x1x1x2240xf32>) -> tensor<512x1x1x2240xf32> {\n  %ret = linalg.conv_2d_nhwc_hwcf {dilations = dense<1> : tensor<2xi64>, strides = dense<1> : tensor<2xi64>} ins(%1, %3 : tensor<512x1x1x224xf32>, tensor<1x1x224x2240xf32>) outs(%7 : tensor<512x1x1x2240xf32>) -> tensor<512x1x1x2240xf32>\n  return %ret : tensor<512x1x1x2240xf32>\n}", "lowered_operation": "#map = affine_map<(d0, d1) -> (d0 + d1)>\nmodule {\n  func.func @func_call(%arg0: tensor<512x1x1x224xf32>, %arg1: tensor<1x1x224x2240xf32>, %arg2: tensor<512x1x1x2240xf32>) -> tensor<512x1x1x2240xf32> {\n    %0 = bufferization.to_memref %arg1 : memref<1x1x224x2240xf32>\n    %1 = bufferization.to_memref %arg0 : memref<512x1x1x224xf32>\n    %2 = bufferization.to_memref %arg2 : memref<512x1x1x2240xf32>\n    %alloc = memref.alloc() {alignment = 64 : i64} : memref<512x1x1x2240xf32>\n    memref.copy %2, %alloc : memref<512x1x1x2240xf32> to memref<512x1x1x2240xf32>\n    affine.for %arg3 = 0 to 512 {\n      affine.for %arg4 = 0 to 1 {\n        affine.for %arg5 = 0 to 1 {\n          affine.for %arg6 = 0 to 2240 {\n            affine.for %arg7 = 0 to 1 {\n              affine.for %arg8 = 0 to 1 {\n                affine.for %arg9 = 0 to 224 {\n                  %4 = affine.apply #map(%arg4, %arg7)\n                  %5 = affine.apply #map(%arg5, %arg8)\n                  %6 = affine.load %1[%arg3, %4, %5, %arg9] : memref<512x1x1x224xf32>\n                  %7 = affine.load %0[%arg7, %arg8, %arg9, %arg6] : memref<1x1x224x2240xf32>\n                  %8 = affine.load %alloc[%arg3, %arg4, %arg5, %arg6] : memref<512x1x1x2240xf32>\n                  %9 = arith.mulf %6, %7 : f32\n                  %10 = arith.addf %8, %9 : f32\n                  affine.store %10, %alloc[%arg3, %arg4, %arg5, %arg6] : memref<512x1x1x2240xf32>\n                }\n              }\n            }\n          }\n        }\n      }\n    }\n    %3 = bufferization.to_tensor %alloc : memref<512x1x1x2240xf32>\n    return %3 : tensor<512x1x1x2240xf32>\n  }\n}\n\n", "transform_wrapped_operation": "func.func private @nanoTime() -> i64 attributes { llvm.emit_c_interface }\nfunc.func private @printFlops(f64)\nfunc.func private @printI64(i64)\nfunc.func private @printNewline()\nfunc.func private @printMemrefF32(tensor<*xf32>)\n\n\nfunc.func @matmul() -> tensor<512x1x1x2240xf32>{\n\n%val = arith.constant 2.00000e+00 : f32\n%zero = arith.constant 0.00000e+00 : f32\n\n%tmp_1 = bufferization.alloc_tensor() : tensor<512x1x1x224xf32>\n%1 = linalg.fill ins(%val : f32) outs(%tmp_1 : tensor<512x1x1x224xf32>) -> tensor<512x1x1x224xf32>\n%tmp_3 = bufferization.alloc_tensor() : tensor<1x1x224x2240xf32>\n%3 = linalg.fill ins(%val : f32) outs(%tmp_3 : tensor<1x1x224x2240xf32>) -> tensor<1x1x224x2240xf32>\n%tmp_7 = bufferization.alloc_tensor() : tensor<512x1x1x2240xf32>\n%7 = linalg.fill ins(%val : f32) outs(%tmp_7 : tensor<512x1x1x2240xf32>) -> tensor<512x1x1x2240xf32>\n\n%t0 = func.call @nanoTime() : () -> (i64)\n\n%return_arg = linalg.conv_2d_nhwc_hwcf {dilations = dense<1> : tensor<2xi64>, strides = dense<1> : tensor<2xi64>} ins(%1, %3 : tensor<512x1x1x224xf32>, tensor<1x1x224x2240xf32>) outs(%7 : tensor<512x1x1x2240xf32>) -> tensor<512x1x1x2240xf32>\n%t = func.call @nanoTime() : () -> (i64)\n%delta = arith.subi %t, %t0 : i64\n%fp = arith.uitofp %delta : i64 to f64\n// func.call @printFlops(%fp) : (f64) -> ()\nfunc.call @printI64(%delta) : (i64) -> ()\nfunc.call @printNewline() : () -> ()\n\nreturn %return_arg : tensor<512x1x1x2240xf32> \n}\n\nfunc.func @main(){\n    %c1 = arith.constant 1: index\n    %c0 = arith.constant 0 : index\n    %n = arith.constant 2: index\n    scf.for %i = %c0 to %n step %c1 {\n    %outputmain = func.call @matmul() : () -> tensor<512x1x1x2240xf32>\n    }\n    return\n}\n\n", "loops_data": {"nested_loops": [["%arg3", 0, 512, 1], ["%arg4", 0, 1, 1], ["%arg5", 0, 1, 1], ["%arg6", 0, 2240, 1], ["%arg7", 0, 1, 1], ["%arg8", 0, 1, 1], ["%arg9", 0, 224, 1]], "op_count": {"+": 1, "-": 0, "*": 1, "/": 0, "exp": 0}, "load_data": [["%arg3", "%arg4 + %arg7", "%arg5 + %arg8", "%arg9"], ["%arg7", "%arg8", "%arg9", "%arg6"], ["%arg3", "%arg4", "%arg5", "%arg6"]], "store_data": ["%arg3", "%arg4", "%arg5", "%arg6"]}, "execution_time": 912597488}], ["linalg.conv_2d_nhwc_hwcf {dilations = dense<1> : tensor<2xi64>, strides = dense<1> : tensor<2xi64>} ins(%1, %3 : tensor<512x1x1x48xf32>, tensor<1x1x48x12xf32>) outs(%7 : tensor<512x1x1x12xf32>) -> tensor<512x1x1x12xf32>", {"operation": "linalg.conv_2d_nhwc_hwcf {dilations = dense<1> : tensor<2xi64>, strides = dense<1> : tensor<2xi64>} ins(%1, %3 : tensor<512x1x1x48xf32>, tensor<1x1x48x12xf32>) outs(%7 : tensor<512x1x1x12xf32>) -> tensor<512x1x1x12xf32>", "wrapped_operation": "func.func @func_call(%1: tensor<512x1x1x48xf32>, %3: tensor<1x1x48x12xf32>, %7: tensor<512x1x1x12xf32>) -> tensor<512x1x1x12xf32> {\n  %ret = linalg.conv_2d_nhwc_hwcf {dilations = dense<1> : tensor<2xi64>, strides = dense<1> : tensor<2xi64>} ins(%1, %3 : tensor<512x1x1x48xf32>, tensor<1x1x48x12xf32>) outs(%7 : tensor<512x1x1x12xf32>) -> tensor<512x1x1x12xf32>\n  return %ret : tensor<512x1x1x12xf32>\n}", "lowered_operation": "#map = affine_map<(d0, d1) -> (d0 + d1)>\nmodule {\n  func.func @func_call(%arg0: tensor<512x1x1x48xf32>, %arg1: tensor<1x1x48x12xf32>, %arg2: tensor<512x1x1x12xf32>) -> tensor<512x1x1x12xf32> {\n    %0 = bufferization.to_memref %arg1 : memref<1x1x48x12xf32>\n    %1 = bufferization.to_memref %arg0 : memref<512x1x1x48xf32>\n    %2 = bufferization.to_memref %arg2 : memref<512x1x1x12xf32>\n    %alloc = memref.alloc() {alignment = 64 : i64} : memref<512x1x1x12xf32>\n    memref.copy %2, %alloc : memref<512x1x1x12xf32> to memref<512x1x1x12xf32>\n    affine.for %arg3 = 0 to 512 {\n      affine.for %arg4 = 0 to 1 {\n        affine.for %arg5 = 0 to 1 {\n          affine.for %arg6 = 0 to 12 {\n            affine.for %arg7 = 0 to 1 {\n              affine.for %arg8 = 0 to 1 {\n                affine.for %arg9 = 0 to 48 {\n                  %4 = affine.apply #map(%arg4, %arg7)\n                  %5 = affine.apply #map(%arg5, %arg8)\n                  %6 = affine.load %1[%arg3, %4, %5, %arg9] : memref<512x1x1x48xf32>\n                  %7 = affine.load %0[%arg7, %arg8, %arg9, %arg6] : memref<1x1x48x12xf32>\n                  %8 = affine.load %alloc[%arg3, %arg4, %arg5, %arg6] : memref<512x1x1x12xf32>\n                  %9 = arith.mulf %6, %7 : f32\n                  %10 = arith.addf %8, %9 : f32\n                  affine.store %10, %alloc[%arg3, %arg4, %arg5, %arg6] : memref<512x1x1x12xf32>\n                }\n              }\n            }\n          }\n        }\n      }\n    }\n    %3 = bufferization.to_tensor %alloc : memref<512x1x1x12xf32>\n    return %3 : tensor<512x1x1x12xf32>\n  }\n}\n\n", "transform_wrapped_operation": "func.func private @nanoTime() -> i64 attributes { llvm.emit_c_interface }\nfunc.func private @printFlops(f64)\nfunc.func private @printI64(i64)\nfunc.func private @printNewline()\nfunc.func private @printMemrefF32(tensor<*xf32>)\n\n\nfunc.func @matmul() -> tensor<512x1x1x12xf32>{\n\n%val = arith.constant 2.00000e+00 : f32\n%zero = arith.constant 0.00000e+00 : f32\n\n%tmp_1 = bufferization.alloc_tensor() : tensor<512x1x1x48xf32>\n%1 = linalg.fill ins(%val : f32) outs(%tmp_1 : tensor<512x1x1x48xf32>) -> tensor<512x1x1x48xf32>\n%tmp_3 = bufferization.alloc_tensor() : tensor<1x1x48x12xf32>\n%3 = linalg.fill ins(%val : f32) outs(%tmp_3 : tensor<1x1x48x12xf32>) -> tensor<1x1x48x12xf32>\n%tmp_7 = bufferization.alloc_tensor() : tensor<512x1x1x12xf32>\n%7 = linalg.fill ins(%val : f32) outs(%tmp_7 : tensor<512x1x1x12xf32>) -> tensor<512x1x1x12xf32>\n\n%t0 = func.call @nanoTime() : () -> (i64)\n\n%return_arg = linalg.conv_2d_nhwc_hwcf {dilations = dense<1> : tensor<2xi64>, strides = dense<1> : tensor<2xi64>} ins(%1, %3 : tensor<512x1x1x48xf32>, tensor<1x1x48x12xf32>) outs(%7 : tensor<512x1x1x12xf32>) -> tensor<512x1x1x12xf32>\n%t = func.call @nanoTime() : () -> (i64)\n%delta = arith.subi %t, %t0 : i64\n%fp = arith.uitofp %delta : i64 to f64\n// func.call @printFlops(%fp) : (f64) -> ()\nfunc.call @printI64(%delta) : (i64) -> ()\nfunc.call @printNewline() : () -> ()\n\nreturn %return_arg : tensor<512x1x1x12xf32> \n}\n\nfunc.func @main(){\n    %c1 = arith.constant 1: index\n    %c0 = arith.constant 0 : index\n    %n = arith.constant 2: index\n    scf.for %i = %c0 to %n step %c1 {\n    %outputmain = func.call @matmul() : () -> tensor<512x1x1x12xf32>\n    }\n    return\n}\n\n", "loops_data": {"nested_loops": [["%arg3", 0, 512, 1], ["%arg4", 0, 1, 1], ["%arg5", 0, 1, 1], ["%arg6", 0, 12, 1], ["%arg7", 0, 1, 1], ["%arg8", 0, 1, 1], ["%arg9", 0, 48, 1]], "op_count": {"+": 1, "-": 0, "*": 1, "/": 0, "exp": 0}, "load_data": [["%arg3", "%arg4 + %arg7", "%arg5 + %arg8", "%arg9"], ["%arg7", "%arg8", "%arg9", "%arg6"], ["%arg3", "%arg4", "%arg5", "%arg6"]], "store_data": ["%arg3", "%arg4", "%arg5", "%arg6"]}, "execution_time": 796958}], ["linalg.conv_2d_nhwc_hwcf {dilations = dense<1> : tensor<2xi64>, strides = dense<1> : tensor<2xi64>} ins(%1, %3 : tensor<512x83x83x42xf32>, tensor<1x1x42x42xf32>) outs(%7 : tensor<512x83x83x42xf32>) -> tensor<512x83x83x42xf32>", {"operation": "linalg.conv_2d_nhwc_hwcf {dilations = dense<1> : tensor<2xi64>, strides = dense<1> : tensor<2xi64>} ins(%1, %3 : tensor<512x83x83x42xf32>, tensor<1x1x42x42xf32>) outs(%7 : tensor<512x83x83x42xf32>) -> tensor<512x83x83x42xf32>", "wrapped_operation": "func.func @func_call(%1: tensor<512x83x83x42xf32>, %3: tensor<1x1x42x42xf32>, %7: tensor<512x83x83x42xf32>) -> tensor<512x83x83x42xf32> {\n  %ret = linalg.conv_2d_nhwc_hwcf {dilations = dense<1> : tensor<2xi64>, strides = dense<1> : tensor<2xi64>} ins(%1, %3 : tensor<512x83x83x42xf32>, tensor<1x1x42x42xf32>) outs(%7 : tensor<512x83x83x42xf32>) -> tensor<512x83x83x42xf32>\n  return %ret : tensor<512x83x83x42xf32>\n}", "lowered_operation": "#map = affine_map<(d0, d1) -> (d0 + d1)>\nmodule {\n  func.func @func_call(%arg0: tensor<512x83x83x42xf32>, %arg1: tensor<1x1x42x42xf32>, %arg2: tensor<512x83x83x42xf32>) -> tensor<512x83x83x42xf32> {\n    %0 = bufferization.to_memref %arg1 : memref<1x1x42x42xf32>\n    %1 = bufferization.to_memref %arg0 : memref<512x83x83x42xf32>\n    %2 = bufferization.to_memref %arg2 : memref<512x83x83x42xf32>\n    %alloc = memref.alloc() {alignment = 64 : i64} : memref<512x83x83x42xf32>\n    memref.copy %2, %alloc : memref<512x83x83x42xf32> to memref<512x83x83x42xf32>\n    affine.for %arg3 = 0 to 512 {\n      affine.for %arg4 = 0 to 83 {\n        affine.for %arg5 = 0 to 83 {\n          affine.for %arg6 = 0 to 42 {\n            affine.for %arg7 = 0 to 1 {\n              affine.for %arg8 = 0 to 1 {\n                affine.for %arg9 = 0 to 42 {\n                  %4 = affine.apply #map(%arg4, %arg7)\n                  %5 = affine.apply #map(%arg5, %arg8)\n                  %6 = affine.load %1[%arg3, %4, %5, %arg9] : memref<512x83x83x42xf32>\n                  %7 = affine.load %0[%arg7, %arg8, %arg9, %arg6] : memref<1x1x42x42xf32>\n                  %8 = affine.load %alloc[%arg3, %arg4, %arg5, %arg6] : memref<512x83x83x42xf32>\n                  %9 = arith.mulf %6, %7 : f32\n                  %10 = arith.addf %8, %9 : f32\n                  affine.store %10, %alloc[%arg3, %arg4, %arg5, %arg6] : memref<512x83x83x42xf32>\n                }\n              }\n            }\n          }\n        }\n      }\n    }\n    %3 = bufferization.to_tensor %alloc : memref<512x83x83x42xf32>\n    return %3 : tensor<512x83x83x42xf32>\n  }\n}\n\n", "transform_wrapped_operation": "func.func private @nanoTime() -> i64 attributes { llvm.emit_c_interface }\nfunc.func private @printFlops(f64)\nfunc.func private @printI64(i64)\nfunc.func private @printNewline()\nfunc.func private @printMemrefF32(tensor<*xf32>)\n\n\nfunc.func @matmul() -> tensor<512x83x83x42xf32>{\n\n%val = arith.constant 2.00000e+00 : f32\n%zero = arith.constant 0.00000e+00 : f32\n\n%tmp_1 = bufferization.alloc_tensor() : tensor<512x83x83x42xf32>\n%1 = linalg.fill ins(%val : f32) outs(%tmp_1 : tensor<512x83x83x42xf32>) -> tensor<512x83x83x42xf32>\n%tmp_3 = bufferization.alloc_tensor() : tensor<1x1x42x42xf32>\n%3 = linalg.fill ins(%val : f32) outs(%tmp_3 : tensor<1x1x42x42xf32>) -> tensor<1x1x42x42xf32>\n%tmp_7 = bufferization.alloc_tensor() : tensor<512x83x83x42xf32>\n%7 = linalg.fill ins(%val : f32) outs(%tmp_7 : tensor<512x83x83x42xf32>) -> tensor<512x83x83x42xf32>\n\n%t0 = func.call @nanoTime() : () -> (i64)\n\n%return_arg = linalg.conv_2d_nhwc_hwcf {dilations = dense<1> : tensor<2xi64>, strides = dense<1> : tensor<2xi64>} ins(%1, %3 : tensor<512x83x83x42xf32>, tensor<1x1x42x42xf32>) outs(%7 : tensor<512x83x83x42xf32>) -> tensor<512x83x83x42xf32>\n%t = func.call @nanoTime() : () -> (i64)\n%delta = arith.subi %t, %t0 : i64\n%fp = arith.uitofp %delta : i64 to f64\n// func.call @printFlops(%fp) : (f64) -> ()\nfunc.call @printI64(%delta) : (i64) -> ()\nfunc.call @printNewline() : () -> ()\n\nreturn %return_arg : tensor<512x83x83x42xf32> \n}\n\nfunc.func @main(){\n    %c1 = arith.constant 1: index\n    %c0 = arith.constant 0 : index\n    %n = arith.constant 2: index\n    scf.for %i = %c0 to %n step %c1 {\n    %outputmain = func.call @matmul() : () -> tensor<512x83x83x42xf32>\n    }\n    return\n}\n\n", "loops_data": {"nested_loops": [["%arg3", 0, 512, 1], ["%arg4", 0, 83, 1], ["%arg5", 0, 83, 1], ["%arg6", 0, 42, 1], ["%arg7", 0, 1, 1], ["%arg8", 0, 1, 1], ["%arg9", 0, 42, 1]], "op_count": {"+": 1, "-": 0, "*": 1, "/": 0, "exp": 0}, "load_data": [["%arg3", "%arg4 + %arg7", "%arg5 + %arg8", "%arg9"], ["%arg7", "%arg8", "%arg9", "%arg6"], ["%arg3", "%arg4", "%arg5", "%arg6"]], "store_data": ["%arg3", "%arg4", "%arg5", "%arg6"]}, "execution_time": 19285756128}], ["linalg.conv_2d_nhwc_hwcf {dilations = dense<1> : tensor<2xi64>, strides = dense<1> : tensor<2xi64>} ins(%1, %3 : tensor<512x14x14x480xf32>, tensor<1x1x480x128xf32>) outs(%7 : tensor<512x14x14x128xf32>) -> tensor<512x14x14x128xf32>", {"operation": "linalg.conv_2d_nhwc_hwcf {dilations = dense<1> : tensor<2xi64>, strides = dense<1> : tensor<2xi64>} ins(%1, %3 : tensor<512x14x14x480xf32>, tensor<1x1x480x128xf32>) outs(%7 : tensor<512x14x14x128xf32>) -> tensor<512x14x14x128xf32>", "wrapped_operation": "func.func @func_call(%1: tensor<512x14x14x480xf32>, %3: tensor<1x1x480x128xf32>, %7: tensor<512x14x14x128xf32>) -> tensor<512x14x14x128xf32> {\n  %ret = linalg.conv_2d_nhwc_hwcf {dilations = dense<1> : tensor<2xi64>, strides = dense<1> : tensor<2xi64>} ins(%1, %3 : tensor<512x14x14x480xf32>, tensor<1x1x480x128xf32>) outs(%7 : tensor<512x14x14x128xf32>) -> tensor<512x14x14x128xf32>\n  return %ret : tensor<512x14x14x128xf32>\n}", "lowered_operation": "#map = affine_map<(d0, d1) -> (d0 + d1)>\nmodule {\n  func.func @func_call(%arg0: tensor<512x14x14x480xf32>, %arg1: tensor<1x1x480x128xf32>, %arg2: tensor<512x14x14x128xf32>) -> tensor<512x14x14x128xf32> {\n    %0 = bufferization.to_memref %arg1 : memref<1x1x480x128xf32>\n    %1 = bufferization.to_memref %arg0 : memref<512x14x14x480xf32>\n    %2 = bufferization.to_memref %arg2 : memref<512x14x14x128xf32>\n    %alloc = memref.alloc() {alignment = 64 : i64} : memref<512x14x14x128xf32>\n    memref.copy %2, %alloc : memref<512x14x14x128xf32> to memref<512x14x14x128xf32>\n    affine.for %arg3 = 0 to 512 {\n      affine.for %arg4 = 0 to 14 {\n        affine.for %arg5 = 0 to 14 {\n          affine.for %arg6 = 0 to 128 {\n            affine.for %arg7 = 0 to 1 {\n              affine.for %arg8 = 0 to 1 {\n                affine.for %arg9 = 0 to 480 {\n                  %4 = affine.apply #map(%arg4, %arg7)\n                  %5 = affine.apply #map(%arg5, %arg8)\n                  %6 = affine.load %1[%arg3, %4, %5, %arg9] : memref<512x14x14x480xf32>\n                  %7 = affine.load %0[%arg7, %arg8, %arg9, %arg6] : memref<1x1x480x128xf32>\n                  %8 = affine.load %alloc[%arg3, %arg4, %arg5, %arg6] : memref<512x14x14x128xf32>\n                  %9 = arith.mulf %6, %7 : f32\n                  %10 = arith.addf %8, %9 : f32\n                  affine.store %10, %alloc[%arg3, %arg4, %arg5, %arg6] : memref<512x14x14x128xf32>\n                }\n              }\n            }\n          }\n        }\n      }\n    }\n    %3 = bufferization.to_tensor %alloc : memref<512x14x14x128xf32>\n    return %3 : tensor<512x14x14x128xf32>\n  }\n}\n\n", "transform_wrapped_operation": "func.func private @nanoTime() -> i64 attributes { llvm.emit_c_interface }\nfunc.func private @printFlops(f64)\nfunc.func private @printI64(i64)\nfunc.func private @printNewline()\nfunc.func private @printMemrefF32(tensor<*xf32>)\n\n\nfunc.func @matmul() -> tensor<512x14x14x128xf32>{\n\n%val = arith.constant 2.00000e+00 : f32\n%zero = arith.constant 0.00000e+00 : f32\n\n%tmp_1 = bufferization.alloc_tensor() : tensor<512x14x14x480xf32>\n%1 = linalg.fill ins(%val : f32) outs(%tmp_1 : tensor<512x14x14x480xf32>) -> tensor<512x14x14x480xf32>\n%tmp_3 = bufferization.alloc_tensor() : tensor<1x1x480x128xf32>\n%3 = linalg.fill ins(%val : f32) outs(%tmp_3 : tensor<1x1x480x128xf32>) -> tensor<1x1x480x128xf32>\n%tmp_7 = bufferization.alloc_tensor() : tensor<512x14x14x128xf32>\n%7 = linalg.fill ins(%val : f32) outs(%tmp_7 : tensor<512x14x14x128xf32>) -> tensor<512x14x14x128xf32>\n\n%t0 = func.call @nanoTime() : () -> (i64)\n\n%return_arg = linalg.conv_2d_nhwc_hwcf {dilations = dense<1> : tensor<2xi64>, strides = dense<1> : tensor<2xi64>} ins(%1, %3 : tensor<512x14x14x480xf32>, tensor<1x1x480x128xf32>) outs(%7 : tensor<512x14x14x128xf32>) -> tensor<512x14x14x128xf32>\n%t = func.call @nanoTime() : () -> (i64)\n%delta = arith.subi %t, %t0 : i64\n%fp = arith.uitofp %delta : i64 to f64\n// func.call @printFlops(%fp) : (f64) -> ()\nfunc.call @printI64(%delta) : (i64) -> ()\nfunc.call @printNewline() : () -> ()\n\nreturn %return_arg : tensor<512x14x14x128xf32> \n}\n\nfunc.func @main(){\n    %c1 = arith.constant 1: index\n    %c0 = arith.constant 0 : index\n    %n = arith.constant 2: index\n    scf.for %i = %c0 to %n step %c1 {\n    %outputmain = func.call @matmul() : () -> tensor<512x14x14x128xf32>\n    }\n    return\n}\n\n", "loops_data": {"nested_loops": [["%arg3", 0, 512, 1], ["%arg4", 0, 14, 1], ["%arg5", 0, 14, 1], ["%arg6", 0, 128, 1], ["%arg7", 0, 1, 1], ["%arg8", 0, 1, 1], ["%arg9", 0, 480, 1]], "op_count": {"+": 1, "-": 0, "*": 1, "/": 0, "exp": 0}, "load_data": [["%arg3", "%arg4 + %arg7", "%arg5 + %arg8", "%arg9"], ["%arg7", "%arg8", "%arg9", "%arg6"], ["%arg3", "%arg4", "%arg5", "%arg6"]], "store_data": ["%arg3", "%arg4", "%arg5", "%arg6"]}, "execution_time": 22916801529}], ["linalg.conv_2d_nhwc_hwcf {dilations = dense<1> : tensor<2xi64>, strides = dense<1> : tensor<2xi64>} ins(%1, %3 : tensor<512x1x1x324xf32>, tensor<1x1x324x1296xf32>) outs(%7 : tensor<512x1x1x1296xf32>) -> tensor<512x1x1x1296xf32>", {"operation": "linalg.conv_2d_nhwc_hwcf {dilations = dense<1> : tensor<2xi64>, strides = dense<1> : tensor<2xi64>} ins(%1, %3 : tensor<512x1x1x324xf32>, tensor<1x1x324x1296xf32>) outs(%7 : tensor<512x1x1x1296xf32>) -> tensor<512x1x1x1296xf32>", "wrapped_operation": "func.func @func_call(%1: tensor<512x1x1x324xf32>, %3: tensor<1x1x324x1296xf32>, %7: tensor<512x1x1x1296xf32>) -> tensor<512x1x1x1296xf32> {\n  %ret = linalg.conv_2d_nhwc_hwcf {dilations = dense<1> : tensor<2xi64>, strides = dense<1> : tensor<2xi64>} ins(%1, %3 : tensor<512x1x1x324xf32>, tensor<1x1x324x1296xf32>) outs(%7 : tensor<512x1x1x1296xf32>) -> tensor<512x1x1x1296xf32>\n  return %ret : tensor<512x1x1x1296xf32>\n}", "lowered_operation": "#map = affine_map<(d0, d1) -> (d0 + d1)>\nmodule {\n  func.func @func_call(%arg0: tensor<512x1x1x324xf32>, %arg1: tensor<1x1x324x1296xf32>, %arg2: tensor<512x1x1x1296xf32>) -> tensor<512x1x1x1296xf32> {\n    %0 = bufferization.to_memref %arg1 : memref<1x1x324x1296xf32>\n    %1 = bufferization.to_memref %arg0 : memref<512x1x1x324xf32>\n    %2 = bufferization.to_memref %arg2 : memref<512x1x1x1296xf32>\n    %alloc = memref.alloc() {alignment = 64 : i64} : memref<512x1x1x1296xf32>\n    memref.copy %2, %alloc : memref<512x1x1x1296xf32> to memref<512x1x1x1296xf32>\n    affine.for %arg3 = 0 to 512 {\n      affine.for %arg4 = 0 to 1 {\n        affine.for %arg5 = 0 to 1 {\n          affine.for %arg6 = 0 to 1296 {\n            affine.for %arg7 = 0 to 1 {\n              affine.for %arg8 = 0 to 1 {\n                affine.for %arg9 = 0 to 324 {\n                  %4 = affine.apply #map(%arg4, %arg7)\n                  %5 = affine.apply #map(%arg5, %arg8)\n                  %6 = affine.load %1[%arg3, %4, %5, %arg9] : memref<512x1x1x324xf32>\n                  %7 = affine.load %0[%arg7, %arg8, %arg9, %arg6] : memref<1x1x324x1296xf32>\n                  %8 = affine.load %alloc[%arg3, %arg4, %arg5, %arg6] : memref<512x1x1x1296xf32>\n                  %9 = arith.mulf %6, %7 : f32\n                  %10 = arith.addf %8, %9 : f32\n                  affine.store %10, %alloc[%arg3, %arg4, %arg5, %arg6] : memref<512x1x1x1296xf32>\n                }\n              }\n            }\n          }\n        }\n      }\n    }\n    %3 = bufferization.to_tensor %alloc : memref<512x1x1x1296xf32>\n    return %3 : tensor<512x1x1x1296xf32>\n  }\n}\n\n", "transform_wrapped_operation": "func.func private @nanoTime() -> i64 attributes { llvm.emit_c_interface }\nfunc.func private @printFlops(f64)\nfunc.func private @printI64(i64)\nfunc.func private @printNewline()\nfunc.func private @printMemrefF32(tensor<*xf32>)\n\n\nfunc.func @matmul() -> tensor<512x1x1x1296xf32>{\n\n%val = arith.constant 2.00000e+00 : f32\n%zero = arith.constant 0.00000e+00 : f32\n\n%tmp_1 = bufferization.alloc_tensor() : tensor<512x1x1x324xf32>\n%1 = linalg.fill ins(%val : f32) outs(%tmp_1 : tensor<512x1x1x324xf32>) -> tensor<512x1x1x324xf32>\n%tmp_3 = bufferization.alloc_tensor() : tensor<1x1x324x1296xf32>\n%3 = linalg.fill ins(%val : f32) outs(%tmp_3 : tensor<1x1x324x1296xf32>) -> tensor<1x1x324x1296xf32>\n%tmp_7 = bufferization.alloc_tensor() : tensor<512x1x1x1296xf32>\n%7 = linalg.fill ins(%val : f32) outs(%tmp_7 : tensor<512x1x1x1296xf32>) -> tensor<512x1x1x1296xf32>\n\n%t0 = func.call @nanoTime() : () -> (i64)\n\n%return_arg = linalg.conv_2d_nhwc_hwcf {dilations = dense<1> : tensor<2xi64>, strides = dense<1> : tensor<2xi64>} ins(%1, %3 : tensor<512x1x1x324xf32>, tensor<1x1x324x1296xf32>) outs(%7 : tensor<512x1x1x1296xf32>) -> tensor<512x1x1x1296xf32>\n%t = func.call @nanoTime() : () -> (i64)\n%delta = arith.subi %t, %t0 : i64\n%fp = arith.uitofp %delta : i64 to f64\n// func.call @printFlops(%fp) : (f64) -> ()\nfunc.call @printI64(%delta) : (i64) -> ()\nfunc.call @printNewline() : () -> ()\n\nreturn %return_arg : tensor<512x1x1x1296xf32> \n}\n\nfunc.func @main(){\n    %c1 = arith.constant 1: index\n    %c0 = arith.constant 0 : index\n    %n = arith.constant 2: index\n    scf.for %i = %c0 to %n step %c1 {\n    %outputmain = func.call @matmul() : () -> tensor<512x1x1x1296xf32>\n    }\n    return\n}\n\n", "loops_data": {"nested_loops": [["%arg3", 0, 512, 1], ["%arg4", 0, 1, 1], ["%arg5", 0, 1, 1], ["%arg6", 0, 1296, 1], ["%arg7", 0, 1, 1], ["%arg8", 0, 1, 1], ["%arg9", 0, 324, 1]], "op_count": {"+": 1, "-": 0, "*": 1, "/": 0, "exp": 0}, "load_data": [["%arg3", "%arg4 + %arg7", "%arg5 + %arg8", "%arg9"], ["%arg7", "%arg8", "%arg9", "%arg6"], ["%arg3", "%arg4", "%arg5", "%arg6"]], "store_data": ["%arg3", "%arg4", "%arg5", "%arg6"]}, "execution_time": 778655772}], ["linalg.conv_2d_nhwc_hwcf {dilations = dense<1> : tensor<2xi64>, strides = dense<1> : tensor<2xi64>} ins(%1, %3 : tensor<512x56x56x48xf32>, tensor<1x1x48x104xf32>) outs(%7 : tensor<512x28x28x104xf32>) -> tensor<512x28x28x104xf32>", {"operation": "linalg.conv_2d_nhwc_hwcf {dilations = dense<1> : tensor<2xi64>, strides = dense<1> : tensor<2xi64>} ins(%1, %3 : tensor<512x56x56x48xf32>, tensor<1x1x48x104xf32>) outs(%7 : tensor<512x28x28x104xf32>) -> tensor<512x28x28x104xf32>", "wrapped_operation": "func.func @func_call(%1: tensor<512x56x56x48xf32>, %3: tensor<1x1x48x104xf32>, %7: tensor<512x28x28x104xf32>) -> tensor<512x28x28x104xf32> {\n  %ret = linalg.conv_2d_nhwc_hwcf {dilations = dense<1> : tensor<2xi64>, strides = dense<1> : tensor<2xi64>} ins(%1, %3 : tensor<512x56x56x48xf32>, tensor<1x1x48x104xf32>) outs(%7 : tensor<512x28x28x104xf32>) -> tensor<512x28x28x104xf32>\n  return %ret : tensor<512x28x28x104xf32>\n}", "lowered_operation": "#map = affine_map<(d0, d1) -> (d0 + d1)>\nmodule {\n  func.func @func_call(%arg0: tensor<512x56x56x48xf32>, %arg1: tensor<1x1x48x104xf32>, %arg2: tensor<512x28x28x104xf32>) -> tensor<512x28x28x104xf32> {\n    %0 = bufferization.to_memref %arg1 : memref<1x1x48x104xf32>\n    %1 = bufferization.to_memref %arg0 : memref<512x56x56x48xf32>\n    %2 = bufferization.to_memref %arg2 : memref<512x28x28x104xf32>\n    %alloc = memref.alloc() {alignment = 64 : i64} : memref<512x28x28x104xf32>\n    memref.copy %2, %alloc : memref<512x28x28x104xf32> to memref<512x28x28x104xf32>\n    affine.for %arg3 = 0 to 512 {\n      affine.for %arg4 = 0 to 28 {\n        affine.for %arg5 = 0 to 28 {\n          affine.for %arg6 = 0 to 104 {\n            affine.for %arg7 = 0 to 1 {\n              affine.for %arg8 = 0 to 1 {\n                affine.for %arg9 = 0 to 48 {\n                  %4 = affine.apply #map(%arg4, %arg7)\n                  %5 = affine.apply #map(%arg5, %arg8)\n                  %6 = affine.load %1[%arg3, %4, %5, %arg9] : memref<512x56x56x48xf32>\n                  %7 = affine.load %0[%arg7, %arg8, %arg9, %arg6] : memref<1x1x48x104xf32>\n                  %8 = affine.load %alloc[%arg3, %arg4, %arg5, %arg6] : memref<512x28x28x104xf32>\n                  %9 = arith.mulf %6, %7 : f32\n                  %10 = arith.addf %8, %9 : f32\n                  affine.store %10, %alloc[%arg3, %arg4, %arg5, %arg6] : memref<512x28x28x104xf32>\n                }\n              }\n            }\n          }\n        }\n      }\n    }\n    %3 = bufferization.to_tensor %alloc : memref<512x28x28x104xf32>\n    return %3 : tensor<512x28x28x104xf32>\n  }\n}\n\n", "transform_wrapped_operation": "func.func private @nanoTime() -> i64 attributes { llvm.emit_c_interface }\nfunc.func private @printFlops(f64)\nfunc.func private @printI64(i64)\nfunc.func private @printNewline()\nfunc.func private @printMemrefF32(tensor<*xf32>)\n\n\nfunc.func @matmul() -> tensor<512x28x28x104xf32>{\n\n%val = arith.constant 2.00000e+00 : f32\n%zero = arith.constant 0.00000e+00 : f32\n\n%tmp_1 = bufferization.alloc_tensor() : tensor<512x56x56x48xf32>\n%1 = linalg.fill ins(%val : f32) outs(%tmp_1 : tensor<512x56x56x48xf32>) -> tensor<512x56x56x48xf32>\n%tmp_3 = bufferization.alloc_tensor() : tensor<1x1x48x104xf32>\n%3 = linalg.fill ins(%val : f32) outs(%tmp_3 : tensor<1x1x48x104xf32>) -> tensor<1x1x48x104xf32>\n%tmp_7 = bufferization.alloc_tensor() : tensor<512x28x28x104xf32>\n%7 = linalg.fill ins(%val : f32) outs(%tmp_7 : tensor<512x28x28x104xf32>) -> tensor<512x28x28x104xf32>\n\n%t0 = func.call @nanoTime() : () -> (i64)\n\n%return_arg = linalg.conv_2d_nhwc_hwcf {dilations = dense<1> : tensor<2xi64>, strides = dense<1> : tensor<2xi64>} ins(%1, %3 : tensor<512x56x56x48xf32>, tensor<1x1x48x104xf32>) outs(%7 : tensor<512x28x28x104xf32>) -> tensor<512x28x28x104xf32>\n%t = func.call @nanoTime() : () -> (i64)\n%delta = arith.subi %t, %t0 : i64\n%fp = arith.uitofp %delta : i64 to f64\n// func.call @printFlops(%fp) : (f64) -> ()\nfunc.call @printI64(%delta) : (i64) -> ()\nfunc.call @printNewline() : () -> ()\n\nreturn %return_arg : tensor<512x28x28x104xf32> \n}\n\nfunc.func @main(){\n    %c1 = arith.constant 1: index\n    %c0 = arith.constant 0 : index\n    %n = arith.constant 2: index\n    scf.for %i = %c0 to %n step %c1 {\n    %outputmain = func.call @matmul() : () -> tensor<512x28x28x104xf32>\n    }\n    return\n}\n\n", "loops_data": {"nested_loops": [["%arg3", 0, 512, 1], ["%arg4", 0, 28, 1], ["%arg5", 0, 28, 1], ["%arg6", 0, 104, 1], ["%arg7", 0, 1, 1], ["%arg8", 0, 1, 1], ["%arg9", 0, 48, 1]], "op_count": {"+": 1, "-": 0, "*": 1, "/": 0, "exp": 0}, "load_data": [["%arg3", "%arg4 + %arg7", "%arg5 + %arg8", "%arg9"], ["%arg7", "%arg8", "%arg9", "%arg6"], ["%arg3", "%arg4", "%arg5", "%arg6"]], "store_data": ["%arg3", "%arg4", "%arg5", "%arg6"]}, "execution_time": 6266716527}], ["linalg.conv_2d_nhwc_hwcf {dilations = dense<1> : tensor<2xi64>, strides = dense<1> : tensor<2xi64>} ins(%1, %3 : tensor<512x7x7x1216xf32>, tensor<1x1x1216x128xf32>) outs(%7 : tensor<512x7x7x128xf32>) -> tensor<512x7x7x128xf32>", {"operation": "linalg.conv_2d_nhwc_hwcf {dilations = dense<1> : tensor<2xi64>, strides = dense<1> : tensor<2xi64>} ins(%1, %3 : tensor<512x7x7x1216xf32>, tensor<1x1x1216x128xf32>) outs(%7 : tensor<512x7x7x128xf32>) -> tensor<512x7x7x128xf32>", "wrapped_operation": "func.func @func_call(%1: tensor<512x7x7x1216xf32>, %3: tensor<1x1x1216x128xf32>, %7: tensor<512x7x7x128xf32>) -> tensor<512x7x7x128xf32> {\n  %ret = linalg.conv_2d_nhwc_hwcf {dilations = dense<1> : tensor<2xi64>, strides = dense<1> : tensor<2xi64>} ins(%1, %3 : tensor<512x7x7x1216xf32>, tensor<1x1x1216x128xf32>) outs(%7 : tensor<512x7x7x128xf32>) -> tensor<512x7x7x128xf32>\n  return %ret : tensor<512x7x7x128xf32>\n}", "lowered_operation": "#map = affine_map<(d0, d1) -> (d0 + d1)>\nmodule {\n  func.func @func_call(%arg0: tensor<512x7x7x1216xf32>, %arg1: tensor<1x1x1216x128xf32>, %arg2: tensor<512x7x7x128xf32>) -> tensor<512x7x7x128xf32> {\n    %0 = bufferization.to_memref %arg1 : memref<1x1x1216x128xf32>\n    %1 = bufferization.to_memref %arg0 : memref<512x7x7x1216xf32>\n    %2 = bufferization.to_memref %arg2 : memref<512x7x7x128xf32>\n    %alloc = memref.alloc() {alignment = 64 : i64} : memref<512x7x7x128xf32>\n    memref.copy %2, %alloc : memref<512x7x7x128xf32> to memref<512x7x7x128xf32>\n    affine.for %arg3 = 0 to 512 {\n      affine.for %arg4 = 0 to 7 {\n        affine.for %arg5 = 0 to 7 {\n          affine.for %arg6 = 0 to 128 {\n            affine.for %arg7 = 0 to 1 {\n              affine.for %arg8 = 0 to 1 {\n                affine.for %arg9 = 0 to 1216 {\n                  %4 = affine.apply #map(%arg4, %arg7)\n                  %5 = affine.apply #map(%arg5, %arg8)\n                  %6 = affine.load %1[%arg3, %4, %5, %arg9] : memref<512x7x7x1216xf32>\n                  %7 = affine.load %0[%arg7, %arg8, %arg9, %arg6] : memref<1x1x1216x128xf32>\n                  %8 = affine.load %alloc[%arg3, %arg4, %arg5, %arg6] : memref<512x7x7x128xf32>\n                  %9 = arith.mulf %6, %7 : f32\n                  %10 = arith.addf %8, %9 : f32\n                  affine.store %10, %alloc[%arg3, %arg4, %arg5, %arg6] : memref<512x7x7x128xf32>\n                }\n              }\n            }\n          }\n        }\n      }\n    }\n    %3 = bufferization.to_tensor %alloc : memref<512x7x7x128xf32>\n    return %3 : tensor<512x7x7x128xf32>\n  }\n}\n\n", "transform_wrapped_operation": "func.func private @nanoTime() -> i64 attributes { llvm.emit_c_interface }\nfunc.func private @printFlops(f64)\nfunc.func private @printI64(i64)\nfunc.func private @printNewline()\nfunc.func private @printMemrefF32(tensor<*xf32>)\n\n\nfunc.func @matmul() -> tensor<512x7x7x128xf32>{\n\n%val = arith.constant 2.00000e+00 : f32\n%zero = arith.constant 0.00000e+00 : f32\n\n%tmp_1 = bufferization.alloc_tensor() : tensor<512x7x7x1216xf32>\n%1 = linalg.fill ins(%val : f32) outs(%tmp_1 : tensor<512x7x7x1216xf32>) -> tensor<512x7x7x1216xf32>\n%tmp_3 = bufferization.alloc_tensor() : tensor<1x1x1216x128xf32>\n%3 = linalg.fill ins(%val : f32) outs(%tmp_3 : tensor<1x1x1216x128xf32>) -> tensor<1x1x1216x128xf32>\n%tmp_7 = bufferization.alloc_tensor() : tensor<512x7x7x128xf32>\n%7 = linalg.fill ins(%val : f32) outs(%tmp_7 : tensor<512x7x7x128xf32>) -> tensor<512x7x7x128xf32>\n\n%t0 = func.call @nanoTime() : () -> (i64)\n\n%return_arg = linalg.conv_2d_nhwc_hwcf {dilations = dense<1> : tensor<2xi64>, strides = dense<1> : tensor<2xi64>} ins(%1, %3 : tensor<512x7x7x1216xf32>, tensor<1x1x1216x128xf32>) outs(%7 : tensor<512x7x7x128xf32>) -> tensor<512x7x7x128xf32>\n%t = func.call @nanoTime() : () -> (i64)\n%delta = arith.subi %t, %t0 : i64\n%fp = arith.uitofp %delta : i64 to f64\n// func.call @printFlops(%fp) : (f64) -> ()\nfunc.call @printI64(%delta) : (i64) -> ()\nfunc.call @printNewline() : () -> ()\n\nreturn %return_arg : tensor<512x7x7x128xf32> \n}\n\nfunc.func @main(){\n    %c1 = arith.constant 1: index\n    %c0 = arith.constant 0 : index\n    %n = arith.constant 2: index\n    scf.for %i = %c0 to %n step %c1 {\n    %outputmain = func.call @matmul() : () -> tensor<512x7x7x128xf32>\n    }\n    return\n}\n\n", "loops_data": {"nested_loops": [["%arg3", 0, 512, 1], ["%arg4", 0, 7, 1], ["%arg5", 0, 7, 1], ["%arg6", 0, 128, 1], ["%arg7", 0, 1, 1], ["%arg8", 0, 1, 1], ["%arg9", 0, 1216, 1]], "op_count": {"+": 1, "-": 0, "*": 1, "/": 0, "exp": 0}, "load_data": [["%arg3", "%arg4 + %arg7", "%arg5 + %arg8", "%arg9"], ["%arg7", "%arg8", "%arg9", "%arg6"], ["%arg3", "%arg4", "%arg5", "%arg6"]], "store_data": ["%arg3", "%arg4", "%arg5", "%arg6"]}, "execution_time": 14660980834}], ["linalg.conv_2d_nhwc_hwcf {dilations = dense<1> : tensor<2xi64>, strides = dense<1> : tensor<2xi64>} ins(%1, %3 : tensor<512x1x1x448xf32>, tensor<1x1x448x42xf32>) outs(%7 : tensor<512x1x1x42xf32>) -> tensor<512x1x1x42xf32>", {"operation": "linalg.conv_2d_nhwc_hwcf {dilations = dense<1> : tensor<2xi64>, strides = dense<1> : tensor<2xi64>} ins(%1, %3 : tensor<512x1x1x448xf32>, tensor<1x1x448x42xf32>) outs(%7 : tensor<512x1x1x42xf32>) -> tensor<512x1x1x42xf32>", "wrapped_operation": "func.func @func_call(%1: tensor<512x1x1x448xf32>, %3: tensor<1x1x448x42xf32>, %7: tensor<512x1x1x42xf32>) -> tensor<512x1x1x42xf32> {\n  %ret = linalg.conv_2d_nhwc_hwcf {dilations = dense<1> : tensor<2xi64>, strides = dense<1> : tensor<2xi64>} ins(%1, %3 : tensor<512x1x1x448xf32>, tensor<1x1x448x42xf32>) outs(%7 : tensor<512x1x1x42xf32>) -> tensor<512x1x1x42xf32>\n  return %ret : tensor<512x1x1x42xf32>\n}", "lowered_operation": "#map = affine_map<(d0, d1) -> (d0 + d1)>\nmodule {\n  func.func @func_call(%arg0: tensor<512x1x1x448xf32>, %arg1: tensor<1x1x448x42xf32>, %arg2: tensor<512x1x1x42xf32>) -> tensor<512x1x1x42xf32> {\n    %0 = bufferization.to_memref %arg1 : memref<1x1x448x42xf32>\n    %1 = bufferization.to_memref %arg0 : memref<512x1x1x448xf32>\n    %2 = bufferization.to_memref %arg2 : memref<512x1x1x42xf32>\n    %alloc = memref.alloc() {alignment = 64 : i64} : memref<512x1x1x42xf32>\n    memref.copy %2, %alloc : memref<512x1x1x42xf32> to memref<512x1x1x42xf32>\n    affine.for %arg3 = 0 to 512 {\n      affine.for %arg4 = 0 to 1 {\n        affine.for %arg5 = 0 to 1 {\n          affine.for %arg6 = 0 to 42 {\n            affine.for %arg7 = 0 to 1 {\n              affine.for %arg8 = 0 to 1 {\n                affine.for %arg9 = 0 to 448 {\n                  %4 = affine.apply #map(%arg4, %arg7)\n                  %5 = affine.apply #map(%arg5, %arg8)\n                  %6 = affine.load %1[%arg3, %4, %5, %arg9] : memref<512x1x1x448xf32>\n                  %7 = affine.load %0[%arg7, %arg8, %arg9, %arg6] : memref<1x1x448x42xf32>\n                  %8 = affine.load %alloc[%arg3, %arg4, %arg5, %arg6] : memref<512x1x1x42xf32>\n                  %9 = arith.mulf %6, %7 : f32\n                  %10 = arith.addf %8, %9 : f32\n                  affine.store %10, %alloc[%arg3, %arg4, %arg5, %arg6] : memref<512x1x1x42xf32>\n                }\n              }\n            }\n          }\n        }\n      }\n    }\n    %3 = bufferization.to_tensor %alloc : memref<512x1x1x42xf32>\n    return %3 : tensor<512x1x1x42xf32>\n  }\n}\n\n", "transform_wrapped_operation": "func.func private @nanoTime() -> i64 attributes { llvm.emit_c_interface }\nfunc.func private @printFlops(f64)\nfunc.func private @printI64(i64)\nfunc.func private @printNewline()\nfunc.func private @printMemrefF32(tensor<*xf32>)\n\n\nfunc.func @matmul() -> tensor<512x1x1x42xf32>{\n\n%val = arith.constant 2.00000e+00 : f32\n%zero = arith.constant 0.00000e+00 : f32\n\n%tmp_1 = bufferization.alloc_tensor() : tensor<512x1x1x448xf32>\n%1 = linalg.fill ins(%val : f32) outs(%tmp_1 : tensor<512x1x1x448xf32>) -> tensor<512x1x1x448xf32>\n%tmp_3 = bufferization.alloc_tensor() : tensor<1x1x448x42xf32>\n%3 = linalg.fill ins(%val : f32) outs(%tmp_3 : tensor<1x1x448x42xf32>) -> tensor<1x1x448x42xf32>\n%tmp_7 = bufferization.alloc_tensor() : tensor<512x1x1x42xf32>\n%7 = linalg.fill ins(%val : f32) outs(%tmp_7 : tensor<512x1x1x42xf32>) -> tensor<512x1x1x42xf32>\n\n%t0 = func.call @nanoTime() : () -> (i64)\n\n%return_arg = linalg.conv_2d_nhwc_hwcf {dilations = dense<1> : tensor<2xi64>, strides = dense<1> : tensor<2xi64>} ins(%1, %3 : tensor<512x1x1x448xf32>, tensor<1x1x448x42xf32>) outs(%7 : tensor<512x1x1x42xf32>) -> tensor<512x1x1x42xf32>\n%t = func.call @nanoTime() : () -> (i64)\n%delta = arith.subi %t, %t0 : i64\n%fp = arith.uitofp %delta : i64 to f64\n// func.call @printFlops(%fp) : (f64) -> ()\nfunc.call @printI64(%delta) : (i64) -> ()\nfunc.call @printNewline() : () -> ()\n\nreturn %return_arg : tensor<512x1x1x42xf32> \n}\n\nfunc.func @main(){\n    %c1 = arith.constant 1: index\n    %c0 = arith.constant 0 : index\n    %n = arith.constant 2: index\n    scf.for %i = %c0 to %n step %c1 {\n    %outputmain = func.call @matmul() : () -> tensor<512x1x1x42xf32>\n    }\n    return\n}\n\n", "loops_data": {"nested_loops": [["%arg3", 0, 512, 1], ["%arg4", 0, 1, 1], ["%arg5", 0, 1, 1], ["%arg6", 0, 42, 1], ["%arg7", 0, 1, 1], ["%arg8", 0, 1, 1], ["%arg9", 0, 448, 1]], "op_count": {"+": 1, "-": 0, "*": 1, "/": 0, "exp": 0}, "load_data": [["%arg3", "%arg4 + %arg7", "%arg5 + %arg8", "%arg9"], ["%arg7", "%arg8", "%arg9", "%arg6"], ["%arg3", "%arg4", "%arg5", "%arg6"]], "store_data": ["%arg3", "%arg4", "%arg5", "%arg6"]}, "execution_time": 35246261}], ["linalg.conv_2d_nhwc_hwcf {dilations = dense<1> : tensor<2xi64>, strides = dense<1> : tensor<2xi64>} ins(%1, %3 : tensor<512x7x7x1824xf32>, tensor<1x1x1824x128xf32>) outs(%7 : tensor<512x7x7x128xf32>) -> tensor<512x7x7x128xf32>", {"operation": "linalg.conv_2d_nhwc_hwcf {dilations = dense<1> : tensor<2xi64>, strides = dense<1> : tensor<2xi64>} ins(%1, %3 : tensor<512x7x7x1824xf32>, tensor<1x1x1824x128xf32>) outs(%7 : tensor<512x7x7x128xf32>) -> tensor<512x7x7x128xf32>", "wrapped_operation": "func.func @func_call(%1: tensor<512x7x7x1824xf32>, %3: tensor<1x1x1824x128xf32>, %7: tensor<512x7x7x128xf32>) -> tensor<512x7x7x128xf32> {\n  %ret = linalg.conv_2d_nhwc_hwcf {dilations = dense<1> : tensor<2xi64>, strides = dense<1> : tensor<2xi64>} ins(%1, %3 : tensor<512x7x7x1824xf32>, tensor<1x1x1824x128xf32>) outs(%7 : tensor<512x7x7x128xf32>) -> tensor<512x7x7x128xf32>\n  return %ret : tensor<512x7x7x128xf32>\n}", "lowered_operation": "#map = affine_map<(d0, d1) -> (d0 + d1)>\nmodule {\n  func.func @func_call(%arg0: tensor<512x7x7x1824xf32>, %arg1: tensor<1x1x1824x128xf32>, %arg2: tensor<512x7x7x128xf32>) -> tensor<512x7x7x128xf32> {\n    %0 = bufferization.to_memref %arg1 : memref<1x1x1824x128xf32>\n    %1 = bufferization.to_memref %arg0 : memref<512x7x7x1824xf32>\n    %2 = bufferization.to_memref %arg2 : memref<512x7x7x128xf32>\n    %alloc = memref.alloc() {alignment = 64 : i64} : memref<512x7x7x128xf32>\n    memref.copy %2, %alloc : memref<512x7x7x128xf32> to memref<512x7x7x128xf32>\n    affine.for %arg3 = 0 to 512 {\n      affine.for %arg4 = 0 to 7 {\n        affine.for %arg5 = 0 to 7 {\n          affine.for %arg6 = 0 to 128 {\n            affine.for %arg7 = 0 to 1 {\n              affine.for %arg8 = 0 to 1 {\n                affine.for %arg9 = 0 to 1824 {\n                  %4 = affine.apply #map(%arg4, %arg7)\n                  %5 = affine.apply #map(%arg5, %arg8)\n                  %6 = affine.load %1[%arg3, %4, %5, %arg9] : memref<512x7x7x1824xf32>\n                  %7 = affine.load %0[%arg7, %arg8, %arg9, %arg6] : memref<1x1x1824x128xf32>\n                  %8 = affine.load %alloc[%arg3, %arg4, %arg5, %arg6] : memref<512x7x7x128xf32>\n                  %9 = arith.mulf %6, %7 : f32\n                  %10 = arith.addf %8, %9 : f32\n                  affine.store %10, %alloc[%arg3, %arg4, %arg5, %arg6] : memref<512x7x7x128xf32>\n                }\n              }\n            }\n          }\n        }\n      }\n    }\n    %3 = bufferization.to_tensor %alloc : memref<512x7x7x128xf32>\n    return %3 : tensor<512x7x7x128xf32>\n  }\n}\n\n", "transform_wrapped_operation": "func.func private @nanoTime() -> i64 attributes { llvm.emit_c_interface }\nfunc.func private @printFlops(f64)\nfunc.func private @printI64(i64)\nfunc.func private @printNewline()\nfunc.func private @printMemrefF32(tensor<*xf32>)\n\n\nfunc.func @matmul() -> tensor<512x7x7x128xf32>{\n\n%val = arith.constant 2.00000e+00 : f32\n%zero = arith.constant 0.00000e+00 : f32\n\n%tmp_1 = bufferization.alloc_tensor() : tensor<512x7x7x1824xf32>\n%1 = linalg.fill ins(%val : f32) outs(%tmp_1 : tensor<512x7x7x1824xf32>) -> tensor<512x7x7x1824xf32>\n%tmp_3 = bufferization.alloc_tensor() : tensor<1x1x1824x128xf32>\n%3 = linalg.fill ins(%val : f32) outs(%tmp_3 : tensor<1x1x1824x128xf32>) -> tensor<1x1x1824x128xf32>\n%tmp_7 = bufferization.alloc_tensor() : tensor<512x7x7x128xf32>\n%7 = linalg.fill ins(%val : f32) outs(%tmp_7 : tensor<512x7x7x128xf32>) -> tensor<512x7x7x128xf32>\n\n%t0 = func.call @nanoTime() : () -> (i64)\n\n%return_arg = linalg.conv_2d_nhwc_hwcf {dilations = dense<1> : tensor<2xi64>, strides = dense<1> : tensor<2xi64>} ins(%1, %3 : tensor<512x7x7x1824xf32>, tensor<1x1x1824x128xf32>) outs(%7 : tensor<512x7x7x128xf32>) -> tensor<512x7x7x128xf32>\n%t = func.call @nanoTime() : () -> (i64)\n%delta = arith.subi %t, %t0 : i64\n%fp = arith.uitofp %delta : i64 to f64\n// func.call @printFlops(%fp) : (f64) -> ()\nfunc.call @printI64(%delta) : (i64) -> ()\nfunc.call @printNewline() : () -> ()\n\nreturn %return_arg : tensor<512x7x7x128xf32> \n}\n\nfunc.func @main(){\n    %c1 = arith.constant 1: index\n    %c0 = arith.constant 0 : index\n    %n = arith.constant 2: index\n    scf.for %i = %c0 to %n step %c1 {\n    %outputmain = func.call @matmul() : () -> tensor<512x7x7x128xf32>\n    }\n    return\n}\n\n", "loops_data": {"nested_loops": [["%arg3", 0, 512, 1], ["%arg4", 0, 7, 1], ["%arg5", 0, 7, 1], ["%arg6", 0, 128, 1], ["%arg7", 0, 1, 1], ["%arg8", 0, 1, 1], ["%arg9", 0, 1824, 1]], "op_count": {"+": 1, "-": 0, "*": 1, "/": 0, "exp": 0}, "load_data": [["%arg3", "%arg4 + %arg7", "%arg5 + %arg8", "%arg9"], ["%arg7", "%arg8", "%arg9", "%arg6"], ["%arg3", "%arg4", "%arg5", "%arg6"]], "store_data": ["%arg3", "%arg4", "%arg5", "%arg6"]}, "execution_time": 22038864106}], ["linalg.conv_2d_nhwc_hwcf {dilations = dense<1> : tensor<2xi64>, strides = dense<1> : tensor<2xi64>} ins(%1, %3 : tensor<512x1x1x32xf32>, tensor<1x1x32x128xf32>) outs(%7 : tensor<512x1x1x128xf32>) -> tensor<512x1x1x128xf32>", {"operation": "linalg.conv_2d_nhwc_hwcf {dilations = dense<1> : tensor<2xi64>, strides = dense<1> : tensor<2xi64>} ins(%1, %3 : tensor<512x1x1x32xf32>, tensor<1x1x32x128xf32>) outs(%7 : tensor<512x1x1x128xf32>) -> tensor<512x1x1x128xf32>", "wrapped_operation": "func.func @func_call(%1: tensor<512x1x1x32xf32>, %3: tensor<1x1x32x128xf32>, %7: tensor<512x1x1x128xf32>) -> tensor<512x1x1x128xf32> {\n  %ret = linalg.conv_2d_nhwc_hwcf {dilations = dense<1> : tensor<2xi64>, strides = dense<1> : tensor<2xi64>} ins(%1, %3 : tensor<512x1x1x32xf32>, tensor<1x1x32x128xf32>) outs(%7 : tensor<512x1x1x128xf32>) -> tensor<512x1x1x128xf32>\n  return %ret : tensor<512x1x1x128xf32>\n}", "lowered_operation": "#map = affine_map<(d0, d1) -> (d0 + d1)>\nmodule {\n  func.func @func_call(%arg0: tensor<512x1x1x32xf32>, %arg1: tensor<1x1x32x128xf32>, %arg2: tensor<512x1x1x128xf32>) -> tensor<512x1x1x128xf32> {\n    %0 = bufferization.to_memref %arg1 : memref<1x1x32x128xf32>\n    %1 = bufferization.to_memref %arg0 : memref<512x1x1x32xf32>\n    %2 = bufferization.to_memref %arg2 : memref<512x1x1x128xf32>\n    %alloc = memref.alloc() {alignment = 64 : i64} : memref<512x1x1x128xf32>\n    memref.copy %2, %alloc : memref<512x1x1x128xf32> to memref<512x1x1x128xf32>\n    affine.for %arg3 = 0 to 512 {\n      affine.for %arg4 = 0 to 1 {\n        affine.for %arg5 = 0 to 1 {\n          affine.for %arg6 = 0 to 128 {\n            affine.for %arg7 = 0 to 1 {\n              affine.for %arg8 = 0 to 1 {\n                affine.for %arg9 = 0 to 32 {\n                  %4 = affine.apply #map(%arg4, %arg7)\n                  %5 = affine.apply #map(%arg5, %arg8)\n                  %6 = affine.load %1[%arg3, %4, %5, %arg9] : memref<512x1x1x32xf32>\n                  %7 = affine.load %0[%arg7, %arg8, %arg9, %arg6] : memref<1x1x32x128xf32>\n                  %8 = affine.load %alloc[%arg3, %arg4, %arg5, %arg6] : memref<512x1x1x128xf32>\n                  %9 = arith.mulf %6, %7 : f32\n                  %10 = arith.addf %8, %9 : f32\n                  affine.store %10, %alloc[%arg3, %arg4, %arg5, %arg6] : memref<512x1x1x128xf32>\n                }\n              }\n            }\n          }\n        }\n      }\n    }\n    %3 = bufferization.to_tensor %alloc : memref<512x1x1x128xf32>\n    return %3 : tensor<512x1x1x128xf32>\n  }\n}\n\n", "transform_wrapped_operation": "func.func private @nanoTime() -> i64 attributes { llvm.emit_c_interface }\nfunc.func private @printFlops(f64)\nfunc.func private @printI64(i64)\nfunc.func private @printNewline()\nfunc.func private @printMemrefF32(tensor<*xf32>)\n\n\nfunc.func @matmul() -> tensor<512x1x1x128xf32>{\n\n%val = arith.constant 2.00000e+00 : f32\n%zero = arith.constant 0.00000e+00 : f32\n\n%tmp_1 = bufferization.alloc_tensor() : tensor<512x1x1x32xf32>\n%1 = linalg.fill ins(%val : f32) outs(%tmp_1 : tensor<512x1x1x32xf32>) -> tensor<512x1x1x32xf32>\n%tmp_3 = bufferization.alloc_tensor() : tensor<1x1x32x128xf32>\n%3 = linalg.fill ins(%val : f32) outs(%tmp_3 : tensor<1x1x32x128xf32>) -> tensor<1x1x32x128xf32>\n%tmp_7 = bufferization.alloc_tensor() : tensor<512x1x1x128xf32>\n%7 = linalg.fill ins(%val : f32) outs(%tmp_7 : tensor<512x1x1x128xf32>) -> tensor<512x1x1x128xf32>\n\n%t0 = func.call @nanoTime() : () -> (i64)\n\n%return_arg = linalg.conv_2d_nhwc_hwcf {dilations = dense<1> : tensor<2xi64>, strides = dense<1> : tensor<2xi64>} ins(%1, %3 : tensor<512x1x1x32xf32>, tensor<1x1x32x128xf32>) outs(%7 : tensor<512x1x1x128xf32>) -> tensor<512x1x1x128xf32>\n%t = func.call @nanoTime() : () -> (i64)\n%delta = arith.subi %t, %t0 : i64\n%fp = arith.uitofp %delta : i64 to f64\n// func.call @printFlops(%fp) : (f64) -> ()\nfunc.call @printI64(%delta) : (i64) -> ()\nfunc.call @printNewline() : () -> ()\n\nreturn %return_arg : tensor<512x1x1x128xf32> \n}\n\nfunc.func @main(){\n    %c1 = arith.constant 1: index\n    %c0 = arith.constant 0 : index\n    %n = arith.constant 2: index\n    scf.for %i = %c0 to %n step %c1 {\n    %outputmain = func.call @matmul() : () -> tensor<512x1x1x128xf32>\n    }\n    return\n}\n\n", "loops_data": {"nested_loops": [["%arg3", 0, 512, 1], ["%arg4", 0, 1, 1], ["%arg5", 0, 1, 1], ["%arg6", 0, 128, 1], ["%arg7", 0, 1, 1], ["%arg8", 0, 1, 1], ["%arg9", 0, 32, 1]], "op_count": {"+": 1, "-": 0, "*": 1, "/": 0, "exp": 0}, "load_data": [["%arg3", "%arg4 + %arg7", "%arg5 + %arg8", "%arg9"], ["%arg7", "%arg8", "%arg9", "%arg6"], ["%arg3", "%arg4", "%arg5", "%arg6"]], "store_data": ["%arg3", "%arg4", "%arg5", "%arg6"]}, "execution_time": 4926888}], ["linalg.conv_2d_nhwc_hwcf {dilations = dense<1> : tensor<2xi64>, strides = dense<1> : tensor<2xi64>} ins(%1, %3 : tensor<512x7x7x864xf32>, tensor<1x1x864x128xf32>) outs(%7 : tensor<512x7x7x128xf32>) -> tensor<512x7x7x128xf32>", {"operation": "linalg.conv_2d_nhwc_hwcf {dilations = dense<1> : tensor<2xi64>, strides = dense<1> : tensor<2xi64>} ins(%1, %3 : tensor<512x7x7x864xf32>, tensor<1x1x864x128xf32>) outs(%7 : tensor<512x7x7x128xf32>) -> tensor<512x7x7x128xf32>", "wrapped_operation": "func.func @func_call(%1: tensor<512x7x7x864xf32>, %3: tensor<1x1x864x128xf32>, %7: tensor<512x7x7x128xf32>) -> tensor<512x7x7x128xf32> {\n  %ret = linalg.conv_2d_nhwc_hwcf {dilations = dense<1> : tensor<2xi64>, strides = dense<1> : tensor<2xi64>} ins(%1, %3 : tensor<512x7x7x864xf32>, tensor<1x1x864x128xf32>) outs(%7 : tensor<512x7x7x128xf32>) -> tensor<512x7x7x128xf32>\n  return %ret : tensor<512x7x7x128xf32>\n}", "lowered_operation": "#map = affine_map<(d0, d1) -> (d0 + d1)>\nmodule {\n  func.func @func_call(%arg0: tensor<512x7x7x864xf32>, %arg1: tensor<1x1x864x128xf32>, %arg2: tensor<512x7x7x128xf32>) -> tensor<512x7x7x128xf32> {\n    %0 = bufferization.to_memref %arg1 : memref<1x1x864x128xf32>\n    %1 = bufferization.to_memref %arg0 : memref<512x7x7x864xf32>\n    %2 = bufferization.to_memref %arg2 : memref<512x7x7x128xf32>\n    %alloc = memref.alloc() {alignment = 64 : i64} : memref<512x7x7x128xf32>\n    memref.copy %2, %alloc : memref<512x7x7x128xf32> to memref<512x7x7x128xf32>\n    affine.for %arg3 = 0 to 512 {\n      affine.for %arg4 = 0 to 7 {\n        affine.for %arg5 = 0 to 7 {\n          affine.for %arg6 = 0 to 128 {\n            affine.for %arg7 = 0 to 1 {\n              affine.for %arg8 = 0 to 1 {\n                affine.for %arg9 = 0 to 864 {\n                  %4 = affine.apply #map(%arg4, %arg7)\n                  %5 = affine.apply #map(%arg5, %arg8)\n                  %6 = affine.load %1[%arg3, %4, %5, %arg9] : memref<512x7x7x864xf32>\n                  %7 = affine.load %0[%arg7, %arg8, %arg9, %arg6] : memref<1x1x864x128xf32>\n                  %8 = affine.load %alloc[%arg3, %arg4, %arg5, %arg6] : memref<512x7x7x128xf32>\n                  %9 = arith.mulf %6, %7 : f32\n                  %10 = arith.addf %8, %9 : f32\n                  affine.store %10, %alloc[%arg3, %arg4, %arg5, %arg6] : memref<512x7x7x128xf32>\n                }\n              }\n            }\n          }\n        }\n      }\n    }\n    %3 = bufferization.to_tensor %alloc : memref<512x7x7x128xf32>\n    return %3 : tensor<512x7x7x128xf32>\n  }\n}\n\n", "transform_wrapped_operation": "func.func private @nanoTime() -> i64 attributes { llvm.emit_c_interface }\nfunc.func private @printFlops(f64)\nfunc.func private @printI64(i64)\nfunc.func private @printNewline()\nfunc.func private @printMemrefF32(tensor<*xf32>)\n\n\nfunc.func @matmul() -> tensor<512x7x7x128xf32>{\n\n%val = arith.constant 2.00000e+00 : f32\n%zero = arith.constant 0.00000e+00 : f32\n\n%tmp_1 = bufferization.alloc_tensor() : tensor<512x7x7x864xf32>\n%1 = linalg.fill ins(%val : f32) outs(%tmp_1 : tensor<512x7x7x864xf32>) -> tensor<512x7x7x864xf32>\n%tmp_3 = bufferization.alloc_tensor() : tensor<1x1x864x128xf32>\n%3 = linalg.fill ins(%val : f32) outs(%tmp_3 : tensor<1x1x864x128xf32>) -> tensor<1x1x864x128xf32>\n%tmp_7 = bufferization.alloc_tensor() : tensor<512x7x7x128xf32>\n%7 = linalg.fill ins(%val : f32) outs(%tmp_7 : tensor<512x7x7x128xf32>) -> tensor<512x7x7x128xf32>\n\n%t0 = func.call @nanoTime() : () -> (i64)\n\n%return_arg = linalg.conv_2d_nhwc_hwcf {dilations = dense<1> : tensor<2xi64>, strides = dense<1> : tensor<2xi64>} ins(%1, %3 : tensor<512x7x7x864xf32>, tensor<1x1x864x128xf32>) outs(%7 : tensor<512x7x7x128xf32>) -> tensor<512x7x7x128xf32>\n%t = func.call @nanoTime() : () -> (i64)\n%delta = arith.subi %t, %t0 : i64\n%fp = arith.uitofp %delta : i64 to f64\n// func.call @printFlops(%fp) : (f64) -> ()\nfunc.call @printI64(%delta) : (i64) -> ()\nfunc.call @printNewline() : () -> ()\n\nreturn %return_arg : tensor<512x7x7x128xf32> \n}\n\nfunc.func @main(){\n    %c1 = arith.constant 1: index\n    %c0 = arith.constant 0 : index\n    %n = arith.constant 2: index\n    scf.for %i = %c0 to %n step %c1 {\n    %outputmain = func.call @matmul() : () -> tensor<512x7x7x128xf32>\n    }\n    return\n}\n\n", "loops_data": {"nested_loops": [["%arg3", 0, 512, 1], ["%arg4", 0, 7, 1], ["%arg5", 0, 7, 1], ["%arg6", 0, 128, 1], ["%arg7", 0, 1, 1], ["%arg8", 0, 1, 1], ["%arg9", 0, 864, 1]], "op_count": {"+": 1, "-": 0, "*": 1, "/": 0, "exp": 0}, "load_data": [["%arg3", "%arg4 + %arg7", "%arg5 + %arg8", "%arg9"], ["%arg7", "%arg8", "%arg9", "%arg6"], ["%arg3", "%arg4", "%arg5", "%arg6"]], "store_data": ["%arg3", "%arg4", "%arg5", "%arg6"]}, "execution_time": 10390123801}], ["linalg.conv_2d_nhwc_hwcf {dilations = dense<1> : tensor<2xi64>, strides = dense<1> : tensor<2xi64>} ins(%1, %3 : tensor<512x1x1x224xf32>, tensor<1x1x224x56xf32>) outs(%7 : tensor<512x1x1x56xf32>) -> tensor<512x1x1x56xf32>", {"operation": "linalg.conv_2d_nhwc_hwcf {dilations = dense<1> : tensor<2xi64>, strides = dense<1> : tensor<2xi64>} ins(%1, %3 : tensor<512x1x1x224xf32>, tensor<1x1x224x56xf32>) outs(%7 : tensor<512x1x1x56xf32>) -> tensor<512x1x1x56xf32>", "wrapped_operation": "func.func @func_call(%1: tensor<512x1x1x224xf32>, %3: tensor<1x1x224x56xf32>, %7: tensor<512x1x1x56xf32>) -> tensor<512x1x1x56xf32> {\n  %ret = linalg.conv_2d_nhwc_hwcf {dilations = dense<1> : tensor<2xi64>, strides = dense<1> : tensor<2xi64>} ins(%1, %3 : tensor<512x1x1x224xf32>, tensor<1x1x224x56xf32>) outs(%7 : tensor<512x1x1x56xf32>) -> tensor<512x1x1x56xf32>\n  return %ret : tensor<512x1x1x56xf32>\n}", "lowered_operation": "#map = affine_map<(d0, d1) -> (d0 + d1)>\nmodule {\n  func.func @func_call(%arg0: tensor<512x1x1x224xf32>, %arg1: tensor<1x1x224x56xf32>, %arg2: tensor<512x1x1x56xf32>) -> tensor<512x1x1x56xf32> {\n    %0 = bufferization.to_memref %arg1 : memref<1x1x224x56xf32>\n    %1 = bufferization.to_memref %arg0 : memref<512x1x1x224xf32>\n    %2 = bufferization.to_memref %arg2 : memref<512x1x1x56xf32>\n    %alloc = memref.alloc() {alignment = 64 : i64} : memref<512x1x1x56xf32>\n    memref.copy %2, %alloc : memref<512x1x1x56xf32> to memref<512x1x1x56xf32>\n    affine.for %arg3 = 0 to 512 {\n      affine.for %arg4 = 0 to 1 {\n        affine.for %arg5 = 0 to 1 {\n          affine.for %arg6 = 0 to 56 {\n            affine.for %arg7 = 0 to 1 {\n              affine.for %arg8 = 0 to 1 {\n                affine.for %arg9 = 0 to 224 {\n                  %4 = affine.apply #map(%arg4, %arg7)\n                  %5 = affine.apply #map(%arg5, %arg8)\n                  %6 = affine.load %1[%arg3, %4, %5, %arg9] : memref<512x1x1x224xf32>\n                  %7 = affine.load %0[%arg7, %arg8, %arg9, %arg6] : memref<1x1x224x56xf32>\n                  %8 = affine.load %alloc[%arg3, %arg4, %arg5, %arg6] : memref<512x1x1x56xf32>\n                  %9 = arith.mulf %6, %7 : f32\n                  %10 = arith.addf %8, %9 : f32\n                  affine.store %10, %alloc[%arg3, %arg4, %arg5, %arg6] : memref<512x1x1x56xf32>\n                }\n              }\n            }\n          }\n        }\n      }\n    }\n    %3 = bufferization.to_tensor %alloc : memref<512x1x1x56xf32>\n    return %3 : tensor<512x1x1x56xf32>\n  }\n}\n\n", "transform_wrapped_operation": "func.func private @nanoTime() -> i64 attributes { llvm.emit_c_interface }\nfunc.func private @printFlops(f64)\nfunc.func private @printI64(i64)\nfunc.func private @printNewline()\nfunc.func private @printMemrefF32(tensor<*xf32>)\n\n\nfunc.func @matmul() -> tensor<512x1x1x56xf32>{\n\n%val = arith.constant 2.00000e+00 : f32\n%zero = arith.constant 0.00000e+00 : f32\n\n%tmp_1 = bufferization.alloc_tensor() : tensor<512x1x1x224xf32>\n%1 = linalg.fill ins(%val : f32) outs(%tmp_1 : tensor<512x1x1x224xf32>) -> tensor<512x1x1x224xf32>\n%tmp_3 = bufferization.alloc_tensor() : tensor<1x1x224x56xf32>\n%3 = linalg.fill ins(%val : f32) outs(%tmp_3 : tensor<1x1x224x56xf32>) -> tensor<1x1x224x56xf32>\n%tmp_7 = bufferization.alloc_tensor() : tensor<512x1x1x56xf32>\n%7 = linalg.fill ins(%val : f32) outs(%tmp_7 : tensor<512x1x1x56xf32>) -> tensor<512x1x1x56xf32>\n\n%t0 = func.call @nanoTime() : () -> (i64)\n\n%return_arg = linalg.conv_2d_nhwc_hwcf {dilations = dense<1> : tensor<2xi64>, strides = dense<1> : tensor<2xi64>} ins(%1, %3 : tensor<512x1x1x224xf32>, tensor<1x1x224x56xf32>) outs(%7 : tensor<512x1x1x56xf32>) -> tensor<512x1x1x56xf32>\n%t = func.call @nanoTime() : () -> (i64)\n%delta = arith.subi %t, %t0 : i64\n%fp = arith.uitofp %delta : i64 to f64\n// func.call @printFlops(%fp) : (f64) -> ()\nfunc.call @printI64(%delta) : (i64) -> ()\nfunc.call @printNewline() : () -> ()\n\nreturn %return_arg : tensor<512x1x1x56xf32> \n}\n\nfunc.func @main(){\n    %c1 = arith.constant 1: index\n    %c0 = arith.constant 0 : index\n    %n = arith.constant 2: index\n    scf.for %i = %c0 to %n step %c1 {\n    %outputmain = func.call @matmul() : () -> tensor<512x1x1x56xf32>\n    }\n    return\n}\n\n", "loops_data": {"nested_loops": [["%arg3", 0, 512, 1], ["%arg4", 0, 1, 1], ["%arg5", 0, 1, 1], ["%arg6", 0, 56, 1], ["%arg7", 0, 1, 1], ["%arg8", 0, 1, 1], ["%arg9", 0, 224, 1]], "op_count": {"+": 1, "-": 0, "*": 1, "/": 0, "exp": 0}, "load_data": [["%arg3", "%arg4 + %arg7", "%arg5 + %arg8", "%arg9"], ["%arg7", "%arg8", "%arg9", "%arg6"], ["%arg3", "%arg4", "%arg5", "%arg6"]], "store_data": ["%arg3", "%arg4", "%arg5", "%arg6"]}, "execution_time": 22795377}], ["linalg.conv_2d_nhwc_hwcf {dilations = dense<1> : tensor<2xi64>, strides = dense<1> : tensor<2xi64>} ins(%1, %3 : tensor<512x56x56x72xf32>, tensor<1x1x72x216xf32>) outs(%7 : tensor<512x28x28x216xf32>) -> tensor<512x28x28x216xf32>", {"operation": "linalg.conv_2d_nhwc_hwcf {dilations = dense<1> : tensor<2xi64>, strides = dense<1> : tensor<2xi64>} ins(%1, %3 : tensor<512x56x56x72xf32>, tensor<1x1x72x216xf32>) outs(%7 : tensor<512x28x28x216xf32>) -> tensor<512x28x28x216xf32>", "wrapped_operation": "func.func @func_call(%1: tensor<512x56x56x72xf32>, %3: tensor<1x1x72x216xf32>, %7: tensor<512x28x28x216xf32>) -> tensor<512x28x28x216xf32> {\n  %ret = linalg.conv_2d_nhwc_hwcf {dilations = dense<1> : tensor<2xi64>, strides = dense<1> : tensor<2xi64>} ins(%1, %3 : tensor<512x56x56x72xf32>, tensor<1x1x72x216xf32>) outs(%7 : tensor<512x28x28x216xf32>) -> tensor<512x28x28x216xf32>\n  return %ret : tensor<512x28x28x216xf32>\n}", "lowered_operation": "#map = affine_map<(d0, d1) -> (d0 + d1)>\nmodule {\n  func.func @func_call(%arg0: tensor<512x56x56x72xf32>, %arg1: tensor<1x1x72x216xf32>, %arg2: tensor<512x28x28x216xf32>) -> tensor<512x28x28x216xf32> {\n    %0 = bufferization.to_memref %arg1 : memref<1x1x72x216xf32>\n    %1 = bufferization.to_memref %arg0 : memref<512x56x56x72xf32>\n    %2 = bufferization.to_memref %arg2 : memref<512x28x28x216xf32>\n    %alloc = memref.alloc() {alignment = 64 : i64} : memref<512x28x28x216xf32>\n    memref.copy %2, %alloc : memref<512x28x28x216xf32> to memref<512x28x28x216xf32>\n    affine.for %arg3 = 0 to 512 {\n      affine.for %arg4 = 0 to 28 {\n        affine.for %arg5 = 0 to 28 {\n          affine.for %arg6 = 0 to 216 {\n            affine.for %arg7 = 0 to 1 {\n              affine.for %arg8 = 0 to 1 {\n                affine.for %arg9 = 0 to 72 {\n                  %4 = affine.apply #map(%arg4, %arg7)\n                  %5 = affine.apply #map(%arg5, %arg8)\n                  %6 = affine.load %1[%arg3, %4, %5, %arg9] : memref<512x56x56x72xf32>\n                  %7 = affine.load %0[%arg7, %arg8, %arg9, %arg6] : memref<1x1x72x216xf32>\n                  %8 = affine.load %alloc[%arg3, %arg4, %arg5, %arg6] : memref<512x28x28x216xf32>\n                  %9 = arith.mulf %6, %7 : f32\n                  %10 = arith.addf %8, %9 : f32\n                  affine.store %10, %alloc[%arg3, %arg4, %arg5, %arg6] : memref<512x28x28x216xf32>\n                }\n              }\n            }\n          }\n        }\n      }\n    }\n    %3 = bufferization.to_tensor %alloc : memref<512x28x28x216xf32>\n    return %3 : tensor<512x28x28x216xf32>\n  }\n}\n\n", "transform_wrapped_operation": "func.func private @nanoTime() -> i64 attributes { llvm.emit_c_interface }\nfunc.func private @printFlops(f64)\nfunc.func private @printI64(i64)\nfunc.func private @printNewline()\nfunc.func private @printMemrefF32(tensor<*xf32>)\n\n\nfunc.func @matmul() -> tensor<512x28x28x216xf32>{\n\n%val = arith.constant 2.00000e+00 : f32\n%zero = arith.constant 0.00000e+00 : f32\n\n%tmp_1 = bufferization.alloc_tensor() : tensor<512x56x56x72xf32>\n%1 = linalg.fill ins(%val : f32) outs(%tmp_1 : tensor<512x56x56x72xf32>) -> tensor<512x56x56x72xf32>\n%tmp_3 = bufferization.alloc_tensor() : tensor<1x1x72x216xf32>\n%3 = linalg.fill ins(%val : f32) outs(%tmp_3 : tensor<1x1x72x216xf32>) -> tensor<1x1x72x216xf32>\n%tmp_7 = bufferization.alloc_tensor() : tensor<512x28x28x216xf32>\n%7 = linalg.fill ins(%val : f32) outs(%tmp_7 : tensor<512x28x28x216xf32>) -> tensor<512x28x28x216xf32>\n\n%t0 = func.call @nanoTime() : () -> (i64)\n\n%return_arg = linalg.conv_2d_nhwc_hwcf {dilations = dense<1> : tensor<2xi64>, strides = dense<1> : tensor<2xi64>} ins(%1, %3 : tensor<512x56x56x72xf32>, tensor<1x1x72x216xf32>) outs(%7 : tensor<512x28x28x216xf32>) -> tensor<512x28x28x216xf32>\n%t = func.call @nanoTime() : () -> (i64)\n%delta = arith.subi %t, %t0 : i64\n%fp = arith.uitofp %delta : i64 to f64\n// func.call @printFlops(%fp) : (f64) -> ()\nfunc.call @printI64(%delta) : (i64) -> ()\nfunc.call @printNewline() : () -> ()\n\nreturn %return_arg : tensor<512x28x28x216xf32> \n}\n\nfunc.func @main(){\n    %c1 = arith.constant 1: index\n    %c0 = arith.constant 0 : index\n    %n = arith.constant 2: index\n    scf.for %i = %c0 to %n step %c1 {\n    %outputmain = func.call @matmul() : () -> tensor<512x28x28x216xf32>\n    }\n    return\n}\n\n", "loops_data": {"nested_loops": [["%arg3", 0, 512, 1], ["%arg4", 0, 28, 1], ["%arg5", 0, 28, 1], ["%arg6", 0, 216, 1], ["%arg7", 0, 1, 1], ["%arg8", 0, 1, 1], ["%arg9", 0, 72, 1]], "op_count": {"+": 1, "-": 0, "*": 1, "/": 0, "exp": 0}, "load_data": [["%arg3", "%arg4 + %arg7", "%arg5 + %arg8", "%arg9"], ["%arg7", "%arg8", "%arg9", "%arg6"], ["%arg3", "%arg4", "%arg5", "%arg6"]], "store_data": ["%arg3", "%arg4", "%arg5", "%arg6"]}, "execution_time": 20968013007}], ["linalg.conv_2d_nhwc_hwcf {dilations = dense<1> : tensor<2xi64>, strides = dense<1> : tensor<2xi64>} ins(%1, %3 : tensor<512x7x7x576xf32>, tensor<1x1x576x160xf32>) outs(%7 : tensor<512x7x7x160xf32>) -> tensor<512x7x7x160xf32>", {"operation": "linalg.conv_2d_nhwc_hwcf {dilations = dense<1> : tensor<2xi64>, strides = dense<1> : tensor<2xi64>} ins(%1, %3 : tensor<512x7x7x576xf32>, tensor<1x1x576x160xf32>) outs(%7 : tensor<512x7x7x160xf32>) -> tensor<512x7x7x160xf32>", "wrapped_operation": "func.func @func_call(%1: tensor<512x7x7x576xf32>, %3: tensor<1x1x576x160xf32>, %7: tensor<512x7x7x160xf32>) -> tensor<512x7x7x160xf32> {\n  %ret = linalg.conv_2d_nhwc_hwcf {dilations = dense<1> : tensor<2xi64>, strides = dense<1> : tensor<2xi64>} ins(%1, %3 : tensor<512x7x7x576xf32>, tensor<1x1x576x160xf32>) outs(%7 : tensor<512x7x7x160xf32>) -> tensor<512x7x7x160xf32>\n  return %ret : tensor<512x7x7x160xf32>\n}", "lowered_operation": "#map = affine_map<(d0, d1) -> (d0 + d1)>\nmodule {\n  func.func @func_call(%arg0: tensor<512x7x7x576xf32>, %arg1: tensor<1x1x576x160xf32>, %arg2: tensor<512x7x7x160xf32>) -> tensor<512x7x7x160xf32> {\n    %0 = bufferization.to_memref %arg1 : memref<1x1x576x160xf32>\n    %1 = bufferization.to_memref %arg0 : memref<512x7x7x576xf32>\n    %2 = bufferization.to_memref %arg2 : memref<512x7x7x160xf32>\n    %alloc = memref.alloc() {alignment = 64 : i64} : memref<512x7x7x160xf32>\n    memref.copy %2, %alloc : memref<512x7x7x160xf32> to memref<512x7x7x160xf32>\n    affine.for %arg3 = 0 to 512 {\n      affine.for %arg4 = 0 to 7 {\n        affine.for %arg5 = 0 to 7 {\n          affine.for %arg6 = 0 to 160 {\n            affine.for %arg7 = 0 to 1 {\n              affine.for %arg8 = 0 to 1 {\n                affine.for %arg9 = 0 to 576 {\n                  %4 = affine.apply #map(%arg4, %arg7)\n                  %5 = affine.apply #map(%arg5, %arg8)\n                  %6 = affine.load %1[%arg3, %4, %5, %arg9] : memref<512x7x7x576xf32>\n                  %7 = affine.load %0[%arg7, %arg8, %arg9, %arg6] : memref<1x1x576x160xf32>\n                  %8 = affine.load %alloc[%arg3, %arg4, %arg5, %arg6] : memref<512x7x7x160xf32>\n                  %9 = arith.mulf %6, %7 : f32\n                  %10 = arith.addf %8, %9 : f32\n                  affine.store %10, %alloc[%arg3, %arg4, %arg5, %arg6] : memref<512x7x7x160xf32>\n                }\n              }\n            }\n          }\n        }\n      }\n    }\n    %3 = bufferization.to_tensor %alloc : memref<512x7x7x160xf32>\n    return %3 : tensor<512x7x7x160xf32>\n  }\n}\n\n", "transform_wrapped_operation": "func.func private @nanoTime() -> i64 attributes { llvm.emit_c_interface }\nfunc.func private @printFlops(f64)\nfunc.func private @printI64(i64)\nfunc.func private @printNewline()\nfunc.func private @printMemrefF32(tensor<*xf32>)\n\n\nfunc.func @matmul() -> tensor<512x7x7x160xf32>{\n\n%val = arith.constant 2.00000e+00 : f32\n%zero = arith.constant 0.00000e+00 : f32\n\n%tmp_1 = bufferization.alloc_tensor() : tensor<512x7x7x576xf32>\n%1 = linalg.fill ins(%val : f32) outs(%tmp_1 : tensor<512x7x7x576xf32>) -> tensor<512x7x7x576xf32>\n%tmp_3 = bufferization.alloc_tensor() : tensor<1x1x576x160xf32>\n%3 = linalg.fill ins(%val : f32) outs(%tmp_3 : tensor<1x1x576x160xf32>) -> tensor<1x1x576x160xf32>\n%tmp_7 = bufferization.alloc_tensor() : tensor<512x7x7x160xf32>\n%7 = linalg.fill ins(%val : f32) outs(%tmp_7 : tensor<512x7x7x160xf32>) -> tensor<512x7x7x160xf32>\n\n%t0 = func.call @nanoTime() : () -> (i64)\n\n%return_arg = linalg.conv_2d_nhwc_hwcf {dilations = dense<1> : tensor<2xi64>, strides = dense<1> : tensor<2xi64>} ins(%1, %3 : tensor<512x7x7x576xf32>, tensor<1x1x576x160xf32>) outs(%7 : tensor<512x7x7x160xf32>) -> tensor<512x7x7x160xf32>\n%t = func.call @nanoTime() : () -> (i64)\n%delta = arith.subi %t, %t0 : i64\n%fp = arith.uitofp %delta : i64 to f64\n// func.call @printFlops(%fp) : (f64) -> ()\nfunc.call @printI64(%delta) : (i64) -> ()\nfunc.call @printNewline() : () -> ()\n\nreturn %return_arg : tensor<512x7x7x160xf32> \n}\n\nfunc.func @main(){\n    %c1 = arith.constant 1: index\n    %c0 = arith.constant 0 : index\n    %n = arith.constant 2: index\n    scf.for %i = %c0 to %n step %c1 {\n    %outputmain = func.call @matmul() : () -> tensor<512x7x7x160xf32>\n    }\n    return\n}\n\n", "loops_data": {"nested_loops": [["%arg3", 0, 512, 1], ["%arg4", 0, 7, 1], ["%arg5", 0, 7, 1], ["%arg6", 0, 160, 1], ["%arg7", 0, 1, 1], ["%arg8", 0, 1, 1], ["%arg9", 0, 576, 1]], "op_count": {"+": 1, "-": 0, "*": 1, "/": 0, "exp": 0}, "load_data": [["%arg3", "%arg4 + %arg7", "%arg5 + %arg8", "%arg9"], ["%arg7", "%arg8", "%arg9", "%arg6"], ["%arg3", "%arg4", "%arg5", "%arg6"]], "store_data": ["%arg3", "%arg4", "%arg5", "%arg6"]}, "execution_time": 8625102690}], ["linalg.conv_2d_nhwc_hwcf {dilations = dense<1> : tensor<2xi64>, strides = dense<1> : tensor<2xi64>} ins(%1, %3 : tensor<512x56x56x48xf32>, tensor<1x1x48x96xf32>) outs(%7 : tensor<512x28x28x96xf32>) -> tensor<512x28x28x96xf32>", {"operation": "linalg.conv_2d_nhwc_hwcf {dilations = dense<1> : tensor<2xi64>, strides = dense<1> : tensor<2xi64>} ins(%1, %3 : tensor<512x56x56x48xf32>, tensor<1x1x48x96xf32>) outs(%7 : tensor<512x28x28x96xf32>) -> tensor<512x28x28x96xf32>", "wrapped_operation": "func.func @func_call(%1: tensor<512x56x56x48xf32>, %3: tensor<1x1x48x96xf32>, %7: tensor<512x28x28x96xf32>) -> tensor<512x28x28x96xf32> {\n  %ret = linalg.conv_2d_nhwc_hwcf {dilations = dense<1> : tensor<2xi64>, strides = dense<1> : tensor<2xi64>} ins(%1, %3 : tensor<512x56x56x48xf32>, tensor<1x1x48x96xf32>) outs(%7 : tensor<512x28x28x96xf32>) -> tensor<512x28x28x96xf32>\n  return %ret : tensor<512x28x28x96xf32>\n}", "lowered_operation": "#map = affine_map<(d0, d1) -> (d0 + d1)>\nmodule {\n  func.func @func_call(%arg0: tensor<512x56x56x48xf32>, %arg1: tensor<1x1x48x96xf32>, %arg2: tensor<512x28x28x96xf32>) -> tensor<512x28x28x96xf32> {\n    %0 = bufferization.to_memref %arg1 : memref<1x1x48x96xf32>\n    %1 = bufferization.to_memref %arg0 : memref<512x56x56x48xf32>\n    %2 = bufferization.to_memref %arg2 : memref<512x28x28x96xf32>\n    %alloc = memref.alloc() {alignment = 64 : i64} : memref<512x28x28x96xf32>\n    memref.copy %2, %alloc : memref<512x28x28x96xf32> to memref<512x28x28x96xf32>\n    affine.for %arg3 = 0 to 512 {\n      affine.for %arg4 = 0 to 28 {\n        affine.for %arg5 = 0 to 28 {\n          affine.for %arg6 = 0 to 96 {\n            affine.for %arg7 = 0 to 1 {\n              affine.for %arg8 = 0 to 1 {\n                affine.for %arg9 = 0 to 48 {\n                  %4 = affine.apply #map(%arg4, %arg7)\n                  %5 = affine.apply #map(%arg5, %arg8)\n                  %6 = affine.load %1[%arg3, %4, %5, %arg9] : memref<512x56x56x48xf32>\n                  %7 = affine.load %0[%arg7, %arg8, %arg9, %arg6] : memref<1x1x48x96xf32>\n                  %8 = affine.load %alloc[%arg3, %arg4, %arg5, %arg6] : memref<512x28x28x96xf32>\n                  %9 = arith.mulf %6, %7 : f32\n                  %10 = arith.addf %8, %9 : f32\n                  affine.store %10, %alloc[%arg3, %arg4, %arg5, %arg6] : memref<512x28x28x96xf32>\n                }\n              }\n            }\n          }\n        }\n      }\n    }\n    %3 = bufferization.to_tensor %alloc : memref<512x28x28x96xf32>\n    return %3 : tensor<512x28x28x96xf32>\n  }\n}\n\n", "transform_wrapped_operation": "func.func private @nanoTime() -> i64 attributes { llvm.emit_c_interface }\nfunc.func private @printFlops(f64)\nfunc.func private @printI64(i64)\nfunc.func private @printNewline()\nfunc.func private @printMemrefF32(tensor<*xf32>)\n\n\nfunc.func @matmul() -> tensor<512x28x28x96xf32>{\n\n%val = arith.constant 2.00000e+00 : f32\n%zero = arith.constant 0.00000e+00 : f32\n\n%tmp_1 = bufferization.alloc_tensor() : tensor<512x56x56x48xf32>\n%1 = linalg.fill ins(%val : f32) outs(%tmp_1 : tensor<512x56x56x48xf32>) -> tensor<512x56x56x48xf32>\n%tmp_3 = bufferization.alloc_tensor() : tensor<1x1x48x96xf32>\n%3 = linalg.fill ins(%val : f32) outs(%tmp_3 : tensor<1x1x48x96xf32>) -> tensor<1x1x48x96xf32>\n%tmp_7 = bufferization.alloc_tensor() : tensor<512x28x28x96xf32>\n%7 = linalg.fill ins(%val : f32) outs(%tmp_7 : tensor<512x28x28x96xf32>) -> tensor<512x28x28x96xf32>\n\n%t0 = func.call @nanoTime() : () -> (i64)\n\n%return_arg = linalg.conv_2d_nhwc_hwcf {dilations = dense<1> : tensor<2xi64>, strides = dense<1> : tensor<2xi64>} ins(%1, %3 : tensor<512x56x56x48xf32>, tensor<1x1x48x96xf32>) outs(%7 : tensor<512x28x28x96xf32>) -> tensor<512x28x28x96xf32>\n%t = func.call @nanoTime() : () -> (i64)\n%delta = arith.subi %t, %t0 : i64\n%fp = arith.uitofp %delta : i64 to f64\n// func.call @printFlops(%fp) : (f64) -> ()\nfunc.call @printI64(%delta) : (i64) -> ()\nfunc.call @printNewline() : () -> ()\n\nreturn %return_arg : tensor<512x28x28x96xf32> \n}\n\nfunc.func @main(){\n    %c1 = arith.constant 1: index\n    %c0 = arith.constant 0 : index\n    %n = arith.constant 2: index\n    scf.for %i = %c0 to %n step %c1 {\n    %outputmain = func.call @matmul() : () -> tensor<512x28x28x96xf32>\n    }\n    return\n}\n\n", "loops_data": {"nested_loops": [["%arg3", 0, 512, 1], ["%arg4", 0, 28, 1], ["%arg5", 0, 28, 1], ["%arg6", 0, 96, 1], ["%arg7", 0, 1, 1], ["%arg8", 0, 1, 1], ["%arg9", 0, 48, 1]], "op_count": {"+": 1, "-": 0, "*": 1, "/": 0, "exp": 0}, "load_data": [["%arg3", "%arg4 + %arg7", "%arg5 + %arg8", "%arg9"], ["%arg7", "%arg8", "%arg9", "%arg6"], ["%arg3", "%arg4", "%arg5", "%arg6"]], "store_data": ["%arg3", "%arg4", "%arg5", "%arg6"]}, "execution_time": 5950361559}], ["linalg.conv_2d_nhwc_hwcf {dilations = dense<1> : tensor<2xi64>, strides = dense<1> : tensor<2xi64>} ins(%1, %3 : tensor<512x1x1x26xf32>, tensor<1x1x26x104xf32>) outs(%7 : tensor<512x1x1x104xf32>) -> tensor<512x1x1x104xf32>", {"operation": "linalg.conv_2d_nhwc_hwcf {dilations = dense<1> : tensor<2xi64>, strides = dense<1> : tensor<2xi64>} ins(%1, %3 : tensor<512x1x1x26xf32>, tensor<1x1x26x104xf32>) outs(%7 : tensor<512x1x1x104xf32>) -> tensor<512x1x1x104xf32>", "wrapped_operation": "func.func @func_call(%1: tensor<512x1x1x26xf32>, %3: tensor<1x1x26x104xf32>, %7: tensor<512x1x1x104xf32>) -> tensor<512x1x1x104xf32> {\n  %ret = linalg.conv_2d_nhwc_hwcf {dilations = dense<1> : tensor<2xi64>, strides = dense<1> : tensor<2xi64>} ins(%1, %3 : tensor<512x1x1x26xf32>, tensor<1x1x26x104xf32>) outs(%7 : tensor<512x1x1x104xf32>) -> tensor<512x1x1x104xf32>\n  return %ret : tensor<512x1x1x104xf32>\n}", "lowered_operation": "#map = affine_map<(d0, d1) -> (d0 + d1)>\nmodule {\n  func.func @func_call(%arg0: tensor<512x1x1x26xf32>, %arg1: tensor<1x1x26x104xf32>, %arg2: tensor<512x1x1x104xf32>) -> tensor<512x1x1x104xf32> {\n    %0 = bufferization.to_memref %arg1 : memref<1x1x26x104xf32>\n    %1 = bufferization.to_memref %arg0 : memref<512x1x1x26xf32>\n    %2 = bufferization.to_memref %arg2 : memref<512x1x1x104xf32>\n    %alloc = memref.alloc() {alignment = 64 : i64} : memref<512x1x1x104xf32>\n    memref.copy %2, %alloc : memref<512x1x1x104xf32> to memref<512x1x1x104xf32>\n    affine.for %arg3 = 0 to 512 {\n      affine.for %arg4 = 0 to 1 {\n        affine.for %arg5 = 0 to 1 {\n          affine.for %arg6 = 0 to 104 {\n            affine.for %arg7 = 0 to 1 {\n              affine.for %arg8 = 0 to 1 {\n                affine.for %arg9 = 0 to 26 {\n                  %4 = affine.apply #map(%arg4, %arg7)\n                  %5 = affine.apply #map(%arg5, %arg8)\n                  %6 = affine.load %1[%arg3, %4, %5, %arg9] : memref<512x1x1x26xf32>\n                  %7 = affine.load %0[%arg7, %arg8, %arg9, %arg6] : memref<1x1x26x104xf32>\n                  %8 = affine.load %alloc[%arg3, %arg4, %arg5, %arg6] : memref<512x1x1x104xf32>\n                  %9 = arith.mulf %6, %7 : f32\n                  %10 = arith.addf %8, %9 : f32\n                  affine.store %10, %alloc[%arg3, %arg4, %arg5, %arg6] : memref<512x1x1x104xf32>\n                }\n              }\n            }\n          }\n        }\n      }\n    }\n    %3 = bufferization.to_tensor %alloc : memref<512x1x1x104xf32>\n    return %3 : tensor<512x1x1x104xf32>\n  }\n}\n\n", "transform_wrapped_operation": "func.func private @nanoTime() -> i64 attributes { llvm.emit_c_interface }\nfunc.func private @printFlops(f64)\nfunc.func private @printI64(i64)\nfunc.func private @printNewline()\nfunc.func private @printMemrefF32(tensor<*xf32>)\n\n\nfunc.func @matmul() -> tensor<512x1x1x104xf32>{\n\n%val = arith.constant 2.00000e+00 : f32\n%zero = arith.constant 0.00000e+00 : f32\n\n%tmp_1 = bufferization.alloc_tensor() : tensor<512x1x1x26xf32>\n%1 = linalg.fill ins(%val : f32) outs(%tmp_1 : tensor<512x1x1x26xf32>) -> tensor<512x1x1x26xf32>\n%tmp_3 = bufferization.alloc_tensor() : tensor<1x1x26x104xf32>\n%3 = linalg.fill ins(%val : f32) outs(%tmp_3 : tensor<1x1x26x104xf32>) -> tensor<1x1x26x104xf32>\n%tmp_7 = bufferization.alloc_tensor() : tensor<512x1x1x104xf32>\n%7 = linalg.fill ins(%val : f32) outs(%tmp_7 : tensor<512x1x1x104xf32>) -> tensor<512x1x1x104xf32>\n\n%t0 = func.call @nanoTime() : () -> (i64)\n\n%return_arg = linalg.conv_2d_nhwc_hwcf {dilations = dense<1> : tensor<2xi64>, strides = dense<1> : tensor<2xi64>} ins(%1, %3 : tensor<512x1x1x26xf32>, tensor<1x1x26x104xf32>) outs(%7 : tensor<512x1x1x104xf32>) -> tensor<512x1x1x104xf32>\n%t = func.call @nanoTime() : () -> (i64)\n%delta = arith.subi %t, %t0 : i64\n%fp = arith.uitofp %delta : i64 to f64\n// func.call @printFlops(%fp) : (f64) -> ()\nfunc.call @printI64(%delta) : (i64) -> ()\nfunc.call @printNewline() : () -> ()\n\nreturn %return_arg : tensor<512x1x1x104xf32> \n}\n\nfunc.func @main(){\n    %c1 = arith.constant 1: index\n    %c0 = arith.constant 0 : index\n    %n = arith.constant 2: index\n    scf.for %i = %c0 to %n step %c1 {\n    %outputmain = func.call @matmul() : () -> tensor<512x1x1x104xf32>\n    }\n    return\n}\n\n", "loops_data": {"nested_loops": [["%arg3", 0, 512, 1], ["%arg4", 0, 1, 1], ["%arg5", 0, 1, 1], ["%arg6", 0, 104, 1], ["%arg7", 0, 1, 1], ["%arg8", 0, 1, 1], ["%arg9", 0, 26, 1]], "op_count": {"+": 1, "-": 0, "*": 1, "/": 0, "exp": 0}, "load_data": [["%arg3", "%arg4 + %arg7", "%arg5 + %arg8", "%arg9"], ["%arg7", "%arg8", "%arg9", "%arg6"], ["%arg3", "%arg4", "%arg5", "%arg6"]], "store_data": ["%arg3", "%arg4", "%arg5", "%arg6"]}, "execution_time": 3168510}], ["linalg.conv_2d_nhwc_hwcf {dilations = dense<1> : tensor<2xi64>, strides = dense<1> : tensor<2xi64>} ins(%1, %3 : tensor<512x112x112x32xf32>, tensor<1x1x32x80xf32>) outs(%7 : tensor<512x56x56x80xf32>) -> tensor<512x56x56x80xf32>", {"operation": "linalg.conv_2d_nhwc_hwcf {dilations = dense<1> : tensor<2xi64>, strides = dense<1> : tensor<2xi64>} ins(%1, %3 : tensor<512x112x112x32xf32>, tensor<1x1x32x80xf32>) outs(%7 : tensor<512x56x56x80xf32>) -> tensor<512x56x56x80xf32>", "wrapped_operation": "func.func @func_call(%1: tensor<512x112x112x32xf32>, %3: tensor<1x1x32x80xf32>, %7: tensor<512x56x56x80xf32>) -> tensor<512x56x56x80xf32> {\n  %ret = linalg.conv_2d_nhwc_hwcf {dilations = dense<1> : tensor<2xi64>, strides = dense<1> : tensor<2xi64>} ins(%1, %3 : tensor<512x112x112x32xf32>, tensor<1x1x32x80xf32>) outs(%7 : tensor<512x56x56x80xf32>) -> tensor<512x56x56x80xf32>\n  return %ret : tensor<512x56x56x80xf32>\n}", "lowered_operation": "#map = affine_map<(d0, d1) -> (d0 + d1)>\nmodule {\n  func.func @func_call(%arg0: tensor<512x112x112x32xf32>, %arg1: tensor<1x1x32x80xf32>, %arg2: tensor<512x56x56x80xf32>) -> tensor<512x56x56x80xf32> {\n    %0 = bufferization.to_memref %arg1 : memref<1x1x32x80xf32>\n    %1 = bufferization.to_memref %arg0 : memref<512x112x112x32xf32>\n    %2 = bufferization.to_memref %arg2 : memref<512x56x56x80xf32>\n    %alloc = memref.alloc() {alignment = 64 : i64} : memref<512x56x56x80xf32>\n    memref.copy %2, %alloc : memref<512x56x56x80xf32> to memref<512x56x56x80xf32>\n    affine.for %arg3 = 0 to 512 {\n      affine.for %arg4 = 0 to 56 {\n        affine.for %arg5 = 0 to 56 {\n          affine.for %arg6 = 0 to 80 {\n            affine.for %arg7 = 0 to 1 {\n              affine.for %arg8 = 0 to 1 {\n                affine.for %arg9 = 0 to 32 {\n                  %4 = affine.apply #map(%arg4, %arg7)\n                  %5 = affine.apply #map(%arg5, %arg8)\n                  %6 = affine.load %1[%arg3, %4, %5, %arg9] : memref<512x112x112x32xf32>\n                  %7 = affine.load %0[%arg7, %arg8, %arg9, %arg6] : memref<1x1x32x80xf32>\n                  %8 = affine.load %alloc[%arg3, %arg4, %arg5, %arg6] : memref<512x56x56x80xf32>\n                  %9 = arith.mulf %6, %7 : f32\n                  %10 = arith.addf %8, %9 : f32\n                  affine.store %10, %alloc[%arg3, %arg4, %arg5, %arg6] : memref<512x56x56x80xf32>\n                }\n              }\n            }\n          }\n        }\n      }\n    }\n    %3 = bufferization.to_tensor %alloc : memref<512x56x56x80xf32>\n    return %3 : tensor<512x56x56x80xf32>\n  }\n}\n\n", "transform_wrapped_operation": "func.func private @nanoTime() -> i64 attributes { llvm.emit_c_interface }\nfunc.func private @printFlops(f64)\nfunc.func private @printI64(i64)\nfunc.func private @printNewline()\nfunc.func private @printMemrefF32(tensor<*xf32>)\n\n\nfunc.func @matmul() -> tensor<512x56x56x80xf32>{\n\n%val = arith.constant 2.00000e+00 : f32\n%zero = arith.constant 0.00000e+00 : f32\n\n%tmp_1 = bufferization.alloc_tensor() : tensor<512x112x112x32xf32>\n%1 = linalg.fill ins(%val : f32) outs(%tmp_1 : tensor<512x112x112x32xf32>) -> tensor<512x112x112x32xf32>\n%tmp_3 = bufferization.alloc_tensor() : tensor<1x1x32x80xf32>\n%3 = linalg.fill ins(%val : f32) outs(%tmp_3 : tensor<1x1x32x80xf32>) -> tensor<1x1x32x80xf32>\n%tmp_7 = bufferization.alloc_tensor() : tensor<512x56x56x80xf32>\n%7 = linalg.fill ins(%val : f32) outs(%tmp_7 : tensor<512x56x56x80xf32>) -> tensor<512x56x56x80xf32>\n\n%t0 = func.call @nanoTime() : () -> (i64)\n\n%return_arg = linalg.conv_2d_nhwc_hwcf {dilations = dense<1> : tensor<2xi64>, strides = dense<1> : tensor<2xi64>} ins(%1, %3 : tensor<512x112x112x32xf32>, tensor<1x1x32x80xf32>) outs(%7 : tensor<512x56x56x80xf32>) -> tensor<512x56x56x80xf32>\n%t = func.call @nanoTime() : () -> (i64)\n%delta = arith.subi %t, %t0 : i64\n%fp = arith.uitofp %delta : i64 to f64\n// func.call @printFlops(%fp) : (f64) -> ()\nfunc.call @printI64(%delta) : (i64) -> ()\nfunc.call @printNewline() : () -> ()\n\nreturn %return_arg : tensor<512x56x56x80xf32> \n}\n\nfunc.func @main(){\n    %c1 = arith.constant 1: index\n    %c0 = arith.constant 0 : index\n    %n = arith.constant 2: index\n    scf.for %i = %c0 to %n step %c1 {\n    %outputmain = func.call @matmul() : () -> tensor<512x56x56x80xf32>\n    }\n    return\n}\n\n", "loops_data": {"nested_loops": [["%arg3", 0, 512, 1], ["%arg4", 0, 56, 1], ["%arg5", 0, 56, 1], ["%arg6", 0, 80, 1], ["%arg7", 0, 1, 1], ["%arg8", 0, 1, 1], ["%arg9", 0, 32, 1]], "op_count": {"+": 1, "-": 0, "*": 1, "/": 0, "exp": 0}, "load_data": [["%arg3", "%arg4 + %arg7", "%arg5 + %arg8", "%arg9"], ["%arg7", "%arg8", "%arg9", "%arg6"], ["%arg3", "%arg4", "%arg5", "%arg6"]], "store_data": ["%arg3", "%arg4", "%arg5", "%arg6"]}, "execution_time": 11588765455}], ["linalg.conv_2d_nhwc_hwcf {dilations = dense<1> : tensor<2xi64>, strides = dense<1> : tensor<2xi64>} ins(%1, %3 : tensor<512x1x1x1088xf32>, tensor<1x1x1088x128xf32>) outs(%7 : tensor<512x1x1x128xf32>) -> tensor<512x1x1x128xf32>", {"operation": "linalg.conv_2d_nhwc_hwcf {dilations = dense<1> : tensor<2xi64>, strides = dense<1> : tensor<2xi64>} ins(%1, %3 : tensor<512x1x1x1088xf32>, tensor<1x1x1088x128xf32>) outs(%7 : tensor<512x1x1x128xf32>) -> tensor<512x1x1x128xf32>", "wrapped_operation": "func.func @func_call(%1: tensor<512x1x1x1088xf32>, %3: tensor<1x1x1088x128xf32>, %7: tensor<512x1x1x128xf32>) -> tensor<512x1x1x128xf32> {\n  %ret = linalg.conv_2d_nhwc_hwcf {dilations = dense<1> : tensor<2xi64>, strides = dense<1> : tensor<2xi64>} ins(%1, %3 : tensor<512x1x1x1088xf32>, tensor<1x1x1088x128xf32>) outs(%7 : tensor<512x1x1x128xf32>) -> tensor<512x1x1x128xf32>\n  return %ret : tensor<512x1x1x128xf32>\n}", "lowered_operation": "#map = affine_map<(d0, d1) -> (d0 + d1)>\nmodule {\n  func.func @func_call(%arg0: tensor<512x1x1x1088xf32>, %arg1: tensor<1x1x1088x128xf32>, %arg2: tensor<512x1x1x128xf32>) -> tensor<512x1x1x128xf32> {\n    %0 = bufferization.to_memref %arg1 : memref<1x1x1088x128xf32>\n    %1 = bufferization.to_memref %arg0 : memref<512x1x1x1088xf32>\n    %2 = bufferization.to_memref %arg2 : memref<512x1x1x128xf32>\n    %alloc = memref.alloc() {alignment = 64 : i64} : memref<512x1x1x128xf32>\n    memref.copy %2, %alloc : memref<512x1x1x128xf32> to memref<512x1x1x128xf32>\n    affine.for %arg3 = 0 to 512 {\n      affine.for %arg4 = 0 to 1 {\n        affine.for %arg5 = 0 to 1 {\n          affine.for %arg6 = 0 to 128 {\n            affine.for %arg7 = 0 to 1 {\n              affine.for %arg8 = 0 to 1 {\n                affine.for %arg9 = 0 to 1088 {\n                  %4 = affine.apply #map(%arg4, %arg7)\n                  %5 = affine.apply #map(%arg5, %arg8)\n                  %6 = affine.load %1[%arg3, %4, %5, %arg9] : memref<512x1x1x1088xf32>\n                  %7 = affine.load %0[%arg7, %arg8, %arg9, %arg6] : memref<1x1x1088x128xf32>\n                  %8 = affine.load %alloc[%arg3, %arg4, %arg5, %arg6] : memref<512x1x1x128xf32>\n                  %9 = arith.mulf %6, %7 : f32\n                  %10 = arith.addf %8, %9 : f32\n                  affine.store %10, %alloc[%arg3, %arg4, %arg5, %arg6] : memref<512x1x1x128xf32>\n                }\n              }\n            }\n          }\n        }\n      }\n    }\n    %3 = bufferization.to_tensor %alloc : memref<512x1x1x128xf32>\n    return %3 : tensor<512x1x1x128xf32>\n  }\n}\n\n", "transform_wrapped_operation": "func.func private @nanoTime() -> i64 attributes { llvm.emit_c_interface }\nfunc.func private @printFlops(f64)\nfunc.func private @printI64(i64)\nfunc.func private @printNewline()\nfunc.func private @printMemrefF32(tensor<*xf32>)\n\n\nfunc.func @matmul() -> tensor<512x1x1x128xf32>{\n\n%val = arith.constant 2.00000e+00 : f32\n%zero = arith.constant 0.00000e+00 : f32\n\n%tmp_1 = bufferization.alloc_tensor() : tensor<512x1x1x1088xf32>\n%1 = linalg.fill ins(%val : f32) outs(%tmp_1 : tensor<512x1x1x1088xf32>) -> tensor<512x1x1x1088xf32>\n%tmp_3 = bufferization.alloc_tensor() : tensor<1x1x1088x128xf32>\n%3 = linalg.fill ins(%val : f32) outs(%tmp_3 : tensor<1x1x1088x128xf32>) -> tensor<1x1x1088x128xf32>\n%tmp_7 = bufferization.alloc_tensor() : tensor<512x1x1x128xf32>\n%7 = linalg.fill ins(%val : f32) outs(%tmp_7 : tensor<512x1x1x128xf32>) -> tensor<512x1x1x128xf32>\n\n%t0 = func.call @nanoTime() : () -> (i64)\n\n%return_arg = linalg.conv_2d_nhwc_hwcf {dilations = dense<1> : tensor<2xi64>, strides = dense<1> : tensor<2xi64>} ins(%1, %3 : tensor<512x1x1x1088xf32>, tensor<1x1x1088x128xf32>) outs(%7 : tensor<512x1x1x128xf32>) -> tensor<512x1x1x128xf32>\n%t = func.call @nanoTime() : () -> (i64)\n%delta = arith.subi %t, %t0 : i64\n%fp = arith.uitofp %delta : i64 to f64\n// func.call @printFlops(%fp) : (f64) -> ()\nfunc.call @printI64(%delta) : (i64) -> ()\nfunc.call @printNewline() : () -> ()\n\nreturn %return_arg : tensor<512x1x1x128xf32> \n}\n\nfunc.func @main(){\n    %c1 = arith.constant 1: index\n    %c0 = arith.constant 0 : index\n    %n = arith.constant 2: index\n    scf.for %i = %c0 to %n step %c1 {\n    %outputmain = func.call @matmul() : () -> tensor<512x1x1x128xf32>\n    }\n    return\n}\n\n", "loops_data": {"nested_loops": [["%arg3", 0, 512, 1], ["%arg4", 0, 1, 1], ["%arg5", 0, 1, 1], ["%arg6", 0, 128, 1], ["%arg7", 0, 1, 1], ["%arg8", 0, 1, 1], ["%arg9", 0, 1088, 1]], "op_count": {"+": 1, "-": 0, "*": 1, "/": 0, "exp": 0}, "load_data": [["%arg3", "%arg4 + %arg7", "%arg5 + %arg8", "%arg9"], ["%arg7", "%arg8", "%arg9", "%arg6"], ["%arg3", "%arg4", "%arg5", "%arg6"]], "store_data": ["%arg3", "%arg4", "%arg5", "%arg6"]}, "execution_time": 266205950}], ["linalg.conv_2d_nhwc_hwcf {dilations = dense<1> : tensor<2xi64>, strides = dense<1> : tensor<2xi64>} ins(%1, %3 : tensor<512x7x7x800xf32>, tensor<1x1x800x128xf32>) outs(%7 : tensor<512x7x7x128xf32>) -> tensor<512x7x7x128xf32>", {"operation": "linalg.conv_2d_nhwc_hwcf {dilations = dense<1> : tensor<2xi64>, strides = dense<1> : tensor<2xi64>} ins(%1, %3 : tensor<512x7x7x800xf32>, tensor<1x1x800x128xf32>) outs(%7 : tensor<512x7x7x128xf32>) -> tensor<512x7x7x128xf32>", "wrapped_operation": "func.func @func_call(%1: tensor<512x7x7x800xf32>, %3: tensor<1x1x800x128xf32>, %7: tensor<512x7x7x128xf32>) -> tensor<512x7x7x128xf32> {\n  %ret = linalg.conv_2d_nhwc_hwcf {dilations = dense<1> : tensor<2xi64>, strides = dense<1> : tensor<2xi64>} ins(%1, %3 : tensor<512x7x7x800xf32>, tensor<1x1x800x128xf32>) outs(%7 : tensor<512x7x7x128xf32>) -> tensor<512x7x7x128xf32>\n  return %ret : tensor<512x7x7x128xf32>\n}", "lowered_operation": "#map = affine_map<(d0, d1) -> (d0 + d1)>\nmodule {\n  func.func @func_call(%arg0: tensor<512x7x7x800xf32>, %arg1: tensor<1x1x800x128xf32>, %arg2: tensor<512x7x7x128xf32>) -> tensor<512x7x7x128xf32> {\n    %0 = bufferization.to_memref %arg1 : memref<1x1x800x128xf32>\n    %1 = bufferization.to_memref %arg0 : memref<512x7x7x800xf32>\n    %2 = bufferization.to_memref %arg2 : memref<512x7x7x128xf32>\n    %alloc = memref.alloc() {alignment = 64 : i64} : memref<512x7x7x128xf32>\n    memref.copy %2, %alloc : memref<512x7x7x128xf32> to memref<512x7x7x128xf32>\n    affine.for %arg3 = 0 to 512 {\n      affine.for %arg4 = 0 to 7 {\n        affine.for %arg5 = 0 to 7 {\n          affine.for %arg6 = 0 to 128 {\n            affine.for %arg7 = 0 to 1 {\n              affine.for %arg8 = 0 to 1 {\n                affine.for %arg9 = 0 to 800 {\n                  %4 = affine.apply #map(%arg4, %arg7)\n                  %5 = affine.apply #map(%arg5, %arg8)\n                  %6 = affine.load %1[%arg3, %4, %5, %arg9] : memref<512x7x7x800xf32>\n                  %7 = affine.load %0[%arg7, %arg8, %arg9, %arg6] : memref<1x1x800x128xf32>\n                  %8 = affine.load %alloc[%arg3, %arg4, %arg5, %arg6] : memref<512x7x7x128xf32>\n                  %9 = arith.mulf %6, %7 : f32\n                  %10 = arith.addf %8, %9 : f32\n                  affine.store %10, %alloc[%arg3, %arg4, %arg5, %arg6] : memref<512x7x7x128xf32>\n                }\n              }\n            }\n          }\n        }\n      }\n    }\n    %3 = bufferization.to_tensor %alloc : memref<512x7x7x128xf32>\n    return %3 : tensor<512x7x7x128xf32>\n  }\n}\n\n", "transform_wrapped_operation": "func.func private @nanoTime() -> i64 attributes { llvm.emit_c_interface }\nfunc.func private @printFlops(f64)\nfunc.func private @printI64(i64)\nfunc.func private @printNewline()\nfunc.func private @printMemrefF32(tensor<*xf32>)\n\n\nfunc.func @matmul() -> tensor<512x7x7x128xf32>{\n\n%val = arith.constant 2.00000e+00 : f32\n%zero = arith.constant 0.00000e+00 : f32\n\n%tmp_1 = bufferization.alloc_tensor() : tensor<512x7x7x800xf32>\n%1 = linalg.fill ins(%val : f32) outs(%tmp_1 : tensor<512x7x7x800xf32>) -> tensor<512x7x7x800xf32>\n%tmp_3 = bufferization.alloc_tensor() : tensor<1x1x800x128xf32>\n%3 = linalg.fill ins(%val : f32) outs(%tmp_3 : tensor<1x1x800x128xf32>) -> tensor<1x1x800x128xf32>\n%tmp_7 = bufferization.alloc_tensor() : tensor<512x7x7x128xf32>\n%7 = linalg.fill ins(%val : f32) outs(%tmp_7 : tensor<512x7x7x128xf32>) -> tensor<512x7x7x128xf32>\n\n%t0 = func.call @nanoTime() : () -> (i64)\n\n%return_arg = linalg.conv_2d_nhwc_hwcf {dilations = dense<1> : tensor<2xi64>, strides = dense<1> : tensor<2xi64>} ins(%1, %3 : tensor<512x7x7x800xf32>, tensor<1x1x800x128xf32>) outs(%7 : tensor<512x7x7x128xf32>) -> tensor<512x7x7x128xf32>\n%t = func.call @nanoTime() : () -> (i64)\n%delta = arith.subi %t, %t0 : i64\n%fp = arith.uitofp %delta : i64 to f64\n// func.call @printFlops(%fp) : (f64) -> ()\nfunc.call @printI64(%delta) : (i64) -> ()\nfunc.call @printNewline() : () -> ()\n\nreturn %return_arg : tensor<512x7x7x128xf32> \n}\n\nfunc.func @main(){\n    %c1 = arith.constant 1: index\n    %c0 = arith.constant 0 : index\n    %n = arith.constant 2: index\n    scf.for %i = %c0 to %n step %c1 {\n    %outputmain = func.call @matmul() : () -> tensor<512x7x7x128xf32>\n    }\n    return\n}\n\n", "loops_data": {"nested_loops": [["%arg3", 0, 512, 1], ["%arg4", 0, 7, 1], ["%arg5", 0, 7, 1], ["%arg6", 0, 128, 1], ["%arg7", 0, 1, 1], ["%arg8", 0, 1, 1], ["%arg9", 0, 800, 1]], "op_count": {"+": 1, "-": 0, "*": 1, "/": 0, "exp": 0}, "load_data": [["%arg3", "%arg4 + %arg7", "%arg5 + %arg8", "%arg9"], ["%arg7", "%arg8", "%arg9", "%arg6"], ["%arg3", "%arg4", "%arg5", "%arg6"]], "store_data": ["%arg3", "%arg4", "%arg5", "%arg6"]}, "execution_time": 9611931095}], ["linalg.conv_2d_nhwc_hwcf {dilations = dense<1> : tensor<2xi64>, strides = dense<1> : tensor<2xi64>} ins(%1, %3 : tensor<512x14x14x152xf32>, tensor<1x1x152x152xf32>) outs(%7 : tensor<512x14x14x152xf32>) -> tensor<512x14x14x152xf32>", {"operation": "linalg.conv_2d_nhwc_hwcf {dilations = dense<1> : tensor<2xi64>, strides = dense<1> : tensor<2xi64>} ins(%1, %3 : tensor<512x14x14x152xf32>, tensor<1x1x152x152xf32>) outs(%7 : tensor<512x14x14x152xf32>) -> tensor<512x14x14x152xf32>", "wrapped_operation": "func.func @func_call(%1: tensor<512x14x14x152xf32>, %3: tensor<1x1x152x152xf32>, %7: tensor<512x14x14x152xf32>) -> tensor<512x14x14x152xf32> {\n  %ret = linalg.conv_2d_nhwc_hwcf {dilations = dense<1> : tensor<2xi64>, strides = dense<1> : tensor<2xi64>} ins(%1, %3 : tensor<512x14x14x152xf32>, tensor<1x1x152x152xf32>) outs(%7 : tensor<512x14x14x152xf32>) -> tensor<512x14x14x152xf32>\n  return %ret : tensor<512x14x14x152xf32>\n}", "lowered_operation": "#map = affine_map<(d0, d1) -> (d0 + d1)>\nmodule {\n  func.func @func_call(%arg0: tensor<512x14x14x152xf32>, %arg1: tensor<1x1x152x152xf32>, %arg2: tensor<512x14x14x152xf32>) -> tensor<512x14x14x152xf32> {\n    %0 = bufferization.to_memref %arg1 : memref<1x1x152x152xf32>\n    %1 = bufferization.to_memref %arg0 : memref<512x14x14x152xf32>\n    %2 = bufferization.to_memref %arg2 : memref<512x14x14x152xf32>\n    %alloc = memref.alloc() {alignment = 64 : i64} : memref<512x14x14x152xf32>\n    memref.copy %2, %alloc : memref<512x14x14x152xf32> to memref<512x14x14x152xf32>\n    affine.for %arg3 = 0 to 512 {\n      affine.for %arg4 = 0 to 14 {\n        affine.for %arg5 = 0 to 14 {\n          affine.for %arg6 = 0 to 152 {\n            affine.for %arg7 = 0 to 1 {\n              affine.for %arg8 = 0 to 1 {\n                affine.for %arg9 = 0 to 152 {\n                  %4 = affine.apply #map(%arg4, %arg7)\n                  %5 = affine.apply #map(%arg5, %arg8)\n                  %6 = affine.load %1[%arg3, %4, %5, %arg9] : memref<512x14x14x152xf32>\n                  %7 = affine.load %0[%arg7, %arg8, %arg9, %arg6] : memref<1x1x152x152xf32>\n                  %8 = affine.load %alloc[%arg3, %arg4, %arg5, %arg6] : memref<512x14x14x152xf32>\n                  %9 = arith.mulf %6, %7 : f32\n                  %10 = arith.addf %8, %9 : f32\n                  affine.store %10, %alloc[%arg3, %arg4, %arg5, %arg6] : memref<512x14x14x152xf32>\n                }\n              }\n            }\n          }\n        }\n      }\n    }\n    %3 = bufferization.to_tensor %alloc : memref<512x14x14x152xf32>\n    return %3 : tensor<512x14x14x152xf32>\n  }\n}\n\n", "transform_wrapped_operation": "func.func private @nanoTime() -> i64 attributes { llvm.emit_c_interface }\nfunc.func private @printFlops(f64)\nfunc.func private @printI64(i64)\nfunc.func private @printNewline()\nfunc.func private @printMemrefF32(tensor<*xf32>)\n\n\nfunc.func @matmul() -> tensor<512x14x14x152xf32>{\n\n%val = arith.constant 2.00000e+00 : f32\n%zero = arith.constant 0.00000e+00 : f32\n\n%tmp_1 = bufferization.alloc_tensor() : tensor<512x14x14x152xf32>\n%1 = linalg.fill ins(%val : f32) outs(%tmp_1 : tensor<512x14x14x152xf32>) -> tensor<512x14x14x152xf32>\n%tmp_3 = bufferization.alloc_tensor() : tensor<1x1x152x152xf32>\n%3 = linalg.fill ins(%val : f32) outs(%tmp_3 : tensor<1x1x152x152xf32>) -> tensor<1x1x152x152xf32>\n%tmp_7 = bufferization.alloc_tensor() : tensor<512x14x14x152xf32>\n%7 = linalg.fill ins(%val : f32) outs(%tmp_7 : tensor<512x14x14x152xf32>) -> tensor<512x14x14x152xf32>\n\n%t0 = func.call @nanoTime() : () -> (i64)\n\n%return_arg = linalg.conv_2d_nhwc_hwcf {dilations = dense<1> : tensor<2xi64>, strides = dense<1> : tensor<2xi64>} ins(%1, %3 : tensor<512x14x14x152xf32>, tensor<1x1x152x152xf32>) outs(%7 : tensor<512x14x14x152xf32>) -> tensor<512x14x14x152xf32>\n%t = func.call @nanoTime() : () -> (i64)\n%delta = arith.subi %t, %t0 : i64\n%fp = arith.uitofp %delta : i64 to f64\n// func.call @printFlops(%fp) : (f64) -> ()\nfunc.call @printI64(%delta) : (i64) -> ()\nfunc.call @printNewline() : () -> ()\n\nreturn %return_arg : tensor<512x14x14x152xf32> \n}\n\nfunc.func @main(){\n    %c1 = arith.constant 1: index\n    %c0 = arith.constant 0 : index\n    %n = arith.constant 2: index\n    scf.for %i = %c0 to %n step %c1 {\n    %outputmain = func.call @matmul() : () -> tensor<512x14x14x152xf32>\n    }\n    return\n}\n\n", "loops_data": {"nested_loops": [["%arg3", 0, 512, 1], ["%arg4", 0, 14, 1], ["%arg5", 0, 14, 1], ["%arg6", 0, 152, 1], ["%arg7", 0, 1, 1], ["%arg8", 0, 1, 1], ["%arg9", 0, 152, 1]], "op_count": {"+": 1, "-": 0, "*": 1, "/": 0, "exp": 0}, "load_data": [["%arg3", "%arg4 + %arg7", "%arg5 + %arg8", "%arg9"], ["%arg7", "%arg8", "%arg9", "%arg6"], ["%arg3", "%arg4", "%arg5", "%arg6"]], "store_data": ["%arg3", "%arg4", "%arg5", "%arg6"]}, "execution_time": 8294093327}], ["linalg.conv_2d_nhwc_hwcf {dilations = dense<1> : tensor<2xi64>, strides = dense<1> : tensor<2xi64>} ins(%1, %3 : tensor<512x112x112x32xf32>, tensor<1x1x32x64xf32>) outs(%7 : tensor<512x56x56x64xf32>) -> tensor<512x56x56x64xf32>", {"operation": "linalg.conv_2d_nhwc_hwcf {dilations = dense<1> : tensor<2xi64>, strides = dense<1> : tensor<2xi64>} ins(%1, %3 : tensor<512x112x112x32xf32>, tensor<1x1x32x64xf32>) outs(%7 : tensor<512x56x56x64xf32>) -> tensor<512x56x56x64xf32>", "wrapped_operation": "func.func @func_call(%1: tensor<512x112x112x32xf32>, %3: tensor<1x1x32x64xf32>, %7: tensor<512x56x56x64xf32>) -> tensor<512x56x56x64xf32> {\n  %ret = linalg.conv_2d_nhwc_hwcf {dilations = dense<1> : tensor<2xi64>, strides = dense<1> : tensor<2xi64>} ins(%1, %3 : tensor<512x112x112x32xf32>, tensor<1x1x32x64xf32>) outs(%7 : tensor<512x56x56x64xf32>) -> tensor<512x56x56x64xf32>\n  return %ret : tensor<512x56x56x64xf32>\n}", "lowered_operation": "#map = affine_map<(d0, d1) -> (d0 + d1)>\nmodule {\n  func.func @func_call(%arg0: tensor<512x112x112x32xf32>, %arg1: tensor<1x1x32x64xf32>, %arg2: tensor<512x56x56x64xf32>) -> tensor<512x56x56x64xf32> {\n    %0 = bufferization.to_memref %arg1 : memref<1x1x32x64xf32>\n    %1 = bufferization.to_memref %arg0 : memref<512x112x112x32xf32>\n    %2 = bufferization.to_memref %arg2 : memref<512x56x56x64xf32>\n    %alloc = memref.alloc() {alignment = 64 : i64} : memref<512x56x56x64xf32>\n    memref.copy %2, %alloc : memref<512x56x56x64xf32> to memref<512x56x56x64xf32>\n    affine.for %arg3 = 0 to 512 {\n      affine.for %arg4 = 0 to 56 {\n        affine.for %arg5 = 0 to 56 {\n          affine.for %arg6 = 0 to 64 {\n            affine.for %arg7 = 0 to 1 {\n              affine.for %arg8 = 0 to 1 {\n                affine.for %arg9 = 0 to 32 {\n                  %4 = affine.apply #map(%arg4, %arg7)\n                  %5 = affine.apply #map(%arg5, %arg8)\n                  %6 = affine.load %1[%arg3, %4, %5, %arg9] : memref<512x112x112x32xf32>\n                  %7 = affine.load %0[%arg7, %arg8, %arg9, %arg6] : memref<1x1x32x64xf32>\n                  %8 = affine.load %alloc[%arg3, %arg4, %arg5, %arg6] : memref<512x56x56x64xf32>\n                  %9 = arith.mulf %6, %7 : f32\n                  %10 = arith.addf %8, %9 : f32\n                  affine.store %10, %alloc[%arg3, %arg4, %arg5, %arg6] : memref<512x56x56x64xf32>\n                }\n              }\n            }\n          }\n        }\n      }\n    }\n    %3 = bufferization.to_tensor %alloc : memref<512x56x56x64xf32>\n    return %3 : tensor<512x56x56x64xf32>\n  }\n}\n\n", "transform_wrapped_operation": "func.func private @nanoTime() -> i64 attributes { llvm.emit_c_interface }\nfunc.func private @printFlops(f64)\nfunc.func private @printI64(i64)\nfunc.func private @printNewline()\nfunc.func private @printMemrefF32(tensor<*xf32>)\n\n\nfunc.func @matmul() -> tensor<512x56x56x64xf32>{\n\n%val = arith.constant 2.00000e+00 : f32\n%zero = arith.constant 0.00000e+00 : f32\n\n%tmp_1 = bufferization.alloc_tensor() : tensor<512x112x112x32xf32>\n%1 = linalg.fill ins(%val : f32) outs(%tmp_1 : tensor<512x112x112x32xf32>) -> tensor<512x112x112x32xf32>\n%tmp_3 = bufferization.alloc_tensor() : tensor<1x1x32x64xf32>\n%3 = linalg.fill ins(%val : f32) outs(%tmp_3 : tensor<1x1x32x64xf32>) -> tensor<1x1x32x64xf32>\n%tmp_7 = bufferization.alloc_tensor() : tensor<512x56x56x64xf32>\n%7 = linalg.fill ins(%val : f32) outs(%tmp_7 : tensor<512x56x56x64xf32>) -> tensor<512x56x56x64xf32>\n\n%t0 = func.call @nanoTime() : () -> (i64)\n\n%return_arg = linalg.conv_2d_nhwc_hwcf {dilations = dense<1> : tensor<2xi64>, strides = dense<1> : tensor<2xi64>} ins(%1, %3 : tensor<512x112x112x32xf32>, tensor<1x1x32x64xf32>) outs(%7 : tensor<512x56x56x64xf32>) -> tensor<512x56x56x64xf32>\n%t = func.call @nanoTime() : () -> (i64)\n%delta = arith.subi %t, %t0 : i64\n%fp = arith.uitofp %delta : i64 to f64\n// func.call @printFlops(%fp) : (f64) -> ()\nfunc.call @printI64(%delta) : (i64) -> ()\nfunc.call @printNewline() : () -> ()\n\nreturn %return_arg : tensor<512x56x56x64xf32> \n}\n\nfunc.func @main(){\n    %c1 = arith.constant 1: index\n    %c0 = arith.constant 0 : index\n    %n = arith.constant 2: index\n    scf.for %i = %c0 to %n step %c1 {\n    %outputmain = func.call @matmul() : () -> tensor<512x56x56x64xf32>\n    }\n    return\n}\n\n", "loops_data": {"nested_loops": [["%arg3", 0, 512, 1], ["%arg4", 0, 56, 1], ["%arg5", 0, 56, 1], ["%arg6", 0, 64, 1], ["%arg7", 0, 1, 1], ["%arg8", 0, 1, 1], ["%arg9", 0, 32, 1]], "op_count": {"+": 1, "-": 0, "*": 1, "/": 0, "exp": 0}, "load_data": [["%arg3", "%arg4 + %arg7", "%arg5 + %arg8", "%arg9"], ["%arg7", "%arg8", "%arg9", "%arg6"], ["%arg3", "%arg4", "%arg5", "%arg6"]], "store_data": ["%arg3", "%arg4", "%arg5", "%arg6"]}, "execution_time": 9174335939}], ["linalg.conv_2d_nhwc_hwcf {dilations = dense<1> : tensor<2xi64>, strides = dense<1> : tensor<2xi64>} ins(%1, %3 : tensor<512x1x1x216xf32>, tensor<1x1x216x18xf32>) outs(%7 : tensor<512x1x1x18xf32>) -> tensor<512x1x1x18xf32>", {"operation": "linalg.conv_2d_nhwc_hwcf {dilations = dense<1> : tensor<2xi64>, strides = dense<1> : tensor<2xi64>} ins(%1, %3 : tensor<512x1x1x216xf32>, tensor<1x1x216x18xf32>) outs(%7 : tensor<512x1x1x18xf32>) -> tensor<512x1x1x18xf32>", "wrapped_operation": "func.func @func_call(%1: tensor<512x1x1x216xf32>, %3: tensor<1x1x216x18xf32>, %7: tensor<512x1x1x18xf32>) -> tensor<512x1x1x18xf32> {\n  %ret = linalg.conv_2d_nhwc_hwcf {dilations = dense<1> : tensor<2xi64>, strides = dense<1> : tensor<2xi64>} ins(%1, %3 : tensor<512x1x1x216xf32>, tensor<1x1x216x18xf32>) outs(%7 : tensor<512x1x1x18xf32>) -> tensor<512x1x1x18xf32>\n  return %ret : tensor<512x1x1x18xf32>\n}", "lowered_operation": "#map = affine_map<(d0, d1) -> (d0 + d1)>\nmodule {\n  func.func @func_call(%arg0: tensor<512x1x1x216xf32>, %arg1: tensor<1x1x216x18xf32>, %arg2: tensor<512x1x1x18xf32>) -> tensor<512x1x1x18xf32> {\n    %0 = bufferization.to_memref %arg1 : memref<1x1x216x18xf32>\n    %1 = bufferization.to_memref %arg0 : memref<512x1x1x216xf32>\n    %2 = bufferization.to_memref %arg2 : memref<512x1x1x18xf32>\n    %alloc = memref.alloc() {alignment = 64 : i64} : memref<512x1x1x18xf32>\n    memref.copy %2, %alloc : memref<512x1x1x18xf32> to memref<512x1x1x18xf32>\n    affine.for %arg3 = 0 to 512 {\n      affine.for %arg4 = 0 to 1 {\n        affine.for %arg5 = 0 to 1 {\n          affine.for %arg6 = 0 to 18 {\n            affine.for %arg7 = 0 to 1 {\n              affine.for %arg8 = 0 to 1 {\n                affine.for %arg9 = 0 to 216 {\n                  %4 = affine.apply #map(%arg4, %arg7)\n                  %5 = affine.apply #map(%arg5, %arg8)\n                  %6 = affine.load %1[%arg3, %4, %5, %arg9] : memref<512x1x1x216xf32>\n                  %7 = affine.load %0[%arg7, %arg8, %arg9, %arg6] : memref<1x1x216x18xf32>\n                  %8 = affine.load %alloc[%arg3, %arg4, %arg5, %arg6] : memref<512x1x1x18xf32>\n                  %9 = arith.mulf %6, %7 : f32\n                  %10 = arith.addf %8, %9 : f32\n                  affine.store %10, %alloc[%arg3, %arg4, %arg5, %arg6] : memref<512x1x1x18xf32>\n                }\n              }\n            }\n          }\n        }\n      }\n    }\n    %3 = bufferization.to_tensor %alloc : memref<512x1x1x18xf32>\n    return %3 : tensor<512x1x1x18xf32>\n  }\n}\n\n", "transform_wrapped_operation": "func.func private @nanoTime() -> i64 attributes { llvm.emit_c_interface }\nfunc.func private @printFlops(f64)\nfunc.func private @printI64(i64)\nfunc.func private @printNewline()\nfunc.func private @printMemrefF32(tensor<*xf32>)\n\n\nfunc.func @matmul() -> tensor<512x1x1x18xf32>{\n\n%val = arith.constant 2.00000e+00 : f32\n%zero = arith.constant 0.00000e+00 : f32\n\n%tmp_1 = bufferization.alloc_tensor() : tensor<512x1x1x216xf32>\n%1 = linalg.fill ins(%val : f32) outs(%tmp_1 : tensor<512x1x1x216xf32>) -> tensor<512x1x1x216xf32>\n%tmp_3 = bufferization.alloc_tensor() : tensor<1x1x216x18xf32>\n%3 = linalg.fill ins(%val : f32) outs(%tmp_3 : tensor<1x1x216x18xf32>) -> tensor<1x1x216x18xf32>\n%tmp_7 = bufferization.alloc_tensor() : tensor<512x1x1x18xf32>\n%7 = linalg.fill ins(%val : f32) outs(%tmp_7 : tensor<512x1x1x18xf32>) -> tensor<512x1x1x18xf32>\n\n%t0 = func.call @nanoTime() : () -> (i64)\n\n%return_arg = linalg.conv_2d_nhwc_hwcf {dilations = dense<1> : tensor<2xi64>, strides = dense<1> : tensor<2xi64>} ins(%1, %3 : tensor<512x1x1x216xf32>, tensor<1x1x216x18xf32>) outs(%7 : tensor<512x1x1x18xf32>) -> tensor<512x1x1x18xf32>\n%t = func.call @nanoTime() : () -> (i64)\n%delta = arith.subi %t, %t0 : i64\n%fp = arith.uitofp %delta : i64 to f64\n// func.call @printFlops(%fp) : (f64) -> ()\nfunc.call @printI64(%delta) : (i64) -> ()\nfunc.call @printNewline() : () -> ()\n\nreturn %return_arg : tensor<512x1x1x18xf32> \n}\n\nfunc.func @main(){\n    %c1 = arith.constant 1: index\n    %c0 = arith.constant 0 : index\n    %n = arith.constant 2: index\n    scf.for %i = %c0 to %n step %c1 {\n    %outputmain = func.call @matmul() : () -> tensor<512x1x1x18xf32>\n    }\n    return\n}\n\n", "loops_data": {"nested_loops": [["%arg3", 0, 512, 1], ["%arg4", 0, 1, 1], ["%arg5", 0, 1, 1], ["%arg6", 0, 18, 1], ["%arg7", 0, 1, 1], ["%arg8", 0, 1, 1], ["%arg9", 0, 216, 1]], "op_count": {"+": 1, "-": 0, "*": 1, "/": 0, "exp": 0}, "load_data": [["%arg3", "%arg4 + %arg7", "%arg5 + %arg8", "%arg9"], ["%arg7", "%arg8", "%arg9", "%arg6"], ["%arg3", "%arg4", "%arg5", "%arg6"]], "store_data": ["%arg3", "%arg4", "%arg5", "%arg6"]}, "execution_time": 7032611}], ["linalg.conv_2d_nhwc_hwcf {dilations = dense<1> : tensor<2xi64>, strides = dense<1> : tensor<2xi64>} ins(%1, %3 : tensor<512x7x7x1280xf32>, tensor<1x1x1280x128xf32>) outs(%7 : tensor<512x7x7x128xf32>) -> tensor<512x7x7x128xf32>", {"operation": "linalg.conv_2d_nhwc_hwcf {dilations = dense<1> : tensor<2xi64>, strides = dense<1> : tensor<2xi64>} ins(%1, %3 : tensor<512x7x7x1280xf32>, tensor<1x1x1280x128xf32>) outs(%7 : tensor<512x7x7x128xf32>) -> tensor<512x7x7x128xf32>", "wrapped_operation": "func.func @func_call(%1: tensor<512x7x7x1280xf32>, %3: tensor<1x1x1280x128xf32>, %7: tensor<512x7x7x128xf32>) -> tensor<512x7x7x128xf32> {\n  %ret = linalg.conv_2d_nhwc_hwcf {dilations = dense<1> : tensor<2xi64>, strides = dense<1> : tensor<2xi64>} ins(%1, %3 : tensor<512x7x7x1280xf32>, tensor<1x1x1280x128xf32>) outs(%7 : tensor<512x7x7x128xf32>) -> tensor<512x7x7x128xf32>\n  return %ret : tensor<512x7x7x128xf32>\n}", "lowered_operation": "#map = affine_map<(d0, d1) -> (d0 + d1)>\nmodule {\n  func.func @func_call(%arg0: tensor<512x7x7x1280xf32>, %arg1: tensor<1x1x1280x128xf32>, %arg2: tensor<512x7x7x128xf32>) -> tensor<512x7x7x128xf32> {\n    %0 = bufferization.to_memref %arg1 : memref<1x1x1280x128xf32>\n    %1 = bufferization.to_memref %arg0 : memref<512x7x7x1280xf32>\n    %2 = bufferization.to_memref %arg2 : memref<512x7x7x128xf32>\n    %alloc = memref.alloc() {alignment = 64 : i64} : memref<512x7x7x128xf32>\n    memref.copy %2, %alloc : memref<512x7x7x128xf32> to memref<512x7x7x128xf32>\n    affine.for %arg3 = 0 to 512 {\n      affine.for %arg4 = 0 to 7 {\n        affine.for %arg5 = 0 to 7 {\n          affine.for %arg6 = 0 to 128 {\n            affine.for %arg7 = 0 to 1 {\n              affine.for %arg8 = 0 to 1 {\n                affine.for %arg9 = 0 to 1280 {\n                  %4 = affine.apply #map(%arg4, %arg7)\n                  %5 = affine.apply #map(%arg5, %arg8)\n                  %6 = affine.load %1[%arg3, %4, %5, %arg9] : memref<512x7x7x1280xf32>\n                  %7 = affine.load %0[%arg7, %arg8, %arg9, %arg6] : memref<1x1x1280x128xf32>\n                  %8 = affine.load %alloc[%arg3, %arg4, %arg5, %arg6] : memref<512x7x7x128xf32>\n                  %9 = arith.mulf %6, %7 : f32\n                  %10 = arith.addf %8, %9 : f32\n                  affine.store %10, %alloc[%arg3, %arg4, %arg5, %arg6] : memref<512x7x7x128xf32>\n                }\n              }\n            }\n          }\n        }\n      }\n    }\n    %3 = bufferization.to_tensor %alloc : memref<512x7x7x128xf32>\n    return %3 : tensor<512x7x7x128xf32>\n  }\n}\n\n", "transform_wrapped_operation": "func.func private @nanoTime() -> i64 attributes { llvm.emit_c_interface }\nfunc.func private @printFlops(f64)\nfunc.func private @printI64(i64)\nfunc.func private @printNewline()\nfunc.func private @printMemrefF32(tensor<*xf32>)\n\n\nfunc.func @matmul() -> tensor<512x7x7x128xf32>{\n\n%val = arith.constant 2.00000e+00 : f32\n%zero = arith.constant 0.00000e+00 : f32\n\n%tmp_1 = bufferization.alloc_tensor() : tensor<512x7x7x1280xf32>\n%1 = linalg.fill ins(%val : f32) outs(%tmp_1 : tensor<512x7x7x1280xf32>) -> tensor<512x7x7x1280xf32>\n%tmp_3 = bufferization.alloc_tensor() : tensor<1x1x1280x128xf32>\n%3 = linalg.fill ins(%val : f32) outs(%tmp_3 : tensor<1x1x1280x128xf32>) -> tensor<1x1x1280x128xf32>\n%tmp_7 = bufferization.alloc_tensor() : tensor<512x7x7x128xf32>\n%7 = linalg.fill ins(%val : f32) outs(%tmp_7 : tensor<512x7x7x128xf32>) -> tensor<512x7x7x128xf32>\n\n%t0 = func.call @nanoTime() : () -> (i64)\n\n%return_arg = linalg.conv_2d_nhwc_hwcf {dilations = dense<1> : tensor<2xi64>, strides = dense<1> : tensor<2xi64>} ins(%1, %3 : tensor<512x7x7x1280xf32>, tensor<1x1x1280x128xf32>) outs(%7 : tensor<512x7x7x128xf32>) -> tensor<512x7x7x128xf32>\n%t = func.call @nanoTime() : () -> (i64)\n%delta = arith.subi %t, %t0 : i64\n%fp = arith.uitofp %delta : i64 to f64\n// func.call @printFlops(%fp) : (f64) -> ()\nfunc.call @printI64(%delta) : (i64) -> ()\nfunc.call @printNewline() : () -> ()\n\nreturn %return_arg : tensor<512x7x7x128xf32> \n}\n\nfunc.func @main(){\n    %c1 = arith.constant 1: index\n    %c0 = arith.constant 0 : index\n    %n = arith.constant 2: index\n    scf.for %i = %c0 to %n step %c1 {\n    %outputmain = func.call @matmul() : () -> tensor<512x7x7x128xf32>\n    }\n    return\n}\n\n", "loops_data": {"nested_loops": [["%arg3", 0, 512, 1], ["%arg4", 0, 7, 1], ["%arg5", 0, 7, 1], ["%arg6", 0, 128, 1], ["%arg7", 0, 1, 1], ["%arg8", 0, 1, 1], ["%arg9", 0, 1280, 1]], "op_count": {"+": 1, "-": 0, "*": 1, "/": 0, "exp": 0}, "load_data": [["%arg3", "%arg4 + %arg7", "%arg5 + %arg8", "%arg9"], ["%arg7", "%arg8", "%arg9", "%arg6"], ["%arg3", "%arg4", "%arg5", "%arg6"]], "store_data": ["%arg3", "%arg4", "%arg5", "%arg6"]}, "execution_time": 15437984340}], ["linalg.conv_2d_nhwc_hwcf {dilations = dense<1> : tensor<2xi64>, strides = dense<1> : tensor<2xi64>} ins(%1, %3 : tensor<512x7x7x1376xf32>, tensor<1x1x1376x128xf32>) outs(%7 : tensor<512x7x7x128xf32>) -> tensor<512x7x7x128xf32>", {"operation": "linalg.conv_2d_nhwc_hwcf {dilations = dense<1> : tensor<2xi64>, strides = dense<1> : tensor<2xi64>} ins(%1, %3 : tensor<512x7x7x1376xf32>, tensor<1x1x1376x128xf32>) outs(%7 : tensor<512x7x7x128xf32>) -> tensor<512x7x7x128xf32>", "wrapped_operation": "func.func @func_call(%1: tensor<512x7x7x1376xf32>, %3: tensor<1x1x1376x128xf32>, %7: tensor<512x7x7x128xf32>) -> tensor<512x7x7x128xf32> {\n  %ret = linalg.conv_2d_nhwc_hwcf {dilations = dense<1> : tensor<2xi64>, strides = dense<1> : tensor<2xi64>} ins(%1, %3 : tensor<512x7x7x1376xf32>, tensor<1x1x1376x128xf32>) outs(%7 : tensor<512x7x7x128xf32>) -> tensor<512x7x7x128xf32>\n  return %ret : tensor<512x7x7x128xf32>\n}", "lowered_operation": "#map = affine_map<(d0, d1) -> (d0 + d1)>\nmodule {\n  func.func @func_call(%arg0: tensor<512x7x7x1376xf32>, %arg1: tensor<1x1x1376x128xf32>, %arg2: tensor<512x7x7x128xf32>) -> tensor<512x7x7x128xf32> {\n    %0 = bufferization.to_memref %arg1 : memref<1x1x1376x128xf32>\n    %1 = bufferization.to_memref %arg0 : memref<512x7x7x1376xf32>\n    %2 = bufferization.to_memref %arg2 : memref<512x7x7x128xf32>\n    %alloc = memref.alloc() {alignment = 64 : i64} : memref<512x7x7x128xf32>\n    memref.copy %2, %alloc : memref<512x7x7x128xf32> to memref<512x7x7x128xf32>\n    affine.for %arg3 = 0 to 512 {\n      affine.for %arg4 = 0 to 7 {\n        affine.for %arg5 = 0 to 7 {\n          affine.for %arg6 = 0 to 128 {\n            affine.for %arg7 = 0 to 1 {\n              affine.for %arg8 = 0 to 1 {\n                affine.for %arg9 = 0 to 1376 {\n                  %4 = affine.apply #map(%arg4, %arg7)\n                  %5 = affine.apply #map(%arg5, %arg8)\n                  %6 = affine.load %1[%arg3, %4, %5, %arg9] : memref<512x7x7x1376xf32>\n                  %7 = affine.load %0[%arg7, %arg8, %arg9, %arg6] : memref<1x1x1376x128xf32>\n                  %8 = affine.load %alloc[%arg3, %arg4, %arg5, %arg6] : memref<512x7x7x128xf32>\n                  %9 = arith.mulf %6, %7 : f32\n                  %10 = arith.addf %8, %9 : f32\n                  affine.store %10, %alloc[%arg3, %arg4, %arg5, %arg6] : memref<512x7x7x128xf32>\n                }\n              }\n            }\n          }\n        }\n      }\n    }\n    %3 = bufferization.to_tensor %alloc : memref<512x7x7x128xf32>\n    return %3 : tensor<512x7x7x128xf32>\n  }\n}\n\n", "transform_wrapped_operation": "func.func private @nanoTime() -> i64 attributes { llvm.emit_c_interface }\nfunc.func private @printFlops(f64)\nfunc.func private @printI64(i64)\nfunc.func private @printNewline()\nfunc.func private @printMemrefF32(tensor<*xf32>)\n\n\nfunc.func @matmul() -> tensor<512x7x7x128xf32>{\n\n%val = arith.constant 2.00000e+00 : f32\n%zero = arith.constant 0.00000e+00 : f32\n\n%tmp_1 = bufferization.alloc_tensor() : tensor<512x7x7x1376xf32>\n%1 = linalg.fill ins(%val : f32) outs(%tmp_1 : tensor<512x7x7x1376xf32>) -> tensor<512x7x7x1376xf32>\n%tmp_3 = bufferization.alloc_tensor() : tensor<1x1x1376x128xf32>\n%3 = linalg.fill ins(%val : f32) outs(%tmp_3 : tensor<1x1x1376x128xf32>) -> tensor<1x1x1376x128xf32>\n%tmp_7 = bufferization.alloc_tensor() : tensor<512x7x7x128xf32>\n%7 = linalg.fill ins(%val : f32) outs(%tmp_7 : tensor<512x7x7x128xf32>) -> tensor<512x7x7x128xf32>\n\n%t0 = func.call @nanoTime() : () -> (i64)\n\n%return_arg = linalg.conv_2d_nhwc_hwcf {dilations = dense<1> : tensor<2xi64>, strides = dense<1> : tensor<2xi64>} ins(%1, %3 : tensor<512x7x7x1376xf32>, tensor<1x1x1376x128xf32>) outs(%7 : tensor<512x7x7x128xf32>) -> tensor<512x7x7x128xf32>\n%t = func.call @nanoTime() : () -> (i64)\n%delta = arith.subi %t, %t0 : i64\n%fp = arith.uitofp %delta : i64 to f64\n// func.call @printFlops(%fp) : (f64) -> ()\nfunc.call @printI64(%delta) : (i64) -> ()\nfunc.call @printNewline() : () -> ()\n\nreturn %return_arg : tensor<512x7x7x128xf32> \n}\n\nfunc.func @main(){\n    %c1 = arith.constant 1: index\n    %c0 = arith.constant 0 : index\n    %n = arith.constant 2: index\n    scf.for %i = %c0 to %n step %c1 {\n    %outputmain = func.call @matmul() : () -> tensor<512x7x7x128xf32>\n    }\n    return\n}\n\n", "loops_data": {"nested_loops": [["%arg3", 0, 512, 1], ["%arg4", 0, 7, 1], ["%arg5", 0, 7, 1], ["%arg6", 0, 128, 1], ["%arg7", 0, 1, 1], ["%arg8", 0, 1, 1], ["%arg9", 0, 1376, 1]], "op_count": {"+": 1, "-": 0, "*": 1, "/": 0, "exp": 0}, "load_data": [["%arg3", "%arg4 + %arg7", "%arg5 + %arg8", "%arg9"], ["%arg7", "%arg8", "%arg9", "%arg6"], ["%arg3", "%arg4", "%arg5", "%arg6"]], "store_data": ["%arg3", "%arg4", "%arg5", "%arg6"]}, "execution_time": 16601249155}], ["linalg.conv_2d_nhwc_hwcf {dilations = dense<1> : tensor<2xi64>, strides = dense<1> : tensor<2xi64>} ins(%1, %3 : tensor<512x1x1x64xf32>, tensor<1x1x64x8xf32>) outs(%7 : tensor<512x1x1x8xf32>) -> tensor<512x1x1x8xf32>", {"operation": "linalg.conv_2d_nhwc_hwcf {dilations = dense<1> : tensor<2xi64>, strides = dense<1> : tensor<2xi64>} ins(%1, %3 : tensor<512x1x1x64xf32>, tensor<1x1x64x8xf32>) outs(%7 : tensor<512x1x1x8xf32>) -> tensor<512x1x1x8xf32>", "wrapped_operation": "func.func @func_call(%1: tensor<512x1x1x64xf32>, %3: tensor<1x1x64x8xf32>, %7: tensor<512x1x1x8xf32>) -> tensor<512x1x1x8xf32> {\n  %ret = linalg.conv_2d_nhwc_hwcf {dilations = dense<1> : tensor<2xi64>, strides = dense<1> : tensor<2xi64>} ins(%1, %3 : tensor<512x1x1x64xf32>, tensor<1x1x64x8xf32>) outs(%7 : tensor<512x1x1x8xf32>) -> tensor<512x1x1x8xf32>\n  return %ret : tensor<512x1x1x8xf32>\n}", "lowered_operation": "#map = affine_map<(d0, d1) -> (d0 + d1)>\nmodule {\n  func.func @func_call(%arg0: tensor<512x1x1x64xf32>, %arg1: tensor<1x1x64x8xf32>, %arg2: tensor<512x1x1x8xf32>) -> tensor<512x1x1x8xf32> {\n    %0 = bufferization.to_memref %arg1 : memref<1x1x64x8xf32>\n    %1 = bufferization.to_memref %arg0 : memref<512x1x1x64xf32>\n    %2 = bufferization.to_memref %arg2 : memref<512x1x1x8xf32>\n    %alloc = memref.alloc() {alignment = 64 : i64} : memref<512x1x1x8xf32>\n    memref.copy %2, %alloc : memref<512x1x1x8xf32> to memref<512x1x1x8xf32>\n    affine.for %arg3 = 0 to 512 {\n      affine.for %arg4 = 0 to 1 {\n        affine.for %arg5 = 0 to 1 {\n          affine.for %arg6 = 0 to 8 {\n            affine.for %arg7 = 0 to 1 {\n              affine.for %arg8 = 0 to 1 {\n                affine.for %arg9 = 0 to 64 {\n                  %4 = affine.apply #map(%arg4, %arg7)\n                  %5 = affine.apply #map(%arg5, %arg8)\n                  %6 = affine.load %1[%arg3, %4, %5, %arg9] : memref<512x1x1x64xf32>\n                  %7 = affine.load %0[%arg7, %arg8, %arg9, %arg6] : memref<1x1x64x8xf32>\n                  %8 = affine.load %alloc[%arg3, %arg4, %arg5, %arg6] : memref<512x1x1x8xf32>\n                  %9 = arith.mulf %6, %7 : f32\n                  %10 = arith.addf %8, %9 : f32\n                  affine.store %10, %alloc[%arg3, %arg4, %arg5, %arg6] : memref<512x1x1x8xf32>\n                }\n              }\n            }\n          }\n        }\n      }\n    }\n    %3 = bufferization.to_tensor %alloc : memref<512x1x1x8xf32>\n    return %3 : tensor<512x1x1x8xf32>\n  }\n}\n\n", "transform_wrapped_operation": "func.func private @nanoTime() -> i64 attributes { llvm.emit_c_interface }\nfunc.func private @printFlops(f64)\nfunc.func private @printI64(i64)\nfunc.func private @printNewline()\nfunc.func private @printMemrefF32(tensor<*xf32>)\n\n\nfunc.func @matmul() -> tensor<512x1x1x8xf32>{\n\n%val = arith.constant 2.00000e+00 : f32\n%zero = arith.constant 0.00000e+00 : f32\n\n%tmp_1 = bufferization.alloc_tensor() : tensor<512x1x1x64xf32>\n%1 = linalg.fill ins(%val : f32) outs(%tmp_1 : tensor<512x1x1x64xf32>) -> tensor<512x1x1x64xf32>\n%tmp_3 = bufferization.alloc_tensor() : tensor<1x1x64x8xf32>\n%3 = linalg.fill ins(%val : f32) outs(%tmp_3 : tensor<1x1x64x8xf32>) -> tensor<1x1x64x8xf32>\n%tmp_7 = bufferization.alloc_tensor() : tensor<512x1x1x8xf32>\n%7 = linalg.fill ins(%val : f32) outs(%tmp_7 : tensor<512x1x1x8xf32>) -> tensor<512x1x1x8xf32>\n\n%t0 = func.call @nanoTime() : () -> (i64)\n\n%return_arg = linalg.conv_2d_nhwc_hwcf {dilations = dense<1> : tensor<2xi64>, strides = dense<1> : tensor<2xi64>} ins(%1, %3 : tensor<512x1x1x64xf32>, tensor<1x1x64x8xf32>) outs(%7 : tensor<512x1x1x8xf32>) -> tensor<512x1x1x8xf32>\n%t = func.call @nanoTime() : () -> (i64)\n%delta = arith.subi %t, %t0 : i64\n%fp = arith.uitofp %delta : i64 to f64\n// func.call @printFlops(%fp) : (f64) -> ()\nfunc.call @printI64(%delta) : (i64) -> ()\nfunc.call @printNewline() : () -> ()\n\nreturn %return_arg : tensor<512x1x1x8xf32> \n}\n\nfunc.func @main(){\n    %c1 = arith.constant 1: index\n    %c0 = arith.constant 0 : index\n    %n = arith.constant 2: index\n    scf.for %i = %c0 to %n step %c1 {\n    %outputmain = func.call @matmul() : () -> tensor<512x1x1x8xf32>\n    }\n    return\n}\n\n", "loops_data": {"nested_loops": [["%arg3", 0, 512, 1], ["%arg4", 0, 1, 1], ["%arg5", 0, 1, 1], ["%arg6", 0, 8, 1], ["%arg7", 0, 1, 1], ["%arg8", 0, 1, 1], ["%arg9", 0, 64, 1]], "op_count": {"+": 1, "-": 0, "*": 1, "/": 0, "exp": 0}, "load_data": [["%arg3", "%arg4 + %arg7", "%arg5 + %arg8", "%arg9"], ["%arg7", "%arg8", "%arg9", "%arg6"], ["%arg3", "%arg4", "%arg5", "%arg6"]], "store_data": ["%arg3", "%arg4", "%arg5", "%arg6"]}, "execution_time": 743383}], ["linalg.conv_2d_nhwc_hwcf {dilations = dense<1> : tensor<2xi64>, strides = dense<1> : tensor<2xi64>} ins(%1, %3 : tensor<512x28x28x64xf32>, tensor<1x1x64x160xf32>) outs(%7 : tensor<512x14x14x160xf32>) -> tensor<512x14x14x160xf32>", {"operation": "linalg.conv_2d_nhwc_hwcf {dilations = dense<1> : tensor<2xi64>, strides = dense<1> : tensor<2xi64>} ins(%1, %3 : tensor<512x28x28x64xf32>, tensor<1x1x64x160xf32>) outs(%7 : tensor<512x14x14x160xf32>) -> tensor<512x14x14x160xf32>", "wrapped_operation": "func.func @func_call(%1: tensor<512x28x28x64xf32>, %3: tensor<1x1x64x160xf32>, %7: tensor<512x14x14x160xf32>) -> tensor<512x14x14x160xf32> {\n  %ret = linalg.conv_2d_nhwc_hwcf {dilations = dense<1> : tensor<2xi64>, strides = dense<1> : tensor<2xi64>} ins(%1, %3 : tensor<512x28x28x64xf32>, tensor<1x1x64x160xf32>) outs(%7 : tensor<512x14x14x160xf32>) -> tensor<512x14x14x160xf32>\n  return %ret : tensor<512x14x14x160xf32>\n}", "lowered_operation": "#map = affine_map<(d0, d1) -> (d0 + d1)>\nmodule {\n  func.func @func_call(%arg0: tensor<512x28x28x64xf32>, %arg1: tensor<1x1x64x160xf32>, %arg2: tensor<512x14x14x160xf32>) -> tensor<512x14x14x160xf32> {\n    %0 = bufferization.to_memref %arg1 : memref<1x1x64x160xf32>\n    %1 = bufferization.to_memref %arg0 : memref<512x28x28x64xf32>\n    %2 = bufferization.to_memref %arg2 : memref<512x14x14x160xf32>\n    %alloc = memref.alloc() {alignment = 64 : i64} : memref<512x14x14x160xf32>\n    memref.copy %2, %alloc : memref<512x14x14x160xf32> to memref<512x14x14x160xf32>\n    affine.for %arg3 = 0 to 512 {\n      affine.for %arg4 = 0 to 14 {\n        affine.for %arg5 = 0 to 14 {\n          affine.for %arg6 = 0 to 160 {\n            affine.for %arg7 = 0 to 1 {\n              affine.for %arg8 = 0 to 1 {\n                affine.for %arg9 = 0 to 64 {\n                  %4 = affine.apply #map(%arg4, %arg7)\n                  %5 = affine.apply #map(%arg5, %arg8)\n                  %6 = affine.load %1[%arg3, %4, %5, %arg9] : memref<512x28x28x64xf32>\n                  %7 = affine.load %0[%arg7, %arg8, %arg9, %arg6] : memref<1x1x64x160xf32>\n                  %8 = affine.load %alloc[%arg3, %arg4, %arg5, %arg6] : memref<512x14x14x160xf32>\n                  %9 = arith.mulf %6, %7 : f32\n                  %10 = arith.addf %8, %9 : f32\n                  affine.store %10, %alloc[%arg3, %arg4, %arg5, %arg6] : memref<512x14x14x160xf32>\n                }\n              }\n            }\n          }\n        }\n      }\n    }\n    %3 = bufferization.to_tensor %alloc : memref<512x14x14x160xf32>\n    return %3 : tensor<512x14x14x160xf32>\n  }\n}\n\n", "transform_wrapped_operation": "func.func private @nanoTime() -> i64 attributes { llvm.emit_c_interface }\nfunc.func private @printFlops(f64)\nfunc.func private @printI64(i64)\nfunc.func private @printNewline()\nfunc.func private @printMemrefF32(tensor<*xf32>)\n\n\nfunc.func @matmul() -> tensor<512x14x14x160xf32>{\n\n%val = arith.constant 2.00000e+00 : f32\n%zero = arith.constant 0.00000e+00 : f32\n\n%tmp_1 = bufferization.alloc_tensor() : tensor<512x28x28x64xf32>\n%1 = linalg.fill ins(%val : f32) outs(%tmp_1 : tensor<512x28x28x64xf32>) -> tensor<512x28x28x64xf32>\n%tmp_3 = bufferization.alloc_tensor() : tensor<1x1x64x160xf32>\n%3 = linalg.fill ins(%val : f32) outs(%tmp_3 : tensor<1x1x64x160xf32>) -> tensor<1x1x64x160xf32>\n%tmp_7 = bufferization.alloc_tensor() : tensor<512x14x14x160xf32>\n%7 = linalg.fill ins(%val : f32) outs(%tmp_7 : tensor<512x14x14x160xf32>) -> tensor<512x14x14x160xf32>\n\n%t0 = func.call @nanoTime() : () -> (i64)\n\n%return_arg = linalg.conv_2d_nhwc_hwcf {dilations = dense<1> : tensor<2xi64>, strides = dense<1> : tensor<2xi64>} ins(%1, %3 : tensor<512x28x28x64xf32>, tensor<1x1x64x160xf32>) outs(%7 : tensor<512x14x14x160xf32>) -> tensor<512x14x14x160xf32>\n%t = func.call @nanoTime() : () -> (i64)\n%delta = arith.subi %t, %t0 : i64\n%fp = arith.uitofp %delta : i64 to f64\n// func.call @printFlops(%fp) : (f64) -> ()\nfunc.call @printI64(%delta) : (i64) -> ()\nfunc.call @printNewline() : () -> ()\n\nreturn %return_arg : tensor<512x14x14x160xf32> \n}\n\nfunc.func @main(){\n    %c1 = arith.constant 1: index\n    %c0 = arith.constant 0 : index\n    %n = arith.constant 2: index\n    scf.for %i = %c0 to %n step %c1 {\n    %outputmain = func.call @matmul() : () -> tensor<512x14x14x160xf32>\n    }\n    return\n}\n\n", "loops_data": {"nested_loops": [["%arg3", 0, 512, 1], ["%arg4", 0, 14, 1], ["%arg5", 0, 14, 1], ["%arg6", 0, 160, 1], ["%arg7", 0, 1, 1], ["%arg8", 0, 1, 1], ["%arg9", 0, 64, 1]], "op_count": {"+": 1, "-": 0, "*": 1, "/": 0, "exp": 0}, "load_data": [["%arg3", "%arg4 + %arg7", "%arg5 + %arg8", "%arg9"], ["%arg7", "%arg8", "%arg9", "%arg6"], ["%arg3", "%arg4", "%arg5", "%arg6"]], "store_data": ["%arg3", "%arg4", "%arg5", "%arg6"]}, "execution_time": 3436354275}], ["linalg.conv_2d_nhwc_hwcf {dilations = dense<1> : tensor<2xi64>, strides = dense<1> : tensor<2xi64>} ins(%1, %3 : tensor<512x14x14x528xf32>, tensor<1x1x528x88xf32>) outs(%7 : tensor<512x14x14x88xf32>) -> tensor<512x14x14x88xf32>", {"operation": "linalg.conv_2d_nhwc_hwcf {dilations = dense<1> : tensor<2xi64>, strides = dense<1> : tensor<2xi64>} ins(%1, %3 : tensor<512x14x14x528xf32>, tensor<1x1x528x88xf32>) outs(%7 : tensor<512x14x14x88xf32>) -> tensor<512x14x14x88xf32>", "wrapped_operation": "func.func @func_call(%1: tensor<512x14x14x528xf32>, %3: tensor<1x1x528x88xf32>, %7: tensor<512x14x14x88xf32>) -> tensor<512x14x14x88xf32> {\n  %ret = linalg.conv_2d_nhwc_hwcf {dilations = dense<1> : tensor<2xi64>, strides = dense<1> : tensor<2xi64>} ins(%1, %3 : tensor<512x14x14x528xf32>, tensor<1x1x528x88xf32>) outs(%7 : tensor<512x14x14x88xf32>) -> tensor<512x14x14x88xf32>\n  return %ret : tensor<512x14x14x88xf32>\n}", "lowered_operation": "#map = affine_map<(d0, d1) -> (d0 + d1)>\nmodule {\n  func.func @func_call(%arg0: tensor<512x14x14x528xf32>, %arg1: tensor<1x1x528x88xf32>, %arg2: tensor<512x14x14x88xf32>) -> tensor<512x14x14x88xf32> {\n    %0 = bufferization.to_memref %arg1 : memref<1x1x528x88xf32>\n    %1 = bufferization.to_memref %arg0 : memref<512x14x14x528xf32>\n    %2 = bufferization.to_memref %arg2 : memref<512x14x14x88xf32>\n    %alloc = memref.alloc() {alignment = 64 : i64} : memref<512x14x14x88xf32>\n    memref.copy %2, %alloc : memref<512x14x14x88xf32> to memref<512x14x14x88xf32>\n    affine.for %arg3 = 0 to 512 {\n      affine.for %arg4 = 0 to 14 {\n        affine.for %arg5 = 0 to 14 {\n          affine.for %arg6 = 0 to 88 {\n            affine.for %arg7 = 0 to 1 {\n              affine.for %arg8 = 0 to 1 {\n                affine.for %arg9 = 0 to 528 {\n                  %4 = affine.apply #map(%arg4, %arg7)\n                  %5 = affine.apply #map(%arg5, %arg8)\n                  %6 = affine.load %1[%arg3, %4, %5, %arg9] : memref<512x14x14x528xf32>\n                  %7 = affine.load %0[%arg7, %arg8, %arg9, %arg6] : memref<1x1x528x88xf32>\n                  %8 = affine.load %alloc[%arg3, %arg4, %arg5, %arg6] : memref<512x14x14x88xf32>\n                  %9 = arith.mulf %6, %7 : f32\n                  %10 = arith.addf %8, %9 : f32\n                  affine.store %10, %alloc[%arg3, %arg4, %arg5, %arg6] : memref<512x14x14x88xf32>\n                }\n              }\n            }\n          }\n        }\n      }\n    }\n    %3 = bufferization.to_tensor %alloc : memref<512x14x14x88xf32>\n    return %3 : tensor<512x14x14x88xf32>\n  }\n}\n\n", "transform_wrapped_operation": "func.func private @nanoTime() -> i64 attributes { llvm.emit_c_interface }\nfunc.func private @printFlops(f64)\nfunc.func private @printI64(i64)\nfunc.func private @printNewline()\nfunc.func private @printMemrefF32(tensor<*xf32>)\n\n\nfunc.func @matmul() -> tensor<512x14x14x88xf32>{\n\n%val = arith.constant 2.00000e+00 : f32\n%zero = arith.constant 0.00000e+00 : f32\n\n%tmp_1 = bufferization.alloc_tensor() : tensor<512x14x14x528xf32>\n%1 = linalg.fill ins(%val : f32) outs(%tmp_1 : tensor<512x14x14x528xf32>) -> tensor<512x14x14x528xf32>\n%tmp_3 = bufferization.alloc_tensor() : tensor<1x1x528x88xf32>\n%3 = linalg.fill ins(%val : f32) outs(%tmp_3 : tensor<1x1x528x88xf32>) -> tensor<1x1x528x88xf32>\n%tmp_7 = bufferization.alloc_tensor() : tensor<512x14x14x88xf32>\n%7 = linalg.fill ins(%val : f32) outs(%tmp_7 : tensor<512x14x14x88xf32>) -> tensor<512x14x14x88xf32>\n\n%t0 = func.call @nanoTime() : () -> (i64)\n\n%return_arg = linalg.conv_2d_nhwc_hwcf {dilations = dense<1> : tensor<2xi64>, strides = dense<1> : tensor<2xi64>} ins(%1, %3 : tensor<512x14x14x528xf32>, tensor<1x1x528x88xf32>) outs(%7 : tensor<512x14x14x88xf32>) -> tensor<512x14x14x88xf32>\n%t = func.call @nanoTime() : () -> (i64)\n%delta = arith.subi %t, %t0 : i64\n%fp = arith.uitofp %delta : i64 to f64\n// func.call @printFlops(%fp) : (f64) -> ()\nfunc.call @printI64(%delta) : (i64) -> ()\nfunc.call @printNewline() : () -> ()\n\nreturn %return_arg : tensor<512x14x14x88xf32> \n}\n\nfunc.func @main(){\n    %c1 = arith.constant 1: index\n    %c0 = arith.constant 0 : index\n    %n = arith.constant 2: index\n    scf.for %i = %c0 to %n step %c1 {\n    %outputmain = func.call @matmul() : () -> tensor<512x14x14x88xf32>\n    }\n    return\n}\n\n", "loops_data": {"nested_loops": [["%arg3", 0, 512, 1], ["%arg4", 0, 14, 1], ["%arg5", 0, 14, 1], ["%arg6", 0, 88, 1], ["%arg7", 0, 1, 1], ["%arg8", 0, 1, 1], ["%arg9", 0, 528, 1]], "op_count": {"+": 1, "-": 0, "*": 1, "/": 0, "exp": 0}, "load_data": [["%arg3", "%arg4 + %arg7", "%arg5 + %arg8", "%arg9"], ["%arg7", "%arg8", "%arg9", "%arg6"], ["%arg3", "%arg4", "%arg5", "%arg6"]], "store_data": ["%arg3", "%arg4", "%arg5", "%arg6"]}, "execution_time": 17345135595}], ["linalg.conv_2d_nhwc_hwcf {dilations = dense<1> : tensor<2xi64>, strides = dense<1> : tensor<2xi64>} ins(%1, %3 : tensor<512x7x7x1856xf32>, tensor<1x1x1856x128xf32>) outs(%7 : tensor<512x7x7x128xf32>) -> tensor<512x7x7x128xf32>", {"operation": "linalg.conv_2d_nhwc_hwcf {dilations = dense<1> : tensor<2xi64>, strides = dense<1> : tensor<2xi64>} ins(%1, %3 : tensor<512x7x7x1856xf32>, tensor<1x1x1856x128xf32>) outs(%7 : tensor<512x7x7x128xf32>) -> tensor<512x7x7x128xf32>", "wrapped_operation": "func.func @func_call(%1: tensor<512x7x7x1856xf32>, %3: tensor<1x1x1856x128xf32>, %7: tensor<512x7x7x128xf32>) -> tensor<512x7x7x128xf32> {\n  %ret = linalg.conv_2d_nhwc_hwcf {dilations = dense<1> : tensor<2xi64>, strides = dense<1> : tensor<2xi64>} ins(%1, %3 : tensor<512x7x7x1856xf32>, tensor<1x1x1856x128xf32>) outs(%7 : tensor<512x7x7x128xf32>) -> tensor<512x7x7x128xf32>\n  return %ret : tensor<512x7x7x128xf32>\n}", "lowered_operation": "#map = affine_map<(d0, d1) -> (d0 + d1)>\nmodule {\n  func.func @func_call(%arg0: tensor<512x7x7x1856xf32>, %arg1: tensor<1x1x1856x128xf32>, %arg2: tensor<512x7x7x128xf32>) -> tensor<512x7x7x128xf32> {\n    %0 = bufferization.to_memref %arg1 : memref<1x1x1856x128xf32>\n    %1 = bufferization.to_memref %arg0 : memref<512x7x7x1856xf32>\n    %2 = bufferization.to_memref %arg2 : memref<512x7x7x128xf32>\n    %alloc = memref.alloc() {alignment = 64 : i64} : memref<512x7x7x128xf32>\n    memref.copy %2, %alloc : memref<512x7x7x128xf32> to memref<512x7x7x128xf32>\n    affine.for %arg3 = 0 to 512 {\n      affine.for %arg4 = 0 to 7 {\n        affine.for %arg5 = 0 to 7 {\n          affine.for %arg6 = 0 to 128 {\n            affine.for %arg7 = 0 to 1 {\n              affine.for %arg8 = 0 to 1 {\n                affine.for %arg9 = 0 to 1856 {\n                  %4 = affine.apply #map(%arg4, %arg7)\n                  %5 = affine.apply #map(%arg5, %arg8)\n                  %6 = affine.load %1[%arg3, %4, %5, %arg9] : memref<512x7x7x1856xf32>\n                  %7 = affine.load %0[%arg7, %arg8, %arg9, %arg6] : memref<1x1x1856x128xf32>\n                  %8 = affine.load %alloc[%arg3, %arg4, %arg5, %arg6] : memref<512x7x7x128xf32>\n                  %9 = arith.mulf %6, %7 : f32\n                  %10 = arith.addf %8, %9 : f32\n                  affine.store %10, %alloc[%arg3, %arg4, %arg5, %arg6] : memref<512x7x7x128xf32>\n                }\n              }\n            }\n          }\n        }\n      }\n    }\n    %3 = bufferization.to_tensor %alloc : memref<512x7x7x128xf32>\n    return %3 : tensor<512x7x7x128xf32>\n  }\n}\n\n", "transform_wrapped_operation": "func.func private @nanoTime() -> i64 attributes { llvm.emit_c_interface }\nfunc.func private @printFlops(f64)\nfunc.func private @printI64(i64)\nfunc.func private @printNewline()\nfunc.func private @printMemrefF32(tensor<*xf32>)\n\n\nfunc.func @matmul() -> tensor<512x7x7x128xf32>{\n\n%val = arith.constant 2.00000e+00 : f32\n%zero = arith.constant 0.00000e+00 : f32\n\n%tmp_1 = bufferization.alloc_tensor() : tensor<512x7x7x1856xf32>\n%1 = linalg.fill ins(%val : f32) outs(%tmp_1 : tensor<512x7x7x1856xf32>) -> tensor<512x7x7x1856xf32>\n%tmp_3 = bufferization.alloc_tensor() : tensor<1x1x1856x128xf32>\n%3 = linalg.fill ins(%val : f32) outs(%tmp_3 : tensor<1x1x1856x128xf32>) -> tensor<1x1x1856x128xf32>\n%tmp_7 = bufferization.alloc_tensor() : tensor<512x7x7x128xf32>\n%7 = linalg.fill ins(%val : f32) outs(%tmp_7 : tensor<512x7x7x128xf32>) -> tensor<512x7x7x128xf32>\n\n%t0 = func.call @nanoTime() : () -> (i64)\n\n%return_arg = linalg.conv_2d_nhwc_hwcf {dilations = dense<1> : tensor<2xi64>, strides = dense<1> : tensor<2xi64>} ins(%1, %3 : tensor<512x7x7x1856xf32>, tensor<1x1x1856x128xf32>) outs(%7 : tensor<512x7x7x128xf32>) -> tensor<512x7x7x128xf32>\n%t = func.call @nanoTime() : () -> (i64)\n%delta = arith.subi %t, %t0 : i64\n%fp = arith.uitofp %delta : i64 to f64\n// func.call @printFlops(%fp) : (f64) -> ()\nfunc.call @printI64(%delta) : (i64) -> ()\nfunc.call @printNewline() : () -> ()\n\nreturn %return_arg : tensor<512x7x7x128xf32> \n}\n\nfunc.func @main(){\n    %c1 = arith.constant 1: index\n    %c0 = arith.constant 0 : index\n    %n = arith.constant 2: index\n    scf.for %i = %c0 to %n step %c1 {\n    %outputmain = func.call @matmul() : () -> tensor<512x7x7x128xf32>\n    }\n    return\n}\n\n", "loops_data": {"nested_loops": [["%arg3", 0, 512, 1], ["%arg4", 0, 7, 1], ["%arg5", 0, 7, 1], ["%arg6", 0, 128, 1], ["%arg7", 0, 1, 1], ["%arg8", 0, 1, 1], ["%arg9", 0, 1856, 1]], "op_count": {"+": 1, "-": 0, "*": 1, "/": 0, "exp": 0}, "load_data": [["%arg3", "%arg4 + %arg7", "%arg5 + %arg8", "%arg9"], ["%arg7", "%arg8", "%arg9", "%arg6"], ["%arg3", "%arg4", "%arg5", "%arg6"]], "store_data": ["%arg3", "%arg4", "%arg5", "%arg6"]}, "execution_time": 22428779124}], ["linalg.conv_2d_nhwc_hwcf {dilations = dense<1> : tensor<2xi64>, strides = dense<1> : tensor<2xi64>} ins(%1, %3 : tensor<512x1x1x30xf32>, tensor<1x1x30x336xf32>) outs(%7 : tensor<512x1x1x336xf32>) -> tensor<512x1x1x336xf32>", {"operation": "linalg.conv_2d_nhwc_hwcf {dilations = dense<1> : tensor<2xi64>, strides = dense<1> : tensor<2xi64>} ins(%1, %3 : tensor<512x1x1x30xf32>, tensor<1x1x30x336xf32>) outs(%7 : tensor<512x1x1x336xf32>) -> tensor<512x1x1x336xf32>", "wrapped_operation": "func.func @func_call(%1: tensor<512x1x1x30xf32>, %3: tensor<1x1x30x336xf32>, %7: tensor<512x1x1x336xf32>) -> tensor<512x1x1x336xf32> {\n  %ret = linalg.conv_2d_nhwc_hwcf {dilations = dense<1> : tensor<2xi64>, strides = dense<1> : tensor<2xi64>} ins(%1, %3 : tensor<512x1x1x30xf32>, tensor<1x1x30x336xf32>) outs(%7 : tensor<512x1x1x336xf32>) -> tensor<512x1x1x336xf32>\n  return %ret : tensor<512x1x1x336xf32>\n}", "lowered_operation": "#map = affine_map<(d0, d1) -> (d0 + d1)>\nmodule {\n  func.func @func_call(%arg0: tensor<512x1x1x30xf32>, %arg1: tensor<1x1x30x336xf32>, %arg2: tensor<512x1x1x336xf32>) -> tensor<512x1x1x336xf32> {\n    %0 = bufferization.to_memref %arg1 : memref<1x1x30x336xf32>\n    %1 = bufferization.to_memref %arg0 : memref<512x1x1x30xf32>\n    %2 = bufferization.to_memref %arg2 : memref<512x1x1x336xf32>\n    %alloc = memref.alloc() {alignment = 64 : i64} : memref<512x1x1x336xf32>\n    memref.copy %2, %alloc : memref<512x1x1x336xf32> to memref<512x1x1x336xf32>\n    affine.for %arg3 = 0 to 512 {\n      affine.for %arg4 = 0 to 1 {\n        affine.for %arg5 = 0 to 1 {\n          affine.for %arg6 = 0 to 336 {\n            affine.for %arg7 = 0 to 1 {\n              affine.for %arg8 = 0 to 1 {\n                affine.for %arg9 = 0 to 30 {\n                  %4 = affine.apply #map(%arg4, %arg7)\n                  %5 = affine.apply #map(%arg5, %arg8)\n                  %6 = affine.load %1[%arg3, %4, %5, %arg9] : memref<512x1x1x30xf32>\n                  %7 = affine.load %0[%arg7, %arg8, %arg9, %arg6] : memref<1x1x30x336xf32>\n                  %8 = affine.load %alloc[%arg3, %arg4, %arg5, %arg6] : memref<512x1x1x336xf32>\n                  %9 = arith.mulf %6, %7 : f32\n                  %10 = arith.addf %8, %9 : f32\n                  affine.store %10, %alloc[%arg3, %arg4, %arg5, %arg6] : memref<512x1x1x336xf32>\n                }\n              }\n            }\n          }\n        }\n      }\n    }\n    %3 = bufferization.to_tensor %alloc : memref<512x1x1x336xf32>\n    return %3 : tensor<512x1x1x336xf32>\n  }\n}\n\n", "transform_wrapped_operation": "func.func private @nanoTime() -> i64 attributes { llvm.emit_c_interface }\nfunc.func private @printFlops(f64)\nfunc.func private @printI64(i64)\nfunc.func private @printNewline()\nfunc.func private @printMemrefF32(tensor<*xf32>)\n\n\nfunc.func @matmul() -> tensor<512x1x1x336xf32>{\n\n%val = arith.constant 2.00000e+00 : f32\n%zero = arith.constant 0.00000e+00 : f32\n\n%tmp_1 = bufferization.alloc_tensor() : tensor<512x1x1x30xf32>\n%1 = linalg.fill ins(%val : f32) outs(%tmp_1 : tensor<512x1x1x30xf32>) -> tensor<512x1x1x30xf32>\n%tmp_3 = bufferization.alloc_tensor() : tensor<1x1x30x336xf32>\n%3 = linalg.fill ins(%val : f32) outs(%tmp_3 : tensor<1x1x30x336xf32>) -> tensor<1x1x30x336xf32>\n%tmp_7 = bufferization.alloc_tensor() : tensor<512x1x1x336xf32>\n%7 = linalg.fill ins(%val : f32) outs(%tmp_7 : tensor<512x1x1x336xf32>) -> tensor<512x1x1x336xf32>\n\n%t0 = func.call @nanoTime() : () -> (i64)\n\n%return_arg = linalg.conv_2d_nhwc_hwcf {dilations = dense<1> : tensor<2xi64>, strides = dense<1> : tensor<2xi64>} ins(%1, %3 : tensor<512x1x1x30xf32>, tensor<1x1x30x336xf32>) outs(%7 : tensor<512x1x1x336xf32>) -> tensor<512x1x1x336xf32>\n%t = func.call @nanoTime() : () -> (i64)\n%delta = arith.subi %t, %t0 : i64\n%fp = arith.uitofp %delta : i64 to f64\n// func.call @printFlops(%fp) : (f64) -> ()\nfunc.call @printI64(%delta) : (i64) -> ()\nfunc.call @printNewline() : () -> ()\n\nreturn %return_arg : tensor<512x1x1x336xf32> \n}\n\nfunc.func @main(){\n    %c1 = arith.constant 1: index\n    %c0 = arith.constant 0 : index\n    %n = arith.constant 2: index\n    scf.for %i = %c0 to %n step %c1 {\n    %outputmain = func.call @matmul() : () -> tensor<512x1x1x336xf32>\n    }\n    return\n}\n\n", "loops_data": {"nested_loops": [["%arg3", 0, 512, 1], ["%arg4", 0, 1, 1], ["%arg5", 0, 1, 1], ["%arg6", 0, 336, 1], ["%arg7", 0, 1, 1], ["%arg8", 0, 1, 1], ["%arg9", 0, 30, 1]], "op_count": {"+": 1, "-": 0, "*": 1, "/": 0, "exp": 0}, "load_data": [["%arg3", "%arg4 + %arg7", "%arg5 + %arg8", "%arg9"], ["%arg7", "%arg8", "%arg9", "%arg6"], ["%arg3", "%arg4", "%arg5", "%arg6"]], "store_data": ["%arg3", "%arg4", "%arg5", "%arg6"]}, "execution_time": 12119670}], ["linalg.conv_2d_nhwc_hwcf {dilations = dense<1> : tensor<2xi64>, strides = dense<1> : tensor<2xi64>} ins(%1, %3 : tensor<512x28x28x56xf32>, tensor<1x1x56x56xf32>) outs(%7 : tensor<512x28x28x56xf32>) -> tensor<512x28x28x56xf32>", {"operation": "linalg.conv_2d_nhwc_hwcf {dilations = dense<1> : tensor<2xi64>, strides = dense<1> : tensor<2xi64>} ins(%1, %3 : tensor<512x28x28x56xf32>, tensor<1x1x56x56xf32>) outs(%7 : tensor<512x28x28x56xf32>) -> tensor<512x28x28x56xf32>", "wrapped_operation": "func.func @func_call(%1: tensor<512x28x28x56xf32>, %3: tensor<1x1x56x56xf32>, %7: tensor<512x28x28x56xf32>) -> tensor<512x28x28x56xf32> {\n  %ret = linalg.conv_2d_nhwc_hwcf {dilations = dense<1> : tensor<2xi64>, strides = dense<1> : tensor<2xi64>} ins(%1, %3 : tensor<512x28x28x56xf32>, tensor<1x1x56x56xf32>) outs(%7 : tensor<512x28x28x56xf32>) -> tensor<512x28x28x56xf32>\n  return %ret : tensor<512x28x28x56xf32>\n}", "lowered_operation": "#map = affine_map<(d0, d1) -> (d0 + d1)>\nmodule {\n  func.func @func_call(%arg0: tensor<512x28x28x56xf32>, %arg1: tensor<1x1x56x56xf32>, %arg2: tensor<512x28x28x56xf32>) -> tensor<512x28x28x56xf32> {\n    %0 = bufferization.to_memref %arg1 : memref<1x1x56x56xf32>\n    %1 = bufferization.to_memref %arg0 : memref<512x28x28x56xf32>\n    %2 = bufferization.to_memref %arg2 : memref<512x28x28x56xf32>\n    %alloc = memref.alloc() {alignment = 64 : i64} : memref<512x28x28x56xf32>\n    memref.copy %2, %alloc : memref<512x28x28x56xf32> to memref<512x28x28x56xf32>\n    affine.for %arg3 = 0 to 512 {\n      affine.for %arg4 = 0 to 28 {\n        affine.for %arg5 = 0 to 28 {\n          affine.for %arg6 = 0 to 56 {\n            affine.for %arg7 = 0 to 1 {\n              affine.for %arg8 = 0 to 1 {\n                affine.for %arg9 = 0 to 56 {\n                  %4 = affine.apply #map(%arg4, %arg7)\n                  %5 = affine.apply #map(%arg5, %arg8)\n                  %6 = affine.load %1[%arg3, %4, %5, %arg9] : memref<512x28x28x56xf32>\n                  %7 = affine.load %0[%arg7, %arg8, %arg9, %arg6] : memref<1x1x56x56xf32>\n                  %8 = affine.load %alloc[%arg3, %arg4, %arg5, %arg6] : memref<512x28x28x56xf32>\n                  %9 = arith.mulf %6, %7 : f32\n                  %10 = arith.addf %8, %9 : f32\n                  affine.store %10, %alloc[%arg3, %arg4, %arg5, %arg6] : memref<512x28x28x56xf32>\n                }\n              }\n            }\n          }\n        }\n      }\n    }\n    %3 = bufferization.to_tensor %alloc : memref<512x28x28x56xf32>\n    return %3 : tensor<512x28x28x56xf32>\n  }\n}\n\n", "transform_wrapped_operation": "func.func private @nanoTime() -> i64 attributes { llvm.emit_c_interface }\nfunc.func private @printFlops(f64)\nfunc.func private @printI64(i64)\nfunc.func private @printNewline()\nfunc.func private @printMemrefF32(tensor<*xf32>)\n\n\nfunc.func @matmul() -> tensor<512x28x28x56xf32>{\n\n%val = arith.constant 2.00000e+00 : f32\n%zero = arith.constant 0.00000e+00 : f32\n\n%tmp_1 = bufferization.alloc_tensor() : tensor<512x28x28x56xf32>\n%1 = linalg.fill ins(%val : f32) outs(%tmp_1 : tensor<512x28x28x56xf32>) -> tensor<512x28x28x56xf32>\n%tmp_3 = bufferization.alloc_tensor() : tensor<1x1x56x56xf32>\n%3 = linalg.fill ins(%val : f32) outs(%tmp_3 : tensor<1x1x56x56xf32>) -> tensor<1x1x56x56xf32>\n%tmp_7 = bufferization.alloc_tensor() : tensor<512x28x28x56xf32>\n%7 = linalg.fill ins(%val : f32) outs(%tmp_7 : tensor<512x28x28x56xf32>) -> tensor<512x28x28x56xf32>\n\n%t0 = func.call @nanoTime() : () -> (i64)\n\n%return_arg = linalg.conv_2d_nhwc_hwcf {dilations = dense<1> : tensor<2xi64>, strides = dense<1> : tensor<2xi64>} ins(%1, %3 : tensor<512x28x28x56xf32>, tensor<1x1x56x56xf32>) outs(%7 : tensor<512x28x28x56xf32>) -> tensor<512x28x28x56xf32>\n%t = func.call @nanoTime() : () -> (i64)\n%delta = arith.subi %t, %t0 : i64\n%fp = arith.uitofp %delta : i64 to f64\n// func.call @printFlops(%fp) : (f64) -> ()\nfunc.call @printI64(%delta) : (i64) -> ()\nfunc.call @printNewline() : () -> ()\n\nreturn %return_arg : tensor<512x28x28x56xf32> \n}\n\nfunc.func @main(){\n    %c1 = arith.constant 1: index\n    %c0 = arith.constant 0 : index\n    %n = arith.constant 2: index\n    scf.for %i = %c0 to %n step %c1 {\n    %outputmain = func.call @matmul() : () -> tensor<512x28x28x56xf32>\n    }\n    return\n}\n\n", "loops_data": {"nested_loops": [["%arg3", 0, 512, 1], ["%arg4", 0, 28, 1], ["%arg5", 0, 28, 1], ["%arg6", 0, 56, 1], ["%arg7", 0, 1, 1], ["%arg8", 0, 1, 1], ["%arg9", 0, 56, 1]], "op_count": {"+": 1, "-": 0, "*": 1, "/": 0, "exp": 0}, "load_data": [["%arg3", "%arg4 + %arg7", "%arg5 + %arg8", "%arg9"], ["%arg7", "%arg8", "%arg9", "%arg6"], ["%arg3", "%arg4", "%arg5", "%arg6"]], "store_data": ["%arg3", "%arg4", "%arg5", "%arg6"]}, "execution_time": 4098350094}], ["linalg.conv_2d_nhwc_hwcf {dilations = dense<1> : tensor<2xi64>, strides = dense<1> : tensor<2xi64>} ins(%1, %3 : tensor<512x1x1x208xf32>, tensor<1x1x208x26xf32>) outs(%7 : tensor<512x1x1x26xf32>) -> tensor<512x1x1x26xf32>", {"operation": "linalg.conv_2d_nhwc_hwcf {dilations = dense<1> : tensor<2xi64>, strides = dense<1> : tensor<2xi64>} ins(%1, %3 : tensor<512x1x1x208xf32>, tensor<1x1x208x26xf32>) outs(%7 : tensor<512x1x1x26xf32>) -> tensor<512x1x1x26xf32>", "wrapped_operation": "func.func @func_call(%1: tensor<512x1x1x208xf32>, %3: tensor<1x1x208x26xf32>, %7: tensor<512x1x1x26xf32>) -> tensor<512x1x1x26xf32> {\n  %ret = linalg.conv_2d_nhwc_hwcf {dilations = dense<1> : tensor<2xi64>, strides = dense<1> : tensor<2xi64>} ins(%1, %3 : tensor<512x1x1x208xf32>, tensor<1x1x208x26xf32>) outs(%7 : tensor<512x1x1x26xf32>) -> tensor<512x1x1x26xf32>\n  return %ret : tensor<512x1x1x26xf32>\n}", "lowered_operation": "#map = affine_map<(d0, d1) -> (d0 + d1)>\nmodule {\n  func.func @func_call(%arg0: tensor<512x1x1x208xf32>, %arg1: tensor<1x1x208x26xf32>, %arg2: tensor<512x1x1x26xf32>) -> tensor<512x1x1x26xf32> {\n    %0 = bufferization.to_memref %arg1 : memref<1x1x208x26xf32>\n    %1 = bufferization.to_memref %arg0 : memref<512x1x1x208xf32>\n    %2 = bufferization.to_memref %arg2 : memref<512x1x1x26xf32>\n    %alloc = memref.alloc() {alignment = 64 : i64} : memref<512x1x1x26xf32>\n    memref.copy %2, %alloc : memref<512x1x1x26xf32> to memref<512x1x1x26xf32>\n    affine.for %arg3 = 0 to 512 {\n      affine.for %arg4 = 0 to 1 {\n        affine.for %arg5 = 0 to 1 {\n          affine.for %arg6 = 0 to 26 {\n            affine.for %arg7 = 0 to 1 {\n              affine.for %arg8 = 0 to 1 {\n                affine.for %arg9 = 0 to 208 {\n                  %4 = affine.apply #map(%arg4, %arg7)\n                  %5 = affine.apply #map(%arg5, %arg8)\n                  %6 = affine.load %1[%arg3, %4, %5, %arg9] : memref<512x1x1x208xf32>\n                  %7 = affine.load %0[%arg7, %arg8, %arg9, %arg6] : memref<1x1x208x26xf32>\n                  %8 = affine.load %alloc[%arg3, %arg4, %arg5, %arg6] : memref<512x1x1x26xf32>\n                  %9 = arith.mulf %6, %7 : f32\n                  %10 = arith.addf %8, %9 : f32\n                  affine.store %10, %alloc[%arg3, %arg4, %arg5, %arg6] : memref<512x1x1x26xf32>\n                }\n              }\n            }\n          }\n        }\n      }\n    }\n    %3 = bufferization.to_tensor %alloc : memref<512x1x1x26xf32>\n    return %3 : tensor<512x1x1x26xf32>\n  }\n}\n\n", "transform_wrapped_operation": "func.func private @nanoTime() -> i64 attributes { llvm.emit_c_interface }\nfunc.func private @printFlops(f64)\nfunc.func private @printI64(i64)\nfunc.func private @printNewline()\nfunc.func private @printMemrefF32(tensor<*xf32>)\n\n\nfunc.func @matmul() -> tensor<512x1x1x26xf32>{\n\n%val = arith.constant 2.00000e+00 : f32\n%zero = arith.constant 0.00000e+00 : f32\n\n%tmp_1 = bufferization.alloc_tensor() : tensor<512x1x1x208xf32>\n%1 = linalg.fill ins(%val : f32) outs(%tmp_1 : tensor<512x1x1x208xf32>) -> tensor<512x1x1x208xf32>\n%tmp_3 = bufferization.alloc_tensor() : tensor<1x1x208x26xf32>\n%3 = linalg.fill ins(%val : f32) outs(%tmp_3 : tensor<1x1x208x26xf32>) -> tensor<1x1x208x26xf32>\n%tmp_7 = bufferization.alloc_tensor() : tensor<512x1x1x26xf32>\n%7 = linalg.fill ins(%val : f32) outs(%tmp_7 : tensor<512x1x1x26xf32>) -> tensor<512x1x1x26xf32>\n\n%t0 = func.call @nanoTime() : () -> (i64)\n\n%return_arg = linalg.conv_2d_nhwc_hwcf {dilations = dense<1> : tensor<2xi64>, strides = dense<1> : tensor<2xi64>} ins(%1, %3 : tensor<512x1x1x208xf32>, tensor<1x1x208x26xf32>) outs(%7 : tensor<512x1x1x26xf32>) -> tensor<512x1x1x26xf32>\n%t = func.call @nanoTime() : () -> (i64)\n%delta = arith.subi %t, %t0 : i64\n%fp = arith.uitofp %delta : i64 to f64\n// func.call @printFlops(%fp) : (f64) -> ()\nfunc.call @printI64(%delta) : (i64) -> ()\nfunc.call @printNewline() : () -> ()\n\nreturn %return_arg : tensor<512x1x1x26xf32> \n}\n\nfunc.func @main(){\n    %c1 = arith.constant 1: index\n    %c0 = arith.constant 0 : index\n    %n = arith.constant 2: index\n    scf.for %i = %c0 to %n step %c1 {\n    %outputmain = func.call @matmul() : () -> tensor<512x1x1x26xf32>\n    }\n    return\n}\n\n", "loops_data": {"nested_loops": [["%arg3", 0, 512, 1], ["%arg4", 0, 1, 1], ["%arg5", 0, 1, 1], ["%arg6", 0, 26, 1], ["%arg7", 0, 1, 1], ["%arg8", 0, 1, 1], ["%arg9", 0, 208, 1]], "op_count": {"+": 1, "-": 0, "*": 1, "/": 0, "exp": 0}, "load_data": [["%arg3", "%arg4 + %arg7", "%arg5 + %arg8", "%arg9"], ["%arg7", "%arg8", "%arg9", "%arg6"], ["%arg3", "%arg4", "%arg5", "%arg6"]], "store_data": ["%arg3", "%arg4", "%arg5", "%arg6"]}, "execution_time": 9916890}], ["linalg.conv_2d_nhwc_hwcf {dilations = dense<1> : tensor<2xi64>, strides = dense<1> : tensor<2xi64>} ins(%1, %3 : tensor<512x42x42x84xf32>, tensor<1x1x84x84xf32>) outs(%7 : tensor<512x42x42x84xf32>) -> tensor<512x42x42x84xf32>", {"operation": "linalg.conv_2d_nhwc_hwcf {dilations = dense<1> : tensor<2xi64>, strides = dense<1> : tensor<2xi64>} ins(%1, %3 : tensor<512x42x42x84xf32>, tensor<1x1x84x84xf32>) outs(%7 : tensor<512x42x42x84xf32>) -> tensor<512x42x42x84xf32>", "wrapped_operation": "func.func @func_call(%1: tensor<512x42x42x84xf32>, %3: tensor<1x1x84x84xf32>, %7: tensor<512x42x42x84xf32>) -> tensor<512x42x42x84xf32> {\n  %ret = linalg.conv_2d_nhwc_hwcf {dilations = dense<1> : tensor<2xi64>, strides = dense<1> : tensor<2xi64>} ins(%1, %3 : tensor<512x42x42x84xf32>, tensor<1x1x84x84xf32>) outs(%7 : tensor<512x42x42x84xf32>) -> tensor<512x42x42x84xf32>\n  return %ret : tensor<512x42x42x84xf32>\n}", "lowered_operation": "#map = affine_map<(d0, d1) -> (d0 + d1)>\nmodule {\n  func.func @func_call(%arg0: tensor<512x42x42x84xf32>, %arg1: tensor<1x1x84x84xf32>, %arg2: tensor<512x42x42x84xf32>) -> tensor<512x42x42x84xf32> {\n    %0 = bufferization.to_memref %arg1 : memref<1x1x84x84xf32>\n    %1 = bufferization.to_memref %arg0 : memref<512x42x42x84xf32>\n    %2 = bufferization.to_memref %arg2 : memref<512x42x42x84xf32>\n    %alloc = memref.alloc() {alignment = 64 : i64} : memref<512x42x42x84xf32>\n    memref.copy %2, %alloc : memref<512x42x42x84xf32> to memref<512x42x42x84xf32>\n    affine.for %arg3 = 0 to 512 {\n      affine.for %arg4 = 0 to 42 {\n        affine.for %arg5 = 0 to 42 {\n          affine.for %arg6 = 0 to 84 {\n            affine.for %arg7 = 0 to 1 {\n              aff…
 attributes { llvm.emit_c_interface }\nfunc.func private @printFlops(f64)\nfunc.func private @printI64(i64)\nfunc.func private @printNewline()\nfunc.func private @printMemrefF32(tensor<*xf32>)\n\n\nfunc.func @matmul() -> tensor<512x1x1x168xf32>{\n\n%val = arith.constant 2.00000e+00 : f32\n%zero = arith.constant 0.00000e+00 : f32\n\n%tmp_1 = bufferization.alloc_tensor() : tensor<512x1x1x8xf32>\n%1 = linalg.fill ins(%val : f32) outs(%tmp_1 : tensor<512x1x1x8xf32>) -> tensor<512x1x1x8xf32>\n%tmp_3 = bufferization.alloc_tensor() : tensor<1x1x8x168xf32>\n%3 = linalg.fill ins(%val : f32) outs(%tmp_3 : tensor<1x1x8x168xf32>) -> tensor<1x1x8x168xf32>\n%tmp_7 = bufferization.alloc_tensor() : tensor<512x1x1x168xf32>\n%7 = linalg.fill ins(%val : f32) outs(%tmp_7 : tensor<512x1x1x168xf32>) -> tensor<512x1x1x168xf32>\n\n%t0 = func.call @nanoTime() : () -> (i64)\n\n%return_arg = linalg.conv_2d_nhwc_hwcf {dilations = dense<1> : tensor<2xi64>, strides = dense<1> : tensor<2xi64>} ins(%1, %3 : tensor<512x1x1x8xf32>, tensor<1x1x8x168xf32>) outs(%7 : tensor<512x1x1x168xf32>) -> tensor<512x1x1x168xf32>\n%t = func.call @nanoTime() : () -> (i64)\n%delta = arith.subi %t, %t0 : i64\n%fp = arith.uitofp %delta : i64 to f64\n// func.call @printFlops(%fp) : (f64) -> ()\nfunc.call @printI64(%delta) : (i64) -> ()\nfunc.call @printNewline() : () -> ()\n\nreturn %return_arg : tensor<512x1x1x168xf32> \n}\n\nfunc.func @main(){\n    %c1 = arith.constant 1: index\n    %c0 = arith.constant 0 : index\n    %n = arith.constant 2: index\n    scf.for %i = %c0 to %n step %c1 {\n    %outputmain = func.call @matmul() : () -> tensor<512x1x1x168xf32>\n    }\n    return\n}\n\n", "loops_data": {"nested_loops": [["%arg3", 0, 512, 1], ["%arg4", 0, 1, 1], ["%arg5", 0, 1, 1], ["%arg6", 0, 168, 1], ["%arg7", 0, 1, 1], ["%arg8", 0, 1, 1], ["%arg9", 0, 8, 1]], "op_count": {"+": 1, "-": 0, "*": 1, "/": 0, "exp": 0}, "load_data": [["%arg3", "%arg4 + %arg7", "%arg5 + %arg8", "%arg9"], ["%arg7", "%arg8", "%arg9", "%arg6"], ["%arg3", "%arg4", "%arg5", "%arg6"]], "store_data": ["%arg3", "%arg4", "%arg5", "%arg6"]}, "execution_time": 1122148}], ["linalg.conv_2d_nhwc_hwcf {dilations = dense<1> : tensor<2xi64>, strides = dense<1> : tensor<2xi64>} ins(%1, %3 : tensor<512x7x7x1568xf32>, tensor<1x1x1568x128xf32>) outs(%7 : tensor<512x7x7x128xf32>) -> tensor<512x7x7x128xf32>", {"operation": "linalg.conv_2d_nhwc_hwcf {dilations = dense<1> : tensor<2xi64>, strides = dense<1> : tensor<2xi64>} ins(%1, %3 : tensor<512x7x7x1568xf32>, tensor<1x1x1568x128xf32>) outs(%7 : tensor<512x7x7x128xf32>) -> tensor<512x7x7x128xf32>", "wrapped_operation": "func.func @func_call(%1: tensor<512x7x7x1568xf32>, %3: tensor<1x1x1568x128xf32>, %7: tensor<512x7x7x128xf32>) -> tensor<512x7x7x128xf32> {\n  %ret = linalg.conv_2d_nhwc_hwcf {dilations = dense<1> : tensor<2xi64>, strides = dense<1> : tensor<2xi64>} ins(%1, %3 : tensor<512x7x7x1568xf32>, tensor<1x1x1568x128xf32>) outs(%7 : tensor<512x7x7x128xf32>) -> tensor<512x7x7x128xf32>\n  return %ret : tensor<512x7x7x128xf32>\n}", "lowered_operation": "#map = affine_map<(d0, d1) -> (d0 + d1)>\nmodule {\n  func.func @func_call(%arg0: tensor<512x7x7x1568xf32>, %arg1: tensor<1x1x1568x128xf32>, %arg2: tensor<512x7x7x128xf32>) -> tensor<512x7x7x128xf32> {\n    %0 = bufferization.to_memref %arg1 : memref<1x1x1568x128xf32>\n    %1 = bufferization.to_memref %arg0 : memref<512x7x7x1568xf32>\n    %2 = bufferization.to_memref %arg2 : memref<512x7x7x128xf32>\n    %alloc = memref.alloc() {alignment = 64 : i64} : memref<512x7x7x128xf32>\n    memref.copy %2, %alloc : memref<512x7x7x128xf32> to memref<512x7x7x128xf32>\n    affine.for %arg3 = 0 to 512 {\n      affine.for %arg4 = 0 to 7 {\n        affine.for %arg5 = 0 to 7 {\n          affine.for %arg6 = 0 to 128 {\n            affine.for %arg7 = 0 to 1 {\n              affine.for %arg8 = 0 to 1 {\n                affine.for %arg9 = 0 to 1568 {\n                  %4 = affine.apply #map(%arg4, %arg7)\n                  %5 = affine.apply #map(%arg5, %arg8)\n                  %6 = affine.load %1[%arg3, %4, %5, %arg9] : memref<512x7x7x1568xf32>\n                  %7 = affine.load %0[%arg7, %arg8, %arg9, %arg6] : memref<1x1x1568x128xf32>\n                  %8 = affine.load %alloc[%arg3, %arg4, %arg5, %arg6] : memref<512x7x7x128xf32>\n                  %9 = arith.mulf %6, %7 : f32\n                  %10 = arith.addf %8, %9 : f32\n                  affine.store %10, %alloc[%arg3, %arg4, %arg5, %arg6] : memref<512x7x7x128xf32>\n                }\n              }\n            }\n          }\n        }\n      }\n    }\n    %3 = bufferization.to_tensor %alloc : memref<512x7x7x128xf32>\n    return %3 : tensor<512x7x7x128xf32>\n  }\n}\n\n", "transform_wrapped_operation": "func.func private @nanoTime() -> i64 attributes { llvm.emit_c_interface }\nfunc.func private @printFlops(f64)\nfunc.func private @printI64(i64)\nfunc.func private @printNewline()\nfunc.func private @printMemrefF32(tensor<*xf32>)\n\n\nfunc.func @matmul() -> tensor<512x7x7x128xf32>{\n\n%val = arith.constant 2.00000e+00 : f32\n%zero = arith.constant 0.00000e+00 : f32\n\n%tmp_1 = bufferization.alloc_tensor() : tensor<512x7x7x1568xf32>\n%1 = linalg.fill ins(%val : f32) outs(%tmp_1 : tensor<512x7x7x1568xf32>) -> tensor<512x7x7x1568xf32>\n%tmp_3 = bufferization.alloc_tensor() : tensor<1x1x1568x128xf32>\n%3 = linalg.fill ins(%val : f32) outs(%tmp_3 : tensor<1x1x1568x128xf32>) -> tensor<1x1x1568x128xf32>\n%tmp_7 = bufferization.alloc_tensor() : tensor<512x7x7x128xf32>\n%7 = linalg.fill ins(%val : f32) outs(%tmp_7 : tensor<512x7x7x128xf32>) -> tensor<512x7x7x128xf32>\n\n%t0 = func.call @nanoTime() : () -> (i64)\n\n%return_arg = linalg.conv_2d_nhwc_hwcf {dilations = dense<1> : tensor<2xi64>, strides = dense<1> : tensor<2xi64>} ins(%1, %3 : tensor<512x7x7x1568xf32>, tensor<1x1x1568x128xf32>) outs(%7 : tensor<512x7x7x128xf32>) -> tensor<512x7x7x128xf32>\n%t = func.call @nanoTime() : () -> (i64)\n%delta = arith.subi %t, %t0 : i64\n%fp = arith.uitofp %delta : i64 to f64\n// func.call @printFlops(%fp) : (f64) -> ()\nfunc.call @printI64(%delta) : (i64) -> ()\nfunc.call @printNewline() : () -> ()\n\nreturn %return_arg : tensor<512x7x7x128xf32> \n}\n\nfunc.func @main(){\n    %c1 = arith.constant 1: index\n    %c0 = arith.constant 0 : index\n    %n = arith.constant 2: index\n    scf.for %i = %c0 to %n step %c1 {\n    %outputmain = func.call @matmul() : () -> tensor<512x7x7x128xf32>\n    }\n    return\n}\n\n", "loops_data": {"nested_loops": [["%arg3", 0, 512, 1], ["%arg4", 0, 7, 1], ["%arg5", 0, 7, 1], ["%arg6", 0, 128, 1], ["%arg7", 0, 1, 1], ["%arg8", 0, 1, 1], ["%arg9", 0, 1568, 1]], "op_count": {"+": 1, "-": 0, "*": 1, "/": 0, "exp": 0}, "load_data": [["%arg3", "%arg4 + %arg7", "%arg5 + %arg8", "%arg9"], ["%arg7", "%arg8", "%arg9", "%arg6"], ["%arg3", "%arg4", "%arg5", "%arg6"]], "store_data": ["%arg3", "%arg4", "%arg5", "%arg6"]}, "execution_time": 18932875019}], ["linalg.conv_2d_nhwc_hwcf {dilations = dense<1> : tensor<2xi64>, strides = dense<1> : tensor<2xi64>} ins(%1, %3 : tensor<512x56x56x48xf32>, tensor<1x1x48x112xf32>) outs(%7 : tensor<512x56x56x112xf32>) -> tensor<512x56x56x112xf32>", {"operation": "linalg.conv_2d_nhwc_hwcf {dilations = dense<1> : tensor<2xi64>, strides = dense<1> : tensor<2xi64>} ins(%1, %3 : tensor<512x56x56x48xf32>, tensor<1x1x48x112xf32>) outs(%7 : tensor<512x56x56x112xf32>) -> tensor<512x56x56x112xf32>", "wrapped_operation": "func.func @func_call(%1: tensor<512x56x56x48xf32>, %3: tensor<1x1x48x112xf32>, %7: tensor<512x56x56x112xf32>) -> tensor<512x56x56x112xf32> {\n  %ret = linalg.conv_2d_nhwc_hwcf {dilations = dense<1> : tensor<2xi64>, strides = dense<1> : tensor<2xi64>} ins(%1, %3 : tensor<512x56x56x48xf32>, tensor<1x1x48x112xf32>) outs(%7 : tensor<512x56x56x112xf32>) -> tensor<512x56x56x112xf32>\n  return %ret : tensor<512x56x56x112xf32>\n}", "lowered_operation": "#map = affine_map<(d0, d1) -> (d0 + d1)>\nmodule {\n  func.func @func_call(%arg0: tensor<512x56x56x48xf32>, %arg1: tensor<1x1x48x112xf32>, %arg2: tensor<512x56x56x112xf32>) -> tensor<512x56x56x112xf32> {\n    %0 = bufferization.to_memref %arg1 : memref<1x1x48x112xf32>\n    %1 = bufferization.to_memref %arg0 : memref<512x56x56x48xf32>\n    %2 = bufferization.to_memref %arg2 : memref<512x56x56x112xf32>\n    %alloc = memref.alloc() {alignment = 64 : i64} : memref<512x56x56x112xf32>\n    memref.copy %2, %alloc : memref<512x56x56x112xf32> to memref<512x56x56x112xf32>\n    affine.for %arg3 = 0 to 512 {\n      affine.for %arg4 = 0 to 56 {\n        affine.for %arg5 = 0 to 56 {\n          affine.for %arg6 = 0 to 112 {\n            affine.for %arg7 = 0 to 1 {\n              affine.for %arg8 = 0 to 1 {\n                affine.for %arg9 = 0 to 48 {\n                  %4 = affine.apply #map(%arg4, %arg7)\n                  %5 = affine.apply #map(%arg5, %arg8)\n                  %6 = affine.load %1[%arg3, %4, %5, %arg9] : memref<512x56x56x48xf32>\n                  %7 = affine.load %0[%arg7, %arg8, %arg9, %arg6] : memref<1x1x48x112xf32>\n                  %8 = affine.load %alloc[%arg3, %arg4, %arg5, %arg6] : memref<512x56x56x112xf32>\n                  %9 = arith.mulf %6, %7 : f32\n                  %10 = arith.addf %8, %9 : f32\n                  affine.store %10, %alloc[%arg3, %arg4, %arg5, %arg6] : memref<512x56x56x112xf32>\n                }\n              }\n            }\n          }\n        }\n      }\n    }\n    %3 = bufferization.to_tensor %alloc : memref<512x56x56x112xf32>\n    return %3 : tensor<512x56x56x112xf32>\n  }\n}\n\n", "transform_wrapped_operation": "func.func private @nanoTime() -> i64 attributes { llvm.emit_c_interface }\nfunc.func private @printFlops(f64)\nfunc.func private @printI64(i64)\nfunc.func private @printNewline()\nfunc.func private @printMemrefF32(tensor<*xf32>)\n\n\nfunc.func @matmul() -> tensor<512x56x56x112xf32>{\n\n%val = arith.constant 2.00000e+00 : f32\n%zero = arith.constant 0.00000e+00 : f32\n\n%tmp_1 = bufferization.alloc_tensor() : tensor<512x56x56x48xf32>\n%1 = linalg.fill ins(%val : f32) outs(%tmp_1 : tensor<512x56x56x48xf32>) -> tensor<512x56x56x48xf32>\n%tmp_3 = bufferization.alloc_tensor() : tensor<1x1x48x112xf32>\n%3 = linalg.fill ins(%val : f32) outs(%tmp_3 : tensor<1x1x48x112xf32>) -> tensor<1x1x48x112xf32>\n%tmp_7 = bufferization.alloc_tensor() : tensor<512x56x56x112xf32>\n%7 = linalg.fill ins(%val : f32) outs(%tmp_7 : tensor<512x56x56x112xf32>) -> tensor<512x56x56x112xf32>\n\n%t0 = func.call @nanoTime() : () -> (i64)\n\n%return_arg = linalg.conv_2d_nhwc_hwcf {dilations = dense<1> : tensor<2xi64>, strides = dense<1> : tensor<2xi64>} ins(%1, %3 : tensor<512x56x56x48xf32>, tensor<1x1x48x112xf32>) outs(%7 : tensor<512x56x56x112xf32>) -> tensor<512x56x56x112xf32>\n%t = func.call @nanoTime() : () -> (i64)\n%delta = arith.subi %t, %t0 : i64\n%fp = arith.uitofp %delta : i64 to f64\n// func.call @printFlops(%fp) : (f64) -> ()\nfunc.call @printI64(%delta) : (i64) -> ()\nfunc.call @printNewline() : () -> ()\n\nreturn %return_arg : tensor<512x56x56x112xf32> \n}\n\nfunc.func @main(){\n    %c1 = arith.constant 1: index\n    %c0 = arith.constant 0 : index\n    %n = arith.constant 2: index\n    scf.for %i = %c0 to %n step %c1 {\n    %outputmain = func.call @matmul() : () -> tensor<512x56x56x112xf32>\n    }\n    return\n}\n\n", "loops_data": {"nested_loops": [["%arg3", 0, 512, 1], ["%arg4", 0, 56, 1], ["%arg5", 0, 56, 1], ["%arg6", 0, 112, 1], ["%arg7", 0, 1, 1], ["%arg8", 0, 1, 1], ["%arg9", 0, 48, 1]], "op_count": {"+": 1, "-": 0, "*": 1, "/": 0, "exp": 0}, "load_data": [["%arg3", "%arg4 + %arg7", "%arg5 + %arg8", "%arg9"], ["%arg7", "%arg8", "%arg9", "%arg6"], ["%arg3", "%arg4", "%arg5", "%arg6"]], "store_data": ["%arg3", "%arg4", "%arg5", "%arg6"]}, "execution_time": 26980838525}], ["linalg.conv_2d_nhwc_hwcf {dilations = dense<1> : tensor<2xi64>, strides = dense<1> : tensor<2xi64>} ins(%1, %3 : tensor<512x1x1x168xf32>, tensor<1x1x168x42xf32>) outs(%7 : tensor<512x1x1x42xf32>) -> tensor<512x1x1x42xf32>", {"operation": "linalg.conv_2d_nhwc_hwcf {dilations = dense<1> : tensor<2xi64>, strides = dense<1> : tensor<2xi64>} ins(%1, %3 : tensor<512x1x1x168xf32>, tensor<1x1x168x42xf32>) outs(%7 : tensor<512x1x1x42xf32>) -> tensor<512x1x1x42xf32>", "wrapped_operation": "func.func @func_call(%1: tensor<512x1x1x168xf32>, %3: tensor<1x1x168x42xf32>, %7: tensor<512x1x1x42xf32>) -> tensor<512x1x1x42xf32> {\n  %ret = linalg.conv_2d_nhwc_hwcf {dilations = dense<1> : tensor<2xi64>, strides = dense<1> : tensor<2xi64>} ins(%1, %3 : tensor<512x1x1x168xf32>, tensor<1x1x168x42xf32>) outs(%7 : tensor<512x1x1x42xf32>) -> tensor<512x1x1x42xf32>\n  return %ret : tensor<512x1x1x42xf32>\n}", "lowered_operation": "#map = affine_map<(d0, d1) -> (d0 + d1)>\nmodule {\n  func.func @func_call(%arg0: tensor<512x1x1x168xf32>, %arg1: tensor<1x1x168x42xf32>, %arg2: tensor<512x1x1x42xf32>) -> tensor<512x1x1x42xf32> {\n    %0 = bufferization.to_memref %arg1 : memref<1x1x168x42xf32>\n    %1 = bufferization.to_memref %arg0 : memref<512x1x1x168xf32>\n    %2 = bufferization.to_memref %arg2 : memref<512x1x1x42xf32>\n    %alloc = memref.alloc() {alignment = 64 : i64} : memref<512x1x1x42xf32>\n    memref.copy %2, %alloc : memref<512x1x1x42xf32> to memref<512x1x1x42xf32>\n    affine.for %arg3 = 0 to 512 {\n      affine.for %arg4 = 0 to 1 {\n        affine.for %arg5 = 0 to 1 {\n          affine.for %arg6 = 0 to 42 {\n            affine.for %arg7 = 0 to 1 {\n              affine.for %arg8 = 0 to 1 {\n                affine.for %arg9 = 0 to 168 {\n                  %4 = affine.apply #map(%arg4, %arg7)\n                  %5 = affine.apply #map(%arg5, %arg8)\n                  %6 = affine.load %1[%arg3, %4, %5, %arg9] : memref<512x1x1x168xf32>\n                  %7 = affine.load %0[%arg7, %arg8, %arg9, %arg6] : memref<1x1x168x42xf32>\n                  %8 = affine.load %alloc[%arg3, %arg4, %arg5, %arg6] : memref<512x1x1x42xf32>\n                  %9 = arith.mulf %6, %7 : f32\n                  %10 = arith.addf %8, %9 : f32\n                  affine.store %10, %alloc[%arg3, %arg4, %arg5, %arg6] : memref<512x1x1x42xf32>\n                }\n              }\n            }\n          }\n        }\n      }\n    }\n    %3 = bufferization.to_tensor %alloc : memref<512x1x1x42xf32>\n    return %3 : tensor<512x1x1x42xf32>\n  }\n}\n\n", "transform_wrapped_operation": "func.func private @nanoTime() -> i64 attributes { llvm.emit_c_interface }\nfunc.func private @printFlops(f64)\nfunc.func private @printI64(i64)\nfunc.func private @printNewline()\nfunc.func private @printMemrefF32(tensor<*xf32>)\n\n\nfunc.func @matmul() -> tensor<512x1x1x42xf32>{\n\n%val = arith.constant 2.00000e+00 : f32\n%zero = arith.constant 0.00000e+00 : f32\n\n%tmp_1 = bufferization.alloc_tensor() : tensor<512x1x1x168xf32>\n%1 = linalg.fill ins(%val : f32) outs(%tmp_1 : tensor<512x1x1x168xf32>) -> tensor<512x1x1x168xf32>\n%tmp_3 = bufferization.alloc_tensor() : tensor<1x1x168x42xf32>\n%3 = linalg.fill ins(%val : f32) outs(%tmp_3 : tensor<1x1x168x42xf32>) -> tensor<1x1x168x42xf32>\n%tmp_7 = bufferization.alloc_tensor() : tensor<512x1x1x42xf32>\n%7 = linalg.fill ins(%val : f32) outs(%tmp_7 : tensor<512x1x1x42xf32>) -> tensor<512x1x1x42xf32>\n\n%t0 = func.call @nanoTime() : () -> (i64)\n\n%return_arg = linalg.conv_2d_nhwc_hwcf {dilations = dense<1> : tensor<2xi64>, strides = dense<1> : tensor<2xi64>} ins(%1, %3 : tensor<512x1x1x168xf32>, tensor<1x1x168x42xf32>) outs(%7 : tensor<512x1x1x42xf32>) -> tensor<512x1x1x42xf32>\n%t = func.call @nanoTime() : () -> (i64)\n%delta = arith.subi %t, %t0 : i64\n%fp = arith.uitofp %delta : i64 to f64\n// func.call @printFlops(%fp) : (f64) -> ()\nfunc.call @printI64(%delta) : (i64) -> ()\nfunc.call @printNewline() : () -> ()\n\nreturn %return_arg : tensor<512x1x1x42xf32> \n}\n\nfunc.func @main(){\n    %c1 = arith.constant 1: index\n    %c0 = arith.constant 0 : index\n    %n = arith.constant 2: index\n    scf.for %i = %c0 to %n step %c1 {\n    %outputmain = func.call @matmul() : () -> tensor<512x1x1x42xf32>\n    }\n    return\n}\n\n", "loops_data": {"nested_loops": [["%arg3", 0, 512, 1], ["%arg4", 0, 1, 1], ["%arg5", 0, 1, 1], ["%arg6", 0, 42, 1], ["%arg7", 0, 1, 1], ["%arg8", 0, 1, 1], ["%arg9", 0, 168, 1]], "op_count": {"+": 1, "-": 0, "*": 1, "/": 0, "exp": 0}, "load_data": [["%arg3", "%arg4 + %arg7", "%arg5 + %arg8", "%arg9"], ["%arg7", "%arg8", "%arg9", "%arg6"], ["%arg3", "%arg4", "%arg5", "%arg6"]], "store_data": ["%arg3", "%arg4", "%arg5", "%arg6"]}, "execution_time": 12565645}], ["linalg.conv_2d_nhwc_hwcf {dilations = dense<1> : tensor<2xi64>, strides = dense<1> : tensor<2xi64>} ins(%1, %3 : tensor<512x56x56x64xf32>, tensor<1x1x64x64xf32>) outs(%7 : tensor<512x56x56x64xf32>) -> tensor<512x56x56x64xf32>", {"operation": "linalg.conv_2d_nhwc_hwcf {dilations = dense<1> : tensor<2xi64>, strides = dense<1> : tensor<2xi64>} ins(%1, %3 : tensor<512x56x56x64xf32>, tensor<1x1x64x64xf32>) outs(%7 : tensor<512x56x56x64xf32>) -> tensor<512x56x56x64xf32>", "wrapped_operation": "func.func @func_call(%1: tensor<512x56x56x64xf32>, %3: tensor<1x1x64x64xf32>, %7: tensor<512x56x56x64xf32>) -> tensor<512x56x56x64xf32> {\n  %ret = linalg.conv_2d_nhwc_hwcf {dilations = dense<1> : tensor<2xi64>, strides = dense<1> : tensor<2xi64>} ins(%1, %3 : tensor<512x56x56x64xf32>, tensor<1x1x64x64xf32>) outs(%7 : tensor<512x56x56x64xf32>) -> tensor<512x56x56x64xf32>\n  return %ret : tensor<512x56x56x64xf32>\n}", "lowered_operation": "#map = affine_map<(d0, d1) -> (d0 + d1)>\nmodule {\n  func.func @func_call(%arg0: tensor<512x56x56x64xf32>, %arg1: tensor<1x1x64x64xf32>, %arg2: tensor<512x56x56x64xf32>) -> tensor<512x56x56x64xf32> {\n    %0 = bufferization.to_memref %arg1 : memref<1x1x64x64xf32>\n    %1 = bufferization.to_memref %arg0 : memref<512x56x56x64xf32>\n    %2 = bufferization.to_memref %arg2 : memref<512x56x56x64xf32>\n    %alloc = memref.alloc() {alignment = 64 : i64} : memref<512x56x56x64xf32>\n    memref.copy %2, %alloc : memref<512x56x56x64xf32> to memref<512x56x56x64xf32>\n    affine.for %arg3 = 0 to 512 {\n      affine.for %arg4 = 0 to 56 {\n        affine.for %arg5 = 0 to 56 {\n          affine.for %arg6 = 0 to 64 {\n            affine.for %arg7 = 0 to 1 {\n              affine.for %arg8 = 0 to 1 {\n                affine.for %arg9 = 0 to 64 {\n                  %4 = affine.apply #map(%arg4, %arg7)\n                  %5 = affine.apply #map(%arg5, %arg8)\n                  %6 = affine.load %1[%arg3, %4, %5, %arg9] : memref<512x56x56x64xf32>\n                  %7 = affine.load %0[%arg7, %arg8, %arg9, %arg6] : memref<1x1x64x64xf32>\n                  %8 = affine.load %alloc[%arg3, %arg4, %arg5, %arg6] : memref<512x56x56x64xf32>\n                  %9 = arith.mulf %6, %7 : f32\n                  %10 = arith.addf %8, %9 : f32\n                  affine.store %10, %alloc[%arg3, %arg4, %arg5, %arg6] : memref<512x56x56x64xf32>\n                }\n              }\n            }\n          }\n        }\n      }\n    }\n    %3 = bufferization.to_tensor %alloc : memref<512x56x56x64xf32>\n    return %3 : tensor<512x56x56x64xf32>\n  }\n}\n\n", "transform_wrapped_operation": "func.func private @nanoTime() -> i64 attributes { llvm.emit_c_interface }\nfunc.func private @printFlops(f64)\nfunc.func private @printI64(i64)\nfunc.func private @printNewline()\nfunc.func private @printMemrefF32(tensor<*xf32>)\n\n\nfunc.func @matmul() -> tensor<512x56x56x64xf32>{\n\n%val = arith.constant 2.00000e+00 : f32\n%zero = arith.constant 0.00000e+00 : f32\n\n%tmp_1 = bufferization.alloc_tensor() : tensor<512x56x56x64xf32>\n%1 = linalg.fill ins(%val : f32) outs(%tmp_1 : tensor<512x56x56x64xf32>) -> tensor<512x56x56x64xf32>\n%tmp_3 = bufferization.alloc_tensor() : tensor<1x1x64x64xf32>\n%3 = linalg.fill ins(%val : f32) outs(%tmp_3 : tensor<1x1x64x64xf32>) -> tensor<1x1x64x64xf32>\n%tmp_7 = bufferization.alloc_tensor() : tensor<512x56x56x64xf32>\n%7 = linalg.fill ins(%val : f32) outs(%tmp_7 : tensor<512x56x56x64xf32>) -> tensor<512x56x56x64xf32>\n\n%t0 = func.call @nanoTime() : () -> (i64)\n\n%return_arg = linalg.conv_2d_nhwc_hwcf {dilations = dense<1> : tensor<2xi64>, strides = dense<1> : tensor<2xi64>} ins(%1, %3 : tensor<512x56x56x64xf32>, tensor<1x1x64x64xf32>) outs(%7 : tensor<512x56x56x64xf32>) -> tensor<512x56x56x64xf32>\n%t = func.call @nanoTime() : () -> (i64)\n%delta = arith.subi %t, %t0 : i64\n%fp = arith.uitofp %delta : i64 to f64\n// func.call @printFlops(%fp) : (f64) -> ()\nfunc.call @printI64(%delta) : (i64) -> ()\nfunc.call @printNewline() : () -> ()\n\nreturn %return_arg : tensor<512x56x56x64xf32> \n}\n\nfunc.func @main(){\n    %c1 = arith.constant 1: index\n    %c0 = arith.constant 0 : index\n    %n = arith.constant 2: index\n    scf.for %i = %c0 to %n step %c1 {\n    %outputmain = func.call @matmul() : () -> tensor<512x56x56x64xf32>\n    }\n    return\n}\n\n", "loops_data": {"nested_loops": [["%arg3", 0, 512, 1], ["%arg4", 0, 56, 1], ["%arg5", 0, 56, 1], ["%arg6", 0, 64, 1], ["%arg7", 0, 1, 1], ["%arg8", 0, 1, 1], ["%arg9", 0, 64, 1]], "op_count": {"+": 1, "-": 0, "*": 1, "/": 0, "exp": 0}, "load_data": [["%arg3", "%arg4 + %arg7", "%arg5 + %arg8", "%arg9"], ["%arg7", "%arg8", "%arg9", "%arg6"], ["%arg3", "%arg4", "%arg5", "%arg6"]], "store_data": ["%arg3", "%arg4", "%arg5", "%arg6"]}, "execution_time": 21903592228}], ["linalg.conv_2d_nhwc_hwcf {dilations = dense<1> : tensor<2xi64>, strides = dense<1> : tensor<2xi64>} ins(%1, %3 : tensor<512x1x1x48xf32>, tensor<1x1x48x8xf32>) outs(%7 : tensor<512x1x1x8xf32>) -> tensor<512x1x1x8xf32>", {"operation": "linalg.conv_2d_nhwc_hwcf {dilations = dense<1> : tensor<2xi64>, strides = dense<1> : tensor<2xi64>} ins(%1, %3 : tensor<512x1x1x48xf32>, tensor<1x1x48x8xf32>) outs(%7 : tensor<512x1x1x8xf32>) -> tensor<512x1x1x8xf32>", "wrapped_operation": "func.func @func_call(%1: tensor<512x1x1x48xf32>, %3: tensor<1x1x48x8xf32>, %7: tensor<512x1x1x8xf32>) -> tensor<512x1x1x8xf32> {\n  %ret = linalg.conv_2d_nhwc_hwcf {dilations = dense<1> : tensor<2xi64>, strides = dense<1> : tensor<2xi64>} ins(%1, %3 : tensor<512x1x1x48xf32>, tensor<1x1x48x8xf32>) outs(%7 : tensor<512x1x1x8xf32>) -> tensor<512x1x1x8xf32>\n  return %ret : tensor<512x1x1x8xf32>\n}", "lowered_operation": "#map = affine_map<(d0, d1) -> (d0 + d1)>\nmodule {\n  func.func @func_call(%arg0: tensor<512x1x1x48xf32>, %arg1: tensor<1x1x48x8xf32>, %arg2: tensor<512x1x1x8xf32>) -> tensor<512x1x1x8xf32> {\n    %0 = bufferization.to_memref %arg1 : memref<1x1x48x8xf32>\n    %1 = bufferization.to_memref %arg0 : memref<512x1x1x48xf32>\n    %2 = bufferization.to_memref %arg2 : memref<512x1x1x8xf32>\n    %alloc = memref.alloc() {alignment = 64 : i64} : memref<512x1x1x8xf32>\n    memref.copy %2, %alloc : memref<512x1x1x8xf32> to memref<512x1x1x8xf32>\n    affine.for %arg3 = 0 to 512 {\n      affine.for %arg4 = 0 to 1 {\n        affine.for %arg5 = 0 to 1 {\n          affine.for %arg6 = 0 to 8 {\n            affine.for %arg7 = 0 to 1 {\n              affine.for %arg8 = 0 to 1 {\n                affine.for %arg9 = 0 to 48 {\n                  %4 = affine.apply #map(%arg4, %arg7)\n                  %5 = affine.apply #map(%arg5, %arg8)\n                  %6 = affine.load %1[%arg3, %4, %5, %arg9] : memref<512x1x1x48xf32>\n                  %7 = affine.load %0[%arg7, %arg8, %arg9, %arg6] : memref<1x1x48x8xf32>\n                  %8 = affine.load %alloc[%arg3, %arg4, %arg5, %arg6] : memref<512x1x1x8xf32>\n                  %9 = arith.mulf %6, %7 : f32\n                  %10 = arith.addf %8, %9 : f32\n                  affine.store %10, %alloc[%arg3, %arg4, %arg5, %arg6] : memref<512x1x1x8xf32>\n                }\n              }\n            }\n          }\n        }\n      }\n    }\n    %3 = bufferization.to_tensor %alloc : memref<512x1x1x8xf32>\n    return %3 : tensor<512x1x1x8xf32>\n  }\n}\n\n", "transform_wrapped_operation": "func.func private @nanoTime() -> i64 attributes { llvm.emit_c_interface }\nfunc.func private @printFlops(f64)\nfunc.func private @printI64(i64)\nfunc.func private @printNewline()\nfunc.func private @printMemrefF32(tensor<*xf32>)\n\n\nfunc.func @matmul() -> tensor<512x1x1x8xf32>{\n\n%val = arith.constant 2.00000e+00 : f32\n%zero = arith.constant 0.00000e+00 : f32\n\n%tmp_1 = bufferization.alloc_tensor() : tensor<512x1x1x48xf32>\n%1 = linalg.fill ins(%val : f32) outs(%tmp_1 : tensor<512x1x1x48xf32>) -> tensor<512x1x1x48xf32>\n%tmp_3 = bufferization.alloc_tensor() : tensor<1x1x48x8xf32>\n%3 = linalg.fill ins(%val : f32) outs(%tmp_3 : tensor<1x1x48x8xf32>) -> tensor<1x1x48x8xf32>\n%tmp_7 = bufferization.alloc_tensor() : tensor<512x1x1x8xf32>\n%7 = linalg.fill ins(%val : f32) outs(%tmp_7 : tensor<512x1x1x8xf32>) -> tensor<512x1x1x8xf32>\n\n%t0 = func.call @nanoTime() : () -> (i64)\n\n%return_arg = linalg.conv_2d_nhwc_hwcf {dilations = dense<1> : tensor<2xi64>, strides = dense<1> : tensor<2xi64>} ins(%1, %3 : tensor<512x1x1x48xf32>, tensor<1x1x48x8xf32>) outs(%7 : tensor<512x1x1x8xf32>) -> tensor<512x1x1x8xf32>\n%t = func.call @nanoTime() : () -> (i64)\n%delta = arith.subi %t, %t0 : i64\n%fp = arith.uitofp %delta : i64 to f64\n// func.call @printFlops(%fp) : (f64) -> ()\nfunc.call @printI64(%delta) : (i64) -> ()\nfunc.call @printNewline() : () -> ()\n\nreturn %return_arg : tensor<512x1x1x8xf32> \n}\n\nfunc.func @main(){\n    %c1 = arith.constant 1: index\n    %c0 = arith.constant 0 : index\n    %n = arith.constant 2: index\n    scf.for %i = %c0 to %n step %c1 {\n    %outputmain = func.call @matmul() : () -> tensor<512x1x1x8xf32>\n    }\n    return\n}\n\n", "loops_data": {"nested_loops": [["%arg3", 0, 512, 1], ["%arg4", 0, 1, 1], ["%arg5", 0, 1, 1], ["%arg6", 0, 8, 1], ["%arg7", 0, 1, 1], ["%arg8", 0, 1, 1], ["%arg9", 0, 48, 1]], "op_count": {"+": 1, "-": 0, "*": 1, "/": 0, "exp": 0}, "load_data": [["%arg3", "%arg4 + %arg7", "%arg5 + %arg8", "%arg9"], ["%arg7", "%arg8", "%arg9", "%arg6"], ["%arg3", "%arg4", "%arg5", "%arg6"]], "store_data": ["%arg3", "%arg4", "%arg5", "%arg6"]}, "execution_time": 488268}], ["linalg.conv_2d_nhwc_hwcf {dilations = dense<1> : tensor<2xi64>, strides = dense<1> : tensor<2xi64>} ins(%1, %3 : tensor<512x224x224x3xf32>, tensor<3x3x3x32xf32>) outs(%7 : tensor<512x111x111x32xf32>) -> tensor<512x111x111x32xf32>", {"operation": "linalg.conv_2d_nhwc_hwcf {dilations = dense<1> : tensor<2xi64>, strides = dense<1> : tensor<2xi64>} ins(%1, %3 : tensor<512x224x224x3xf32>, tensor<3x3x3x32xf32>) outs(%7 : tensor<512x111x111x32xf32>) -> tensor<512x111x111x32xf32>", "wrapped_operation": "func.func @func_call(%1: tensor<512x224x224x3xf32>, %3: tensor<3x3x3x32xf32>, %7: tensor<512x111x111x32xf32>) -> tensor<512x111x111x32xf32> {\n  %ret = linalg.conv_2d_nhwc_hwcf {dilations = dense<1> : tensor<2xi64>, strides = dense<1> : tensor<2xi64>} ins(%1, %3 : tensor<512x224x224x3xf32>, tensor<3x3x3x32xf32>) outs(%7 : tensor<512x111x111x32xf32>) -> tensor<512x111x111x32xf32>\n  return %ret : tensor<512x111x111x32xf32>\n}", "lowered_operation": "#map = affine_map<(d0, d1) -> (d0 + d1)>\nmodule {\n  func.func @func_call(%arg0: tensor<512x224x224x3xf32>, %arg1: tensor<3x3x3x32xf32>, %arg2: tensor<512x111x111x32xf32>) -> tensor<512x111x111x32xf32> {\n    %0 = bufferization.to_memref %arg1 : memref<3x3x3x32xf32>\n    %1 = bufferization.to_memref %arg0 : memref<512x224x224x3xf32>\n    %2 = bufferization.to_memref %arg2 : memref<512x111x111x32xf32>\n    %alloc = memref.alloc() {alignment = 64 : i64} : memref<512x111x111x32xf32>\n    memref.copy %2, %alloc : memref<512x111x111x32xf32> to memref<512x111x111x32xf32>\n    affine.for %arg3 = 0 to 512 {\n      affine.for %arg4 = 0 to 111 {\n        affine.for %arg5 = 0 to 111 {\n          affine.for %arg6 = 0 to 32 {\n            affine.for %arg7 = 0 to 3 {\n              affine.for %arg8 = 0 to 3 {\n                affine.for %arg9 = 0 to 3 {\n                  %4 = affine.apply #map(%arg4, %arg7)\n                  %5 = affine.apply #map(%arg5, %arg8)\n                  %6 = affine.load %1[%arg3, %4, %5, %arg9] : memref<512x224x224x3xf32>\n                  %7 = affine.load %0[%arg7, %arg8, %arg9, %arg6] : memref<3x3x3x32xf32>\n                  %8 = affine.load %alloc[%arg3, %arg4, %arg5, %arg6] : memref<512x111x111x32xf32>\n                  %9 = arith.mulf %6, %7 : f32\n                  %10 = arith.addf %8, %9 : f32\n                  affine.store %10, %alloc[%arg3, %arg4, %arg5, %arg6] : memref<512x111x111x32xf32>\n                }\n              }\n            }\n          }\n        }\n      }\n    }\n    %3 = bufferization.to_tensor %alloc : memref<512x111x111x32xf32>\n    return %3 : tensor<512x111x111x32xf32>\n  }\n}\n\n", "transform_wrapped_operation": "func.func private @nanoTime() -> i64 attributes { llvm.emit_c_interface }\nfunc.func private @printFlops(f64)\nfunc.func private @printI64(i64)\nfunc.func private @printNewline()\nfunc.func private @printMemrefF32(tensor<*xf32>)\n\n\nfunc.func @matmul() -> tensor<512x111x111x32xf32>{\n\n%val = arith.constant 2.00000e+00 : f32\n%zero = arith.constant 0.00000e+00 : f32\n\n%tmp_1 = bufferization.alloc_tensor() : tensor<512x224x224x3xf32>\n%1 = linalg.fill ins(%val : f32) outs(%tmp_1 : tensor<512x224x224x3xf32>) -> tensor<512x224x224x3xf32>\n%tmp_3 = bufferization.alloc_tensor() : tensor<3x3x3x32xf32>\n%3 = linalg.fill ins(%val : f32) outs(%tmp_3 : tensor<3x3x3x32xf32>) -> tensor<3x3x3x32xf32>\n%tmp_7 = bufferization.alloc_tensor() : tensor<512x111x111x32xf32>\n%7 = linalg.fill ins(%val : f32) outs(%tmp_7 : tensor<512x111x111x32xf32>) -> tensor<512x111x111x32xf32>\n\n%t0 = func.call @nanoTime() : () -> (i64)\n\n%return_arg = linalg.conv_2d_nhwc_hwcf {dilations = dense<1> : tensor<2xi64>, strides = dense<1> : tensor<2xi64>} ins(%1, %3 : tensor<512x224x224x3xf32>, tensor<3x3x3x32xf32>) outs(%7 : tensor<512x111x111x32xf32>) -> tensor<512x111x111x32xf32>\n%t = func.call @nanoTime() : () -> (i64)\n%delta = arith.subi %t, %t0 : i64\n%fp = arith.uitofp %delta : i64 to f64\n// func.call @printFlops(%fp) : (f64) -> ()\nfunc.call @printI64(%delta) : (i64) -> ()\nfunc.call @printNewline() : () -> ()\n\nreturn %return_arg : tensor<512x111x111x32xf32> \n}\n\nfunc.func @main(){\n    %c1 = arith.constant 1: index\n    %c0 = arith.constant 0 : index\n    %n = arith.constant 2: index\n    scf.for %i = %c0 to %n step %c1 {\n    %outputmain = func.call @matmul() : () -> tensor<512x111x111x32xf32>\n    }\n    return\n}\n\n", "loops_data": {"nested_loops": [["%arg3", 0, 512, 1], ["%arg4", 0, 111, 1], ["%arg5", 0, 111, 1], ["%arg6", 0, 32, 1], ["%arg7", 0, 3, 1], ["%arg8", 0, 3, 1], ["%arg9", 0, 3, 1]], "op_count": {"+": 1, "-": 0, "*": 1, "/": 0, "exp": 0}, "load_data": [["%arg3", "%arg4 + %arg7", "%arg5 + %arg8", "%arg9"], ["%arg7", "%arg8", "%arg9", "%arg6"], ["%arg3", "%arg4", "%arg5", "%arg6"]], "store_data": ["%arg3", "%arg4", "%arg5", "%arg6"]}, "execution_time": 16069005745}], ["linalg.conv_2d_nhwc_hwcf {dilations = dense<1> : tensor<2xi64>, strides = dense<1> : tensor<2xi64>} ins(%1, %3 : tensor<512x14x14x448xf32>, tensor<1x1x448x128xf32>) outs(%7 : tensor<512x14x14x128xf32>) -> tensor<512x14x14x128xf32>", {"operation": "linalg.conv_2d_nhwc_hwcf {dilations = dense<1> : tensor<2xi64>, strides = dense<1> : tensor<2xi64>} ins(%1, %3 : tensor<512x14x14x448xf32>, tensor<1x1x448x128xf32>) outs(%7 : tensor<512x14x14x128xf32>) -> tensor<512x14x14x128xf32>", "wrapped_operation": "func.func @func_call(%1: tensor<512x14x14x448xf32>, %3: tensor<1x1x448x128xf32>, %7: tensor<512x14x14x128xf32>) -> tensor<512x14x14x128xf32> {\n  %ret = linalg.conv_2d_nhwc_hwcf {dilations = dense<1> : tensor<2xi64>, strides = dense<1> : tensor<2xi64>} ins(%1, %3 : tensor<512x14x14x448xf32>, tensor<1x1x448x128xf32>) outs(%7 : tensor<512x14x14x128xf32>) -> tensor<512x14x14x128xf32>\n  return %ret : tensor<512x14x14x128xf32>\n}", "lowered_operation": "#map = affine_map<(d0, d1) -> (d0 + d1)>\nmodule {\n  func.func @func_call(%arg0: tensor<512x14x14x448xf32>, %arg1: tensor<1x1x448x128xf32>, %arg2: tensor<512x14x14x128xf32>) -> tensor<512x14x14x128xf32> {\n    %0 = bufferization.to_memref %arg1 : memref<1x1x448x128xf32>\n    %1 = bufferization.to_memref %arg0 : memref<512x14x14x448xf32>\n    %2 = bufferization.to_memref %arg2 : memref<512x14x14x128xf32>\n    %alloc = memref.alloc() {alignment = 64 : i64} : memref<512x14x14x128xf32>\n    memref.copy %2, %alloc : memref<512x14x14x128xf32> to memref<512x14x14x128xf32>\n    affine.for %arg3 = 0 to 512 {\n      affine.for %arg4 = 0 to 14 {\n        affine.for %arg5 = 0 to 14 {\n          affine.for %arg6 = 0 to 128 {\n            affine.for %arg7 = 0 to 1 {\n              affine.for %arg8 = 0 to 1 {\n                affine.for %arg9 = 0 to 448 {\n                  %4 = affine.apply #map(%arg4, %arg7)\n                  %5 = affine.apply #map(%arg5, %arg8)\n                  %6 = affine.load %1[%arg3, %4, %5, %arg9] : memref<512x14x14x448xf32>\n                  %7 = affine.load %0[%arg7, %arg8, %arg9, %arg6] : memref<1x1x448x128xf32>\n                  %8 = affine.load %alloc[%arg3, %arg4, %arg5, %arg6] : memref<512x14x14x128xf32>\n                  %9 = arith.mulf %6, %7 : f32\n                  %10 = arith.addf %8, %9 : f32\n                  affine.store %10, %alloc[%arg3, %arg4, %arg5, %arg6] : memref<512x14x14x128xf32>\n                }\n              }\n            }\n          }\n        }\n      }\n    }\n    %3 = bufferization.to_tensor %alloc : memref<512x14x14x128xf32>\n    return %3 : tensor<512x14x14x128xf32>\n  }\n}\n\n", "transform_wrapped_operation": "func.func private @nanoTime() -> i64 attributes { llvm.emit_c_interface }\nfunc.func private @printFlops(f64)\nfunc.func private @printI64(i64)\nfunc.func private @printNewline()\nfunc.func private @printMemrefF32(tensor<*xf32>)\n\n\nfunc.func @matmul() -> tensor<512x14x14x128xf32>{\n\n%val = arith.constant 2.00000e+00 : f32\n%zero = arith.constant 0.00000e+00 : f32\n\n%tmp_1 = bufferization.alloc_tensor() : tensor<512x14x14x448xf32>\n%1 = linalg.fill ins(%val : f32) outs(%tmp_1 : tensor<512x14x14x448xf32>) -> tensor<512x14x14x448xf32>\n%tmp_3 = bufferization.alloc_tensor() : tensor<1x1x448x128xf32>\n%3 = linalg.fill ins(%val : f32) outs(%tmp_3 : tensor<1x1x448x128xf32>) -> tensor<1x1x448x128xf32>\n%tmp_7 = bufferization.alloc_tensor() : tensor<512x14x14x128xf32>\n%7 = linalg.fill ins(%val : f32) outs(%tmp_7 : tensor<512x14x14x128xf32>) -> tensor<512x14x14x128xf32>\n\n%t0 = func.call @nanoTime() : () -> (i64)\n\n%return_arg = linalg.conv_2d_nhwc_hwcf {dilations = dense<1> : tensor<2xi64>, strides = dense<1> : tensor<2xi64>} ins(%1, %3 : tensor<512x14x14x448xf32>, tensor<1x1x448x128xf32>) outs(%7 : tensor<512x14x14x128xf32>) -> tensor<512x14x14x128xf32>\n%t = func.call @nanoTime() : () -> (i64)\n%delta = arith.subi %t, %t0 : i64\n%fp = arith.uitofp %delta : i64 to f64\n// func.call @printFlops(%fp) : (f64) -> ()\nfunc.call @printI64(%delta) : (i64) -> ()\nfunc.call @printNewline() : () -> ()\n\nreturn %return_arg : tensor<512x14x14x128xf32> \n}\n\nfunc.func @main(){\n    %c1 = arith.constant 1: index\n    %c0 = arith.constant 0 : index\n    %n = arith.constant 2: index\n    scf.for %i = %c0 to %n step %c1 {\n    %outputmain = func.call @matmul() : () -> tensor<512x14x14x128xf32>\n    }\n    return\n}\n\n", "loops_data": {"nested_loops": [["%arg3", 0, 512, 1], ["%arg4", 0, 14, 1], ["%arg5", 0, 14, 1], ["%arg6", 0, 128, 1], ["%arg7", 0, 1, 1], ["%arg8", 0, 1, 1], ["%arg9", 0, 448, 1]], "op_count": {"+": 1, "-": 0, "*": 1, "/": 0, "exp": 0}, "load_data": [["%arg3", "%arg4 + %arg7", "%arg5 + %arg8", "%arg9"], ["%arg7", "%arg8", "%arg9", "%arg6"], ["%arg3", "%arg4", "%arg5", "%arg6"]], "store_data": ["%arg3", "%arg4", "%arg5", "%arg6"]}, "execution_time": 21361081003}], ["linalg.conv_2d_nhwc_hwcf {dilations = dense<1> : tensor<2xi64>, strides = dense<1> : tensor<2xi64>} ins(%1, %3 : tensor<512x14x14x160xf32>, tensor<1x1x160x384xf32>) outs(%7 : tensor<512x14x14x384xf32>) -> tensor<512x14x14x384xf32>", {"operation": "linalg.conv_2d_nhwc_hwcf {dilations = dense<1> : tensor<2xi64>, strides = dense<1> : tensor<2xi64>} ins(%1, %3 : tensor<512x14x14x160xf32>, tensor<1x1x160x384xf32>) outs(%7 : tensor<512x14x14x384xf32>) -> tensor<512x14x14x384xf32>", "wrapped_operation": "func.func @func_call(%1: tensor<512x14x14x160xf32>, %3: tensor<1x1x160x384xf32>, %7: tensor<512x14x14x384xf32>) -> tensor<512x14x14x384xf32> {\n  %ret = linalg.conv_2d_nhwc_hwcf {dilations = dense<1> : tensor<2xi64>, strides = dense<1> : tensor<2xi64>} ins(%1, %3 : tensor<512x14x14x160xf32>, tensor<1x1x160x384xf32>) outs(%7 : tensor<512x14x14x384xf32>) -> tensor<512x14x14x384xf32>\n  return %ret : tensor<512x14x14x384xf32>\n}", "lowered_operation": "#map = affine_map<(d0, d1) -> (d0 + d1)>\nmodule {\n  func.func @func_call(%arg0: tensor<512x14x14x160xf32>, %arg1: tensor<1x1x160x384xf32>, %arg2: tensor<512x14x14x384xf32>) -> tensor<512x14x14x384xf32> {\n    %0 = bufferization.to_memref %arg1 : memref<1x1x160x384xf32>\n    %1 = bufferization.to_memref %arg0 : memref<512x14x14x160xf32>\n    %2 = bufferization.to_memref %arg2 : memref<512x14x14x384xf32>\n    %alloc = memref.alloc() {alignment = 64 : i64} : memref<512x14x14x384xf32>\n    memref.copy %2, %alloc : memref<512x14x14x384xf32> to memref<512x14x14x384xf32>\n    affine.for %arg3 = 0 to 512 {\n      affine.for %arg4 = 0 to 14 {\n        affine.for %arg5 = 0 to 14 {\n          affine.for %arg6 = 0 to 384 {\n            affine.for %arg7 = 0 to 1 {\n              affine.for %arg8 = 0 to 1 {\n                affine.for %arg9 = 0 to 160 {\n                  %4 = affine.apply #map(%arg4, %arg7)\n                  %5 = affine.apply #map(%arg5, %arg8)\n                  %6 = affine.load %1[%arg3, %4, %5, %arg9] : memref<512x14x14x160xf32>\n                  %7 = affine.load %0[%arg7, %arg8, %arg9, %arg6] : memref<1x1x160x384xf32>\n                  %8 = affine.load %alloc[%arg3, %arg4, %arg5, %arg6] : memref<512x14x14x384xf32>\n                  %9 = arith.mulf %6, %7 : f32\n                  %10 = arith.addf %8, %9 : f32\n                  affine.store %10, %alloc[%arg3, %arg4, %arg5, %arg6] : memref<512x14x14x384xf32>\n                }\n              }\n            }\n          }\n        }\n      }\n    }\n    %3 = bufferization.to_tensor %alloc : memref<512x14x14x384xf32>\n    return %3 : tensor<512x14x14x384xf32>\n  }\n}\n\n", "transform_wrapped_operation": "func.func private @nanoTime() -> i64 attributes { llvm.emit_c_interface }\nfunc.func private @printFlops(f64)\nfunc.func private @printI64(i64)\nfunc.func private @printNewline()\nfunc.func private @printMemrefF32(tensor<*xf32>)\n\n\nfunc.func @matmul() -> tensor<512x14x14x384xf32>{\n\n%val = arith.constant 2.00000e+00 : f32\n%zero = arith.constant 0.00000e+00 : f32\n\n%tmp_1 = bufferization.alloc_tensor() : tensor<512x14x14x160xf32>\n%1 = linalg.fill ins(%val : f32) outs(%tmp_1 : tensor<512x14x14x160xf32>) -> tensor<512x14x14x160xf32>\n%tmp_3 = bufferization.alloc_tensor() : tensor<1x1x160x384xf32>\n%3 = linalg.fill ins(%val : f32) outs(%tmp_3 : tensor<1x1x160x384xf32>) -> tensor<1x1x160x384xf32>\n%tmp_7 = bufferization.alloc_tensor() : tensor<512x14x14x384xf32>\n%7 = linalg.fill ins(%val : f32) outs(%tmp_7 : tensor<512x14x14x384xf32>) -> tensor<512x14x14x384xf32>\n\n%t0 = func.call @nanoTime() : () -> (i64)\n\n%return_arg = linalg.conv_2d_nhwc_hwcf {dilations = dense<1> : tensor<2xi64>, strides = dense<1> : tensor<2xi64>} ins(%1, %3 : tensor<512x14x14x160xf32>, tensor<1x1x160x384xf32>) outs(%7 : tensor<512x14x14x384xf32>) -> tensor<512x14x14x384xf32>\n%t = func.call @nanoTime() : () -> (i64)\n%delta = arith.subi %t, %t0 : i64\n%fp = arith.uitofp %delta : i64 to f64\n// func.call @printFlops(%fp) : (f64) -> ()\nfunc.call @printI64(%delta) : (i64) -> ()\nfunc.call @printNewline() : () -> ()\n\nreturn %return_arg : tensor<512x14x14x384xf32> \n}\n\nfunc.func @main(){\n    %c1 = arith.constant 1: index\n    %c0 = arith.constant 0 : index\n    %n = arith.constant 2: index\n    scf.for %i = %c0 to %n step %c1 {\n    %outputmain = func.call @matmul() : () -> tensor<512x14x14x384xf32>\n    }\n    return\n}\n\n", "loops_data": {"nested_loops": [["%arg3", 0, 512, 1], ["%arg4", 0, 14, 1], ["%arg5", 0, 14, 1], ["%arg6", 0, 384, 1], ["%arg7", 0, 1, 1], ["%arg8", 0, 1, 1], ["%arg9", 0, 160, 1]], "op_count": {"+": 1, "-": 0, "*": 1, "/": 0, "exp": 0}, "load_data": [["%arg3", "%arg4 + %arg7", "%arg5 + %arg8", "%arg9"], ["%arg7", "%arg8", "%arg9", "%arg6"], ["%arg3", "%arg4", "%arg5", "%arg6"]], "store_data": ["%arg3", "%arg4", "%arg5", "%arg6"]}, "execution_time": 22228367078}], ["linalg.conv_2d_nhwc_hwcf {dilations = dense<1> : tensor<2xi64>, strides = dense<1> : tensor<2xi64>} ins(%1, %3 : tensor<512x1x1x128xf32>, tensor<1x1x128x16xf32>) outs(%7 : tensor<512x1x1x16xf32>) -> tensor<512x1x1x16xf32>", {"operation": "linalg.conv_2d_nhwc_hwcf {dilations = dense<1> : tensor<2xi64>, strides = dense<1> : tensor<2xi64>} ins(%1, %3 : tensor<512x1x1x128xf32>, tensor<1x1x128x16xf32>) outs(%7 : tensor<512x1x1x16xf32>) -> tensor<512x1x1x16xf32>", "wrapped_operation": "func.func @func_call(%1: tensor<512x1x1x128xf32>, %3: tensor<1x1x128x16xf32>, %7: tensor<512x1x1x16xf32>) -> tensor<512x1x1x16xf32> {\n  %ret = linalg.conv_2d_nhwc_hwcf {dilations = dense<1> : tensor<2xi64>, strides = dense<1> : tensor<2xi64>} ins(%1, %3 : tensor<512x1x1x128xf32>, tensor<1x1x128x16xf32>) outs(%7 : tensor<512x1x1x16xf32>) -> tensor<512x1x1x16xf32>\n  return %ret : tensor<512x1x1x16xf32>\n}", "lowered_operation": "#map = affine_map<(d0, d1) -> (d0 + d1)>\nmodule {\n  func.func @func_call(%arg0: tensor<512x1x1x128xf32>, %arg1: tensor<1x1x128x16xf32>, %arg2: tensor<512x1x1x16xf32>) -> tensor<512x1x1x16xf32> {\n    %0 = bufferization.to_memref %arg1 : memref<1x1x128x16xf32>\n    %1 = bufferization.to_memref %arg0 : memref<512x1x1x128xf32>\n    %2 = bufferization.to_memref %arg2 : memref<512x1x1x16xf32>\n    %alloc = memref.alloc() {alignment = 64 : i64} : memref<512x1x1x16xf32>\n    memref.copy %2, %alloc : memref<512x1x1x16xf32> to memref<512x1x1x16xf32>\n    affine.for %arg3 = 0 to 512 {\n      affine.for %arg4 = 0 to 1 {\n        affine.for %arg5 = 0 to 1 {\n          affine.for %arg6 = 0 to 16 {\n            affine.for %arg7 = 0 to 1 {\n              affine.for %arg8 = 0 to 1 {\n                affine.for %arg9 = 0 to 128 {\n                  %4 = affine.apply #map(%arg4, %arg7)\n                  %5 = affine.apply #map(%arg5, %arg8)\n                  %6 = affine.load %1[%arg3, %4, %5, %arg9] : memref<512x1x1x128xf32>\n                  %7 = affine.load %0[%arg7, %arg8, %arg9, %arg6] : memref<1x1x128x16xf32>\n                  %8 = affine.load %alloc[%arg3, %arg4, %arg5, %arg6] : memref<512x1x1x16xf32>\n                  %9 = arith.mulf %6, %7 : f32\n                  %10 = arith.addf %8, %9 : f32\n                  affine.store %10, %alloc[%arg3, %arg4, %arg5, %arg6] : memref<512x1x1x16xf32>\n                }\n              }\n            }\n          }\n        }\n      }\n    }\n    %3 = bufferization.to_tensor %alloc : memref<512x1x1x16xf32>\n    return %3 : tensor<512x1x1x16xf32>\n  }\n}\n\n", "transform_wrapped_operation": "func.func private @nanoTime() -> i64 attributes { llvm.emit_c_interface }\nfunc.func private @printFlops(f64)\nfunc.func private @printI64(i64)\nfunc.func private @printNewline()\nfunc.func private @printMemrefF32(tensor<*xf32>)\n\n\nfunc.func @matmul() -> tensor<512x1x1x16xf32>{\n\n%val = arith.constant 2.00000e+00 : f32\n%zero = arith.constant 0.00000e+00 : f32\n\n%tmp_1 = bufferization.alloc_tensor() : tensor<512x1x1x128xf32>\n%1 = linalg.fill ins(%val : f32) outs(%tmp_1 : tensor<512x1x1x128xf32>) -> tensor<512x1x1x128xf32>\n%tmp_3 = bufferization.alloc_tensor() : tensor<1x1x128x16xf32>\n%3 = linalg.fill ins(%val : f32) outs(%tmp_3 : tensor<1x1x128x16xf32>) -> tensor<1x1x128x16xf32>\n%tmp_7 = bufferization.alloc_tensor() : tensor<512x1x1x16xf32>\n%7 = linalg.fill ins(%val : f32) outs(%tmp_7 : tensor<512x1x1x16xf32>) -> tensor<512x1x1x16xf32>\n\n%t0 = func.call @nanoTime() : () -> (i64)\n\n%return_arg = linalg.conv_2d_nhwc_hwcf {dilations = dense<1> : tensor<2xi64>, strides = dense<1> : tensor<2xi64>} ins(%1, %3 : tensor<512x1x1x128xf32>, tensor<1x1x128x16xf32>) outs(%7 : tensor<512x1x1x16xf32>) -> tensor<512x1x1x16xf32>\n%t = func.call @nanoTime() : () -> (i64)\n%delta = arith.subi %t, %t0 : i64\n%fp = arith.uitofp %delta : i64 to f64\n// func.call @printFlops(%fp) : (f64) -> ()\nfunc.call @printI64(%delta) : (i64) -> ()\nfunc.call @printNewline() : () -> ()\n\nreturn %return_arg : tensor<512x1x1x16xf32> \n}\n\nfunc.func @main(){\n    %c1 = arith.constant 1: index\n    %c0 = arith.constant 0 : index\n    %n = arith.constant 2: index\n    scf.for %i = %c0 to %n step %c1 {\n    %outputmain = func.call @matmul() : () -> tensor<512x1x1x16xf32>\n    }\n    return\n}\n\n", "loops_data": {"nested_loops": [["%arg3", 0, 512, 1], ["%arg4", 0, 1, 1], ["%arg5", 0, 1, 1], ["%arg6", 0, 16, 1], ["%arg7", 0, 1, 1], ["%arg8", 0, 1, 1], ["%arg9", 0, 128, 1]], "op_count": {"+": 1, "-": 0, "*": 1, "/": 0, "exp": 0}, "load_data": [["%arg3", "%arg4 + %arg7", "%arg5 + %arg8", "%arg9"], ["%arg7", "%arg8", "%arg9", "%arg6"], ["%arg3", "%arg4", "%arg5", "%arg6"]], "store_data": ["%arg3", "%arg4", "%arg5", "%arg6"]}, "execution_time": 3556124}], ["linalg.conv_2d_nhwc_hwcf {dilations = dense<1> : tensor<2xi64>, strides = dense<1> : tensor<2xi64>} ins(%1, %3 : tensor<512x7x7x528xf32>, tensor<1x1x528x528xf32>) outs(%7 : tensor<512x7x7x528xf32>) -> tensor<512x7x7x528xf32>", {"operation": "linalg.conv_2d_nhwc_hwcf {dilations = dense<1> : tensor<2xi64>, strides = dense<1> : tensor<2xi64>} ins(%1, %3 : tensor<512x7x7x528xf32>, tensor<1x1x528x528xf32>) outs(%7 : tensor<512x7x7x528xf32>) -> tensor<512x7x7x528xf32>", "wrapped_operation": "func.func @func_call(%1: tensor<512x7x7x528xf32>, %3: tensor<1x1x528x528xf32>, %7: tensor<512x7x7x528xf32>) -> tensor<512x7x7x528xf32> {\n  %ret = linalg.conv_2d_nhwc_hwcf {dilations = dense<1> : tensor<2xi64>, strides = dense<1> : tensor<2xi64>} ins(%1, %3 : tensor<512x7x7x528xf32>, tensor<1x1x528x528xf32>) outs(%7 : tensor<512x7x7x528xf32>) -> tensor<512x7x7x528xf32>\n  return %ret : tensor<512x7x7x528xf32>\n}", "lowered_operation": "#map = affine_map<(d0, d1) -> (d0 + d1)>\nmodule {\n  func.func @func_call(%arg0: tensor<512x7x7x528xf32>, %arg1: tensor<1x1x528x528xf32>, %arg2: tensor<512x7x7x528xf32>) -> tensor<512x7x7x528xf32> {\n    %0 = bufferization.to_memref %arg1 : memref<1x1x528x528xf32>\n    %1 = bufferization.to_memref %arg0 : memref<512x7x7x528xf32>\n    %2 = bufferization.to_memref %arg2 : memref<512x7x7x528xf32>\n    %alloc = memref.alloc() {alignment = 64 : i64} : memref<512x7x7x528xf32>\n    memref.copy %2, %alloc : memref<512x7x7x528xf32> to memref<512x7x7x528xf32>\n    affine.for %arg3 = 0 to 512 {\n      affine.for %arg4 = 0 to 7 {\n        affine.for %arg5 = 0 to 7 {\n          affine.for %arg6 = 0 to 528 {\n            affine.for %arg7 = 0 to 1 {\n              affine.for %arg8 = 0 to 1 {\n                affine.for %arg9 = 0 to 528 {\n                  %4 = affine.apply #map(%arg4, %arg7)\n                  %5 = affine.apply #map(%arg5, %arg8)\n                  %6 = affine.load %1[%arg3, %4, %5, %arg9] : memref<512x7x7x528xf32>\n                  %7 = affine.load %0[%arg7, %arg8, %arg9, %arg6] : memref<1x1x528x528xf32>\n                  %8 = affine.load %alloc[%arg3, %arg4, %arg5, %arg6] : memref<512x7x7x528xf32>\n                  %9 = arith.mulf %6, %7 : f32\n                  %10 = arith.addf %8, %9 : f32\n                  affine.store %10, %alloc[%arg3, %arg4, %arg5, %arg6] : memref<512x7x7x528xf32>\n                }\n              }\n            }\n          }\n        }\n      }\n    }\n    %3 = bufferization.to_tensor %alloc : memref<512x7x7x528xf32>\n    return %3 : tensor<512x7x7x528xf32>\n  }\n}\n\n", "transform_wrapped_operation": "func.func private @nanoTime() -> i64 attributes { llvm.emit_c_interface }\nfunc.func private @printFlops(f64)\nfunc.func private @printI64(i64)\nfunc.func private @printNewline()\nfunc.func private @printMemrefF32(tensor<*xf32>)\n\n\nfunc.func @matmul() -> tensor<512x7x7x528xf32>{\n\n%val = arith.constant 2.00000e+00 : f32\n%zero = arith.constant 0.00000e+00 : f32\n\n%tmp_1 = bufferization.alloc_tensor() : tensor<512x7x7x528xf32>\n%1 = linalg.fill ins(%val : f32) outs(%tmp_1 : tensor<512x7x7x528xf32>) -> tensor<512x7x7x528xf32>\n%tmp_3 = bufferization.alloc_tensor() : tensor<1x1x528x528xf32>\n%3 = linalg.fill ins(%val : f32) outs(%tmp_3 : tensor<1x1x528x528xf32>) -> tensor<1x1x528x528xf32>\n%tmp_7 = bufferization.alloc_tensor() : tensor<512x7x7x528xf32>\n%7 = linalg.fill ins(%val : f32) outs(%tmp_7 : tensor<512x7x7x528xf32>) -> tensor<512x7x7x528xf32>\n\n%t0 = func.call @nanoTime() : () -> (i64)\n\n%return_arg = linalg.conv_2d_nhwc_hwcf {dilations = dense<1> : tensor<2xi64>, strides = dense<1> : tensor<2xi64>} ins(%1, %3 : tensor<512x7x7x528xf32>, tensor<1x1x528x528xf32>) outs(%7 : tensor<512x7x7x528xf32>) -> tensor<512x7x7x528xf32>\n%t = func.call @nanoTime() : () -> (i64)\n%delta = arith.subi %t, %t0 : i64\n%fp = arith.uitofp %delta : i64 to f64\n// func.call @printFlops(%fp) : (f64) -> ()\nfunc.call @printI64(%delta) : (i64) -> ()\nfunc.call @printNewline() : () -> ()\n\nreturn %return_arg : tensor<512x7x7x528xf32> \n}\n\nfunc.func @main(){\n    %c1 = arith.constant 1: index\n    %c0 = arith.constant 0 : index\n    %n = arith.constant 2: index\n    scf.for %i = %c0 to %n step %c1 {\n    %outputmain = func.call @matmul() : () -> tensor<512x7x7x528xf32>\n    }\n    return\n}\n\n", "loops_data": {"nested_loops": [["%arg3", 0, 512, 1], ["%arg4", 0, 7, 1], ["%arg5", 0, 7, 1], ["%arg6", 0, 528, 1], ["%arg7", 0, 1, 1], ["%arg8", 0, 1, 1], ["%arg9", 0, 528, 1]], "op_count": {"+": 1, "-": 0, "*": 1, "/": 0, "exp": 0}, "load_data": [["%arg3", "%arg4 + %arg7", "%arg5 + %arg8", "%arg9"], ["%arg7", "%arg8", "%arg9", "%arg6"], ["%arg3", "%arg4", "%arg5", "%arg6"]], "store_data": ["%arg3", "%arg4", "%arg5", "%arg6"]}, "execution_time": 26028296621}]]