{"linalg.add ins(%arg0, %arg1: tensor<224x150x228x112xf32>, tensor<224x150x228x112xf32>) outs(%arg2: tensor<224x150x228x112xf32>) -> tensor<224x150x228x112xf32>": {"operation": "linalg.add ins(%arg0, %arg1: tensor<224x150x228x112xf32>, tensor<224x150x228x112xf32>) outs(%arg2: tensor<224x150x228x112xf32>) -> tensor<224x150x228x112xf32>", "wrapped_operation": "func.func @func_call(%arg0: tensor<224x150x228x112xf32>, %arg1: tensor<224x150x228x112xf32>, %arg2: tensor<224x150x228x112xf32>) -> tensor<224x150x228x112xf32> {\n  %ret = linalg.add ins(%arg0, %arg1: tensor<224x150x228x112xf32>, tensor<224x150x228x112xf32>) outs(%arg2: tensor<224x150x228x112xf32>) -> tensor<224x150x228x112xf32>\n  return %ret : tensor<224x150x228x112xf32>\n}", "lowered_operation": "module {\n  func.func @func_call(%arg0: tensor<224x150x228x112xf32>, %arg1: tensor<224x150x228x112xf32>, %arg2: tensor<224x150x228x112xf32>) -> tensor<224x150x228x112xf32> {\n    %0 = bufferization.to_memref %arg1 : memref<224x150x228x112xf32>\n    %1 = bufferization.to_memref %arg0 : memref<224x150x228x112xf32>\n    %alloc = memref.alloc() {alignment = 64 : i64} : memref<224x150x228x112xf32>\n    affine.for %arg3 = 0 to 224 {\n      affine.for %arg4 = 0 to 150 {\n        affine.for %arg5 = 0 to 228 {\n          affine.for %arg6 = 0 to 112 {\n            %3 = affine.load %1[%arg3, %arg4, %arg5, %arg6] : memref<224x150x228x112xf32>\n            %4 = affine.load %0[%arg3, %arg4, %arg5, %arg6] : memref<224x150x228x112xf32>\n            %5 = arith.addf %3, %4 : f32\n            affine.store %5, %alloc[%arg3, %arg4, %arg5, %arg6] : memref<224x150x228x112xf32>\n          }\n        }\n      }\n    }\n    %2 = bufferization.to_tensor %alloc : memref<224x150x228x112xf32>\n    return %2 : tensor<224x150x228x112xf32>\n  }\n}\n\n", "transform_wrapped_operation": "module attributes {torch.debug_module_name = \"Net\"} {\nfunc.func private @nanoTime() -> i64 attributes { llvm.emit_c_interface }\nfunc.func private @printFlops(f64)\nfunc.func private @printI64(i64)\nfunc.func private @printNewline()\nfunc.func private @printMemrefF32(tensor<*xf32>)\n\n\nfunc.func @matmul() -> tensor<224x150x228x112xf32>{\n\n%val = arith.constant 2.00000e+00 : f32\n%zero = arith.constant 0.00000e+00 : f32\n\n%tmp_arg0 = bufferization.alloc_tensor() : tensor<224x150x228x112xf32>\n%arg0 = linalg.fill ins(%val : f32) outs(%tmp_arg0 : tensor<224x150x228x112xf32>) -> tensor<224x150x228x112xf32>\n%tmp_arg1 = bufferization.alloc_tensor() : tensor<224x150x228x112xf32>\n%arg1 = linalg.fill ins(%val : f32) outs(%tmp_arg1 : tensor<224x150x228x112xf32>) -> tensor<224x150x228x112xf32>\n%tmp_arg2 = bufferization.alloc_tensor() : tensor<224x150x228x112xf32>\n%arg2 = linalg.fill ins(%val : f32) outs(%tmp_arg2 : tensor<224x150x228x112xf32>) -> tensor<224x150x228x112xf32>\n\n%t0 = func.call @nanoTime() : () -> (i64)\n\n%return_arg = linalg.add ins(%arg0, %arg1: tensor<224x150x228x112xf32>, tensor<224x150x228x112xf32>) outs(%arg2: tensor<224x150x228x112xf32>) -> tensor<224x150x228x112xf32>\n%t = func.call @nanoTime() : () -> (i64)\n%delta = arith.subi %t, %t0 : i64\n%fp = arith.uitofp %delta : i64 to f64\n// func.call @printFlops(%fp) : (f64) -> ()\nfunc.call @printI64(%delta) : (i64) -> ()\nfunc.call @printNewline() : () -> ()\n\nreturn %return_arg : tensor<224x150x228x112xf32> \n}\n\nfunc.func @main(){\n    %c1 = arith.constant 1: index\n    %c0 = arith.constant 0 : index\n    %n = arith.constant 2: index\n    scf.for %i = %c0 to %n step %c1 {\n    %outputmain = func.call @matmul() : () -> tensor<224x150x228x112xf32>\n    }\n    return\n}\n}\n", "loops_data": {"nested_loops": [["%arg3", 0, 224, 1], ["%arg4", 0, 150, 1], ["%arg5", 0, 228, 1], ["%arg6", 0, 112, 1]], "op_count": {"+": 1, "-": 0, "*": 0, "/": 0, "exp": 0}, "load_data": [["%arg3", "%arg4", "%arg5", "%arg6"], ["%arg3", "%arg4", "%arg5", "%arg6"]], "store_data": []}, "execution_time": 888938878}, "linalg.add ins(%arg0, %arg1: tensor<112x7x240x14xf32>, tensor<112x7x240x14xf32>) outs(%arg2: tensor<112x7x240x14xf32>) -> tensor<112x7x240x14xf32>": {"operation": "linalg.add ins(%arg0, %arg1: tensor<112x7x240x14xf32>, tensor<112x7x240x14xf32>) outs(%arg2: tensor<112x7x240x14xf32>) -> tensor<112x7x240x14xf32>", "wrapped_operation": "func.func @func_call(%arg0: tensor<112x7x240x14xf32>, %arg1: tensor<112x7x240x14xf32>, %arg2: tensor<112x7x240x14xf32>) -> tensor<112x7x240x14xf32> {\n  %ret = linalg.add ins(%arg0, %arg1: tensor<112x7x240x14xf32>, tensor<112x7x240x14xf32>) outs(%arg2: tensor<112x7x240x14xf32>) -> tensor<112x7x240x14xf32>\n  return %ret : tensor<112x7x240x14xf32>\n}", "lowered_operation": "module {\n  func.func @func_call(%arg0: tensor<112x7x240x14xf32>, %arg1: tensor<112x7x240x14xf32>, %arg2: tensor<112x7x240x14xf32>) -> tensor<112x7x240x14xf32> {\n    %0 = bufferization.to_memref %arg1 : memref<112x7x240x14xf32>\n    %1 = bufferization.to_memref %arg0 : memref<112x7x240x14xf32>\n    %alloc = memref.alloc() {alignment = 64 : i64} : memref<112x7x240x14xf32>\n    affine.for %arg3 = 0 to 112 {\n      affine.for %arg4 = 0 to 7 {\n        affine.for %arg5 = 0 to 240 {\n          affine.for %arg6 = 0 to 14 {\n            %3 = affine.load %1[%arg3, %arg4, %arg5, %arg6] : memref<112x7x240x14xf32>\n            %4 = affine.load %0[%arg3, %arg4, %arg5, %arg6] : memref<112x7x240x14xf32>\n            %5 = arith.addf %3, %4 : f32\n            affine.store %5, %alloc[%arg3, %arg4, %arg5, %arg6] : memref<112x7x240x14xf32>\n          }\n        }\n      }\n    }\n    %2 = bufferization.to_tensor %alloc : memref<112x7x240x14xf32>\n    return %2 : tensor<112x7x240x14xf32>\n  }\n}\n\n", "transform_wrapped_operation": "module attributes {torch.debug_module_name = \"Net\"} {\nfunc.func private @nanoTime() -> i64 attributes { llvm.emit_c_interface }\nfunc.func private @printFlops(f64)\nfunc.func private @printI64(i64)\nfunc.func private @printNewline()\nfunc.func private @printMemrefF32(tensor<*xf32>)\n\n\nfunc.func @matmul() -> tensor<112x7x240x14xf32>{\n\n%val = arith.constant 2.00000e+00 : f32\n%zero = arith.constant 0.00000e+00 : f32\n\n%tmp_arg0 = bufferization.alloc_tensor() : tensor<112x7x240x14xf32>\n%arg0 = linalg.fill ins(%val : f32) outs(%tmp_arg0 : tensor<112x7x240x14xf32>) -> tensor<112x7x240x14xf32>\n%tmp_arg1 = bufferization.alloc_tensor() : tensor<112x7x240x14xf32>\n%arg1 = linalg.fill ins(%val : f32) outs(%tmp_arg1 : tensor<112x7x240x14xf32>) -> tensor<112x7x240x14xf32>\n%tmp_arg2 = bufferization.alloc_tensor() : tensor<112x7x240x14xf32>\n%arg2 = linalg.fill ins(%val : f32) outs(%tmp_arg2 : tensor<112x7x240x14xf32>) -> tensor<112x7x240x14xf32>\n\n%t0 = func.call @nanoTime() : () -> (i64)\n\n%return_arg = linalg.add ins(%arg0, %arg1: tensor<112x7x240x14xf32>, tensor<112x7x240x14xf32>) outs(%arg2: tensor<112x7x240x14xf32>) -> tensor<112x7x240x14xf32>\n%t = func.call @nanoTime() : () -> (i64)\n%delta = arith.subi %t, %t0 : i64\n%fp = arith.uitofp %delta : i64 to f64\n// func.call @printFlops(%fp) : (f64) -> ()\nfunc.call @printI64(%delta) : (i64) -> ()\nfunc.call @printNewline() : () -> ()\n\nreturn %return_arg : tensor<112x7x240x14xf32> \n}\n\nfunc.func @main(){\n    %c1 = arith.constant 1: index\n    %c0 = arith.constant 0 : index\n    %n = arith.constant 2: index\n    scf.for %i = %c0 to %n step %c1 {\n    %outputmain = func.call @matmul() : () -> tensor<112x7x240x14xf32>\n    }\n    return\n}\n}\n", "loops_data": {"nested_loops": [["%arg3", 0, 112, 1], ["%arg4", 0, 7, 1], ["%arg5", 0, 240, 1], ["%arg6", 0, 14, 1]], "op_count": {"+": 1, "-": 0, "*": 0, "/": 0, "exp": 0}, "load_data": [["%arg3", "%arg4", "%arg5", "%arg6"], ["%arg3", "%arg4", "%arg5", "%arg6"]], "store_data": []}, "execution_time": 1984853}}