{"linalg.conv_2d ins(%input, %filter: tensor<512x32xi32>, tensor<7x7xi32>) outs(%output: tensor<506x26xi32>) -> tensor<506x26xi32>_0": {"operation": "linalg.conv_2d ins(%input, %filter: tensor<512x32xi32>, tensor<7x7xi32>) outs(%output: tensor<506x26xi32>) -> tensor<506x26xi32>", "wrapped_operation": "func.func @func_call(%input: tensor<512x32xi32>, %filter: tensor<7x7xi32>, %output: tensor<506x26xi32>) -> tensor<506x26xi32> {\n  %ret = linalg.conv_2d ins(%input, %filter: tensor<512x32xi32>, tensor<7x7xi32>) outs(%output: tensor<506x26xi32>) -> tensor<506x26xi32>\n  return %ret : tensor<506x26xi32>\n}", "lowered_operation": "#map = affine_map<(d0, d1) -> (d0 + d1)>\nmodule {\n  func.func @func_call(%arg0: tensor<512x32xi32>, %arg1: tensor<7x7xi32>, %arg2: tensor<506x26xi32>) -> tensor<506x26xi32> {\n    %0 = bufferization.to_memref %arg1 : memref<7x7xi32>\n    %1 = bufferization.to_memref %arg0 : memref<512x32xi32>\n    %2 = bufferization.to_memref %arg2 : memref<506x26xi32>\n    %alloc = memref.alloc() {alignment = 64 : i64} : memref<506x26xi32>\n    memref.copy %2, %alloc : memref<506x26xi32> to memref<506x26xi32>\n    affine.for %arg3 = 0 to 506 {\n      affine.for %arg4 = 0 to 26 {\n        affine.for %arg5 = 0 to 7 {\n          affine.for %arg6 = 0 to 7 {\n            %4 = affine.apply #map(%arg3, %arg5)\n            %5 = affine.apply #map(%arg4, %arg6)\n            %6 = affine.load %1[%4, %5] : memref<512x32xi32>\n            %7 = affine.load %0[%arg5, %arg6] : memref<7x7xi32>\n            %8 = affine.load %alloc[%arg3, %arg4] : memref<506x26xi32>\n            %9 = arith.muli %6, %7 : i32\n            %10 = arith.addi %8, %9 : i32\n            affine.store %10, %alloc[%arg3, %arg4] : memref<506x26xi32>\n          }\n        }\n      }\n    }\n    %3 = bufferization.to_tensor %alloc : memref<506x26xi32>\n    return %3 : tensor<506x26xi32>\n  }\n}\n\n", "transform_wrapped_operation": "func.func private @nanoTime() -> i64 attributes { llvm.emit_c_interface }\nfunc.func private @printI64(i64)\nfunc.func private @printMemrefF32(tensor<*xf32>)\n\n\nfunc.func @func_call(%input: tensor<512x32xi32>, %filter: tensor<7x7xi32>, %output: tensor<506x26xi32>) -> tensor<506x26xi32> {\n  %ret = linalg.conv_2d ins(%input, %filter: tensor<512x32xi32>, tensor<7x7xi32>) outs(%output: tensor<506x26xi32>) -> tensor<506x26xi32>\n  return %ret : tensor<506x26xi32>\n}\n\nfunc.func @main() -> i64 {\n  %c7 = arith.constant 7 : index\n  %c26 = arith.constant 26 : index\n  %c32 = arith.constant 32 : index\n  %c506 = arith.constant 506 : index\n  %c512 = arith.constant 512 : index\n  %input_temp = bufferization.alloc_tensor(%c512, %c32) : tensor<?x?xi32>\n  %input = tensor.cast %input_temp : tensor<?x?xi32> to tensor<512x32xi32>\n  %filter_temp = bufferization.alloc_tensor(%c7, %c7) : tensor<?x?xi32>\n  %filter = tensor.cast %filter_temp : tensor<?x?xi32> to tensor<7x7xi32>\n  %output_temp = bufferization.alloc_tensor(%c506, %c26) : tensor<?x?xi32>\n  %output = tensor.cast %output_temp : tensor<?x?xi32> to tensor<506x26xi32>\n  %t0 = func.call @nanoTime() : () -> (i64)\n  %ret_arg = func.call @func_call(%input, %filter, %output) : (tensor<512x32xi32>, tensor<7x7xi32>, tensor<506x26xi32>) -> (tensor<506x26xi32>)  %t1 = func.call @nanoTime() : () -> (i64)\n  %delta = arith.subi %t1, %t0 : i64\n  return %delta : i64\n}", "loops_data": {"nested_loops": [["%arg3", 0, 506, 1], ["%arg4", 0, 26, 1], ["%arg5", 0, 7, 1], ["%arg6", 0, 7, 1]], "op_count": {"+": 0, "-": 0, "*": 0, "/": 0, "exp": 0}, "load_data": [["%arg3 + %arg5", "%arg4 + %arg6"], ["%arg5", "%arg6"], ["%arg3", "%arg4"]], "store_data": ["%arg3", "%arg4"]}}, "linalg.conv_2d ins(%input, %filter: tensor<256x128xi32>, tensor<1x1xi32>) outs(%output: tensor<256x128xi32>) -> tensor<256x128xi32>_1": {"operation": "linalg.conv_2d ins(%input, %filter: tensor<256x128xi32>, tensor<1x1xi32>) outs(%output: tensor<256x128xi32>) -> tensor<256x128xi32>", "wrapped_operation": "func.func @func_call(%input: tensor<256x128xi32>, %filter: tensor<1x1xi32>, %output: tensor<256x128xi32>) -> tensor<256x128xi32> {\n  %ret = linalg.conv_2d ins(%input, %filter: tensor<256x128xi32>, tensor<1x1xi32>) outs(%output: tensor<256x128xi32>) -> tensor<256x128xi32>\n  return %ret : tensor<256x128xi32>\n}", "lowered_operation": "#map = affine_map<(d0, d1) -> (d0 + d1)>\nmodule {\n  func.func @func_call(%arg0: tensor<256x128xi32>, %arg1: tensor<1x1xi32>, %arg2: tensor<256x128xi32>) -> tensor<256x128xi32> {\n    %0 = bufferization.to_memref %arg1 : memref<1x1xi32>\n    %1 = bufferization.to_memref %arg0 : memref<256x128xi32>\n    %2 = bufferization.to_memref %arg2 : memref<256x128xi32>\n    %alloc = memref.alloc() {alignment = 64 : i64} : memref<256x128xi32>\n    memref.copy %2, %alloc : memref<256x128xi32> to memref<256x128xi32>\n    affine.for %arg3 = 0 to 256 {\n      affine.for %arg4 = 0 to 128 {\n        affine.for %arg5 = 0 to 1 {\n          affine.for %arg6 = 0 to 1 {\n            %4 = affine.apply #map(%arg3, %arg5)\n            %5 = affine.apply #map(%arg4, %arg6)\n            %6 = affine.load %1[%4, %5] : memref<256x128xi32>\n            %7 = affine.load %0[%arg5, %arg6] : memref<1x1xi32>\n            %8 = affine.load %alloc[%arg3, %arg4] : memref<256x128xi32>\n            %9 = arith.muli %6, %7 : i32\n            %10 = arith.addi %8, %9 : i32\n            affine.store %10, %alloc[%arg3, %arg4] : memref<256x128xi32>\n          }\n        }\n      }\n    }\n    %3 = bufferization.to_tensor %alloc : memref<256x128xi32>\n    return %3 : tensor<256x128xi32>\n  }\n}\n\n", "transform_wrapped_operation": "func.func private @nanoTime() -> i64 attributes { llvm.emit_c_interface }\nfunc.func private @printI64(i64)\nfunc.func private @printMemrefF32(tensor<*xf32>)\n\n\nfunc.func @func_call(%input: tensor<256x128xi32>, %filter: tensor<1x1xi32>, %output: tensor<256x128xi32>) -> tensor<256x128xi32> {\n  %ret = linalg.conv_2d ins(%input, %filter: tensor<256x128xi32>, tensor<1x1xi32>) outs(%output: tensor<256x128xi32>) -> tensor<256x128xi32>\n  return %ret : tensor<256x128xi32>\n}\n\nfunc.func @main() -> i64 {\n  %c1 = arith.constant 1 : index\n  %c128 = arith.constant 128 : index\n  %c256 = arith.constant 256 : index\n  %input_temp = bufferization.alloc_tensor(%c256, %c128) : tensor<?x?xi32>\n  %input = tensor.cast %input_temp : tensor<?x?xi32> to tensor<256x128xi32>\n  %filter_temp = bufferization.alloc_tensor(%c1, %c1) : tensor<?x?xi32>\n  %filter = tensor.cast %filter_temp : tensor<?x?xi32> to tensor<1x1xi32>\n  %output_temp = bufferization.alloc_tensor(%c256, %c128) : tensor<?x?xi32>\n  %output = tensor.cast %output_temp : tensor<?x?xi32> to tensor<256x128xi32>\n  %t0 = func.call @nanoTime() : () -> (i64)\n  %ret_arg = func.call @func_call(%input, %filter, %output) : (tensor<256x128xi32>, tensor<1x1xi32>, tensor<256x128xi32>) -> (tensor<256x128xi32>)  %t1 = func.call @nanoTime() : () -> (i64)\n  %delta = arith.subi %t1, %t0 : i64\n  return %delta : i64\n}", "loops_data": {"nested_loops": [["%arg3", 0, 256, 1], ["%arg4", 0, 128, 1], ["%arg5", 0, 1, 1], ["%arg6", 0, 1, 1]], "op_count": {"+": 0, "-": 0, "*": 0, "/": 0, "exp": 0}, "load_data": [["%arg3 + %arg5", "%arg4 + %arg6"], ["%arg5", "%arg6"], ["%arg3", "%arg4"]], "store_data": ["%arg3", "%arg4"]}}, "linalg.conv_2d ins(%input, %filter: tensor<64x64xi32>, tensor<5x5xi32>) outs(%output: tensor<60x60xi32>) -> tensor<60x60xi32>_2": {"operation": "linalg.conv_2d ins(%input, %filter: tensor<64x64xi32>, tensor<5x5xi32>) outs(%output: tensor<60x60xi32>) -> tensor<60x60xi32>", "wrapped_operation": "func.func @func_call(%input: tensor<64x64xi32>, %filter: tensor<5x5xi32>, %output: tensor<60x60xi32>) -> tensor<60x60xi32> {\n  %ret = linalg.conv_2d ins(%input, %filter: tensor<64x64xi32>, tensor<5x5xi32>) outs(%output: tensor<60x60xi32>) -> tensor<60x60xi32>\n  return %ret : tensor<60x60xi32>\n}", "lowered_operation": "#map = affine_map<(d0, d1) -> (d0 + d1)>\nmodule {\n  func.func @func_call(%arg0: tensor<64x64xi32>, %arg1: tensor<5x5xi32>, %arg2: tensor<60x60xi32>) -> tensor<60x60xi32> {\n    %0 = bufferization.to_memref %arg1 : memref<5x5xi32>\n    %1 = bufferization.to_memref %arg0 : memref<64x64xi32>\n    %2 = bufferization.to_memref %arg2 : memref<60x60xi32>\n    %alloc = memref.alloc() {alignment = 64 : i64} : memref<60x60xi32>\n    memref.copy %2, %alloc : memref<60x60xi32> to memref<60x60xi32>\n    affine.for %arg3 = 0 to 60 {\n      affine.for %arg4 = 0 to 60 {\n        affine.for %arg5 = 0 to 5 {\n          affine.for %arg6 = 0 to 5 {\n            %4 = affine.apply #map(%arg3, %arg5)\n            %5 = affine.apply #map(%arg4, %arg6)\n            %6 = affine.load %1[%4, %5] : memref<64x64xi32>\n            %7 = affine.load %0[%arg5, %arg6] : memref<5x5xi32>\n            %8 = affine.load %alloc[%arg3, %arg4] : memref<60x60xi32>\n            %9 = arith.muli %6, %7 : i32\n            %10 = arith.addi %8, %9 : i32\n            affine.store %10, %alloc[%arg3, %arg4] : memref<60x60xi32>\n          }\n        }\n      }\n    }\n    %3 = bufferization.to_tensor %alloc : memref<60x60xi32>\n    return %3 : tensor<60x60xi32>\n  }\n}\n\n", "transform_wrapped_operation": "func.func private @nanoTime() -> i64 attributes { llvm.emit_c_interface }\nfunc.func private @printI64(i64)\nfunc.func private @printMemrefF32(tensor<*xf32>)\n\n\nfunc.func @func_call(%input: tensor<64x64xi32>, %filter: tensor<5x5xi32>, %output: tensor<60x60xi32>) -> tensor<60x60xi32> {\n  %ret = linalg.conv_2d ins(%input, %filter: tensor<64x64xi32>, tensor<5x5xi32>) outs(%output: tensor<60x60xi32>) -> tensor<60x60xi32>\n  return %ret : tensor<60x60xi32>\n}\n\nfunc.func @main() -> i64 {\n  %c5 = arith.constant 5 : index\n  %c60 = arith.constant 60 : index\n  %c64 = arith.constant 64 : index\n  %input_temp = bufferization.alloc_tensor(%c64, %c64) : tensor<?x?xi32>\n  %input = tensor.cast %input_temp : tensor<?x?xi32> to tensor<64x64xi32>\n  %filter_temp = bufferization.alloc_tensor(%c5, %c5) : tensor<?x?xi32>\n  %filter = tensor.cast %filter_temp : tensor<?x?xi32> to tensor<5x5xi32>\n  %output_temp = bufferization.alloc_tensor(%c60, %c60) : tensor<?x?xi32>\n  %output = tensor.cast %output_temp : tensor<?x?xi32> to tensor<60x60xi32>\n  %t0 = func.call @nanoTime() : () -> (i64)\n  %ret_arg = func.call @func_call(%input, %filter, %output) : (tensor<64x64xi32>, tensor<5x5xi32>, tensor<60x60xi32>) -> (tensor<60x60xi32>)  %t1 = func.call @nanoTime() : () -> (i64)\n  %delta = arith.subi %t1, %t0 : i64\n  return %delta : i64\n}", "loops_data": {"nested_loops": [["%arg3", 0, 60, 1], ["%arg4", 0, 60, 1], ["%arg5", 0, 5, 1], ["%arg6", 0, 5, 1]], "op_count": {"+": 0, "-": 0, "*": 0, "/": 0, "exp": 0}, "load_data": [["%arg3 + %arg5", "%arg4 + %arg6"], ["%arg5", "%arg6"], ["%arg3", "%arg4"]], "store_data": ["%arg3", "%arg4"]}}, "linalg.conv_2d ins(%input, %filter: tensor<128x1024xi32>, tensor<3x3xi32>) outs(%output: tensor<126x1022xi32>) -> tensor<126x1022xi32>_3": {"operation": "linalg.conv_2d ins(%input, %filter: tensor<128x1024xi32>, tensor<3x3xi32>) outs(%output: tensor<126x1022xi32>) -> tensor<126x1022xi32>", "wrapped_operation": "func.func @func_call(%input: tensor<128x1024xi32>, %filter: tensor<3x3xi32>, %output: tensor<126x1022xi32>) -> tensor<126x1022xi32> {\n  %ret = linalg.conv_2d ins(%input, %filter: tensor<128x1024xi32>, tensor<3x3xi32>) outs(%output: tensor<126x1022xi32>) -> tensor<126x1022xi32>\n  return %ret : tensor<126x1022xi32>\n}", "lowered_operation": "#map = affine_map<(d0, d1) -> (d0 + d1)>\nmodule {\n  func.func @func_call(%arg0: tensor<128x1024xi32>, %arg1: tensor<3x3xi32>, %arg2: tensor<126x1022xi32>) -> tensor<126x1022xi32> {\n    %0 = bufferization.to_memref %arg1 : memref<3x3xi32>\n    %1 = bufferization.to_memref %arg0 : memref<128x1024xi32>\n    %2 = bufferization.to_memref %arg2 : memref<126x1022xi32>\n    %alloc = memref.alloc() {alignment = 64 : i64} : memref<126x1022xi32>\n    memref.copy %2, %alloc : memref<126x1022xi32> to memref<126x1022xi32>\n    affine.for %arg3 = 0 to 126 {\n      affine.for %arg4 = 0 to 1022 {\n        affine.for %arg5 = 0 to 3 {\n          affine.for %arg6 = 0 to 3 {\n            %4 = affine.apply #map(%arg3, %arg5)\n            %5 = affine.apply #map(%arg4, %arg6)\n            %6 = affine.load %1[%4, %5] : memref<128x1024xi32>\n            %7 = affine.load %0[%arg5, %arg6] : memref<3x3xi32>\n            %8 = affine.load %alloc[%arg3, %arg4] : memref<126x1022xi32>\n            %9 = arith.muli %6, %7 : i32\n            %10 = arith.addi %8, %9 : i32\n            affine.store %10, %alloc[%arg3, %arg4] : memref<126x1022xi32>\n          }\n        }\n      }\n    }\n    %3 = bufferization.to_tensor %alloc : memref<126x1022xi32>\n    return %3 : tensor<126x1022xi32>\n  }\n}\n\n", "transform_wrapped_operation": "func.func private @nanoTime() -> i64 attributes { llvm.emit_c_interface }\nfunc.func private @printI64(i64)\nfunc.func private @printMemrefF32(tensor<*xf32>)\n\n\nfunc.func @func_call(%input: tensor<128x1024xi32>, %filter: tensor<3x3xi32>, %output: tensor<126x1022xi32>) -> tensor<126x1022xi32> {\n  %ret = linalg.conv_2d ins(%input, %filter: tensor<128x1024xi32>, tensor<3x3xi32>) outs(%output: tensor<126x1022xi32>) -> tensor<126x1022xi32>\n  return %ret : tensor<126x1022xi32>\n}\n\nfunc.func @main() -> i64 {\n  %c3 = arith.constant 3 : index\n  %c126 = arith.constant 126 : index\n  %c128 = arith.constant 128 : index\n  %c1022 = arith.constant 1022 : index\n  %c1024 = arith.constant 1024 : index\n  %input_temp = bufferization.alloc_tensor(%c128, %c1024) : tensor<?x?xi32>\n  %input = tensor.cast %input_temp : tensor<?x?xi32> to tensor<128x1024xi32>\n  %filter_temp = bufferization.alloc_tensor(%c3, %c3) : tensor<?x?xi32>\n  %filter = tensor.cast %filter_temp : tensor<?x?xi32> to tensor<3x3xi32>\n  %output_temp = bufferization.alloc_tensor(%c126, %c1022) : tensor<?x?xi32>\n  %output = tensor.cast %output_temp : tensor<?x?xi32> to tensor<126x1022xi32>\n  %t0 = func.call @nanoTime() : () -> (i64)\n  %ret_arg = func.call @func_call(%input, %filter, %output) : (tensor<128x1024xi32>, tensor<3x3xi32>, tensor<126x1022xi32>) -> (tensor<126x1022xi32>)  %t1 = func.call @nanoTime() : () -> (i64)\n  %delta = arith.subi %t1, %t0 : i64\n  return %delta : i64\n}", "loops_data": {"nested_loops": [["%arg3", 0, 126, 1], ["%arg4", 0, 1022, 1], ["%arg5", 0, 3, 1], ["%arg6", 0, 3, 1]], "op_count": {"+": 0, "-": 0, "*": 0, "/": 0, "exp": 0}, "load_data": [["%arg3 + %arg5", "%arg4 + %arg6"], ["%arg5", "%arg6"], ["%arg3", "%arg4"]], "store_data": ["%arg3", "%arg4"]}}, "linalg.conv_2d ins(%input, %filter: tensor<128x256xi32>, tensor<3x3xi32>) outs(%output: tensor<126x254xi32>) -> tensor<126x254xi32>_4": {"operation": "linalg.conv_2d ins(%input, %filter: tensor<128x256xi32>, tensor<3x3xi32>) outs(%output: tensor<126x254xi32>) -> tensor<126x254xi32>", "wrapped_operation": "func.func @func_call(%input: tensor<128x256xi32>, %filter: tensor<3x3xi32>, %output: tensor<126x254xi32>) -> tensor<126x254xi32> {\n  %ret = linalg.conv_2d ins(%input, %filter: tensor<128x256xi32>, tensor<3x3xi32>) outs(%output: tensor<126x254xi32>) -> tensor<126x254xi32>\n  return %ret : tensor<126x254xi32>\n}", "lowered_operation": "#map = affine_map<(d0, d1) -> (d0 + d1)>\nmodule {\n  func.func @func_call(%arg0: tensor<128x256xi32>, %arg1: tensor<3x3xi32>, %arg2: tensor<126x254xi32>) -> tensor<126x254xi32> {\n    %0 = bufferization.to_memref %arg1 : memref<3x3xi32>\n    %1 = bufferization.to_memref %arg0 : memref<128x256xi32>\n    %2 = bufferization.to_memref %arg2 : memref<126x254xi32>\n    %alloc = memref.alloc() {alignment = 64 : i64} : memref<126x254xi32>\n    memref.copy %2, %alloc : memref<126x254xi32> to memref<126x254xi32>\n    affine.for %arg3 = 0 to 126 {\n      affine.for %arg4 = 0 to 254 {\n        affine.for %arg5 = 0 to 3 {\n          affine.for %arg6 = 0 to 3 {\n            %4 = affine.apply #map(%arg3, %arg5)\n            %5 = affine.apply #map(%arg4, %arg6)\n            %6 = affine.load %1[%4, %5] : memref<128x256xi32>\n            %7 = affine.load %0[%arg5, %arg6] : memref<3x3xi32>\n            %8 = affine.load %alloc[%arg3, %arg4] : memref<126x254xi32>\n            %9 = arith.muli %6, %7 : i32\n            %10 = arith.addi %8, %9 : i32\n            affine.store %10, %alloc[%arg3, %arg4] : memref<126x254xi32>\n          }\n        }\n      }\n    }\n    %3 = bufferization.to_tensor %alloc : memref<126x254xi32>\n    return %3 : tensor<126x254xi32>\n  }\n}\n\n", "transform_wrapped_operation": "func.func private @nanoTime() -> i64 attributes { llvm.emit_c_interface }\nfunc.func private @printI64(i64)\nfunc.func private @printMemrefF32(tensor<*xf32>)\n\n\nfunc.func @func_call(%input: tensor<128x256xi32>, %filter: tensor<3x3xi32>, %output: tensor<126x254xi32>) -> tensor<126x254xi32> {\n  %ret = linalg.conv_2d ins(%input, %filter: tensor<128x256xi32>, tensor<3x3xi32>) outs(%output: tensor<126x254xi32>) -> tensor<126x254xi32>\n  return %ret : tensor<126x254xi32>\n}\n\nfunc.func @main() -> i64 {\n  %c3 = arith.constant 3 : index\n  %c126 = arith.constant 126 : index\n  %c128 = arith.constant 128 : index\n  %c254 = arith.constant 254 : index\n  %c256 = arith.constant 256 : index\n  %input_temp = bufferization.alloc_tensor(%c128, %c256) : tensor<?x?xi32>\n  %input = tensor.cast %input_temp : tensor<?x?xi32> to tensor<128x256xi32>\n  %filter_temp = bufferization.alloc_tensor(%c3, %c3) : tensor<?x?xi32>\n  %filter = tensor.cast %filter_temp : tensor<?x?xi32> to tensor<3x3xi32>\n  %output_temp = bufferization.alloc_tensor(%c126, %c254) : tensor<?x?xi32>\n  %output = tensor.cast %output_temp : tensor<?x?xi32> to tensor<126x254xi32>\n  %t0 = func.call @nanoTime() : () -> (i64)\n  %ret_arg = func.call @func_call(%input, %filter, %output) : (tensor<128x256xi32>, tensor<3x3xi32>, tensor<126x254xi32>) -> (tensor<126x254xi32>)  %t1 = func.call @nanoTime() : () -> (i64)\n  %delta = arith.subi %t1, %t0 : i64\n  return %delta : i64\n}", "loops_data": {"nested_loops": [["%arg3", 0, 126, 1], ["%arg4", 0, 254, 1], ["%arg5", 0, 3, 1], ["%arg6", 0, 3, 1]], "op_count": {"+": 0, "-": 0, "*": 0, "/": 0, "exp": 0}, "load_data": [["%arg3 + %arg5", "%arg4 + %arg6"], ["%arg5", "%arg6"], ["%arg3", "%arg4"]], "store_data": ["%arg3", "%arg4"]}}, "linalg.conv_2d ins(%input, %filter: tensor<32x64xi32>, tensor<3x3xi32>) outs(%output: tensor<30x62xi32>) -> tensor<30x62xi32>_5": {"operation": "linalg.conv_2d ins(%input, %filter: tensor<32x64xi32>, tensor<3x3xi32>) outs(%output: tensor<30x62xi32>) -> tensor<30x62xi32>", "wrapped_operation": "func.func @func_call(%input: tensor<32x64xi32>, %filter: tensor<3x3xi32>, %output: tensor<30x62xi32>) -> tensor<30x62xi32> {\n  %ret = linalg.conv_2d ins(%input, %filter: tensor<32x64xi32>, tensor<3x3xi32>) outs(%output: tensor<30x62xi32>) -> tensor<30x62xi32>\n  return %ret : tensor<30x62xi32>\n}", "lowered_operation": "#map = affine_map<(d0, d1) -> (d0 + d1)>\nmodule {\n  func.func @func_call(%arg0: tensor<32x64xi32>, %arg1: tensor<3x3xi32>, %arg2: tensor<30x62xi32>) -> tensor<30x62xi32> {\n    %0 = bufferization.to_memref %arg1 : memref<3x3xi32>\n    %1 = bufferization.to_memref %arg0 : memref<32x64xi32>\n    %2 = bufferization.to_memref %arg2 : memref<30x62xi32>\n    %alloc = memref.alloc() {alignment = 64 : i64} : memref<30x62xi32>\n    memref.copy %2, %alloc : memref<30x62xi32> to memref<30x62xi32>\n    affine.for %arg3 = 0 to 30 {\n      affine.for %arg4 = 0 to 62 {\n        affine.for %arg5 = 0 to 3 {\n          affine.for %arg6 = 0 to 3 {\n            %4 = affine.apply #map(%arg3, %arg5)\n            %5 = affine.apply #map(%arg4, %arg6)\n            %6 = affine.load %1[%4, %5] : memref<32x64xi32>\n            %7 = affine.load %0[%arg5, %arg6] : memref<3x3xi32>\n            %8 = affine.load %alloc[%arg3, %arg4] : memref<30x62xi32>\n            %9 = arith.muli %6, %7 : i32\n            %10 = arith.addi %8, %9 : i32\n            affine.store %10, %alloc[%arg3, %arg4] : memref<30x62xi32>\n          }\n        }\n      }\n    }\n    %3 = bufferization.to_tensor %alloc : memref<30x62xi32>\n    return %3 : tensor<30x62xi32>\n  }\n}\n\n", "transform_wrapped_operation": "func.func private @nanoTime() -> i64 attributes { llvm.emit_c_interface }\nfunc.func private @printI64(i64)\nfunc.func private @printMemrefF32(tensor<*xf32>)\n\n\nfunc.func @func_call(%input: tensor<32x64xi32>, %filter: tensor<3x3xi32>, %output: tensor<30x62xi32>) -> tensor<30x62xi32> {\n  %ret = linalg.conv_2d ins(%input, %filter: tensor<32x64xi32>, tensor<3x3xi32>) outs(%output: tensor<30x62xi32>) -> tensor<30x62xi32>\n  return %ret : tensor<30x62xi32>\n}\n\nfunc.func @main() -> i64 {\n  %c3 = arith.constant 3 : index\n  %c30 = arith.constant 30 : index\n  %c32 = arith.constant 32 : index\n  %c62 = arith.constant 62 : index\n  %c64 = arith.constant 64 : index\n  %input_temp = bufferization.alloc_tensor(%c32, %c64) : tensor<?x?xi32>\n  %input = tensor.cast %input_temp : tensor<?x?xi32> to tensor<32x64xi32>\n  %filter_temp = bufferization.alloc_tensor(%c3, %c3) : tensor<?x?xi32>\n  %filter = tensor.cast %filter_temp : tensor<?x?xi32> to tensor<3x3xi32>\n  %output_temp = bufferization.alloc_tensor(%c30, %c62) : tensor<?x?xi32>\n  %output = tensor.cast %output_temp : tensor<?x?xi32> to tensor<30x62xi32>\n  %t0 = func.call @nanoTime() : () -> (i64)\n  %ret_arg = func.call @func_call(%input, %filter, %output) : (tensor<32x64xi32>, tensor<3x3xi32>, tensor<30x62xi32>) -> (tensor<30x62xi32>)  %t1 = func.call @nanoTime() : () -> (i64)\n  %delta = arith.subi %t1, %t0 : i64\n  return %delta : i64\n}", "loops_data": {"nested_loops": [["%arg3", 0, 30, 1], ["%arg4", 0, 62, 1], ["%arg5", 0, 3, 1], ["%arg6", 0, 3, 1]], "op_count": {"+": 0, "-": 0, "*": 0, "/": 0, "exp": 0}, "load_data": [["%arg3 + %arg5", "%arg4 + %arg6"], ["%arg5", "%arg6"], ["%arg3", "%arg4"]], "store_data": ["%arg3", "%arg4"]}}, "linalg.conv_2d ins(%input, %filter: tensor<64x512xi32>, tensor<5x5xi32>) outs(%output: tensor<60x508xi32>) -> tensor<60x508xi32>_6": {"operation": "linalg.conv_2d ins(%input, %filter: tensor<64x512xi32>, tensor<5x5xi32>) outs(%output: tensor<60x508xi32>) -> tensor<60x508xi32>", "wrapped_operation": "func.func @func_call(%input: tensor<64x512xi32>, %filter: tensor<5x5xi32>, %output: tensor<60x508xi32>) -> tensor<60x508xi32> {\n  %ret = linalg.conv_2d ins(%input, %filter: tensor<64x512xi32>, tensor<5x5xi32>) outs(%output: tensor<60x508xi32>) -> tensor<60x508xi32>\n  return %ret : tensor<60x508xi32>\n}", "lowered_operation": "#map = affine_map<(d0, d1) -> (d0 + d1)>\nmodule {\n  func.func @func_call(%arg0: tensor<64x512xi32>, %arg1: tensor<5x5xi32>, %arg2: tensor<60x508xi32>) -> tensor<60x508xi32> {\n    %0 = bufferization.to_memref %arg1 : memref<5x5xi32>\n    %1 = bufferization.to_memref %arg0 : memref<64x512xi32>\n    %2 = bufferization.to_memref %arg2 : memref<60x508xi32>\n    %alloc = memref.alloc() {alignment = 64 : i64} : memref<60x508xi32>\n    memref.copy %2, %alloc : memref<60x508xi32> to memref<60x508xi32>\n    affine.for %arg3 = 0 to 60 {\n      affine.for %arg4 = 0 to 508 {\n        affine.for %arg5 = 0 to 5 {\n          affine.for %arg6 = 0 to 5 {\n            %4 = affine.apply #map(%arg3, %arg5)\n            %5 = affine.apply #map(%arg4, %arg6)\n            %6 = affine.load %1[%4, %5] : memref<64x512xi32>\n            %7 = affine.load %0[%arg5, %arg6] : memref<5x5xi32>\n            %8 = affine.load %alloc[%arg3, %arg4] : memref<60x508xi32>\n            %9 = arith.muli %6, %7 : i32\n            %10 = arith.addi %8, %9 : i32\n            affine.store %10, %alloc[%arg3, %arg4] : memref<60x508xi32>\n          }\n        }\n      }\n    }\n    %3 = bufferization.to_tensor %alloc : memref<60x508xi32>\n    return %3 : tensor<60x508xi32>\n  }\n}\n\n", "transform_wrapped_operation": "func.func private @nanoTime() -> i64 attributes { llvm.emit_c_interface }\nfunc.func private @printI64(i64)\nfunc.func private @printMemrefF32(tensor<*xf32>)\n\n\nfunc.func @func_call(%input: tensor<64x512xi32>, %filter: tensor<5x5xi32>, %output: tensor<60x508xi32>) -> tensor<60x508xi32> {\n  %ret = linalg.conv_2d ins(%input, %filter: tensor<64x512xi32>, tensor<5x5xi32>) outs(%output: tensor<60x508xi32>) -> tensor<60x508xi32>\n  return %ret : tensor<60x508xi32>\n}\n\nfunc.func @main() -> i64 {\n  %c5 = arith.constant 5 : index\n  %c60 = arith.constant 60 : index\n  %c64 = arith.constant 64 : index\n  %c508 = arith.constant 508 : index\n  %c512 = arith.constant 512 : index\n  %input_temp = bufferization.alloc_tensor(%c64, %c512) : tensor<?x?xi32>\n  %input = tensor.cast %input_temp : tensor<?x?xi32> to tensor<64x512xi32>\n  %filter_temp = bufferization.alloc_tensor(%c5, %c5) : tensor<?x?xi32>\n  %filter = tensor.cast %filter_temp : tensor<?x?xi32> to tensor<5x5xi32>\n  %output_temp = bufferization.alloc_tensor(%c60, %c508) : tensor<?x?xi32>\n  %output = tensor.cast %output_temp : tensor<?x?xi32> to tensor<60x508xi32>\n  %t0 = func.call @nanoTime() : () -> (i64)\n  %ret_arg = func.call @func_call(%input, %filter, %output) : (tensor<64x512xi32>, tensor<5x5xi32>, tensor<60x508xi32>) -> (tensor<60x508xi32>)  %t1 = func.call @nanoTime() : () -> (i64)\n  %delta = arith.subi %t1, %t0 : i64\n  return %delta : i64\n}", "loops_data": {"nested_loops": [["%arg3", 0, 60, 1], ["%arg4", 0, 508, 1], ["%arg5", 0, 5, 1], ["%arg6", 0, 5, 1]], "op_count": {"+": 0, "-": 0, "*": 0, "/": 0, "exp": 0}, "load_data": [["%arg3 + %arg5", "%arg4 + %arg6"], ["%arg5", "%arg6"], ["%arg3", "%arg4"]], "store_data": ["%arg3", "%arg4"]}}, "linalg.conv_2d ins(%input, %filter: tensor<32x512xi32>, tensor<1x1xi32>) outs(%output: tensor<32x512xi32>) -> tensor<32x512xi32>_7": {"operation": "linalg.conv_2d ins(%input, %filter: tensor<32x512xi32>, tensor<1x1xi32>) outs(%output: tensor<32x512xi32>) -> tensor<32x512xi32>", "wrapped_operation": "func.func @func_call(%input: tensor<32x512xi32>, %filter: tensor<1x1xi32>, %output: tensor<32x512xi32>) -> tensor<32x512xi32> {\n  %ret = linalg.conv_2d ins(%input, %filter: tensor<32x512xi32>, tensor<1x1xi32>) outs(%output: tensor<32x512xi32>) -> tensor<32x512xi32>\n  return %ret : tensor<32x512xi32>\n}", "lowered_operation": "#map = affine_map<(d0, d1) -> (d0 + d1)>\nmodule {\n  func.func @func_call(%arg0: tensor<32x512xi32>, %arg1: tensor<1x1xi32>, %arg2: tensor<32x512xi32>) -> tensor<32x512xi32> {\n    %0 = bufferization.to_memref %arg1 : memref<1x1xi32>\n    %1 = bufferization.to_memref %arg0 : memref<32x512xi32>\n    %2 = bufferization.to_memref %arg2 : memref<32x512xi32>\n    %alloc = memref.alloc() {alignment = 64 : i64} : memref<32x512xi32>\n    memref.copy %2, %alloc : memref<32x512xi32> to memref<32x512xi32>\n    affine.for %arg3 = 0 to 32 {\n      affine.for %arg4 = 0 to 512 {\n        affine.for %arg5 = 0 to 1 {\n          affine.for %arg6 = 0 to 1 {\n            %4 = affine.apply #map(%arg3, %arg5)\n            %5 = affine.apply #map(%arg4, %arg6)\n            %6 = affine.load %1[%4, %5] : memref<32x512xi32>\n            %7 = affine.load %0[%arg5, %arg6] : memref<1x1xi32>\n            %8 = affine.load %alloc[%arg3, %arg4] : memref<32x512xi32>\n            %9 = arith.muli %6, %7 : i32\n            %10 = arith.addi %8, %9 : i32\n            affine.store %10, %alloc[%arg3, %arg4] : memref<32x512xi32>\n          }\n        }\n      }\n    }\n    %3 = bufferization.to_tensor %alloc : memref<32x512xi32>\n    return %3 : tensor<32x512xi32>\n  }\n}\n\n", "transform_wrapped_operation": "func.func private @nanoTime() -> i64 attributes { llvm.emit_c_interface }\nfunc.func private @printI64(i64)\nfunc.func private @printMemrefF32(tensor<*xf32>)\n\n\nfunc.func @func_call(%input: tensor<32x512xi32>, %filter: tensor<1x1xi32>, %output: tensor<32x512xi32>) -> tensor<32x512xi32> {\n  %ret = linalg.conv_2d ins(%input, %filter: tensor<32x512xi32>, tensor<1x1xi32>) outs(%output: tensor<32x512xi32>) -> tensor<32x512xi32>\n  return %ret : tensor<32x512xi32>\n}\n\nfunc.func @main() -> i64 {\n  %c1 = arith.constant 1 : index\n  %c32 = arith.constant 32 : index\n  %c512 = arith.constant 512 : index\n  %input_temp = bufferization.alloc_tensor(%c32, %c512) : tensor<?x?xi32>\n  %input = tensor.cast %input_temp : tensor<?x?xi32> to tensor<32x512xi32>\n  %filter_temp = bufferization.alloc_tensor(%c1, %c1) : tensor<?x?xi32>\n  %filter = tensor.cast %filter_temp : tensor<?x?xi32> to tensor<1x1xi32>\n  %output_temp = bufferization.alloc_tensor(%c32, %c512) : tensor<?x?xi32>\n  %output = tensor.cast %output_temp : tensor<?x?xi32> to tensor<32x512xi32>\n  %t0 = func.call @nanoTime() : () -> (i64)\n  %ret_arg = func.call @func_call(%input, %filter, %output) : (tensor<32x512xi32>, tensor<1x1xi32>, tensor<32x512xi32>) -> (tensor<32x512xi32>)  %t1 = func.call @nanoTime() : () -> (i64)\n  %delta = arith.subi %t1, %t0 : i64\n  return %delta : i64\n}", "loops_data": {"nested_loops": [["%arg3", 0, 32, 1], ["%arg4", 0, 512, 1], ["%arg5", 0, 1, 1], ["%arg6", 0, 1, 1]], "op_count": {"+": 0, "-": 0, "*": 0, "/": 0, "exp": 0}, "load_data": [["%arg3 + %arg5", "%arg4 + %arg6"], ["%arg5", "%arg6"], ["%arg3", "%arg4"]], "store_data": ["%arg3", "%arg4"]}}, "linalg.conv_2d ins(%input, %filter: tensor<64x32xi32>, tensor<7x7xi32>) outs(%output: tensor<58x26xi32>) -> tensor<58x26xi32>_8": {"operation": "linalg.conv_2d ins(%input, %filter: tensor<64x32xi32>, tensor<7x7xi32>) outs(%output: tensor<58x26xi32>) -> tensor<58x26xi32>", "wrapped_operation": "func.func @func_call(%input: tensor<64x32xi32>, %filter: tensor<7x7xi32>, %output: tensor<58x26xi32>) -> tensor<58x26xi32> {\n  %ret = linalg.conv_2d ins(%input, %filter: tensor<64x32xi32>, tensor<7x7xi32>) outs(%output: tensor<58x26xi32>) -> tensor<58x26xi32>\n  return %ret : tensor<58x26xi32>\n}", "lowered_operation": "#map = affine_map<(d0, d1) -> (d0 + d1)>\nmodule {\n  func.func @func_call(%arg0: tensor<64x32xi32>, %arg1: tensor<7x7xi32>, %arg2: tensor<58x26xi32>) -> tensor<58x26xi32> {\n    %0 = bufferization.to_memref %arg1 : memref<7x7xi32>\n    %1 = bufferization.to_memref %arg0 : memref<64x32xi32>\n    %2 = bufferization.to_memref %arg2 : memref<58x26xi32>\n    %alloc = memref.alloc() {alignment = 64 : i64} : memref<58x26xi32>\n    memref.copy %2, %alloc : memref<58x26xi32> to memref<58x26xi32>\n    affine.for %arg3 = 0 to 58 {\n      affine.for %arg4 = 0 to 26 {\n        affine.for %arg5 = 0 to 7 {\n          affine.for %arg6 = 0 to 7 {\n            %4 = affine.apply #map(%arg3, %arg5)\n            %5 = affine.apply #map(%arg4, %arg6)\n            %6 = affine.load %1[%4, %5] : memref<64x32xi32>\n            %7 = affine.load %0[%arg5, %arg6] : memref<7x7xi32>\n            %8 = affine.load %alloc[%arg3, %arg4] : memref<58x26xi32>\n            %9 = arith.muli %6, %7 : i32\n            %10 = arith.addi %8, %9 : i32\n            affine.store %10, %alloc[%arg3, %arg4] : memref<58x26xi32>\n          }\n        }\n      }\n    }\n    %3 = bufferization.to_tensor %alloc : memref<58x26xi32>\n    return %3 : tensor<58x26xi32>\n  }\n}\n\n", "transform_wrapped_operation": "func.func private @nanoTime() -> i64 attributes { llvm.emit_c_interface }\nfunc.func private @printI64(i64)\nfunc.func private @printMemrefF32(tensor<*xf32>)\n\n\nfunc.func @func_call(%input: tensor<64x32xi32>, %filter: tensor<7x7xi32>, %output: tensor<58x26xi32>) -> tensor<58x26xi32> {\n  %ret = linalg.conv_2d ins(%input, %filter: tensor<64x32xi32>, tensor<7x7xi32>) outs(%output: tensor<58x26xi32>) -> tensor<58x26xi32>\n  return %ret : tensor<58x26xi32>\n}\n\nfunc.func @main() -> i64 {\n  %c7 = arith.constant 7 : index\n  %c26 = arith.constant 26 : index\n  %c32 = arith.constant 32 : index\n  %c58 = arith.constant 58 : index\n  %c64 = arith.constant 64 : index\n  %input_temp = bufferization.alloc_tensor(%c64, %c32) : tensor<?x?xi32>\n  %input = tensor.cast %input_temp : tensor<?x?xi32> to tensor<64x32xi32>\n  %filter_temp = bufferization.alloc_tensor(%c7, %c7) : tensor<?x?xi32>\n  %filter = tensor.cast %filter_temp : tensor<?x?xi32> to tensor<7x7xi32>\n  %output_temp = bufferization.alloc_tensor(%c58, %c26) : tensor<?x?xi32>\n  %output = tensor.cast %output_temp : tensor<?x?xi32> to tensor<58x26xi32>\n  %t0 = func.call @nanoTime() : () -> (i64)\n  %ret_arg = func.call @func_call(%input, %filter, %output) : (tensor<64x32xi32>, tensor<7x7xi32>, tensor<58x26xi32>) -> (tensor<58x26xi32>)  %t1 = func.call @nanoTime() : () -> (i64)\n  %delta = arith.subi %t1, %t0 : i64\n  return %delta : i64\n}", "loops_data": {"nested_loops": [["%arg3", 0, 58, 1], ["%arg4", 0, 26, 1], ["%arg5", 0, 7, 1], ["%arg6", 0, 7, 1]], "op_count": {"+": 0, "-": 0, "*": 0, "/": 0, "exp": 0}, "load_data": [["%arg3 + %arg5", "%arg4 + %arg6"], ["%arg5", "%arg6"], ["%arg3", "%arg4"]], "store_data": ["%arg3", "%arg4"]}}, "linalg.conv_2d ins(%input, %filter: tensor<128x512xi32>, tensor<1x1xi32>) outs(%output: tensor<128x512xi32>) -> tensor<128x512xi32>_9": {"operation": "linalg.conv_2d ins(%input, %filter: tensor<128x512xi32>, tensor<1x1xi32>) outs(%output: tensor<128x512xi32>) -> tensor<128x512xi32>", "wrapped_operation": "func.func @func_call(%input: tensor<128x512xi32>, %filter: tensor<1x1xi32>, %output: tensor<128x512xi32>) -> tensor<128x512xi32> {\n  %ret = linalg.conv_2d ins(%input, %filter: tensor<128x512xi32>, tensor<1x1xi32>) outs(%output: tensor<128x512xi32>) -> tensor<128x512xi32>\n  return %ret : tensor<128x512xi32>\n}", "lowered_operation": "#map = affine_map<(d0, d1) -> (d0 + d1)>\nmodule {\n  func.func @func_call(%arg0: tensor<128x512xi32>, %arg1: tensor<1x1xi32>, %arg2: tensor<128x512xi32>) -> tensor<128x512xi32> {\n    %0 = bufferization.to_memref %arg1 : memref<1x1xi32>\n    %1 = bufferization.to_memref %arg0 : memref<128x512xi32>\n    %2 = bufferization.to_memref %arg2 : memref<128x512xi32>\n    %alloc = memref.alloc() {alignment = 64 : i64} : memref<128x512xi32>\n    memref.copy %2, %alloc : memref<128x512xi32> to memref<128x512xi32>\n    affine.for %arg3 = 0 to 128 {\n      affine.for %arg4 = 0 to 512 {\n        affine.for %arg5 = 0 to 1 {\n          affine.for %arg6 = 0 to 1 {\n            %4 = affine.apply #map(%arg3, %arg5)\n            %5 = affine.apply #map(%arg4, %arg6)\n            %6 = affine.load %1[%4, %5] : memref<128x512xi32>\n            %7 = affine.load %0[%arg5, %arg6] : memref<1x1xi32>\n            %8 = affine.load %alloc[%arg3, %arg4] : memref<128x512xi32>\n            %9 = arith.muli %6, %7 : i32\n            %10 = arith.addi %8, %9 : i32\n            affine.store %10, %alloc[%arg3, %arg4] : memref<128x512xi32>\n          }\n        }\n      }\n    }\n    %3 = bufferization.to_tensor %alloc : memref<128x512xi32>\n    return %3 : tensor<128x512xi32>\n  }\n}\n\n", "transform_wrapped_operation": "func.func private @nanoTime() -> i64 attributes { llvm.emit_c_interface }\nfunc.func private @printI64(i64)\nfunc.func private @printMemrefF32(tensor<*xf32>)\n\n\nfunc.func @func_call(%input: tensor<128x512xi32>, %filter: tensor<1x1xi32>, %output: tensor<128x512xi32>) -> tensor<128x512xi32> {\n  %ret = linalg.conv_2d ins(%input, %filter: tensor<128x512xi32>, tensor<1x1xi32>) outs(%output: tensor<128x512xi32>) -> tensor<128x512xi32>\n  return %ret : tensor<128x512xi32>\n}\n\nfunc.func @main() -> i64 {\n  %c1 = arith.constant 1 : index\n  %c128 = arith.constant 128 : index\n  %c512 = arith.constant 512 : index\n  %input_temp = bufferization.alloc_tensor(%c128, %c512) : tensor<?x?xi32>\n  %input = tensor.cast %input_temp : tensor<?x?xi32> to tensor<128x512xi32>\n  %filter_temp = bufferization.alloc_tensor(%c1, %c1) : tensor<?x?xi32>\n  %filter = tensor.cast %filter_temp : tensor<?x?xi32> to tensor<1x1xi32>\n  %output_temp = bufferization.alloc_tensor(%c128, %c512) : tensor<?x?xi32>\n  %output = tensor.cast %output_temp : tensor<?x?xi32> to tensor<128x512xi32>\n  %t0 = func.call @nanoTime() : () -> (i64)\n  %ret_arg = func.call @func_call(%input, %filter, %output) : (tensor<128x512xi32>, tensor<1x1xi32>, tensor<128x512xi32>) -> (tensor<128x512xi32>)  %t1 = func.call @nanoTime() : () -> (i64)\n  %delta = arith.subi %t1, %t0 : i64\n  return %delta : i64\n}", "loops_data": {"nested_loops": [["%arg3", 0, 128, 1], ["%arg4", 0, 512, 1], ["%arg5", 0, 1, 1], ["%arg6", 0, 1, 1]], "op_count": {"+": 0, "-": 0, "*": 0, "/": 0, "exp": 0}, "load_data": [["%arg3 + %arg5", "%arg4 + %arg6"], ["%arg5", "%arg6"], ["%arg3", "%arg4"]], "store_data": ["%arg3", "%arg4"]}}, "linalg.conv_2d ins(%input, %filter: tensor<128x128xi32>, tensor<1x1xi32>) outs(%output: tensor<128x128xi32>) -> tensor<128x128xi32>_10": {"operation": "linalg.conv_2d ins(%input, %filter: tensor<128x128xi32>, tensor<1x1xi32>) outs(%output: tensor<128x128xi32>) -> tensor<128x128xi32>", "wrapped_operation": "func.func @func_call(%input: tensor<128x128xi32>, %filter: tensor<1x1xi32>, %output: tensor<128x128xi32>) -> tensor<128x128xi32> {\n  %ret = linalg.conv_2d ins(%input, %filter: tensor<128x128xi32>, tensor<1x1xi32>) outs(%output: tensor<128x128xi32>) -> tensor<128x128xi32>\n  return %ret : tensor<128x128xi32>\n}", "lowered_operation": "#map = affine_map<(d0, d1) -> (d0 + d1)>\nmodule {\n  func.func @func_call(%arg0: tensor<128x128xi32>, %arg1: tensor<1x1xi32>, %arg2: tensor<128x128xi32>) -> tensor<128x128xi32> {\n    %0 = bufferization.to_memref %arg1 : memref<1x1xi32>\n    %1 = bufferization.to_memref %arg0 : memref<128x128xi32>\n    %2 = bufferization.to_memref %arg2 : memref<128x128xi32>\n    %alloc = memref.alloc() {alignment = 64 : i64} : memref<128x128xi32>\n    memref.copy %2, %alloc : memref<128x128xi32> to memref<128x128xi32>\n    affine.for %arg3 = 0 to 128 {\n      affine.for %arg4 = 0 to 128 {\n        affine.for %arg5 = 0 to 1 {\n          affine.for %arg6 = 0 to 1 {\n            %4 = affine.apply #map(%arg3, %arg5)\n            %5 = affine.apply #map(%arg4, %arg6)\n            %6 = affine.load %1[%4, %5] : memref<128x128xi32>\n            %7 = affine.load %0[%arg5, %arg6] : memref<1x1xi32>\n            %8 = affine.load %alloc[%arg3, %arg4] : memref<128x128xi32>\n            %9 = arith.muli %6, %7 : i32\n            %10 = arith.addi %8, %9 : i32\n            affine.store %10, %alloc[%arg3, %arg4] : memref<128x128xi32>\n          }\n        }\n      }\n    }\n    %3 = bufferization.to_tensor %alloc : memref<128x128xi32>\n    return %3 : tensor<128x128xi32>\n  }\n}\n\n", "transform_wrapped_operation": "func.func private @nanoTime() -> i64 attributes { llvm.emit_c_interface }\nfunc.func private @printI64(i64)\nfunc.func private @printMemrefF32(tensor<*xf32>)\n\n\nfunc.func @func_call(%input: tensor<128x128xi32>, %filter: tensor<1x1xi32>, %output: tensor<128x128xi32>) -> tensor<128x128xi32> {\n  %ret = linalg.conv_2d ins(%input, %filter: tensor<128x128xi32>, tensor<1x1xi32>) outs(%output: tensor<128x128xi32>) -> tensor<128x128xi32>\n  return %ret : tensor<128x128xi32>\n}\n\nfunc.func @main() -> i64 {\n  %c1 = arith.constant 1 : index\n  %c128 = arith.constant 128 : index\n  %input_temp = bufferization.alloc_tensor(%c128, %c128) : tensor<?x?xi32>\n  %input = tensor.cast %input_temp : tensor<?x?xi32> to tensor<128x128xi32>\n  %filter_temp = bufferization.alloc_tensor(%c1, %c1) : tensor<?x?xi32>\n  %filter = tensor.cast %filter_temp : tensor<?x?xi32> to tensor<1x1xi32>\n  %output_temp = bufferization.alloc_tensor(%c128, %c128) : tensor<?x?xi32>\n  %output = tensor.cast %output_temp : tensor<?x?xi32> to tensor<128x128xi32>\n  %t0 = func.call @nanoTime() : () -> (i64)\n  %ret_arg = func.call @func_call(%input, %filter, %output) : (tensor<128x128xi32>, tensor<1x1xi32>, tensor<128x128xi32>) -> (tensor<128x128xi32>)  %t1 = func.call @nanoTime() : () -> (i64)\n  %delta = arith.subi %t1, %t0 : i64\n  return %delta : i64\n}", "loops_data": {"nested_loops": [["%arg3", 0, 128, 1], ["%arg4", 0, 128, 1], ["%arg5", 0, 1, 1], ["%arg6", 0, 1, 1]], "op_count": {"+": 0, "-": 0, "*": 0, "/": 0, "exp": 0}, "load_data": [["%arg3 + %arg5", "%arg4 + %arg6"], ["%arg5", "%arg6"], ["%arg3", "%arg4"]], "store_data": ["%arg3", "%arg4"]}}, "linalg.conv_2d ins(%input, %filter: tensor<1024x32xi32>, tensor<7x7xi32>) outs(%output: tensor<1018x26xi32>) -> tensor<1018x26xi32>_11": {"operation": "linalg.conv_2d ins(%input, %filter: tensor<1024x32xi32>, tensor<7x7xi32>) outs(%output: tensor<1018x26xi32>) -> tensor<1018x26xi32>", "wrapped_operation": "func.func @func_call(%input: tensor<1024x32xi32>, %filter: tensor<7x7xi32>, %output: tensor<1018x26xi32>) -> tensor<1018x26xi32> {\n  %ret = linalg.conv_2d ins(%input, %filter: tensor<1024x32xi32>, tensor<7x7xi32>) outs(%output: tensor<1018x26xi32>) -> tensor<1018x26xi32>\n  return %ret : tensor<1018x26xi32>\n}", "lowered_operation": "#map = affine_map<(d0, d1) -> (d0 + d1)>\nmodule {\n  func.func @func_call(%arg0: tensor<1024x32xi32>, %arg1: tensor<7x7xi32>, %arg2: tensor<1018x26xi32>) -> tensor<1018x26xi32> {\n    %0 = bufferization.to_memref %arg1 : memref<7x7xi32>\n    %1 = bufferization.to_memref %arg0 : memref<1024x32xi32>\n    %2 = bufferization.to_memref %arg2 : memref<1018x26xi32>\n    %alloc = memref.alloc() {alignment = 64 : i64} : memref<1018x26xi32>\n    memref.copy %2, %alloc : memref<1018x26xi32> to memref<1018x26xi32>\n    affine.for %arg3 = 0 to 1018 {\n      affine.for %arg4 = 0 to 26 {\n        affine.for %arg5 = 0 to 7 {\n          affine.for %arg6 = 0 to 7 {\n            %4 = affine.apply #map(%arg3, %arg5)\n            %5 = affine.apply #map(%arg4, %arg6)\n            %6 = affine.load %1[%4, %5] : memref<1024x32xi32>\n            %7 = affine.load %0[%arg5, %arg6] : memref<7x7xi32>\n            %8 = affine.load %alloc[%arg3, %arg4] : memref<1018x26xi32>\n            %9 = arith.muli %6, %7 : i32\n            %10 = arith.addi %8, %9 : i32\n            affine.store %10, %alloc[%arg3, %arg4] : memref<1018x26xi32>\n          }\n        }\n      }\n    }\n    %3 = bufferization.to_tensor %alloc : memref<1018x26xi32>\n    return %3 : tensor<1018x26xi32>\n  }\n}\n\n", "transform_wrapped_operation": "func.func private @nanoTime() -> i64 attributes { llvm.emit_c_interface }\nfunc.func private @printI64(i64)\nfunc.func private @printMemrefF32(tensor<*xf32>)\n\n\nfunc.func @func_call(%input: tensor<1024x32xi32>, %filter: tensor<7x7xi32>, %output: tensor<1018x26xi32>) -> tensor<1018x26xi32> {\n  %ret = linalg.conv_2d ins(%input, %filter: tensor<1024x32xi32>, tensor<7x7xi32>) outs(%output: tensor<1018x26xi32>) -> tensor<1018x26xi32>\n  return %ret : tensor<1018x26xi32>\n}\n\nfunc.func @main() -> i64 {\n  %c7 = arith.constant 7 : index\n  %c26 = arith.constant 26 : index\n  %c32 = arith.constant 32 : index\n  %c1018 = arith.constant 1018 : index\n  %c1024 = arith.constant 1024 : index\n  %input_temp = bufferization.alloc_tensor(%c1024, %c32) : tensor<?x?xi32>\n  %input = tensor.cast %input_temp : tensor<?x?xi32> to tensor<1024x32xi32>\n  %filter_temp = bufferization.alloc_tensor(%c7, %c7) : tensor<?x?xi32>\n  %filter = tensor.cast %filter_temp : tensor<?x?xi32> to tensor<7x7xi32>\n  %output_temp = bufferization.alloc_tensor(%c1018, %c26) : tensor<?x?xi32>\n  %output = tensor.cast %output_temp : tensor<?x?xi32> to tensor<1018x26xi32>\n  %t0 = func.call @nanoTime() : () -> (i64)\n  %ret_arg = func.call @func_call(%input, %filter, %output) : (tensor<1024x32xi32>, tensor<7x7xi32>, tensor<1018x26xi32>) -> (tensor<1018x26xi32>)  %t1 = func.call @nanoTime() : () -> (i64)\n  %delta = arith.subi %t1, %t0 : i64\n  return %delta : i64\n}", "loops_data": {"nested_loops": [["%arg3", 0, 1018, 1], ["%arg4", 0, 26, 1], ["%arg5", 0, 7, 1], ["%arg6", 0, 7, 1]], "op_count": {"+": 0, "-": 0, "*": 0, "/": 0, "exp": 0}, "load_data": [["%arg3 + %arg5", "%arg4 + %arg6"], ["%arg5", "%arg6"], ["%arg3", "%arg4"]], "store_data": ["%arg3", "%arg4"]}}, "linalg.conv_2d ins(%input, %filter: tensor<256x1024xi32>, tensor<1x1xi32>) outs(%output: tensor<256x1024xi32>) -> tensor<256x1024xi32>_12": {"operation": "linalg.conv_2d ins(%input, %filter: tensor<256x1024xi32>, tensor<1x1xi32>) outs(%output: tensor<256x1024xi32>) -> tensor<256x1024xi32>", "wrapped_operation": "func.func @func_call(%input: tensor<256x1024xi32>, %filter: tensor<1x1xi32>, %output: tensor<256x1024xi32>) -> tensor<256x1024xi32> {\n  %ret = linalg.conv_2d ins(%input, %filter: tensor<256x1024xi32>, tensor<1x1xi32>) outs(%output: tensor<256x1024xi32>) -> tensor<256x1024xi32>\n  return %ret : tensor<256x1024xi32>\n}", "lowered_operation": "#map = affine_map<(d0, d1) -> (d0 + d1)>\nmodule {\n  func.func @func_call(%arg0: tensor<256x1024xi32>, %arg1: tensor<1x1xi32>, %arg2: tensor<256x1024xi32>) -> tensor<256x1024xi32> {\n    %0 = bufferization.to_memref %arg1 : memref<1x1xi32>\n    %1 = bufferization.to_memref %arg0 : memref<256x1024xi32>\n    %2 = bufferization.to_memref %arg2 : memref<256x1024xi32>\n    %alloc = memref.alloc() {alignment = 64 : i64} : memref<256x1024xi32>\n    memref.copy %2, %alloc : memref<256x1024xi32> to memref<256x1024xi32>\n    affine.for %arg3 = 0 to 256 {\n      affine.for %arg4 = 0 to 1024 {\n        affine.for %arg5 = 0 to 1 {\n          affine.for %arg6 = 0 to 1 {\n            %4 = affine.apply #map(%arg3, %arg5)\n            %5 = affine.apply #map(%arg4, %arg6)\n            %6 = affine.load %1[%4, %5] : memref<256x1024xi32>\n            %7 = affine.load %0[%arg5, %arg6] : memref<1x1xi32>\n            %8 = affine.load %alloc[%arg3, %arg4] : memref<256x1024xi32>\n            %9 = arith.muli %6, %7 : i32\n            %10 = arith.addi %8, %9 : i32\n            affine.store %10, %alloc[%arg3, %arg4] : memref<256x1024xi32>\n          }\n        }\n      }\n    }\n    %3 = bufferization.to_tensor %alloc : memref<256x1024xi32>\n    return %3 : tensor<256x1024xi32>\n  }\n}\n\n", "transform_wrapped_operation": "func.func private @nanoTime() -> i64 attributes { llvm.emit_c_interface }\nfunc.func private @printI64(i64)\nfunc.func private @printMemrefF32(tensor<*xf32>)\n\n\nfunc.func @func_call(%input: tensor<256x1024xi32>, %filter: tensor<1x1xi32>, %output: tensor<256x1024xi32>) -> tensor<256x1024xi32> {\n  %ret = linalg.conv_2d ins(%input, %filter: tensor<256x1024xi32>, tensor<1x1xi32>) outs(%output: tensor<256x1024xi32>) -> tensor<256x1024xi32>\n  return %ret : tensor<256x1024xi32>\n}\n\nfunc.func @main() -> i64 {\n  %c1 = arith.constant 1 : index\n  %c256 = arith.constant 256 : index\n  %c1024 = arith.constant 1024 : index\n  %input_temp = bufferization.alloc_tensor(%c256, %c1024) : tensor<?x?xi32>\n  %input = tensor.cast %input_temp : tensor<?x?xi32> to tensor<256x1024xi32>\n  %filter_temp = bufferization.alloc_tensor(%c1, %c1) : tensor<?x?xi32>\n  %filter = tensor.cast %filter_temp : tensor<?x?xi32> to tensor<1x1xi32>\n  %output_temp = bufferization.alloc_tensor(%c256, %c1024) : tensor<?x?xi32>\n  %output = tensor.cast %output_temp : tensor<?x?xi32> to tensor<256x1024xi32>\n  %t0 = func.call @nanoTime() : () -> (i64)\n  %ret_arg = func.call @func_call(%input, %filter, %output) : (tensor<256x1024xi32>, tensor<1x1xi32>, tensor<256x1024xi32>) -> (tensor<256x1024xi32>)  %t1 = func.call @nanoTime() : () -> (i64)\n  %delta = arith.subi %t1, %t0 : i64\n  return %delta : i64\n}", "loops_data": {"nested_loops": [["%arg3", 0, 256, 1], ["%arg4", 0, 1024, 1], ["%arg5", 0, 1, 1], ["%arg6", 0, 1, 1]], "op_count": {"+": 0, "-": 0, "*": 0, "/": 0, "exp": 0}, "load_data": [["%arg3 + %arg5", "%arg4 + %arg6"], ["%arg5", "%arg6"], ["%arg3", "%arg4"]], "store_data": ["%arg3", "%arg4"]}}, "linalg.conv_2d ins(%input, %filter: tensor<256x64xi32>, tensor<3x3xi32>) outs(%output: tensor<254x62xi32>) -> tensor<254x62xi32>_13": {"operation": "linalg.conv_2d ins(%input, %filter: tensor<256x64xi32>, tensor<3x3xi32>) outs(%output: tensor<254x62xi32>) -> tensor<254x62xi32>", "wrapped_operation": "func.func @func_call(%input: tensor<256x64xi32>, %filter: tensor<3x3xi32>, %output: tensor<254x62xi32>) -> tensor<254x62xi32> {\n  %ret = linalg.conv_2d ins(%input, %filter: tensor<256x64xi32>, tensor<3x3xi32>) outs(%output: tensor<254x62xi32>) -> tensor<254x62xi32>\n  return %ret : tensor<254x62xi32>\n}", "lowered_operation": "#map = affine_map<(d0, d1) -> (d0 + d1)>\nmodule {\n  func.func @func_call(%arg0: tensor<256x64xi32>, %arg1: tensor<3x3xi32>, %arg2: tensor<254x62xi32>) -> tensor<254x62xi32> {\n    %0 = bufferization.to_memref %arg1 : memref<3x3xi32>\n    %1 = bufferization.to_memref %arg0 : memref<256x64xi32>\n    %2 = bufferization.to_memref %arg2 : memref<254x62xi32>\n    %alloc = memref.alloc() {alignment = 64 : i64} : memref<254x62xi32>\n    memref.copy %2, %alloc : memref<254x62xi32> to memref<254x62xi32>\n    affine.for %arg3 = 0 to 254 {\n      affine.for %arg4 = 0 to 62 {\n        affine.for %arg5 = 0 to 3 {\n          affine.for %arg6 = 0 to 3 {\n            %4 = affine.apply #map(%arg3, %arg5)\n            %5 = affine.apply #map(%arg4, %arg6)\n            %6 = affine.load %1[%4, %5] : memref<256x64xi32>\n            %7 = affine.load %0[%arg5, %arg6] : memref<3x3xi32>\n            %8 = affine.load %alloc[%arg3, %arg4] : memref<254x62xi32>\n            %9 = arith.muli %6, %7 : i32\n            %10 = arith.addi %8, %9 : i32\n            affine.store %10, %alloc[%arg3, %arg4] : memref<254x62xi32>\n          }\n        }\n      }\n    }\n    %3 = bufferization.to_tensor %alloc : memref<254x62xi32>\n    return %3 : tensor<254x62xi32>\n  }\n}\n\n", "transform_wrapped_operation": "func.func private @nanoTime() -> i64 attributes { llvm.emit_c_interface }\nfunc.func private @printI64(i64)\nfunc.func private @printMemrefF32(tensor<*xf32>)\n\n\nfunc.func @func_call(%input: tensor<256x64xi32>, %filter: tensor<3x3xi32>, %output: tensor<254x62xi32>) -> tensor<254x62xi32> {\n  %ret = linalg.conv_2d ins(%input, %filter: tensor<256x64xi32>, tensor<3x3xi32>) outs(%output: tensor<254x62xi32>) -> tensor<254x62xi32>\n  return %ret : tensor<254x62xi32>\n}\n\nfunc.func @main() -> i64 {\n  %c3 = arith.constant 3 : index\n  %c62 = arith.constant 62 : index\n  %c64 = arith.constant 64 : index\n  %c254 = arith.constant 254 : index\n  %c256 = arith.constant 256 : index\n  %input_temp = bufferization.alloc_tensor(%c256, %c64) : tensor<?x?xi32>\n  %input = tensor.cast %input_temp : tensor<?x?xi32> to tensor<256x64xi32>\n  %filter_temp = bufferization.alloc_tensor(%c3, %c3) : tensor<?x?xi32>\n  %filter = tensor.cast %filter_temp : tensor<?x?xi32> to tensor<3x3xi32>\n  %output_temp = bufferization.alloc_tensor(%c254, %c62) : tensor<?x?xi32>\n  %output = tensor.cast %output_temp : tensor<?x?xi32> to tensor<254x62xi32>\n  %t0 = func.call @nanoTime() : () -> (i64)\n  %ret_arg = func.call @func_call(%input, %filter, %output) : (tensor<256x64xi32>, tensor<3x3xi32>, tensor<254x62xi32>) -> (tensor<254x62xi32>)  %t1 = func.call @nanoTime() : () -> (i64)\n  %delta = arith.subi %t1, %t0 : i64\n  return %delta : i64\n}", "loops_data": {"nested_loops": [["%arg3", 0, 254, 1], ["%arg4", 0, 62, 1], ["%arg5", 0, 3, 1], ["%arg6", 0, 3, 1]], "op_count": {"+": 0, "-": 0, "*": 0, "/": 0, "exp": 0}, "load_data": [["%arg3 + %arg5", "%arg4 + %arg6"], ["%arg5", "%arg6"], ["%arg3", "%arg4"]], "store_data": ["%arg3", "%arg4"]}}, "linalg.conv_2d ins(%input, %filter: tensor<512x64xi32>, tensor<3x3xi32>) outs(%output: tensor<510x62xi32>) -> tensor<510x62xi32>_14": {"operation": "linalg.conv_2d ins(%input, %filter: tensor<512x64xi32>, tensor<3x3xi32>) outs(%output: tensor<510x62xi32>) -> tensor<510x62xi32>", "wrapped_operation": "func.func @func_call(%input: tensor<512x64xi32>, %filter: tensor<3x3xi32>, %output: tensor<510x62xi32>) -> tensor<510x62xi32> {\n  %ret = linalg.conv_2d ins(%input, %filter: tensor<512x64xi32>, tensor<3x3xi32>) outs(%output: tensor<510x62xi32>) -> tensor<510x62xi32>\n  return %ret : tensor<510x62xi32>\n}", "lowered_operation": "#map = affine_map<(d0, d1) -> (d0 + d1)>\nmodule {\n  func.func @func_call(%arg0: tensor<512x64xi32>, %arg1: tensor<3x3xi32>, %arg2: tensor<510x62xi32>) -> tensor<510x62xi32> {\n    %0 = bufferization.to_memref %arg1 : memref<3x3xi32>\n    %1 = bufferization.to_memref %arg0 : memref<512x64xi32>\n    %2 = bufferization.to_memref %arg2 : memref<510x62xi32>\n    %alloc = memref.alloc() {alignment = 64 : i64} : memref<510x62xi32>\n    memref.copy %2, %alloc : memref<510x62xi32> to memref<510x62xi32>\n    affine.for %arg3 = 0 to 510 {\n      affine.for %arg4 = 0 to 62 {\n        affine.for %arg5 = 0 to 3 {\n          affine.for %arg6 = 0 to 3 {\n            %4 = affine.apply #map(%arg3, %arg5)\n            %5 = affine.apply #map(%arg4, %arg6)\n            %6 = affine.load %1[%4, %5] : memref<512x64xi32>\n            %7 = affine.load %0[%arg5, %arg6] : memref<3x3xi32>\n            %8 = affine.load %alloc[%arg3, %arg4] : memref<510x62xi32>\n            %9 = arith.muli %6, %7 : i32\n            %10 = arith.addi %8, %9 : i32\n            affine.store %10, %alloc[%arg3, %arg4] : memref<510x62xi32>\n          }\n        }\n      }\n    }\n    %3 = bufferization.to_tensor %alloc : memref<510x62xi32>\n    return %3 : tensor<510x62xi32>\n  }\n}\n\n", "transform_wrapped_operation": "func.func private @nanoTime() -> i64 attributes { llvm.emit_c_interface }\nfunc.func private @printI64(i64)\nfunc.func private @printMemrefF32(tensor<*xf32>)\n\n\nfunc.func @func_call(%input: tensor<512x64xi32>, %filter: tensor<3x3xi32>, %output: tensor<510x62xi32>) -> tensor<510x62xi32> {\n  %ret = linalg.conv_2d ins(%input, %filter: tensor<512x64xi32>, tensor<3x3xi32>) outs(%output: tensor<510x62xi32>) -> tensor<510x62xi32>\n  return %ret : tensor<510x62xi32>\n}\n\nfunc.func @main() -> i64 {\n  %c3 = arith.constant 3 : index\n  %c62 = arith.constant 62 : index\n  %c64 = arith.constant 64 : index\n  %c510 = arith.constant 510 : index\n  %c512 = arith.constant 512 : index\n  %input_temp = bufferization.alloc_tensor(%c512, %c64) : tensor<?x?xi32>\n  %input = tensor.cast %input_temp : tensor<?x?xi32> to tensor<512x64xi32>\n  %filter_temp = bufferization.alloc_tensor(%c3, %c3) : tensor<?x?xi32>\n  %filter = tensor.cast %filter_temp : tensor<?x?xi32> to tensor<3x3xi32>\n  %output_temp = bufferization.alloc_tensor(%c510, %c62) : tensor<?x?xi32>\n  %output = tensor.cast %output_temp : tensor<?x?xi32> to tensor<510x62xi32>\n  %t0 = func.call @nanoTime() : () -> (i64)\n  %ret_arg = func.call @func_call(%input, %filter, %output) : (tensor<512x64xi32>, tensor<3x3xi32>, tensor<510x62xi32>) -> (tensor<510x62xi32>)  %t1 = func.call @nanoTime() : () -> (i64)\n  %delta = arith.subi %t1, %t0 : i64\n  return %delta : i64\n}", "loops_data": {"nested_loops": [["%arg3", 0, 510, 1], ["%arg4", 0, 62, 1], ["%arg5", 0, 3, 1], ["%arg6", 0, 3, 1]], "op_count": {"+": 0, "-": 0, "*": 0, "/": 0, "exp": 0}, "load_data": [["%arg3 + %arg5", "%arg4 + %arg6"], ["%arg5", "%arg6"], ["%arg3", "%arg4"]], "store_data": ["%arg3", "%arg4"]}}, "linalg.conv_2d ins(%input, %filter: tensor<32x64xi32>, tensor<1x1xi32>) outs(%output: tensor<32x64xi32>) -> tensor<32x64xi32>_15": {"operation": "linalg.conv_2d ins(%input, %filter: tensor<32x64xi32>, tensor<1x1xi32>) outs(%output: tensor<32x64xi32>) -> tensor<32x64xi32>", "wrapped_operation": "func.func @func_call(%input: tensor<32x64xi32>, %filter: tensor<1x1xi32>, %output: tensor<32x64xi32>) -> tensor<32x64xi32> {\n  %ret = linalg.conv_2d ins(%input, %filter: tensor<32x64xi32>, tensor<1x1xi32>) outs(%output: tensor<32x64xi32>) -> tensor<32x64xi32>\n  return %ret : tensor<32x64xi32>\n}", "lowered_operation": "#map = affine_map<(d0, d1) -> (d0 + d1)>\nmodule {\n  func.func @func_call(%arg0: tensor<32x64xi32>, %arg1: tensor<1x1xi32>, %arg2: tensor<32x64xi32>) -> tensor<32x64xi32> {\n    %0 = bufferization.to_memref %arg1 : memref<1x1xi32>\n    %1 = bufferization.to_memref %arg0 : memref<32x64xi32>\n    %2 = bufferization.to_memref %arg2 : memref<32x64xi32>\n    %alloc = memref.alloc() {alignment = 64 : i64} : memref<32x64xi32>\n    memref.copy %2, %alloc : memref<32x64xi32> to memref<32x64xi32>\n    affine.for %arg3 = 0 to 32 {\n      affine.for %arg4 = 0 to 64 {\n        affine.for %arg5 = 0 to 1 {\n          affine.for %arg6 = 0 to 1 {\n            %4 = affine.apply #map(%arg3, %arg5)\n            %5 = affine.apply #map(%arg4, %arg6)\n            %6 = affine.load %1[%4, %5] : memref<32x64xi32>\n            %7 = affine.load %0[%arg5, %arg6] : memref<1x1xi32>\n            %8 = affine.load %alloc[%arg3, %arg4] : memref<32x64xi32>\n            %9 = arith.muli %6, %7 : i32\n            %10 = arith.addi %8, %9 : i32\n            affine.store %10, %alloc[%arg3, %arg4] : memref<32x64xi32>\n          }\n        }\n      }\n    }\n    %3 = bufferization.to_tensor %alloc : memref<32x64xi32>\n    return %3 : tensor<32x64xi32>\n  }\n}\n\n", "transform_wrapped_operation": "func.func private @nanoTime() -> i64 attributes { llvm.emit_c_interface }\nfunc.func private @printI64(i64)\nfunc.func private @printMemrefF32(tensor<*xf32>)\n\n\nfunc.func @func_call(%input: tensor<32x64xi32>, %filter: tensor<1x1xi32>, %output: tensor<32x64xi32>) -> tensor<32x64xi32> {\n  %ret = linalg.conv_2d ins(%input, %filter: tensor<32x64xi32>, tensor<1x1xi32>) outs(%output: tensor<32x64xi32>) -> tensor<32x64xi32>\n  return %ret : tensor<32x64xi32>\n}\n\nfunc.func @main() -> i64 {\n  %c1 = arith.constant 1 : index\n  %c32 = arith.constant 32 : index\n  %c64 = arith.constant 64 : index\n  %input_temp = bufferization.alloc_tensor(%c32, %c64) : tensor<?x?xi32>\n  %input = tensor.cast %input_temp : tensor<?x?xi32> to tensor<32x64xi32>\n  %filter_temp = bufferization.alloc_tensor(%c1, %c1) : tensor<?x?xi32>\n  %filter = tensor.cast %filter_temp : tensor<?x?xi32> to tensor<1x1xi32>\n  %output_temp = bufferization.alloc_tensor(%c32, %c64) : tensor<?x?xi32>\n  %output = tensor.cast %output_temp : tensor<?x?xi32> to tensor<32x64xi32>\n  %t0 = func.call @nanoTime() : () -> (i64)\n  %ret_arg = func.call @func_call(%input, %filter, %output) : (tensor<32x64xi32>, tensor<1x1xi32>, tensor<32x64xi32>) -> (tensor<32x64xi32>)  %t1 = func.call @nanoTime() : () -> (i64)\n  %delta = arith.subi %t1, %t0 : i64\n  return %delta : i64\n}", "loops_data": {"nested_loops": [["%arg3", 0, 32, 1], ["%arg4", 0, 64, 1], ["%arg5", 0, 1, 1], ["%arg6", 0, 1, 1]], "op_count": {"+": 0, "-": 0, "*": 0, "/": 0, "exp": 0}, "load_data": [["%arg3 + %arg5", "%arg4 + %arg6"], ["%arg5", "%arg6"], ["%arg3", "%arg4"]], "store_data": ["%arg3", "%arg4"]}}, "linalg.conv_2d ins(%input, %filter: tensor<512x512xi32>, tensor<7x7xi32>) outs(%output: tensor<506x506xi32>) -> tensor<506x506xi32>_16": {"operation": "linalg.conv_2d ins(%input, %filter: tensor<512x512xi32>, tensor<7x7xi32>) outs(%output: tensor<506x506xi32>) -> tensor<506x506xi32>", "wrapped_operation": "func.func @func_call(%input: tensor<512x512xi32>, %filter: tensor<7x7xi32>, %output: tensor<506x506xi32>) -> tensor<506x506xi32> {\n  %ret = linalg.conv_2d ins(%input, %filter: tensor<512x512xi32>, tensor<7x7xi32>) outs(%output: tensor<506x506xi32>) -> tensor<506x506xi32>\n  return %ret : tensor<506x506xi32>\n}", "lowered_operation": "#map = affine_map<(d0, d1) -> (d0 + d1)>\nmodule {\n  func.func @func_call(%arg0: tensor<512x512xi32>, %arg1: tensor<7x7xi32>, %arg2: tensor<506x506xi32>) -> tensor<506x506xi32> {\n    %0 = bufferization.to_memref %arg1 : memref<7x7xi32>\n    %1 = bufferization.to_memref %arg0 : memref<512x512xi32>\n    %2 = bufferization.to_memref %arg2 : memref<506x506xi32>\n    %alloc = memref.alloc() {alignment = 64 : i64} : memref<506x506xi32>\n    memref.copy %2, %alloc : memref<506x506xi32> to memref<506x506xi32>\n    affine.for %arg3 = 0 to 506 {\n      affine.for %arg4 = 0 to 506 {\n        affine.for %arg5 = 0 to 7 {\n          affine.for %arg6 = 0 to 7 {\n            %4 = affine.apply #map(%arg3, %arg5)\n            %5 = affine.apply #map(%arg4, %arg6)\n            %6 = affine.load %1[%4, %5] : memref<512x512xi32>\n            %7 = affine.load %0[%arg5, %arg6] : memref<7x7xi32>\n            %8 = affine.load %alloc[%arg3, %arg4] : memref<506x506xi32>\n            %9 = arith.muli %6, %7 : i32\n            %10 = arith.addi %8, %9 : i32\n            affine.store %10, %alloc[%arg3, %arg4] : memref<506x506xi32>\n          }\n        }\n      }\n    }\n    %3 = bufferization.to_tensor %alloc : memref<506x506xi32>\n    return %3 : tensor<506x506xi32>\n  }\n}\n\n", "transform_wrapped_operation": "func.func private @nanoTime() -> i64 attributes { llvm.emit_c_interface }\nfunc.func private @printI64(i64)\nfunc.func private @printMemrefF32(tensor<*xf32>)\n\n\nfunc.func @func_call(%input: tensor<512x512xi32>, %filter: tensor<7x7xi32>, %output: tensor<506x506xi32>) -> tensor<506x506xi32> {\n  %ret = linalg.conv_2d ins(%input, %filter: tensor<512x512xi32>, tensor<7x7xi32>) outs(%output: tensor<506x506xi32>) -> tensor<506x506xi32>\n  return %ret : tensor<506x506xi32>\n}\n\nfunc.func @main() -> i64 {\n  %c7 = arith.constant 7 : index\n  %c506 = arith.constant 506 : index\n  %c512 = arith.constant 512 : index\n  %input_temp = bufferization.alloc_tensor(%c512, %c512) : tensor<?x?xi32>\n  %input = tensor.cast %input_temp : tensor<?x?xi32> to tensor<512x512xi32>\n  %filter_temp = bufferization.alloc_tensor(%c7, %c7) : tensor<?x?xi32>\n  %filter = tensor.cast %filter_temp : tensor<?x?xi32> to tensor<7x7xi32>\n  %output_temp = bufferization.alloc_tensor(%c506, %c506) : tensor<?x?xi32>\n  %output = tensor.cast %output_temp : tensor<?x?xi32> to tensor<506x506xi32>\n  %t0 = func.call @nanoTime() : () -> (i64)\n  %ret_arg = func.call @func_call(%input, %filter, %output) : (tensor<512x512xi32>, tensor<7x7xi32>, tensor<506x506xi32>) -> (tensor<506x506xi32>)  %t1 = func.call @nanoTime() : () -> (i64)\n  %delta = arith.subi %t1, %t0 : i64\n  return %delta : i64\n}", "loops_data": {"nested_loops": [["%arg3", 0, 506, 1], ["%arg4", 0, 506, 1], ["%arg5", 0, 7, 1], ["%arg6", 0, 7, 1]], "op_count": {"+": 0, "-": 0, "*": 0, "/": 0, "exp": 0}, "load_data": [["%arg3 + %arg5", "%arg4 + %arg6"], ["%arg5", "%arg6"], ["%arg3", "%arg4"]], "store_data": ["%arg3", "%arg4"]}}, "linalg.conv_2d ins(%input, %filter: tensor<256x1024xi32>, tensor<7x7xi32>) outs(%output: tensor<250x1018xi32>) -> tensor<250x1018xi32>_17": {"operation": "linalg.conv_2d ins(%input, %filter: tensor<256x1024xi32>, tensor<7x7xi32>) outs(%output: tensor<250x1018xi32>) -> tensor<250x1018xi32>", "wrapped_operation": "func.func @func_call(%input: tensor<256x1024xi32>, %filter: tensor<7x7xi32>, %output: tensor<250x1018xi32>) -> tensor<250x1018xi32> {\n  %ret = linalg.conv_2d ins(%input, %filter: tensor<256x1024xi32>, tensor<7x7xi32>) outs(%output: tensor<250x1018xi32>) -> tensor<250x1018xi32>\n  return %ret : tensor<250x1018xi32>\n}", "lowered_operation": "#map = affine_map<(d0, d1) -> (d0 + d1)>\nmodule {\n  func.func @func_call(%arg0: tensor<256x1024xi32>, %arg1: tensor<7x7xi32>, %arg2: tensor<250x1018xi32>) -> tensor<250x1018xi32> {\n    %0 = bufferization.to_memref %arg1 : memref<7x7xi32>\n    %1 = bufferization.to_memref %arg0 : memref<256x1024xi32>\n    %2 = bufferization.to_memref %arg2 : memref<250x1018xi32>\n    %alloc = memref.alloc() {alignment = 64 : i64} : memref<250x1018xi32>\n    memref.copy %2, %alloc : memref<250x1018xi32> to memref<250x1018xi32>\n    affine.for %arg3 = 0 to 250 {\n      affine.for %arg4 = 0 to 1018 {\n        affine.for %arg5 = 0 to 7 {\n          affine.for %arg6 = 0 to 7 {\n            %4 = affine.apply #map(%arg3, %arg5)\n            %5 = affine.apply #map(%arg4, %arg6)\n            %6 = affine.load %1[%4, %5] : memref<256x1024xi32>\n            %7 = affine.load %0[%arg5, %arg6] : memref<7x7xi32>\n            %8 = affine.load %alloc[%arg3, %arg4] : memref<250x1018xi32>\n            %9 = arith.muli %6, %7 : i32\n            %10 = arith.addi %8, %9 : i32\n            affine.store %10, %alloc[%arg3, %arg4] : memref<250x1018xi32>\n          }\n        }\n      }\n    }\n    %3 = bufferization.to_tensor %alloc : memref<250x1018xi32>\n    return %3 : tensor<250x1018xi32>\n  }\n}\n\n", "transform_wrapped_operation": "func.func private @nanoTime() -> i64 attributes { llvm.emit_c_interface }\nfunc.func private @printI64(i64)\nfunc.func private @printMemrefF32(tensor<*xf32>)\n\n\nfunc.func @func_call(%input: tensor<256x1024xi32>, %filter: tensor<7x7xi32>, %output: tensor<250x1018xi32>) -> tensor<250x1018xi32> {\n  %ret = linalg.conv_2d ins(%input, %filter: tensor<256x1024xi32>, tensor<7x7xi32>) outs(%output: tensor<250x1018xi32>) -> tensor<250x1018xi32>\n  return %ret : tensor<250x1018xi32>\n}\n\nfunc.func @main() -> i64 {\n  %c7 = arith.constant 7 : index\n  %c250 = arith.constant 250 : index\n  %c256 = arith.constant 256 : index\n  %c1018 = arith.constant 1018 : index\n  %c1024 = arith.constant 1024 : index\n  %input_temp = bufferization.alloc_tensor(%c256, %c1024) : tensor<?x?xi32>\n  %input = tensor.cast %input_temp : tensor<?x?xi32> to tensor<256x1024xi32>\n  %filter_temp = bufferization.alloc_tensor(%c7, %c7) : tensor<?x?xi32>\n  %filter = tensor.cast %filter_temp : tensor<?x?xi32> to tensor<7x7xi32>\n  %output_temp = bufferization.alloc_tensor(%c250, %c1018) : tensor<?x?xi32>\n  %output = tensor.cast %output_temp : tensor<?x?xi32> to tensor<250x1018xi32>\n  %t0 = func.call @nanoTime() : () -> (i64)\n  %ret_arg = func.call @func_call(%input, %filter, %output) : (tensor<256x1024xi32>, tensor<7x7xi32>, tensor<250x1018xi32>) -> (tensor<250x1018xi32>)  %t1 = func.call @nanoTime() : () -> (i64)\n  %delta = arith.subi %t1, %t0 : i64\n  return %delta : i64\n}", "loops_data": {"nested_loops": [["%arg3", 0, 250, 1], ["%arg4", 0, 1018, 1], ["%arg5", 0, 7, 1], ["%arg6", 0, 7, 1]], "op_count": {"+": 0, "-": 0, "*": 0, "/": 0, "exp": 0}, "load_data": [["%arg3 + %arg5", "%arg4 + %arg6"], ["%arg5", "%arg6"], ["%arg3", "%arg4"]], "store_data": ["%arg3", "%arg4"]}}, "linalg.conv_2d ins(%input, %filter: tensor<512x512xi32>, tensor<3x3xi32>) outs(%output: tensor<510x510xi32>) -> tensor<510x510xi32>_18": {"operation": "linalg.conv_2d ins(%input, %filter: tensor<512x512xi32>, tensor<3x3xi32>) outs(%output: tensor<510x510xi32>) -> tensor<510x510xi32>", "wrapped_operation": "func.func @func_call(%input: tensor<512x512xi32>, %filter: tensor<3x3xi32>, %output: tensor<510x510xi32>) -> tensor<510x510xi32> {\n  %ret = linalg.conv_2d ins(%input, %filter: tensor<512x512xi32>, tensor<3x3xi32>) outs(%output: tensor<510x510xi32>) -> tensor<510x510xi32>\n  return %ret : tensor<510x510xi32>\n}", "lowered_operation": "#map = affine_map<(d0, d1) -> (d0 + d1)>\nmodule {\n  func.func @func_call(%arg0: tensor<512x512xi32>, %arg1: tensor<3x3xi32>, %arg2: tensor<510x510xi32>) -> tensor<510x510xi32> {\n    %0 = bufferization.to_memref %arg1 : memref<3x3xi32>\n    %1 = bufferization.to_memref %arg0 : memref<512x512xi32>\n    %2 = bufferization.to_memref %arg2 : memref<510x510xi32>\n    %alloc = memref.alloc() {alignment = 64 : i64} : memref<510x510xi32>\n    memref.copy %2, %alloc : memref<510x510xi32> to memref<510x510xi32>\n    affine.for %arg3 = 0 to 510 {\n      affine.for %arg4 = 0 to 510 {\n        affine.for %arg5 = 0 to 3 {\n          affine.for %arg6 = 0 to 3 {\n            %4 = affine.apply #map(%arg3, %arg5)\n            %5 = affine.apply #map(%arg4, %arg6)\n            %6 = affine.load %1[%4, %5] : memref<512x512xi32>\n            %7 = affine.load %0[%arg5, %arg6] : memref<3x3xi32>\n            %8 = affine.load %alloc[%arg3, %arg4] : memref<510x510xi32>\n            %9 = arith.muli %6, %7 : i32\n            %10 = arith.addi %8, %9 : i32\n            affine.store %10, %alloc[%arg3, %arg4] : memref<510x510xi32>\n          }\n        }\n      }\n    }\n    %3 = bufferization.to_tensor %alloc : memref<510x510xi32>\n    return %3 : tensor<510x510xi32>\n  }\n}\n\n", "transform_wrapped_operation": "func.func private @nanoTime() -> i64 attributes { llvm.emit_c_interface }\nfunc.func private @printI64(i64)\nfunc.func private @printMemrefF32(tensor<*xf32>)\n\n\nfunc.func @func_call(%input: tensor<512x512xi32>, %filter: tensor<3x3xi32>, %output: tensor<510x510xi32>) -> tensor<510x510xi32> {\n  %ret = linalg.conv_2d ins(%input, %filter: tensor<512x512xi32>, tensor<3x3xi32>) outs(%output: tensor<510x510xi32>) -> tensor<510x510xi32>\n  return %ret : tensor<510x510xi32>\n}\n\nfunc.func @main() -> i64 {\n  %c3 = arith.constant 3 : index\n  %c510 = arith.constant 510 : index\n  %c512 = arith.constant 512 : index\n  %input_temp = bufferization.alloc_tensor(%c512, %c512) : tensor<?x?xi32>\n  %input = tensor.cast %input_temp : tensor<?x?xi32> to tensor<512x512xi32>\n  %filter_temp = bufferization.alloc_tensor(%c3, %c3) : tensor<?x?xi32>\n  %filter = tensor.cast %filter_temp : tensor<?x?xi32> to tensor<3x3xi32>\n  %output_temp = bufferization.alloc_tensor(%c510, %c510) : tensor<?x?xi32>\n  %output = tensor.cast %output_temp : tensor<?x?xi32> to tensor<510x510xi32>\n  %t0 = func.call @nanoTime() : () -> (i64)\n  %ret_arg = func.call @func_call(%input, %filter, %output) : (tensor<512x512xi32>, tensor<3x3xi32>, tensor<510x510xi32>) -> (tensor<510x510xi32>)  %t1 = func.call @nanoTime() : () -> (i64)\n  %delta = arith.subi %t1, %t0 : i64\n  return %delta : i64\n}", "loops_data": {"nested_loops": [["%arg3", 0, 510, 1], ["%arg4", 0, 510, 1], ["%arg5", 0, 3, 1], ["%arg6", 0, 3, 1]], "op_count": {"+": 0, "-": 0, "*": 0, "/": 0, "exp": 0}, "load_data": [["%arg3 + %arg5", "%arg4 + %arg6"], ["%arg5", "%arg6"], ["%arg3", "%arg4"]], "store_data": ["%arg3", "%arg4"]}}, "linalg.conv_2d ins(%input, %filter: tensor<256x128xi32>, tensor<7x7xi32>) outs(%output: tensor<250x122xi32>) -> tensor<250x122xi32>_19": {"operation": "linalg.conv_2d ins(%input, %filter: tensor<256x128xi32>, tensor<7x7xi32>) outs(%output: tensor<250x122xi32>) -> tensor<250x122xi32>", "wrapped_operation": "func.func @func_call(%input: tensor<256x128xi32>, %filter: tensor<7x7xi32>, %output: tensor<250x122xi32>) -> tensor<250x122xi32> {\n  %ret = linalg.conv_2d ins(%input, %filter: tensor<256x128xi32>, tensor<7x7xi32>) outs(%output: tensor<250x122xi32>) -> tensor<250x122xi32>\n  return %ret : tensor<250x122xi32>\n}", "lowered_operation": "#map = affine_map<(d0, d1) -> (d0 + d1)>\nmodule {\n  func.func @func_call(%arg0: tensor<256x128xi32>, %arg1: tensor<7x7xi32>, %arg2: tensor<250x122xi32>) -> tensor<250x122xi32> {\n    %0 = bufferization.to_memref %arg1 : memref<7x7xi32>\n    %1 = bufferization.to_memref %arg0 : memref<256x128xi32>\n    %2 = bufferization.to_memref %arg2 : memref<250x122xi32>\n    %alloc = memref.alloc() {alignment = 64 : i64} : memref<250x122xi32>\n    memref.copy %2, %alloc : memref<250x122xi32> to memref<250x122xi32>\n    affine.for %arg3 = 0 to 250 {\n      affine.for %arg4 = 0 to 122 {\n        affine.for %arg5 = 0 to 7 {\n          affine.for %arg6 = 0 to 7 {\n            %4 = affine.apply #map(%arg3, %arg5)\n            %5 = affine.apply #map(%arg4, %arg6)\n            %6 = affine.load %1[%4, %5] : memref<256x128xi32>\n            %7 = affine.load %0[%arg5, %arg6] : memref<7x7xi32>\n            %8 = affine.load %alloc[%arg3, %arg4] : memref<250x122xi32>\n            %9 = arith.muli %6, %7 : i32\n            %10 = arith.addi %8, %9 : i32\n            affine.store %10, %alloc[%arg3, %arg4] : memref<250x122xi32>\n          }\n        }\n      }\n    }\n    %3 = bufferization.to_tensor %alloc : memref<250x122xi32>\n    return %3 : tensor<250x122xi32>\n  }\n}\n\n", "transform_wrapped_operation": "func.func private @nanoTime() -> i64 attributes { llvm.emit_c_interface }\nfunc.func private @printI64(i64)\nfunc.func private @printMemrefF32(tensor<*xf32>)\n\n\nfunc.func @func_call(%input: tensor<256x128xi32>, %filter: tensor<7x7xi32>, %output: tensor<250x122xi32>) -> tensor<250x122xi32> {\n  %ret = linalg.conv_2d ins(%input, %filter: tensor<256x128xi32>, tensor<7x7xi32>) outs(%output: tensor<250x122xi32>) -> tensor<250x122xi32>\n  return %ret : tensor<250x122xi32>\n}\n\nfunc.func @main() -> i64 {\n  %c7 = arith.constant 7 : index\n  %c122 = arith.constant 122 : index\n  %c128 = arith.constant 128 : index\n  %c250 = arith.constant 250 : index\n  %c256 = arith.constant 256 : index\n  %input_temp = bufferization.alloc_tensor(%c256, %c128) : tensor<?x?xi32>\n  %input = tensor.cast %input_temp : tensor<?x?xi32> to tensor<256x128xi32>\n  %filter_temp = bufferization.alloc_tensor(%c7, %c7) : tensor<?x?xi32>\n  %filter = tensor.cast %filter_temp : tensor<?x?xi32> to tensor<7x7xi32>\n  %output_temp = bufferization.alloc_tensor(%c250, %c122) : tensor<?x?xi32>\n  %output = tensor.cast %output_temp : tensor<?x?xi32> to tensor<250x122xi32>\n  %t0 = func.call @nanoTime() : () -> (i64)\n  %ret_arg = func.call @func_call(%input, %filter, %output) : (tensor<256x128xi32>, tensor<7x7xi32>, tensor<250x122xi32>) -> (tensor<250x122xi32>)  %t1 = func.call @nanoTime() : () -> (i64)\n  %delta = arith.subi %t1, %t0 : i64\n  return %delta : i64\n}", "loops_data": {"nested_loops": [["%arg3", 0, 250, 1], ["%arg4", 0, 122, 1], ["%arg5", 0, 7, 1], ["%arg6", 0, 7, 1]], "op_count": {"+": 0, "-": 0, "*": 0, "/": 0, "exp": 0}, "load_data": [["%arg3 + %arg5", "%arg4 + %arg6"], ["%arg5", "%arg6"], ["%arg3", "%arg4"]], "store_data": ["%arg3", "%arg4"]}}, "linalg.conv_2d ins(%input, %filter: tensor<1024x512xi32>, tensor<1x1xi32>) outs(%output: tensor<1024x512xi32>) -> tensor<1024x512xi32>_20": {"operation": "linalg.conv_2d ins(%input, %filter: tensor<1024x512xi32>, tensor<1x1xi32>) outs(%output: tensor<1024x512xi32>) -> tensor<1024x512xi32>", "wrapped_operation": "func.func @func_call(%input: tensor<1024x512xi32>, %filter: tensor<1x1xi32>, %output: tensor<1024x512xi32>) -> tensor<1024x512xi32> {\n  %ret = linalg.conv_2d ins(%input, %filter: tensor<1024x512xi32>, tensor<1x1xi32>) outs(%output: tensor<1024x512xi32>) -> tensor<1024x512xi32>\n  return %ret : tensor<1024x512xi32>\n}", "lowered_operation": "#map = affine_map<(d0, d1) -> (d0 + d1)>\nmodule {\n  func.func @func_call(%arg0: tensor<1024x512xi32>, %arg1: tensor<1x1xi32>, %arg2: tensor<1024x512xi32>) -> tensor<1024x512xi32> {\n    %0 = bufferization.to_memref %arg1 : memref<1x1xi32>\n    %1 = bufferization.to_memref %arg0 : memref<1024x512xi32>\n    %2 = bufferization.to_memref %arg2 : memref<1024x512xi32>\n    %alloc = memref.alloc() {alignment = 64 : i64} : memref<1024x512xi32>\n    memref.copy %2, %alloc : memref<1024x512xi32> to memref<1024x512xi32>\n    affine.for %arg3 = 0 to 1024 {\n      affine.for %arg4 = 0 to 512 {\n        affine.for %arg5 = 0 to 1 {\n          affine.for %arg6 = 0 to 1 {\n            %4 = affine.apply #map(%arg3, %arg5)\n            %5 = affine.apply #map(%arg4, %arg6)\n            %6 = affine.load %1[%4, %5] : memref<1024x512xi32>\n            %7 = affine.load %0[%arg5, %arg6] : memref<1x1xi32>\n            %8 = affine.load %alloc[%arg3, %arg4] : memref<1024x512xi32>\n            %9 = arith.muli %6, %7 : i32\n            %10 = arith.addi %8, %9 : i32\n            affine.store %10, %alloc[%arg3, %arg4] : memref<1024x512xi32>\n          }\n        }\n      }\n    }\n    %3 = bufferization.to_tensor %alloc : memref<1024x512xi32>\n    return %3 : tensor<1024x512xi32>\n  }\n}\n\n", "transform_wrapped_operation": "func.func private @nanoTime() -> i64 attributes { llvm.emit_c_interface }\nfunc.func private @printI64(i64)\nfunc.func private @printMemrefF32(tensor<*xf32>)\n\n\nfunc.func @func_call(%input: tensor<1024x512xi32>, %filter: tensor<1x1xi32>, %output: tensor<1024x512xi32>) -> tensor<1024x512xi32> {\n  %ret = linalg.conv_2d ins(%input, %filter: tensor<1024x512xi32>, tensor<1x1xi32>) outs(%output: tensor<1024x512xi32>) -> tensor<1024x512xi32>\n  return %ret : tensor<1024x512xi32>\n}\n\nfunc.func @main() -> i64 {\n  %c1 = arith.constant 1 : index\n  %c512 = arith.constant 512 : index\n  %c1024 = arith.constant 1024 : index\n  %input_temp = bufferization.alloc_tensor(%c1024, %c512) : tensor<?x?xi32>\n  %input = tensor.cast %input_temp : tensor<?x?xi32> to tensor<1024x512xi32>\n  %filter_temp = bufferization.alloc_tensor(%c1, %c1) : tensor<?x?xi32>\n  %filter = tensor.cast %filter_temp : tensor<?x?xi32> to tensor<1x1xi32>\n  %output_temp = bufferization.alloc_tensor(%c1024, %c512) : tensor<?x?xi32>\n  %output = tensor.cast %output_temp : tensor<?x?xi32> to tensor<1024x512xi32>\n  %t0 = func.call @nanoTime() : () -> (i64)\n  %ret_arg = func.call @func_call(%input, %filter, %output) : (tensor<1024x512xi32>, tensor<1x1xi32>, tensor<1024x512xi32>) -> (tensor<1024x512xi32>)  %t1 = func.call @nanoTime() : () -> (i64)\n  %delta = arith.subi %t1, %t0 : i64\n  return %delta : i64\n}", "loops_data": {"nested_loops": [["%arg3", 0, 1024, 1], ["%arg4", 0, 512, 1], ["%arg5", 0, 1, 1], ["%arg6", 0, 1, 1]], "op_count": {"+": 0, "-": 0, "*": 0, "/": 0, "exp": 0}, "load_data": [["%arg3 + %arg5", "%arg4 + %arg6"], ["%arg5", "%arg6"], ["%arg3", "%arg4"]], "store_data": ["%arg3", "%arg4"]}}, "linalg.conv_2d ins(%input, %filter: tensor<32x64xi32>, tensor<3x3xi32>) outs(%output: tensor<30x62xi32>) -> tensor<30x62xi32>_21": {"operation": "linalg.conv_2d ins(%input, %filter: tensor<32x64xi32>, tensor<3x3xi32>) outs(%output: tensor<30x62xi32>) -> tensor<30x62xi32>", "wrapped_operation": "func.func @func_call(%input: tensor<32x64xi32>, %filter: tensor<3x3xi32>, %output: tensor<30x62xi32>) -> tensor<30x62xi32> {\n  %ret = linalg.conv_2d ins(%input, %filter: tensor<32x64xi32>, tensor<3x3xi32>) outs(%output: tensor<30x62xi32>) -> tensor<30x62xi32>\n  return %ret : tensor<30x62xi32>\n}", "lowered_operation": "#map = affine_map<(d0, d1) -> (d0 + d1)>\nmodule {\n  func.func @func_call(%arg0: tensor<32x64xi32>, %arg1: tensor<3x3xi32>, %arg2: tensor<30x62xi32>) -> tensor<30x62xi32> {\n    %0 = bufferization.to_memref %arg1 : memref<3x3xi32>\n    %1 = bufferization.to_memref %arg0 : memref<32x64xi32>\n    %2 = bufferization.to_memref %arg2 : memref<30x62xi32>\n    %alloc = memref.alloc() {alignment = 64 : i64} : memref<30x62xi32>\n    memref.copy %2, %alloc : memref<30x62xi32> to memref<30x62xi32>\n    affine.for %arg3 = 0 to 30 {\n      affine.for %arg4 = 0 to 62 {\n        affine.for %arg5 = 0 to 3 {\n          affine.for %arg6 = 0 to 3 {\n            %4 = affine.apply #map(%arg3, %arg5)\n            %5 = affine.apply #map(%arg4, %arg6)\n            %6 = affine.load %1[%4, %5] : memref<32x64xi32>\n            %7 = affine.load %0[%arg5, %arg6] : memref<3x3xi32>\n            %8 = affine.load %alloc[%arg3, %arg4] : memref<30x62xi32>\n            %9 = arith.muli %6, %7 : i32\n            %10 = arith.addi %8, %9 : i32\n            affine.store %10, %alloc[%arg3, %arg4] : memref<30x62xi32>\n          }\n        }\n      }\n    }\n    %3 = bufferization.to_tensor %alloc : memref<30x62xi32>\n    return %3 : tensor<30x62xi32>\n  }\n}\n\n", "transform_wrapped_operation": "func.func private @nanoTime() -> i64 attributes { llvm.emit_c_interface }\nfunc.func private @printI64(i64)\nfunc.func private @printMemrefF32(tensor<*xf32>)\n\n\nfunc.func @func_call(%input: tensor<32x64xi32>, %filter: tensor<3x3xi32>, %output: tensor<30x62xi32>) -> tensor<30x62xi32> {\n  %ret = linalg.conv_2d ins(%input, %filter: tensor<32x64xi32>, tensor<3x3xi32>) outs(%output: tensor<30x62xi32>) -> tensor<30x62xi32>\n  return %ret : tensor<30x62xi32>\n}\n\nfunc.func @main() -> i64 {\n  %c3 = arith.constant 3 : index\n  %c30 = arith.constant 30 : index\n  %c32 = arith.constant 32 : index\n  %c62 = arith.constant 62 : index\n  %c64 = arith.constant 64 : index\n  %input_temp = bufferization.alloc_tensor(%c32, %c64) : tensor<?x?xi32>\n  %input = tensor.cast %input_temp : tensor<?x?xi32> to tensor<32x64xi32>\n  %filter_temp = bufferization.alloc_tensor(%c3, %c3) : tensor<?x?xi32>\n  %filter = tensor.cast %filter_temp : tensor<?x?xi32> to tensor<3x3xi32>\n  %output_temp = bufferization.alloc_tensor(%c30, %c62) : tensor<?x?xi32>\n  %output = tensor.cast %output_temp : tensor<?x?xi32> to tensor<30x62xi32>\n  %t0 = func.call @nanoTime() : () -> (i64)\n  %ret_arg = func.call @func_call(%input, %filter, %output) : (tensor<32x64xi32>, tensor<3x3xi32>, tensor<30x62xi32>) -> (tensor<30x62xi32>)  %t1 = func.call @nanoTime() : () -> (i64)\n  %delta = arith.subi %t1, %t0 : i64\n  return %delta : i64\n}", "loops_data": {"nested_loops": [["%arg3", 0, 30, 1], ["%arg4", 0, 62, 1], ["%arg5", 0, 3, 1], ["%arg6", 0, 3, 1]], "op_count": {"+": 0, "-": 0, "*": 0, "/": 0, "exp": 0}, "load_data": [["%arg3 + %arg5", "%arg4 + %arg6"], ["%arg5", "%arg6"], ["%arg3", "%arg4"]], "store_data": ["%arg3", "%arg4"]}}, "linalg.conv_2d ins(%input, %filter: tensor<128x256xi32>, tensor<3x3xi32>) outs(%output: tensor<126x254xi32>) -> tensor<126x254xi32>_22": {"operation": "linalg.conv_2d ins(%input, %filter: tensor<128x256xi32>, tensor<3x3xi32>) outs(%output: tensor<126x254xi32>) -> tensor<126x254xi32>", "wrapped_operation": "func.func @func_call(%input: tensor<128x256xi32>, %filter: tensor<3x3xi32>, %output: tensor<126x254xi32>) -> tensor<126x254xi32> {\n  %ret = linalg.conv_2d ins(%input, %filter: tensor<128x256xi32>, tensor<3x3xi32>) outs(%output: tensor<126x254xi32>) -> tensor<126x254xi32>\n  return %ret : tensor<126x254xi32>\n}", "lowered_operation": "#map = affine_map<(d0, d1) -> (d0 + d1)>\nmodule {\n  func.func @func_call(%arg0: tensor<128x256xi32>, %arg1: tensor<3x3xi32>, %arg2: tensor<126x254xi32>) -> tensor<126x254xi32> {\n    %0 = bufferization.to_memref %arg1 : memref<3x3xi32>\n    %1 = bufferization.to_memref %arg0 : memref<128x256xi32>\n    %2 = bufferization.to_memref %arg2 : memref<126x254xi32>\n    %alloc = memref.alloc() {alignment = 64 : i64} : memref<126x254xi32>\n    memref.copy %2, %alloc : memref<126x254xi32> to memref<126x254xi32>\n    affine.for %arg3 = 0 to 126 {\n      affine.for %arg4 = 0 to 254 {\n        affine.for %arg5 = 0 to 3 {\n          affine.for %arg6 = 0 to 3 {\n            %4 = affine.apply #map(%arg3, %arg5)\n            %5 = affine.apply #map(%arg4, %arg6)\n            %6 = affine.load %1[%4, %5] : memref<128x256xi32>\n            %7 = affine.load %0[%arg5, %arg6] : memref<3x3xi32>\n            %8 = affine.load %alloc[%arg3, %arg4] : memref<126x254xi32>\n            %9 = arith.muli %6, %7 : i32\n            %10 = arith.addi %8, %9 : i32\n            affine.store %10, %alloc[%arg3, %arg4] : memref<126x254xi32>\n          }\n        }\n      }\n    }\n    %3 = bufferization.to_tensor %alloc : memref<126x254xi32>\n    return %3 : tensor<126x254xi32>\n  }\n}\n\n", "transform_wrapped_operation": "func.func private @nanoTime() -> i64 attributes { llvm.emit_c_interface }\nfunc.func private @printI64(i64)\nfunc.func private @printMemrefF32(tensor<*xf32>)\n\n\nfunc.func @func_call(%input: tensor<128x256xi32>, %filter: tensor<3x3xi32>, %output: tensor<126x254xi32>) -> tensor<126x254xi32> {\n  %ret = linalg.conv_2d ins(%input, %filter: tensor<128x256xi32>, tensor<3x3xi32>) outs(%output: tensor<126x254xi32>) -> tensor<126x254xi32>\n  return %ret : tensor<126x254xi32>\n}\n\nfunc.func @main() -> i64 {\n  %c3 = arith.constant 3 : index\n  %c126 = arith.constant 126 : index\n  %c128 = arith.constant 128 : index\n  %c254 = arith.constant 254 : index\n  %c256 = arith.constant 256 : index\n  %input_temp = bufferization.alloc_tensor(%c128, %c256) : tensor<?x?xi32>\n  %input = tensor.cast %input_temp : tensor<?x?xi32> to tensor<128x256xi32>\n  %filter_temp = bufferization.alloc_tensor(%c3, %c3) : tensor<?x?xi32>\n  %filter = tensor.cast %filter_temp : tensor<?x?xi32> to tensor<3x3xi32>\n  %output_temp = bufferization.alloc_tensor(%c126, %c254) : tensor<?x?xi32>\n  %output = tensor.cast %output_temp : tensor<?x?xi32> to tensor<126x254xi32>\n  %t0 = func.call @nanoTime() : () -> (i64)\n  %ret_arg = func.call @func_call(%input, %filter, %output) : (tensor<128x256xi32>, tensor<3x3xi32>, tensor<126x254xi32>) -> (tensor<126x254xi32>)  %t1 = func.call @nanoTime() : () -> (i64)\n  %delta = arith.subi %t1, %t0 : i64\n  return %delta : i64\n}", "loops_data": {"nested_loops": [["%arg3", 0, 126, 1], ["%arg4", 0, 254, 1], ["%arg5", 0, 3, 1], ["%arg6", 0, 3, 1]], "op_count": {"+": 0, "-": 0, "*": 0, "/": 0, "exp": 0}, "load_data": [["%arg3 + %arg5", "%arg4 + %arg6"], ["%arg5", "%arg6"], ["%arg3", "%arg4"]], "store_data": ["%arg3", "%arg4"]}}, "linalg.conv_2d ins(%input, %filter: tensor<256x32xi32>, tensor<7x7xi32>) outs(%output: tensor<250x26xi32>) -> tensor<250x26xi32>_23": {"operation": "linalg.conv_2d ins(%input, %filter: tensor<256x32xi32>, tensor<7x7xi32>) outs(%output: tensor<250x26xi32>) -> tensor<250x26xi32>", "wrapped_operation": "func.func @func_call(%input: tensor<256x32xi32>, %filter: tensor<7x7xi32>, %output: tensor<250x26xi32>) -> tensor<250x26xi32> {\n  %ret = linalg.conv_2d ins(%input, %filter: tensor<256x32xi32>, tensor<7x7xi32>) outs(%output: tensor<250x26xi32>) -> tensor<250x26xi32>\n  return %ret : tensor<250x26xi32>\n}", "lowered_operation": "#map = affine_map<(d0, d1) -> (d0 + d1)>\nmodule {\n  func.func @func_call(%arg0: tensor<256x32xi32>, %arg1: tensor<7x7xi32>, %arg2: tensor<250x26xi32>) -> tensor<250x26xi32> {\n    %0 = bufferization.to_memref %arg1 : memref<7x7xi32>\n    %1 = bufferization.to_memref %arg0 : memref<256x32xi32>\n    %2 = bufferization.to_memref %arg2 : memref<250x26xi32>\n    %alloc = memref.alloc() {alignment = 64 : i64} : memref<250x26xi32>\n    memref.copy %2, %alloc : memref<250x26xi32> to memref<250x26xi32>\n    affine.for %arg3 = 0 to 250 {\n      affine.for %arg4 = 0 to 26 {\n        affine.for %arg5 = 0 to 7 {\n          affine.for %arg6 = 0 to 7 {\n            %4 = affine.apply #map(%arg3, %arg5)\n            %5 = affine.apply #map(%arg4, %arg6)\n            %6 = affine.load %1[%4, %5] : memref<256x32xi32>\n            %7 = affine.load %0[%arg5, %arg6] : memref<7x7xi32>\n            %8 = affine.load %alloc[%arg3, %arg4] : memref<250x26xi32>\n            %9 = arith.muli %6, %7 : i32\n            %10 = arith.addi %8, %9 : i32\n            affine.store %10, %alloc[%arg3, %arg4] : memref<250x26xi32>\n          }\n        }\n      }\n    }\n    %3 = bufferization.to_tensor %alloc : memref<250x26xi32>\n    return %3 : tensor<250x26xi32>\n  }\n}\n\n", "transform_wrapped_operation": "func.func private @nanoTime() -> i64 attributes { llvm.emit_c_interface }\nfunc.func private @printI64(i64)\nfunc.func private @printMemrefF32(tensor<*xf32>)\n\n\nfunc.func @func_call(%input: tensor<256x32xi32>, %filter: tensor<7x7xi32>, %output: tensor<250x26xi32>) -> tensor<250x26xi32> {\n  %ret = linalg.conv_2d ins(%input, %filter: tensor<256x32xi32>, tensor<7x7xi32>) outs(%output: tensor<250x26xi32>) -> tensor<250x26xi32>\n  return %ret : tensor<250x26xi32>\n}\n\nfunc.func @main() -> i64 {\n  %c7 = arith.constant 7 : index\n  %c26 = arith.constant 26 : index\n  %c32 = arith.constant 32 : index\n  %c250 = arith.constant 250 : index\n  %c256 = arith.constant 256 : index\n  %input_temp = bufferization.alloc_tensor(%c256, %c32) : tensor<?x?xi32>\n  %input = tensor.cast %input_temp : tensor<?x?xi32> to tensor<256x32xi32>\n  %filter_temp = bufferization.alloc_tensor(%c7, %c7) : tensor<?x?xi32>\n  %filter = tensor.cast %filter_temp : tensor<?x?xi32> to tensor<7x7xi32>\n  %output_temp = bufferization.alloc_tensor(%c250, %c26) : tensor<?x?xi32>\n  %output = tensor.cast %output_temp : tensor<?x?xi32> to tensor<250x26xi32>\n  %t0 = func.call @nanoTime() : () -> (i64)\n  %ret_arg = func.call @func_call(%input, %filter, %output) : (tensor<256x32xi32>, tensor<7x7xi32>, tensor<250x26xi32>) -> (tensor<250x26xi32>)  %t1 = func.call @nanoTime() : () -> (i64)\n  %delta = arith.subi %t1, %t0 : i64\n  return %delta : i64\n}", "loops_data": {"nested_loops": [["%arg3", 0, 250, 1], ["%arg4", 0, 26, 1], ["%arg5", 0, 7, 1], ["%arg6", 0, 7, 1]], "op_count": {"+": 0, "-": 0, "*": 0, "/": 0, "exp": 0}, "load_data": [["%arg3 + %arg5", "%arg4 + %arg6"], ["%arg5", "%arg6"], ["%arg3", "%arg4"]], "store_data": ["%arg3", "%arg4"]}}, "linalg.conv_2d ins(%input, %filter: tensor<256x32xi32>, tensor<1x1xi32>) outs(%output: tensor<256x32xi32>) -> tensor<256x32xi32>_24": {"operation": "linalg.conv_2d ins(%input, %filter: tensor<256x32xi32>, tensor<1x1xi32>) outs(%output: tensor<256x32xi32>) -> tensor<256x32xi32>", "wrapped_operation": "func.func @func_call(%input: tensor<256x32xi32>, %filter: tensor<1x1xi32>, %output: tensor<256x32xi32>) -> tensor<256x32xi32> {\n  %ret = linalg.conv_2d ins(%input, %filter: tensor<256x32xi32>, tensor<1x1xi32>) outs(%output: tensor<256x32xi32>) -> tensor<256x32xi32>\n  return %ret : tensor<256x32xi32>\n}", "lowered_operation": "#map = affine_map<(d0, d1) -> (d0 + d1)>\nmodule {\n  func.func @func_call(%arg0: tensor<256x32xi32>, %arg1: tensor<1x1xi32>, %arg2: tensor<256x32xi32>) -> tensor<256x32xi32> {\n    %0 = bufferization.to_memref %arg1 : memref<1x1xi32>\n    %1 = bufferization.to_memref %arg0 : memref<256x32xi32>\n    %2 = bufferization.to_memref %arg2 : memref<256x32xi32>\n    %alloc = memref.alloc() {alignment = 64 : i64} : memref<256x32xi32>\n    memref.copy %2, %alloc : memref<256x32xi32> to memref<256x32xi32>\n    affine.for %arg3 = 0 to 256 {\n      affine.for %arg4 = 0 to 32 {\n        affine.for %arg5 = 0 to 1 {\n          affine.for %arg6 = 0 to 1 {\n            %4 = affine.apply #map(%arg3, %arg5)\n            %5 = affine.apply #map(%arg4, %arg6)\n            %6 = affine.load %1[%4, %5] : memref<256x32xi32>\n            %7 = affine.load %0[%arg5, %arg6] : memref<1x1xi32>\n            %8 = affine.load %alloc[%arg3, %arg4] : memref<256x32xi32>\n            %9 = arith.muli %6, %7 : i32\n            %10 = arith.addi %8, %9 : i32\n            affine.store %10, %alloc[%arg3, %arg4] : memref<256x32xi32>\n          }\n        }\n      }\n    }\n    %3 = bufferization.to_tensor %alloc : memref<256x32xi32>\n    return %3 : tensor<256x32xi32>\n  }\n}\n\n", "transform_wrapped_operation": "func.func private @nanoTime() -> i64 attributes { llvm.emit_c_interface }\nfunc.func private @printI64(i64)\nfunc.func private @printMemrefF32(tensor<*xf32>)\n\n\nfunc.func @func_call(%input: tensor<256x32xi32>, %filter: tensor<1x1xi32>, %output: tensor<256x32xi32>) -> tensor<256x32xi32> {\n  %ret = linalg.conv_2d ins(%input, %filter: tensor<256x32xi32>, tensor<1x1xi32>) outs(%output: tensor<256x32xi32>) -> tensor<256x32xi32>\n  return %ret : tensor<256x32xi32>\n}\n\nfunc.func @main() -> i64 {\n  %c1 = arith.constant 1 : index\n  %c32 = arith.constant 32 : index\n  %c256 = arith.constant 256 : index\n  %input_temp = bufferization.alloc_tensor(%c256, %c32) : tensor<?x?xi32>\n  %input = tensor.cast %input_temp : tensor<?x?xi32> to tensor<256x32xi32>\n  %filter_temp = bufferization.alloc_tensor(%c1, %c1) : tensor<?x?xi32>\n  %filter = tensor.cast %filter_temp : tensor<?x?xi32> to tensor<1x1xi32>\n  %output_temp = bufferization.alloc_tensor(%c256, %c32) : tensor<?x?xi32>\n  %output = tensor.cast %output_temp : tensor<?x?xi32> to tensor<256x32xi32>\n  %t0 = func.call @nanoTime() : () -> (i64)\n  %ret_arg = func.call @func_call(%input, %filter, %output) : (tensor<256x32xi32>, tensor<1x1xi32>, tensor<256x32xi32>) -> (tensor<256x32xi32>)  %t1 = func.call @nanoTime() : () -> (i64)\n  %delta = arith.subi %t1, %t0 : i64\n  return %delta : i64\n}", "loops_data": {"nested_loops": [["%arg3", 0, 256, 1], ["%arg4", 0, 32, 1], ["%arg5", 0, 1, 1], ["%arg6", 0, 1, 1]], "op_count": {"+": 0, "-": 0, "*": 0, "/": 0, "exp": 0}, "load_data": [["%arg3 + %arg5", "%arg4 + %arg6"], ["%arg5", "%arg6"], ["%arg3", "%arg4"]], "store_data": ["%arg3", "%arg4"]}}, "linalg.conv_2d ins(%input, %filter: tensor<1024x1024xi32>, tensor<3x3xi32>) outs(%output: tensor<1022x1022xi32>) -> tensor<1022x1022xi32>_25": {"operation": "linalg.conv_2d ins(%input, %filter: tensor<1024x1024xi32>, tensor<3x3xi32>) outs(%output: tensor<1022x1022xi32>) -> tensor<1022x1022xi32>", "wrapped_operation": "func.func @func_call(%input: tensor<1024x1024xi32>, %filter: tensor<3x3xi32>, %output: tensor<1022x1022xi32>) -> tensor<1022x1022xi32> {\n  %ret = linalg.conv_2d ins(%input, %filter: tensor<1024x1024xi32>, tensor<3x3xi32>) outs(%output: tensor<1022x1022xi32>) -> tensor<1022x1022xi32>\n  return %ret : tensor<1022x1022xi32>\n}", "lowered_operation": "#map = affine_map<(d0, d1) -> (d0 + d1)>\nmodule {\n  func.func @func_call(%arg0: tensor<1024x1024xi32>, %arg1: tensor<3x3xi32>, %arg2: tensor<1022x1022xi32>) -> tensor<1022x1022xi32> {\n    %0 = bufferization.to_memref %arg1 : memref<3x3xi32>\n    %1 = bufferization.to_memref %arg0 : memref<1024x1024xi32>\n    %2 = bufferization.to_memref %arg2 : memref<1022x1022xi32>\n    %alloc = memref.alloc() {alignment = 64 : i64} : memref<1022x1022xi32>\n    memref.copy %2, %alloc : memref<1022x1022xi32> to memref<1022x1022xi32>\n    affine.for %arg3 = 0 to 1022 {\n      affine.for %arg4 = 0 to 1022 {\n        affine.for %arg5 = 0 to 3 {\n          affine.for %arg6 = 0 to 3 {\n            %4 = affine.apply #map(%arg3, %arg5)\n            %5 = affine.apply #map(%arg4, %arg6)\n            %6 = affine.load %1[%4, %5] : memref<1024x1024xi32>\n            %7 = affine.load %0[%arg5, %arg6] : memref<3x3xi32>\n            %8 = affine.load %alloc[%arg3, %arg4] : memref<1022x1022xi32>\n            %9 = arith.muli %6, %7 : i32\n            %10 = arith.addi %8, %9 : i32\n            affine.store %10, %alloc[%arg3, %arg4] : memref<1022x1022xi32>\n          }\n        }\n      }\n    }\n    %3 = bufferization.to_tensor %alloc : memref<1022x1022xi32>\n    return %3 : tensor<1022x1022xi32>\n  }\n}\n\n", "transform_wrapped_operation": "func.func private @nanoTime() -> i64 attributes { llvm.emit_c_interface }\nfunc.func private @printI64(i64)\nfunc.func private @printMemrefF32(tensor<*xf32>)\n\n\nfunc.func @func_call(%input: tensor<1024x1024xi32>, %filter: tensor<3x3xi32>, %output: tensor<1022x1022xi32>) -> tensor<1022x1022xi32> {\n  %ret = linalg.conv_2d ins(%input, %filter: tensor<1024x1024xi32>, tensor<3x3xi32>) outs(%output: tensor<1022x1022xi32>) -> tensor<1022x1022xi32>\n  return %ret : tensor<1022x1022xi32>\n}\n\nfunc.func @main() -> i64 {\n  %c3 = arith.constant 3 : index\n  %c1022 = arith.constant 1022 : index\n  %c1024 = arith.constant 1024 : index\n  %input_temp = bufferization.alloc_tensor(%c1024, %c1024) : tensor<?x?xi32>\n  %input = tensor.cast %input_temp : tensor<?x?xi32> to tensor<1024x1024xi32>\n  %filter_temp = bufferization.alloc_tensor(%c3, %c3) : tensor<?x?xi32>\n  %filter = tensor.cast %filter_temp : tensor<?x?xi32> to tensor<3x3xi32>\n  %output_temp = bufferization.alloc_tensor(%c1022, %c1022) : tensor<?x?xi32>\n  %output = tensor.cast %output_temp : tensor<?x?xi32> to tensor<1022x1022xi32>\n  %t0 = func.call @nanoTime() : () -> (i64)\n  %ret_arg = func.call @func_call(%input, %filter, %output) : (tensor<1024x1024xi32>, tensor<3x3xi32>, tensor<1022x1022xi32>) -> (tensor<1022x1022xi32>)  %t1 = func.call @nanoTime() : () -> (i64)\n  %delta = arith.subi %t1, %t0 : i64\n  return %delta : i64\n}", "loops_data": {"nested_loops": [["%arg3", 0, 1022, 1], ["%arg4", 0, 1022, 1], ["%arg5", 0, 3, 1], ["%arg6", 0, 3, 1]], "op_count": {"+": 0, "-": 0, "*": 0, "/": 0, "exp": 0}, "load_data": [["%arg3 + %arg5", "%arg4 + %arg6"], ["%arg5", "%arg6"], ["%arg3", "%arg4"]], "store_data": ["%arg3", "%arg4"]}}, "linalg.conv_2d ins(%input, %filter: tensor<1024x1024xi32>, tensor<3x3xi32>) outs(%output: tensor<1022x1022xi32>) -> tensor<1022x1022xi32>_26": {"operation": "linalg.conv_2d ins(%input, %filter: tensor<1024x1024xi32>, tensor<3x3xi32>) outs(%output: tensor<1022x1022xi32>) -> tensor<1022x1022xi32>", "wrapped_operation": "func.func @func_call(%input: tensor<1024x1024xi32>, %filter: tensor<3x3xi32>, %output: tensor<1022x1022xi32>) -> tensor<1022x1022xi32> {\n  %ret = linalg.conv_2d ins(%input, %filter: tensor<1024x1024xi32>, tensor<3x3xi32>) outs(%output: tensor<1022x1022xi32>) -> tensor<1022x1022xi32>\n  return %ret : tensor<1022x1022xi32>\n}", "lowered_operation": "#map = affine_map<(d0, d1) -> (d0 + d1)>\nmodule {\n  func.func @func_call(%arg0: tensor<1024x1024xi32>, %arg1: tensor<3x3xi32>, %arg2: tensor<1022x1022xi32>) -> tensor<1022x1022xi32> {\n    %0 = bufferization.to_memref %arg1 : memref<3x3xi32>\n    %1 = bufferization.to_memref %arg0 : memref<1024x1024xi32>\n    %2 = bufferization.to_memref %arg2 : memref<1022x1022xi32>\n    %alloc = memref.alloc() {alignment = 64 : i64} : memref<1022x1022xi32>\n    memref.copy %2, %alloc : memref<1022x1022xi32> to memref<1022x1022xi32>\n    affine.for %arg3 = 0 to 1022 {\n      affine.for %arg4 = 0 to 1022 {\n        affine.for %arg5 = 0 to 3 {\n          affine.for %arg6 = 0 to 3 {\n            %4 = affine.apply #map(%arg3, %arg5)\n            %5 = affine.apply #map(%arg4, %arg6)\n            %6 = affine.load %1[%4, %5] : memref<1024x1024xi32>\n            %7 = affine.load %0[%arg5, %arg6] : memref<3x3xi32>\n            %8 = affine.load %alloc[%arg3, %arg4] : memref<1022x1022xi32>\n            %9 = arith.muli %6, %7 : i32\n            %10 = arith.addi %8, %9 : i32\n            affine.store %10, %alloc[%arg3, %arg4] : memref<1022x1022xi32>\n          }\n        }\n      }\n    }\n    %3 = bufferization.to_tensor %alloc : memref<1022x1022xi32>\n    return %3 : tensor<1022x1022xi32>\n  }\n}\n\n", "transform_wrapped_operation": "func.func private @nanoTime() -> i64 attributes { llvm.emit_c_interface }\nfunc.func private @printI64(i64)\nfunc.func private @printMemrefF32(tensor<*xf32>)\n\n\nfunc.func @func_call(%input: tensor<1024x1024xi32>, %filter: tensor<3x3xi32>, %output: tensor<1022x1022xi32>) -> tensor<1022x1022xi32> {\n  %ret = linalg.conv_2d ins(%input, %filter: tensor<1024x1024xi32>, tensor<3x3xi32>) outs(%output: tensor<1022x1022xi32>) -> tensor<1022x1022xi32>\n  return %ret : tensor<1022x1022xi32>\n}\n\nfunc.func @main() -> i64 {\n  %c3 = arith.constant 3 : index\n  %c1022 = arith.constant 1022 : index\n  %c1024 = arith.constant 1024 : index\n  %input_temp = bufferization.alloc_tensor(%c1024, %c1024) : tensor<?x?xi32>\n  %input = tensor.cast %input_temp : tensor<?x?xi32> to tensor<1024x1024xi32>\n  %filter_temp = bufferization.alloc_tensor(%c3, %c3) : tensor<?x?xi32>\n  %filter = tensor.cast %filter_temp : tensor<?x?xi32> to tensor<3x3xi32>\n  %output_temp = bufferization.alloc_tensor(%c1022, %c1022) : tensor<?x?xi32>\n  %output = tensor.cast %output_temp : tensor<?x?xi32> to tensor<1022x1022xi32>\n  %t0 = func.call @nanoTime() : () -> (i64)\n  %ret_arg = func.call @func_call(%input, %filter, %output) : (tensor<1024x1024xi32>, tensor<3x3xi32>, tensor<1022x1022xi32>) -> (tensor<1022x1022xi32>)  %t1 = func.call @nanoTime() : () -> (i64)\n  %delta = arith.subi %t1, %t0 : i64\n  return %delta : i64\n}", "loops_data": {"nested_loops": [["%arg3", 0, 1022, 1], ["%arg4", 0, 1022, 1], ["%arg5", 0, 3, 1], ["%arg6", 0, 3, 1]], "op_count": {"+": 0, "-": 0, "*": 0, "/": 0, "exp": 0}, "load_data": [["%arg3 + %arg5", "%arg4 + %arg6"], ["%arg5", "%arg6"], ["%arg3", "%arg4"]], "store_data": ["%arg3", "%arg4"]}}, "linalg.conv_2d ins(%input, %filter: tensor<128x128xi32>, tensor<5x5xi32>) outs(%output: tensor<124x124xi32>) -> tensor<124x124xi32>_27": {"operation": "linalg.conv_2d ins(%input, %filter: tensor<128x128xi32>, tensor<5x5xi32>) outs(%output: tensor<124x124xi32>) -> tensor<124x124xi32>", "wrapped_operation": "func.func @func_call(%input: tensor<128x128xi32>, %filter: tensor<5x5xi32>, %output: tensor<124x124xi32>) -> tensor<124x124xi32> {\n  %ret = linalg.conv_2d ins(%input, %filter: tensor<128x128xi32>, tensor<5x5xi32>) outs(%output: tensor<124x124xi32>) -> tensor<124x124xi32>\n  return %ret : tensor<124x124xi32>\n}", "lowered_operation": "#map = affine_map<(d0, d1) -> (d0 + d1)>\nmodule {\n  func.func @func_call(%arg0: tensor<128x128xi32>, %arg1: tensor<5x5xi32>, %arg2: tensor<124x124xi32>) -> tensor<124x124xi32> {\n    %0 = bufferization.to_memref %arg1 : memref<5x5xi32>\n    %1 = bufferization.to_memref %arg0 : memref<128x128xi32>\n    %2 = bufferization.to_memref %arg2 : memref<124x124xi32>\n    %alloc = memref.alloc() {alignment = 64 : i64} : memref<124x124xi32>\n    memref.copy %2, %alloc : memref<124x124xi32> to memref<124x124xi32>\n    affine.for %arg3 = 0 to 124 {\n      affine.for %arg4 = 0 to 124 {\n        affine.for %arg5 = 0 to 5 {\n          affine.for %arg6 = 0 to 5 {\n            %4 = affine.apply #map(%arg3, %arg5)\n            %5 = affine.apply #map(%arg4, %arg6)\n            %6 = affine.load %1[%4, %5] : memref<128x128xi32>\n            %7 = affine.load %0[%arg5, %arg6] : memref<5x5xi32>\n            %8 = affine.load %alloc[%arg3, %arg4] : memref<124x124xi32>\n            %9 = arith.muli %6, %7 : i32\n            %10 = arith.addi %8, %9 : i32\n            affine.store %10, %alloc[%arg3, %arg4] : memref<124x124xi32>\n          }\n        }\n      }\n    }\n    %3 = bufferization.to_tensor %alloc : memref<124x124xi32>\n    return %3 : tensor<124x124xi32>\n  }\n}\n\n", "transform_wrapped_operation": "func.func private @nanoTime() -> i64 attributes { llvm.emit_c_interface }\nfunc.func private @printI64(i64)\nfunc.func private @printMemrefF32(tensor<*xf32>)\n\n\nfunc.func @func_call(%input: tensor<128x128xi32>, %filter: tensor<5x5xi32>, %output: tensor<124x124xi32>) -> tensor<124x124xi32> {\n  %ret = linalg.conv_2d ins(%input, %filter: tensor<128x128xi32>, tensor<5x5xi32>) outs(%output: tensor<124x124xi32>) -> tensor<124x124xi32>\n  return %ret : tensor<124x124xi32>\n}\n\nfunc.func @main() -> i64 {\n  %c5 = arith.constant 5 : index\n  %c124 = arith.constant 124 : index\n  %c128 = arith.constant 128 : index\n  %input_temp = bufferization.alloc_tensor(%c128, %c128) : tensor<?x?xi32>\n  %input = tensor.cast %input_temp : tensor<?x?xi32> to tensor<128x128xi32>\n  %filter_temp = bufferization.alloc_tensor(%c5, %c5) : tensor<?x?xi32>\n  %filter = tensor.cast %filter_temp : tensor<?x?xi32> to tensor<5x5xi32>\n  %output_temp = bufferization.alloc_tensor(%c124, %c124) : tensor<?x?xi32>\n  %output = tensor.cast %output_temp : tensor<?x?xi32> to tensor<124x124xi32>\n  %t0 = func.call @nanoTime() : () -> (i64)\n  %ret_arg = func.call @func_call(%input, %filter, %output) : (tensor<128x128xi32>, tensor<5x5xi32>, tensor<124x124xi32>) -> (tensor<124x124xi32>)  %t1 = func.call @nanoTime() : () -> (i64)\n  %delta = arith.subi %t1, %t0 : i64\n  return %delta : i64\n}", "loops_data": {"nested_loops": [["%arg3", 0, 124, 1], ["%arg4", 0, 124, 1], ["%arg5", 0, 5, 1], ["%arg6", 0, 5, 1]], "op_count": {"+": 0, "-": 0, "*": 0, "/": 0, "exp": 0}, "load_data": [["%arg3 + %arg5", "%arg4 + %arg6"], ["%arg5", "%arg6"], ["%arg3", "%arg4"]], "store_data": ["%arg3", "%arg4"]}}, "linalg.conv_2d ins(%input, %filter: tensor<1024x128xi32>, tensor<1x1xi32>) outs(%output: tensor<1024x128xi32>) -> tensor<1024x128xi32>_28": {"operation": "linalg.conv_2d ins(%input, %filter: tensor<1024x128xi32>, tensor<1x1xi32>) outs(%output: tensor<1024x128xi32>) -> tensor<1024x128xi32>", "wrapped_operation": "func.func @func_call(%input: tensor<1024x128xi32>, %filter: tensor<1x1xi32>, %output: tensor<1024x128xi32>) -> tensor<1024x128xi32> {\n  %ret = linalg.conv_2d ins(%input, %filter: tensor<1024x128xi32>, tensor<1x1xi32>) outs(%output: tensor<1024x128xi32>) -> tensor<1024x128xi32>\n  return %ret : tensor<1024x128xi32>\n}", "lowered_operation": "#map = affine_map<(d0, d1) -> (d0 + d1)>\nmodule {\n  func.func @func_call(%arg0: tensor<1024x128xi32>, %arg1: tensor<1x1xi32>, %arg2: tensor<1024x128xi32>) -> tensor<1024x128xi32> {\n    %0 = bufferization.to_memref %arg1 : memref<1x1xi32>\n    %1 = bufferization.to_memref %arg0 : memref<1024x128xi32>\n    %2 = bufferization.to_memref %arg2 : memref<1024x128xi32>\n    %alloc = memref.alloc() {alignment = 64 : i64} : memref<1024x128xi32>\n    memref.copy %2, %alloc : memref<1024x128xi32> to memref<1024x128xi32>\n    affine.for %arg3 = 0 to 1024 {\n      affine.for %arg4 = 0 to 128 {\n        affine.for %arg5 = 0 to 1 {\n          affine.for %arg6 = 0 to 1 {\n            %4 = affine.apply #map(%arg3, %arg5)\n            %5 = affine.apply #map(%arg4, %arg6)\n            %6 = affine.load %1[%4, %5] : memref<1024x128xi32>\n            %7 = affine.load %0[%arg5, %arg6] : memref<1x1xi32>\n            %8 = affine.load %alloc[%arg3, %arg4] : memref<1024x128xi32>\n            %9 = arith.muli %6, %7 : i32\n            %10 = arith.addi %8, %9 : i32\n            affine.store %10, %alloc[%arg3, %arg4] : memref<1024x128xi32>\n          }\n        }\n      }\n    }\n    %3 = bufferization.to_tensor %alloc : memref<1024x128xi32>\n    return %3 : tensor<1024x128xi32>\n  }\n}\n\n", "transform_wrapped_operation": "func.func private @nanoTime() -> i64 attributes { llvm.emit_c_interface }\nfunc.func private @printI64(i64)\nfunc.func private @printMemrefF32(tensor<*xf32>)\n\n\nfunc.func @func_call(%input: tensor<1024x128xi32>, %filter: tensor<1x1xi32>, %output: tensor<1024x128xi32>) -> tensor<1024x128xi32> {\n  %ret = linalg.conv_2d ins(%input, %filter: tensor<1024x128xi32>, tensor<1x1xi32>) outs(%output: tensor<1024x128xi32>) -> tensor<1024x128xi32>\n  return %ret : tensor<1024x128xi32>\n}\n\nfunc.func @main() -> i64 {\n  %c1 = arith.constant 1 : index\n  %c128 = arith.constant 128 : index\n  %c1024 = arith.constant 1024 : index\n  %input_temp = bufferization.alloc_tensor(%c1024, %c128) : tensor<?x?xi32>\n  %input = tensor.cast %input_temp : tensor<?x?xi32> to tensor<1024x128xi32>\n  %filter_temp = bufferization.alloc_tensor(%c1, %c1) : tensor<?x?xi32>\n  %filter = tensor.cast %filter_temp : tensor<?x?xi32> to tensor<1x1xi32>\n  %output_temp = bufferization.alloc_tensor(%c1024, %c128) : tensor<?x?xi32>\n  %output = tensor.cast %output_temp : tensor<?x?xi32> to tensor<1024x128xi32>\n  %t0 = func.call @nanoTime() : () -> (i64)\n  %ret_arg = func.call @func_call(%input, %filter, %output) : (tensor<1024x128xi32>, tensor<1x1xi32>, tensor<1024x128xi32>) -> (tensor<1024x128xi32>)  %t1 = func.call @nanoTime() : () -> (i64)\n  %delta = arith.subi %t1, %t0 : i64\n  return %delta : i64\n}", "loops_data": {"nested_loops": [["%arg3", 0, 1024, 1], ["%arg4", 0, 128, 1], ["%arg5", 0, 1, 1], ["%arg6", 0, 1, 1]], "op_count": {"+": 0, "-": 0, "*": 0, "/": 0, "exp": 0}, "load_data": [["%arg3 + %arg5", "%arg4 + %arg6"], ["%arg5", "%arg6"], ["%arg3", "%arg4"]], "store_data": ["%arg3", "%arg4"]}}, "linalg.conv_2d ins(%input, %filter: tensor<32x32xi32>, tensor<1x1xi32>) outs(%output: tensor<32x32xi32>) -> tensor<32x32xi32>_29": {"operation": "linalg.conv_2d ins(%input, %filter: tensor<32x32xi32>, tensor<1x1xi32>) outs(%output: tensor<32x32xi32>) -> tensor<32x32xi32>", "wrapped_operation": "func.func @func_call(%input: tensor<32x32xi32>, %filter: tensor<1x1xi32>, %output: tensor<32x32xi32>) -> tensor<32x32xi32> {\n  %ret = linalg.conv_2d ins(%input, %filter: tensor<32x32xi32>, tensor<1x1xi32>) outs(%output: tensor<32x32xi32>) -> tensor<32x32xi32>\n  return %ret : tensor<32x32xi32>\n}", "lowered_operation": "#map = affine_map<(d0, d1) -> (d0 + d1)>\nmodule {\n  func.func @func_call(%arg0: tensor<32x32xi32>, %arg1: tensor<1x1xi32>, %arg2: tensor<32x32xi32>) -> tensor<32x32xi32> {\n    %0 = bufferization.to_memref %arg1 : memref<1x1xi32>\n    %1 = bufferization.to_memref %arg0 : memref<32x32xi32>\n    %2 = bufferization.to_memref %arg2 : memref<32x32xi32>\n    %alloc = memref.alloc() {alignment = 64 : i64} : memref<32x32xi32>\n    memref.copy %2, %alloc : memref<32x32xi32> to memref<32x32xi32>\n    affine.for %arg3 = 0 to 32 {\n      affine.for %arg4 = 0 to 32 {\n        affine.for %arg5 = 0 to 1 {\n          affine.for %arg6 = 0 to 1 {\n            %4 = affine.apply #map(%arg3, %arg5)\n            %5 = affine.apply #map(%arg4, %arg6)\n            %6 = affine.load %1[%4, %5] : memref<32x32xi32>\n            %7 = affine.load %0[%arg5, %arg6] : memref<1x1xi32>\n            %8 = affine.load %alloc[%arg3, %arg4] : memref<32x32xi32>\n            %9 = arith.muli %6, %7 : i32\n            %10 = arith.addi %8, %9 : i32\n            affine.store %10, %alloc[%arg3, %arg4] : memref<32x32xi32>\n          }\n        }\n      }\n    }\n    %3 = bufferization.to_tensor %alloc : memref<32x32xi32>\n    return %3 : tensor<32x32xi32>\n  }\n}\n\n", "transform_wrapped_operation": "func.func private @nanoTime() -> i64 attributes { llvm.emit_c_interface }\nfunc.func private @printI64(i64)\nfunc.func private @printMemrefF32(tensor<*xf32>)\n\n\nfunc.func @func_call(%input: tensor<32x32xi32>, %filter: tensor<1x1xi32>, %output: tensor<32x32xi32>) -> tensor<32x32xi32> {\n  %ret = linalg.conv_2d ins(%input, %filter: tensor<32x32xi32>, tensor<1x1xi32>) outs(%output: tensor<32x32xi32>) -> tensor<32x32xi32>\n  return %ret : tensor<32x32xi32>\n}\n\nfunc.func @main() -> i64 {\n  %c1 = arith.constant 1 : index\n  %c32 = arith.constant 32 : index\n  %input_temp = bufferization.alloc_tensor(%c32, %c32) : tensor<?x?xi32>\n  %input = tensor.cast %input_temp : tensor<?x?xi32> to tensor<32x32xi32>\n  %filter_temp = bufferization.alloc_tensor(%c1, %c1) : tensor<?x?xi32>\n  %filter = tensor.cast %filter_temp : tensor<?x?xi32> to tensor<1x1xi32>\n  %output_temp = bufferization.alloc_tensor(%c32, %c32) : tensor<?x?xi32>\n  %output = tensor.cast %output_temp : tensor<?x?xi32> to tensor<32x32xi32>\n  %t0 = func.call @nanoTime() : () -> (i64)\n  %ret_arg = func.call @func_call(%input, %filter, %output) : (tensor<32x32xi32>, tensor<1x1xi32>, tensor<32x32xi32>) -> (tensor<32x32xi32>)  %t1 = func.call @nanoTime() : () -> (i64)\n  %delta = arith.subi %t1, %t0 : i64\n  return %delta : i64\n}", "loops_data": {"nested_loops": [["%arg3", 0, 32, 1], ["%arg4", 0, 32, 1], ["%arg5", 0, 1, 1], ["%arg6", 0, 1, 1]], "op_count": {"+": 0, "-": 0, "*": 0, "/": 0, "exp": 0}, "load_data": [["%arg3 + %arg5", "%arg4 + %arg6"], ["%arg5", "%arg6"], ["%arg3", "%arg4"]], "store_data": ["%arg3", "%arg4"]}}, "linalg.conv_2d ins(%input, %filter: tensor<128x32xi32>, tensor<7x7xi32>) outs(%output: tensor<122x26xi32>) -> tensor<122x26xi32>_30": {"operation": "linalg.conv_2d ins(%input, %filter: tensor<128x32xi32>, tensor<7x7xi32>) outs(%output: tensor<122x26xi32>) -> tensor<122x26xi32>", "wrapped_operation": "func.func @func_call(%input: tensor<128x32xi32>, %filter: tensor<7x7xi32>, %output: tensor<122x26xi32>) -> tensor<122x26xi32> {\n  %ret = linalg.conv_2d ins(%input, %filter: tensor<128x32xi32>, tensor<7x7xi32>) outs(%output: tensor<122x26xi32>) -> tensor<122x26xi32>\n  return %ret : tensor<122x26xi32>\n}", "lowered_operation": "#map = affine_map<(d0, d1) -> (d0 + d1)>\nmodule {\n  func.func @func_call(%arg0: tensor<128x32xi32>, %arg1: tensor<7x7xi32>, %arg2: tensor<122x26xi32>) -> tensor<122x26xi32> {\n    %0 = bufferization.to_memref %arg1 : memref<7x7xi32>\n    %1 = bufferization.to_memref %arg0 : memref<128x32xi32>\n    %2 = bufferization.to_memref %arg2 : memref<122x26xi32>\n    %alloc = memref.alloc() {alignment = 64 : i64} : memref<122x26xi32>\n    memref.copy %2, %alloc : memref<122x26xi32> to memref<122x26xi32>\n    affine.for %arg3 = 0 to 122 {\n      affine.for %arg4 = 0 to 26 {\n        affine.for %arg5 = 0 to 7 {\n          affine.for %arg6 = 0 to 7 {\n            %4 = affine.apply #map(%arg3, %arg5)\n            %5 = affine.apply #map(%arg4, %arg6)\n            %6 = affine.load %1[%4, %5] : memref<128x32xi32>\n            %7 = affine.load %0[%arg5, %arg6] : memref<7x7xi32>\n            %8 = affine.load %alloc[%arg3, %arg4] : memref<122x26xi32>\n            %9 = arith.muli %6, %7 : i32\n            %10 = arith.addi %8, %9 : i32\n            affine.store %10, %alloc[%arg3, %arg4] : memref<122x26xi32>\n          }\n        }\n      }\n    }\n    %3 = bufferization.to_tensor %alloc : memref<122x26xi32>\n    return %3 : tensor<122x26xi32>\n  }\n}\n\n", "transform_wrapped_operation": "func.func private @nanoTime() -> i64 attributes { llvm.emit_c_interface }\nfunc.func private @printI64(i64)\nfunc.func private @printMemrefF32(tensor<*xf32>)\n\n\nfunc.func @func_call(%input: tensor<128x32xi32>, %filter: tensor<7x7xi32>, %output: tensor<122x26xi32>) -> tensor<122x26xi32> {\n  %ret = linalg.conv_2d ins(%input, %filter: tensor<128x32xi32>, tensor<7x7xi32>) outs(%output: tensor<122x26xi32>) -> tensor<122x26xi32>\n  return %ret : tensor<122x26xi32>\n}\n\nfunc.func @main() -> i64 {\n  %c7 = arith.constant 7 : index\n  %c26 = arith.constant 26 : index\n  %c32 = arith.constant 32 : index\n  %c122 = arith.constant 122 : index\n  %c128 = arith.constant 128 : index\n  %input_temp = bufferization.alloc_tensor(%c128, %c32) : tensor<?x?xi32>\n  %input = tensor.cast %input_temp : tensor<?x?xi32> to tensor<128x32xi32>\n  %filter_temp = bufferization.alloc_tensor(%c7, %c7) : tensor<?x?xi32>\n  %filter = tensor.cast %filter_temp : tensor<?x?xi32> to tensor<7x7xi32>\n  %output_temp = bufferization.alloc_tensor(%c122, %c26) : tensor<?x?xi32>\n  %output = tensor.cast %output_temp : tensor<?x?xi32> to tensor<122x26xi32>\n  %t0 = func.call @nanoTime() : () -> (i64)\n  %ret_arg = func.call @func_call(%input, %filter, %output) : (tensor<128x32xi32>, tensor<7x7xi32>, tensor<122x26xi32>) -> (tensor<122x26xi32>)  %t1 = func.call @nanoTime() : () -> (i64)\n  %delta = arith.subi %t1, %t0 : i64\n  return %delta : i64\n}", "loops_data": {"nested_loops": [["%arg3", 0, 122, 1], ["%arg4", 0, 26, 1], ["%arg5", 0, 7, 1], ["%arg6", 0, 7, 1]], "op_count": {"+": 0, "-": 0, "*": 0, "/": 0, "exp": 0}, "load_data": [["%arg3 + %arg5", "%arg4 + %arg6"], ["%arg5", "%arg6"], ["%arg3", "%arg4"]], "store_data": ["%arg3", "%arg4"]}}, "linalg.conv_2d ins(%input, %filter: tensor<512x256xi32>, tensor<1x1xi32>) outs(%output: tensor<512x256xi32>) -> tensor<512x256xi32>_31": {"operation": "linalg.conv_2d ins(%input, %filter: tensor<512x256xi32>, tensor<1x1xi32>) outs(%output: tensor<512x256xi32>) -> tensor<512x256xi32>", "wrapped_operation": "func.func @func_call(%input: tensor<512x256xi32>, %filter: tensor<1x1xi32>, %output: tensor<512x256xi32>) -> tensor<512x256xi32> {\n  %ret = linalg.conv_2d ins(%input, %filter: tensor<512x256xi32>, tensor<1x1xi32>) outs(%output: tensor<512x256xi32>) -> tensor<512x256xi32>\n  return %ret : tensor<512x256xi32>\n}", "lowered_operation": "#map = affine_map<(d0, d1) -> (d0 + d1)>\nmodule {\n  func.func @func_call(%arg0: tensor<512x256xi32>, %arg1: tensor<1x1xi32>, %arg2: tensor<512x256xi32>) -> tensor<512x256xi32> {\n    %0 = bufferization.to_memref %arg1 : memref<1x1xi32>\n    %1 = bufferization.to_memref %arg0 : memref<512x256xi32>\n    %2 = bufferization.to_memref %arg2 : memref<512x256xi32>\n    %alloc = memref.alloc() {alignment = 64 : i64} : memref<512x256xi32>\n    memref.copy %2, %alloc : memref<512x256xi32> to memref<512x256xi32>\n    affine.for %arg3 = 0 to 512 {\n      affine.for %arg4 = 0 to 256 {\n        affine.for %arg5 = 0 to 1 {\n          affine.for %arg6 = 0 to 1 {\n            %4 = affine.apply #map(%arg3, %arg5)\n            %5 = affine.apply #map(%arg4, %arg6)\n            %6 = affine.load %1[%4, %5] : memref<512x256xi32>\n            %7 = affine.load %0[%arg5, %arg6] : memref<1x1xi32>\n            %8 = affine.load %alloc[%arg3, %arg4] : memref<512x256xi32>\n            %9 = arith.muli %6, %7 : i32\n            %10 = arith.addi %8, %9 : i32\n            affine.store %10, %alloc[%arg3, %arg4] : memref<512x256xi32>\n          }\n        }\n      }\n    }\n    %3 = bufferization.to_tensor %alloc : memref<512x256xi32>\n    return %3 : tensor<512x256xi32>\n  }\n}\n\n", "transform_wrapped_operation": "func.func private @nanoTime() -> i64 attributes { llvm.emit_c_interface }\nfunc.func private @printI64(i64)\nfunc.func private @printMemrefF32(tensor<*xf32>)\n\n\nfunc.func @func_call(%input: tensor<512x256xi32>, %filter: tensor<1x1xi32>, %output: tensor<512x256xi32>) -> tensor<512x256xi32> {\n  %ret = linalg.conv_2d ins(%input, %filter: tensor<512x256xi32>, tensor<1x1xi32>) outs(%output: tensor<512x256xi32>) -> tensor<512x256xi32>\n  return %ret : tensor<512x256xi32>\n}\n\nfunc.func @main() -> i64 {\n  %c1 = arith.constant 1 : index\n  %c256 = arith.constant 256 : index\n  %c512 = arith.constant 512 : index\n  %input_temp = bufferization.alloc_tensor(%c512, %c256) : tensor<?x?xi32>\n  %input = tensor.cast %input_temp : tensor<?x?xi32> to tensor<512x256xi32>\n  %filter_temp = bufferization.alloc_tensor(%c1, %c1) : tensor<?x?xi32>\n  %filter = tensor.cast %filter_temp : tensor<?x?xi32> to tensor<1x1xi32>\n  %output_temp = bufferization.alloc_tensor(%c512, %c256) : tensor<?x?xi32>\n  %output = tensor.cast %output_temp : tensor<?x?xi32> to tensor<512x256xi32>\n  %t0 = func.call @nanoTime() : () -> (i64)\n  %ret_arg = func.call @func_call(%input, %filter, %output) : (tensor<512x256xi32>, tensor<1x1xi32>, tensor<512x256xi32>) -> (tensor<512x256xi32>)  %t1 = func.call @nanoTime() : () -> (i64)\n  %delta = arith.subi %t1, %t0 : i64\n  return %delta : i64\n}", "loops_data": {"nested_loops": [["%arg3", 0, 512, 1], ["%arg4", 0, 256, 1], ["%arg5", 0, 1, 1], ["%arg6", 0, 1, 1]], "op_count": {"+": 0, "-": 0, "*": 0, "/": 0, "exp": 0}, "load_data": [["%arg3 + %arg5", "%arg4 + %arg6"], ["%arg5", "%arg6"], ["%arg3", "%arg4"]], "store_data": ["%arg3", "%arg4"]}}, "linalg.conv_2d ins(%input, %filter: tensor<32x1024xi32>, tensor<1x1xi32>) outs(%output: tensor<32x1024xi32>) -> tensor<32x1024xi32>_32": {"operation": "linalg.conv_2d ins(%input, %filter: tensor<32x1024xi32>, tensor<1x1xi32>) outs(%output: tensor<32x1024xi32>) -> tensor<32x1024xi32>", "wrapped_operation": "func.func @func_call(%input: tensor<32x1024xi32>, %filter: tensor<1x1xi32>, %output: tensor<32x1024xi32>) -> tensor<32x1024xi32> {\n  %ret = linalg.conv_2d ins(%input, %filter: tensor<32x1024xi32>, tensor<1x1xi32>) outs(%output: tensor<32x1024xi32>) -> tensor<32x1024xi32>\n  return %ret : tensor<32x1024xi32>\n}", "lowered_operation": "#map = affine_map<(d0, d1) -> (d0 + d1)>\nmodule {\n  func.func @func_call(%arg0: tensor<32x1024xi32>, %arg1: tensor<1x1xi32>, %arg2: tensor<32x1024xi32>) -> tensor<32x1024xi32> {\n    %0 = bufferization.to_memref %arg1 : memref<1x1xi32>\n    %1 = bufferization.to_memref %arg0 : memref<32x1024xi32>\n    %2 = bufferization.to_memref %arg2 : memref<32x1024xi32>\n    %alloc = memref.alloc() {alignment = 64 : i64} : memref<32x1024xi32>\n    memref.copy %2, %alloc : memref<32x1024xi32> to memref<32x1024xi32>\n    affine.for %arg3 = 0 to 32 {\n      affine.for %arg4 = 0 to 1024 {\n        affine.for %arg5 = 0 to 1 {\n          affine.for %arg6 = 0 to 1 {\n            %4 = affine.apply #map(%arg3, %arg5)\n            %5 = affine.apply #map(%arg4, %arg6)\n            %6 = affine.load %1[%4, %5] : memref<32x1024xi32>\n            %7 = affine.load %0[%arg5, %arg6] : memref<1x1xi32>\n            %8 = affine.load %alloc[%arg3, %arg4] : memref<32x1024xi32>\n            %9 = arith.muli %6, %7 : i32\n            %10 = arith.addi %8, %9 : i32\n            affine.store %10, %alloc[%arg3, %arg4] : memref<32x1024xi32>\n          }\n        }\n      }\n    }\n    %3 = bufferization.to_tensor %alloc : memref<32x1024xi32>\n    return %3 : tensor<32x1024xi32>\n  }\n}\n\n", "transform_wrapped_operation": "func.func private @nanoTime() -> i64 attributes { llvm.emit_c_interface }\nfunc.func private @printI64(i64)\nfunc.func private @printMemrefF32(tensor<*xf32>)\n\n\nfunc.func @func_call(%input: tensor<32x1024xi32>, %filter: tensor<1x1xi32>, %output: tensor<32x1024xi32>) -> tensor<32x1024xi32> {\n  %ret = linalg.conv_2d ins(%input, %filter: tensor<32x1024xi32>, tensor<1x1xi32>) outs(%output: tensor<32x1024xi32>) -> tensor<32x1024xi32>\n  return %ret : tensor<32x1024xi32>\n}\n\nfunc.func @main() -> i64 {\n  %c1 = arith.constant 1 : index\n  %c32 = arith.constant 32 : index\n  %c1024 = arith.constant 1024 : index\n  %input_temp = bufferization.alloc_tensor(%c32, %c1024) : tensor<?x?xi32>\n  %input = tensor.cast %input_temp : tensor<?x?xi32> to tensor<32x1024xi32>\n  %filter_temp = bufferization.alloc_tensor(%c1, %c1) : tensor<?x?xi32>\n  %filter = tensor.cast %filter_temp : tensor<?x?xi32> to tensor<1x1xi32>\n  %output_temp = bufferization.alloc_tensor(%c32, %c1024) : tensor<?x?xi32>\n  %output = tensor.cast %output_temp : tensor<?x?xi32> to tensor<32x1024xi32>\n  %t0 = func.call @nanoTime() : () -> (i64)\n  %ret_arg = func.call @func_call(%input, %filter, %output) : (tensor<32x1024xi32>, tensor<1x1xi32>, tensor<32x1024xi32>) -> (tensor<32x1024xi32>)  %t1 = func.call @nanoTime() : () -> (i64)\n  %delta = arith.subi %t1, %t0 : i64\n  return %delta : i64\n}", "loops_data": {"nested_loops": [["%arg3", 0, 32, 1], ["%arg4", 0, 1024, 1], ["%arg5", 0, 1, 1], ["%arg6", 0, 1, 1]], "op_count": {"+": 0, "-": 0, "*": 0, "/": 0, "exp": 0}, "load_data": [["%arg3 + %arg5", "%arg4 + %arg6"], ["%arg5", "%arg6"], ["%arg3", "%arg4"]], "store_data": ["%arg3", "%arg4"]}}, "linalg.conv_2d ins(%input, %filter: tensor<64x64xi32>, tensor<7x7xi32>) outs(%output: tensor<58x58xi32>) -> tensor<58x58xi32>_33": {"operation": "linalg.conv_2d ins(%input, %filter: tensor<64x64xi32>, tensor<7x7xi32>) outs(%output: tensor<58x58xi32>) -> tensor<58x58xi32>", "wrapped_operation": "func.func @func_call(%input: tensor<64x64xi32>, %filter: tensor<7x7xi32>, %output: tensor<58x58xi32>) -> tensor<58x58xi32> {\n  %ret = linalg.conv_2d ins(%input, %filter: tensor<64x64xi32>, tensor<7x7xi32>) outs(%output: tensor<58x58xi32>) -> tensor<58x58xi32>\n  return %ret : tensor<58x58xi32>\n}", "lowered_operation": "#map = affine_map<(d0, d1) -> (d0 + d1)>\nmodule {\n  func.func @func_call(%arg0: tensor<64x64xi32>, %arg1: tensor<7x7xi32>, %arg2: tensor<58x58xi32>) -> tensor<58x58xi32> {\n    %0 = bufferization.to_memref %arg1 : memref<7x7xi32>\n    %1 = bufferization.to_memref %arg0 : memref<64x64xi32>\n    %2 = bufferization.to_memref %arg2 : memref<58x58xi32>\n    %alloc = memref.alloc() {alignment = 64 : i64} : memref<58x58xi32>\n    memref.copy %2, %alloc : memref<58x58xi32> to memref<58x58xi32>\n    affine.for %arg3 = 0 to 58 {\n      affine.for %arg4 = 0 to 58 {\n        affine.for %arg5 = 0 to 7 {\n          affine.for %arg6 = 0 to 7 {\n            %4 = affine.apply #map(%arg3, %arg5)\n            %5 = affine.apply #map(%arg4, %arg6)\n            %6 = affine.load %1[%4, %5] : memref<64x64xi32>\n            %7 = affine.load %0[%arg5, %arg6] : memref<7x7xi32>\n            %8 = affine.load %alloc[%arg3, %arg4] : memref<58x58xi32>\n            %9 = arith.muli %6, %7 : i32\n            %10 = arith.addi %8, %9 : i32\n            affine.store %10, %alloc[%arg3, %arg4] : memref<58x58xi32>\n          }\n        }\n      }\n    }\n    %3 = bufferization.to_tensor %alloc : memref<58x58xi32>\n    return %3 : tensor<58x58xi32>\n  }\n}\n\n", "transform_wrapped_operation": "func.func private @nanoTime() -> i64 attributes { llvm.emit_c_interface }\nfunc.func private @printI64(i64)\nfunc.func private @printMemrefF32(tensor<*xf32>)\n\n\nfunc.func @func_call(%input: tensor<64x64xi32>, %filter: tensor<7x7xi32>, %output: tensor<58x58xi32>) -> tensor<58x58xi32> {\n  %ret = linalg.conv_2d ins(%input, %filter: tensor<64x64xi32>, tensor<7x7xi32>) outs(%output: tensor<58x58xi32>) -> tensor<58x58xi32>\n  return %ret : tensor<58x58xi32>\n}\n\nfunc.func @main() -> i64 {\n  %c7 = arith.constant 7 : index\n  %c58 = arith.constant 58 : index\n  %c64 = arith.constant 64 : index\n  %input_temp = bufferization.alloc_tensor(%c64, %c64) : tensor<?x?xi32>\n  %input = tensor.cast %input_temp : tensor<?x?xi32> to tensor<64x64xi32>\n  %filter_temp = bufferization.alloc_tensor(%c7, %c7) : tensor<?x?xi32>\n  %filter = tensor.cast %filter_temp : tensor<?x?xi32> to tensor<7x7xi32>\n  %output_temp = bufferization.alloc_tensor(%c58, %c58) : tensor<?x?xi32>\n  %output = tensor.cast %output_temp : tensor<?x?xi32> to tensor<58x58xi32>\n  %t0 = func.call @nanoTime() : () -> (i64)\n  %ret_arg = func.call @func_call(%input, %filter, %output) : (tensor<64x64xi32>, tensor<7x7xi32>, tensor<58x58xi32>) -> (tensor<58x58xi32>)  %t1 = func.call @nanoTime() : () -> (i64)\n  %delta = arith.subi %t1, %t0 : i64\n  return %delta : i64\n}", "loops_data": {"nested_loops": [["%arg3", 0, 58, 1], ["%arg4", 0, 58, 1], ["%arg5", 0, 7, 1], ["%arg6", 0, 7, 1]], "op_count": {"+": 0, "-": 0, "*": 0, "/": 0, "exp": 0}, "load_data": [["%arg3 + %arg5", "%arg4 + %arg6"], ["%arg5", "%arg6"], ["%arg3", "%arg4"]], "store_data": ["%arg3", "%arg4"]}}, "linalg.conv_2d ins(%input, %filter: tensor<256x64xi32>, tensor<7x7xi32>) outs(%output: tensor<250x58xi32>) -> tensor<250x58xi32>_34": {"operation": "linalg.conv_2d ins(%input, %filter: tensor<256x64xi32>, tensor<7x7xi32>) outs(%output: tensor<250x58xi32>) -> tensor<250x58xi32>", "wrapped_operation": "func.func @func_call(%input: tensor<256x64xi32>, %filter: tensor<7x7xi32>, %output: tensor<250x58xi32>) -> tensor<250x58xi32> {\n  %ret = linalg.conv_2d ins(%input, %filter: tensor<256x64xi32>, tensor<7x7xi32>) outs(%output: tensor<250x58xi32>) -> tensor<250x58xi32>\n  return %ret : tensor<250x58xi32>\n}", "lowered_operation": "#map = affine_map<(d0, d1) -> (d0 + d1)>\nmodule {\n  func.func @func_call(%arg0: tensor<256x64xi32>, %arg1: tensor<7x7xi32>, %arg2: tensor<250x58xi32>) -> tensor<250x58xi32> {\n    %0 = bufferization.to_memref %arg1 : memref<7x7xi32>\n    %1 = bufferization.to_memref %arg0 : memref<256x64xi32>\n    %2 = bufferization.to_memref %arg2 : memref<250x58xi32>\n    %alloc = memref.alloc() {alignment = 64 : i64} : memref<250x58xi32>\n    memref.copy %2, %alloc : memref<250x58xi32> to memref<250x58xi32>\n    affine.for %arg3 = 0 to 250 {\n      affine.for %arg4 = 0 to 58 {\n        affine.for %arg5 = 0 to 7 {\n          affine.for %arg6 = 0 to 7 {\n            %4 = affine.apply #map(%arg3, %arg5)\n            %5 = affine.apply #map(%arg4, %arg6)\n            %6 = affine.load %1[%4, %5] : memref<256x64xi32>\n            %7 = affine.load %0[%arg5, %arg6] : memref<7x7xi32>\n            %8 = affine.load %alloc[%arg3, %arg4] : memref<250x58xi32>\n            %9 = arith.muli %6, %7 : i32\n            %10 = arith.addi %8, %9 : i32\n            affine.store %10, %alloc[%arg3, %arg4] : memref<250x58xi32>\n          }\n        }\n      }\n    }\n    %3 = bufferization.to_tensor %alloc : memref<250x58xi32>\n    return %3 : tensor<250x58xi32>\n  }\n}\n\n", "transform_wrapped_operation": "func.func private @nanoTime() -> i64 attributes { llvm.emit_c_interface }\nfunc.func private @printI64(i64)\nfunc.func private @printMemrefF32(tensor<*xf32>)\n\n\nfunc.func @func_call(%input: tensor<256x64xi32>, %filter: tensor<7x7xi32>, %output: tensor<250x58xi32>) -> tensor<250x58xi32> {\n  %ret = linalg.conv_2d ins(%input, %filter: tensor<256x64xi32>, tensor<7x7xi32>) outs(%output: tensor<250x58xi32>) -> tensor<250x58xi32>\n  return %ret : tensor<250x58xi32>\n}\n\nfunc.func @main() -> i64 {\n  %c7 = arith.constant 7 : index\n  %c58 = arith.constant 58 : index\n  %c64 = arith.constant 64 : index\n  %c250 = arith.constant 250 : index\n  %c256 = arith.constant 256 : index\n  %input_temp = bufferization.alloc_tensor(%c256, %c64) : tensor<?x?xi32>\n  %input = tensor.cast %input_temp : tensor<?x?xi32> to tensor<256x64xi32>\n  %filter_temp = bufferization.alloc_tensor(%c7, %c7) : tensor<?x?xi32>\n  %filter = tensor.cast %filter_temp : tensor<?x?xi32> to tensor<7x7xi32>\n  %output_temp = bufferization.alloc_tensor(%c250, %c58) : tensor<?x?xi32>\n  %output = tensor.cast %output_temp : tensor<?x?xi32> to tensor<250x58xi32>\n  %t0 = func.call @nanoTime() : () -> (i64)\n  %ret_arg = func.call @func_call(%input, %filter, %output) : (tensor<256x64xi32>, tensor<7x7xi32>, tensor<250x58xi32>) -> (tensor<250x58xi32>)  %t1 = func.call @nanoTime() : () -> (i64)\n  %delta = arith.subi %t1, %t0 : i64\n  return %delta : i64\n}", "loops_data": {"nested_loops": [["%arg3", 0, 250, 1], ["%arg4", 0, 58, 1], ["%arg5", 0, 7, 1], ["%arg6", 0, 7, 1]], "op_count": {"+": 0, "-": 0, "*": 0, "/": 0, "exp": 0}, "load_data": [["%arg3 + %arg5", "%arg4 + %arg6"], ["%arg5", "%arg6"], ["%arg3", "%arg4"]], "store_data": ["%arg3", "%arg4"]}}, "linalg.conv_2d ins(%input, %filter: tensor<128x512xi32>, tensor<7x7xi32>) outs(%output: tensor<122x506xi32>) -> tensor<122x506xi32>_35": {"operation": "linalg.conv_2d ins(%input, %filter: tensor<128x512xi32>, tensor<7x7xi32>) outs(%output: tensor<122x506xi32>) -> tensor<122x506xi32>", "wrapped_operation": "func.func @func_call(%input: tensor<128x512xi32>, %filter: tensor<7x7xi32>, %output: tensor<122x506xi32>) -> tensor<122x506xi32> {\n  %ret = linalg.conv_2d ins(%input, %filter: tensor<128x512xi32>, tensor<7x7xi32>) outs(%output: tensor<122x506xi32>) -> tensor<122x506xi32>\n  return %ret : tensor<122x506xi32>\n}", "lowered_operation": "#map = affine_map<(d0, d1) -> (d0 + d1)>\nmodule {\n  func.func @func_call(%arg0: tensor<128x512xi32>, %arg1: tensor<7x7xi32>, %arg2: tensor<122x506xi32>) -> tensor<122x506xi32> {\n    %0 = bufferization.to_memref %arg1 : memref<7x7xi32>\n    %1 = bufferization.to_memref %arg0 : memref<128x512xi32>\n    %2 = bufferization.to_memref %arg2 : memref<122x506xi32>\n    %alloc = memref.alloc() {alignment = 64 : i64} : memref<122x506xi32>\n    memref.copy %2, %alloc : memref<122x506xi32> to memref<122x506xi32>\n    affine.for %arg3 = 0 to 122 {\n      affine.for %arg4 = 0 to 506 {\n        affine.for %arg5 = 0 to 7 {\n          affine.for %arg6 = 0 to 7 {\n            %4 = affine.apply #map(%arg3, %arg5)\n            %5 = affine.apply #map(%arg4, %arg6)\n            %6 = affine.load %1[%4, %5] : memref<128x512xi32>\n            %7 = affine.load %0[%arg5, %arg6] : memref<7x7xi32>\n            %8 = affine.load %alloc[%arg3, %arg4] : memref<122x506xi32>\n            %9 = arith.muli %6, %7 : i32\n            %10 = arith.addi %8, %9 : i32\n            affine.store %10, %alloc[%arg3, %arg4] : memref<122x506xi32>\n          }\n        }\n      }\n    }\n    %3 = bufferization.to_tensor %alloc : memref<122x506xi32>\n    return %3 : tensor<122x506xi32>\n  }\n}\n\n", "transform_wrapped_operation": "func.func private @nanoTime() -> i64 attributes { llvm.emit_c_interface }\nfunc.func private @printI64(i64)\nfunc.func private @printMemrefF32(tensor<*xf32>)\n\n\nfunc.func @func_call(%input: tensor<128x512xi32>, %filter: tensor<7x7xi32>, %output: tensor<122x506xi32>) -> tensor<122x506xi32> {\n  %ret = linalg.conv_2d ins(%input, %filter: tensor<128x512xi32>, tensor<7x7xi32>) outs(%output: tensor<122x506xi32>) -> tensor<122x506xi32>\n  return %ret : tensor<122x506xi32>\n}\n\nfunc.func @main() -> i64 {\n  %c7 = arith.constant 7 : index\n  %c122 = arith.constant 122 : index\n  %c128 = arith.constant 128 : index\n  %c506 = arith.constant 506 : index\n  %c512 = arith.constant 512 : index\n  %input_temp = bufferization.alloc_tensor(%c128, %c512) : tensor<?x?xi32>\n  %input = tensor.cast %input_temp : tensor<?x?xi32> to tensor<128x512xi32>\n  %filter_temp = bufferization.alloc_tensor(%c7, %c7) : tensor<?x?xi32>\n  %filter = tensor.cast %filter_temp : tensor<?x?xi32> to tensor<7x7xi32>\n  %output_temp = bufferization.alloc_tensor(%c122, %c506) : tensor<?x?xi32>\n  %output = tensor.cast %output_temp : tensor<?x?xi32> to tensor<122x506xi32>\n  %t0 = func.call @nanoTime() : () -> (i64)\n  %ret_arg = func.call @func_call(%input, %filter, %output) : (tensor<128x512xi32>, tensor<7x7xi32>, tensor<122x506xi32>) -> (tensor<122x506xi32>)  %t1 = func.call @nanoTime() : () -> (i64)\n  %delta = arith.subi %t1, %t0 : i64\n  return %delta : i64\n}", "loops_data": {"nested_loops": [["%arg3", 0, 122, 1], ["%arg4", 0, 506, 1], ["%arg5", 0, 7, 1], ["%arg6", 0, 7, 1]], "op_count": {"+": 0, "-": 0, "*": 0, "/": 0, "exp": 0}, "load_data": [["%arg3 + %arg5", "%arg4 + %arg6"], ["%arg5", "%arg6"], ["%arg3", "%arg4"]], "store_data": ["%arg3", "%arg4"]}}, "linalg.conv_2d ins(%input, %filter: tensor<64x512xi32>, tensor<5x5xi32>) outs(%output: tensor<60x508xi32>) -> tensor<60x508xi32>_36": {"operation": "linalg.conv_2d ins(%input, %filter: tensor<64x512xi32>, tensor<5x5xi32>) outs(%output: tensor<60x508xi32>) -> tensor<60x508xi32>", "wrapped_operation": "func.func @func_call(%input: tensor<64x512xi32>, %filter: tensor<5x5xi32>, %output: tensor<60x508xi32>) -> tensor<60x508xi32> {\n  %ret = linalg.conv_2d ins(%input, %filter: tensor<64x512xi32>, tensor<5x5xi32>) outs(%output: tensor<60x508xi32>) -> tensor<60x508xi32>\n  return %ret : tensor<60x508xi32>\n}", "lowered_operation": "#map = affine_map<(d0, d1) -> (d0 + d1)>\nmodule {\n  func.func @func_call(%arg0: tensor<64x512xi32>, %arg1: tensor<5x5xi32>, %arg2: tensor<60x508xi32>) -> tensor<60x508xi32> {\n    %0 = bufferization.to_memref %arg1 : memref<5x5xi32>\n    %1 = bufferization.to_memref %arg0 : memref<64x512xi32>\n    %2 = bufferization.to_memref %arg2 : memref<60x508xi32>\n    %alloc = memref.alloc() {alignment = 64 : i64} : memref<60x508xi32>\n    memref.copy %2, %alloc : memref<60x508xi32> to memref<60x508xi32>\n    affine.for %arg3 = 0 to 60 {\n      affine.for %arg4 = 0 to 508 {\n        affine.for %arg5 = 0 to 5 {\n          affine.for %arg6 = 0 to 5 {\n            %4 = affine.apply #map(%arg3, %arg5)\n            %5 = affine.apply #map(%arg4, %arg6)\n            %6 = affine.load %1[%4, %5] : memref<64x512xi32>\n            %7 = affine.load %0[%arg5, %arg6] : memref<5x5xi32>\n            %8 = affine.load %alloc[%arg3, %arg4] : memref<60x508xi32>\n            %9 = arith.muli %6, %7 : i32\n            %10 = arith.addi %8, %9 : i32\n            affine.store %10, %alloc[%arg3, %arg4] : memref<60x508xi32>\n          }\n        }\n      }\n    }\n    %3 = bufferization.to_tensor %alloc : memref<60x508xi32>\n    return %3 : tensor<60x508xi32>\n  }\n}\n\n", "transform_wrapped_operation": "func.func private @nanoTime() -> i64 attributes { llvm.emit_c_interface }\nfunc.func private @printI64(i64)\nfunc.func private @printMemrefF32(tensor<*xf32>)\n\n\nfunc.func @func_call(%input: tensor<64x512xi32>, %filter: tensor<5x5xi32>, %output: tensor<60x508xi32>) -> tensor<60x508xi32> {\n  %ret = linalg.conv_2d ins(%input, %filter: tensor<64x512xi32>, tensor<5x5xi32>) outs(%output: tensor<60x508xi32>) -> tensor<60x508xi32>\n  return %ret : tensor<60x508xi32>\n}\n\nfunc.func @main() -> i64 {\n  %c5 = arith.constant 5 : index\n  %c60 = arith.constant 60 : index\n  %c64 = arith.constant 64 : index\n  %c508 = arith.constant 508 : index\n  %c512 = arith.constant 512 : index\n  %input_temp = bufferization.alloc_tensor(%c64, %c512) : tensor<?x?xi32>\n  %input = tensor.cast %input_temp : tensor<?x?xi32> to tensor<64x512xi32>\n  %filter_temp = bufferization.alloc_tensor(%c5, %c5) : tensor<?x?xi32>\n  %filter = tensor.cast %filter_temp : tensor<?x?xi32> to tensor<5x5xi32>\n  %output_temp = bufferization.alloc_tensor(%c60, %c508) : tensor<?x?xi32>\n  %output = tensor.cast %output_temp : tensor<?x?xi32> to tensor<60x508xi32>\n  %t0 = func.call @nanoTime() : () -> (i64)\n  %ret_arg = func.call @func_call(%input, %filter, %output) : (tensor<64x512xi32>, tensor<5x5xi32>, tensor<60x508xi32>) -> (tensor<60x508xi32>)  %t1 = func.call @nanoTime() : () -> (i64)\n  %delta = arith.subi %t1, %t0 : i64\n  return %delta : i64\n}", "loops_data": {"nested_loops": [["%arg3", 0, 60, 1], ["%arg4", 0, 508, 1], ["%arg5", 0, 5, 1], ["%arg6", 0, 5, 1]], "op_count": {"+": 0, "-": 0, "*": 0, "/": 0, "exp": 0}, "load_data": [["%arg3 + %arg5", "%arg4 + %arg6"], ["%arg5", "%arg6"], ["%arg3", "%arg4"]], "store_data": ["%arg3", "%arg4"]}}, "linalg.conv_2d ins(%input, %filter: tensor<128x128xi32>, tensor<3x3xi32>) outs(%output: tensor<126x126xi32>) -> tensor<126x126xi32>_37": {"operation": "linalg.conv_2d ins(%input, %filter: tensor<128x128xi32>, tensor<3x3xi32>) outs(%output: tensor<126x126xi32>) -> tensor<126x126xi32>", "wrapped_operation": "func.func @func_call(%input: tensor<128x128xi32>, %filter: tensor<3x3xi32>, %output: tensor<126x126xi32>) -> tensor<126x126xi32> {\n  %ret = linalg.conv_2d ins(%input, %filter: tensor<128x128xi32>, tensor<3x3xi32>) outs(%output: tensor<126x126xi32>) -> tensor<126x126xi32>\n  return %ret : tensor<126x126xi32>\n}", "lowered_operation": "#map = affine_map<(d0, d1) -> (d0 + d1)>\nmodule {\n  func.func @func_call(%arg0: tensor<128x128xi32>, %arg1: tensor<3x3xi32>, %arg2: tensor<126x126xi32>) -> tensor<126x126xi32> {\n    %0 = bufferization.to_memref %arg1 : memref<3x3xi32>\n    %1 = bufferization.to_memref %arg0 : memref<128x128xi32>\n    %2 = bufferization.to_memref %arg2 : memref<126x126xi32>\n    %alloc = memref.alloc() {alignment = 64 : i64} : memref<126x126xi32>\n    memref.copy %2, %alloc : memref<126x126xi32> to memref<126x126xi32>\n    affine.for %arg3 = 0 to 126 {\n      affine.for %arg4 = 0 to 126 {\n        affine.for %arg5 = 0 to 3 {\n          affine.for %arg6 = 0 to 3 {\n            %4 = affine.apply #map(%arg3, %arg5)\n            %5 = affine.apply #map(%arg4, %arg6)\n            %6 = affine.load %1[%4, %5] : memref<128x128xi32>\n            %7 = affine.load %0[%arg5, %arg6] : memref<3x3xi32>\n            %8 = affine.load %alloc[%arg3, %arg4] : memref<126x126xi32>\n            %9 = arith.muli %6, %7 : i32\n            %10 = arith.addi %8, %9 : i32\n            affine.store %10, %alloc[%arg3, %arg4] : memref<126x126xi32>\n          }\n        }\n      }\n    }\n    %3 = bufferization.to_tensor %alloc : memref<126x126xi32>\n    return %3 : tensor<126x126xi32>\n  }\n}\n\n", "transform_wrapped_operation": "func.func private @nanoTime() -> i64 attributes { llvm.emit_c_interface }\nfunc.func private @printI64(i64)\nfunc.func private @printMemrefF32(tensor<*xf32>)\n\n\nfunc.func @func_call(%input: tensor<128x128xi32>, %filter: tensor<3x3xi32>, %output: tensor<126x126xi32>) -> tensor<126x126xi32> {\n  %ret = linalg.conv_2d ins(%input, %filter: tensor<128x128xi32>, tensor<3x3xi32>) outs(%output: tensor<126x126xi32>) -> tensor<126x126xi32>\n  return %ret : tensor<126x126xi32>\n}\n\nfunc.func @main() -> i64 {\n  %c3 = arith.constant 3 : index\n  %c126 = arith.constant 126 : index\n  %c128 = arith.constant 128 : index\n  %input_temp = bufferization.alloc_tensor(%c128, %c128) : tensor<?x?xi32>\n  %input = tensor.cast %input_temp : tensor<?x?xi32> to tensor<128x128xi32>\n  %filter_temp = bufferization.alloc_tensor(%c3, %c3) : tensor<?x?xi32>\n  %filter = tensor.cast %filter_temp : tensor<?x?xi32> to tensor<3x3xi32>\n  %output_temp = bufferization.alloc_tensor(%c126, %c126) : tensor<?x?xi32>\n  %output = tensor.cast %output_temp : tensor<?x?xi32> to tensor<126x126xi32>\n  %t0 = func.call @nanoTime() : () -> (i64)\n  %ret_arg = func.call @func_call(%input, %filter, %output) : (tensor<128x128xi32>, tensor<3x3xi32>, tensor<126x126xi32>) -> (tensor<126x126xi32>)  %t1 = func.call @nanoTime() : () -> (i64)\n  %delta = arith.subi %t1, %t0 : i64\n  return %delta : i64\n}", "loops_data": {"nested_loops": [["%arg3", 0, 126, 1], ["%arg4", 0, 126, 1], ["%arg5", 0, 3, 1], ["%arg6", 0, 3, 1]], "op_count": {"+": 0, "-": 0, "*": 0, "/": 0, "exp": 0}, "load_data": [["%arg3 + %arg5", "%arg4 + %arg6"], ["%arg5", "%arg6"], ["%arg3", "%arg4"]], "store_data": ["%arg3", "%arg4"]}}, "linalg.conv_2d ins(%input, %filter: tensor<512x512xi32>, tensor<7x7xi32>) outs(%output: tensor<506x506xi32>) -> tensor<506x506xi32>_38": {"operation": "linalg.conv_2d ins(%input, %filter: tensor<512x512xi32>, tensor<7x7xi32>) outs(%output: tensor<506x506xi32>) -> tensor<506x506xi32>", "wrapped_operation": "func.func @func_call(%input: tensor<512x512xi32>, %filter: tensor<7x7xi32>, %output: tensor<506x506xi32>) -> tensor<506x506xi32> {\n  %ret = linalg.conv_2d ins(%input, %filter: tensor<512x512xi32>, tensor<7x7xi32>) outs(%output: tensor<506x506xi32>) -> tensor<506x506xi32>\n  return %ret : tensor<506x506xi32>\n}", "lowered_operation": "#map = affine_map<(d0, d1) -> (d0 + d1)>\nmodule {\n  func.func @func_call(%arg0: tensor<512x512xi32>, %arg1: tensor<7x7xi32>, %arg2: tensor<506x506xi32>) -> tensor<506x506xi32> {\n    %0 = bufferization.to_memref %arg1 : memref<7x7xi32>\n    %1 = bufferization.to_memref %arg0 : memref<512x512xi32>\n    %2 = bufferization.to_memref %arg2 : memref<506x506xi32>\n    %alloc = memref.alloc() {alignment = 64 : i64} : memref<506x506xi32>\n    memref.copy %2, %alloc : memref<506x506xi32> to memref<506x506xi32>\n    affine.for %arg3 = 0 to 506 {\n      affine.for %arg4 = 0 to 506 {\n        affine.for %arg5 = 0 to 7 {\n          affine.for %arg6 = 0 to 7 {\n            %4 = affine.apply #map(%arg3, %arg5)\n            %5 = affine.apply #map(%arg4, %arg6)\n            %6 = affine.load %1[%4, %5] : memref<512x512xi32>\n            %7 = affine.load %0[%arg5, %arg6] : memref<7x7xi32>\n            %8 = affine.load %alloc[%arg3, %arg4] : memref<506x506xi32>\n            %9 = arith.muli %6, %7 : i32\n            %10 = arith.addi %8, %9 : i32\n            affine.store %10, %alloc[%arg3, %arg4] : memref<506x506xi32>\n          }\n        }\n      }\n    }\n    %3 = bufferization.to_tensor %alloc : memref<506x506xi32>\n    return %3 : tensor<506x506xi32>\n  }\n}\n\n", "transform_wrapped_operation": "func.func private @nanoTime() -> i64 attributes { llvm.emit_c_interface }\nfunc.func private @printI64(i64)\nfunc.func private @printMemrefF32(tensor<*xf32>)\n\n\nfunc.func @func_call(%input: tensor<512x512xi32>, %filter: tensor<7x7xi32>, %output: tensor<506x506xi32>) -> tensor<506x506xi32> {\n  %ret = linalg.conv_2d ins(%input, %filter: tensor<512x512xi32>, tensor<7x7xi32>) outs(%output: tensor<506x506xi32>) -> tensor<506x506xi32>\n  return %ret : tensor<506x506xi32>\n}\n\nfunc.func @main() -> i64 {\n  %c7 = arith.constant 7 : index\n  %c506 = arith.constant 506 : index\n  %c512 = arith.constant 512 : index\n  %input_temp = bufferization.alloc_tensor(%c512, %c512) : tensor<?x?xi32>\n  %input = tensor.cast %input_temp : tensor<?x?xi32> to tensor<512x512xi32>\n  %filter_temp = bufferization.alloc_tensor(%c7, %c7) : tensor<?x?xi32>\n  %filter = tensor.cast %filter_temp : tensor<?x?xi32> to tensor<7x7xi32>\n  %output_temp = bufferization.alloc_tensor(%c506, %c506) : tensor<?x?xi32>\n  %output = tensor.cast %output_temp : tensor<?x?xi32> to tensor<506x506xi32>\n  %t0 = func.call @nanoTime() : () -> (i64)\n  %ret_arg = func.call @func_call(%input, %filter, %output) : (tensor<512x512xi32>, tensor<7x7xi32>, tensor<506x506xi32>) -> (tensor<506x506xi32>)  %t1 = func.call @nanoTime() : () -> (i64)\n  %delta = arith.subi %t1, %t0 : i64\n  return %delta : i64\n}", "loops_data": {"nested_loops": [["%arg3", 0, 506, 1], ["%arg4", 0, 506, 1], ["%arg5", 0, 7, 1], ["%arg6", 0, 7, 1]], "op_count": {"+": 0, "-": 0, "*": 0, "/": 0, "exp": 0}, "load_data": [["%arg3 + %arg5", "%arg4 + %arg6"], ["%arg5", "%arg6"], ["%arg3", "%arg4"]], "store_data": ["%arg3", "%arg4"]}}, "linalg.conv_2d ins(%input, %filter: tensor<1024x1024xi32>, tensor<7x7xi32>) outs(%output: tensor<1018x1018xi32>) -> tensor<1018x1018xi32>_39": {"operation": "linalg.conv_2d ins(%input, %filter: tensor<1024x1024xi32>, tensor<7x7xi32>) outs(%output: tensor<1018x1018xi32>) -> tensor<1018x1018xi32>", "wrapped_operation": "func.func @func_call(%input: tensor<1024x1024xi32>, %filter: tensor<7x7xi32>, %output: tensor<1018x1018xi32>) -> tensor<1018x1018xi32> {\n  %ret = linalg.conv_2d ins(%input, %filter: tensor<1024x1024xi32>, tensor<7x7xi32>) outs(%output: tensor<1018x1018xi32>) -> tensor<1018x1018xi32>\n  return %ret : tensor<1018x1018xi32>\n}", "lowered_operation": "#map = affine_map<(d0, d1) -> (d0 + d1)>\nmodule {\n  func.func @func_call(%arg0: tensor<1024x1024xi32>, %arg1: tensor<7x7xi32>, %arg2: tensor<1018x1018xi32>) -> tensor<1018x1018xi32> {\n    %0 = bufferization.to_memref %arg1 : memref<7x7xi32>\n    %1 = bufferization.to_memref %arg0 : memref<1024x1024xi32>\n    %2 = bufferization.to_memref %arg2 : memref<1018x1018xi32>\n    %alloc = memref.alloc() {alignment = 64 : i64} : memref<1018x1018xi32>\n    memref.copy %2, %alloc : memref<1018x1018xi32> to memref<1018x1018xi32>\n    affine.for %arg3 = 0 to 1018 {\n      affine.for %arg4 = 0 to 1018 {\n        affine.for %arg5 = 0 to 7 {\n          affine.for %arg6 = 0 to 7 {\n            %4 = affine.apply #map(%arg3, %arg5)\n            %5 = affine.apply #map(%arg4, %arg6)\n            %6 = affine.load %1[%4, %5] : memref<1024x1024xi32>\n            %7 = affine.load %0[%arg5, %arg6] : memref<7x7xi32>\n            %8 = affine.load %alloc[%arg3, %arg4] : memref<1018x1018xi32>\n            %9 = arith.muli %6, %7 : i32\n            %10 = arith.addi %8, %9 : i32\n            affine.store %10, %alloc[%arg3, %arg4] : memref<1018x1018xi32>\n          }\n        }\n      }\n    }\n    %3 = bufferization.to_tensor %alloc : memref<1018x1018xi32>\n    return %3 : tensor<1018x1018xi32>\n  }\n}\n\n", "transform_wrapped_operation": "func.func private @nanoTime() -> i64 attributes { llvm.emit_c_interface }\nfunc.func private @printI64(i64)\nfunc.func private @printMemrefF32(tensor<*xf32>)\n\n\nfunc.func @func_call(%input: tensor<1024x1024xi32>, %filter: tensor<7x7xi32>, %output: tensor<1018x1018xi32>) -> tensor<1018x1018xi32> {\n  %ret = linalg.conv_2d ins(%input, %filter: tensor<1024x1024xi32>, tensor<7x7xi32>) outs(%output: tensor<1018x1018xi32>) -> tensor<1018x1018xi32>\n  return %ret : tensor<1018x1018xi32>\n}\n\nfunc.func @main() -> i64 {\n  %c7 = arith.constant 7 : index\n  %c1018 = arith.constant 1018 : index\n  %c1024 = arith.constant 1024 : index\n  %input_temp = bufferization.alloc_tensor(%c1024, %c1024) : tensor<?x?xi32>\n  %input = tensor.cast %input_temp : tensor<?x?xi32> to tensor<1024x1024xi32>\n  %filter_temp = bufferization.alloc_tensor(%c7, %c7) : tensor<?x?xi32>\n  %filter = tensor.cast %filter_temp : tensor<?x?xi32> to tensor<7x7xi32>\n  %output_temp = bufferization.alloc_tensor(%c1018, %c1018) : tensor<?x?xi32>\n  %output = tensor.cast %output_temp : tensor<?x?xi32> to tensor<1018x1018xi32>\n  %t0 = func.call @nanoTime() : () -> (i64)\n  %ret_arg = func.call @func_call(%input, %filter, %output) : (tensor<1024x1024xi32>, tensor<7x7xi32>, tensor<1018x1018xi32>) -> (tensor<1018x1018xi32>)  %t1 = func.call @nanoTime() : () -> (i64)\n  %delta = arith.subi %t1, %t0 : i64\n  return %delta : i64\n}", "loops_data": {"nested_loops": [["%arg3", 0, 1018, 1], ["%arg4", 0, 1018, 1], ["%arg5", 0, 7, 1], ["%arg6", 0, 7, 1]], "op_count": {"+": 0, "-": 0, "*": 0, "/": 0, "exp": 0}, "load_data": [["%arg3 + %arg5", "%arg4 + %arg6"], ["%arg5", "%arg6"], ["%arg3", "%arg4"]], "store_data": ["%arg3", "%arg4"]}}, "linalg.conv_2d ins(%input, %filter: tensor<512x64xi32>, tensor<7x7xi32>) outs(%output: tensor<506x58xi32>) -> tensor<506x58xi32>_40": {"operation": "linalg.conv_2d ins(%input, %filter: tensor<512x64xi32>, tensor<7x7xi32>) outs(%output: tensor<506x58xi32>) -> tensor<506x58xi32>", "wrapped_operation": "func.func @func_call(%input: tensor<512x64xi32>, %filter: tensor<7x7xi32>, %output: tensor<506x58xi32>) -> tensor<506x58xi32> {\n  %ret = linalg.conv_2d ins(%input, %filter: tensor<512x64xi32>, tensor<7x7xi32>) outs(%output: tensor<506x58xi32>) -> tensor<506x58xi32>\n  return %ret : tensor<506x58xi32>\n}", "lowered_operation": "#map = affine_map<(d0, d1) -> (d0 + d1)>\nmodule {\n  func.func @func_call(%arg0: tensor<512x64xi32>, %arg1: tensor<7x7xi32>, %arg2: tensor<506x58xi32>) -> tensor<506x58xi32> {\n    %0 = bufferization.to_memref %arg1 : memref<7x7xi32>\n    %1 = bufferization.to_memref %arg0 : memref<512x64xi32>\n    %2 = bufferization.to_memref %arg2 : memref<506x58xi32>\n    %alloc = memref.alloc() {alignment = 64 : i64} : memref<506x58xi32>\n    memref.copy %2, %alloc : memref<506x58xi32> to memref<506x58xi32>\n    affine.for %arg3 = 0 to 506 {\n      affine.for %arg4 = 0 to 58 {\n        affine.for %arg5 = 0 to 7 {\n          affine.for %arg6 = 0 to 7 {\n            %4 = affine.apply #map(%arg3, %arg5)\n            %5 = affine.apply #map(%arg4, %arg6)\n            %6 = affine.load %1[%4, %5] : memref<512x64xi32>\n            %7 = affine.load %0[%arg5, %arg6] : memref<7x7xi32>\n            %8 = affine.load %alloc[%arg3, %arg4] : memref<506x58xi32>\n            %9 = arith.muli %6, %7 : i32\n            %10 = arith.addi %8, %9 : i32\n            affine.store %10, %alloc[%arg3, %arg4] : memref<506x58xi32>\n          }\n        }\n      }\n    }\n    %3 = bufferization.to_tensor %alloc : memref<506x58xi32>\n    return %3 : tensor<506x58xi32>\n  }\n}\n\n", "transform_wrapped_operation": "func.func private @nanoTime() -> i64 attributes { llvm.emit_c_interface }\nfunc.func private @printI64(i64)\nfunc.func private @printMemrefF32(tensor<*xf32>)\n\n\nfunc.func @func_call(%input: tensor<512x64xi32>, %filter: tensor<7x7xi32>, %output: tensor<506x58xi32>) -> tensor<506x58xi32> {\n  %ret = linalg.conv_2d ins(%input, %filter: tensor<512x64xi32>, tensor<7x7xi32>) outs(%output: tensor<506x58xi32>) -> tensor<506x58xi32>\n  return %ret : tensor<506x58xi32>\n}\n\nfunc.func @main() -> i64 {\n  %c7 = arith.constant 7 : index\n  %c58 = arith.constant 58 : index\n  %c64 = arith.constant 64 : index\n  %c506 = arith.constant 506 : index\n  %c512 = arith.constant 512 : index\n  %input_temp = bufferization.alloc_tensor(%c512, %c64) : tensor<?x?xi32>\n  %input = tensor.cast %input_temp : tensor<?x?xi32> to tensor<512x64xi32>\n  %filter_temp = bufferization.alloc_tensor(%c7, %c7) : tensor<?x?xi32>\n  %filter = tensor.cast %filter_temp : tensor<?x?xi32> to tensor<7x7xi32>\n  %output_temp = bufferization.alloc_tensor(%c506, %c58) : tensor<?x?xi32>\n  %output = tensor.cast %output_temp : tensor<?x?xi32> to tensor<506x58xi32>\n  %t0 = func.call @nanoTime() : () -> (i64)\n  %ret_arg = func.call @func_call(%input, %filter, %output) : (tensor<512x64xi32>, tensor<7x7xi32>, tensor<506x58xi32>) -> (tensor<506x58xi32>)  %t1 = func.call @nanoTime() : () -> (i64)\n  %delta = arith.subi %t1, %t0 : i64\n  return %delta : i64\n}", "loops_data": {"nested_loops": [["%arg3", 0, 506, 1], ["%arg4", 0, 58, 1], ["%arg5", 0, 7, 1], ["%arg6", 0, 7, 1]], "op_count": {"+": 0, "-": 0, "*": 0, "/": 0, "exp": 0}, "load_data": [["%arg3 + %arg5", "%arg4 + %arg6"], ["%arg5", "%arg6"], ["%arg3", "%arg4"]], "store_data": ["%arg3", "%arg4"]}}, "linalg.conv_2d ins(%input, %filter: tensor<256x32xi32>, tensor<5x5xi32>) outs(%output: tensor<252x28xi32>) -> tensor<252x28xi32>_41": {"operation": "linalg.conv_2d ins(%input, %filter: tensor<256x32xi32>, tensor<5x5xi32>) outs(%output: tensor<252x28xi32>) -> tensor<252x28xi32>", "wrapped_operation": "func.func @func_call(%input: tensor<256x32xi32>, %filter: tensor<5x5xi32>, %output: tensor<252x28xi32>) -> tensor<252x28xi32> {\n  %ret = linalg.conv_2d ins(%input, %filter: tensor<256x32xi32>, tensor<5x5xi32>) outs(%output: tensor<252x28xi32>) -> tensor<252x28xi32>\n  return %ret : tensor<252x28xi32>\n}", "lowered_operation": "#map = affine_map<(d0, d1) -> (d0 + d1)>\nmodule {\n  func.func …
x128xf32>, %arg1: tensor<5x5x5xf32>, %arg2: tensor<508x508x124xf32>) -> tensor<508x508x124xf32> {\n    %0 = bufferization.to_memref %arg1 : memref<5x5x5xf32>\n    %1 = bufferization.to_memref %arg0 : memref<512x512x128xf32>\n    %2 = bufferization.to_memref %arg2 : memref<508x508x124xf32>\n    %alloc = memref.alloc() {alignment = 64 : i64} : memref<508x508x124xf32>\n    memref.copy %2, %alloc : memref<508x508x124xf32> to memref<508x508x124xf32>\n    affine.for %arg3 = 0 to 508 {\n      affine.for %arg4 = 0 to 508 {\n        affine.for %arg5 = 0 to 124 {\n          affine.for %arg6 = 0 to 5 {\n            affine.for %arg7 = 0 to 5 {\n              affine.for %arg8 = 0 to 5 {\n                %4 = affine.apply #map(%arg3, %arg6)\n                %5 = affine.apply #map(%arg4, %arg7)\n                %6 = affine.apply #map(%arg5, %arg8)\n                %7 = affine.load %1[%4, %5, %6] : memref<512x512x128xf32>\n                %8 = affine.load %0[%arg6, %arg7, %arg8] : memref<5x5x5xf32>\n                %9 = affine.load %alloc[%arg3, %arg4, %arg5] : memref<508x508x124xf32>\n                %10 = arith.mulf %7, %8 : f32\n                %11 = arith.addf %9, %10 : f32\n                affine.store %11, %alloc[%arg3, %arg4, %arg5] : memref<508x508x124xf32>\n              }\n            }\n          }\n        }\n      }\n    }\n    %3 = bufferization.to_tensor %alloc : memref<508x508x124xf32>\n    return %3 : tensor<508x508x124xf32>\n  }\n}\n\n", "transform_wrapped_operation": "func.func private @nanoTime() -> i64 attributes { llvm.emit_c_interface }\nfunc.func private @printI64(i64)\nfunc.func private @printMemrefF32(tensor<*xf32>)\n\n\nfunc.func @func_call(%input: tensor<512x512x128xf32>, %filter: tensor<5x5x5xf32>, %output: tensor<508x508x124xf32>) -> tensor<508x508x124xf32> {\n  %ret = linalg.conv_3d ins(%input, %filter: tensor<512x512x128xf32>, tensor<5x5x5xf32>) outs(%output: tensor<508x508x124xf32>) -> tensor<508x508x124xf32>\n  return %ret : tensor<508x508x124xf32>\n}\n\nfunc.func @main() -> i64 {\n  %c5 = arith.constant 5 : index\n  %c124 = arith.constant 124 : index\n  %c128 = arith.constant 128 : index\n  %c508 = arith.constant 508 : index\n  %c512 = arith.constant 512 : index\n  %input_temp = bufferization.alloc_tensor(%c512, %c512, %c128) : tensor<?x?x?xf32>\n  %input = tensor.cast %input_temp : tensor<?x?x?xf32> to tensor<512x512x128xf32>\n  %filter_temp = bufferization.alloc_tensor(%c5, %c5, %c5) : tensor<?x?x?xf32>\n  %filter = tensor.cast %filter_temp : tensor<?x?x?xf32> to tensor<5x5x5xf32>\n  %output_temp = bufferization.alloc_tensor(%c508, %c508, %c124) : tensor<?x?x?xf32>\n  %output = tensor.cast %output_temp : tensor<?x?x?xf32> to tensor<508x508x124xf32>\n  %t0 = func.call @nanoTime() : () -> (i64)\n  %ret_arg = func.call @func_call(%input, %filter, %output) : (tensor<512x512x128xf32>, tensor<5x5x5xf32>, tensor<508x508x124xf32>) -> (tensor<508x508x124xf32>)  %t1 = func.call @nanoTime() : () -> (i64)\n  %delta = arith.subi %t1, %t0 : i64\n  return %delta : i64\n}", "loops_data": {"nested_loops": [["%arg3", 0, 508, 1], ["%arg4", 0, 508, 1], ["%arg5", 0, 124, 1], ["%arg6", 0, 5, 1], ["%arg7", 0, 5, 1], ["%arg8", 0, 5, 1]], "op_count": {"+": 1, "-": 0, "*": 1, "/": 0, "exp": 0}, "load_data": [["%arg3 + %arg6", "%arg4 + %arg7", "%arg5 + %arg8"], ["%arg6", "%arg7", "%arg8"], ["%arg3", "%arg4", "%arg5"]], "store_data": ["%arg3", "%arg4", "%arg5"]}}, "linalg.conv_3d ins(%input, %filter: tensor<512x1024x64xf32>, tensor<1x1x1xf32>) outs(%output: tensor<512x1024x64xf32>) -> tensor<512x1024x64xf32>_489": {"operation": "linalg.conv_3d ins(%input, %filter: tensor<512x1024x64xf32>, tensor<1x1x1xf32>) outs(%output: tensor<512x1024x64xf32>) -> tensor<512x1024x64xf32>", "wrapped_operation": "func.func @func_call(%input: tensor<512x1024x64xf32>, %filter: tensor<1x1x1xf32>, %output: tensor<512x1024x64xf32>) -> tensor<512x1024x64xf32> {\n  %ret = linalg.conv_3d ins(%input, %filter: tensor<512x1024x64xf32>, tensor<1x1x1xf32>) outs(%output: tensor<512x1024x64xf32>) -> tensor<512x1024x64xf32>\n  return %ret : tensor<512x1024x64xf32>\n}", "lowered_operation": "#map = affine_map<(d0, d1) -> (d0 + d1)>\nmodule {\n  func.func @func_call(%arg0: tensor<512x1024x64xf32>, %arg1: tensor<1x1x1xf32>, %arg2: tensor<512x1024x64xf32>) -> tensor<512x1024x64xf32> {\n    %0 = bufferization.to_memref %arg1 : memref<1x1x1xf32>\n    %1 = bufferization.to_memref %arg0 : memref<512x1024x64xf32>\n    %2 = bufferization.to_memref %arg2 : memref<512x1024x64xf32>\n    %alloc = memref.alloc() {alignment = 64 : i64} : memref<512x1024x64xf32>\n    memref.copy %2, %alloc : memref<512x1024x64xf32> to memref<512x1024x64xf32>\n    affine.for %arg3 = 0 to 512 {\n      affine.for %arg4 = 0 to 1024 {\n        affine.for %arg5 = 0 to 64 {\n          affine.for %arg6 = 0 to 1 {\n            affine.for %arg7 = 0 to 1 {\n              affine.for %arg8 = 0 to 1 {\n                %4 = affine.apply #map(%arg3, %arg6)\n                %5 = affine.apply #map(%arg4, %arg7)\n                %6 = affine.apply #map(%arg5, %arg8)\n                %7 = affine.load %1[%4, %5, %6] : memref<512x1024x64xf32>\n                %8 = affine.load %0[%arg6, %arg7, %arg8] : memref<1x1x1xf32>\n                %9 = affine.load %alloc[%arg3, %arg4, %arg5] : memref<512x1024x64xf32>\n                %10 = arith.mulf %7, %8 : f32\n                %11 = arith.addf %9, %10 : f32\n                affine.store %11, %alloc[%arg3, %arg4, %arg5] : memref<512x1024x64xf32>\n              }\n            }\n          }\n        }\n      }\n    }\n    %3 = bufferization.to_tensor %alloc : memref<512x1024x64xf32>\n    return %3 : tensor<512x1024x64xf32>\n  }\n}\n\n", "transform_wrapped_operation": "func.func private @nanoTime() -> i64 attributes { llvm.emit_c_interface }\nfunc.func private @printI64(i64)\nfunc.func private @printMemrefF32(tensor<*xf32>)\n\n\nfunc.func @func_call(%input: tensor<512x1024x64xf32>, %filter: tensor<1x1x1xf32>, %output: tensor<512x1024x64xf32>) -> tensor<512x1024x64xf32> {\n  %ret = linalg.conv_3d ins(%input, %filter: tensor<512x1024x64xf32>, tensor<1x1x1xf32>) outs(%output: tensor<512x1024x64xf32>) -> tensor<512x1024x64xf32>\n  return %ret : tensor<512x1024x64xf32>\n}\n\nfunc.func @main() -> i64 {\n  %c1 = arith.constant 1 : index\n  %c64 = arith.constant 64 : index\n  %c512 = arith.constant 512 : index\n  %c1024 = arith.constant 1024 : index\n  %input_temp = bufferization.alloc_tensor(%c512, %c1024, %c64) : tensor<?x?x?xf32>\n  %input = tensor.cast %input_temp : tensor<?x?x?xf32> to tensor<512x1024x64xf32>\n  %filter_temp = bufferization.alloc_tensor(%c1, %c1, %c1) : tensor<?x?x?xf32>\n  %filter = tensor.cast %filter_temp : tensor<?x?x?xf32> to tensor<1x1x1xf32>\n  %output_temp = bufferization.alloc_tensor(%c512, %c1024, %c64) : tensor<?x?x?xf32>\n  %output = tensor.cast %output_temp : tensor<?x?x?xf32> to tensor<512x1024x64xf32>\n  %t0 = func.call @nanoTime() : () -> (i64)\n  %ret_arg = func.call @func_call(%input, %filter, %output) : (tensor<512x1024x64xf32>, tensor<1x1x1xf32>, tensor<512x1024x64xf32>) -> (tensor<512x1024x64xf32>)  %t1 = func.call @nanoTime() : () -> (i64)\n  %delta = arith.subi %t1, %t0 : i64\n  return %delta : i64\n}", "loops_data": {"nested_loops": [["%arg3", 0, 512, 1], ["%arg4", 0, 1024, 1], ["%arg5", 0, 64, 1], ["%arg6", 0, 1, 1], ["%arg7", 0, 1, 1], ["%arg8", 0, 1, 1]], "op_count": {"+": 1, "-": 0, "*": 1, "/": 0, "exp": 0}, "load_data": [["%arg3 + %arg6", "%arg4 + %arg7", "%arg5 + %arg8"], ["%arg6", "%arg7", "%arg8"], ["%arg3", "%arg4", "%arg5"]], "store_data": ["%arg3", "%arg4", "%arg5"]}}, "linalg.conv_3d ins(%input, %filter: tensor<1024x256x256xf32>, tensor<5x5x5xf32>) outs(%output: tensor<1020x252x252xf32>) -> tensor<1020x252x252xf32>_490": {"operation": "linalg.conv_3d ins(%input, %filter: tensor<1024x256x256xf32>, tensor<5x5x5xf32>) outs(%output: tensor<1020x252x252xf32>) -> tensor<1020x252x252xf32>", "wrapped_operation": "func.func @func_call(%input: tensor<1024x256x256xf32>, %filter: tensor<5x5x5xf32>, %output: tensor<1020x252x252xf32>) -> tensor<1020x252x252xf32> {\n  %ret = linalg.conv_3d ins(%input, %filter: tensor<1024x256x256xf32>, tensor<5x5x5xf32>) outs(%output: tensor<1020x252x252xf32>) -> tensor<1020x252x252xf32>\n  return %ret : tensor<1020x252x252xf32>\n}", "lowered_operation": "#map = affine_map<(d0, d1) -> (d0 + d1)>\nmodule {\n  func.func @func_call(%arg0: tensor<1024x256x256xf32>, %arg1: tensor<5x5x5xf32>, %arg2: tensor<1020x252x252xf32>) -> tensor<1020x252x252xf32> {\n    %0 = bufferization.to_memref %arg1 : memref<5x5x5xf32>\n    %1 = bufferization.to_memref %arg0 : memref<1024x256x256xf32>\n    %2 = bufferization.to_memref %arg2 : memref<1020x252x252xf32>\n    %alloc = memref.alloc() {alignment = 64 : i64} : memref<1020x252x252xf32>\n    memref.copy %2, %alloc : memref<1020x252x252xf32> to memref<1020x252x252xf32>\n    affine.for %arg3 = 0 to 1020 {\n      affine.for %arg4 = 0 to 252 {\n        affine.for %arg5 = 0 to 252 {\n          affine.for %arg6 = 0 to 5 {\n            affine.for %arg7 = 0 to 5 {\n              affine.for %arg8 = 0 to 5 {\n                %4 = affine.apply #map(%arg3, %arg6)\n                %5 = affine.apply #map(%arg4, %arg7)\n                %6 = affine.apply #map(%arg5, %arg8)\n                %7 = affine.load %1[%4, %5, %6] : memref<1024x256x256xf32>\n                %8 = affine.load %0[%arg6, %arg7, %arg8] : memref<5x5x5xf32>\n                %9 = affine.load %alloc[%arg3, %arg4, %arg5] : memref<1020x252x252xf32>\n                %10 = arith.mulf %7, %8 : f32\n                %11 = arith.addf %9, %10 : f32\n                affine.store %11, %alloc[%arg3, %arg4, %arg5] : memref<1020x252x252xf32>\n              }\n            }\n          }\n        }\n      }\n    }\n    %3 = bufferization.to_tensor %alloc : memref<1020x252x252xf32>\n    return %3 : tensor<1020x252x252xf32>\n  }\n}\n\n", "transform_wrapped_operation": "func.func private @nanoTime() -> i64 attributes { llvm.emit_c_interface }\nfunc.func private @printI64(i64)\nfunc.func private @printMemrefF32(tensor<*xf32>)\n\n\nfunc.func @func_call(%input: tensor<1024x256x256xf32>, %filter: tensor<5x5x5xf32>, %output: tensor<1020x252x252xf32>) -> tensor<1020x252x252xf32> {\n  %ret = linalg.conv_3d ins(%input, %filter: tensor<1024x256x256xf32>, tensor<5x5x5xf32>) outs(%output: tensor<1020x252x252xf32>) -> tensor<1020x252x252xf32>\n  return %ret : tensor<1020x252x252xf32>\n}\n\nfunc.func @main() -> i64 {\n  %c5 = arith.constant 5 : index\n  %c252 = arith.constant 252 : index\n  %c256 = arith.constant 256 : index\n  %c1020 = arith.constant 1020 : index\n  %c1024 = arith.constant 1024 : index\n  %input_temp = bufferization.alloc_tensor(%c1024, %c256, %c256) : tensor<?x?x?xf32>\n  %input = tensor.cast %input_temp : tensor<?x?x?xf32> to tensor<1024x256x256xf32>\n  %filter_temp = bufferization.alloc_tensor(%c5, %c5, %c5) : tensor<?x?x?xf32>\n  %filter = tensor.cast %filter_temp : tensor<?x?x?xf32> to tensor<5x5x5xf32>\n  %output_temp = bufferization.alloc_tensor(%c1020, %c252, %c252) : tensor<?x?x?xf32>\n  %output = tensor.cast %output_temp : tensor<?x?x?xf32> to tensor<1020x252x252xf32>\n  %t0 = func.call @nanoTime() : () -> (i64)\n  %ret_arg = func.call @func_call(%input, %filter, %output) : (tensor<1024x256x256xf32>, tensor<5x5x5xf32>, tensor<1020x252x252xf32>) -> (tensor<1020x252x252xf32>)  %t1 = func.call @nanoTime() : () -> (i64)\n  %delta = arith.subi %t1, %t0 : i64\n  return %delta : i64\n}", "loops_data": {"nested_loops": [["%arg3", 0, 1020, 1], ["%arg4", 0, 252, 1], ["%arg5", 0, 252, 1], ["%arg6", 0, 5, 1], ["%arg7", 0, 5, 1], ["%arg8", 0, 5, 1]], "op_count": {"+": 1, "-": 0, "*": 1, "/": 0, "exp": 0}, "load_data": [["%arg3 + %arg6", "%arg4 + %arg7", "%arg5 + %arg8"], ["%arg6", "%arg7", "%arg8"], ["%arg3", "%arg4", "%arg5"]], "store_data": ["%arg3", "%arg4", "%arg5"]}}, "linalg.conv_3d ins(%input, %filter: tensor<32x64x1024xf32>, tensor<3x3x3xf32>) outs(%output: tensor<30x62x1022xf32>) -> tensor<30x62x1022xf32>_491": {"operation": "linalg.conv_3d ins(%input, %filter: tensor<32x64x1024xf32>, tensor<3x3x3xf32>) outs(%output: tensor<30x62x1022xf32>) -> tensor<30x62x1022xf32>", "wrapped_operation": "func.func @func_call(%input: tensor<32x64x1024xf32>, %filter: tensor<3x3x3xf32>, %output: tensor<30x62x1022xf32>) -> tensor<30x62x1022xf32> {\n  %ret = linalg.conv_3d ins(%input, %filter: tensor<32x64x1024xf32>, tensor<3x3x3xf32>) outs(%output: tensor<30x62x1022xf32>) -> tensor<30x62x1022xf32>\n  return %ret : tensor<30x62x1022xf32>\n}", "lowered_operation": "#map = affine_map<(d0, d1) -> (d0 + d1)>\nmodule {\n  func.func @func_call(%arg0: tensor<32x64x1024xf32>, %arg1: tensor<3x3x3xf32>, %arg2: tensor<30x62x1022xf32>) -> tensor<30x62x1022xf32> {\n    %0 = bufferization.to_memref %arg1 : memref<3x3x3xf32>\n    %1 = bufferization.to_memref %arg0 : memref<32x64x1024xf32>\n    %2 = bufferization.to_memref %arg2 : memref<30x62x1022xf32>\n    %alloc = memref.alloc() {alignment = 64 : i64} : memref<30x62x1022xf32>\n    memref.copy %2, %alloc : memref<30x62x1022xf32> to memref<30x62x1022xf32>\n    affine.for %arg3 = 0 to 30 {\n      affine.for %arg4 = 0 to 62 {\n        affine.for %arg5 = 0 to 1022 {\n          affine.for %arg6 = 0 to 3 {\n            affine.for %arg7 = 0 to 3 {\n              affine.for %arg8 = 0 to 3 {\n                %4 = affine.apply #map(%arg3, %arg6)\n                %5 = affine.apply #map(%arg4, %arg7)\n                %6 = affine.apply #map(%arg5, %arg8)\n                %7 = affine.load %1[%4, %5, %6] : memref<32x64x1024xf32>\n                %8 = affine.load %0[%arg6, %arg7, %arg8] : memref<3x3x3xf32>\n                %9 = affine.load %alloc[%arg3, %arg4, %arg5] : memref<30x62x1022xf32>\n                %10 = arith.mulf %7, %8 : f32\n                %11 = arith.addf %9, %10 : f32\n                affine.store %11, %alloc[%arg3, %arg4, %arg5] : memref<30x62x1022xf32>\n              }\n            }\n          }\n        }\n      }\n    }\n    %3 = bufferization.to_tensor %alloc : memref<30x62x1022xf32>\n    return %3 : tensor<30x62x1022xf32>\n  }\n}\n\n", "transform_wrapped_operation": "func.func private @nanoTime() -> i64 attributes { llvm.emit_c_interface }\nfunc.func private @printI64(i64)\nfunc.func private @printMemrefF32(tensor<*xf32>)\n\n\nfunc.func @func_call(%input: tensor<32x64x1024xf32>, %filter: tensor<3x3x3xf32>, %output: tensor<30x62x1022xf32>) -> tensor<30x62x1022xf32> {\n  %ret = linalg.conv_3d ins(%input, %filter: tensor<32x64x1024xf32>, tensor<3x3x3xf32>) outs(%output: tensor<30x62x1022xf32>) -> tensor<30x62x1022xf32>\n  return %ret : tensor<30x62x1022xf32>\n}\n\nfunc.func @main() -> i64 {\n  %c3 = arith.constant 3 : index\n  %c30 = arith.constant 30 : index\n  %c32 = arith.constant 32 : index\n  %c62 = arith.constant 62 : index\n  %c64 = arith.constant 64 : index\n  %c1022 = arith.constant 1022 : index\n  %c1024 = arith.constant 1024 : index\n  %input_temp = bufferization.alloc_tensor(%c32, %c64, %c1024) : tensor<?x?x?xf32>\n  %input = tensor.cast %input_temp : tensor<?x?x?xf32> to tensor<32x64x1024xf32>\n  %filter_temp = bufferization.alloc_tensor(%c3, %c3, %c3) : tensor<?x?x?xf32>\n  %filter = tensor.cast %filter_temp : tensor<?x?x?xf32> to tensor<3x3x3xf32>\n  %output_temp = bufferization.alloc_tensor(%c30, %c62, %c1022) : tensor<?x?x?xf32>\n  %output = tensor.cast %output_temp : tensor<?x?x?xf32> to tensor<30x62x1022xf32>\n  %t0 = func.call @nanoTime() : () -> (i64)\n  %ret_arg = func.call @func_call(%input, %filter, %output) : (tensor<32x64x1024xf32>, tensor<3x3x3xf32>, tensor<30x62x1022xf32>) -> (tensor<30x62x1022xf32>)  %t1 = func.call @nanoTime() : () -> (i64)\n  %delta = arith.subi %t1, %t0 : i64\n  return %delta : i64\n}", "loops_data": {"nested_loops": [["%arg3", 0, 30, 1], ["%arg4", 0, 62, 1], ["%arg5", 0, 1022, 1], ["%arg6", 0, 3, 1], ["%arg7", 0, 3, 1], ["%arg8", 0, 3, 1]], "op_count": {"+": 1, "-": 0, "*": 1, "/": 0, "exp": 0}, "load_data": [["%arg3 + %arg6", "%arg4 + %arg7", "%arg5 + %arg8"], ["%arg6", "%arg7", "%arg8"], ["%arg3", "%arg4", "%arg5"]], "store_data": ["%arg3", "%arg4", "%arg5"]}}, "linalg.conv_3d ins(%input, %filter: tensor<512x64x32xf32>, tensor<7x7x7xf32>) outs(%output: tensor<506x58x26xf32>) -> tensor<506x58x26xf32>_492": {"operation": "linalg.conv_3d ins(%input, %filter: tensor<512x64x32xf32>, tensor<7x7x7xf32>) outs(%output: tensor<506x58x26xf32>) -> tensor<506x58x26xf32>", "wrapped_operation": "func.func @func_call(%input: tensor<512x64x32xf32>, %filter: tensor<7x7x7xf32>, %output: tensor<506x58x26xf32>) -> tensor<506x58x26xf32> {\n  %ret = linalg.conv_3d ins(%input, %filter: tensor<512x64x32xf32>, tensor<7x7x7xf32>) outs(%output: tensor<506x58x26xf32>) -> tensor<506x58x26xf32>\n  return %ret : tensor<506x58x26xf32>\n}", "lowered_operation": "#map = affine_map<(d0, d1) -> (d0 + d1)>\nmodule {\n  func.func @func_call(%arg0: tensor<512x64x32xf32>, %arg1: tensor<7x7x7xf32>, %arg2: tensor<506x58x26xf32>) -> tensor<506x58x26xf32> {\n    %0 = bufferization.to_memref %arg1 : memref<7x7x7xf32>\n    %1 = bufferization.to_memref %arg0 : memref<512x64x32xf32>\n    %2 = bufferization.to_memref %arg2 : memref<506x58x26xf32>\n    %alloc = memref.alloc() {alignment = 64 : i64} : memref<506x58x26xf32>\n    memref.copy %2, %alloc : memref<506x58x26xf32> to memref<506x58x26xf32>\n    affine.for %arg3 = 0 to 506 {\n      affine.for %arg4 = 0 to 58 {\n        affine.for %arg5 = 0 to 26 {\n          affine.for %arg6 = 0 to 7 {\n            affine.for %arg7 = 0 to 7 {\n              affine.for %arg8 = 0 to 7 {\n                %4 = affine.apply #map(%arg3, %arg6)\n                %5 = affine.apply #map(%arg4, %arg7)\n                %6 = affine.apply #map(%arg5, %arg8)\n                %7 = affine.load %1[%4, %5, %6] : memref<512x64x32xf32>\n                %8 = affine.load %0[%arg6, %arg7, %arg8] : memref<7x7x7xf32>\n                %9 = affine.load %alloc[%arg3, %arg4, %arg5] : memref<506x58x26xf32>\n                %10 = arith.mulf %7, %8 : f32\n                %11 = arith.addf %9, %10 : f32\n                affine.store %11, %alloc[%arg3, %arg4, %arg5] : memref<506x58x26xf32>\n              }\n            }\n          }\n        }\n      }\n    }\n    %3 = bufferization.to_tensor %alloc : memref<506x58x26xf32>\n    return %3 : tensor<506x58x26xf32>\n  }\n}\n\n", "transform_wrapped_operation": "func.func private @nanoTime() -> i64 attributes { llvm.emit_c_interface }\nfunc.func private @printI64(i64)\nfunc.func private @printMemrefF32(tensor<*xf32>)\n\n\nfunc.func @func_call(%input: tensor<512x64x32xf32>, %filter: tensor<7x7x7xf32>, %output: tensor<506x58x26xf32>) -> tensor<506x58x26xf32> {\n  %ret = linalg.conv_3d ins(%input, %filter: tensor<512x64x32xf32>, tensor<7x7x7xf32>) outs(%output: tensor<506x58x26xf32>) -> tensor<506x58x26xf32>\n  return %ret : tensor<506x58x26xf32>\n}\n\nfunc.func @main() -> i64 {\n  %c7 = arith.constant 7 : index\n  %c26 = arith.constant 26 : index\n  %c32 = arith.constant 32 : index\n  %c58 = arith.constant 58 : index\n  %c64 = arith.constant 64 : index\n  %c506 = arith.constant 506 : index\n  %c512 = arith.constant 512 : index\n  %input_temp = bufferization.alloc_tensor(%c512, %c64, %c32) : tensor<?x?x?xf32>\n  %input = tensor.cast %input_temp : tensor<?x?x?xf32> to tensor<512x64x32xf32>\n  %filter_temp = bufferization.alloc_tensor(%c7, %c7, %c7) : tensor<?x?x?xf32>\n  %filter = tensor.cast %filter_temp : tensor<?x?x?xf32> to tensor<7x7x7xf32>\n  %output_temp = bufferization.alloc_tensor(%c506, %c58, %c26) : tensor<?x?x?xf32>\n  %output = tensor.cast %output_temp : tensor<?x?x?xf32> to tensor<506x58x26xf32>\n  %t0 = func.call @nanoTime() : () -> (i64)\n  %ret_arg = func.call @func_call(%input, %filter, %output) : (tensor<512x64x32xf32>, tensor<7x7x7xf32>, tensor<506x58x26xf32>) -> (tensor<506x58x26xf32>)  %t1 = func.call @nanoTime() : () -> (i64)\n  %delta = arith.subi %t1, %t0 : i64\n  return %delta : i64\n}", "loops_data": {"nested_loops": [["%arg3", 0, 506, 1], ["%arg4", 0, 58, 1], ["%arg5", 0, 26, 1], ["%arg6", 0, 7, 1], ["%arg7", 0, 7, 1], ["%arg8", 0, 7, 1]], "op_count": {"+": 1, "-": 0, "*": 1, "/": 0, "exp": 0}, "load_data": [["%arg3 + %arg6", "%arg4 + %arg7", "%arg5 + %arg8"], ["%arg6", "%arg7", "%arg8"], ["%arg3", "%arg4", "%arg5"]], "store_data": ["%arg3", "%arg4", "%arg5"]}}, "linalg.conv_3d ins(%input, %filter: tensor<512x128x32xf32>, tensor<5x5x5xf32>) outs(%output: tensor<508x124x28xf32>) -> tensor<508x124x28xf32>_493": {"operation": "linalg.conv_3d ins(%input, %filter: tensor<512x128x32xf32>, tensor<5x5x5xf32>) outs(%output: tensor<508x124x28xf32>) -> tensor<508x124x28xf32>", "wrapped_operation": "func.func @func_call(%input: tensor<512x128x32xf32>, %filter: tensor<5x5x5xf32>, %output: tensor<508x124x28xf32>) -> tensor<508x124x28xf32> {\n  %ret = linalg.conv_3d ins(%input, %filter: tensor<512x128x32xf32>, tensor<5x5x5xf32>) outs(%output: tensor<508x124x28xf32>) -> tensor<508x124x28xf32>\n  return %ret : tensor<508x124x28xf32>\n}", "lowered_operation": "#map = affine_map<(d0, d1) -> (d0 + d1)>\nmodule {\n  func.func @func_call(%arg0: tensor<512x128x32xf32>, %arg1: tensor<5x5x5xf32>, %arg2: tensor<508x124x28xf32>) -> tensor<508x124x28xf32> {\n    %0 = bufferization.to_memref %arg1 : memref<5x5x5xf32>\n    %1 = bufferization.to_memref %arg0 : memref<512x128x32xf32>\n    %2 = bufferization.to_memref %arg2 : memref<508x124x28xf32>\n    %alloc = memref.alloc() {alignment = 64 : i64} : memref<508x124x28xf32>\n    memref.copy %2, %alloc : memref<508x124x28xf32> to memref<508x124x28xf32>\n    affine.for %arg3 = 0 to 508 {\n      affine.for %arg4 = 0 to 124 {\n        affine.for %arg5 = 0 to 28 {\n          affine.for %arg6 = 0 to 5 {\n            affine.for %arg7 = 0 to 5 {\n              affine.for %arg8 = 0 to 5 {\n                %4 = affine.apply #map(%arg3, %arg6)\n                %5 = affine.apply #map(%arg4, %arg7)\n                %6 = affine.apply #map(%arg5, %arg8)\n                %7 = affine.load %1[%4, %5, %6] : memref<512x128x32xf32>\n                %8 = affine.load %0[%arg6, %arg7, %arg8] : memref<5x5x5xf32>\n                %9 = affine.load %alloc[%arg3, %arg4, %arg5] : memref<508x124x28xf32>\n                %10 = arith.mulf %7, %8 : f32\n                %11 = arith.addf %9, %10 : f32\n                affine.store %11, %alloc[%arg3, %arg4, %arg5] : memref<508x124x28xf32>\n              }\n            }\n          }\n        }\n      }\n    }\n    %3 = bufferization.to_tensor %alloc : memref<508x124x28xf32>\n    return %3 : tensor<508x124x28xf32>\n  }\n}\n\n", "transform_wrapped_operation": "func.func private @nanoTime() -> i64 attributes { llvm.emit_c_interface }\nfunc.func private @printI64(i64)\nfunc.func private @printMemrefF32(tensor<*xf32>)\n\n\nfunc.func @func_call(%input: tensor<512x128x32xf32>, %filter: tensor<5x5x5xf32>, %output: tensor<508x124x28xf32>) -> tensor<508x124x28xf32> {\n  %ret = linalg.conv_3d ins(%input, %filter: tensor<512x128x32xf32>, tensor<5x5x5xf32>) outs(%output: tensor<508x124x28xf32>) -> tensor<508x124x28xf32>\n  return %ret : tensor<508x124x28xf32>\n}\n\nfunc.func @main() -> i64 {\n  %c5 = arith.constant 5 : index\n  %c28 = arith.constant 28 : index\n  %c32 = arith.constant 32 : index\n  %c124 = arith.constant 124 : index\n  %c128 = arith.constant 128 : index\n  %c508 = arith.constant 508 : index\n  %c512 = arith.constant 512 : index\n  %input_temp = bufferization.alloc_tensor(%c512, %c128, %c32) : tensor<?x?x?xf32>\n  %input = tensor.cast %input_temp : tensor<?x?x?xf32> to tensor<512x128x32xf32>\n  %filter_temp = bufferization.alloc_tensor(%c5, %c5, %c5) : tensor<?x?x?xf32>\n  %filter = tensor.cast %filter_temp : tensor<?x?x?xf32> to tensor<5x5x5xf32>\n  %output_temp = bufferization.alloc_tensor(%c508, %c124, %c28) : tensor<?x?x?xf32>\n  %output = tensor.cast %output_temp : tensor<?x?x?xf32> to tensor<508x124x28xf32>\n  %t0 = func.call @nanoTime() : () -> (i64)\n  %ret_arg = func.call @func_call(%input, %filter, %output) : (tensor<512x128x32xf32>, tensor<5x5x5xf32>, tensor<508x124x28xf32>) -> (tensor<508x124x28xf32>)  %t1 = func.call @nanoTime() : () -> (i64)\n  %delta = arith.subi %t1, %t0 : i64\n  return %delta : i64\n}", "loops_data": {"nested_loops": [["%arg3", 0, 508, 1], ["%arg4", 0, 124, 1], ["%arg5", 0, 28, 1], ["%arg6", 0, 5, 1], ["%arg7", 0, 5, 1], ["%arg8", 0, 5, 1]], "op_count": {"+": 1, "-": 0, "*": 1, "/": 0, "exp": 0}, "load_data": [["%arg3 + %arg6", "%arg4 + %arg7", "%arg5 + %arg8"], ["%arg6", "%arg7", "%arg8"], ["%arg3", "%arg4", "%arg5"]], "store_data": ["%arg3", "%arg4", "%arg5"]}}, "linalg.conv_3d ins(%input, %filter: tensor<512x1024x512xf32>, tensor<7x7x7xf32>) outs(%output: tensor<506x1018x506xf32>) -> tensor<506x1018x506xf32>_494": {"operation": "linalg.conv_3d ins(%input, %filter: tensor<512x1024x512xf32>, tensor<7x7x7xf32>) outs(%output: tensor<506x1018x506xf32>) -> tensor<506x1018x506xf32>", "wrapped_operation": "func.func @func_call(%input: tensor<512x1024x512xf32>, %filter: tensor<7x7x7xf32>, %output: tensor<506x1018x506xf32>) -> tensor<506x1018x506xf32> {\n  %ret = linalg.conv_3d ins(%input, %filter: tensor<512x1024x512xf32>, tensor<7x7x7xf32>) outs(%output: tensor<506x1018x506xf32>) -> tensor<506x1018x506xf32>\n  return %ret : tensor<506x1018x506xf32>\n}", "lowered_operation": "#map = affine_map<(d0, d1) -> (d0 + d1)>\nmodule {\n  func.func @func_call(%arg0: tensor<512x1024x512xf32>, %arg1: tensor<7x7x7xf32>, %arg2: tensor<506x1018x506xf32>) -> tensor<506x1018x506xf32> {\n    %0 = bufferization.to_memref %arg1 : memref<7x7x7xf32>\n    %1 = bufferization.to_memref %arg0 : memref<512x1024x512xf32>\n    %2 = bufferization.to_memref %arg2 : memref<506x1018x506xf32>\n    %alloc = memref.alloc() {alignment = 64 : i64} : memref<506x1018x506xf32>\n    memref.copy %2, %alloc : memref<506x1018x506xf32> to memref<506x1018x506xf32>\n    affine.for %arg3 = 0 to 506 {\n      affine.for %arg4 = 0 to 1018 {\n        affine.for %arg5 = 0 to 506 {\n          affine.for %arg6 = 0 to 7 {\n            affine.for %arg7 = 0 to 7 {\n              affine.for %arg8 = 0 to 7 {\n                %4 = affine.apply #map(%arg3, %arg6)\n                %5 = affine.apply #map(%arg4, %arg7)\n                %6 = affine.apply #map(%arg5, %arg8)\n                %7 = affine.load %1[%4, %5, %6] : memref<512x1024x512xf32>\n                %8 = affine.load %0[%arg6, %arg7, %arg8] : memref<7x7x7xf32>\n                %9 = affine.load %alloc[%arg3, %arg4, %arg5] : memref<506x1018x506xf32>\n                %10 = arith.mulf %7, %8 : f32\n                %11 = arith.addf %9, %10 : f32\n                affine.store %11, %alloc[%arg3, %arg4, %arg5] : memref<506x1018x506xf32>\n              }\n            }\n          }\n        }\n      }\n    }\n    %3 = bufferization.to_tensor %alloc : memref<506x1018x506xf32>\n    return %3 : tensor<506x1018x506xf32>\n  }\n}\n\n", "transform_wrapped_operation": "func.func private @nanoTime() -> i64 attributes { llvm.emit_c_interface }\nfunc.func private @printI64(i64)\nfunc.func private @printMemrefF32(tensor<*xf32>)\n\n\nfunc.func @func_call(%input: tensor<512x1024x512xf32>, %filter: tensor<7x7x7xf32>, %output: tensor<506x1018x506xf32>) -> tensor<506x1018x506xf32> {\n  %ret = linalg.conv_3d ins(%input, %filter: tensor<512x1024x512xf32>, tensor<7x7x7xf32>) outs(%output: tensor<506x1018x506xf32>) -> tensor<506x1018x506xf32>\n  return %ret : tensor<506x1018x506xf32>\n}\n\nfunc.func @main() -> i64 {\n  %c7 = arith.constant 7 : index\n  %c506 = arith.constant 506 : index\n  %c512 = arith.constant 512 : index\n  %c1018 = arith.constant 1018 : index\n  %c1024 = arith.constant 1024 : index\n  %input_temp = bufferization.alloc_tensor(%c512, %c1024, %c512) : tensor<?x?x?xf32>\n  %input = tensor.cast %input_temp : tensor<?x?x?xf32> to tensor<512x1024x512xf32>\n  %filter_temp = bufferization.alloc_tensor(%c7, %c7, %c7) : tensor<?x?x?xf32>\n  %filter = tensor.cast %filter_temp : tensor<?x?x?xf32> to tensor<7x7x7xf32>\n  %output_temp = bufferization.alloc_tensor(%c506, %c1018, %c506) : tensor<?x?x?xf32>\n  %output = tensor.cast %output_temp : tensor<?x?x?xf32> to tensor<506x1018x506xf32>\n  %t0 = func.call @nanoTime() : () -> (i64)\n  %ret_arg = func.call @func_call(%input, %filter, %output) : (tensor<512x1024x512xf32>, tensor<7x7x7xf32>, tensor<506x1018x506xf32>) -> (tensor<506x1018x506xf32>)  %t1 = func.call @nanoTime() : () -> (i64)\n  %delta = arith.subi %t1, %t0 : i64\n  return %delta : i64\n}", "loops_data": {"nested_loops": [["%arg3", 0, 506, 1], ["%arg4", 0, 1018, 1], ["%arg5", 0, 506, 1], ["%arg6", 0, 7, 1], ["%arg7", 0, 7, 1], ["%arg8", 0, 7, 1]], "op_count": {"+": 1, "-": 0, "*": 1, "/": 0, "exp": 0}, "load_data": [["%arg3 + %arg6", "%arg4 + %arg7", "%arg5 + %arg8"], ["%arg6", "%arg7", "%arg8"], ["%arg3", "%arg4", "%arg5"]], "store_data": ["%arg3", "%arg4", "%arg5"]}}, "linalg.conv_3d ins(%input, %filter: tensor<1024x32x64xf32>, tensor<5x5x5xf32>) outs(%output: tensor<1020x28x60xf32>) -> tensor<1020x28x60xf32>_495": {"operation": "linalg.conv_3d ins(%input, %filter: tensor<1024x32x64xf32>, tensor<5x5x5xf32>) outs(%output: tensor<1020x28x60xf32>) -> tensor<1020x28x60xf32>", "wrapped_operation": "func.func @func_call(%input: tensor<1024x32x64xf32>, %filter: tensor<5x5x5xf32>, %output: tensor<1020x28x60xf32>) -> tensor<1020x28x60xf32> {\n  %ret = linalg.conv_3d ins(%input, %filter: tensor<1024x32x64xf32>, tensor<5x5x5xf32>) outs(%output: tensor<1020x28x60xf32>) -> tensor<1020x28x60xf32>\n  return %ret : tensor<1020x28x60xf32>\n}", "lowered_operation": "#map = affine_map<(d0, d1) -> (d0 + d1)>\nmodule {\n  func.func @func_call(%arg0: tensor<1024x32x64xf32>, %arg1: tensor<5x5x5xf32>, %arg2: tensor<1020x28x60xf32>) -> tensor<1020x28x60xf32> {\n    %0 = bufferization.to_memref %arg1 : memref<5x5x5xf32>\n    %1 = bufferization.to_memref %arg0 : memref<1024x32x64xf32>\n    %2 = bufferization.to_memref %arg2 : memref<1020x28x60xf32>\n    %alloc = memref.alloc() {alignment = 64 : i64} : memref<1020x28x60xf32>\n    memref.copy %2, %alloc : memref<1020x28x60xf32> to memref<1020x28x60xf32>\n    affine.for %arg3 = 0 to 1020 {\n      affine.for %arg4 = 0 to 28 {\n        affine.for %arg5 = 0 to 60 {\n          affine.for %arg6 = 0 to 5 {\n            affine.for %arg7 = 0 to 5 {\n              affine.for %arg8 = 0 to 5 {\n                %4 = affine.apply #map(%arg3, %arg6)\n                %5 = affine.apply #map(%arg4, %arg7)\n                %6 = affine.apply #map(%arg5, %arg8)\n                %7 = affine.load %1[%4, %5, %6] : memref<1024x32x64xf32>\n                %8 = affine.load %0[%arg6, %arg7, %arg8] : memref<5x5x5xf32>\n                %9 = affine.load %alloc[%arg3, %arg4, %arg5] : memref<1020x28x60xf32>\n                %10 = arith.mulf %7, %8 : f32\n                %11 = arith.addf %9, %10 : f32\n                affine.store %11, %alloc[%arg3, %arg4, %arg5] : memref<1020x28x60xf32>\n              }\n            }\n          }\n        }\n      }\n    }\n    %3 = bufferization.to_tensor %alloc : memref<1020x28x60xf32>\n    return %3 : tensor<1020x28x60xf32>\n  }\n}\n\n", "transform_wrapped_operation": "func.func private @nanoTime() -> i64 attributes { llvm.emit_c_interface }\nfunc.func private @printI64(i64)\nfunc.func private @printMemrefF32(tensor<*xf32>)\n\n\nfunc.func @func_call(%input: tensor<1024x32x64xf32>, %filter: tensor<5x5x5xf32>, %output: tensor<1020x28x60xf32>) -> tensor<1020x28x60xf32> {\n  %ret = linalg.conv_3d ins(%input, %filter: tensor<1024x32x64xf32>, tensor<5x5x5xf32>) outs(%output: tensor<1020x28x60xf32>) -> tensor<1020x28x60xf32>\n  return %ret : tensor<1020x28x60xf32>\n}\n\nfunc.func @main() -> i64 {\n  %c5 = arith.constant 5 : index\n  %c28 = arith.constant 28 : index\n  %c32 = arith.constant 32 : index\n  %c60 = arith.constant 60 : index\n  %c64 = arith.constant 64 : index\n  %c1020 = arith.constant 1020 : index\n  %c1024 = arith.constant 1024 : index\n  %input_temp = bufferization.alloc_tensor(%c1024, %c32, %c64) : tensor<?x?x?xf32>\n  %input = tensor.cast %input_temp : tensor<?x?x?xf32> to tensor<1024x32x64xf32>\n  %filter_temp = bufferization.alloc_tensor(%c5, %c5, %c5) : tensor<?x?x?xf32>\n  %filter = tensor.cast %filter_temp : tensor<?x?x?xf32> to tensor<5x5x5xf32>\n  %output_temp = bufferization.alloc_tensor(%c1020, %c28, %c60) : tensor<?x?x?xf32>\n  %output = tensor.cast %output_temp : tensor<?x?x?xf32> to tensor<1020x28x60xf32>\n  %t0 = func.call @nanoTime() : () -> (i64)\n  %ret_arg = func.call @func_call(%input, %filter, %output) : (tensor<1024x32x64xf32>, tensor<5x5x5xf32>, tensor<1020x28x60xf32>) -> (tensor<1020x28x60xf32>)  %t1 = func.call @nanoTime() : () -> (i64)\n  %delta = arith.subi %t1, %t0 : i64\n  return %delta : i64\n}", "loops_data": {"nested_loops": [["%arg3", 0, 1020, 1], ["%arg4", 0, 28, 1], ["%arg5", 0, 60, 1], ["%arg6", 0, 5, 1], ["%arg7", 0, 5, 1], ["%arg8", 0, 5, 1]], "op_count": {"+": 1, "-": 0, "*": 1, "/": 0, "exp": 0}, "load_data": [["%arg3 + %arg6", "%arg4 + %arg7", "%arg5 + %arg8"], ["%arg6", "%arg7", "%arg8"], ["%arg3", "%arg4", "%arg5"]], "store_data": ["%arg3", "%arg4", "%arg5"]}}, "linalg.conv_3d ins(%input, %filter: tensor<1024x512x128xf32>, tensor<5x5x5xf32>) outs(%output: tensor<1020x508x124xf32>) -> tensor<1020x508x124xf32>_496": {"operation": "linalg.conv_3d ins(%input, %filter: tensor<1024x512x128xf32>, tensor<5x5x5xf32>) outs(%output: tensor<1020x508x124xf32>) -> tensor<1020x508x124xf32>", "wrapped_operation": "func.func @func_call(%input: tensor<1024x512x128xf32>, %filter: tensor<5x5x5xf32>, %output: tensor<1020x508x124xf32>) -> tensor<1020x508x124xf32> {\n  %ret = linalg.conv_3d ins(%input, %filter: tensor<1024x512x128xf32>, tensor<5x5x5xf32>) outs(%output: tensor<1020x508x124xf32>) -> tensor<1020x508x124xf32>\n  return %ret : tensor<1020x508x124xf32>\n}", "lowered_operation": "#map = affine_map<(d0, d1) -> (d0 + d1)>\nmodule {\n  func.func @func_call(%arg0: tensor<1024x512x128xf32>, %arg1: tensor<5x5x5xf32>, %arg2: tensor<1020x508x124xf32>) -> tensor<1020x508x124xf32> {\n    %0 = bufferization.to_memref %arg1 : memref<5x5x5xf32>\n    %1 = bufferization.to_memref %arg0 : memref<1024x512x128xf32>\n    %2 = bufferization.to_memref %arg2 : memref<1020x508x124xf32>\n    %alloc = memref.alloc() {alignment = 64 : i64} : memref<1020x508x124xf32>\n    memref.copy %2, %alloc : memref<1020x508x124xf32> to memref<1020x508x124xf32>\n    affine.for %arg3 = 0 to 1020 {\n      affine.for %arg4 = 0 to 508 {\n        affine.for %arg5 = 0 to 124 {\n          affine.for %arg6 = 0 to 5 {\n            affine.for %arg7 = 0 to 5 {\n              affine.for %arg8 = 0 to 5 {\n                %4 = affine.apply #map(%arg3, %arg6)\n                %5 = affine.apply #map(%arg4, %arg7)\n                %6 = affine.apply #map(%arg5, %arg8)\n                %7 = affine.load %1[%4, %5, %6] : memref<1024x512x128xf32>\n                %8 = affine.load %0[%arg6, %arg7, %arg8] : memref<5x5x5xf32>\n                %9 = affine.load %alloc[%arg3, %arg4, %arg5] : memref<1020x508x124xf32>\n                %10 = arith.mulf %7, %8 : f32\n                %11 = arith.addf %9, %10 : f32\n                affine.store %11, %alloc[%arg3, %arg4, %arg5] : memref<1020x508x124xf32>\n              }\n            }\n          }\n        }\n      }\n    }\n    %3 = bufferization.to_tensor %alloc : memref<1020x508x124xf32>\n    return %3 : tensor<1020x508x124xf32>\n  }\n}\n\n", "transform_wrapped_operation": "func.func private @nanoTime() -> i64 attributes { llvm.emit_c_interface }\nfunc.func private @printI64(i64)\nfunc.func private @printMemrefF32(tensor<*xf32>)\n\n\nfunc.func @func_call(%input: tensor<1024x512x128xf32>, %filter: tensor<5x5x5xf32>, %output: tensor<1020x508x124xf32>) -> tensor<1020x508x124xf32> {\n  %ret = linalg.conv_3d ins(%input, %filter: tensor<1024x512x128xf32>, tensor<5x5x5xf32>) outs(%output: tensor<1020x508x124xf32>) -> tensor<1020x508x124xf32>\n  return %ret : tensor<1020x508x124xf32>\n}\n\nfunc.func @main() -> i64 {\n  %c5 = arith.constant 5 : index\n  %c124 = arith.constant 124 : index\n  %c128 = arith.constant 128 : index\n  %c508 = arith.constant 508 : index\n  %c512 = arith.constant 512 : index\n  %c1020 = arith.constant 1020 : index\n  %c1024 = arith.constant 1024 : index\n  %input_temp = bufferization.alloc_tensor(%c1024, %c512, %c128) : tensor<?x?x?xf32>\n  %input = tensor.cast %input_temp : tensor<?x?x?xf32> to tensor<1024x512x128xf32>\n  %filter_temp = bufferization.alloc_tensor(%c5, %c5, %c5) : tensor<?x?x?xf32>\n  %filter = tensor.cast %filter_temp : tensor<?x?x?xf32> to tensor<5x5x5xf32>\n  %output_temp = bufferization.alloc_tensor(%c1020, %c508, %c124) : tensor<?x?x?xf32>\n  %output = tensor.cast %output_temp : tensor<?x?x?xf32> to tensor<1020x508x124xf32>\n  %t0 = func.call @nanoTime() : () -> (i64)\n  %ret_arg = func.call @func_call(%input, %filter, %output) : (tensor<1024x512x128xf32>, tensor<5x5x5xf32>, tensor<1020x508x124xf32>) -> (tensor<1020x508x124xf32>)  %t1 = func.call @nanoTime() : () -> (i64)\n  %delta = arith.subi %t1, %t0 : i64\n  return %delta : i64\n}", "loops_data": {"nested_loops": [["%arg3", 0, 1020, 1], ["%arg4", 0, 508, 1], ["%arg5", 0, 124, 1], ["%arg6", 0, 5, 1], ["%arg7", 0, 5, 1], ["%arg8", 0, 5, 1]], "op_count": {"+": 1, "-": 0, "*": 1, "/": 0, "exp": 0}, "load_data": [["%arg3 + %arg6", "%arg4 + %arg7", "%arg5 + %arg8"], ["%arg6", "%arg7", "%arg8"], ["%arg3", "%arg4", "%arg5"]], "store_data": ["%arg3", "%arg4", "%arg5"]}}, "linalg.conv_3d ins(%input, %filter: tensor<256x256x256xf32>, tensor<1x1x1xf32>) outs(%output: tensor<256x256x256xf32>) -> tensor<256x256x256xf32>_497": {"operation": "linalg.conv_3d ins(%input, %filter: tensor<256x256x256xf32>, tensor<1x1x1xf32>) outs(%output: tensor<256x256x256xf32>) -> tensor<256x256x256xf32>", "wrapped_operation": "func.func @func_call(%input: tensor<256x256x256xf32>, %filter: tensor<1x1x1xf32>, %output: tensor<256x256x256xf32>) -> tensor<256x256x256xf32> {\n  %ret = linalg.conv_3d ins(%input, %filter: tensor<256x256x256xf32>, tensor<1x1x1xf32>) outs(%output: tensor<256x256x256xf32>) -> tensor<256x256x256xf32>\n  return %ret : tensor<256x256x256xf32>\n}", "lowered_operation": "#map = affine_map<(d0, d1) -> (d0 + d1)>\nmodule {\n  func.func @func_call(%arg0: tensor<256x256x256xf32>, %arg1: tensor<1x1x1xf32>, %arg2: tensor<256x256x256xf32>) -> tensor<256x256x256xf32> {\n    %0 = bufferization.to_memref %arg1 : memref<1x1x1xf32>\n    %1 = bufferization.to_memref %arg0 : memref<256x256x256xf32>\n    %2 = bufferization.to_memref %arg2 : memref<256x256x256xf32>\n    %alloc = memref.alloc() {alignment = 64 : i64} : memref<256x256x256xf32>\n    memref.copy %2, %alloc : memref<256x256x256xf32> to memref<256x256x256xf32>\n    affine.for %arg3 = 0 to 256 {\n      affine.for %arg4 = 0 to 256 {\n        affine.for %arg5 = 0 to 256 {\n          affine.for %arg6 = 0 to 1 {\n            affine.for %arg7 = 0 to 1 {\n              affine.for %arg8 = 0 to 1 {\n                %4 = affine.apply #map(%arg3, %arg6)\n                %5 = affine.apply #map(%arg4, %arg7)\n                %6 = affine.apply #map(%arg5, %arg8)\n                %7 = affine.load %1[%4, %5, %6] : memref<256x256x256xf32>\n                %8 = affine.load %0[%arg6, %arg7, %arg8] : memref<1x1x1xf32>\n                %9 = affine.load %alloc[%arg3, %arg4, %arg5] : memref<256x256x256xf32>\n                %10 = arith.mulf %7, %8 : f32\n                %11 = arith.addf %9, %10 : f32\n                affine.store %11, %alloc[%arg3, %arg4, %arg5] : memref<256x256x256xf32>\n              }\n            }\n          }\n        }\n      }\n    }\n    %3 = bufferization.to_tensor %alloc : memref<256x256x256xf32>\n    return %3 : tensor<256x256x256xf32>\n  }\n}\n\n", "transform_wrapped_operation": "func.func private @nanoTime() -> i64 attributes { llvm.emit_c_interface }\nfunc.func private @printI64(i64)\nfunc.func private @printMemrefF32(tensor<*xf32>)\n\n\nfunc.func @func_call(%input: tensor<256x256x256xf32>, %filter: tensor<1x1x1xf32>, %output: tensor<256x256x256xf32>) -> tensor<256x256x256xf32> {\n  %ret = linalg.conv_3d ins(%input, %filter: tensor<256x256x256xf32>, tensor<1x1x1xf32>) outs(%output: tensor<256x256x256xf32>) -> tensor<256x256x256xf32>\n  return %ret : tensor<256x256x256xf32>\n}\n\nfunc.func @main() -> i64 {\n  %c1 = arith.constant 1 : index\n  %c256 = arith.constant 256 : index\n  %input_temp = bufferization.alloc_tensor(%c256, %c256, %c256) : tensor<?x?x?xf32>\n  %input = tensor.cast %input_temp : tensor<?x?x?xf32> to tensor<256x256x256xf32>\n  %filter_temp = bufferization.alloc_tensor(%c1, %c1, %c1) : tensor<?x?x?xf32>\n  %filter = tensor.cast %filter_temp : tensor<?x?x?xf32> to tensor<1x1x1xf32>\n  %output_temp = bufferization.alloc_tensor(%c256, %c256, %c256) : tensor<?x?x?xf32>\n  %output = tensor.cast %output_temp : tensor<?x?x?xf32> to tensor<256x256x256xf32>\n  %t0 = func.call @nanoTime() : () -> (i64)\n  %ret_arg = func.call @func_call(%input, %filter, %output) : (tensor<256x256x256xf32>, tensor<1x1x1xf32>, tensor<256x256x256xf32>) -> (tensor<256x256x256xf32>)  %t1 = func.call @nanoTime() : () -> (i64)\n  %delta = arith.subi %t1, %t0 : i64\n  return %delta : i64\n}", "loops_data": {"nested_loops": [["%arg3", 0, 256, 1], ["%arg4", 0, 256, 1], ["%arg5", 0, 256, 1], ["%arg6", 0, 1, 1], ["%arg7", 0, 1, 1], ["%arg8", 0, 1, 1]], "op_count": {"+": 1, "-": 0, "*": 1, "/": 0, "exp": 0}, "load_data": [["%arg3 + %arg6", "%arg4 + %arg7", "%arg5 + %arg8"], ["%arg6", "%arg7", "%arg8"], ["%arg3", "%arg4", "%arg5"]], "store_data": ["%arg3", "%arg4", "%arg5"]}}, "linalg.conv_3d ins(%input, %filter: tensor<128x512x256xf32>, tensor<1x1x1xf32>) outs(%output: tensor<128x512x256xf32>) -> tensor<128x512x256xf32>_498": {"operation": "linalg.conv_3d ins(%input, %filter: tensor<128x512x256xf32>, tensor<1x1x1xf32>) outs(%output: tensor<128x512x256xf32>) -> tensor<128x512x256xf32>", "wrapped_operation": "func.func @func_call(%input: tensor<128x512x256xf32>, %filter: tensor<1x1x1xf32>, %output: tensor<128x512x256xf32>) -> tensor<128x512x256xf32> {\n  %ret = linalg.conv_3d ins(%input, %filter: tensor<128x512x256xf32>, tensor<1x1x1xf32>) outs(%output: tensor<128x512x256xf32>) -> tensor<128x512x256xf32>\n  return %ret : tensor<128x512x256xf32>\n}", "lowered_operation": "#map = affine_map<(d0, d1) -> (d0 + d1)>\nmodule {\n  func.func @func_call(%arg0: tensor<128x512x256xf32>, %arg1: tensor<1x1x1xf32>, %arg2: tensor<128x512x256xf32>) -> tensor<128x512x256xf32> {\n    %0 = bufferization.to_memref %arg1 : memref<1x1x1xf32>\n    %1 = bufferization.to_memref %arg0 : memref<128x512x256xf32>\n    %2 = bufferization.to_memref %arg2 : memref<128x512x256xf32>\n    %alloc = memref.alloc() {alignment = 64 : i64} : memref<128x512x256xf32>\n    memref.copy %2, %alloc : memref<128x512x256xf32> to memref<128x512x256xf32>\n    affine.for %arg3 = 0 to 128 {\n      affine.for %arg4 = 0 to 512 {\n        affine.for %arg5 = 0 to 256 {\n          affine.for %arg6 = 0 to 1 {\n            affine.for %arg7 = 0 to 1 {\n              affine.for %arg8 = 0 to 1 {\n                %4 = affine.apply #map(%arg3, %arg6)\n                %5 = affine.apply #map(%arg4, %arg7)\n                %6 = affine.apply #map(%arg5, %arg8)\n                %7 = affine.load %1[%4, %5, %6] : memref<128x512x256xf32>\n                %8 = affine.load %0[%arg6, %arg7, %arg8] : memref<1x1x1xf32>\n                %9 = affine.load %alloc[%arg3, %arg4, %arg5] : memref<128x512x256xf32>\n                %10 = arith.mulf %7, %8 : f32\n                %11 = arith.addf %9, %10 : f32\n                affine.store %11, %alloc[%arg3, %arg4, %arg5] : memref<128x512x256xf32>\n              }\n            }\n          }\n        }\n      }\n    }\n    %3 = bufferization.to_tensor %alloc : memref<128x512x256xf32>\n    return %3 : tensor<128x512x256xf32>\n  }\n}\n\n", "transform_wrapped_operation": "func.func private @nanoTime() -> i64 attributes { llvm.emit_c_interface }\nfunc.func private @printI64(i64)\nfunc.func private @printMemrefF32(tensor<*xf32>)\n\n\nfunc.func @func_call(%input: tensor<128x512x256xf32>, %filter: tensor<1x1x1xf32>, %output: tensor<128x512x256xf32>) -> tensor<128x512x256xf32> {\n  %ret = linalg.conv_3d ins(%input, %filter: tensor<128x512x256xf32>, tensor<1x1x1xf32>) outs(%output: tensor<128x512x256xf32>) -> tensor<128x512x256xf32>\n  return %ret : tensor<128x512x256xf32>\n}\n\nfunc.func @main() -> i64 {\n  %c1 = arith.constant 1 : index\n  %c128 = arith.constant 128 : index\n  %c256 = arith.constant 256 : index\n  %c512 = arith.constant 512 : index\n  %input_temp = bufferization.alloc_tensor(%c128, %c512, %c256) : tensor<?x?x?xf32>\n  %input = tensor.cast %input_temp : tensor<?x?x?xf32> to tensor<128x512x256xf32>\n  %filter_temp = bufferization.alloc_tensor(%c1, %c1, %c1) : tensor<?x?x?xf32>\n  %filter = tensor.cast %filter_temp : tensor<?x?x?xf32> to tensor<1x1x1xf32>\n  %output_temp = bufferization.alloc_tensor(%c128, %c512, %c256) : tensor<?x?x?xf32>\n  %output = tensor.cast %output_temp : tensor<?x?x?xf32> to tensor<128x512x256xf32>\n  %t0 = func.call @nanoTime() : () -> (i64)\n  %ret_arg = func.call @func_call(%input, %filter, %output) : (tensor<128x512x256xf32>, tensor<1x1x1xf32>, tensor<128x512x256xf32>) -> (tensor<128x512x256xf32>)  %t1 = func.call @nanoTime() : () -> (i64)\n  %delta = arith.subi %t1, %t0 : i64\n  return %delta : i64\n}", "loops_data": {"nested_loops": [["%arg3", 0, 128, 1], ["%arg4", 0, 512, 1], ["%arg5", 0, 256, 1], ["%arg6", 0, 1, 1], ["%arg7", 0, 1, 1], ["%arg8", 0, 1, 1]], "op_count": {"+": 1, "-": 0, "*": 1, "/": 0, "exp": 0}, "load_data": [["%arg3 + %arg6", "%arg4 + %arg7", "%arg5 + %arg8"], ["%arg6", "%arg7", "%arg8"], ["%arg3", "%arg4", "%arg5"]], "store_data": ["%arg3", "%arg4", "%arg5"]}}, "linalg.conv_3d ins(%input, %filter: tensor<64x256x128xf32>, tensor<7x7x7xf32>) outs(%output: tensor<58x250x122xf32>) -> tensor<58x250x122xf32>_499": {"operation": "linalg.conv_3d ins(%input, %filter: tensor<64x256x128xf32>, tensor<7x7x7xf32>) outs(%output: tensor<58x250x122xf32>) -> tensor<58x250x122xf32>", "wrapped_operation": "func.func @func_call(%input: tensor<64x256x128xf32>, %filter: tensor<7x7x7xf32>, %output: tensor<58x250x122xf32>) -> tensor<58x250x122xf32> {\n  %ret = linalg.conv_3d ins(%input, %filter: tensor<64x256x128xf32>, tensor<7x7x7xf32>) outs(%output: tensor<58x250x122xf32>) -> tensor<58x250x122xf32>\n  return %ret : tensor<58x250x122xf32>\n}", "lowered_operation": "#map = affine_map<(d0, d1) -> (d0 + d1)>\nmodule {\n  func.func @func_call(%arg0: tensor<64x256x128xf32>, %arg1: tensor<7x7x7xf32>, %arg2: tensor<58x250x122xf32>) -> tensor<58x250x122xf32> {\n    %0 = bufferization.to_memref %arg1 : memref<7x7x7xf32>\n    %1 = bufferization.to_memref %arg0 : memref<64x256x128xf32>\n    %2 = bufferization.to_memref %arg2 : memref<58x250x122xf32>\n    %alloc = memref.alloc() {alignment = 64 : i64} : memref<58x250x122xf32>\n    memref.copy %2, %alloc : memref<58x250x122xf32> to memref<58x250x122xf32>\n    affine.for %arg3 = 0 to 58 {\n      affine.for %arg4 = 0 to 250 {\n        affine.for %arg5 = 0 to 122 {\n          affine.for %arg6 = 0 to 7 {\n            affine.for %arg7 = 0 to 7 {\n              affine.for %arg8 = 0 to 7 {\n                %4 = affine.apply #map(%arg3, %arg6)\n                %5 = affine.apply #map(%arg4, %arg7)\n                %6 = affine.apply #map(%arg5, %arg8)\n                %7 = affine.load %1[%4, %5, %6] : memref<64x256x128xf32>\n                %8 = affine.load %0[%arg6, %arg7, %arg8] : memref<7x7x7xf32>\n                %9 = affine.load %alloc[%arg3, %arg4, %arg5] : memref<58x250x122xf32>\n                %10 = arith.mulf %7, %8 : f32\n                %11 = arith.addf %9, %10 : f32\n                affine.store %11, %alloc[%arg3, %arg4, %arg5] : memref<58x250x122xf32>\n              }\n            }\n          }\n        }\n      }\n    }\n    %3 = bufferization.to_tensor %alloc : memref<58x250x122xf32>\n    return %3 : tensor<58x250x122xf32>\n  }\n}\n\n", "transform_wrapped_operation": "func.func private @nanoTime() -> i64 attributes { llvm.emit_c_interface }\nfunc.func private @printI64(i64)\nfunc.func private @printMemrefF32(tensor<*xf32>)\n\n\nfunc.func @func_call(%input: tensor<64x256x128xf32>, %filter: tensor<7x7x7xf32>, %output: tensor<58x250x122xf32>) -> tensor<58x250x122xf32> {\n  %ret = linalg.conv_3d ins(%input, %filter: tensor<64x256x128xf32>, tensor<7x7x7xf32>) outs(%output: tensor<58x250x122xf32>) -> tensor<58x250x122xf32>\n  return %ret : tensor<58x250x122xf32>\n}\n\nfunc.func @main() -> i64 {\n  %c7 = arith.constant 7 : index\n  %c58 = arith.constant 58 : index\n  %c64 = arith.constant 64 : index\n  %c122 = arith.constant 122 : index\n  %c128 = arith.constant 128 : index\n  %c250 = arith.constant 250 : index\n  %c256 = arith.constant 256 : index\n  %input_temp = bufferization.alloc_tensor(%c64, %c256, %c128) : tensor<?x?x?xf32>\n  %input = tensor.cast %input_temp : tensor<?x?x?xf32> to tensor<64x256x128xf32>\n  %filter_temp = bufferization.alloc_tensor(%c7, %c7, %c7) : tensor<?x?x?xf32>\n  %filter = tensor.cast %filter_temp : tensor<?x?x?xf32> to tensor<7x7x7xf32>\n  %output_temp = bufferization.alloc_tensor(%c58, %c250, %c122) : tensor<?x?x?xf32>\n  %output = tensor.cast %output_temp : tensor<?x?x?xf32> to tensor<58x250x122xf32>\n  %t0 = func.call @nanoTime() : () -> (i64)\n  %ret_arg = func.call @func_call(%input, %filter, %output) : (tensor<64x256x128xf32>, tensor<7x7x7xf32>, tensor<58x250x122xf32>) -> (tensor<58x250x122xf32>)  %t1 = func.call @nanoTime() : () -> (i64)\n  %delta = arith.subi %t1, %t0 : i64\n  return %delta : i64\n}", "loops_data": {"nested_loops": [["%arg3", 0, 58, 1], ["%arg4", 0, 250, 1], ["%arg5", 0, 122, 1], ["%arg6", 0, 7, 1], ["%arg7", 0, 7, 1], ["%arg8", 0, 7, 1]], "op_count": {"+": 1, "-": 0, "*": 1, "/": 0, "exp": 0}, "load_data": [["%arg3 + %arg6", "%arg4 + %arg7", "%arg5 + %arg8"], ["%arg6", "%arg7", "%arg8"], ["%arg3", "%arg4", "%arg5"]], "store_data": ["%arg3", "%arg4", "%arg5"]}}}