{
  "linalg.generic {indexing_maps = [#map2, #map], iterator_types = [\"parallel\", \"parallel\", \"parallel\", \"parallel\"]} ins(%28 : tensor<128x192x130x130xf32>) outs(%25 : tensor<128x192x130x130xf32>) {\n            ^bb0(%in: f32, %out: f32):\n            %cst_1 = arith.constant 0.000000e+00 : f32\n            %90 = arith.cmpf ugt, %in, %cst_1 : f32\n            %91 = arith.select %90, %in, %cst_1 : f32\n            linalg.yield %91 : f32\n        } -> tensor<128x192x130x130xf32>": {
    "operation": "linalg.generic {indexing_maps = [#map2, #map], iterator_types = [\"parallel\", \"parallel\", \"parallel\", \"parallel\"]} ins(%28 : tensor<128x192x130x130xf32>) outs(%25 : tensor<128x192x130x130xf32>) {\n            ^bb0(%in: f32, %out: f32):\n            %cst_1 = arith.constant 0.000000e+00 : f32\n            %90 = arith.cmpf ugt, %in, %cst_1 : f32\n            %91 = arith.select %90, %in, %cst_1 : f32\n            linalg.yield %91 : f32\n        } -> tensor<128x192x130x130xf32>",
    "wrapped_operation": "#map = affine_map<(d0, d1, d2, d3) -> (d0, d1, d2, d3)>\n        #map2 = affine_map<(d0, d1, d2, d3) -> (0, d1, d2, d3)>\nfunc.func @func_call(%28: tensor<128x192x130x130xf32>, %25: tensor<128x192x130x130xf32>) -> tensor<128x192x130x130xf32> {\n  %ret = linalg.generic {indexing_maps = [#map2, #map], iterator_types = [\"parallel\", \"parallel\", \"parallel\", \"parallel\"]} ins(%28 : tensor<128x192x130x130xf32>) outs(%25 : tensor<128x192x130x130xf32>) {\n            ^bb0(%in: f32, %out: f32):\n            %cst_1 = arith.constant 0.000000e+00 : f32\n            %90 = arith.cmpf ugt, %in, %cst_1 : f32\n            %91 = arith.select %90, %in, %cst_1 : f32\n            linalg.yield %91 : f32\n        } -> tensor<128x192x130x130xf32>\n  return %ret : tensor<128x192x130x130xf32>\n}",
    "lowered_operation": "module {\n  func.func @func_call(%arg0: tensor<128x192x130x130xf32>, %arg1: tensor<128x192x130x130xf32>) -> tensor<128x192x130x130xf32> {\n    %c0 = arith.constant 0 : index\n    %cst = arith.constant 0.000000e+00 : f32\n    %0 = bufferization.to_memref %arg0 : memref<128x192x130x130xf32>\n    %alloc = memref.alloc() {alignment = 64 : i64} : memref<128x192x130x130xf32>\n    affine.for %arg2 = 0 to 128 {\n      affine.for %arg3 = 0 to 192 {\n        affine.for %arg4 = 0 to 130 {\n          affine.for %arg5 = 0 to 130 {\n            %2 = affine.load %0[%c0, %arg3, %arg4, %arg5] : memref<128x192x130x130xf32>\n            %3 = arith.cmpf ugt, %2, %cst : f32\n            %4 = arith.select %3, %2, %cst : f32\n            affine.store %4, %alloc[%arg2, %arg3, %arg4, %arg5] : memref<128x192x130x130xf32>\n          }\n        }\n      }\n    }\n    %1 = bufferization.to_tensor %alloc : memref<128x192x130x130xf32>\n    return %1 : tensor<128x192x130x130xf32>\n  }\n}\n\n",
    "transform_wrapped_operation": "#map = affine_map<(d0, d1, d2, d3) -> (d0, d1, d2, d3)>\n        #map2 = affine_map<(d0, d1, d2, d3) -> (0, d1, d2, d3)>\nmodule attributes {torch.debug_module_name = \"Net\"} {\nfunc.func private @nanoTime() -> i64 attributes { llvm.emit_c_interface }\nfunc.func private @printFlops(f64)\nfunc.func private @printI64(i64)\nfunc.func private @printNewline()\nfunc.func private @printMemrefF32(tensor<*xf32>)\n\n\nfunc.func @matmul() -> tensor<128x192x130x130xf32>{\n\n%val = arith.constant 2.00000e+00 : f32\n%zero = arith.constant 0.00000e+00 : f32\n\n%tmp_28 = bufferization.alloc_tensor() : tensor<128x192x130x130xf32>\n%28 = linalg.fill ins(%val : f32) outs(%tmp_28 : tensor<128x192x130x130xf32>) -> tensor<128x192x130x130xf32>\n%tmp_25 = bufferization.alloc_tensor() : tensor<128x192x130x130xf32>\n%25 = linalg.fill ins(%val : f32) outs(%tmp_25 : tensor<128x192x130x130xf32>) -> tensor<128x192x130x130xf32>\n\n%t0 = func.call @nanoTime() : () -> (i64)\n\n%return_arg = linalg.generic {indexing_maps = [#map2, #map], iterator_types = [\"parallel\", \"parallel\", \"parallel\", \"parallel\"]} ins(%28 : tensor<128x192x130x130xf32>) outs(%25 : tensor<128x192x130x130xf32>) {\n            ^bb0(%in: f32, %out: f32):\n            %cst_1 = arith.constant 0.000000e+00 : f32\n            %90 = arith.cmpf ugt, %in, %cst_1 : f32\n            %91 = arith.select %90, %in, %cst_1 : f32\n            linalg.yield %91 : f32\n        } -> tensor<128x192x130x130xf32>\n%t = func.call @nanoTime() : () -> (i64)\n%delta = arith.subi %t, %t0 : i64\n%fp = arith.uitofp %delta : i64 to f64\n// func.call @printFlops(%fp) : (f64) -> ()\nfunc.call @printI64(%delta) : (i64) -> ()\nfunc.call @printNewline() : () -> ()\n\nreturn %return_arg : tensor<128x192x130x130xf32> \n}\n\nfunc.func @main(){\n    %c1 = arith.constant 1: index\n    %c0 = arith.constant 0 : index\n    %n = arith.constant 2: index\n    scf.for %i = %c0 to %n step %c1 {\n    %outputmain = func.call @matmul() : () -> tensor<128x192x130x130xf32>\n    }\n    return\n}\n}\n",
    "loops_data": {
      "nested_loops": [
        [
          "%arg2",
          0,
          128,
          1
        ],
        [
          "%arg3",
          0,
          192,
          1
        ],
        [
          "%arg4",
          0,
          130,
          1
        ],
        [
          "%arg5",
          0,
          130,
          1
        ]
      ],
      "op_count": {
        "+": 0,
        "-": 0,
        "*": 0,
        "/": 0,
        "exp": 0
      },
      "load_data": [
        [
          "%c0",
          "%arg3",
          "%arg4",
          "%arg5"
        ]
      ],
      "store_data": []
    },
    "execution_time": 345882557
  },
  "linalg.generic {indexing_maps = [#map2, #map], iterator_types = [\"parallel\", \"parallel\", \"parallel\", \"parallel\"]} ins(%28 : tensor<128x384x14x14xf32>) outs(%25 : tensor<128x384x14x14xf32>) {\n            ^bb0(%in: f32, %out: f32):\n            %cst_1 = arith.constant 0.000000e+00 : f32\n            %90 = arith.cmpf ugt, %in, %cst_1 : f32\n            %91 = arith.select %90, %in, %cst_1 : f32\n            linalg.yield %91 : f32\n        } -> tensor<128x384x14x14xf32>": {
    "operation": "linalg.generic {indexing_maps = [#map2, #map], iterator_types = [\"parallel\", \"parallel\", \"parallel\", \"parallel\"]} ins(%28 : tensor<128x384x14x14xf32>) outs(%25 : tensor<128x384x14x14xf32>) {\n            ^bb0(%in: f32, %out: f32):\n            %cst_1 = arith.constant 0.000000e+00 : f32\n            %90 = arith.cmpf ugt, %in, %cst_1 : f32\n            %91 = arith.select %90, %in, %cst_1 : f32\n            linalg.yield %91 : f32\n        } -> tensor<128x384x14x14xf32>",
    "wrapped_operation": "#map = affine_map<(d0, d1, d2, d3) -> (d0, d1, d2, d3)>\n        #map2 = affine_map<(d0, d1, d2, d3) -> (0, d1, d2, d3)>\nfunc.func @func_call(%28: tensor<128x384x14x14xf32>, %25: tensor<128x384x14x14xf32>) -> tensor<128x384x14x14xf32> {\n  %ret = linalg.generic {indexing_maps = [#map2, #map], iterator_types = [\"parallel\", \"parallel\", \"parallel\", \"parallel\"]} ins(%28 : tensor<128x384x14x14xf32>) outs(%25 : tensor<128x384x14x14xf32>) {\n            ^bb0(%in: f32, %out: f32):\n            %cst_1 = arith.constant 0.000000e+00 : f32\n            %90 = arith.cmpf ugt, %in, %cst_1 : f32\n            %91 = arith.select %90, %in, %cst_1 : f32\n            linalg.yield %91 : f32\n        } -> tensor<128x384x14x14xf32>\n  return %ret : tensor<128x384x14x14xf32>\n}",
    "lowered_operation": "module {\n  func.func @func_call(%arg0: tensor<128x384x14x14xf32>, %arg1: tensor<128x384x14x14xf32>) -> tensor<128x384x14x14xf32> {\n    %c0 = arith.constant 0 : index\n    %cst = arith.constant 0.000000e+00 : f32\n    %0 = bufferization.to_memref %arg0 : memref<128x384x14x14xf32>\n    %alloc = memref.alloc() {alignment = 64 : i64} : memref<128x384x14x14xf32>\n    affine.for %arg2 = 0 to 128 {\n      affine.for %arg3 = 0 to 384 {\n        affine.for %arg4 = 0 to 14 {\n          affine.for %arg5 = 0 to 14 {\n            %2 = affine.load %0[%c0, %arg3, %arg4, %arg5] : memref<128x384x14x14xf32>\n            %3 = arith.cmpf ugt, %2, %cst : f32\n            %4 = arith.select %3, %2, %cst : f32\n            affine.store %4, %alloc[%arg2, %arg3, %arg4, %arg5] : memref<128x384x14x14xf32>\n          }\n        }\n      }\n    }\n    %1 = bufferization.to_tensor %alloc : memref<128x384x14x14xf32>\n    return %1 : tensor<128x384x14x14xf32>\n  }\n}\n\n",
    "transform_wrapped_operation": "#map = affine_map<(d0, d1, d2, d3) -> (d0, d1, d2, d3)>\n        #map2 = affine_map<(d0, d1, d2, d3) -> (0, d1, d2, d3)>\nmodule attributes {torch.debug_module_name = \"Net\"} {\nfunc.func private @nanoTime() -> i64 attributes { llvm.emit_c_interface }\nfunc.func private @printFlops(f64)\nfunc.func private @printI64(i64)\nfunc.func private @printNewline()\nfunc.func private @printMemrefF32(tensor<*xf32>)\n\n\nfunc.func @matmul() -> tensor<128x384x14x14xf32>{\n\n%val = arith.constant 2.00000e+00 : f32\n%zero = arith.constant 0.00000e+00 : f32\n\n%tmp_28 = bufferization.alloc_tensor() : tensor<128x384x14x14xf32>\n%28 = linalg.fill ins(%val : f32) outs(%tmp_28 : tensor<128x384x14x14xf32>) -> tensor<128x384x14x14xf32>\n%tmp_25 = bufferization.alloc_tensor() : tensor<128x384x14x14xf32>\n%25 = linalg.fill ins(%val : f32) outs(%tmp_25 : tensor<128x384x14x14xf32>) -> tensor<128x384x14x14xf32>\n\n%t0 = func.call @nanoTime() : () -> (i64)\n\n%return_arg = linalg.generic {indexing_maps = [#map2, #map], iterator_types = [\"parallel\", \"parallel\", \"parallel\", \"parallel\"]} ins(%28 : tensor<128x384x14x14xf32>) outs(%25 : tensor<128x384x14x14xf32>) {\n            ^bb0(%in: f32, %out: f32):\n            %cst_1 = arith.constant 0.000000e+00 : f32\n            %90 = arith.cmpf ugt, %in, %cst_1 : f32\n            %91 = arith.select %90, %in, %cst_1 : f32\n            linalg.yield %91 : f32\n        } -> tensor<128x384x14x14xf32>\n%t = func.call @nanoTime() : () -> (i64)\n%delta = arith.subi %t, %t0 : i64\n%fp = arith.uitofp %delta : i64 to f64\n// func.call @printFlops(%fp) : (f64) -> ()\nfunc.call @printI64(%delta) : (i64) -> ()\nfunc.call @printNewline() : () -> ()\n\nreturn %return_arg : tensor<128x384x14x14xf32> \n}\n\nfunc.func @main(){\n    %c1 = arith.constant 1: index\n    %c0 = arith.constant 0 : index\n    %n = arith.constant 2: index\n    scf.for %i = %c0 to %n step %c1 {\n    %outputmain = func.call @matmul() : () -> tensor<128x384x14x14xf32>\n    }\n    return\n}\n}\n",
    "loops_data": {
      "nested_loops": [
        [
          "%arg2",
          0,
          128,
          1
        ],
        [
          "%arg3",
          0,
          384,
          1
        ],
        [
          "%arg4",
          0,
          14,
          1
        ],
        [
          "%arg5",
          0,
          14,
          1
        ]
      ],
      "op_count": {
        "+": 0,
        "-": 0,
        "*": 0,
        "/": 0,
        "exp": 0
      },
      "load_data": [
        [
          "%c0",
          "%arg3",
          "%arg4",
          "%arg5"
        ]
      ],
      "store_data": []
    },
    "execution_time": 7840215
  },
  "linalg.generic {indexing_maps = [#map2, #map], iterator_types = [\"parallel\", \"parallel\", \"parallel\", \"parallel\"]} ins(%28 : tensor<128x192x14x14xf32>) outs(%25 : tensor<128x192x14x14xf32>) {\n            ^bb0(%in: f32, %out: f32):\n            %cst_1 = arith.constant 0.000000e+00 : f32\n            %90 = arith.cmpf ugt, %in, %cst_1 : f32\n            %91 = arith.select %90, %in, %cst_1 : f32\n            linalg.yield %91 : f32\n        } -> tensor<128x192x14x14xf32>": {
    "operation": "linalg.generic {indexing_maps = [#map2, #map], iterator_types = [\"parallel\", \"parallel\", \"parallel\", \"parallel\"]} ins(%28 : tensor<128x192x14x14xf32>) outs(%25 : tensor<128x192x14x14xf32>) {\n            ^bb0(%in: f32, %out: f32):\n            %cst_1 = arith.constant 0.000000e+00 : f32\n            %90 = arith.cmpf ugt, %in, %cst_1 : f32\n            %91 = arith.select %90, %in, %cst_1 : f32\n            linalg.yield %91 : f32\n        } -> tensor<128x192x14x14xf32>",
    "wrapped_operation": "#map = affine_map<(d0, d1, d2, d3) -> (d0, d1, d2, d3)>\n        #map2 = affine_map<(d0, d1, d2, d3) -> (0, d1, d2, d3)>\nfunc.func @func_call(%28: tensor<128x192x14x14xf32>, %25: tensor<128x192x14x14xf32>) -> tensor<128x192x14x14xf32> {\n  %ret = linalg.generic {indexing_maps = [#map2, #map], iterator_types = [\"parallel\", \"parallel\", \"parallel\", \"parallel\"]} ins(%28 : tensor<128x192x14x14xf32>) outs(%25 : tensor<128x192x14x14xf32>) {\n            ^bb0(%in: f32, %out: f32):\n            %cst_1 = arith.constant 0.000000e+00 : f32\n            %90 = arith.cmpf ugt, %in, %cst_1 : f32\n            %91 = arith.select %90, %in, %cst_1 : f32\n            linalg.yield %91 : f32\n        } -> tensor<128x192x14x14xf32>\n  return %ret : tensor<128x192x14x14xf32>\n}",
    "lowered_operation": "module {\n  func.func @func_call(%arg0: tensor<128x192x14x14xf32>, %arg1: tensor<128x192x14x14xf32>) -> tensor<128x192x14x14xf32> {\n    %c0 = arith.constant 0 : index\n    %cst = arith.constant 0.000000e+00 : f32\n    %0 = bufferization.to_memref %arg0 : memref<128x192x14x14xf32>\n    %alloc = memref.alloc() {alignment = 64 : i64} : memref<128x192x14x14xf32>\n    affine.for %arg2 = 0 to 128 {\n      affine.for %arg3 = 0 to 192 {\n        affine.for %arg4 = 0 to 14 {\n          affine.for %arg5 = 0 to 14 {\n            %2 = affine.load %0[%c0, %arg3, %arg4, %arg5] : memref<128x192x14x14xf32>\n            %3 = arith.cmpf ugt, %2, %cst : f32\n            %4 = arith.select %3, %2, %cst : f32\n            affine.store %4, %alloc[%arg2, %arg3, %arg4, %arg5] : memref<128x192x14x14xf32>\n          }\n        }\n      }\n    }\n    %1 = bufferization.to_tensor %alloc : memref<128x192x14x14xf32>\n    return %1 : tensor<128x192x14x14xf32>\n  }\n}\n\n",
    "transform_wrapped_operation": "#map = affine_map<(d0, d1, d2, d3) -> (d0, d1, d2, d3)>\n        #map2 = affine_map<(d0, d1, d2, d3) -> (0, d1, d2, d3)>\nmodule attributes {torch.debug_module_name = \"Net\"} {\nfunc.func private @nanoTime() -> i64 attributes { llvm.emit_c_interface }\nfunc.func private @printFlops(f64)\nfunc.func private @printI64(i64)\nfunc.func private @printNewline()\nfunc.func private @printMemrefF32(tensor<*xf32>)\n\n\nfunc.func @matmul() -> tensor<128x192x14x14xf32>{\n\n%val = arith.constant 2.00000e+00 : f32\n%zero = arith.constant 0.00000e+00 : f32\n\n%tmp_28 = bufferization.alloc_tensor() : tensor<128x192x14x14xf32>\n%28 = linalg.fill ins(%val : f32) outs(%tmp_28 : tensor<128x192x14x14xf32>) -> tensor<128x192x14x14xf32>\n%tmp_25 = bufferization.alloc_tensor() : tensor<128x192x14x14xf32>\n%25 = linalg.fill ins(%val : f32) outs(%tmp_25 : tensor<128x192x14x14xf32>) -> tensor<128x192x14x14xf32>\n\n%t0 = func.call @nanoTime() : () -> (i64)\n\n%return_arg = linalg.generic {indexing_maps = [#map2, #map], iterator_types = [\"parallel\", \"parallel\", \"parallel\", \"parallel\"]} ins(%28 : tensor<128x192x14x14xf32>) outs(%25 : tensor<128x192x14x14xf32>) {\n            ^bb0(%in: f32, %out: f32):\n            %cst_1 = arith.constant 0.000000e+00 : f32\n            %90 = arith.cmpf ugt, %in, %cst_1 : f32\n            %91 = arith.select %90, %in, %cst_1 : f32\n            linalg.yield %91 : f32\n        } -> tensor<128x192x14x14xf32>\n%t = func.call @nanoTime() : () -> (i64)\n%delta = arith.subi %t, %t0 : i64\n%fp = arith.uitofp %delta : i64 to f64\n// func.call @printFlops(%fp) : (f64) -> ()\nfunc.call @printI64(%delta) : (i64) -> ()\nfunc.call @printNewline() : () -> ()\n\nreturn %return_arg : tensor<128x192x14x14xf32> \n}\n\nfunc.func @main(){\n    %c1 = arith.constant 1: index\n    %c0 = arith.constant 0 : index\n    %n = arith.constant 2: index\n    scf.for %i = %c0 to %n step %c1 {\n    %outputmain = func.call @matmul() : () -> tensor<128x192x14x14xf32>\n    }\n    return\n}\n}\n",
    "loops_data": {
      "nested_loops": [
        [
          "%arg2",
          0,
          128,
          1
        ],
        [
          "%arg3",
          0,
          192,
          1
        ],
        [
          "%arg4",
          0,
          14,
          1
        ],
        [
          "%arg5",
          0,
          14,
          1
        ]
      ],
      "op_count": {
        "+": 0,
        "-": 0,
        "*": 0,
        "/": 0,
        "exp": 0
      },
      "load_data": [
        [
          "%c0",
          "%arg3",
          "%arg4",
          "%arg5"
        ]
      ],
      "store_data": []
    },
    "execution_time": 3675221
  },
  "linalg.generic {indexing_maps = [#map2, #map], iterator_types = [\"parallel\", \"parallel\", \"parallel\", \"parallel\"]} ins(%28 : tensor<128x256x130x130xf32>) outs(%25 : tensor<128x256x130x130xf32>) {\n            ^bb0(%in: f32, %out: f32):\n            %cst_1 = arith.constant 0.000000e+00 : f32\n            %90 = arith.cmpf ugt, %in, %cst_1 : f32\n            %91 = arith.select %90, %in, %cst_1 : f32\n            linalg.yield %91 : f32\n        } -> tensor<128x256x130x130xf32>": {
    "operation": "linalg.generic {indexing_maps = [#map2, #map], iterator_types = [\"parallel\", \"parallel\", \"parallel\", \"parallel\"]} ins(%28 : tensor<128x256x130x130xf32>) outs(%25 : tensor<128x256x130x130xf32>) {\n            ^bb0(%in: f32, %out: f32):\n            %cst_1 = arith.constant 0.000000e+00 : f32\n            %90 = arith.cmpf ugt, %in, %cst_1 : f32\n            %91 = arith.select %90, %in, %cst_1 : f32\n            linalg.yield %91 : f32\n        } -> tensor<128x256x130x130xf32>",
    "wrapped_operation": "#map = affine_map<(d0, d1, d2, d3) -> (d0, d1, d2, d3)>\n        #map2 = affine_map<(d0, d1, d2, d3) -> (0, d1, d2, d3)>\nfunc.func @func_call(%28: tensor<128x256x130x130xf32>, %25: tensor<128x256x130x130xf32>) -> tensor<128x256x130x130xf32> {\n  %ret = linalg.generic {indexing_maps = [#map2, #map], iterator_types = [\"parallel\", \"parallel\", \"parallel\", \"parallel\"]} ins(%28 : tensor<128x256x130x130xf32>) outs(%25 : tensor<128x256x130x130xf32>) {\n            ^bb0(%in: f32, %out: f32):\n            %cst_1 = arith.constant 0.000000e+00 : f32\n            %90 = arith.cmpf ugt, %in, %cst_1 : f32\n            %91 = arith.select %90, %in, %cst_1 : f32\n            linalg.yield %91 : f32\n        } -> tensor<128x256x130x130xf32>\n  return %ret : tensor<128x256x130x130xf32>\n}",
    "lowered_operation": "module {\n  func.func @func_call(%arg0: tensor<128x256x130x130xf32>, %arg1: tensor<128x256x130x130xf32>) -> tensor<128x256x130x130xf32> {\n    %c0 = arith.constant 0 : index\n    %cst = arith.constant 0.000000e+00 : f32\n    %0 = bufferization.to_memref %arg0 : memref<128x256x130x130xf32>\n    %alloc = memref.alloc() {alignment = 64 : i64} : memref<128x256x130x130xf32>\n    affine.for %arg2 = 0 to 128 {\n      affine.for %arg3 = 0 to 256 {\n        affine.for %arg4 = 0 to 130 {\n          affine.for %arg5 = 0 to 130 {\n            %2 = affine.load %0[%c0, %arg3, %arg4, %arg5] : memref<128x256x130x130xf32>\n            %3 = arith.cmpf ugt, %2, %cst : f32\n            %4 = arith.select %3, %2, %cst : f32\n            affine.store %4, %alloc[%arg2, %arg3, %arg4, %arg5] : memref<128x256x130x130xf32>\n          }\n        }\n      }\n    }\n    %1 = bufferization.to_tensor %alloc : memref<128x256x130x130xf32>\n    return %1 : tensor<128x256x130x130xf32>\n  }\n}\n\n",
    "transform_wrapped_operation": "#map = affine_map<(d0, d1, d2, d3) -> (d0, d1, d2, d3)>\n        #map2 = affine_map<(d0, d1, d2, d3) -> (0, d1, d2, d3)>\nmodule attributes {torch.debug_module_name = \"Net\"} {\nfunc.func private @nanoTime() -> i64 attributes { llvm.emit_c_interface }\nfunc.func private @printFlops(f64)\nfunc.func private @printI64(i64)\nfunc.func private @printNewline()\nfunc.func private @printMemrefF32(tensor<*xf32>)\n\n\nfunc.func @matmul() -> tensor<128x256x130x130xf32>{\n\n%val = arith.constant 2.00000e+00 : f32\n%zero = arith.constant 0.00000e+00 : f32\n\n%tmp_28 = bufferization.alloc_tensor() : tensor<128x256x130x130xf32>\n%28 = linalg.fill ins(%val : f32) outs(%tmp_28 : tensor<128x256x130x130xf32>) -> tensor<128x256x130x130xf32>\n%tmp_25 = bufferization.alloc_tensor() : tensor<128x256x130x130xf32>\n%25 = linalg.fill ins(%val : f32) outs(%tmp_25 : tensor<128x256x130x130xf32>) -> tensor<128x256x130x130xf32>\n\n%t0 = func.call @nanoTime() : () -> (i64)\n\n%return_arg = linalg.generic {indexing_maps = [#map2, #map], iterator_types = [\"parallel\", \"parallel\", \"parallel\", \"parallel\"]} ins(%28 : tensor<128x256x130x130xf32>) outs(%25 : tensor<128x256x130x130xf32>) {\n            ^bb0(%in: f32, %out: f32):\n            %cst_1 = arith.constant 0.000000e+00 : f32\n            %90 = arith.cmpf ugt, %in, %cst_1 : f32\n            %91 = arith.select %90, %in, %cst_1 : f32\n            linalg.yield %91 : f32\n        } -> tensor<128x256x130x130xf32>\n%t = func.call @nanoTime() : () -> (i64)\n%delta = arith.subi %t, %t0 : i64\n%fp = arith.uitofp %delta : i64 to f64\n// func.call @printFlops(%fp) : (f64) -> ()\nfunc.call @printI64(%delta) : (i64) -> ()\nfunc.call @printNewline() : () -> ()\n\nreturn %return_arg : tensor<128x256x130x130xf32> \n}\n\nfunc.func @main(){\n    %c1 = arith.constant 1: index\n    %c0 = arith.constant 0 : index\n    %n = arith.constant 2: index\n    scf.for %i = %c0 to %n step %c1 {\n    %outputmain = func.call @matmul() : () -> tensor<128x256x130x130xf32>\n    }\n    return\n}\n}\n",
    "loops_data": {
      "nested_loops": [
        [
          "%arg2",
          0,
          128,
          1
        ],
        [
          "%arg3",
          0,
          256,
          1
        ],
        [
          "%arg4",
          0,
          130,
          1
        ],
        [
          "%arg5",
          0,
          130,
          1
        ]
      ],
      "op_count": {
        "+": 0,
        "-": 0,
        "*": 0,
        "/": 0,
        "exp": 0
      },
      "load_data": [
        [
          "%c0",
          "%arg3",
          "%arg4",
          "%arg5"
        ]
      ],
      "store_data": []
    },
    "execution_time": 485539139
  },
  "linalg.generic {indexing_maps = [#map2, #map], iterator_types = [\"parallel\", \"parallel\", \"parallel\", \"parallel\"]} ins(%28 : tensor<128x48x56x56xf32>) outs(%25 : tensor<128x48x56x56xf32>) {\n            ^bb0(%in: f32, %out: f32):\n            %cst_1 = arith.constant 0.000000e+00 : f32\n            %90 = arith.cmpf ugt, %in, %cst_1 : f32\n            %91 = arith.select %90, %in, %cst_1 : f32\n            linalg.yield %91 : f32\n        } -> tensor<128x48x56x56xf32>": {
    "operation": "linalg.generic {indexing_maps = [#map2, #map], iterator_types = [\"parallel\", \"parallel\", \"parallel\", \"parallel\"]} ins(%28 : tensor<128x48x56x56xf32>) outs(%25 : tensor<128x48x56x56xf32>) {\n            ^bb0(%in: f32, %out: f32):\n            %cst_1 = arith.constant 0.000000e+00 : f32\n            %90 = arith.cmpf ugt, %in, %cst_1 : f32\n            %91 = arith.select %90, %in, %cst_1 : f32\n            linalg.yield %91 : f32\n        } -> tensor<128x48x56x56xf32>",
    "wrapped_operation": "#map = affine_map<(d0, d1, d2, d3) -> (d0, d1, d2, d3)>\n        #map2 = affine_map<(d0, d1, d2, d3) -> (0, d1, d2, d3)>\nfunc.func @func_call(%28: tensor<128x48x56x56xf32>, %25: tensor<128x48x56x56xf32>) -> tensor<128x48x56x56xf32> {\n  %ret = linalg.generic {indexing_maps = [#map2, #map], iterator_types = [\"parallel\", \"parallel\", \"parallel\", \"parallel\"]} ins(%28 : tensor<128x48x56x56xf32>) outs(%25 : tensor<128x48x56x56xf32>) {\n            ^bb0(%in: f32, %out: f32):\n            %cst_1 = arith.constant 0.000000e+00 : f32\n            %90 = arith.cmpf ugt, %in, %cst_1 : f32\n            %91 = arith.select %90, %in, %cst_1 : f32\n            linalg.yield %91 : f32\n        } -> tensor<128x48x56x56xf32>\n  return %ret : tensor<128x48x56x56xf32>\n}",
    "lowered_operation": "module {\n  func.func @func_call(%arg0: tensor<128x48x56x56xf32>, %arg1: tensor<128x48x56x56xf32>) -> tensor<128x48x56x56xf32> {\n    %c0 = arith.constant 0 : index\n    %cst = arith.constant 0.000000e+00 : f32\n    %0 = bufferization.to_memref %arg0 : memref<128x48x56x56xf32>\n    %alloc = memref.alloc() {alignment = 64 : i64} : memref<128x48x56x56xf32>\n    affine.for %arg2 = 0 to 128 {\n      affine.for %arg3 = 0 to 48 {\n        affine.for %arg4 = 0 to 56 {\n          affine.for %arg5 = 0 to 56 {\n            %2 = affine.load %0[%c0, %arg3, %arg4, %arg5] : memref<128x48x56x56xf32>\n            %3 = arith.cmpf ugt, %2, %cst : f32\n            %4 = arith.select %3, %2, %cst : f32\n            affine.store %4, %alloc[%arg2, %arg3, %arg4, %arg5] : memref<128x48x56x56xf32>\n          }\n        }\n      }\n    }\n    %1 = bufferization.to_tensor %alloc : memref<128x48x56x56xf32>\n    return %1 : tensor<128x48x56x56xf32>\n  }\n}\n\n",
    "transform_wrapped_operation": "#map = affine_map<(d0, d1, d2, d3) -> (d0, d1, d2, d3)>\n        #map2 = affine_map<(d0, d1, d2, d3) -> (0, d1, d2, d3)>\nmodule attributes {torch.debug_module_name = \"Net\"} {\nfunc.func private @nanoTime() -> i64 attributes { llvm.emit_c_interface }\nfunc.func private @printFlops(f64)\nfunc.func private @printI64(i64)\nfunc.func private @printNewline()\nfunc.func private @printMemrefF32(tensor<*xf32>)\n\n\nfunc.func @matmul() -> tensor<128x48x56x56xf32>{\n\n%val = arith.constant 2.00000e+00 : f32\n%zero = arith.constant 0.00000e+00 : f32\n\n%tmp_28 = bufferization.alloc_tensor() : tensor<128x48x56x56xf32>\n%28 = linalg.fill ins(%val : f32) outs(%tmp_28 : tensor<128x48x56x56xf32>) -> tensor<128x48x56x56xf32>\n%tmp_25 = bufferization.alloc_tensor() : tensor<128x48x56x56xf32>\n%25 = linalg.fill ins(%val : f32) outs(%tmp_25 : tensor<128x48x56x56xf32>) -> tensor<128x48x56x56xf32>\n\n%t0 = func.call @nanoTime() : () -> (i64)\n\n%return_arg = linalg.generic {indexing_maps = [#map2, #map], iterator_types = [\"parallel\", \"parallel\", \"parallel\", \"parallel\"]} ins(%28 : tensor<128x48x56x56xf32>) outs(%25 : tensor<128x48x56x56xf32>) {\n            ^bb0(%in: f32, %out: f32):\n            %cst_1 = arith.constant 0.000000e+00 : f32\n            %90 = arith.cmpf ugt, %in, %cst_1 : f32\n            %91 = arith.select %90, %in, %cst_1 : f32\n            linalg.yield %91 : f32\n        } -> tensor<128x48x56x56xf32>\n%t = func.call @nanoTime() : () -> (i64)\n%delta = arith.subi %t, %t0 : i64\n%fp = arith.uitofp %delta : i64 to f64\n// func.call @printFlops(%fp) : (f64) -> ()\nfunc.call @printI64(%delta) : (i64) -> ()\nfunc.call @printNewline() : () -> ()\n\nreturn %return_arg : tensor<128x48x56x56xf32> \n}\n\nfunc.func @main(){\n    %c1 = arith.constant 1: index\n    %c0 = arith.constant 0 : index\n    %n = arith.constant 2: index\n    scf.for %i = %c0 to %n step %c1 {\n    %outputmain = func.call @matmul() : () -> tensor<128x48x56x56xf32>\n    }\n    return\n}\n}\n",
    "loops_data": {
      "nested_loops": [
        [
          "%arg2",
          0,
          128,
          1
        ],
        [
          "%arg3",
          0,
          48,
          1
        ],
        [
          "%arg4",
          0,
          56,
          1
        ],
        [
          "%arg5",
          0,
          56,
          1
        ]
      ],
      "op_count": {
        "+": 0,
        "-": 0,
        "*": 0,
        "/": 0,
        "exp": 0
      },
      "load_data": [
        [
          "%c0",
          "%arg3",
          "%arg4",
          "%arg5"
        ]
      ],
      "store_data": []
    },
    "execution_time": 16730524
  },
  "linalg.generic {indexing_maps = [#map2, #map2], iterator_types = [\"parallel\", \"parallel\"]} ins(%38 : tensor<128x1024xf32>) outs(%35 : tensor<128x1024xf32>) {\n            ^bb0(%in: f32, %out: f32):\n            %cst_1 = arith.constant 0.000000e+00 : f32\n            %46 = arith.cmpf ugt, %in, %cst_1 : f32\n            %47 = arith.select %46, %in, %cst_1 : f32\n            linalg.yield %47 : f32\n        } -> tensor<128x1024xf32>": {
    "operation": "linalg.generic {indexing_maps = [#map2, #map2], iterator_types = [\"parallel\", \"parallel\"]} ins(%38 : tensor<128x1024xf32>) outs(%35 : tensor<128x1024xf32>) {\n            ^bb0(%in: f32, %out: f32):\n            %cst_1 = arith.constant 0.000000e+00 : f32\n            %46 = arith.cmpf ugt, %in, %cst_1 : f32\n            %47 = arith.select %46, %in, %cst_1 : f32\n            linalg.yield %47 : f32\n        } -> tensor<128x1024xf32>",
    "wrapped_operation": "#map2 = affine_map<(d0, d1) -> (d0, d1)>\nfunc.func @func_call(%38: tensor<128x1024xf32>, %35: tensor<128x1024xf32>) -> tensor<128x1024xf32> {\n  %ret = linalg.generic {indexing_maps = [#map2, #map2], iterator_types = [\"parallel\", \"parallel\"]} ins(%38 : tensor<128x1024xf32>) outs(%35 : tensor<128x1024xf32>) {\n            ^bb0(%in: f32, %out: f32):\n            %cst_1 = arith.constant 0.000000e+00 : f32\n            %46 = arith.cmpf ugt, %in, %cst_1 : f32\n            %47 = arith.select %46, %in, %cst_1 : f32\n            linalg.yield %47 : f32\n        } -> tensor<128x1024xf32>\n  return %ret : tensor<128x1024xf32>\n}",
    "lowered_operation": "module {\n  func.func @func_call(%arg0: tensor<128x1024xf32>, %arg1: tensor<128x1024xf32>) -> tensor<128x1024xf32> {\n    %cst = arith.constant 0.000000e+00 : f32\n    %0 = bufferization.to_memref %arg0 : memref<128x1024xf32>\n    %alloc = memref.alloc() {alignment = 64 : i64} : memref<128x1024xf32>\n    affine.for %arg2 = 0 to 128 {\n      affine.for %arg3 = 0 to 1024 {\n        %2 = affine.load %0[%arg2, %arg3] : memref<128x1024xf32>\n        %3 = arith.cmpf ugt, %2, %cst : f32\n        %4 = arith.select %3, %2, %cst : f32\n        affine.store %4, %alloc[%arg2, %arg3] : memref<128x1024xf32>\n      }\n    }\n    %1 = bufferization.to_tensor %alloc : memref<128x1024xf32>\n    return %1 : tensor<128x1024xf32>\n  }\n}\n\n",
    "transform_wrapped_operation": "#map2 = affine_map<(d0, d1) -> (d0, d1)>\nmodule attributes {torch.debug_module_name = \"Net\"} {\nfunc.func private @nanoTime() -> i64 attributes { llvm.emit_c_interface }\nfunc.func private @printFlops(f64)\nfunc.func private @printI64(i64)\nfunc.func private @printNewline()\nfunc.func private @printMemrefF32(tensor<*xf32>)\n\n\nfunc.func @matmul() -> tensor<128x1024xf32>{\n\n%val = arith.constant 2.00000e+00 : f32\n%zero = arith.constant 0.00000e+00 : f32\n\n%tmp_38 = bufferization.alloc_tensor() : tensor<128x1024xf32>\n%38 = linalg.fill ins(%val : f32) outs(%tmp_38 : tensor<128x1024xf32>) -> tensor<128x1024xf32>\n%tmp_35 = bufferization.alloc_tensor() : tensor<128x1024xf32>\n%35 = linalg.fill ins(%val : f32) outs(%tmp_35 : tensor<128x1024xf32>) -> tensor<128x1024xf32>\n\n%t0 = func.call @nanoTime() : () -> (i64)\n\n%return_arg = linalg.generic {indexing_maps = [#map2, #map2], iterator_types = [\"parallel\", \"parallel\"]} ins(%38 : tensor<128x1024xf32>) outs(%35 : tensor<128x1024xf32>) {\n            ^bb0(%in: f32, %out: f32):\n            %cst_1 = arith.constant 0.000000e+00 : f32\n            %46 = arith.cmpf ugt, %in, %cst_1 : f32\n            %47 = arith.select %46, %in, %cst_1 : f32\n            linalg.yield %47 : f32\n        } -> tensor<128x1024xf32>\n%t = func.call @nanoTime() : () -> (i64)\n%delta = arith.subi %t, %t0 : i64\n%fp = arith.uitofp %delta : i64 to f64\n// func.call @printFlops(%fp) : (f64) -> ()\nfunc.call @printI64(%delta) : (i64) -> ()\nfunc.call @printNewline() : () -> ()\n\nreturn %return_arg : tensor<128x1024xf32> \n}\n\nfunc.func @main(){\n    %c1 = arith.constant 1: index\n    %c0 = arith.constant 0 : index\n    %n = arith.constant 2: index\n    scf.for %i = %c0 to %n step %c1 {\n    %outputmain = func.call @matmul() : () -> tensor<128x1024xf32>\n    }\n    return\n}\n}\n",
    "loops_data": {
      "nested_loops": [
        [
          "%arg2",
          0,
          128,
          1
        ],
        [
          "%arg3",
          0,
          1024,
          1
        ]
      ],
      "op_count": {
        "+": 0,
        "-": 0,
        "*": 0,
        "/": 0,
        "exp": 0
      },
      "load_data": [
        [
          "%arg2",
          "%arg3"
        ]
      ],
      "store_data": []
    },
    "execution_time": 100476
  },
  "linalg.generic {indexing_maps = [#map2, #map], iterator_types = [\"parallel\", \"parallel\", \"parallel\", \"parallel\"]} ins(%28 : tensor<256x512x14x14xf32>) outs(%25 : tensor<256x512x14x14xf32>) {\n            ^bb0(%in: f32, %out: f32):\n            %cst_1 = arith.constant 0.000000e+00 : f32\n            %90 = arith.cmpf ugt, %in, %cst_1 : f32\n            %91 = arith.select %90, %in, %cst_1 : f32\n            linalg.yield %91 : f32\n        } -> tensor<256x512x14x14xf32>": {
    "operation": "linalg.generic {indexing_maps = [#map2, #map], iterator_types = [\"parallel\", \"parallel\", \"parallel\", \"parallel\"]} ins(%28 : tensor<256x512x14x14xf32>) outs(%25 : tensor<256x512x14x14xf32>) {\n            ^bb0(%in: f32, %out: f32):\n            %cst_1 = arith.constant 0.000000e+00 : f32\n            %90 = arith.cmpf ugt, %in, %cst_1 : f32\n            %91 = arith.select %90, %in, %cst_1 : f32\n            linalg.yield %91 : f32\n        } -> tensor<256x512x14x14xf32>",
    "wrapped_operation": "#map = affine_map<(d0, d1, d2, d3) -> (d0, d1, d2, d3)>\n        #map2 = affine_map<(d0, d1, d2, d3) -> (0, d1, d2, d3)>\nfunc.func @func_call(%28: tensor<256x512x14x14xf32>, %25: tensor<256x512x14x14xf32>) -> tensor<256x512x14x14xf32> {\n  %ret = linalg.generic {indexing_maps = [#map2, #map], iterator_types = [\"parallel\", \"parallel\", \"parallel\", \"parallel\"]} ins(%28 : tensor<256x512x14x14xf32>) outs(%25 : tensor<256x512x14x14xf32>) {\n            ^bb0(%in: f32, %out: f32):\n            %cst_1 = arith.constant 0.000000e+00 : f32\n            %90 = arith.cmpf ugt, %in, %cst_1 : f32\n            %91 = arith.select %90, %in, %cst_1 : f32\n            linalg.yield %91 : f32\n        } -> tensor<256x512x14x14xf32>\n  return %ret : tensor<256x512x14x14xf32>\n}",
    "lowered_operation": "module {\n  func.func @func_call(%arg0: tensor<256x512x14x14xf32>, %arg1: tensor<256x512x14x14xf32>) -> tensor<256x512x14x14xf32> {\n    %c0 = arith.constant 0 : index\n    %cst = arith.constant 0.000000e+00 : f32\n    %0 = bufferization.to_memref %arg0 : memref<256x512x14x14xf32>\n    %alloc = memref.alloc() {alignment = 64 : i64} : memref<256x512x14x14xf32>\n    affine.for %arg2 = 0 to 256 {\n      affine.for %arg3 = 0 to 512 {\n        affine.for %arg4 = 0 to 14 {\n          affine.for %arg5 = 0 to 14 {\n            %2 = affine.load %0[%c0, %arg3, %arg4, %arg5] : memref<256x512x14x14xf32>\n            %3 = arith.cmpf ugt, %2, %cst : f32\n            %4 = arith.select %3, %2, %cst : f32\n            affine.store %4, %alloc[%arg2, %arg3, %arg4, %arg5] : memref<256x512x14x14xf32>\n          }\n        }\n      }\n    }\n    %1 = bufferization.to_tensor %alloc : memref<256x512x14x14xf32>\n    return %1 : tensor<256x512x14x14xf32>\n  }\n}\n\n",
    "transform_wrapped_operation": "#map = affine_map<(d0, d1, d2, d3) -> (d0, d1, d2, d3)>\n        #map2 = affine_map<(d0, d1, d2, d3) -> (0, d1, d2, d3)>\nmodule attributes {torch.debug_module_name = \"Net\"} {\nfunc.func private @nanoTime() -> i64 attributes { llvm.emit_c_interface }\nfunc.func private @printFlops(f64)\nfunc.func private @printI64(i64)\nfunc.func private @printNewline()\nfunc.func private @printMemrefF32(tensor<*xf32>)\n\n\nfunc.func @matmul() -> tensor<256x512x14x14xf32>{\n\n%val = arith.constant 2.00000e+00 : f32\n%zero = arith.constant 0.00000e+00 : f32\n\n%tmp_28 = bufferization.alloc_tensor() : tensor<256x512x14x14xf32>\n%28 = linalg.fill ins(%val : f32) outs(%tmp_28 : tensor<256x512x14x14xf32>) -> tensor<256x512x14x14xf32>\n%tmp_25 = bufferization.alloc_tensor() : tensor<256x512x14x14xf32>\n%25 = linalg.fill ins(%val : f32) outs(%tmp_25 : tensor<256x512x14x14xf32>) -> tensor<256x512x14x14xf32>\n\n%t0 = func.call @nanoTime() : () -> (i64)\n\n%return_arg = linalg.generic {indexing_maps = [#map2, #map], iterator_types = [\"parallel\", \"parallel\", \"parallel\", \"parallel\"]} ins(%28 : tensor<256x512x14x14xf32>) outs(%25 : tensor<256x512x14x14xf32>) {\n            ^bb0(%in: f32, %out: f32):\n            %cst_1 = arith.constant 0.000000e+00 : f32\n            %90 = arith.cmpf ugt, %in, %cst_1 : f32\n            %91 = arith.select %90, %in, %cst_1 : f32\n            linalg.yield %91 : f32\n        } -> tensor<256x512x14x14xf32>\n%t = func.call @nanoTime() : () -> (i64)\n%delta = arith.subi %t, %t0 : i64\n%fp = arith.uitofp %delta : i64 to f64\n// func.call @printFlops(%fp) : (f64) -> ()\nfunc.call @printI64(%delta) : (i64) -> ()\nfunc.call @printNewline() : () -> ()\n\nreturn %return_arg : tensor<256x512x14x14xf32> \n}\n\nfunc.func @main(){\n    %c1 = arith.constant 1: index\n    %c0 = arith.constant 0 : index\n    %n = arith.constant 2: index\n    scf.for %i = %c0 to %n step %c1 {\n    %outputmain = func.call @matmul() : () -> tensor<256x512x14x14xf32>\n    }\n    return\n}\n}\n",
    "loops_data": {
      "nested_loops": [
        [
          "%arg2",
          0,
          256,
          1
        ],
        [
          "%arg3",
          0,
          512,
          1
        ],
        [
          "%arg4",
          0,
          14,
          1
        ],
        [
          "%arg5",
          0,
          14,
          1
        ]
      ],
      "op_count": {
        "+": 0,
        "-": 0,
        "*": 0,
        "/": 0,
        "exp": 0
      },
      "load_data": [
        [
          "%c0",
          "%arg3",
          "%arg4",
          "%arg5"
        ]
      ],
      "store_data": []
    },
    "execution_time": 21310216
  },
  "linalg.generic {indexing_maps = [#map2, #map2], iterator_types = [\"parallel\", \"parallel\"]} ins(%38 : tensor<256x3072xf32>) outs(%35 : tensor<256x3072xf32>) {\n            ^bb0(%in: f32, %out: f32):\n            %cst_1 = arith.constant 0.000000e+00 : f32\n            %46 = arith.cmpf ugt, %in, %cst_1 : f32\n            %47 = arith.select %46, %in, %cst_1 : f32\n            linalg.yield %47 : f32\n        } -> tensor<256x3072xf32>": {
    "operation": "linalg.generic {indexing_maps = [#map2, #map2], iterator_types = [\"parallel\", \"parallel\"]} ins(%38 : tensor<256x3072xf32>) outs(%35 : tensor<256x3072xf32>) {\n            ^bb0(%in: f32, %out: f32):\n            %cst_1 = arith.constant 0.000000e+00 : f32\n            %46 = arith.cmpf ugt, %in, %cst_1 : f32\n            %47 = arith.select %46, %in, %cst_1 : f32\n            linalg.yield %47 : f32\n        } -> tensor<256x3072xf32>",
    "wrapped_operation": "#map2 = affine_map<(d0, d1) -> (d0, d1)>\nfunc.func @func_call(%38: tensor<256x3072xf32>, %35: tensor<256x3072xf32>) -> tensor<256x3072xf32> {\n  %ret = linalg.generic {indexing_maps = [#map2, #map2], iterator_types = [\"parallel\", \"parallel\"]} ins(%38 : tensor<256x3072xf32>) outs(%35 : tensor<256x3072xf32>) {\n            ^bb0(%in: f32, %out: f32):\n            %cst_1 = arith.constant 0.000000e+00 : f32\n            %46 = arith.cmpf ugt, %in, %cst_1 : f32\n            %47 = arith.select %46, %in, %cst_1 : f32\n            linalg.yield %47 : f32\n        } -> tensor<256x3072xf32>\n  return %ret : tensor<256x3072xf32>\n}",
    "lowered_operation": "module {\n  func.func @func_call(%arg0: tensor<256x3072xf32>, %arg1: tensor<256x3072xf32>) -> tensor<256x3072xf32> {\n    %cst = arith.constant 0.000000e+00 : f32\n    %0 = bufferization.to_memref %arg0 : memref<256x3072xf32>\n    %alloc = memref.alloc() {alignment = 64 : i64} : memref<256x3072xf32>\n    affine.for %arg2 = 0 to 256 {\n      affine.for %arg3 = 0 to 3072 {\n        %2 = affine.load %0[%arg2, %arg3] : memref<256x3072xf32>\n        %3 = arith.cmpf ugt, %2, %cst : f32\n        %4 = arith.select %3, %2, %cst : f32\n        affine.store %4, %alloc[%arg2, %arg3] : memref<256x3072xf32>\n      }\n    }\n    %1 = bufferization.to_tensor %alloc : memref<256x3072xf32>\n    return %1 : tensor<256x3072xf32>\n  }\n}\n\n",
    "transform_wrapped_operation": "#map2 = affine_map<(d0, d1) -> (d0, d1)>\nmodule attributes {torch.debug_module_name = \"Net\"} {\nfunc.func private @nanoTime() -> i64 attributes { llvm.emit_c_interface }\nfunc.func private @printFlops(f64)\nfunc.func private @printI64(i64)\nfunc.func private @printNewline()\nfunc.func private @printMemrefF32(tensor<*xf32>)\n\n\nfunc.func @matmul() -> tensor<256x3072xf32>{\n\n%val = arith.constant 2.00000e+00 : f32\n%zero = arith.constant 0.00000e+00 : f32\n\n%tmp_38 = bufferization.alloc_tensor() : tensor<256x3072xf32>\n%38 = linalg.fill ins(%val : f32) outs(%tmp_38 : tensor<256x3072xf32>) -> tensor<256x3072xf32>\n%tmp_35 = bufferization.alloc_tensor() : tensor<256x3072xf32>\n%35 = linalg.fill ins(%val : f32) outs(%tmp_35 : tensor<256x3072xf32>) -> tensor<256x3072xf32>\n\n%t0 = func.call @nanoTime() : () -> (i64)\n\n%return_arg = linalg.generic {indexing_maps = [#map2, #map2], iterator_types = [\"parallel\", \"parallel\"]} ins(%38 : tensor<256x3072xf32>) outs(%35 : tensor<256x3072xf32>) {\n            ^bb0(%in: f32, %out: f32):\n            %cst_1 = arith.constant 0.000000e+00 : f32\n            %46 = arith.cmpf ugt, %in, %cst_1 : f32\n            %47 = arith.select %46, %in, %cst_1 : f32\n            linalg.yield %47 : f32\n        } -> tensor<256x3072xf32>\n%t = func.call @nanoTime() : () -> (i64)\n%delta = arith.subi %t, %t0 : i64\n%fp = arith.uitofp %delta : i64 to f64\n// func.call @printFlops(%fp) : (f64) -> ()\nfunc.call @printI64(%delta) : (i64) -> ()\nfunc.call @printNewline() : () -> ()\n\nreturn %return_arg : tensor<256x3072xf32> \n}\n\nfunc.func @main(){\n    %c1 = arith.constant 1: index\n    %c0 = arith.constant 0 : index\n    %n = arith.constant 2: index\n    scf.for %i = %c0 to %n step %c1 {\n    %outputmain = func.call @matmul() : () -> tensor<256x3072xf32>\n    }\n    return\n}\n}\n",
    "loops_data": {
      "nested_loops": [
        [
          "%arg2",
          0,
          256,
          1
        ],
        [
          "%arg3",
          0,
          3072,
          1
        ]
      ],
      "op_count": {
        "+": 0,
        "-": 0,
        "*": 0,
        "/": 0,
        "exp": 0
      },
      "load_data": [
        [
          "%arg2",
          "%arg3"
        ]
      ],
      "store_data": []
    },
    "execution_time": 602550
  },
  "linalg.generic {indexing_maps = [#map2, #map], iterator_types = [\"parallel\", \"parallel\", \"parallel\", \"parallel\"]} ins(%28 : tensor<128x384x240x240xf32>) outs(%25 : tensor<128x384x240x240xf32>) {\n            ^bb0(%in: f32, %out: f32):\n            %cst_1 = arith.constant 0.000000e+00 : f32\n            %90 = arith.cmpf ugt, %in, %cst_1 : f32\n            %91 = arith.select %90, %in, %cst_1 : f32\n            linalg.yield %91 : f32\n        } -> tensor<128x384x240x240xf32>": {
    "operation": "linalg.generic {indexing_maps = [#map2, #map], iterator_types = [\"parallel\", \"parallel\", \"parallel\", \"parallel\"]} ins(%28 : tensor<128x384x240x240xf32>) outs(%25 : tensor<128x384x240x240xf32>) {\n            ^bb0(%in: f32, %out: f32):\n            %cst_1 = arith.constant 0.000000e+00 : f32\n            %90 = arith.cmpf ugt, %in, %cst_1 : f32\n            %91 = arith.select %90, %in, %cst_1 : f32\n            linalg.yield %91 : f32\n        } -> tensor<128x384x240x240xf32>",
    "wrapped_operation": "#map = affine_map<(d0, d1, d2, d3) -> (d0, d1, d2, d3)>\n        #map2 = affine_map<(d0, d1, d2, d3) -> (0, d1, d2, d3)>\nfunc.func @func_call(%28: tensor<128x384x240x240xf32>, %25: tensor<128x384x240x240xf32>) -> tensor<128x384x240x240xf32> {\n  %ret = linalg.generic {indexing_maps = [#map2, #map], iterator_types = [\"parallel\", \"parallel\", \"parallel\", \"parallel\"]} ins(%28 : tensor<128x384x240x240xf32>) outs(%25 : tensor<128x384x240x240xf32>) {\n            ^bb0(%in: f32, %out: f32):\n            %cst_1 = arith.constant 0.000000e+00 : f32\n            %90 = arith.cmpf ugt, %in, %cst_1 : f32\n            %91 = arith.select %90, %in, %cst_1 : f32\n            linalg.yield %91 : f32\n        } -> tensor<128x384x240x240xf32>\n  return %ret : tensor<128x384x240x240xf32>\n}",
    "lowered_operation": "module {\n  func.func @func_call(%arg0: tensor<128x384x240x240xf32>, %arg1: tensor<128x384x240x240xf32>) -> tensor<128x384x240x240xf32> {\n    %c0 = arith.constant 0 : index\n    %cst = arith.constant 0.000000e+00 : f32\n    %0 = bufferization.to_memref %arg0 : memref<128x384x240x240xf32>\n    %alloc = memref.alloc() {alignment = 64 : i64} : memref<128x384x240x240xf32>\n    affine.for %arg2 = 0 to 128 {\n      affine.for %arg3 = 0 to 384 {\n        affine.for %arg4 = 0 to 240 {\n          affine.for %arg5 = 0 to 240 {\n            %2 = affine.load %0[%c0, %arg3, %arg4, %arg5] : memref<128x384x240x240xf32>\n            %3 = arith.cmpf ugt, %2, %cst : f32\n            %4 = arith.select %3, %2, %cst : f32\n            affine.store %4, %alloc[%arg2, %arg3, %arg4, %arg5] : memref<128x384x240x240xf32>\n          }\n        }\n      }\n    }\n    %1 = bufferization.to_tensor %alloc : memref<128x384x240x240xf32>\n    return %1 : tensor<128x384x240x240xf32>\n  }\n}\n\n",
    "transform_wrapped_operation": "#map = affine_map<(d0, d1, d2, d3) -> (d0, d1, d2, d3)>\n        #map2 = affine_map<(d0, d1, d2, d3) -> (0, d1, d2, d3)>\nmodule attributes {torch.debug_module_name = \"Net\"} {\nfunc.func private @nanoTime() -> i64 attributes { llvm.emit_c_interface }\nfunc.func private @printFlops(f64)\nfunc.func private @printI64(i64)\nfunc.func private @printNewline()\nfunc.func private @printMemrefF32(tensor<*xf32>)\n\n\nfunc.func @matmul() -> tensor<128x384x240x240xf32>{\n\n%val = arith.constant 2.00000e+00 : f32\n%zero = arith.constant 0.00000e+00 : f32\n\n%tmp_28 = bufferization.alloc_tensor() : tensor<128x384x240x240xf32>\n%28 = linalg.fill ins(%val : f32) outs(%tmp_28 : tensor<128x384x240x240xf32>) -> tensor<128x384x240x240xf32>\n%tmp_25 = bufferization.alloc_tensor() : tensor<128x384x240x240xf32>\n%25 = linalg.fill ins(%val : f32) outs(%tmp_25 : tensor<128x384x240x240xf32>) -> tensor<128x384x240x240xf32>\n\n%t0 = func.call @nanoTime() : () -> (i64)\n\n%return_arg = linalg.generic {indexing_maps = [#map2, #map], iterator_types = [\"parallel\", \"parallel\", \"parallel\", \"parallel\"]} ins(%28 : tensor<128x384x240x240xf32>) outs(%25 : tensor<128x384x240x240xf32>) {\n            ^bb0(%in: f32, %out: f32):\n            %cst_1 = arith.constant 0.000000e+00 : f32\n            %90 = arith.cmpf ugt, %in, %cst_1 : f32\n            %91 = arith.select %90, %in, %cst_1 : f32\n            linalg.yield %91 : f32\n        } -> tensor<128x384x240x240xf32>\n%t = func.call @nanoTime() : () -> (i64)\n%delta = arith.subi %t, %t0 : i64\n%fp = arith.uitofp %delta : i64 to f64\n// func.call @printFlops(%fp) : (f64) -> ()\nfunc.call @printI64(%delta) : (i64) -> ()\nfunc.call @printNewline() : () -> ()\n\nreturn %return_arg : tensor<128x384x240x240xf32> \n}\n\nfunc.func @main(){\n    %c1 = arith.constant 1: index\n    %c0 = arith.constant 0 : index\n    %n = arith.constant 2: index\n    scf.for %i = %c0 to %n step %c1 {\n    %outputmain = func.call @matmul() : () -> tensor<128x384x240x240xf32>\n    }\n    return\n}\n}\n",
    "loops_data": {
      "nested_loops": [
        [
          "%arg2",
          0,
          128,
          1
        ],
        [
          "%arg3",
          0,
          384,
          1
        ],
        [
          "%arg4",
          0,
          240,
          1
        ],
        [
          "%arg5",
          0,
          240,
          1
        ]
      ],
      "op_count": {
        "+": 0,
        "-": 0,
        "*": 0,
        "/": 0,
        "exp": 0
      },
      "load_data": [
        [
          "%c0",
          "%arg3",
          "%arg4",
          "%arg5"
        ]
      ],
      "store_data": []
    },
    "execution_time": 2591579652
  },
  "linalg.generic {indexing_maps = [#map2, #map], iterator_types = [\"parallel\", \"parallel\", \"parallel\", \"parallel\"]} ins(%28 : tensor<128x128x224x224xf32>) outs(%25 : tensor<128x128x224x224xf32>) {\n            ^bb0(%in: f32, %out: f32):\n            %cst_1 = arith.constant 0.000000e+00 : f32\n            %90 = arith.cmpf ugt, %in, %cst_1 : f32\n            %91 = arith.select %90, %in, %cst_1 : f32\n            linalg.yield %91 : f32\n        } -> tensor<128x128x224x224xf32>": {
    "operation": "linalg.generic {indexing_maps = [#map2, #map], iterator_types = [\"parallel\", \"parallel\", \"parallel\", \"parallel\"]} ins(%28 : tensor<128x128x224x224xf32>) outs(%25 : tensor<128x128x224x224xf32>) {\n            ^bb0(%in: f32, %out: f32):\n            %cst_1 = arith.constant 0.000000e+00 : f32\n            %90 = arith.cmpf ugt, %in, %cst_1 : f32\n            %91 = arith.select %90, %in, %cst_1 : f32\n            linalg.yield %91 : f32\n        } -> tensor<128x128x224x224xf32>",
    "wrapped_operation": "#map = affine_map<(d0, d1, d2, d3) -> (d0, d1, d2, d3)>\n        #map2 = affine_map<(d0, d1, d2, d3) -> (0, d1, d2, d3)>\nfunc.func @func_call(%28: tensor<128x128x224x224xf32>, %25: tensor<128x128x224x224xf32>) -> tensor<128x128x224x224xf32> {\n  %ret = linalg.generic {indexing_maps = [#map2, #map], iterator_types = [\"parallel\", \"parallel\", \"parallel\", \"parallel\"]} ins(%28 : tensor<128x128x224x224xf32>) outs(%25 : tensor<128x128x224x224xf32>) {\n            ^bb0(%in: f32, %out: f32):\n            %cst_1 = arith.constant 0.000000e+00 : f32\n            %90 = arith.cmpf ugt, %in, %cst_1 : f32\n            %91 = arith.select %90, %in, %cst_1 : f32\n            linalg.yield %91 : f32\n        } -> tensor<128x128x224x224xf32>\n  return %ret : tensor<128x128x224x224xf32>\n}",
    "lowered_operation": "module {\n  func.func @func_call(%arg0: tensor<128x128x224x224xf32>, %arg1: tensor<128x128x224x224xf32>) -> tensor<128x128x224x224xf32> {\n    %c0 = arith.constant 0 : index\n    %cst = arith.constant 0.000000e+00 : f32\n    %0 = bufferization.to_memref %arg0 : memref<128x128x224x224xf32>\n    %alloc = memref.alloc() {alignment = 64 : i64} : memref<128x128x224x224xf32>\n    affine.for %arg2 = 0 to 128 {\n      affine.for %arg3 = 0 to 128 {\n        affine.for %arg4 = 0 to 224 {\n          affine.for %arg5 = 0 to 224 {\n            %2 = affine.load %0[%c0, %arg3, %arg4, %arg5] : memref<128x128x224x224xf32>\n            %3 = arith.cmpf ugt, %2, %cst : f32\n            %4 = arith.select %3, %2, %cst : f32\n            affine.store %4, %alloc[%arg2, %arg3, %arg4, %arg5] : memref<128x128x224x224xf32>\n          }\n        }\n      }\n    }\n    %1 = bufferization.to_tensor %alloc : memref<128x128x224x224xf32>\n    return %1 : tensor<128x128x224x224xf32>\n  }\n}\n\n",
    "transform_wrapped_operation": "#map = affine_map<(d0, d1, d2, d3) -> (d0, d1, d2, d3)>\n        #map2 = affine_map<(d0, d1, d2, d3) -> (0, d1, d2, d3)>\nmodule attributes {torch.debug_module_name = \"Net\"} {\nfunc.func private @nanoTime() -> i64 attributes { llvm.emit_c_interface }\nfunc.func private @printFlops(f64)\nfunc.func private @printI64(i64)\nfunc.func private @printNewline()\nfunc.func private @printMemrefF32(tensor<*xf32>)\n\n\nfunc.func @matmul() -> tensor<128x128x224x224xf32>{\n\n%val = arith.constant 2.00000e+00 : f32\n%zero = arith.constant 0.00000e+00 : f32\n\n%tmp_28 = bufferization.alloc_tensor() : tensor<128x128x224x224xf32>\n%28 = linalg.fill ins(%val : f32) outs(%tmp_28 : tensor<128x128x224x224xf32>) -> tensor<128x128x224x224xf32>\n%tmp_25 = bufferization.alloc_tensor() : tensor<128x128x224x224xf32>\n%25 = linalg.fill ins(%val : f32) outs(%tmp_25 : tensor<128x128x224x224xf32>) -> tensor<128x128x224x224xf32>\n\n%t0 = func.call @nanoTime() : () -> (i64)\n\n%return_arg = linalg.generic {indexing_maps = [#map2, #map], iterator_types = [\"parallel\", \"parallel\", \"parallel\", \"parallel\"]} ins(%28 : tensor<128x128x224x224xf32>) outs(%25 : tensor<128x128x224x224xf32>) {\n            ^bb0(%in: f32, %out: f32):\n            %cst_1 = arith.constant 0.000000e+00 : f32\n            %90 = arith.cmpf ugt, %in, %cst_1 : f32\n            %91 = arith.select %90, %in, %cst_1 : f32\n            linalg.yield %91 : f32\n        } -> tensor<128x128x224x224xf32>\n%t = func.call @nanoTime() : () -> (i64)\n%delta = arith.subi %t, %t0 : i64\n%fp = arith.uitofp %delta : i64 to f64\n// func.call @printFlops(%fp) : (f64) -> ()\nfunc.call @printI64(%delta) : (i64) -> ()\nfunc.call @printNewline() : () -> ()\n\nreturn %return_arg : tensor<128x128x224x224xf32> \n}\n\nfunc.func @main(){\n    %c1 = arith.constant 1: index\n    %c0 = arith.constant 0 : index\n    %n = arith.constant 2: index\n    scf.for %i = %c0 to %n step %c1 {\n    %outputmain = func.call @matmul() : () -> tensor<128x128x224x224xf32>\n    }\n    return\n}\n}\n",
    "loops_data": {
      "nested_loops": [
        [
          "%arg2",
          0,
          128,
          1
        ],
        [
          "%arg3",
          0,
          128,
          1
        ],
        [
          "%arg4",
          0,
          224,
          1
        ],
        [
          "%arg5",
          0,
          224,
          1
        ]
      ],
      "op_count": {
        "+": 0,
        "-": 0,
        "*": 0,
        "/": 0,
        "exp": 0
      },
      "load_data": [
        [
          "%c0",
          "%arg3",
          "%arg4",
          "%arg5"
        ]
      ],
      "store_data": []
    },
    "execution_time": 744803265
  },
  "linalg.generic {indexing_maps = [#map2, #map], iterator_types = [\"parallel\", \"parallel\", \"parallel\", \"parallel\"]} ins(%28 : tensor<256x240x28x28xf32>) outs(%25 : tensor<256x240x28x28xf32>) {\n            ^bb0(%in: f32, %out: f32):\n            %cst_1 = arith.constant 0.000000e+00 : f32\n            %90 = arith.cmpf ugt, %in, %cst_1 : f32\n            %91 = arith.select %90, %in, %cst_1 : f32\n            linalg.yield %91 : f32\n        } -> tensor<256x240x28x28xf32>": {
    "operation": "linalg.generic {indexing_maps = [#map2, #map], iterator_types = [\"parallel\", \"parallel\", \"parallel\", \"parallel\"]} ins(%28 : tensor<256x240x28x28xf32>) outs(%25 : tensor<256x240x28x28xf32>) {\n            ^bb0(%in: f32, %out: f32):\n            %cst_1 = arith.constant 0.000000e+00 : f32\n            %90 = arith.cmpf ugt, %in, %cst_1 : f32\n            %91 = arith.select %90, %in, %cst_1 : f32\n            linalg.yield %91 : f32\n        } -> tensor<256x240x28x28xf32>",
    "wrapped_operation": "#map = affine_map<(d0, d1, d2, d3) -> (d0, d1, d2, d3)>\n        #map2 = affine_map<(d0, d1, d2, d3) -> (0, d1, d2, d3)>\nfunc.func @func_call(%28: tensor<256x240x28x28xf32>, %25: tensor<256x240x28x28xf32>) -> tensor<256x240x28x28xf32> {\n  %ret = linalg.generic {indexing_maps = [#map2, #map], iterator_types = [\"parallel\", \"parallel\", \"parallel\", \"parallel\"]} ins(%28 : tensor<256x240x28x28xf32>) outs(%25 : tensor<256x240x28x28xf32>) {\n            ^bb0(%in: f32, %out: f32):\n            %cst_1 = arith.constant 0.000000e+00 : f32\n            %90 = arith.cmpf ugt, %in, %cst_1 : f32\n            %91 = arith.select %90, %in, %cst_1 : f32\n            linalg.yield %91 : f32\n        } -> tensor<256x240x28x28xf32>\n  return %ret : tensor<256x240x28x28xf32>\n}",
    "lowered_operation": "module {\n  func.func @func_call(%arg0: tensor<256x240x28x28xf32>, %arg1: tensor<256x240x28x28xf32>) -> tensor<256x240x28x28xf32> {\n    %c0 = arith.constant 0 : index\n    %cst = arith.constant 0.000000e+00 : f32\n    %0 = bufferization.to_memref %arg0 : memref<256x240x28x28xf32>\n    %alloc = memref.alloc() {alignment = 64 : i64} : memref<256x240x28x28xf32>\n    affine.for %arg2 = 0 to 256 {\n      affine.for %arg3 = 0 to 240 {\n        affine.for %arg4 = 0 to 28 {\n          affine.for %arg5 = 0 to 28 {\n            %2 = affine.load %0[%c0, %arg3, %arg4, %arg5] : memref<256x240x28x28xf32>\n            %3 = arith.cmpf ugt, %2, %cst : f32\n            %4 = arith.select %3, %2, %cst : f32\n            affine.store %4, %alloc[%arg2, %arg3, %arg4, %arg5] : memref<256x240x28x28xf32>\n          }\n        }\n      }\n    }\n    %1 = bufferization.to_tensor %alloc : memref<256x240x28x28xf32>\n    return %1 : tensor<256x240x28x28xf32>\n  }\n}\n\n",
    "transform_wrapped_operation": "#map = affine_map<(d0, d1, d2, d3) -> (d0, d1, d2, d3)>\n        #map2 = affine_map<(d0, d1, d2, d3) -> (0, d1, d2, d3)>\nmodule attributes {torch.debug_module_name = \"Net\"} {\nfunc.func private @nanoTime() -> i64 attributes { llvm.emit_c_interface }\nfunc.func private @printFlops(f64)\nfunc.func private @printI64(i64)\nfunc.func private @printNewline()\nfunc.func private @printMemrefF32(tensor<*xf32>)\n\n\nfunc.func @matmul() -> tensor<256x240x28x28xf32>{\n\n%val = arith.constant 2.00000e+00 : f32\n%zero = arith.constant 0.00000e+00 : f32\n\n%tmp_28 = bufferization.alloc_tensor() : tensor<256x240x28x28xf32>\n%28 = linalg.fill ins(%val : f32) outs(%tmp_28 : tensor<256x240x28x28xf32>) -> tensor<256x240x28x28xf32>\n%tmp_25 = bufferization.alloc_tensor() : tensor<256x240x28x28xf32>\n%25 = linalg.fill ins(%val : f32) outs(%tmp_25 : tensor<256x240x28x28xf32>) -> tensor<256x240x28x28xf32>\n\n%t0 = func.call @nanoTime() : () -> (i64)\n\n%return_arg = linalg.generic {indexing_maps = [#map2, #map], iterator_types = [\"parallel\", \"parallel\", \"parallel\", \"parallel\"]} ins(%28 : tensor<256x240x28x28xf32>) outs(%25 : tensor<256x240x28x28xf32>) {\n            ^bb0(%in: f32, %out: f32):\n            %cst_1 = arith.constant 0.000000e+00 : f32\n            %90 = arith.cmpf ugt, %in, %cst_1 : f32\n            %91 = arith.select %90, %in, %cst_1 : f32\n            linalg.yield %91 : f32\n        } -> tensor<256x240x28x28xf32>\n%t = func.call @nanoTime() : () -> (i64)\n%delta = arith.subi %t, %t0 : i64\n%fp = arith.uitofp %delta : i64 to f64\n// func.call @printFlops(%fp) : (f64) -> ()\nfunc.call @printI64(%delta) : (i64) -> ()\nfunc.call @printNewline() : () -> ()\n\nreturn %return_arg : tensor<256x240x28x28xf32> \n}\n\nfunc.func @main(){\n    %c1 = arith.constant 1: index\n    %c0 = arith.constant 0 : index\n    %n = arith.constant 2: index\n    scf.for %i = %c0 to %n step %c1 {\n    %outputmain = func.call @matmul() : () -> tensor<256x240x28x28xf32>\n    }\n    return\n}\n}\n",
    "loops_data": {
      "nested_loops": [
        [
          "%arg2",
          0,
          256,
          1
        ],
        [
          "%arg3",
          0,
          240,
          1
        ],
        [
          "%arg4",
          0,
          28,
          1
        ],
        [
          "%arg5",
          0,
          28,
          1
        ]
      ],
      "op_count": {
        "+": 0,
        "-": 0,
        "*": 0,
        "/": 0,
        "exp": 0
      },
      "load_data": [
        [
          "%c0",
          "%arg3",
          "%arg4",
          "%arg5"
        ]
      ],
      "store_data": []
    },
    "execution_time": 37527599
  },
  "linalg.generic {indexing_maps = [#map2, #map2], iterator_types = [\"parallel\", \"parallel\"]} ins(%38 : tensor<128x768xf32>) outs(%35 : tensor<128x768xf32>) {\n            ^bb0(%in: f32, %out: f32):\n            %cst_1 = arith.constant 0.000000e+00 : f32\n            %46 = arith.cmpf ugt, %in, %cst_1 : f32\n            %47 = arith.select %46, %in, %cst_1 : f32\n            linalg.yield %47 : f32\n        } -> tensor<128x768xf32>": {
    "operation": "linalg.generic {indexing_maps = [#map2, #map2], iterator_types = [\"parallel\", \"parallel\"]} ins(%38 : tensor<128x768xf32>) outs(%35 : tensor<128x768xf32>) {\n            ^bb0(%in: f32, %out: f32):\n            %cst_1 = arith.constant 0.000000e+00 : f32\n            %46 = arith.cmpf ugt, %in, %cst_1 : f32\n            %47 = arith.select %46, %in, %cst_1 : f32\n            linalg.yield %47 : f32\n        } -> tensor<128x768xf32>",
    "wrapped_operation": "#map2 = affine_map<(d0, d1) -> (d0, d1)>\nfunc.func @func_call(%38: tensor<128x768xf32>, %35: tensor<128x768xf32>) -> tensor<128x768xf32> {\n  %ret = linalg.generic {indexing_maps = [#map2, #map2], iterator_types = [\"parallel\", \"parallel\"]} ins(%38 : tensor<128x768xf32>) outs(%35 : tensor<128x768xf32>) {\n            ^bb0(%in: f32, %out: f32):\n            %cst_1 = arith.constant 0.000000e+00 : f32\n            %46 = arith.cmpf ugt, %in, %cst_1 : f32\n            %47 = arith.select %46, %in, %cst_1 : f32\n            linalg.yield %47 : f32\n        } -> tensor<128x768xf32>\n  return %ret : tensor<128x768xf32>\n}",
    "lowered_operation": "module {\n  func.func @func_call(%arg0: tensor<128x768xf32>, %arg1: tensor<128x768xf32>) -> tensor<128x768xf32> {\n    %cst = arith.constant 0.000000e+00 : f32\n    %0 = bufferization.to_memref %arg0 : memref<128x768xf32>\n    %alloc = memref.alloc() {alignment = 64 : i64} : memref<128x768xf32>\n    affine.for %arg2 = 0 to 128 {\n      affine.for %arg3 = 0 to 768 {\n        %2 = affine.load %0[%arg2, %arg3] : memref<128x768xf32>\n        %3 = arith.cmpf ugt, %2, %cst : f32\n        %4 = arith.select %3, %2, %cst : f32\n        affine.store %4, %alloc[%arg2, %arg3] : memref<128x768xf32>\n      }\n    }\n    %1 = bufferization.to_tensor %alloc : memref<128x768xf32>\n    return %1 : tensor<128x768xf32>\n  }\n}\n\n",
    "transform_wrapped_operation": "#map2 = affine_map<(d0, d1) -> (d0, d1)>\nmodule attributes {torch.debug_module_name = \"Net\"} {\nfunc.func private @nanoTime() -> i64 attributes { llvm.emit_c_interface }\nfunc.func private @printFlops(f64)\nfunc.func private @printI64(i64)\nfunc.func private @printNewline()\nfunc.func private @printMemrefF32(tensor<*xf32>)\n\n\nfunc.func @matmul() -> tensor<128x768xf32>{\n\n%val = arith.constant 2.00000e+00 : f32\n%zero = arith.constant 0.00000e+00 : f32\n\n%tmp_38 = bufferization.alloc_tensor() : tensor<128x768xf32>\n%38 = linalg.fill ins(%val : f32) outs(%tmp_38 : tensor<128x768xf32>) -> tensor<128x768xf32>\n%tmp_35 = bufferization.alloc_tensor() : tensor<128x768xf32>\n%35 = linalg.fill ins(%val : f32) outs(%tmp_35 : tensor<128x768xf32>) -> tensor<128x768xf32>\n\n%t0 = func.call @nanoTime() : () -> (i64)\n\n%return_arg = linalg.generic {indexing_maps = [#map2, #map2], iterator_types = [\"parallel\", \"parallel\"]} ins(%38 : tensor<128x768xf32>) outs(%35 : tensor<128x768xf32>) {\n            ^bb0(%in: f32, %out: f32):\n            %cst_1 = arith.constant 0.000000e+00 : f32\n            %46 = arith.cmpf ugt, %in, %cst_1 : f32\n            %47 = arith.select %46, %in, %cst_1 : f32\n            linalg.yield %47 : f32\n        } -> tensor<128x768xf32>\n%t = func.call @nanoTime() : () -> (i64)\n%delta = arith.subi %t, %t0 : i64\n%fp = arith.uitofp %delta : i64 to f64\n// func.call @printFlops(%fp) : (f64) -> ()\nfunc.call @printI64(%delta) : (i64) -> ()\nfunc.call @printNewline() : () -> ()\n\nreturn %return_arg : tensor<128x768xf32> \n}\n\nfunc.func @main(){\n    %c1 = arith.constant 1: index\n    %c0 = arith.constant 0 : index\n    %n = arith.constant 2: index\n    scf.for %i = %c0 to %n step %c1 {\n    %outputmain = func.call @matmul() : () -> tensor<128x768xf32>\n    }\n    return\n}\n}\n",
    "loops_data": {
      "nested_loops": [
        [
          "%arg2",
          0,
          128,
          1
        ],
        [
          "%arg3",
          0,
          768,
          1
        ]
      ],
      "op_count": {
        "+": 0,
        "-": 0,
        "*": 0,
        "/": 0,
        "exp": 0
      },
      "load_data": [
        [
          "%arg2",
          "%arg3"
        ]
      ],
      "store_data": []
    },
    "execution_time": 75732.5
  },
  "linalg.generic {indexing_maps = [#map2, #map], iterator_types = [\"parallel\", \"parallel\", \"parallel\", \"parallel\"]} ins(%28 : tensor<256x192x120x120xf32>) outs(%25 : tensor<256x192x120x120xf32>) {\n            ^bb0(%in: f32, %out: f32):\n            %cst_1 = arith.constant 0.000000e+00 : f32\n            %90 = arith.cmpf ugt, %in, %cst_1 : f32\n            %91 = arith.select %90, %in, %cst_1 : f32\n            linalg.yield %91 : f32\n        } -> tensor<256x192x120x120xf32>": {
    "operation": "linalg.generic {indexing_maps = [#map2, #map], iterator_types = [\"parallel\", \"parallel\", \"parallel\", \"parallel\"]} ins(%28 : tensor<256x192x120x120xf32>) outs(%25 : tensor<256x192x120x120xf32>) {\n            ^bb0(%in: f32, %out: f32):\n            %cst_1 = arith.constant 0.000000e+00 : f32\n            %90 = arith.cmpf ugt, %in, %cst_1 : f32\n            %91 = arith.select %90, %in, %cst_1 : f32\n            linalg.yield %91 : f32\n        } -> tensor<256x192x120x120xf32>",
    "wrapped_operation": "#map = affine_map<(d0, d1, d2, d3) -> (d0, d1, d2, d3)>\n        #map2 = affine_map<(d0, d1, d2, d3) -> (0, d1, d2, d3)>\nfunc.func @func_call(%28: tensor<256x192x120x120xf32>, %25: tensor<256x192x120x120xf32>) -> tensor<256x192x120x120xf32> {\n  %ret = linalg.generic {indexing_maps = [#map2, #map], iterator_types = [\"parallel\", \"parallel\", \"parallel\", \"parallel\"]} ins(%28 : tensor<256x192x120x120xf32>) outs(%25 : tensor<256x192x120x120xf32>) {\n            ^bb0(%in: f32, %out: f32):\n            %cst_1 = arith.constant 0.000000e+00 : f32\n            %90 = arith.cmpf ugt, %in, %cst_1 : f32\n            %91 = arith.select %90, %in, %cst_1 : f32\n            linalg.yield %91 : f32\n        } -> tensor<256x192x120x120xf32>\n  return %ret : tensor<256x192x120x120xf32>\n}",
    "lowered_operation": "module {\n  func.func @func_call(%arg0: tensor<256x192x120x120xf32>, %arg1: tensor<256x192x120x120xf32>) -> tensor<256x192x120x120xf32> {\n    %c0 = arith.constant 0 : index\n    %cst = arith.constant 0.000000e+00 : f32\n    %0 = bufferization.to_memref %arg0 : memref<256x192x120x120xf32>\n    %alloc = memref.alloc() {alignment = 64 : i64} : memref<256x192x120x120xf32>\n    affine.for %arg2 = 0 to 256 {\n      affine.for %arg3 = 0 to 192 {\n        affine.for %arg4 = 0 to 120 {\n          affine.for %arg5 = 0 to 120 {\n            %2 = affine.load %0[%c0, %arg3, %arg4, %arg5] : memref<256x192x120x120xf32>\n            %3 = arith.cmpf ugt, %2, %cst : f32\n            %4 = arith.select %3, %2, %cst : f32\n            affine.store %4, %alloc[%arg2, %arg3, %arg4, %arg5] : memref<256x192x120x120xf32>\n          }\n        }\n      }\n    }\n    %1 = bufferization.to_tensor %alloc : memref<256x192x120x120xf32>\n    return %1 : tensor<256x192x120x120xf32>\n  }\n}\n\n",
    "transform_wrapped_operation": "#map = affine_map<(d0, d1, d2, d3) -> (d0, d1, d2, d3)>\n        #map2 = affine_map<(d0, d1, d2, d3) -> (0, d1, d2, d3)>\nmodule attributes {torch.debug_module_name = \"Net\"} {\nfunc.func private @nanoTime() -> i64 attributes { llvm.emit_c_interface }\nfunc.func private @printFlops(f64)\nfunc.func private @printI64(i64)\nfunc.func private @printNewline()\nfunc.func private @printMemrefF32(tensor<*xf32>)\n\n\nfunc.func @matmul() -> tensor<256x192x120x120xf32>{\n\n%val = arith.constant 2.00000e+00 : f32\n%zero = arith.constant 0.00000e+00 : f32\n\n%tmp_28 = bufferization.alloc_tensor() : tensor<256x192x120x120xf32>\n%28 = linalg.fill ins(%val : f32) outs(%tmp_28 : tensor<256x192x120x120xf32>) -> tensor<256x192x120x120xf32>\n%tmp_25 = bufferization.alloc_tensor() : tensor<256x192x120x120xf32>\n%25 = linalg.fill ins(%val : f32) outs(%tmp_25 : tensor<256x192x120x120xf32>) -> tensor<256x192x120x120xf32>\n\n%t0 = func.call @nanoTime() : () -> (i64)\n\n%return_arg = linalg.generic {indexing_maps = [#map2, #map], iterator_types = [\"parallel\", \"parallel\", \"parallel\", \"parallel\"]} ins(%28 : tensor<256x192x120x120xf32>) outs(%25 : tensor<256x192x120x120xf32>) {\n            ^bb0(%in: f32, %out: f32):\n            %cst_1 = arith.constant 0.000000e+00 : f32\n            %90 = arith.cmpf ugt, %in, %cst_1 : f32\n            %91 = arith.select %90, %in, %cst_1 : f32\n            linalg.yield %91 : f32\n        } -> tensor<256x192x120x120xf32>\n%t = func.call @nanoTime() : () -> (i64)\n%delta = arith.subi %t, %t0 : i64\n%fp = arith.uitofp %delta : i64 to f64\n// func.call @printFlops(%fp) : (f64) -> ()\nfunc.call @printI64(%delta) : (i64) -> ()\nfunc.call @printNewline() : () -> ()\n\nreturn %return_arg : tensor<256x192x120x120xf32> \n}\n\nfunc.func @main(){\n    %c1 = arith.constant 1: index\n    %c0 = arith.constant 0 : index\n    %n = arith.constant 2: index\n    scf.for %i = %c0 to %n step %c1 {\n    %outputmain = func.call @matmul() : () -> tensor<256x192x120x120xf32>\n    }\n    return\n}\n}\n",
    "loops_data": {
      "nested_loops": [
        [
          "%arg2",
          0,
          256,
          1
        ],
        [
          "%arg3",
          0,
          192,
          1
        ],
        [
          "%arg4",
          0,
          120,
          1
        ],
        [
          "%arg5",
          0,
          120,
          1
        ]
      ],
      "op_count": {
        "+": 0,
        "-": 0,
        "*": 0,
        "/": 0,
        "exp": 0
      },
      "load_data": [
        [
          "%c0",
          "%arg3",
          "%arg4",
          "%arg5"
        ]
      ],
      "store_data": []
    },
    "execution_time": 582537039
  },
  "linalg.generic {indexing_maps = [#map2, #map], iterator_types = [\"parallel\", \"parallel\", \"parallel\", \"parallel\"]} ins(%28 : tensor<128x192x120x120xf32>) outs(%25 : tensor<128x192x120x120xf32>) {\n            ^bb0(%in: f32, %out: f32):\n            %cst_1 = arith.constant 0.000000e+00 : f32\n            %90 = arith.cmpf ugt, %in, %cst_1 : f32\n            %91 = arith.select %90, %in, %cst_1 : f32\n            linalg.yield %91 : f32\n        } -> tensor<128x192x120x120xf32>": {
    "operation": "linalg.generic {indexing_maps = [#map2, #map], iterator_types = [\"parallel\", \"parallel\", \"parallel\", \"parallel\"]} ins(%28 : tensor<128x192x120x120xf32>) outs(%25 : tensor<128x192x120x120xf32>) {\n            ^bb0(%in: f32, %out: f32):\n            %cst_1 = arith.constant 0.000000e+00 : f32\n            %90 = arith.cmpf ugt, %in, %cst_1 : f32\n            %91 = arith.select %90, %in, %cst_1 : f32\n            linalg.yield %91 : f32\n        } -> tensor<128x192x120x120xf32>",
    "wrapped_operation": "#map = affine_map<(d0, d1, d2, d3) -> (d0, d1, d2, d3)>\n        #map2 = affine_map<(d0, d1, d2, d3) -> (0, d1, d2, d3)>\nfunc.func @func_call(%28: tensor<128x192x120x120xf32>, %25: tensor<128x192x120x120xf32>) -> tensor<128x192x120x120xf32> {\n  %ret = linalg.generic {indexing_maps = [#map2, #map], iterator_types = [\"parallel\", \"parallel\", \"parallel\", \"parallel\"]} ins(%28 : tensor<128x192x120x120xf32>) outs(%25 : tensor<128x192x120x120xf32>) {\n            ^bb0(%in: f32, %out: f32):\n            %cst_1 = arith.constant 0.000000e+00 : f32\n            %90 = arith.cmpf ugt, %in, %cst_1 : f32\n            %91 = arith.select %90, %in, %cst_1 : f32\n            linalg.yield %91 : f32\n        } -> tensor<128x192x120x120xf32>\n  return %ret : tensor<128x192x120x120xf32>\n}",
    "lowered_operation": "module {\n  func.func @func_call(%arg0: tensor<128x192x120x120xf32>, %arg1: tensor<128x192x120x120xf32>) -> tensor<128x192x120x120xf32> {\n    %c0 = arith.constant 0 : index\n    %cst = arith.constant 0.000000e+00 : f32\n    %0 = bufferization.to_memref %arg0 : memref<128x192x120x120xf32>\n    %alloc = memref.alloc() {alignment = 64 : i64} : memref<128x192x120x120xf32>\n    affine.for %arg2 = 0 to 128 {\n      affine.for %arg3 = 0 to 192 {\n        affine.for %arg4 = 0 to 120 {\n          affine.for %arg5 = 0 to 120 {\n            %2 = affine.load %0[%c0, %arg3, %arg4, %arg5] : memref<128x192x120x120xf32>\n            %3 = arith.cmpf ugt, %2, %cst : f32\n            %4 = arith.select %3, %2, %cst : f32\n            affine.store %4, %alloc[%arg2, %arg3, %arg4, %arg5] : memref<128x192x120x120xf32>\n          }\n        }\n      }\n    }\n    %1 = bufferization.to_tensor %alloc : memref<128x192x120x120xf32>\n    return %1 : tensor<128x192x120x120xf32>\n  }\n}\n\n",
    "transform_wrapped_operation": "#map = affine_map<(d0, d1, d2, d3) -> (d0, d1, d2, d3)>\n        #map2 = affine_map<(d0, d1, d2, d3) -> (0, d1, d2, d3)>\nmodule attributes {torch.debug_module_name = \"Net\"} {\nfunc.func private @nanoTime() -> i64 attributes { llvm.emit_c_interface }\nfunc.func private @printFlops(f64)\nfunc.func private @printI64(i64)\nfunc.func private @printNewline()\nfunc.func private @printMemrefF32(tensor<*xf32>)\n\n\nfunc.func @matmul() -> tensor<128x192x120x120xf32>{\n\n%val = arith.constant 2.00000e+00 : f32\n%zero = arith.constant 0.00000e+00 : f32\n\n%tmp_28 = bufferization.alloc_tensor() : tensor<128x192x120x120xf32>\n%28 = linalg.fill ins(%val : f32) outs(%tmp_28 : tensor<128x192x120x120xf32>) -> tensor<128x192x120x120xf32>\n%tmp_25 = bufferization.alloc_tensor() : tensor<128x192x120x120xf32>\n%25 = linalg.fill ins(%val : f32) outs(%tmp_25 : tensor<128x192x120x120xf32>) -> tensor<128x192x120x120xf32>\n\n%t0 = func.call @nanoTime() : () -> (i64)\n\n%return_arg = linalg.generic {indexing_maps = [#map2, #map], iterator_types = [\"parallel\", \"parallel\", \"parallel\", \"parallel\"]} ins(%28 : tensor<128x192x120x120xf32>) outs(%25 : tensor<128x192x120x120xf32>) {\n            ^bb0(%in: f32, %out: f32):\n            %cst_1 = arith.constant 0.000000e+00 : f32\n            %90 = arith.cmpf ugt, %in, %cst_1 : f32\n            %91 = arith.select %90, %in, %cst_1 : f32\n            linalg.yield %91 : f32\n        } -> tensor<128x192x120x120xf32>\n%t = func.call @nanoTime() : () -> (i64)\n%delta = arith.subi %t, %t0 : i64\n%fp = arith.uitofp %delta : i64 to f64\n// func.call @printFlops(%fp) : (f64) -> ()\nfunc.call @printI64(%delta) : (i64) -> ()\nfunc.call @printNewline() : () -> ()\n\nreturn %return_arg : tensor<128x192x120x120xf32> \n}\n\nfunc.func @main(){\n    %c1 = arith.constant 1: index\n    %c0 = arith.constant 0 : index\n    %n = arith.constant 2: index\n    scf.for %i = %c0 to %n step %c1 {\n    %outputmain = func.call @matmul() : () -> tensor<128x192x120x120xf32>\n    }\n    return\n}\n}\n",
    "loops_data": {
      "nested_loops": [
        [
          "%arg2",
          0,
          128,
          1
        ],
        [
          "%arg3",
          0,
          192,
          1
        ],
        [
          "%arg4",
          0,
          120,
          1
        ],
        [
          "%arg5",
          0,
          120,
          1
        ]
      ],
      "op_count": {
        "+": 0,
        "-": 0,
        "*": 0,
        "/": 0,
        "exp": 0
      },
      "load_data": [
        [
          "%c0",
          "%arg3",
          "%arg4",
          "%arg5"
        ]
      ],
      "store_data": []
    },
    "execution_time": 293397103
  },
  "linalg.generic {indexing_maps = [#map2, #map2], iterator_types = [\"parallel\", \"parallel\"]} ins(%38 : tensor<128x3072xf32>) outs(%35 : tensor<128x3072xf32>) {\n            ^bb0(%in: f32, %out: f32):\n            %cst_1 = arith.constant 0.000000e+00 : f32\n            %46 = arith.cmpf ugt, %in, %cst_1 : f32\n            %47 = arith.select %46, %in, %cst_1 : f32\n            linalg.yield %47 : f32\n        } -> tensor<128x3072xf32>": {
    "operation": "linalg.generic {indexing_maps = [#map2, #map2], iterator_types = [\"parallel\", \"parallel\"]} ins(%38 : tensor<128x3072xf32>) outs(%35 : tensor<128x3072xf32>) {\n            ^bb0(%in: f32, %out: f32):\n            %cst_1 = arith.constant 0.000000e+00 : f32\n            %46 = arith.cmpf ugt, %in, %cst_1 : f32\n            %47 = arith.select %46, %in, %cst_1 : f32\n            linalg.yield %47 : f32\n        } -> tensor<128x3072xf32>",
    "wrapped_operation": "#map2 = affine_map<(d0, d1) -> (d0, d1)>\nfunc.func @func_call(%38: tensor<128x3072xf32>, %35: tensor<128x3072xf32>) -> tensor<128x3072xf32> {\n  %ret = linalg.generic {indexing_maps = [#map2, #map2], iterator_types = [\"parallel\", \"parallel\"]} ins(%38 : tensor<128x3072xf32>) outs(%35 : tensor<128x3072xf32>) {\n            ^bb0(%in: f32, %out: f32):\n            %cst_1 = arith.constant 0.000000e+00 : f32\n            %46 = arith.cmpf ugt, %in, %cst_1 : f32\n            %47 = arith.select %46, %in, %cst_1 : f32\n            linalg.yield %47 : f32\n        } -> tensor<128x3072xf32>\n  return %ret : tensor<128x3072xf32>\n}",
    "lowered_operation": "module {\n  func.func @func_call(%arg0: tensor<128x3072xf32>, %arg1: tensor<128x3072xf32>) -> tensor<128x3072xf32> {\n    %cst = arith.constant 0.000000e+00 : f32\n    %0 = bufferization.to_memref %arg0 : memref<128x3072xf32>\n    %alloc = memref.alloc() {alignment = 64 : i64} : memref<128x3072xf32>\n    affine.for %arg2 = 0 to 128 {\n      affine.for %arg3 = 0 to 3072 {\n        %2 = affine.load %0[%arg2, %arg3] : memref<128x3072xf32>\n        %3 = arith.cmpf ugt, %2, %cst : f32\n        %4 = arith.select %3, %2, %cst : f32\n        affine.store %4, %alloc[%arg2, %arg3] : memref<128x3072xf32>\n      }\n    }\n    %1 = bufferization.to_tensor %alloc : memref<128x3072xf32>\n    return %1 : tensor<128x3072xf32>\n  }\n}\n\n",
    "transform_wrapped_operation": "#map2 = affine_map<(d0, d1) -> (d0, d1)>\nmodule attributes {torch.debug_module_name = \"Net\"} {\nfunc.func private @nanoTime() -> i64 attributes { llvm.emit_c_interface }\nfunc.func private @printFlops(f64)\nfunc.func private @printI64(i64)\nfunc.func private @printNewline()\nfunc.func private @printMemrefF32(tensor<*xf32>)\n\n\nfunc.func @matmul() -> tensor<128x3072xf32>{\n\n%val = arith.constant 2.00000e+00 : f32\n%zero = arith.constant 0.00000e+00 : f32\n\n%tmp_38 = bufferization.alloc_tensor() : tensor<128x3072xf32>\n%38 = linalg.fill ins(%val : f32) outs(%tmp_38 : tensor<128x3072xf32>) -> tensor<128x3072xf32>\n%tmp_35 = bufferization.alloc_tensor() : tensor<128x3072xf32>\n%35 = linalg.fill ins(%val : f32) outs(%tmp_35 : tensor<128x3072xf32>) -> tensor<128x3072xf32>\n\n%t0 = func.call @nanoTime() : () -> (i64)\n\n%return_arg = linalg.generic {indexing_maps = [#map2, #map2], iterator_types = [\"parallel\", \"parallel\"]} ins(%38 : tensor<128x3072xf32>) outs(%35 : tensor<128x3072xf32>) {\n            ^bb0(%in: f32, %out: f32):\n            %cst_1 = arith.constant 0.000000e+00 : f32\n            %46 = arith.cmpf ugt, %in, %cst_1 : f32\n            %47 = arith.select %46, %in, %cst_1 : f32\n            linalg.yield %47 : f32\n        } -> tensor<128x3072xf32>\n%t = func.call @nanoTime() : () -> (i64)\n%delta = arith.subi %t, %t0 : i64\n%fp = arith.uitofp %delta : i64 to f64\n// func.call @printFlops(%fp) : (f64) -> ()\nfunc.call @printI64(%delta) : (i64) -> ()\nfunc.call @printNewline() : () -> ()\n\nreturn %return_arg : tensor<128x3072xf32> \n}\n\nfunc.func @main(){\n    %c1 = arith.constant 1: index\n    %c0 = arith.constant 0 : index\n    %n = arith.constant 2: index\n    scf.for %i = %c0 to %n step %c1 {\n    %outputmain = func.call @matmul() : () -> tensor<128x3072xf32>\n    }\n    return\n}\n}\n",
    "loops_data": {
      "nested_loops": [
        [
          "%arg2",
          0,
          128,
          1
        ],
        [
          "%arg3",
          0,
          3072,
          1
        ]
      ],
      "op_count": {
        "+": 0,
        "-": 0,
        "*": 0,
        "/": 0,
        "exp": 0
      },
      "load_data": [
        [
          "%arg2",
          "%arg3"
        ]
      ],
      "store_data": []
    },
    "execution_time": 299133
  },
  "linalg.generic {indexing_maps = [#map2, #map2], iterator_types = [\"parallel\", \"parallel\"]} ins(%38 : tensor<256x1536xf32>) outs(%35 : tensor<256x1536xf32>) {\n            ^bb0(%in: f32, %out: f32):\n            %cst_1 = arith.constant 0.000000e+00 : f32\n            %46 = arith.cmpf ugt, %in, %cst_1 : f32\n            %47 = arith.select %46, %in, %cst_1 : f32\n            linalg.yield %47 : f32\n        } -> tensor<256x1536xf32>": {
    "operation": "linalg.generic {indexing_maps = [#map2, #map2], iterator_types = [\"parallel\", \"parallel\"]} ins(%38 : tensor<256x1536xf32>) outs(%35 : tensor<256x1536xf32>) {\n            ^bb0(%in: f32, %out: f32):\n            %cst_1 = arith.constant 0.000000e+00 : f32\n            %46 = arith.cmpf ugt, %in, %cst_1 : f32\n            %47 = arith.select %46, %in, %cst_1 : f32\n            linalg.yield %47 : f32\n        } -> tensor<256x1536xf32>",
    "wrapped_operation": "#map2 = affine_map<(d0, d1) -> (d0, d1)>\nfunc.func @func_call(%38: tensor<256x1536xf32>, %35: tensor<256x1536xf32>) -> tensor<256x1536xf32> {\n  %ret = linalg.generic {indexing_maps = [#map2, #map2], iterator_types = [\"parallel\", \"parallel\"]} ins(%38 : tensor<256x1536xf32>) outs(%35 : tensor<256x1536xf32>) {\n            ^bb0(%in: f32, %out: f32):\n            %cst_1 = arith.constant 0.000000e+00 : f32\n            %46 = arith.cmpf ugt, %in, %cst_1 : f32\n            %47 = arith.select %46, %in, %cst_1 : f32\n            linalg.yield %47 : f32\n        } -> tensor<256x1536xf32>\n  return %ret : tensor<256x1536xf32>\n}",
    "lowered_operation": "module {\n  func.func @func_call(%arg0: tensor<256x1536xf32>, %arg1: tensor<256x1536xf32>) -> tensor<256x1536xf32> {\n    %cst = arith.constant 0.000000e+00 : f32\n    %0 = bufferization.to_memref %arg0 : memref<256x1536xf32>\n    %alloc = memref.alloc() {alignment = 64 : i64} : memref<256x1536xf32>\n    affine.for %arg2 = 0 to 256 {\n      affine.for %arg3 = 0 to 1536 {\n        %2 = affine.load %0[%arg2, %arg3] : memref<256x1536xf32>\n        %3 = arith.cmpf ugt, %2, %cst : f32\n        %4 = arith.select %3, %2, %cst : f32\n        affine.store %4, %alloc[%arg2, %arg3] : memref<256x1536xf32>\n      }\n    }\n    %1 = bufferization.to_tensor %alloc : memref<256x1536xf32>\n    return %1 : tensor<256x1536xf32>\n  }\n}\n\n",
    "transform_wrapped_operation": "#map2 = affine_map<(d0, d1) -> (d0, d1)>\nmodule attributes {torch.debug_module_name = \"Net\"} {\nfunc.func private @nanoTime() -> i64 attributes { llvm.emit_c_interface }\nfunc.func private @printFlops(f64)\nfunc.func private @printI64(i64)\nfunc.func private @printNewline()\nfunc.func private @printMemrefF32(tensor<*xf32>)\n\n\nfunc.func @matmul() -> tensor<256x1536xf32>{\n\n%val = arith.constant 2.00000e+00 : f32\n%zero = arith.constant 0.00000e+00 : f32\n\n%tmp_38 = bufferization.alloc_tensor() : tensor<256x1536xf32>\n%38 = linalg.fill ins(%val : f32) outs(%tmp_38 : tensor<256x1536xf32>) -> tensor<256x1536xf32>\n%tmp_35 = bufferization.alloc_tensor() : tensor<256x1536xf32>\n%35 = linalg.fill ins(%val : f32) outs(%tmp_35 : tensor<256x1536xf32>) -> tensor<256x1536xf32>\n\n%t0 = func.call @nanoTime() : () -> (i64)\n\n%return_arg = linalg.generic {indexing_maps = [#map2, #map2], iterator_types = [\"parallel\", \"parallel\"]} ins(%38 : tensor<256x1536xf32>) outs(%35 : tensor<256x1536xf32>) {\n            ^bb0(%in: f32, %out: f32):\n            %cst_1 = arith.constant 0.000000e+00 : f32\n            %46 = arith.cmpf ugt, %in, %cst_1 : f32\n            %47 = arith.select %46, %in, %cst_1 : f32\n            linalg.yield %47 : f32\n        } -> tensor<256x1536xf32>\n%t = func.call @nanoTime() : () -> (i64)\n%delta = arith.subi %t, %t0 : i64\n%fp = arith.uitofp %delta : i64 to f64\n// func.call @printFlops(%fp) : (f64) -> ()\nfunc.call @printI64(%delta) : (i64) -> ()\nfunc.call @printNewline() : () -> ()\n\nreturn %return_arg : tensor<256x1536xf32> \n}\n\nfunc.func @main(){\n    %c1 = arith.constant 1: index\n    %c0 = arith.constant 0 : index\n    %n = arith.constant 2: index\n    scf.for %i = %c0 to %n step %c1 {\n    %outputmain = func.call @matmul() : () -> tensor<256x1536xf32>\n    }\n    return\n}\n}\n",
    "loops_data": {
      "nested_loops": [
        [
          "%arg2",
          0,
          256,
          1
        ],
        [
          "%arg3",
          0,
          1536,
          1
        ]
      ],
      "op_count": {
        "+": 0,
        "-": 0,
        "*": 0,
        "/": 0,
        "exp": 0
      },
      "load_data": [
        [
          "%arg2",
          "%arg3"
        ]
      ],
      "store_data": []
    },
    "execution_time": 299736
  },
  "linalg.generic {indexing_maps = [#map2, #map], iterator_types = [\"parallel\", \"parallel\", \"parallel\", \"parallel\"]} ins(%28 : tensor<256x384x224x224xf32>) outs(%25 : tensor<256x384x224x224xf32>) {\n            ^bb0(%in: f32, %out: f32):\n            %cst_1 = arith.constant 0.000000e+00 : f32\n            %90 = arith.cmpf ugt, %in, %cst_1 : f32\n            %91 = arith.select %90, %in, %cst_1 : f32\n            linalg.yield %91 : f32\n        } -> tensor<256x384x224x224xf32>": {
    "operation": "linalg.generic {indexing_maps = [#map2, #map], iterator_types = [\"parallel\", \"parallel\", \"parallel\", \"parallel\"]} ins(%28 : tensor<256x384x224x224xf32>) outs(%25 : tensor<256x384x224x224xf32>) {\n            ^bb0(%in: f32, %out: f32):\n            %cst_1 = arith.constant 0.000000e+00 : f32\n            %90 = arith.cmpf ugt, %in, %cst_1 : f32\n            %91 = arith.select %90, %in, %cst_1 : f32\n            linalg.yield %91 : f32\n        } -> tensor<256x384x224x224xf32>",
    "wrapped_operation": "#map = affine_map<(d0, d1, d2, d3) -> (d0, d1, d2, d3)>\n        #map2 = affine_map<(d0, d1, d2, d3) -> (0, d1, d2, d3)>\nfunc.func @func_call(%28: tensor<256x384x224x224xf32>, %25: tensor<256x384x224x224xf32>) -> tensor<256x384x224x224xf32> {\n  %ret = linalg.generic {indexing_maps = [#map2, #map], iterator_types = [\"parallel\", \"parallel\", \"parallel\", \"parallel\"]} ins(%28 : tensor<256x384x224x224xf32>) outs(%25 : tensor<256x384x224x224xf32>) {\n            ^bb0(%in: f32, %out: f32):\n            %cst_1 = arith.constant 0.000000e+00 : f32\n            %90 = arith.cmpf ugt, %in, %cst_1 : f32\n            %91 = arith.select %90, %in, %cst_1 : f32\n            linalg.yield %91 : f32\n        } -> tensor<256x384x224x224xf32>\n  return %ret : tensor<256x384x224x224xf32>\n}",
    "lowered_operation": "module {\n  func.func @func_call(%arg0: tensor<256x384x224x224xf32>, %arg1: tensor<256x384x224x224xf32>) -> tensor<256x384x224x224xf32> {\n    %c0 = arith.constant 0 : index\n    %cst = arith.constant 0.000000e+00 : f32\n    %0 = bufferization.to_memref %arg0 : memref<256x384x224x224xf32>\n    %alloc = memref.alloc() {alignment = 64 : i64} : memref<256x384x224x224xf32>\n    affine.for %arg2 = 0 to 256 {\n      affine.for %arg3 = 0 to 384 {\n        affine.for %arg4 = 0 to 224 {\n          affine.for %arg5 = 0 to 224 {\n            %2 = affine.load %0[%c0, %arg3, %arg4, %arg5] : memref<256x384x224x224xf32>\n            %3 = arith.cmpf ugt, %2, %cst : f32\n            %4 = arith.select %3, %2, %cst : f32\n            affine.store %4, %alloc[%arg2, %arg3, %arg4, %arg5] : memref<256x384x224x224xf32>\n          }\n        }\n      }\n    }\n    %1 = bufferization.to_tensor %alloc : memref<256x384x224x224xf32>\n    return %1 : tensor<256x384x224x224xf32>\n  }\n}\n\n",
    "transform_wrapped_operation": "#map = affine_map<(d0, d1, d2, d3) -> (d0, d1, d2, d3)>\n        #map2 = affine_map<(d0, d1, d2, d3) -> (0, d1, d2, d3)>\nmodule attributes {torch.debug_module_name = \"Net\"} {\nfunc.func private @nanoTime() -> i64 attributes { llvm.emit_c_interface }\nfunc.func private @printFlops(f64)\nfunc.func private @printI64(i64)\nfunc.func private @printNewline()\nfunc.func private @printMemrefF32(tensor<*xf32>)\n\n\nfunc.func @matmul() -> tensor<256x384x224x224xf32>{\n\n%val = arith.constant 2.00000e+00 : f32\n%zero = arith.constant 0.00000e+00 : f32\n\n%tmp_28 = bufferization.alloc_tensor() : tensor<256x384x224x224xf32>\n%28 = linalg.fill ins(%val : f32) outs(%tmp_28 : tensor<256x384x224x224xf32>) -> tensor<256x384x224x224xf32>\n%tmp_25 = bufferization.alloc_tensor() : tensor<256x384x224x224xf32>\n%25 = linalg.fill ins(%val : f32) outs(%tmp_25 : tensor<256x384x224x224xf32>) -> tensor<256x384x224x224xf32>\n\n%t0 = func.call @nanoTime() : () -> (i64)\n\n%return_arg = linalg.generic {indexing_maps = [#map2, #map], iterator_types = [\"parallel\", \"parallel\", \"parallel\", \"parallel\"]} ins(%28 : tensor<256x384x224x224xf32>) outs(%25 : tensor<256x384x224x224xf32>) {\n            ^bb0(%in: f32, %out: f32):\n            %cst_1 = arith.constant 0.000000e+00 : f32\n            %90 = arith.cmpf ugt, %in, %cst_1 : f32\n            %91 = arith.select %90, %in, %cst_1 : f32\n            linalg.yield %91 : f32\n        } -> tensor<256x384x224x224xf32>\n%t = func.call @nanoTime() : () -> (i64)\n%delta = arith.subi %t, %t0 : i64\n%fp = arith.uitofp %delta : i64 to f64\n// func.call @printFlops(%fp) : (f64) -> ()\nfunc.call @printI64(%delta) : (i64) -> ()\nfunc.call @printNewline() : () -> ()\n\nreturn %return_arg : tensor<256x384x224x224xf32> \n}\n\nfunc.func @main(){\n    %c1 = arith.constant 1: index\n    %c0 = arith.constant 0 : index\n    %n = arith.constant 2: index\n    scf.for %i = %c0 to %n step %c1 {\n    %outputmain = func.call @matmul() : () -> tensor<256x384x224x224xf32>\n    }\n    return\n}\n}\n",
    "loops_data": {
      "nested_loops": [
        [
          "%arg2",
          0,
          256,
          1
        ],
        [
          "%arg3",
          0,
          384,
          1
        ],
        [
          "%arg4",
          0,
          224,
          1
        ],
        [
          "%arg5",
          0,
          224,
          1
        ]
      ],
      "op_count": {
        "+": 0,
        "-": 0,
        "*": 0,
        "/": 0,
        "exp": 0
      },
      "load_data": [
        [
          "%c0",
          "%arg3",
          "%arg4",
          "%arg5"
        ]
      ],
      "store_data": []
    },
    "execution_time": 4513269683
  },
  "linalg.generic {indexing_maps = [#map2, #map], iterator_types = [\"parallel\", \"parallel\", \"parallel\", \"parallel\"]} ins(%28 : tensor<256x64x112x112xf32>) outs(%25 : tensor<256x64x112x112xf32>) {\n            ^bb0(%in: f32, %out: f32):\n            %cst_1 = arith.constant 0.000000e+00 : f32\n            %90 = arith.cmpf ugt, %in, %cst_1 : f32\n            %91 = arith.select %90, %in, %cst_1 : f32\n            linalg.yield %91 : f32\n        } -> tensor<256x64x112x112xf32>": {
    "operation": "linalg.generic {indexing_maps = [#map2, #map], iterator_types = [\"parallel\", \"parallel\", \"parallel\", \"parallel\"]} ins(%28 : tensor<256x64x112x112xf32>) outs(%25 : tensor<256x64x112x112xf32>) {\n            ^bb0(%in: f32, %out: f32):\n            %cst_1 = arith.constant 0.000000e+00 : f32\n            %90 = arith.cmpf ugt, %in, %cst_1 : f32\n            %91 = arith.select %90, %in, %cst_1 : f32\n            linalg.yield %91 : f32\n        } -> tensor<256x64x112x112xf32>",
    "wrapped_operation": "#map = affine_map<(d0, d1, d2, d3) -> (d0, d1, d2, d3)>\n        #map2 = affine_map<(d0, d1, d2, d3) -> (0, d1, d2, d3)>\nfunc.func @func_call(%28: tensor<256x64x112x112xf32>, %25: tensor<256x64x112x112xf32>) -> tensor<256x64x112x112xf32> {\n  %ret = linalg.generic {indexing_maps = [#map2, #map], iterator_types = [\"parallel\", \"parallel\", \"parallel\", \"parallel\"]} ins(%28 : tensor<256x64x112x112xf32>) outs(%25 : tensor<256x64x112x112xf32>) {\n            ^bb0(%in: f32, %out: f32):\n            %cst_1 = arith.constant 0.000000e+00 : f32\n            %90 = arith.cmpf ugt, %in, %cst_1 : f32\n            %91 = arith.select %90, %in, %cst_1 : f32\n            linalg.yield %91 : f32\n        } -> tensor<256x64x112x112xf32>\n  return %ret : tensor<256x64x112x112xf32>\n}",
    "lowered_operation": "module {\n  func.func @func_call(%arg0: tensor<256x64x112x112xf32>, %arg1: tensor<256x64x112x112xf32>) -> tensor<256x64x112x112xf32> {\n    %c0 = arith.constant 0 : index\n    %cst = arith.constant 0.000000e+00 : f32\n    %0 = bufferization.to_memref %arg0 : memref<256x64x112x112xf32>\n    %alloc = memref.alloc() {alignment = 64 : i64} : memref<256x64x112x112xf32>\n    affine.for %arg2 = 0 to 256 {\n      affine.for %arg3 = 0 to 64 {\n        affine.for %arg4 = 0 to 112 {\n          affine.for %arg5 = 0 to 112 {\n            %2 = affine.load %0[%c0, %arg3, %arg4, %arg5] : memref<256x64x112x112xf32>\n            %3 = arith.cmpf ugt, %2, %cst : f32\n            %4 = arith.select %3, %2, %cst : f32\n            affine.store %4, %alloc[%arg2, %arg3, %arg4, %arg5] : memref<256x64x112x112xf32>\n          }\n        }\n      }\n    }\n    %1 = bufferization.to_tensor %alloc : memref<256x64x112x112xf32>\n    return %1 : tensor<256x64x112x112xf32>\n  }\n}\n\n",
    "transform_wrapped_operation": "#map = affine_map<(d0, d1, d2, d3) -> (d0, d1, d2, d3)>\n        #map2 = affine_map<(d0, d1, d2, d3) -> (0, d1, d2, d3)>\nmodule attributes {torch.debug_module_name = \"Net\"} {\nfunc.func private @nanoTime() -> i64 attributes { llvm.emit_c_interface }\nfunc.func private @printFlops(f64)\nfunc.func private @printI64(i64)\nfunc.func private @printNewline()\nfunc.func private @printMemrefF32(tensor<*xf32>)\n\n\nfunc.func @matmul() -> tensor<256x64x112x112xf32>{\n\n%val = arith.constant 2.00000e+00 : f32\n%zero = arith.constant 0.00000e+00 : f32\n\n%tmp_28 = bufferization.alloc_tensor() : tensor<256x64x112x112xf32>\n%28 = linalg.fill ins(%val : f32) outs(%tmp_28 : tensor<256x64x112x112xf32>) -> tensor<256x64x112x112xf32>\n%tmp_25 = bufferization.alloc_tensor() : tensor<256x64x112x112xf32>\n%25 = linalg.fill ins(%val : f32) outs(%tmp_25 : tensor<256x64x112x112xf32>) -> tensor<256x64x112x112xf32>\n\n%t0 = func.call @nanoTime() : () -> (i64)\n\n%return_arg = linalg.generic {indexing_maps = [#map2, #map], iterator_types = [\"parallel\", \"parallel\", \"parallel\", \"parallel\"]} ins(%28 : tensor<256x64x112x112xf32>) outs(%25 : tensor<256x64x112x112xf32>) {\n            ^bb0(%in: f32, %out: f32):\n            %cst_1 = arith.constant 0.000000e+00 : f32\n            %90 = arith.cmpf ugt, %in, %cst_1 : f32\n            %91 = arith.select %90, %in, %cst_1 : f32\n            linalg.yield %91 : f32\n        } -> tensor<256x64x112x112xf32>\n%t = func.call @nanoTime() : () -> (i64)\n%delta = arith.subi %t, %t0 : i64\n%fp = arith.uitofp %delta : i64 to f64\n// func.call @printFlops(%fp) : (f64) -> ()\nfunc.call @printI64(%delta) : (i64) -> ()\nfunc.call @printNewline() : () -> ()\n\nreturn %return_arg : tensor<256x64x112x112xf32> \n}\n\nfunc.func @main(){\n    %c1 = arith.constant 1: index\n    %c0 = arith.constant 0 : index\n    %n = arith.constant 2: index\n    scf.for %i = %c0 to %n step %c1 {\n    %outputmain = func.call @matmul() : () -> tensor<256x64x112x112xf32>\n    }\n    return\n}\n}\n",
    "loops_data": {
      "nested_loops": [
        [
          "%arg2",
          0,
          256,
          1
        ],
        [
          "%arg3",
          0,
          64,
          1
        ],
        [
          "%arg4",
          0,
          112,
          1
        ],
        [
          "%arg5",
          0,
          112,
          1
        ]
      ],
      "op_count": {
        "+": 0,
        "-": 0,
        "*": 0,
        "/": 0,
        "exp": 0
      },
      "load_data": [
        [
          "%c0",
          "%arg3",
          "%arg4",
          "%arg5"
        ]
      ],
      "store_data": []
    },
    "execution_time": 170164201
  },
  "linalg.generic {indexing_maps = [#map2, #map2], iterator_types = [\"parallel\", \"parallel\"]} ins(%38 : tensor<128x512xf32>) outs(%35 : tensor<128x512xf32>) {\n            ^bb0(%in: f32, %out: f32):\n            %cst_1 = arith.constant 0.000000e+00 : f32\n            %46 = arith.cmpf ugt, %in, %cst_1 : f32\n            %47 = arith.select %46, %in, %cst_1 : f32\n            linalg.yield %47 : f32\n        } -> tensor<128x512xf32>": {
    "operation": "linalg.generic {indexing_maps = [#map2, #map2], iterator_types = [\"parallel\", \"parallel\"]} ins(%38 : tensor<128x512xf32>) outs(%35 : tensor<128x512xf32>) {\n            ^bb0(%in: f32, %out: f32):\n            %cst_1 = arith.constant 0.000000e+00 : f32\n            %46 = arith.cmpf ugt, %in, %cst_1 : f32\n            %47 = arith.select %46, %in, %cst_1 : f32\n            linalg.yield %47 : f32\n        } -> tensor<128x512xf32>",
    "wrapped_operation": "#map2 = affine_map<(d0, d1) -> (d0, d1)>\nfunc.func @func_call(%38: tensor<128x512xf32>, %35: tensor<128x512xf32>) -> tensor<128x512xf32> {\n  %ret = linalg.generic {indexing_maps = [#map2, #map2], iterator_types = [\"parallel\", \"parallel\"]} ins(%38 : tensor<128x512xf32>) outs(%35 : tensor<128x512xf32>) {\n            ^bb0(%in: f32, %out: f32):\n            %cst_1 = arith.constant 0.000000e+00 : f32\n            %46 = arith.cmpf ugt, %in, %cst_1 : f32\n            %47 = arith.select %46, %in, %cst_1 : f32\n            linalg.yield %47 : f32\n        } -> tensor<128x512xf32>\n  return %ret : tensor<128x512xf32>\n}",
    "lowered_operation": "module {\n  func.func @func_call(%arg0: tensor<128x512xf32>, %arg1: tensor<128x512xf32>) -> tensor<128x512xf32> {\n    %cst = arith.constant 0.000000e+00 : f32\n    %0 = bufferization.to_memref %arg0 : memref<128x512xf32>\n    %alloc = memref.alloc() {alignment = 64 : i64} : memref<128x512xf32>\n    affine.for %arg2 = 0 to 128 {\n      affine.for %arg3 = 0 to 512 {\n        %2 = affine.load %0[%arg2, %arg3] : memref<128x512xf32>\n        %3 = arith.cmpf ugt, %2, %cst : f32\n        %4 = arith.select %3, %2, %cst : f32\n        affine.store %4, %alloc[%arg2, %arg3] : memref<128x512xf32>\n      }\n    }\n    %1 = bufferization.to_tensor %alloc : memref<128x512xf32>\n    return %1 : tensor<128x512xf32>\n  }\n}\n\n",
    "transform_wrapped_operation": "#map2 = affine_map<(d0, d1) -> (d0, d1)>\nmodule attributes {torch.debug_module_name = \"Net\"} {\nfunc.func private @nanoTime() -> i64 attributes { llvm.emit_c_interface }\nfunc.func private @printFlops(f64)\nfunc.func private @printI64(i64)\nfunc.func private @printNewline()\nfunc.func private @printMemrefF32(tensor<*xf32>)\n\n\nfunc.func @matmul() -> tensor<128x512xf32>{\n\n%val = arith.constant 2.00000e+00 : f32\n%zero = arith.constant 0.00000e+00 : f32\n\n%tmp_38 = bufferization.alloc_tensor() : tensor<128x512xf32>\n%38 = linalg.fill ins(%val : f32) outs(%tmp_38 : tensor<128x512xf32>) -> tensor<128x512xf32>\n%tmp_35 = bufferization.alloc_tensor() : tensor<128x512xf32>\n%35 = linalg.fill ins(%val : f32) outs(%tmp_35 : tensor<128x512xf32>) -> tensor<128x512xf32>\n\n%t0 = func.call @nanoTime() : () -> (i64)\n\n%return_arg = linalg.generic {indexing_maps = [#map2, #map2], iterator_types = [\"parallel\", \"parallel\"]} ins(%38 : tensor<128x512xf32>) outs(%35 : tensor<128x512xf32>) {\n            ^bb0(%in: f32, %out: f32):\n            %cst_1 = arith.constant 0.000000e+00 : f32\n            %46 = arith.cmpf ugt, %in, %cst_1 : f32\n            %47 = arith.select %46, %in, %cst_1 : f32\n            linalg.yield %47 : f32\n        } -> tensor<128x512xf32>\n%t = func.call @nanoTime() : () -> (i64)\n%delta = arith.subi %t, %t0 : i64\n%fp = arith.uitofp %delta : i64 to f64\n// func.call @printFlops(%fp) : (f64) -> ()\nfunc.call @printI64(%delta) : (i64) -> ()\nfunc.call @printNewline() : () -> ()\n\nreturn %return_arg : tensor<128x512xf32> \n}\n\nfunc.func @main(){\n    %c1 = arith.constant 1: index\n    %c0 = arith.constant 0 : index\n    %n = arith.constant 2: index\n    scf.for %i = %c0 to %n step %c1 {\n    %outputmain = func.call @matmul() : () -> tensor<128x512xf32>\n    }\n    return\n}\n}\n",
    "loops_data": {
      "nested_loops": [
        [
          "%arg2",
          0,
          128,
          1
        ],
        [
          "%arg3",
          0,
          512,
          1
        ]
      ],
      "op_count": {
        "+": 0,
        "-": 0,
        "*": 0,
        "/": 0,
        "exp": 0
      },
      "load_data": [
        [
          "%arg2",
          "%arg3"
        ]
      ],
      "store_data": []
    },
    "execution_time": 51028.5
  },
  "linalg.generic {indexing_maps = [#map2, #map], iterator_types = [\"parallel\", \"parallel\", \"parallel\", \"parallel\"]} ins(%28 : tensor<128x96x224x224xf32>) outs(%25 : tensor<128x96x224x224xf32>) {\n            ^bb0(%in: f32, %out: f32):\n            %cst_1 = arith.constant 0.000000e+00 : f32\n            %90 = arith.cmpf ugt, %in, %cst_1 : f32\n            %91 = arith.select %90, %in, %cst_1 : f32\n            linalg.yield %91 : f32\n        } -> tensor<128x96x224x224xf32>": {
    "operation": "linalg.generic {indexing_maps = [#map2, #map], iterator_types = [\"parallel\", \"parallel\", \"parallel\", \"parallel\"]} ins(%28 : tensor<128x96x224x224xf32>) outs(%25 : tensor<128x96x224x224xf32>) {\n            ^bb0(%in: f32, %out: f32):\n            %cst_1 = arith.constant 0.000000e+00 : f32\n            %90 = arith.cmpf ugt, %in, %cst_1 : f32\n            %91 = arith.select %90, %in, %cst_1 : f32\n            linalg.yield %91 : f32\n        } -> tensor<128x96x224x224xf32>",
    "wrapped_operation": "#map = affine_map<(d0, d1, d2, d3) -> (d0, d1, d2, d3)>\n        #map2 = affine_map<(d0, d1, d2, d3) -> (0, d1, d2, d3)>\nfunc.func @func_call(%28: tensor<128x96x224x224xf32>, %25: tensor<128x96x224x224xf32>) -> tensor<128x96x224x224xf32> {\n  %ret = linalg.generic {indexing_maps = [#map2, #map], iterator_types = [\"parallel\", \"parallel\", \"parallel\", \"parallel\"]} ins(%28 : tensor<128x96x224x224xf32>) outs(%25 : tensor<128x96x224x224xf32>) {\n            ^bb0(%in: f32, %out: f32):\n            %cst_1 = arith.constant 0.000000e+00 : f32\n            %90 = arith.cmpf ugt, %in, %cst_1 : f32\n            %91 = arith.select %90, %in, %cst_1 : f32\n            linalg.yield %91 : f32\n        } -> tensor<128x96x224x224xf32>\n  return %ret : tensor<128x96x224x224xf32>\n}",
    "lowered_operation": "module {\n  func.func @func_call(%arg0: tensor<128x96x224x224xf32>, %arg1: tensor<128x96x224x224xf32>) -> tensor<128x96x224x224xf32> {\n    %c0 = arith.constant 0 : index\n    %cst = arith.constant 0.000000e+00 : f32\n    %0 = bufferization.to_memref %arg0 : memref<128x96x224x224xf32>\n    %alloc = memref.alloc() {alignment = 64 : i64} : memref<128x96x224x224xf32>\n    affine.for %arg2 = 0 to 128 {\n      affine.for %arg3 = 0 to 96 {\n        affine.for %arg4 = 0 to 224 {\n          affine.for %arg5 = 0 to 224 {\n            %2 = affine.load %0[%c0, %arg3, %arg4, %arg5] : memref<128x96x224x224xf32>\n            %3 = arith.cmpf ugt, %2, %cst : f32\n            %4 = arith.select %3, %2, %cst : f32\n            affine.store %4, %alloc[%arg2, %arg3, %arg4, %arg5] : memref<128x96x224x224xf32>\n          }\n        }\n      }\n    }\n    %1 = bufferization.to_tensor %alloc : memref<128x96x224x224xf32>\n    return %1 : tensor<128x96x224x224xf32>\n  }\n}\n\n",
    "transform_wrapped_operation": "#map = affine_map<(d0, d1, d2, d3) -> (d0, d1, d2, d3)>\n        #map2 = affine_map<(d0, d1, d2, d3) -> (0, d1, d2, d3)>\nmodule attributes {torch.debug_module_name = \"Net\"} {\nfunc.func private @nanoTime() -> i64 attributes { llvm.emit_c_interface }\nfunc.func private @printFlops(f64)\nfunc.func private @printI64(i64)\nfunc.func private @printNewline()\nfunc.func private @printMemrefF32(tensor<*xf32>)\n\n\nfunc.func @matmul() -> tensor<128x96x224x224xf32>{\n\n%val = arith.constant 2.00000e+00 : f32\n%zero = arith.constant 0.00000e+00 : f32\n\n%tmp_28 = bufferization.alloc_tensor() : tensor<128x96x224x224xf32>\n%28 = linalg.fill ins(%val : f32) outs(%tmp_28 : tensor<128x96x224x224xf32>) -> tensor<128x96x224x224xf32>\n%tmp_25 = bufferization.alloc_tensor() : tensor<128x96x224x224xf32>\n%25 = linalg.fill ins(%val : f32) outs(%tmp_25 : tensor<128x96x224x224xf32>) -> tensor<128x96x224x224xf32>\n\n%t0 = func.call @nanoTime() : () -> (i64)\n\n%return_arg = linalg.generic {indexing_maps = [#map2, #map], iterator_types = [\"parallel\", \"parallel\", \"parallel\", \"parallel\"]} ins(%28 : tensor<128x96x224x224xf32>) outs(%25 : tensor<128x96x224x224xf32>) {\n            ^bb0(%in: f32, %out: f32):\n            %cst_1 = arith.constant 0.000000e+00 : f32\n            %90 = arith.cmpf ugt, %in, %cst_1 : f32\n            %91 = arith.select %90, %in, %cst_1 : f32\n            linalg.yield %91 : f32\n        } -> tensor<128x96x224x224xf32>\n%t = func.call @nanoTime() : () -> (i64)\n%delta = arith.subi %t, %t0 : i64\n%fp = arith.uitofp %delta : i64 to f64\n// func.call @printFlops(%fp) : (f64) -> ()\nfunc.call @printI64(%delta) : (i64) -> ()\nfunc.call @printNewline() : () -> ()\n\nreturn %return_arg : tensor<128x96x224x224xf32> \n}\n\nfunc.func @main(){\n    %c1 = arith.constant 1: index\n    %c0 = arith.constant 0 : index\n    %n = arith.constant 2: index\n    scf.for %i = %c0 to %n step %c1 {\n    %outputmain = func.call @matmul() : () -> tensor<128x96x224x224xf32>\n    }\n    return\n}\n}\n",
    "loops_data": {
      "nested_loops": [
        [
          "%arg2",
          0,
          128,
          1
        ],
        [
          "%arg3",
          0,
          96,
          1
        ],
        [
          "%arg4",
          0,
          224,
          1
        ],
        [
          "%arg5",
          0,
          224,
          1
        ]
      ],
      "op_count": {
        "+": 0,
        "-": 0,
        "*": 0,
        "/": 0,
        "exp": 0
      },
      "load_data": [
        [
          "%c0",
          "%arg3",
          "%arg4",
          "%arg5"
        ]
      ],
      "store_data": []
    },
    "execution_time": 536121876
  },
  "linalg.generic {indexing_maps = [#map2, #map2], iterator_types = [\"parallel\", \"parallel\"]} ins(%38 : tensor<256x768xf32>) outs(%35 : tensor<256x768xf32>) {\n            ^bb0(%in: f32, %out: f32):\n            %cst_1 = arith.constant 0.000000e+00 : f32\n            %46 = arith.cmpf ugt, %in, %cst_1 : f32\n            %47 = arith.select %46, %in, %cst_1 : f32\n            linalg.yield %47 : f32\n        } -> tensor<256x768xf32>": {
    "operation": "linalg.generic {indexing_maps = [#map2, #map2], iterator_types = [\"parallel\", \"parallel\"]} ins(%38 : tensor<256x768xf32>) outs(%35 : tensor<256x768xf32>) {\n            ^bb0(%in: f32, %out: f32):\n            %cst_1 = arith.constant 0.000000e+00 : f32\n            %46 = arith.cmpf ugt, %in, %cst_1 : f32\n            %47 = arith.select %46, %in, %cst_1 : f32\n            linalg.yield %47 : f32\n        } -> tensor<256x768xf32>",
    "wrapped_operation": "#map2 = affine_map<(d0, d1) -> (d0, d1)>\nfunc.func @func_call(%38: tensor<256x768xf32>, %35: tensor<256x768xf32>) -> tensor<256x768xf32> {\n  %ret = linalg.generic {indexing_maps = [#map2, #map2], iterator_types = [\"parallel\", \"parallel\"]} ins(%38 : tensor<256x768xf32>) outs(%35 : tensor<256x768xf32>) {\n            ^bb0(%in: f32, %out: f32):\n            %cst_1 = arith.constant 0.000000e+00 : f32\n            %46 = arith.cmpf ugt, %in, %cst_1 : f32\n            %47 = arith.select %46, %in, %cst_1 : f32\n            linalg.yield %47 : f32\n        } -> tensor<256x768xf32>\n  return %ret : tensor<256x768xf32>\n}",
    "lowered_operation": "module {\n  func.func @func_call(%arg0: tensor<256x768xf32>, %arg1: tensor<256x768xf32>) -> tensor<256x768xf32> {\n    %cst = arith.constant 0.000000e+00 : f32\n    %0 = bufferization.to_memref %arg0 : memref<256x768xf32>\n    %alloc = memref.alloc() {alignment = 64 : i64} : memref<256x768xf32>\n    affine.for %arg2 = 0 to 256 {\n      affine.for %arg3 = 0 to 768 {\n        %2 = affine.load %0[%arg2, %arg3] : memref<256x768xf32>\n        %3 = arith.cmpf ugt, %2, %cst : f32\n        %4 = arith.select %3, %2, %cst : f32\n        affine.store %4, %alloc[%arg2, %arg3] : memref<256x768xf32>\n      }\n    }\n    %1 = bufferization.to_tensor %alloc : memref<256x768xf32>\n    return %1 : tensor<256x768xf32>\n  }\n}\n\n",
    "transform_wrapped_operation": "#map2 = affine_map<(d0, d1) -> (d0, d1)>\nmodule attributes {torch.debug_module_name = \"Net\"} {\nfunc.func private @nanoTime() -> i64 attributes { llvm.emit_c_interface }\nfunc.func private @printFlops(f64)\nfunc.func private @printI64(i64)\nfunc.func private @printNewline()\nfunc.func private @printMemrefF32(tensor<*xf32>)\n\n\nfunc.func @matmul() -> tensor<256x768xf32>{\n\n%val = arith.constant 2.00000e+00 : f32\n%zero = arith.constant 0.00000e+00 : f32\n\n%tmp_38 = bufferization.alloc_tensor() : tensor<256x768xf32>\n%38 = linalg.fill ins(%val : f32) outs(%tmp_38 : tensor<256x768xf32>) -> tensor<256x768xf32>\n%tmp_35 = bufferization.alloc_tensor() : tensor<256x768xf32>\n%35 = linalg.fill ins(%val : f32) outs(%tmp_35 : tensor<256x768xf32>) -> tensor<256x768xf32>\n\n%t0 = func.call @nanoTime() : () -> (i64)\n\n%return_arg = linalg.generic {indexing_maps = [#map2, #map2], iterator_types = [\"parallel\", \"parallel\"]} ins(%38 : tensor<256x768xf32>) outs(%35 : tensor<256x768xf32>) {\n            ^bb0(%in: f32, %out: f32):\n            %cst_1 = arith.constant 0.000000e+00 : f32\n            %46 = arith.cmpf ugt, %in, %cst_1 : f32\n            %47 = arith.select %46, %in, %cst_1 : f32\n            linalg.yield %47 : f32\n        } -> tensor<256x768xf32>\n%t = func.call @nanoTime() : () -> (i64)\n%delta = arith.subi %t, %t0 : i64\n%fp = arith.uitofp %delta : i64 to f64\n// func.call @printFlops(%fp) : (f64) -> ()\nfunc.call @printI64(%delta) : (i64) -> ()\nfunc.call @printNewline() : () -> ()\n\nreturn %return_arg : tensor<256x768xf32> \n}\n\nfunc.func @main(){\n    %c1 = arith.constant 1: index\n    %c0 = arith.constant 0 : index\n    %n = arith.constant 2: index\n    scf.for %i = %c0 to %n step %c1 {\n    %outputmain = func.call @matmul() : () -> tensor<256x768xf32>\n    }\n    return\n}\n}\n",
    "loops_data": {
      "nested_loops": [
        [
          "%arg2",
          0,
          256,
          1
        ],
        [
          "%arg3",
          0,
          768,
          1
        ]
      ],
      "op_count": {
        "+": 0,
        "-": 0,
        "*": 0,
        "/": 0,
        "exp": 0
      },
      "load_data": [
        [
          "%arg2",
          "%arg3"
        ]
      ],
      "store_data": []
    },
    "execution_time": 150688
  },
  "linalg.generic {indexing_maps = [#map2, #map], iterator_types = [\"parallel\", \"parallel\", \"parallel\", \"parallel\"]} ins(%28 : tensor<128x96x112x112xf32>) outs(%25 : tensor<128x96x112x112xf32>) {\n            ^bb0(%in: f32, %out: f32):\n            %cst_1 = arith.constant 0.000000e+00 : f32\n            %90 = arith.cmpf ugt, %in, %cst_1 : f32\n            %91 = arith.select %90, %in, %cst_1 : f32\n            linalg.yield %91 : f32\n        } -> tensor<128x96x112x112xf32>": {
    "operation": "linalg.generic {indexing_maps = [#map2, #map], iterator_types = [\"parallel\", \"parallel\", \"parallel\", \"parallel\"]} ins(%28 : tensor<128x96x112x112xf32>) outs(%25 : tensor<128x96x112x112xf32>) {\n            ^bb0(%in: f32, %out: f32):\n            %cst_1 = arith.constant 0.000000e+00 : f32\n            %90 = arith.cmpf ugt, %in, %cst_1 : f32\n            %91 = arith.select %90, %in, %cst_1 : f32\n            linalg.yield %91 : f32\n        } -> tensor<128x96x112x112xf32>",
    "wrapped_operation": "#map = affine_map<(d0, d1, d2, d3) -> (d0, d1, d2, d3)>\n        #map2 = affine_map<(d0, d1, d2, d3) -> (0, d1, d2, d3)>\nfunc.func @func_call(%28: tensor<128x96x112x112xf32>, %25: tensor<128x96x112x112xf32>) -> tensor<128x96x112x112xf32> {\n  %ret = linalg.generic {indexing_maps = [#map2, #map], iterator_types = [\"parallel\", \"parallel\", \"parallel\", \"parallel\"]} ins(%28 : tensor<128x96x112x112xf32>) outs(%25 : tensor<128x96x112x112xf32>) {\n            ^bb0(%in: f32, %out: f32):\n            %cst_1 = arith.constant 0.000000e+00 : f32\n            %90 = arith.cmpf ugt, %in, %cst_1 : f32\n            %91 = arith.select %90, %in, %cst_1 : f32\n            linalg.yield %91 : f32\n        } -> tensor<128x96x112x112xf32>\n  return %ret : tensor<128x96x112x112xf32>\n}",
    "lowered_operation": "module {\n  func.func @func_call(%arg0: tensor<128x96x112x112xf32>, %arg1: tensor<128x96x112x112xf32>) -> tensor<128x96x112x112xf32> {\n    %c0 = arith.constant 0 : index\n    %cst = arith.constant 0.000000e+00 : f32\n    %0 = bufferization.to_memref %arg0 : memref<128x96x112x112xf32>\n    %alloc = memref.alloc() {alignment = 64 : i64} : memref<128x96x112x112xf32>\n    affine.for %arg2 = 0 to 128 {\n      affine.for %arg3 = 0 to 96 {\n        affine.for %arg4 = 0 to 112 {\n          affine.for %arg5 = 0 to 112 {\n            %2 = affine.load %0[%c0, %arg3, %arg4, %arg5] : memref<128x96x112x112xf32>\n            %3 = arith.cmpf ugt, %2, %cst : f32\n            %4 = arith.select %3, %2, %cst : f32\n            affine.store %4, %alloc[%arg2, %arg3, %arg4, %arg5] : memref<128x96x112x112xf32>\n          }\n        }\n      }\n    }\n    %1 = bufferization.to_tensor %alloc : memref<128x96x112x112xf32>\n    return %1 : tensor<128x96x112x112xf32>\n  }\n}\n\n",
    "transform_wrapped_operation": "#map = affine_map<(d0, d1, d2, d3) -> (d0, d1, d2, d3)>\n        #map2 = affine_map<(d0, d1, d2, d3) -> (0, d1, d2, d3)>\nmodule attributes {torch.debug_module_name = \"Net\"} {\nfunc.func private @nanoTime() -> i64 attributes { llvm.emit_c_interface }\nfunc.func private @printFlops(f64)\nfunc.func private @printI64(i64)\nfunc.func private @printNewline()\nfunc.func private @printMemrefF32(tensor<*xf32>)\n\n\nfunc.func @matmul() -> tensor<128x96x112x112xf32>{\n\n%val = arith.constant 2.00000e+00 : f32\n%zero = arith.constant 0.00000e+00 : f32\n\n%tmp_28 = bufferization.alloc_tensor() : tensor<128x96x112x112xf32>\n%28 = linalg.fill ins(%val : f32) outs(%tmp_28 : tensor<128x96x112x112xf32>) -> tensor<128x96x112x112xf32>\n%tmp_25 = bufferization.alloc_tensor() : tensor<128x96x112x112xf32>\n%25 = linalg.fill ins(%val : f32) outs(%tmp_25 : tensor<128x96x112x112xf32>) -> tensor<128x96x112x112xf32>\n\n%t0 = func.call @nanoTime() : () -> (i64)\n\n%return_arg = linalg.generic {indexing_maps = [#map2, #map], iterator_types = [\"parallel\", \"parallel\", \"parallel\", \"parallel\"]} ins(%28 : tensor<128x96x112x112xf32>) outs(%25 : tensor<128x96x112x112xf32>) {\n            ^bb0(%in: f32, %out: f32):\n            %cst_1 = arith.constant 0.000000e+00 : f32\n            %90 = arith.cmpf ugt, %in, %cst_1 : f32\n            %91 = arith.select %90, %in, %cst_1 : f32\n            linalg.yield %91 : f32\n        } -> tensor<128x96x112x112xf32>\n%t = func.call @nanoTime() : () -> (i64)\n%delta = arith.subi %t, %t0 : i64\n%fp = arith.uitofp %delta : i64 to f64\n// func.call @printFlops(%fp) : (f64) -> ()\nfunc.call @printI64(%delta) : (i64) -> ()\nfunc.call @printNewline() : () -> ()\n\nreturn %return_arg : tensor<128x96x112x112xf32> \n}\n\nfunc.func @main(){\n    %c1 = arith.constant 1: index\n    %c0 = arith.constant 0 : index\n    %n = arith.constant 2: index\n    scf.for %i = %c0 to %n step %c1 {\n    %outputmain = func.call @matmul() : () -> tensor<128x96x112x112xf32>\n    }\n    return\n}\n}\n",
    "loops_data": {
      "nested_loops": [
        [
          "%arg2",
          0,
          128,
          1
        ],
        [
          "%arg3",
          0,
          96,
          1
        ],
        [
          "%arg4",
          0,
          112,
          1
        ],
        [
          "%arg5",
          0,
          112,
          1
        ]
      ],
      "op_count": {
        "+": 0,
        "-": 0,
        "*": 0,
        "/": 0,
        "exp": 0
      },
      "load_data": [
        [
          "%c0",
          "%arg3",
          "%arg4",
          "%arg5"
        ]
      ],
      "store_data": []
    },
    "execution_time": 127778868
  },
  "linalg.generic {indexing_maps = [#map2, #map], iterator_types = [\"parallel\", \"parallel\", \"parallel\", \"parallel\"]} ins(%28 : tensor<256x240x14x14xf32>) outs(%25 : tensor<256x240x14x14xf32>) {\n            ^bb0(%in: f32, %out: f32):\n            %cst_1 = arith.constant 0.000000e+00 : f32\n            %90 = arith.cmpf ugt, %in, %cst_1 : f32\n            %91 = arith.select %90, %in, %cst_1 : f32\n            linalg.yield %91 : f32\n        } -> tensor<256x240x14x14xf32>": {
    "operation": "linalg.generic {indexing_maps = [#map2, #map], iterator_types = [\"parallel\", \"parallel\", \"parallel\", \"parallel\"]} ins(%28 : tensor<256x240x14x14xf32>) outs(%25 : tensor<256x240x14x14xf32>) {\n            ^bb0(%in: f32, %out: f32):\n            %cst_1 = arith.constant 0.000000e+00 : f32\n            %90 = arith.cmpf ugt, %in, %cst_1 : f32\n            %91 = arith.select %90, %in, %cst_1 : f32\n            linalg.yield %91 : f32\n        } -> tensor<256x240x14x14xf32>",
    "wrapped_operation": "#map = affine_map<(d0, d1, d2, d3) -> (d0, d1, d2, d3)>\n        #map2 = affine_map<(d0, d1, d2, d3) -> (0, d1, d2, d3)>\nfunc.func @func_call(%28: tensor<256x240x14x14xf32>, %25: tensor<256x240x14x14xf32>) -> tensor<256x240x14x14xf32> {\n  %ret = linalg.generic {indexing_maps = [#map2, #map], iterator_types = [\"parallel\", \"parallel\", \"parallel\", \"parallel\"]} ins(%28 : tensor<256x240x14x14xf32>) outs(%25 : tensor<256x240x14x14xf32>) {\n            ^bb0(%in: f32, %out: f32):\n            %cst_1 = arith.constant 0.000000e+00 : f32\n            %90 = arith.cmpf ugt, %in, %cst_1 : f32\n            %91 = arith.select %90, %in, %cst_1 : f32\n            linalg.yield %91 : f32\n        } -> tensor<256x240x14x14xf32>\n  return %ret : tensor<256x240x14x14xf32>\n}",
    "lowered_operation": "module {\n  func.func @func_call(%arg0: tensor<256x240x14x14xf32>, %arg1: tensor<256x240x14x14xf32>) -> tensor<256x240x14x14xf32> {\n    %c0 = arith.constant 0 : index\n    %cst = arith.constant 0.000000e+00 : f32\n    %0 = bufferization.to_memref %arg0 : memref<256x240x14x14xf32>\n    %alloc = memref.alloc() {alignment = 64 : i64} : memref<256x240x14x14xf32>\n    affine.for %arg2 = 0 to 256 {\n      affine.for %arg3 = 0 to 240 {\n        affine.for %arg4 = 0 to 14 {\n          affine.for %arg5 = 0 to 14 {\n            %2 = affine.load %0[%c0, %arg3, %arg4, %arg5] : memref<256x240x14x14xf32>\n            %3 = arith.cmpf ugt, %2, %cst : f32\n            %4 = arith.select %3, %2, %cst : f32\n            affine.store %4, %alloc[%arg2, %arg3, %arg4, %arg5] : memref<256x240x14x14xf32>\n          }\n        }\n      }\n    }\n    %1 = bufferization.to_tensor %alloc : memref<256x240x14x14xf32>\n    return %1 : tensor<256x240x14x14xf32>\n  }\n}\n\n",
    "transform_wrapped_operation": "#map = affine_map<(d0, d1, d2, d3) -> (d0, d1, d2, d3)>\n        #map2 = affine_map<(d0, d1, d2, d3) -> (0, d1, d2, d3)>\nmodule attributes {torch.debug_module_name = \"Net\"} {\nfunc.func private @nanoTime() -> i64 attributes { llvm.emit_c_interface }\nfunc.func private @printFlops(f64)\nfunc.func private @printI64(i64)\nfunc.func private @printNewline()\nfunc.func private @printMemrefF32(tensor<*xf32>)\n\n\nfunc.func @matmul() -> tensor<256x240x14x14xf32>{\n\n%val = arith.constant 2.00000e+00 : f32\n%zero = arith.constant 0.00000e+00 : f32\n\n%tmp_28 = bufferization.alloc_tensor() : tensor<256x240x14x14xf32>\n%28 = linalg.fill ins(%val : f32) outs(%tmp_28 : tensor<256x240x14x14xf32>) -> tensor<256x240x14x14xf32>\n%tmp_25 = bufferization.alloc_tensor() : tensor<256x240x14x14xf32>\n%25 = linalg.fill ins(%val : f32) outs(%tmp_25 : tensor<256x240x14x14xf32>) -> tensor<256x240x14x14xf32>\n\n%t0 = func.call @nanoTime() : () -> (i64)\n\n%return_arg = linalg.generic {indexing_maps = [#map2, #map], iterator_types = [\"parallel\", \"parallel\", \"parallel\", \"parallel\"]} ins(%28 : tensor<256x240x14x14xf32>) outs(%25 : tensor<256x240x14x14xf32>) {\n            ^bb0(%in: f32, %out: f32):\n            %cst_1 = arith.constant 0.000000e+00 : f32\n            %90 = arith.cmpf ugt, %in, %cst_1 : f32\n            %91 = arith.select %90, %in, %cst_1 : f32\n            linalg.yield %91 : f32\n        } -> tensor<256x240x14x14xf32>\n%t = func.call @nanoTime() : () -> (i64)\n%delta = arith.subi %t, %t0 : i64\n%fp = arith.uitofp %delta : i64 to f64\n// func.call @printFlops(%fp) : (f64) -> ()\nfunc.call @printI64(%delta) : (i64) -> ()\nfunc.call @printNewline() : () -> ()\n\nreturn %return_arg : tensor<256x240x14x14xf32> \n}\n\nfunc.func @main(){\n    %c1 = arith.constant 1: index\n    %c0 = arith.constant 0 : index\n    %n = arith.constant 2: index\n    scf.for %i = %c0 to %n step %c1 {\n    %outputmain = func.call @matmul() : () -> tensor<256x240x14x14xf32>\n    }\n    return\n}\n}\n",
    "loops_data": {
      "nested_loops": [
        [
          "%arg2",
          0,
          256,
          1
        ],
        [
          "%arg3",
          0,
          240,
          1
        ],
        [
          "%arg4",
          0,
          14,
          1
        ],
        [
          "%arg5",
          0,
          14,
          1
        ]
      ],
      "op_count": {
        "+": 0,
        "-": 0,
        "*": 0,
        "/": 0,
        "exp": 0
      },
      "load_data": [
        [
          "%c0",
          "%arg3",
          "%arg4",
          "%arg5"
        ]
      ],
      "store_data": []
    },
    "execution_time": 9901954
  },
  "linalg.generic {indexing_maps = [#map2, #map], iterator_types = [\"parallel\", \"parallel\", \"parallel\", \"parallel\"]} ins(%28 : tensor<128x96x28x28xf32>) outs(%25 : tensor<128x96x28x28xf32>) {\n            ^bb0(%in: f32, %out: f32):\n            %cst_1 = arith.constant 0.000000e+00 : f32\n            %90 = arith.cmpf ugt, %in, %cst_1 : f32\n            %91 = arith.select %90, %in, %cst_1 : f32\n            linalg.yield %91 : f32\n        } -> tensor<128x96x28x28xf32>": {
    "operation": "linalg.generic {indexing_maps = [#map2, #map], iterator_types = [\"parallel\", \"parallel\", \"parallel\", \"parallel\"]} ins(%28 : tensor<128x96x28x28xf32>) outs(%25 : tensor<128x96x28x28xf32>) {\n            ^bb0(%in: f32, %out: f32):\n            %cst_1 = arith.constant 0.000000e+00 : f32\n            %90 = arith.cmpf ugt, %in, %cst_1 : f32\n            %91 = arith.select %90, %in, %cst_1 : f32\n            linalg.yield %91 : f32\n        } -> tensor<128x96x28x28xf32>",
    "wrapped_operation": "#map = affine_map<(d0, d1, d2, d3) -> (d0, d1, d2, d3)>\n        #map2 = affine_map<(d0, d1, d2, d3) -> (0, d1, d2, d3)>\nfunc.func @func_call(%28: tensor<128x96x28x28xf32>, %25: tensor<128x96x28x28xf32>) -> tensor<128x96x28x28xf32> {\n  %ret = linalg.generic {indexing_maps = [#map2, #map], iterator_types = [\"parallel\", \"parallel\", \"parallel\", \"parallel\"]} ins(%28 : tensor<128x96x28x28xf32>) outs(%25 : tensor<128x96x28x28xf32>) {\n            ^bb0(%in: f32, %out: f32):\n            %cst_1 = arith.constant 0.000000e+00 : f32\n            %90 = arith.cmpf ugt, %in, %cst_1 : f32\n            %91 = arith.select %90, %in, %cst_1 : f32\n            linalg.yield %91 : f32\n        } -> tensor<128x96x28x28xf32>\n  return %ret : tensor<128x96x28x28xf32>\n}",
    "lowered_operation": "module {\n  func.func @func_call(%arg0: tensor<128x96x28x28xf32>, %arg1: tensor<128x96x28x28xf32>) -> tensor<128x96x28x28xf32> {\n    %c0 = arith.constant 0 : index\n    %cst = arith.constant 0.000000e+00 : f32\n    %0 = bufferization.to_memref %arg0 : memref<128x96x28x28xf32>\n    %alloc = memref.alloc() {alignment = 64 : i64} : memref<128x96x28x28xf32>\n    affine.for %arg2 = 0 to 128 {\n      affine.for %arg3 = 0 to 96 {\n        affine.for %arg4 = 0 to 28 {\n          affine.for %arg5 = 0 to 28 {\n            %2 = affine.load %0[%c0, %arg3, %arg4, %arg5] : memref<128x96x28x28xf32>\n            %3 = arith.cmpf ugt, %2, %cst : f32\n            %4 = arith.select %3, %2, %cst : f32\n            affine.store %4, %alloc[%arg2, %arg3, %arg4, %arg5] : memref<128x96x28x28xf32>\n          }\n        }\n      }\n    }\n    %1 = bufferization.to_tensor %alloc : memref<128x96x28x28xf32>\n    return %1 : tensor<128x96x28x28xf32>\n  }\n}\n\n",
    "transform_wrapped_operation": "#map = affine_map<(d0, d1, d2, d3) -> (d0, d1, d2, d3)>\n        #map2 = affine_map<(d0, d1, d2, d3) -> (0, d1, d2, d3)>\nmodule attributes {torch.debug_module_name = \"Net\"} {\nfunc.func private @nanoTime() -> i64 attributes { llvm.emit_c_interface }\nfunc.func private @printFlops(f64)\nfunc.func private @printI64(i64)\nfunc.func private @printNewline()\nfunc.func private @printMemrefF32(tensor<*xf32>)\n\n\nfunc.func @matmul() -> tensor<128x96x28x28xf32>{\n\n%val = arith.constant 2.00000e+00 : f32\n%zero = arith.constant 0.00000e+00 : f32\n\n%tmp_28 = bufferization.alloc_tensor() : tensor<128x96x28x28xf32>\n%28 = linalg.fill ins(%val : f32) outs(%tmp_28 : tensor<128x96x28x28xf32>) -> tensor<128x96x28x28xf32>\n%tmp_25 = bufferization.alloc_tensor() : tensor<128x96x28x28xf32>\n%25 = linalg.fill ins(%val : f32) outs(%tmp_25 : tensor<128x96x28x28xf32>) -> tensor<128x96x28x28xf32>\n\n%t0 = func.call @nanoTime() : () -> (i64)\n\n%return_arg = linalg.generic {indexing_maps = [#map2, #map], iterator_types = [\"parallel\", \"parallel\", \"parallel\", \"parallel\"]} ins(%28 : tensor<128x96x28x28xf32>) outs(%25 : tensor<128x96x28x28xf32>) {\n            ^bb0(%in: f32, %out: f32):\n            %cst_1 = arith.constant 0.000000e+00 : f32\n            %90 = arith.cmpf ugt, %in, %cst_1 : f32\n            %91 = arith.select %90, %in, %cst_1 : f32\n            linalg.yield %91 : f32\n        } -> tensor<128x96x28x28xf32>\n%t = func.call @nanoTime() : () -> (i64)\n%delta = arith.subi %t, %t0 : i64\n%fp = arith.uitofp %delta : i64 to f64\n// func.call @printFlops(%fp) : (f64) -> ()\nfunc.call @printI64(%delta) : (i64) -> ()\nfunc.call @printNewline() : () -> ()\n\nreturn %return_arg : tensor<128x96x28x28xf32> \n}\n\nfunc.func @main(){\n    %c1 = arith.constant 1: index\n    %c0 = arith.constant 0 : index\n    %n = arith.constant 2: index\n    scf.for %i = %c0 to %n step %c1 {\n    %outputmain = func.call @matmul() : () -> tensor<128x96x28x28xf32>\n    }\n    return\n}\n}\n",
    "loops_data": {
      "nested_loops": [
        [
          "%arg2",
          0,
          128,
          1
        ],
        [
          "%arg3",
          0,
          96,
          1
        ],
        [
          "%arg4",
          0,
          28,
          1
        ],
        [
          "%arg5",
          0,
          28,
          1
        ]
      ],
      "op_count": {
        "+": 0,
        "-": 0,
        "*": 0,
        "/": 0,
        "exp": 0
      },
      "load_data": [
        [
          "%c0",
          "%arg3",
          "%arg4",
          "%arg5"
        ]
      ],
      "store_data": []
    },
    "execution_time": 7330281
  },
  "linalg.generic {indexing_maps = [#map2, #map2], iterator_types = [\"parallel\", \"parallel\"]} ins(%38 : tensor<256x1024xf32>) outs(%35 : tensor<256x1024xf32>) {\n            ^bb0(%in: f32, %out: f32):\n            %cst_1 = arith.constant 0.000000e+00 : f32\n            %46 = arith.cmpf ugt, %in, %cst_1 : f32\n            %47 = arith.select %46, %in, %cst_1 : f32\n            linalg.yield %47 : f32\n        } -> tensor<256x1024xf32>": {
    "operation": "linalg.generic {indexing_maps = [#map2, #map2], iterator_types = [\"parallel\", \"parallel\"]} ins(%38 : tensor<256x1024xf32>) outs(%35 : tensor<256x1024xf32>) {\n            ^bb0(%in: f32, %out: f32):\n            %cst_1 = arith.constant 0.000000e+00 : f32\n            %46 = arith.cmpf ugt, %in, %cst_1 : f32\n            %47 = arith.select %46, %in, %cst_1 : f32\n            linalg.yield %47 : f32\n        } -> tensor<256x1024xf32>",
    "wrapped_operation": "#map2 = affine_map<(d0, d1) -> (d0, d1)>\nfunc.func @func_call(%38: tensor<256x1024xf32>, %35: tensor<256x1024xf32>) -> tensor<256x1024xf32> {\n  %ret = linalg.generic {indexing_maps = [#map2, #map2], iterator_types = [\"parallel\", \"parallel\"]} ins(%38 : tensor<256x1024xf32>) outs(%35 : tensor<256x1024xf32>) {\n            ^bb0(%in: f32, %out: f32):\n            %cst_1 = arith.constant 0.000000e+00 : f32\n            %46 = arith.cmpf ugt, %in, %cst_1 : f32\n            %47 = arith.select %46, %in, %cst_1 : f32\n            linalg.yield %47 : f32\n        } -> tensor<256x1024xf32>\n  return %ret : tensor<256x1024xf32>\n}",
    "lowered_operation": "module {\n  func.func @func_call(%arg0: tensor<256x1024xf32>, %arg1: tensor<256x1024xf32>) -> tensor<256x1024xf32> {\n    %cst = arith.constant 0.000000e+00 : f32\n    %0 = bufferization.to_memref %arg0 : memref<256x1024xf32>\n    %alloc = memref.alloc() {alignment = 64 : i64} : memref<256x1024xf32>\n    affine.for %arg2 = 0 to 256 {\n      affine.for %arg3 = 0 to 1024 {\n        %2 = affine.load %0[%arg2, %arg3] : memref<256x1024xf32>\n        %3 = arith.cmpf ugt, %2, %cst : f32\n        %4 = arith.select %3, %2, %cst : f32\n        affine.store %4, %alloc[%arg2, %arg3] : memref<256x1024xf32>\n      }\n    }\n    %1 = bufferization.to_tensor %alloc : memref<256x1024xf32>\n    return %1 : tensor<256x1024xf32>\n  }\n}\n\n",
    "transform_wrapped_operation": "#map2 = affine_map<(d0, d1) -> (d0, d1)>\nmodule attributes {torch.debug_module_name = \"Net\"} {\nfunc.func private @nanoTime() -> i64 attributes { llvm.emit_c_interface }\nfunc.func private @printFlops(f64)\nfunc.func private @printI64(i64)\nfunc.func private @printNewline()\nfunc.func private @printMemrefF32(tensor<*xf32>)\n\n\nfunc.func @matmul() -> tensor<256x1024xf32>{\n\n%val = arith.constant 2.00000e+00 : f32\n%zero = arith.constant 0.00000e+00 : f32\n\n%tmp_38 = bufferization.alloc_tensor() : tensor<256x1024xf32>\n%38 = linalg.fill ins(%val : f32) outs(%tmp_38 : tensor<256x1024xf32>) -> tensor<256x1024xf32>\n%tmp_35 = bufferization.alloc_tensor() : tensor<256x1024xf32>\n%35 = linalg.fill ins(%val : f32) outs(%tmp_35 : tensor<256x1024xf32>) -> tensor<256x1024xf32>\n\n%t0 = func.call @nanoTime() : () -> (i64)\n\n%return_arg = linalg.generic {indexing_maps = [#map2, #map2], iterator_types = [\"parallel\", \"parallel\"]} ins(%38 : tensor<256x1024xf32>) outs(%35 : tensor<256x1024xf32>) {\n            ^bb0(%in: f32, %out: f32):\n            %cst_1 = arith.constant 0.000000e+00 : f32\n            %46 = arith.cmpf ugt, %in, %cst_1 : f32\n            %47 = arith.select %46, %in, %cst_1 : f32\n            linalg.yield %47 : f32\n        } -> tensor<256x1024xf32>\n%t = func.call @nanoTime() : () -> (i64)\n%delta = arith.subi %t, %t0 : i64\n%fp = arith.uitofp %delta : i64 to f64\n// func.call @printFlops(%fp) : (f64) -> ()\nfunc.call @printI64(%delta) : (i64) -> ()\nfunc.call @printNewline() : () -> ()\n\nreturn %return_arg : tensor<256x1024xf32> \n}\n\nfunc.func @main(){\n    %c1 = arith.constant 1: index\n    %c0 = arith.constant 0 : index\n    %n = arith.constant 2: index\n    scf.for %i = %c0 to %n step %c1 {\n    %outputmain = func.call @matmul() : () -> tensor<256x1024xf32>\n    }\n    return\n}\n}\n",
    "loops_data": {
      "nested_loops": [
        [
          "%arg2",
          0,
          256,
          1
        ],
        [
          "%arg3",
          0,
          1024,
          1
        ]
      ],
      "op_count": {
        "+": 0,
        "-": 0,
        "*": 0,
        "/": 0,
        "exp": 0
      },
      "load_data": [
        [
          "%arg2",
          "%arg3"
        ]
      ],
      "store_data": []
    },
    "execution_time": 185323
  },
  "linalg.generic {indexing_maps = [#map2, #map2], iterator_types = [\"parallel\", \"parallel\"]} ins(%38 : tensor<128x128xf32>) outs(%35 : tensor<128x128xf32>) {\n            ^bb0(%in: f32, %out: f32):\n            %cst_1 = arith.constant 0.000000e+00 : f32\n            %46 = arith.cmpf ugt, %in, %cst_1 : f32\n            %47 = arith.select %46, %in, %cst_1 : f32\n            linalg.yield %47 : f32\n        } -> tensor<128x128xf32>": {
    "operation": "linalg.generic {indexing_maps = [#map2, #map2], iterator_types = [\"parallel\", \"parallel\"]} ins(%38 : tensor<128x128xf32>) outs(%35 : tensor<128x128xf32>) {\n            ^bb0(%in: f32, %out: f32):\n            %cst_1 = arith.constant 0.000000e+00 : f32\n            %46 = arith.cmpf ugt, %in, %cst_1 : f32\n            %47 = arith.select %46, %in, %cst_1 : f32\n            linalg.yield %47 : f32\n        } -> tensor<128x128xf32>",
    "wrapped_operation": "#map2 = affine_map<(d0, d1) -> (d0, d1)>\nfunc.func @func_call(%38: tensor<128x128xf32>, %35: tensor<128x128xf32>) -> tensor<128x128xf32> {\n  %ret = linalg.generic {indexing_maps = [#map2, #map2], iterator_types = [\"parallel\", \"parallel\"]} ins(%38 : tensor<128x128xf32>) outs(%35 : tensor<128x128xf32>) {\n            ^bb0(%in: f32, %out: f32):\n            %cst_1 = arith.constant 0.000000e+00 : f32\n            %46 = arith.cmpf ugt, %in, %cst_1 : f32\n            %47 = arith.select %46, %in, %cst_1 : f32\n            linalg.yield %47 : f32\n        } -> tensor<128x128xf32>\n  return %ret : tensor<128x128xf32>\n}",
    "lowered_operation": "module {\n  func.func @func_call(%arg0: tensor<128x128xf32>, %arg1: tensor<128x128xf32>) -> tensor<128x128xf32> {\n    %cst = arith.constant 0.000000e+00 : f32\n    %0 = bufferization.to_memref %arg0 : memref<128x128xf32>\n    %alloc = memref.alloc() {alignment = 64 : i64} : memref<128x128xf32>\n    affine.for %arg2 = 0 to 128 {\n      affine.for %arg3 = 0 to 128 {\n        %2 = affine.load %0[%arg2, %arg3] : memref<128x128xf32>\n        %3 = arith.cmpf ugt, %2, %cst : f32\n        %4 = arith.select %3, %2, %cst : f32\n        affine.store %4, %alloc[%arg2, %arg3] : memref<128x128xf32>\n      }\n    }\n    %1 = bufferization.to_tensor %alloc : memref<128x128xf32>\n    return %1 : tensor<128x128xf32>\n  }\n}\n\n",
    "transform_wrapped_operation": "#map2 = affine_map<(d0, d1) -> (d0, d1)>\nmodule attributes {torch.debug_module_name = \"Net\"} {\nfunc.func private @nanoTime() -> i64 attributes { llvm.emit_c_interface }\nfunc.func private @printFlops(f64)\nfunc.func private @printI64(i64)\nfunc.func private @printNewline()\nfunc.func private @printMemrefF32(tensor<*xf32>)\n\n\nfunc.func @matmul() -> tensor<128x128xf32>{\n\n%val = arith.constant 2.00000e+00 : f32\n%zero = arith.constant 0.00000e+00 : f32\n\n%tmp_38 = bufferization.alloc_tensor() : tensor<128x128xf32>\n%38 = linalg.fill ins(%val : f32) outs(%tmp_38 : tensor<128x128xf32>) -> tensor<128x128xf32>\n%tmp_35 = bufferization.alloc_tensor() : tensor<128x128xf32>\n%35 = linalg.fill ins(%val : f32) outs(%tmp_35 : tensor<128x128xf32>) -> tensor<128x128xf32>\n\n%t0 = func.call @nanoTime() : () -> (i64)\n\n%return_arg = linalg.generic {indexing_maps = [#map2, #map2], iterator_types = [\"parallel\", \"parallel\"]} ins(%38 : tensor<128x128xf32>) outs(%35 : tensor<128x128xf32>) {\n            ^bb0(%in: f32, %out: f32):\n            %cst_1 = arith.constant 0.000000e+00 : f32\n            %46 = arith.cmpf ugt, %in, %cst_1 : f32\n            %47 = arith.select %46, %in, %cst_1 : f32\n            linalg.yield %47 : f32\n        } -> tensor<128x128xf32>\n%t = func.call @nanoTime() : () -> (i64)\n%delta = arith.subi %t, %t0 : i64\n%fp = arith.uitofp %delta : i64 to f64\n// func.call @printFlops(%fp) : (f64) -> ()\nfunc.call @printI64(%delta) : (i64) -> ()\nfunc.call @printNewline() : () -> ()\n\nreturn %return_arg : tensor<128x128xf32> \n}\n\nfunc.func @main(){\n    %c1 = arith.constant 1: index\n    %c0 = arith.constant 0 : index\n    %n = arith.constant 2: index\n    scf.for %i = %c0 to %n step %c1 {\n    %outputmain = func.call @matmul() : () -> tensor<128x128xf32>\n    }\n    return\n}\n}\n",
    "loops_data": {
      "nested_loops": [
        [
          "%arg2",
          0,
          128,
          1
        ],
        [
          "%arg3",
          0,
          128,
          1
        ]
      ],
      "op_count": {
        "+": 0,
        "-": 0,
        "*": 0,
        "/": 0,
        "exp": 0
      },
      "load_data": [
        [
          "%arg2",
          "%arg3"
        ]
      ],
      "store_data": []
    },
    "execution_time": 12564
  },
  "linalg.generic {indexing_maps = [#map2, #map], iterator_types = [\"parallel\", \"parallel\", \"parallel\", \"parallel\"]} ins(%28 : tensor<128x96x120x120xf32>) outs(%25 : tensor<128x96x120x120xf32>) {\n            ^bb0(%in: f32, %out: f32):\n            %cst_1 = arith.constant 0.000000e+00 : f32\n            %90 = arith.cmpf ugt, %in, %cst_1 : f32\n            %91 = arith.select %90, %in, %cst_1 : f32\n            linalg.yield %91 : f32\n        } -> tensor<128x96x120x120xf32>": {
    "operation": "linalg.generic {indexing_maps = [#map2, #map], iterator_types = [\"parallel\", \"parallel\", \"parallel\", \"parallel\"]} ins(%28 : tensor<128x96x120x120xf32>) outs(%25 : tensor<128x96x120x120xf32>) {\n            ^bb0(%in: f32, %out: f32):\n            %cst_1 = arith.constant 0.000000e+00 : f32\n            %90 = arith.cmpf ugt, %in, %cst_1 : f32\n            %91 = arith.select %90, %in, %cst_1 : f32\n            linalg.yield %91 : f32\n        } -> tensor<128x96x120x120xf32>",
    "wrapped_operation": "#map = affine_map<(d0, d1, d2, d3) -> (d0, d1, d2, d3)>\n        #map2 = affine_map<(d0, d1, d2, d3) -> (0, d1, d2, d3)>\nfunc.func @func_call(%28: tensor<128x96x120x120xf32>, %25: tensor<128x96x120x120xf32>) -> tensor<128x96x120x120xf32> {\n  %ret = linalg.generic {indexing_maps = [#map2, #map], iterator_types = [\"parallel\", \"parallel\", \"parallel\", \"parallel\"]} ins(%28 : tensor<128x96x120x120xf32>) outs(%25 : tensor<128x96x120x120xf32>) {\n            ^bb0(%in: f32, %out: f32):\n            %cst_1 = arith.constant 0.000000e+00 : f32\n            %90 = arith.cmpf ugt, %in, %cst_1 : f32\n            %91 = arith.select %90, %in, %cst_1 : f32\n            linalg.yield %91 : f32\n        } -> tensor<128x96x120x120xf32>\n  return %ret : tensor<128x96x120x120xf32>\n}",
    "lowered_operation": "module {\n  func.func @func_call(%arg0: tensor<128x96x120x120xf32>, %arg1: tensor<128x96x120x120xf32>) -> tensor<128x96x120x120xf32> {\n    %c0 = arith.constant 0 : index\n    %cst = arith.constant 0.000000e+00 : f32\n    %0 = bufferization.to_memref %arg0 : memref<128x96x120x120xf32>\n    %alloc = memref.alloc() {alignment = 64 : i64} : memref<128x96x120x120xf32>\n    affine.for %arg2 = 0 to 128 {\n      affine.for %arg3 = 0 to 96 {\n        affine.for %arg4 = 0 to 120 {\n          affine.for %arg5 = 0 to 120 {\n            %2 = affine.load %0[%c0, %arg3, %arg4, %arg5] : memref<128x96x120x120xf32>\n            %3 = arith.cmpf ugt, %2, %cst : f32\n            %4 = arith.select %3, %2, %cst : f32\n            affine.store %4, %alloc[%arg2, %arg3, %arg4, %arg5] : memref<128x96x120x120xf32>\n          }\n        }\n      }\n    }\n    %1 = bufferization.to_tensor %alloc : memref<128x96x120x120xf32>\n    return %1 : tensor<128x96x120x120xf32>\n  }\n}\n\n",
    "transform_wrapped_operation": "#map = affine_map<(d0, d1, d2, d3) -> (d0, d1, d2, d3)>\n        #map2 = affine_map<(d0, d1, d2, d3) -> (0, d1, d2, d3)>\nmodule attributes {torch.debug_module_name = \"Net\"} {\nfunc.func private @nanoTime() -> i64 attributes { llvm.emit_c_interface }\nfunc.func private @printFlops(f64)\nfunc.func private @printI64(i64)\nfunc.func private @printNewline()\nfunc.func private @printMemrefF32(tensor<*xf32>)\n\n\nfunc.func @matmul() -> tensor<128x96x120x120xf32>{\n\n%val = arith.constant 2.00000e+00 : f32\n%zero = arith.constant 0.00000e+00 : f32\n\n%tmp_28 = bufferization.alloc_tensor() : tensor<128x96x120x120xf32>\n%28 = linalg.fill ins(%val : f32) outs(%tmp_28 : tensor<128x96x120x120xf32>) -> tensor<128x96x120x120xf32>\n%tmp_25 = bufferization.alloc_tensor() : tensor<128x96x120x120xf32>\n%25 = linalg.fill ins(%val : f32) outs(%tmp_25 : tensor<128x96x120x120xf32>) -> tensor<128x96x120x120xf32>\n\n%t0 = func.call @nanoTime() : () -> (i64)\n\n%return_arg = linalg.generic {indexing_maps = [#map2, #map], iterator_types = [\"parallel\", \"parallel\", \"parallel\", \"parallel\"]} ins(%28 : tensor<128x96x120x120xf32>) outs(%25 : tensor<128x96x120x120xf32>) {\n            ^bb0(%in: f32, %out: f32):\n            %cst_1 = arith.constant 0.000000e+00 : f32\n            %90 = arith.cmpf ugt, %in, %cst_1 : f32\n            %91 = arith.select %90, %in, %cst_1 : f32\n            linalg.yield %91 : f32\n        } -> tensor<128x96x120x120xf32>\n%t = func.call @nanoTime() : () -> (i64)\n%delta = arith.subi %t, %t0 : i64\n%fp = arith.uitofp %delta : i64 to f64\n// func.call @printFlops(%fp) : (f64) -> ()\nfunc.call @printI64(%delta) : (i64) -> ()\nfunc.call @printNewline() : () -> ()\n\nreturn %return_arg : tensor<128x96x120x120xf32> \n}\n\nfunc.func @main(){\n    %c1 = arith.constant 1: index\n    %c0 = arith.constant 0 : index\n    %n = arith.constant 2: index\n    scf.for %i = %c0 to %n step %c1 {\n    %outputmain = func.call @matmul() : () -> tensor<128x96x120x120xf32>\n    }\n    return\n}\n}\n",
    "loops_data": {
      "nested_loops": [
        [
          "%arg2",
          0,
          128,
          1
        ],
        [
          "%arg3",
          0,
          96,
          1
        ],
        [
          "%arg4",
          0,
          120,
          1
        ],
        [
          "%arg5",
          0,
          120,
          1
        ]
      ],
      "op_count": {
        "+": 0,
        "-": 0,
        "*": 0,
        "/": 0,
        "exp": 0
      },
      "load_data": [
        [
          "%c0",
          "%arg3",
          "%arg4",
          "%arg5"
        ]
      ],
      "store_data": []
    },
    "execution_time": 145907879
  },
  "linalg.generic {indexing_maps = [#map2, #map], iterator_types = [\"parallel\", \"parallel\", \"parallel\", \"parallel\"]} ins(%28 : tensor<256x96x7x7xf32>) outs(%25 : tensor<256x96x7x7xf32>) {\n            ^bb0(%in: f32, %out: f32):\n            %cst_1 = arith.constant 0.000000e+00 : f32\n            %90 = arith.cmpf ugt, %in, %cst_1 : f32\n            %91 = arith.select %90, %in, %cst_1 : f32\n            linalg.yield %91 : f32\n        } -> tensor<256x96x7x7xf32>": {
    "operation": "linalg.generic {indexing_maps = [#map2, #map], iterator_types = [\"parallel\", \"parallel\", \"parallel\", \"parallel\"]} ins(%28 : tensor<256x96x7x7xf32>) outs(%25 : tensor<256x96x7x7xf32>) {\n            ^bb0(%in: f32, %out: f32):\n            %cst_1 = arith.constant 0.000000e+00 : f32\n            %90 = arith.cmpf ugt, %in, %cst_1 : f32\n            %91 = arith.select %90, %in, %cst_1 : f32\n            linalg.yield %91 : f32\n        } -> tensor<256x96x7x7xf32>",
    "wrapped_operation": "#map = affine_map<(d0, d1, d2, d3) -> (d0, d1, d2, d3)>\n        #map2 = affine_map<(d0, d1, d2, d3) -> (0, d1, d2, d3)>\nfunc.func @func_call(%28: tensor<256x96x7x7xf32>, %25: tensor<256x96x7x7xf32>) -> tensor<256x96x7x7xf32> {\n  %ret = linalg.generic {indexing_maps = [#map2, #map], iterator_types = [\"parallel\", \"parallel\", \"parallel\", \"parallel\"]} ins(%28 : tensor<256x96x7x7xf32>) outs(%25 : tensor<256x96x7x7xf32>) {\n            ^bb0(%in: f32, %out: f32):\n            %cst_1 = arith.constant 0.000000e+00 : f32\n            %90 = arith.cmpf ugt, %in, %cst_1 : f32\n            %91 = arith.select %90, %in, %cst_1 : f32\n            linalg.yield %91 : f32\n        } -> tensor<256x96x7x7xf32>\n  return %ret : tensor<256x96x7x7xf32>\n}",
    "lowered_operation": "module {\n  func.func @func_call(%arg0: tensor<256x96x7x7xf32>, %arg1: tensor<256x96x7x7xf32>) -> tensor<256x96x7x7xf32> {\n    %c0 = arith.constant 0 : index\n    %cst = arith.constant 0.000000e+00 : f32\n    %0 = bufferization.to_memref %arg0 : memref<256x96x7x7xf32>\n    %alloc = memref.alloc() {alignment = 64 : i64} : memref<256x96x7x7xf32>\n    affine.for %arg2 = 0 to 256 {\n      affine.for %arg3 = 0 to 96 {\n        affine.for %arg4 = 0 to 7 {\n          affine.for %arg5 = 0 to 7 {\n            %2 = affine.load %0[%c0, %arg3, %arg4, %arg5] : memref<256x96x7x7xf32>\n            %3 = arith.cmpf ugt, %2, %cst : f32\n            %4 = arith.select %3, %2, %cst : f32\n            affine.store %4, %alloc[%arg2, %arg3, %arg4, %arg5] : memref<256x96x7x7xf32>\n          }\n        }\n      }\n    }\n    %1 = bufferization.to_tensor %alloc : memref<256x96x7x7xf32>\n    return %1 : tensor<256x96x7x7xf32>\n  }\n}\n\n",
    "transform_wrapped_operation": "#map = affine_map<(d0, d1, d2, d3) -> (d0, d1, d2, d3)>\n        #map2 = affine_map<(d0, d1, d2, d3) -> (0, d1, d2, d3)>\nmodule attributes {torch.debug_module_name = \"Net\"} {\nfunc.func private @nanoTime() -> i64 attributes { llvm.emit_c_interface }\nfunc.func private @printFlops(f64)\nfunc.func private @printI64(i64)\nfunc.func private @printNewline()\nfunc.func private @printMemrefF32(tensor<*xf32>)\n\n\nfunc.func @matmul() -> tensor<256x96x7x7xf32>{\n\n%val = arith.constant 2.00000e+00 : f32\n%zero = arith.constant 0.00000e+00 : f32\n\n%tmp_28 = bufferization.alloc_tensor() : tensor<256x96x7x7xf32>\n%28 = linalg.fill ins(%val : f32) outs(%tmp_28 : tensor<256x96x7x7xf32>) -> tensor<256x96x7x7xf32>\n%tmp_25 = bufferization.alloc_tensor() : tensor<256x96x7x7xf32>\n%25 = linalg.fill ins(%val : f32) outs(%tmp_25 : tensor<256x96x7x7xf32>) -> tensor<256x96x7x7xf32>\n\n%t0 = func.call @nanoTime() : () -> (i64)\n\n%return_arg = linalg.generic {indexing_maps = [#map2, #map], iterator_types = [\"parallel\", \"parallel\", \"parallel\", \"parallel\"]} ins(%28 : tensor<256x96x7x7xf32>) outs(%25 : tensor<256x96x7x7xf32>) {\n            ^bb0(%in: f32, %out: f32):\n            %cst_1 = arith.constant 0.000000e+00 : f32\n            %90 = arith.cmpf ugt, %in, %cst_1 : f32\n            %91 = arith.select %90, %in, %cst_1 : f32\n            linalg.yield %91 : f32\n        } -> tensor<256x96x7x7xf32>\n%t = func.call @nanoTime() : () -> (i64)\n%delta = arith.subi %t, %t0 : i64\n%fp = arith.uitofp %delta : i64 to f64\n// func.call @printFlops(%fp) : (f64) -> ()\nfunc.call @printI64(%delta) : (i64) -> ()\nfunc.call @printNewline() : () -> ()\n\nreturn %return_arg : tensor<256x96x7x7xf32> \n}\n\nfunc.func @main(){\n    %c1 = arith.constant 1: index\n    %c0 = arith.constant 0 : index\n    %n = arith.constant 2: index\n    scf.for %i = %c0 to %n step %c1 {\n    %outputmain = func.call @matmul() : () -> tensor<256x96x7x7xf32>\n    }\n    return\n}\n}\n",
    "loops_data": {
      "nested_loops": [
        [
          "%arg2",
          0,
          256,
          1
        ],
        [
          "%arg3",
          0,
          96,
          1
        ],
        [
          "%arg4",
          0,
          7,
          1
        ],
        [
          "%arg5",
          0,
          7,
          1
        ]
      ],
      "op_count": {
        "+": 0,
        "-": 0,
        "*": 0,
        "/": 0,
        "exp": 0
      },
      "load_data": [
        [
          "%c0",
          "%arg3",
          "%arg4",
          "%arg5"
        ]
      ],
      "store_data": []
    },
    "execution_time": 962626
  },
  "linalg.generic {indexing_maps = [#map2, #map], iterator_types = [\"parallel\", \"parallel\", \"parallel\", \"parallel\"]} ins(%28 : tensor<256x256x130x130xf32>) outs(%25 : tensor<256x256x130x130xf32>) {\n            ^bb0(%in: f32, %out: f32):\n            %cst_1 = arith.constant 0.000000e+00 : f32\n            %90 = arith.cmpf ugt, %in, %cst_1 : f32\n            %91 = arith.select %90, %in, %cst_1 : f32\n            linalg.yield %91 : f32\n        } -> tensor<256x256x130x130xf32>": {
    "operation": "linalg.generic {indexing_maps = [#map2, #map], iterator_types = [\"parallel\", \"parallel\", \"parallel\", \"parallel\"]} ins(%28 : tensor<256x256x130x130xf32>) outs(%25 : tensor<256x256x130x130xf32>) {\n            ^bb0(%in: f32, %out: f32):\n            %cst_1 = arith.constant 0.000000e+00 : f32\n            %90 = arith.cmpf ugt, %in, %cst_1 : f32\n            %91 = arith.select %90, %in, %cst_1 : f32\n            linalg.yield %91 : f32\n        } -> tensor<256x256x130x130xf32>",
    "wrapped_operation": "#map = affine_map<(d0, d1, d2, d3) -> (d0, d1, d2, d3)>\n        #map2 = affine_map<(d0, d1, d2, d3) -> (0, d1, d2, d3)>\nfunc.func @func_call(%28: tensor<256x256x130x130xf32>, %25: tensor<256x256x130x130xf32>) -> tensor<256x256x130x130xf32> {\n  %ret = linalg.generic {indexing_maps = [#map2, #map], iterator_types = [\"parallel\", \"parallel\", \"parallel\", \"parallel\"]} ins(%28 : tensor<256x256x130x130xf32>) outs(%25 : tensor<256x256x130x130xf32>) {\n            ^bb0(%in: f32, %out: f32):\n            %cst_1 = arith.constant 0.000000e+00 : f32\n            %90 = arith.cmpf ugt, %in, %cst_1 : f32\n            %91 = arith.select %90, %in, %cst_1 : f32\n            linalg.yield %91 : f32\n        } -> tensor<256x256x130x130xf32>\n  return %ret : tensor<256x256x130x130xf32>\n}",
    "lowered_operation": "module {\n  func.func @func_call(%arg0: tensor<256x256x130x130xf32>, %arg1: tensor<256x256x130x130xf32>) -> tensor<256x256x130x130xf32> {\n    %c0 = arith.constant 0 : index\n    %cst = arith.constant 0.000000e+00 : f32\n    %0 = bufferization.to_memref %arg0 : memref<256x256x130x130xf32>\n    %alloc = memref.alloc() {alignment = 64 : i64} : memref<256x256x130x130xf32>\n    affine.for %arg2 = 0 to 256 {\n      affine.for %arg3 = 0 to 256 {\n        affine.for %arg4 = 0 to 130 {\n          affine.for %arg5 = 0 to 130 {\n            %2 = affine.load %0[%c0, %arg3, %arg4, %arg5] : memref<256x256x130x130xf32>\n            %3 = arith.cmpf ugt, %2, %cst : f32\n            %4 = arith.select %3, %2, %cst : f32\n            affine.store %4, %alloc[%arg2, %arg3, %arg4, %arg5] : memref<256x256x130x130xf32>\n          }\n        }\n      }\n    }\n    %1 = bufferization.to_tensor %alloc : memref<256x256x130x130xf32>\n    return %1 : tensor<256x256x130x130xf32>\n  }\n}\n\n",
    "transform_wrapped_operation": "#map = affine_map<(d0, d1, d2, d3) -> (d0, d1, d2, d3)>\n        #map2 = affine_map<(d0, d1, d2, d3) -> (0, d1, d2, d3)>\nmodule attributes {torch.debug_module_name = \"Net\"} {\nfunc.func private @nanoTime() -> i64 attributes { llvm.emit_c_interface }\nfunc.func private @printFlops(f64)\nfunc.func private @printI64(i64)\nfunc.func private @printNewline()\nfunc.func private @printMemrefF32(tensor<*xf32>)\n\n\nfunc.func @matmul() -> tensor<256x256x130x130xf32>{\n\n%val = arith.constant 2.00000e+00 : f32\n%zero = arith.constant 0.00000e+00 : f32\n\n%tmp_28 = bufferization.alloc_tensor() : tensor<256x256x130x130xf32>\n%28 = linalg.fill ins(%val : f32) outs(%tmp_28 : tensor<256x256x130x130xf32>) -> tensor<256x256x130x130xf32>\n%tmp_2…
        ],
        [
          "%arg4",
          0,
          224,
          1
        ],
        [
          "%arg5",
          0,
          224,
          1
        ]
      ],
      "op_count": {
        "+": 0,
        "-": 0,
        "*": 0,
        "/": 0,
        "exp": 0
      },
      "load_data": [
        [
          "%c0",
          "%arg3",
          "%arg4",
          "%arg5"
        ]
      ],
      "store_data": []
    },
    "execution_time": 3001118954
  },
  "linalg.generic {indexing_maps = [#map2, #map], iterator_types = [\"parallel\", \"parallel\", \"parallel\", \"parallel\"]} ins(%28 : tensor<128x48x130x130xf32>) outs(%25 : tensor<128x48x130x130xf32>) {\n            ^bb0(%in: f32, %out: f32):\n            %cst_1 = arith.constant 0.000000e+00 : f32\n            %90 = arith.cmpf ugt, %in, %cst_1 : f32\n            %91 = arith.select %90, %in, %cst_1 : f32\n            linalg.yield %91 : f32\n        } -> tensor<128x48x130x130xf32>": {
    "operation": "linalg.generic {indexing_maps = [#map2, #map], iterator_types = [\"parallel\", \"parallel\", \"parallel\", \"parallel\"]} ins(%28 : tensor<128x48x130x130xf32>) outs(%25 : tensor<128x48x130x130xf32>) {\n            ^bb0(%in: f32, %out: f32):\n            %cst_1 = arith.constant 0.000000e+00 : f32\n            %90 = arith.cmpf ugt, %in, %cst_1 : f32\n            %91 = arith.select %90, %in, %cst_1 : f32\n            linalg.yield %91 : f32\n        } -> tensor<128x48x130x130xf32>",
    "wrapped_operation": "#map = affine_map<(d0, d1, d2, d3) -> (d0, d1, d2, d3)>\n        #map2 = affine_map<(d0, d1, d2, d3) -> (0, d1, d2, d3)>\nfunc.func @func_call(%28: tensor<128x48x130x130xf32>, %25: tensor<128x48x130x130xf32>) -> tensor<128x48x130x130xf32> {\n  %ret = linalg.generic {indexing_maps = [#map2, #map], iterator_types = [\"parallel\", \"parallel\", \"parallel\", \"parallel\"]} ins(%28 : tensor<128x48x130x130xf32>) outs(%25 : tensor<128x48x130x130xf32>) {\n            ^bb0(%in: f32, %out: f32):\n            %cst_1 = arith.constant 0.000000e+00 : f32\n            %90 = arith.cmpf ugt, %in, %cst_1 : f32\n            %91 = arith.select %90, %in, %cst_1 : f32\n            linalg.yield %91 : f32\n        } -> tensor<128x48x130x130xf32>\n  return %ret : tensor<128x48x130x130xf32>\n}",
    "lowered_operation": "module {\n  func.func @func_call(%arg0: tensor<128x48x130x130xf32>, %arg1: tensor<128x48x130x130xf32>) -> tensor<128x48x130x130xf32> {\n    %c0 = arith.constant 0 : index\n    %cst = arith.constant 0.000000e+00 : f32\n    %0 = bufferization.to_memref %arg0 : memref<128x48x130x130xf32>\n    %alloc = memref.alloc() {alignment = 64 : i64} : memref<128x48x130x130xf32>\n    affine.for %arg2 = 0 to 128 {\n      affine.for %arg3 = 0 to 48 {\n        affine.for %arg4 = 0 to 130 {\n          affine.for %arg5 = 0 to 130 {\n            %2 = affine.load %0[%c0, %arg3, %arg4, %arg5] : memref<128x48x130x130xf32>\n            %3 = arith.cmpf ugt, %2, %cst : f32\n            %4 = arith.select %3, %2, %cst : f32\n            affine.store %4, %alloc[%arg2, %arg3, %arg4, %arg5] : memref<128x48x130x130xf32>\n          }\n        }\n      }\n    }\n    %1 = bufferization.to_tensor %alloc : memref<128x48x130x130xf32>\n    return %1 : tensor<128x48x130x130xf32>\n  }\n}\n\n",
    "transform_wrapped_operation": "#map = affine_map<(d0, d1, d2, d3) -> (d0, d1, d2, d3)>\n        #map2 = affine_map<(d0, d1, d2, d3) -> (0, d1, d2, d3)>\nmodule attributes {torch.debug_module_name = \"Net\"} {\nfunc.func private @nanoTime() -> i64 attributes { llvm.emit_c_interface }\nfunc.func private @printFlops(f64)\nfunc.func private @printI64(i64)\nfunc.func private @printNewline()\nfunc.func private @printMemrefF32(tensor<*xf32>)\n\n\nfunc.func @matmul() -> tensor<128x48x130x130xf32>{\n\n%val = arith.constant 2.00000e+00 : f32\n%zero = arith.constant 0.00000e+00 : f32\n\n%tmp_28 = bufferization.alloc_tensor() : tensor<128x48x130x130xf32>\n%28 = linalg.fill ins(%val : f32) outs(%tmp_28 : tensor<128x48x130x130xf32>) -> tensor<128x48x130x130xf32>\n%tmp_25 = bufferization.alloc_tensor() : tensor<128x48x130x130xf32>\n%25 = linalg.fill ins(%val : f32) outs(%tmp_25 : tensor<128x48x130x130xf32>) -> tensor<128x48x130x130xf32>\n\n%t0 = func.call @nanoTime() : () -> (i64)\n\n%return_arg = linalg.generic {indexing_maps = [#map2, #map], iterator_types = [\"parallel\", \"parallel\", \"parallel\", \"parallel\"]} ins(%28 : tensor<128x48x130x130xf32>) outs(%25 : tensor<128x48x130x130xf32>) {\n            ^bb0(%in: f32, %out: f32):\n            %cst_1 = arith.constant 0.000000e+00 : f32\n            %90 = arith.cmpf ugt, %in, %cst_1 : f32\n            %91 = arith.select %90, %in, %cst_1 : f32\n            linalg.yield %91 : f32\n        } -> tensor<128x48x130x130xf32>\n%t = func.call @nanoTime() : () -> (i64)\n%delta = arith.subi %t, %t0 : i64\n%fp = arith.uitofp %delta : i64 to f64\n// func.call @printFlops(%fp) : (f64) -> ()\nfunc.call @printI64(%delta) : (i64) -> ()\nfunc.call @printNewline() : () -> ()\n\nreturn %return_arg : tensor<128x48x130x130xf32> \n}\n\nfunc.func @main(){\n    %c1 = arith.constant 1: index\n    %c0 = arith.constant 0 : index\n    %n = arith.constant 2: index\n    scf.for %i = %c0 to %n step %c1 {\n    %outputmain = func.call @matmul() : () -> tensor<128x48x130x130xf32>\n    }\n    return\n}\n}\n",
    "loops_data": {
      "nested_loops": [
        [
          "%arg2",
          0,
          128,
          1
        ],
        [
          "%arg3",
          0,
          48,
          1
        ],
        [
          "%arg4",
          0,
          130,
          1
        ],
        [
          "%arg5",
          0,
          130,
          1
        ]
      ],
      "op_count": {
        "+": 0,
        "-": 0,
        "*": 0,
        "/": 0,
        "exp": 0
      },
      "load_data": [
        [
          "%c0",
          "%arg3",
          "%arg4",
          "%arg5"
        ]
      ],
      "store_data": []
    },
    "execution_time": 85763513
  },
  "linalg.generic {indexing_maps = [#map2, #map], iterator_types = [\"parallel\", \"parallel\", \"parallel\", \"parallel\"]} ins(%28 : tensor<256x32x224x224xf32>) outs(%25 : tensor<256x32x224x224xf32>) {\n            ^bb0(%in: f32, %out: f32):\n            %cst_1 = arith.constant 0.000000e+00 : f32\n            %90 = arith.cmpf ugt, %in, %cst_1 : f32\n            %91 = arith.select %90, %in, %cst_1 : f32\n            linalg.yield %91 : f32\n        } -> tensor<256x32x224x224xf32>": {
    "operation": "linalg.generic {indexing_maps = [#map2, #map], iterator_types = [\"parallel\", \"parallel\", \"parallel\", \"parallel\"]} ins(%28 : tensor<256x32x224x224xf32>) outs(%25 : tensor<256x32x224x224xf32>) {\n            ^bb0(%in: f32, %out: f32):\n            %cst_1 = arith.constant 0.000000e+00 : f32\n            %90 = arith.cmpf ugt, %in, %cst_1 : f32\n            %91 = arith.select %90, %in, %cst_1 : f32\n            linalg.yield %91 : f32\n        } -> tensor<256x32x224x224xf32>",
    "wrapped_operation": "#map = affine_map<(d0, d1, d2, d3) -> (d0, d1, d2, d3)>\n        #map2 = affine_map<(d0, d1, d2, d3) -> (0, d1, d2, d3)>\nfunc.func @func_call(%28: tensor<256x32x224x224xf32>, %25: tensor<256x32x224x224xf32>) -> tensor<256x32x224x224xf32> {\n  %ret = linalg.generic {indexing_maps = [#map2, #map], iterator_types = [\"parallel\", \"parallel\", \"parallel\", \"parallel\"]} ins(%28 : tensor<256x32x224x224xf32>) outs(%25 : tensor<256x32x224x224xf32>) {\n            ^bb0(%in: f32, %out: f32):\n            %cst_1 = arith.constant 0.000000e+00 : f32\n            %90 = arith.cmpf ugt, %in, %cst_1 : f32\n            %91 = arith.select %90, %in, %cst_1 : f32\n            linalg.yield %91 : f32\n        } -> tensor<256x32x224x224xf32>\n  return %ret : tensor<256x32x224x224xf32>\n}",
    "lowered_operation": "module {\n  func.func @func_call(%arg0: tensor<256x32x224x224xf32>, %arg1: tensor<256x32x224x224xf32>) -> tensor<256x32x224x224xf32> {\n    %c0 = arith.constant 0 : index\n    %cst = arith.constant 0.000000e+00 : f32\n    %0 = bufferization.to_memref %arg0 : memref<256x32x224x224xf32>\n    %alloc = memref.alloc() {alignment = 64 : i64} : memref<256x32x224x224xf32>\n    affine.for %arg2 = 0 to 256 {\n      affine.for %arg3 = 0 to 32 {\n        affine.for %arg4 = 0 to 224 {\n          affine.for %arg5 = 0 to 224 {\n            %2 = affine.load %0[%c0, %arg3, %arg4, %arg5] : memref<256x32x224x224xf32>\n            %3 = arith.cmpf ugt, %2, %cst : f32\n            %4 = arith.select %3, %2, %cst : f32\n            affine.store %4, %alloc[%arg2, %arg3, %arg4, %arg5] : memref<256x32x224x224xf32>\n          }\n        }\n      }\n    }\n    %1 = bufferization.to_tensor %alloc : memref<256x32x224x224xf32>\n    return %1 : tensor<256x32x224x224xf32>\n  }\n}\n\n",
    "transform_wrapped_operation": "#map = affine_map<(d0, d1, d2, d3) -> (d0, d1, d2, d3)>\n        #map2 = affine_map<(d0, d1, d2, d3) -> (0, d1, d2, d3)>\nmodule attributes {torch.debug_module_name = \"Net\"} {\nfunc.func private @nanoTime() -> i64 attributes { llvm.emit_c_interface }\nfunc.func private @printFlops(f64)\nfunc.func private @printI64(i64)\nfunc.func private @printNewline()\nfunc.func private @printMemrefF32(tensor<*xf32>)\n\n\nfunc.func @matmul() -> tensor<256x32x224x224xf32>{\n\n%val = arith.constant 2.00000e+00 : f32\n%zero = arith.constant 0.00000e+00 : f32\n\n%tmp_28 = bufferization.alloc_tensor() : tensor<256x32x224x224xf32>\n%28 = linalg.fill ins(%val : f32) outs(%tmp_28 : tensor<256x32x224x224xf32>) -> tensor<256x32x224x224xf32>\n%tmp_25 = bufferization.alloc_tensor() : tensor<256x32x224x224xf32>\n%25 = linalg.fill ins(%val : f32) outs(%tmp_25 : tensor<256x32x224x224xf32>) -> tensor<256x32x224x224xf32>\n\n%t0 = func.call @nanoTime() : () -> (i64)\n\n%return_arg = linalg.generic {indexing_maps = [#map2, #map], iterator_types = [\"parallel\", \"parallel\", \"parallel\", \"parallel\"]} ins(%28 : tensor<256x32x224x224xf32>) outs(%25 : tensor<256x32x224x224xf32>) {\n            ^bb0(%in: f32, %out: f32):\n            %cst_1 = arith.constant 0.000000e+00 : f32\n            %90 = arith.cmpf ugt, %in, %cst_1 : f32\n            %91 = arith.select %90, %in, %cst_1 : f32\n            linalg.yield %91 : f32\n        } -> tensor<256x32x224x224xf32>\n%t = func.call @nanoTime() : () -> (i64)\n%delta = arith.subi %t, %t0 : i64\n%fp = arith.uitofp %delta : i64 to f64\n// func.call @printFlops(%fp) : (f64) -> ()\nfunc.call @printI64(%delta) : (i64) -> ()\nfunc.call @printNewline() : () -> ()\n\nreturn %return_arg : tensor<256x32x224x224xf32> \n}\n\nfunc.func @main(){\n    %c1 = arith.constant 1: index\n    %c0 = arith.constant 0 : index\n    %n = arith.constant 2: index\n    scf.for %i = %c0 to %n step %c1 {\n    %outputmain = func.call @matmul() : () -> tensor<256x32x224x224xf32>\n    }\n    return\n}\n}\n",
    "loops_data": {
      "nested_loops": [
        [
          "%arg2",
          0,
          256,
          1
        ],
        [
          "%arg3",
          0,
          32,
          1
        ],
        [
          "%arg4",
          0,
          224,
          1
        ],
        [
          "%arg5",
          0,
          224,
          1
        ]
      ],
      "op_count": {
        "+": 0,
        "-": 0,
        "*": 0,
        "/": 0,
        "exp": 0
      },
      "load_data": [
        [
          "%c0",
          "%arg3",
          "%arg4",
          "%arg5"
        ]
      ],
      "store_data": []
    },
    "execution_time": 330816074
  },
  "linalg.generic {indexing_maps = [#map2, #map], iterator_types = [\"parallel\", \"parallel\", \"parallel\", \"parallel\"]} ins(%28 : tensor<256x32x150x150xf32>) outs(%25 : tensor<256x32x150x150xf32>) {\n            ^bb0(%in: f32, %out: f32):\n            %cst_1 = arith.constant 0.000000e+00 : f32\n            %90 = arith.cmpf ugt, %in, %cst_1 : f32\n            %91 = arith.select %90, %in, %cst_1 : f32\n            linalg.yield %91 : f32\n        } -> tensor<256x32x150x150xf32>": {
    "operation": "linalg.generic {indexing_maps = [#map2, #map], iterator_types = [\"parallel\", \"parallel\", \"parallel\", \"parallel\"]} ins(%28 : tensor<256x32x150x150xf32>) outs(%25 : tensor<256x32x150x150xf32>) {\n            ^bb0(%in: f32, %out: f32):\n            %cst_1 = arith.constant 0.000000e+00 : f32\n            %90 = arith.cmpf ugt, %in, %cst_1 : f32\n            %91 = arith.select %90, %in, %cst_1 : f32\n            linalg.yield %91 : f32\n        } -> tensor<256x32x150x150xf32>",
    "wrapped_operation": "#map = affine_map<(d0, d1, d2, d3) -> (d0, d1, d2, d3)>\n        #map2 = affine_map<(d0, d1, d2, d3) -> (0, d1, d2, d3)>\nfunc.func @func_call(%28: tensor<256x32x150x150xf32>, %25: tensor<256x32x150x150xf32>) -> tensor<256x32x150x150xf32> {\n  %ret = linalg.generic {indexing_maps = [#map2, #map], iterator_types = [\"parallel\", \"parallel\", \"parallel\", \"parallel\"]} ins(%28 : tensor<256x32x150x150xf32>) outs(%25 : tensor<256x32x150x150xf32>) {\n            ^bb0(%in: f32, %out: f32):\n            %cst_1 = arith.constant 0.000000e+00 : f32\n            %90 = arith.cmpf ugt, %in, %cst_1 : f32\n            %91 = arith.select %90, %in, %cst_1 : f32\n            linalg.yield %91 : f32\n        } -> tensor<256x32x150x150xf32>\n  return %ret : tensor<256x32x150x150xf32>\n}",
    "lowered_operation": "module {\n  func.func @func_call(%arg0: tensor<256x32x150x150xf32>, %arg1: tensor<256x32x150x150xf32>) -> tensor<256x32x150x150xf32> {\n    %c0 = arith.constant 0 : index\n    %cst = arith.constant 0.000000e+00 : f32\n    %0 = bufferization.to_memref %arg0 : memref<256x32x150x150xf32>\n    %alloc = memref.alloc() {alignment = 64 : i64} : memref<256x32x150x150xf32>\n    affine.for %arg2 = 0 to 256 {\n      affine.for %arg3 = 0 to 32 {\n        affine.for %arg4 = 0 to 150 {\n          affine.for %arg5 = 0 to 150 {\n            %2 = affine.load %0[%c0, %arg3, %arg4, %arg5] : memref<256x32x150x150xf32>\n            %3 = arith.cmpf ugt, %2, %cst : f32\n            %4 = arith.select %3, %2, %cst : f32\n            affine.store %4, %alloc[%arg2, %arg3, %arg4, %arg5] : memref<256x32x150x150xf32>\n          }\n        }\n      }\n    }\n    %1 = bufferization.to_tensor %alloc : memref<256x32x150x150xf32>\n    return %1 : tensor<256x32x150x150xf32>\n  }\n}\n\n",
    "transform_wrapped_operation": "#map = affine_map<(d0, d1, d2, d3) -> (d0, d1, d2, d3)>\n        #map2 = affine_map<(d0, d1, d2, d3) -> (0, d1, d2, d3)>\nmodule attributes {torch.debug_module_name = \"Net\"} {\nfunc.func private @nanoTime() -> i64 attributes { llvm.emit_c_interface }\nfunc.func private @printFlops(f64)\nfunc.func private @printI64(i64)\nfunc.func private @printNewline()\nfunc.func private @printMemrefF32(tensor<*xf32>)\n\n\nfunc.func @matmul() -> tensor<256x32x150x150xf32>{\n\n%val = arith.constant 2.00000e+00 : f32\n%zero = arith.constant 0.00000e+00 : f32\n\n%tmp_28 = bufferization.alloc_tensor() : tensor<256x32x150x150xf32>\n%28 = linalg.fill ins(%val : f32) outs(%tmp_28 : tensor<256x32x150x150xf32>) -> tensor<256x32x150x150xf32>\n%tmp_25 = bufferization.alloc_tensor() : tensor<256x32x150x150xf32>\n%25 = linalg.fill ins(%val : f32) outs(%tmp_25 : tensor<256x32x150x150xf32>) -> tensor<256x32x150x150xf32>\n\n%t0 = func.call @nanoTime() : () -> (i64)\n\n%return_arg = linalg.generic {indexing_maps = [#map2, #map], iterator_types = [\"parallel\", \"parallel\", \"parallel\", \"parallel\"]} ins(%28 : tensor<256x32x150x150xf32>) outs(%25 : tensor<256x32x150x150xf32>) {\n            ^bb0(%in: f32, %out: f32):\n            %cst_1 = arith.constant 0.000000e+00 : f32\n            %90 = arith.cmpf ugt, %in, %cst_1 : f32\n            %91 = arith.select %90, %in, %cst_1 : f32\n            linalg.yield %91 : f32\n        } -> tensor<256x32x150x150xf32>\n%t = func.call @nanoTime() : () -> (i64)\n%delta = arith.subi %t, %t0 : i64\n%fp = arith.uitofp %delta : i64 to f64\n// func.call @printFlops(%fp) : (f64) -> ()\nfunc.call @printI64(%delta) : (i64) -> ()\nfunc.call @printNewline() : () -> ()\n\nreturn %return_arg : tensor<256x32x150x150xf32> \n}\n\nfunc.func @main(){\n    %c1 = arith.constant 1: index\n    %c0 = arith.constant 0 : index\n    %n = arith.constant 2: index\n    scf.for %i = %c0 to %n step %c1 {\n    %outputmain = func.call @matmul() : () -> tensor<256x32x150x150xf32>\n    }\n    return\n}\n}\n",
    "loops_data": {
      "nested_loops": [
        [
          "%arg2",
          0,
          256,
          1
        ],
        [
          "%arg3",
          0,
          32,
          1
        ],
        [
          "%arg4",
          0,
          150,
          1
        ],
        [
          "%arg5",
          0,
          150,
          1
        ]
      ],
      "op_count": {
        "+": 0,
        "-": 0,
        "*": 0,
        "/": 0,
        "exp": 0
      },
      "load_data": [
        [
          "%c0",
          "%arg3",
          "%arg4",
          "%arg5"
        ]
      ],
      "store_data": []
    },
    "execution_time": 150565058
  },
  "linalg.generic {indexing_maps = [#map2, #map], iterator_types = [\"parallel\", \"parallel\", \"parallel\", \"parallel\"]} ins(%28 : tensor<256x96x228x228xf32>) outs(%25 : tensor<256x96x228x228xf32>) {\n            ^bb0(%in: f32, %out: f32):\n            %cst_1 = arith.constant 0.000000e+00 : f32\n            %90 = arith.cmpf ugt, %in, %cst_1 : f32\n            %91 = arith.select %90, %in, %cst_1 : f32\n            linalg.yield %91 : f32\n        } -> tensor<256x96x228x228xf32>": {
    "operation": "linalg.generic {indexing_maps = [#map2, #map], iterator_types = [\"parallel\", \"parallel\", \"parallel\", \"parallel\"]} ins(%28 : tensor<256x96x228x228xf32>) outs(%25 : tensor<256x96x228x228xf32>) {\n            ^bb0(%in: f32, %out: f32):\n            %cst_1 = arith.constant 0.000000e+00 : f32\n            %90 = arith.cmpf ugt, %in, %cst_1 : f32\n            %91 = arith.select %90, %in, %cst_1 : f32\n            linalg.yield %91 : f32\n        } -> tensor<256x96x228x228xf32>",
    "wrapped_operation": "#map = affine_map<(d0, d1, d2, d3) -> (d0, d1, d2, d3)>\n        #map2 = affine_map<(d0, d1, d2, d3) -> (0, d1, d2, d3)>\nfunc.func @func_call(%28: tensor<256x96x228x228xf32>, %25: tensor<256x96x228x228xf32>) -> tensor<256x96x228x228xf32> {\n  %ret = linalg.generic {indexing_maps = [#map2, #map], iterator_types = [\"parallel\", \"parallel\", \"parallel\", \"parallel\"]} ins(%28 : tensor<256x96x228x228xf32>) outs(%25 : tensor<256x96x228x228xf32>) {\n            ^bb0(%in: f32, %out: f32):\n            %cst_1 = arith.constant 0.000000e+00 : f32\n            %90 = arith.cmpf ugt, %in, %cst_1 : f32\n            %91 = arith.select %90, %in, %cst_1 : f32\n            linalg.yield %91 : f32\n        } -> tensor<256x96x228x228xf32>\n  return %ret : tensor<256x96x228x228xf32>\n}",
    "lowered_operation": "module {\n  func.func @func_call(%arg0: tensor<256x96x228x228xf32>, %arg1: tensor<256x96x228x228xf32>) -> tensor<256x96x228x228xf32> {\n    %c0 = arith.constant 0 : index\n    %cst = arith.constant 0.000000e+00 : f32\n    %0 = bufferization.to_memref %arg0 : memref<256x96x228x228xf32>\n    %alloc = memref.alloc() {alignment = 64 : i64} : memref<256x96x228x228xf32>\n    affine.for %arg2 = 0 to 256 {\n      affine.for %arg3 = 0 to 96 {\n        affine.for %arg4 = 0 to 228 {\n          affine.for %arg5 = 0 to 228 {\n            %2 = affine.load %0[%c0, %arg3, %arg4, %arg5] : memref<256x96x228x228xf32>\n            %3 = arith.cmpf ugt, %2, %cst : f32\n            %4 = arith.select %3, %2, %cst : f32\n            affine.store %4, %alloc[%arg2, %arg3, %arg4, %arg5] : memref<256x96x228x228xf32>\n          }\n        }\n      }\n    }\n    %1 = bufferization.to_tensor %alloc : memref<256x96x228x228xf32>\n    return %1 : tensor<256x96x228x228xf32>\n  }\n}\n\n",
    "transform_wrapped_operation": "#map = affine_map<(d0, d1, d2, d3) -> (d0, d1, d2, d3)>\n        #map2 = affine_map<(d0, d1, d2, d3) -> (0, d1, d2, d3)>\nmodule attributes {torch.debug_module_name = \"Net\"} {\nfunc.func private @nanoTime() -> i64 attributes { llvm.emit_c_interface }\nfunc.func private @printFlops(f64)\nfunc.func private @printI64(i64)\nfunc.func private @printNewline()\nfunc.func private @printMemrefF32(tensor<*xf32>)\n\n\nfunc.func @matmul() -> tensor<256x96x228x228xf32>{\n\n%val = arith.constant 2.00000e+00 : f32\n%zero = arith.constant 0.00000e+00 : f32\n\n%tmp_28 = bufferization.alloc_tensor() : tensor<256x96x228x228xf32>\n%28 = linalg.fill ins(%val : f32) outs(%tmp_28 : tensor<256x96x228x228xf32>) -> tensor<256x96x228x228xf32>\n%tmp_25 = bufferization.alloc_tensor() : tensor<256x96x228x228xf32>\n%25 = linalg.fill ins(%val : f32) outs(%tmp_25 : tensor<256x96x228x228xf32>) -> tensor<256x96x228x228xf32>\n\n%t0 = func.call @nanoTime() : () -> (i64)\n\n%return_arg = linalg.generic {indexing_maps = [#map2, #map], iterator_types = [\"parallel\", \"parallel\", \"parallel\", \"parallel\"]} ins(%28 : tensor<256x96x228x228xf32>) outs(%25 : tensor<256x96x228x228xf32>) {\n            ^bb0(%in: f32, %out: f32):\n            %cst_1 = arith.constant 0.000000e+00 : f32\n            %90 = arith.cmpf ugt, %in, %cst_1 : f32\n            %91 = arith.select %90, %in, %cst_1 : f32\n            linalg.yield %91 : f32\n        } -> tensor<256x96x228x228xf32>\n%t = func.call @nanoTime() : () -> (i64)\n%delta = arith.subi %t, %t0 : i64\n%fp = arith.uitofp %delta : i64 to f64\n// func.call @printFlops(%fp) : (f64) -> ()\nfunc.call @printI64(%delta) : (i64) -> ()\nfunc.call @printNewline() : () -> ()\n\nreturn %return_arg : tensor<256x96x228x228xf32> \n}\n\nfunc.func @main(){\n    %c1 = arith.constant 1: index\n    %c0 = arith.constant 0 : index\n    %n = arith.constant 2: index\n    scf.for %i = %c0 to %n step %c1 {\n    %outputmain = func.call @matmul() : () -> tensor<256x96x228x228xf32>\n    }\n    return\n}\n}\n",
    "loops_data": {
      "nested_loops": [
        [
          "%arg2",
          0,
          256,
          1
        ],
        [
          "%arg3",
          0,
          96,
          1
        ],
        [
          "%arg4",
          0,
          228,
          1
        ],
        [
          "%arg5",
          0,
          228,
          1
        ]
      ],
      "op_count": {
        "+": 0,
        "-": 0,
        "*": 0,
        "/": 0,
        "exp": 0
      },
      "load_data": [
        [
          "%c0",
          "%arg3",
          "%arg4",
          "%arg5"
        ]
      ],
      "store_data": []
    },
    "execution_time": 1097713124
  },
  "linalg.generic {indexing_maps = [#map2, #map], iterator_types = [\"parallel\", \"parallel\", \"parallel\", \"parallel\"]} ins(%28 : tensor<128x32x28x28xf32>) outs(%25 : tensor<128x32x28x28xf32>) {\n            ^bb0(%in: f32, %out: f32):\n            %cst_1 = arith.constant 0.000000e+00 : f32\n            %90 = arith.cmpf ugt, %in, %cst_1 : f32\n            %91 = arith.select %90, %in, %cst_1 : f32\n            linalg.yield %91 : f32\n        } -> tensor<128x32x28x28xf32>": {
    "operation": "linalg.generic {indexing_maps = [#map2, #map], iterator_types = [\"parallel\", \"parallel\", \"parallel\", \"parallel\"]} ins(%28 : tensor<128x32x28x28xf32>) outs(%25 : tensor<128x32x28x28xf32>) {\n            ^bb0(%in: f32, %out: f32):\n            %cst_1 = arith.constant 0.000000e+00 : f32\n            %90 = arith.cmpf ugt, %in, %cst_1 : f32\n            %91 = arith.select %90, %in, %cst_1 : f32\n            linalg.yield %91 : f32\n        } -> tensor<128x32x28x28xf32>",
    "wrapped_operation": "#map = affine_map<(d0, d1, d2, d3) -> (d0, d1, d2, d3)>\n        #map2 = affine_map<(d0, d1, d2, d3) -> (0, d1, d2, d3)>\nfunc.func @func_call(%28: tensor<128x32x28x28xf32>, %25: tensor<128x32x28x28xf32>) -> tensor<128x32x28x28xf32> {\n  %ret = linalg.generic {indexing_maps = [#map2, #map], iterator_types = [\"parallel\", \"parallel\", \"parallel\", \"parallel\"]} ins(%28 : tensor<128x32x28x28xf32>) outs(%25 : tensor<128x32x28x28xf32>) {\n            ^bb0(%in: f32, %out: f32):\n            %cst_1 = arith.constant 0.000000e+00 : f32\n            %90 = arith.cmpf ugt, %in, %cst_1 : f32\n            %91 = arith.select %90, %in, %cst_1 : f32\n            linalg.yield %91 : f32\n        } -> tensor<128x32x28x28xf32>\n  return %ret : tensor<128x32x28x28xf32>\n}",
    "lowered_operation": "module {\n  func.func @func_call(%arg0: tensor<128x32x28x28xf32>, %arg1: tensor<128x32x28x28xf32>) -> tensor<128x32x28x28xf32> {\n    %c0 = arith.constant 0 : index\n    %cst = arith.constant 0.000000e+00 : f32\n    %0 = bufferization.to_memref %arg0 : memref<128x32x28x28xf32>\n    %alloc = memref.alloc() {alignment = 64 : i64} : memref<128x32x28x28xf32>\n    affine.for %arg2 = 0 to 128 {\n      affine.for %arg3 = 0 to 32 {\n        affine.for %arg4 = 0 to 28 {\n          affine.for %arg5 = 0 to 28 {\n            %2 = affine.load %0[%c0, %arg3, %arg4, %arg5] : memref<128x32x28x28xf32>\n            %3 = arith.cmpf ugt, %2, %cst : f32\n            %4 = arith.select %3, %2, %cst : f32\n            affine.store %4, %alloc[%arg2, %arg3, %arg4, %arg5] : memref<128x32x28x28xf32>\n          }\n        }\n      }\n    }\n    %1 = bufferization.to_tensor %alloc : memref<128x32x28x28xf32>\n    return %1 : tensor<128x32x28x28xf32>\n  }\n}\n\n",
    "transform_wrapped_operation": "#map = affine_map<(d0, d1, d2, d3) -> (d0, d1, d2, d3)>\n        #map2 = affine_map<(d0, d1, d2, d3) -> (0, d1, d2, d3)>\nmodule attributes {torch.debug_module_name = \"Net\"} {\nfunc.func private @nanoTime() -> i64 attributes { llvm.emit_c_interface }\nfunc.func private @printFlops(f64)\nfunc.func private @printI64(i64)\nfunc.func private @printNewline()\nfunc.func private @printMemrefF32(tensor<*xf32>)\n\n\nfunc.func @matmul() -> tensor<128x32x28x28xf32>{\n\n%val = arith.constant 2.00000e+00 : f32\n%zero = arith.constant 0.00000e+00 : f32\n\n%tmp_28 = bufferization.alloc_tensor() : tensor<128x32x28x28xf32>\n%28 = linalg.fill ins(%val : f32) outs(%tmp_28 : tensor<128x32x28x28xf32>) -> tensor<128x32x28x28xf32>\n%tmp_25 = bufferization.alloc_tensor() : tensor<128x32x28x28xf32>\n%25 = linalg.fill ins(%val : f32) outs(%tmp_25 : tensor<128x32x28x28xf32>) -> tensor<128x32x28x28xf32>\n\n%t0 = func.call @nanoTime() : () -> (i64)\n\n%return_arg = linalg.generic {indexing_maps = [#map2, #map], iterator_types = [\"parallel\", \"parallel\", \"parallel\", \"parallel\"]} ins(%28 : tensor<128x32x28x28xf32>) outs(%25 : tensor<128x32x28x28xf32>) {\n            ^bb0(%in: f32, %out: f32):\n            %cst_1 = arith.constant 0.000000e+00 : f32\n            %90 = arith.cmpf ugt, %in, %cst_1 : f32\n            %91 = arith.select %90, %in, %cst_1 : f32\n            linalg.yield %91 : f32\n        } -> tensor<128x32x28x28xf32>\n%t = func.call @nanoTime() : () -> (i64)\n%delta = arith.subi %t, %t0 : i64\n%fp = arith.uitofp %delta : i64 to f64\n// func.call @printFlops(%fp) : (f64) -> ()\nfunc.call @printI64(%delta) : (i64) -> ()\nfunc.call @printNewline() : () -> ()\n\nreturn %return_arg : tensor<128x32x28x28xf32> \n}\n\nfunc.func @main(){\n    %c1 = arith.constant 1: index\n    %c0 = arith.constant 0 : index\n    %n = arith.constant 2: index\n    scf.for %i = %c0 to %n step %c1 {\n    %outputmain = func.call @matmul() : () -> tensor<128x32x28x28xf32>\n    }\n    return\n}\n}\n",
    "loops_data": {
      "nested_loops": [
        [
          "%arg2",
          0,
          128,
          1
        ],
        [
          "%arg3",
          0,
          32,
          1
        ],
        [
          "%arg4",
          0,
          28,
          1
        ],
        [
          "%arg5",
          0,
          28,
          1
        ]
      ],
      "op_count": {
        "+": 0,
        "-": 0,
        "*": 0,
        "/": 0,
        "exp": 0
      },
      "load_data": [
        [
          "%c0",
          "%arg3",
          "%arg4",
          "%arg5"
        ]
      ],
      "store_data": []
    },
    "execution_time": 2335317
  },
  "linalg.generic {indexing_maps = [#map2, #map], iterator_types = [\"parallel\", \"parallel\", \"parallel\", \"parallel\"]} ins(%28 : tensor<256x384x15x15xf32>) outs(%25 : tensor<256x384x15x15xf32>) {\n            ^bb0(%in: f32, %out: f32):\n            %cst_1 = arith.constant 0.000000e+00 : f32\n            %90 = arith.cmpf ugt, %in, %cst_1 : f32\n            %91 = arith.select %90, %in, %cst_1 : f32\n            linalg.yield %91 : f32\n        } -> tensor<256x384x15x15xf32>": {
    "operation": "linalg.generic {indexing_maps = [#map2, #map], iterator_types = [\"parallel\", \"parallel\", \"parallel\", \"parallel\"]} ins(%28 : tensor<256x384x15x15xf32>) outs(%25 : tensor<256x384x15x15xf32>) {\n            ^bb0(%in: f32, %out: f32):\n            %cst_1 = arith.constant 0.000000e+00 : f32\n            %90 = arith.cmpf ugt, %in, %cst_1 : f32\n            %91 = arith.select %90, %in, %cst_1 : f32\n            linalg.yield %91 : f32\n        } -> tensor<256x384x15x15xf32>",
    "wrapped_operation": "#map = affine_map<(d0, d1, d2, d3) -> (d0, d1, d2, d3)>\n        #map2 = affine_map<(d0, d1, d2, d3) -> (0, d1, d2, d3)>\nfunc.func @func_call(%28: tensor<256x384x15x15xf32>, %25: tensor<256x384x15x15xf32>) -> tensor<256x384x15x15xf32> {\n  %ret = linalg.generic {indexing_maps = [#map2, #map], iterator_types = [\"parallel\", \"parallel\", \"parallel\", \"parallel\"]} ins(%28 : tensor<256x384x15x15xf32>) outs(%25 : tensor<256x384x15x15xf32>) {\n            ^bb0(%in: f32, %out: f32):\n            %cst_1 = arith.constant 0.000000e+00 : f32\n            %90 = arith.cmpf ugt, %in, %cst_1 : f32\n            %91 = arith.select %90, %in, %cst_1 : f32\n            linalg.yield %91 : f32\n        } -> tensor<256x384x15x15xf32>\n  return %ret : tensor<256x384x15x15xf32>\n}",
    "lowered_operation": "module {\n  func.func @func_call(%arg0: tensor<256x384x15x15xf32>, %arg1: tensor<256x384x15x15xf32>) -> tensor<256x384x15x15xf32> {\n    %c0 = arith.constant 0 : index\n    %cst = arith.constant 0.000000e+00 : f32\n    %0 = bufferization.to_memref %arg0 : memref<256x384x15x15xf32>\n    %alloc = memref.alloc() {alignment = 64 : i64} : memref<256x384x15x15xf32>\n    affine.for %arg2 = 0 to 256 {\n      affine.for %arg3 = 0 to 384 {\n        affine.for %arg4 = 0 to 15 {\n          affine.for %arg5 = 0 to 15 {\n            %2 = affine.load %0[%c0, %arg3, %arg4, %arg5] : memref<256x384x15x15xf32>\n            %3 = arith.cmpf ugt, %2, %cst : f32\n            %4 = arith.select %3, %2, %cst : f32\n            affine.store %4, %alloc[%arg2, %arg3, %arg4, %arg5] : memref<256x384x15x15xf32>\n          }\n        }\n      }\n    }\n    %1 = bufferization.to_tensor %alloc : memref<256x384x15x15xf32>\n    return %1 : tensor<256x384x15x15xf32>\n  }\n}\n\n",
    "transform_wrapped_operation": "#map = affine_map<(d0, d1, d2, d3) -> (d0, d1, d2, d3)>\n        #map2 = affine_map<(d0, d1, d2, d3) -> (0, d1, d2, d3)>\nmodule attributes {torch.debug_module_name = \"Net\"} {\nfunc.func private @nanoTime() -> i64 attributes { llvm.emit_c_interface }\nfunc.func private @printFlops(f64)\nfunc.func private @printI64(i64)\nfunc.func private @printNewline()\nfunc.func private @printMemrefF32(tensor<*xf32>)\n\n\nfunc.func @matmul() -> tensor<256x384x15x15xf32>{\n\n%val = arith.constant 2.00000e+00 : f32\n%zero = arith.constant 0.00000e+00 : f32\n\n%tmp_28 = bufferization.alloc_tensor() : tensor<256x384x15x15xf32>\n%28 = linalg.fill ins(%val : f32) outs(%tmp_28 : tensor<256x384x15x15xf32>) -> tensor<256x384x15x15xf32>\n%tmp_25 = bufferization.alloc_tensor() : tensor<256x384x15x15xf32>\n%25 = linalg.fill ins(%val : f32) outs(%tmp_25 : tensor<256x384x15x15xf32>) -> tensor<256x384x15x15xf32>\n\n%t0 = func.call @nanoTime() : () -> (i64)\n\n%return_arg = linalg.generic {indexing_maps = [#map2, #map], iterator_types = [\"parallel\", \"parallel\", \"parallel\", \"parallel\"]} ins(%28 : tensor<256x384x15x15xf32>) outs(%25 : tensor<256x384x15x15xf32>) {\n            ^bb0(%in: f32, %out: f32):\n            %cst_1 = arith.constant 0.000000e+00 : f32\n            %90 = arith.cmpf ugt, %in, %cst_1 : f32\n            %91 = arith.select %90, %in, %cst_1 : f32\n            linalg.yield %91 : f32\n        } -> tensor<256x384x15x15xf32>\n%t = func.call @nanoTime() : () -> (i64)\n%delta = arith.subi %t, %t0 : i64\n%fp = arith.uitofp %delta : i64 to f64\n// func.call @printFlops(%fp) : (f64) -> ()\nfunc.call @printI64(%delta) : (i64) -> ()\nfunc.call @printNewline() : () -> ()\n\nreturn %return_arg : tensor<256x384x15x15xf32> \n}\n\nfunc.func @main(){\n    %c1 = arith.constant 1: index\n    %c0 = arith.constant 0 : index\n    %n = arith.constant 2: index\n    scf.for %i = %c0 to %n step %c1 {\n    %outputmain = func.call @matmul() : () -> tensor<256x384x15x15xf32>\n    }\n    return\n}\n}\n",
    "loops_data": {
      "nested_loops": [
        [
          "%arg2",
          0,
          256,
          1
        ],
        [
          "%arg3",
          0,
          384,
          1
        ],
        [
          "%arg4",
          0,
          15,
          1
        ],
        [
          "%arg5",
          0,
          15,
          1
        ]
      ],
      "op_count": {
        "+": 0,
        "-": 0,
        "*": 0,
        "/": 0,
        "exp": 0
      },
      "load_data": [
        [
          "%c0",
          "%arg3",
          "%arg4",
          "%arg5"
        ]
      ],
      "store_data": []
    },
    "execution_time": 18126454
  },
  "linalg.generic {indexing_maps = [#map2, #map], iterator_types = [\"parallel\", \"parallel\", \"parallel\", \"parallel\"]} ins(%28 : tensor<256x32x112x112xf32>) outs(%25 : tensor<256x32x112x112xf32>) {\n            ^bb0(%in: f32, %out: f32):\n            %cst_1 = arith.constant 0.000000e+00 : f32\n            %90 = arith.cmpf ugt, %in, %cst_1 : f32\n            %91 = arith.select %90, %in, %cst_1 : f32\n            linalg.yield %91 : f32\n        } -> tensor<256x32x112x112xf32>": {
    "operation": "linalg.generic {indexing_maps = [#map2, #map], iterator_types = [\"parallel\", \"parallel\", \"parallel\", \"parallel\"]} ins(%28 : tensor<256x32x112x112xf32>) outs(%25 : tensor<256x32x112x112xf32>) {\n            ^bb0(%in: f32, %out: f32):\n            %cst_1 = arith.constant 0.000000e+00 : f32\n            %90 = arith.cmpf ugt, %in, %cst_1 : f32\n            %91 = arith.select %90, %in, %cst_1 : f32\n            linalg.yield %91 : f32\n        } -> tensor<256x32x112x112xf32>",
    "wrapped_operation": "#map = affine_map<(d0, d1, d2, d3) -> (d0, d1, d2, d3)>\n        #map2 = affine_map<(d0, d1, d2, d3) -> (0, d1, d2, d3)>\nfunc.func @func_call(%28: tensor<256x32x112x112xf32>, %25: tensor<256x32x112x112xf32>) -> tensor<256x32x112x112xf32> {\n  %ret = linalg.generic {indexing_maps = [#map2, #map], iterator_types = [\"parallel\", \"parallel\", \"parallel\", \"parallel\"]} ins(%28 : tensor<256x32x112x112xf32>) outs(%25 : tensor<256x32x112x112xf32>) {\n            ^bb0(%in: f32, %out: f32):\n            %cst_1 = arith.constant 0.000000e+00 : f32\n            %90 = arith.cmpf ugt, %in, %cst_1 : f32\n            %91 = arith.select %90, %in, %cst_1 : f32\n            linalg.yield %91 : f32\n        } -> tensor<256x32x112x112xf32>\n  return %ret : tensor<256x32x112x112xf32>\n}",
    "lowered_operation": "module {\n  func.func @func_call(%arg0: tensor<256x32x112x112xf32>, %arg1: tensor<256x32x112x112xf32>) -> tensor<256x32x112x112xf32> {\n    %c0 = arith.constant 0 : index\n    %cst = arith.constant 0.000000e+00 : f32\n    %0 = bufferization.to_memref %arg0 : memref<256x32x112x112xf32>\n    %alloc = memref.alloc() {alignment = 64 : i64} : memref<256x32x112x112xf32>\n    affine.for %arg2 = 0 to 256 {\n      affine.for %arg3 = 0 to 32 {\n        affine.for %arg4 = 0 to 112 {\n          affine.for %arg5 = 0 to 112 {\n            %2 = affine.load %0[%c0, %arg3, %arg4, %arg5] : memref<256x32x112x112xf32>\n            %3 = arith.cmpf ugt, %2, %cst : f32\n            %4 = arith.select %3, %2, %cst : f32\n            affine.store %4, %alloc[%arg2, %arg3, %arg4, %arg5] : memref<256x32x112x112xf32>\n          }\n        }\n      }\n    }\n    %1 = bufferization.to_tensor %alloc : memref<256x32x112x112xf32>\n    return %1 : tensor<256x32x112x112xf32>\n  }\n}\n\n",
    "transform_wrapped_operation": "#map = affine_map<(d0, d1, d2, d3) -> (d0, d1, d2, d3)>\n        #map2 = affine_map<(d0, d1, d2, d3) -> (0, d1, d2, d3)>\nmodule attributes {torch.debug_module_name = \"Net\"} {\nfunc.func private @nanoTime() -> i64 attributes { llvm.emit_c_interface }\nfunc.func private @printFlops(f64)\nfunc.func private @printI64(i64)\nfunc.func private @printNewline()\nfunc.func private @printMemrefF32(tensor<*xf32>)\n\n\nfunc.func @matmul() -> tensor<256x32x112x112xf32>{\n\n%val = arith.constant 2.00000e+00 : f32\n%zero = arith.constant 0.00000e+00 : f32\n\n%tmp_28 = bufferization.alloc_tensor() : tensor<256x32x112x112xf32>\n%28 = linalg.fill ins(%val : f32) outs(%tmp_28 : tensor<256x32x112x112xf32>) -> tensor<256x32x112x112xf32>\n%tmp_25 = bufferization.alloc_tensor() : tensor<256x32x112x112xf32>\n%25 = linalg.fill ins(%val : f32) outs(%tmp_25 : tensor<256x32x112x112xf32>) -> tensor<256x32x112x112xf32>\n\n%t0 = func.call @nanoTime() : () -> (i64)\n\n%return_arg = linalg.generic {indexing_maps = [#map2, #map], iterator_types = [\"parallel\", \"parallel\", \"parallel\", \"parallel\"]} ins(%28 : tensor<256x32x112x112xf32>) outs(%25 : tensor<256x32x112x112xf32>) {\n            ^bb0(%in: f32, %out: f32):\n            %cst_1 = arith.constant 0.000000e+00 : f32\n            %90 = arith.cmpf ugt, %in, %cst_1 : f32\n            %91 = arith.select %90, %in, %cst_1 : f32\n            linalg.yield %91 : f32\n        } -> tensor<256x32x112x112xf32>\n%t = func.call @nanoTime() : () -> (i64)\n%delta = arith.subi %t, %t0 : i64\n%fp = arith.uitofp %delta : i64 to f64\n// func.call @printFlops(%fp) : (f64) -> ()\nfunc.call @printI64(%delta) : (i64) -> ()\nfunc.call @printNewline() : () -> ()\n\nreturn %return_arg : tensor<256x32x112x112xf32> \n}\n\nfunc.func @main(){\n    %c1 = arith.constant 1: index\n    %c0 = arith.constant 0 : index\n    %n = arith.constant 2: index\n    scf.for %i = %c0 to %n step %c1 {\n    %outputmain = func.call @matmul() : () -> tensor<256x32x112x112xf32>\n    }\n    return\n}\n}\n",
    "loops_data": {
      "nested_loops": [
        [
          "%arg2",
          0,
          256,
          1
        ],
        [
          "%arg3",
          0,
          32,
          1
        ],
        [
          "%arg4",
          0,
          112,
          1
        ],
        [
          "%arg5",
          0,
          112,
          1
        ]
      ],
      "op_count": {
        "+": 0,
        "-": 0,
        "*": 0,
        "/": 0,
        "exp": 0
      },
      "load_data": [
        [
          "%c0",
          "%arg3",
          "%arg4",
          "%arg5"
        ]
      ],
      "store_data": []
    },
    "execution_time": 85198281
  },
  "linalg.generic {indexing_maps = [#map2, #map], iterator_types = [\"parallel\", \"parallel\", \"parallel\", \"parallel\"]} ins(%28 : tensor<256x512x56x56xf32>) outs(%25 : tensor<256x512x56x56xf32>) {\n            ^bb0(%in: f32, %out: f32):\n            %cst_1 = arith.constant 0.000000e+00 : f32\n            %90 = arith.cmpf ugt, %in, %cst_1 : f32\n            %91 = arith.select %90, %in, %cst_1 : f32\n            linalg.yield %91 : f32\n        } -> tensor<256x512x56x56xf32>": {
    "operation": "linalg.generic {indexing_maps = [#map2, #map], iterator_types = [\"parallel\", \"parallel\", \"parallel\", \"parallel\"]} ins(%28 : tensor<256x512x56x56xf32>) outs(%25 : tensor<256x512x56x56xf32>) {\n            ^bb0(%in: f32, %out: f32):\n            %cst_1 = arith.constant 0.000000e+00 : f32\n            %90 = arith.cmpf ugt, %in, %cst_1 : f32\n            %91 = arith.select %90, %in, %cst_1 : f32\n            linalg.yield %91 : f32\n        } -> tensor<256x512x56x56xf32>",
    "wrapped_operation": "#map = affine_map<(d0, d1, d2, d3) -> (d0, d1, d2, d3)>\n        #map2 = affine_map<(d0, d1, d2, d3) -> (0, d1, d2, d3)>\nfunc.func @func_call(%28: tensor<256x512x56x56xf32>, %25: tensor<256x512x56x56xf32>) -> tensor<256x512x56x56xf32> {\n  %ret = linalg.generic {indexing_maps = [#map2, #map], iterator_types = [\"parallel\", \"parallel\", \"parallel\", \"parallel\"]} ins(%28 : tensor<256x512x56x56xf32>) outs(%25 : tensor<256x512x56x56xf32>) {\n            ^bb0(%in: f32, %out: f32):\n            %cst_1 = arith.constant 0.000000e+00 : f32\n            %90 = arith.cmpf ugt, %in, %cst_1 : f32\n            %91 = arith.select %90, %in, %cst_1 : f32\n            linalg.yield %91 : f32\n        } -> tensor<256x512x56x56xf32>\n  return %ret : tensor<256x512x56x56xf32>\n}",
    "lowered_operation": "module {\n  func.func @func_call(%arg0: tensor<256x512x56x56xf32>, %arg1: tensor<256x512x56x56xf32>) -> tensor<256x512x56x56xf32> {\n    %c0 = arith.constant 0 : index\n    %cst = arith.constant 0.000000e+00 : f32\n    %0 = bufferization.to_memref %arg0 : memref<256x512x56x56xf32>\n    %alloc = memref.alloc() {alignment = 64 : i64} : memref<256x512x56x56xf32>\n    affine.for %arg2 = 0 to 256 {\n      affine.for %arg3 = 0 to 512 {\n        affine.for %arg4 = 0 to 56 {\n          affine.for %arg5 = 0 to 56 {\n            %2 = affine.load %0[%c0, %arg3, %arg4, %arg5] : memref<256x512x56x56xf32>\n            %3 = arith.cmpf ugt, %2, %cst : f32\n            %4 = arith.select %3, %2, %cst : f32\n            affine.store %4, %alloc[%arg2, %arg3, %arg4, %arg5] : memref<256x512x56x56xf32>\n          }\n        }\n      }\n    }\n    %1 = bufferization.to_tensor %alloc : memref<256x512x56x56xf32>\n    return %1 : tensor<256x512x56x56xf32>\n  }\n}\n\n",
    "transform_wrapped_operation": "#map = affine_map<(d0, d1, d2, d3) -> (d0, d1, d2, d3)>\n        #map2 = affine_map<(d0, d1, d2, d3) -> (0, d1, d2, d3)>\nmodule attributes {torch.debug_module_name = \"Net\"} {\nfunc.func private @nanoTime() -> i64 attributes { llvm.emit_c_interface }\nfunc.func private @printFlops(f64)\nfunc.func private @printI64(i64)\nfunc.func private @printNewline()\nfunc.func private @printMemrefF32(tensor<*xf32>)\n\n\nfunc.func @matmul() -> tensor<256x512x56x56xf32>{\n\n%val = arith.constant 2.00000e+00 : f32\n%zero = arith.constant 0.00000e+00 : f32\n\n%tmp_28 = bufferization.alloc_tensor() : tensor<256x512x56x56xf32>\n%28 = linalg.fill ins(%val : f32) outs(%tmp_28 : tensor<256x512x56x56xf32>) -> tensor<256x512x56x56xf32>\n%tmp_25 = bufferization.alloc_tensor() : tensor<256x512x56x56xf32>\n%25 = linalg.fill ins(%val : f32) outs(%tmp_25 : tensor<256x512x56x56xf32>) -> tensor<256x512x56x56xf32>\n\n%t0 = func.call @nanoTime() : () -> (i64)\n\n%return_arg = linalg.generic {indexing_maps = [#map2, #map], iterator_types = [\"parallel\", \"parallel\", \"parallel\", \"parallel\"]} ins(%28 : tensor<256x512x56x56xf32>) outs(%25 : tensor<256x512x56x56xf32>) {\n            ^bb0(%in: f32, %out: f32):\n            %cst_1 = arith.constant 0.000000e+00 : f32\n            %90 = arith.cmpf ugt, %in, %cst_1 : f32\n            %91 = arith.select %90, %in, %cst_1 : f32\n            linalg.yield %91 : f32\n        } -> tensor<256x512x56x56xf32>\n%t = func.call @nanoTime() : () -> (i64)\n%delta = arith.subi %t, %t0 : i64\n%fp = arith.uitofp %delta : i64 to f64\n// func.call @printFlops(%fp) : (f64) -> ()\nfunc.call @printI64(%delta) : (i64) -> ()\nfunc.call @printNewline() : () -> ()\n\nreturn %return_arg : tensor<256x512x56x56xf32> \n}\n\nfunc.func @main(){\n    %c1 = arith.constant 1: index\n    %c0 = arith.constant 0 : index\n    %n = arith.constant 2: index\n    scf.for %i = %c0 to %n step %c1 {\n    %outputmain = func.call @matmul() : () -> tensor<256x512x56x56xf32>\n    }\n    return\n}\n}\n",
    "loops_data": {
      "nested_loops": [
        [
          "%arg2",
          0,
          256,
          1
        ],
        [
          "%arg3",
          0,
          512,
          1
        ],
        [
          "%arg4",
          0,
          56,
          1
        ],
        [
          "%arg5",
          0,
          56,
          1
        ]
      ],
      "op_count": {
        "+": 0,
        "-": 0,
        "*": 0,
        "/": 0,
        "exp": 0
      },
      "load_data": [
        [
          "%c0",
          "%arg3",
          "%arg4",
          "%arg5"
        ]
      ],
      "store_data": []
    },
    "execution_time": 347747154
  },
  "linalg.generic {indexing_maps = [#map2, #map], iterator_types = [\"parallel\", \"parallel\", \"parallel\", \"parallel\"]} ins(%28 : tensor<256x192x150x150xf32>) outs(%25 : tensor<256x192x150x150xf32>) {\n            ^bb0(%in: f32, %out: f32):\n            %cst_1 = arith.constant 0.000000e+00 : f32\n            %90 = arith.cmpf ugt, %in, %cst_1 : f32\n            %91 = arith.select %90, %in, %cst_1 : f32\n            linalg.yield %91 : f32\n        } -> tensor<256x192x150x150xf32>": {
    "operation": "linalg.generic {indexing_maps = [#map2, #map], iterator_types = [\"parallel\", \"parallel\", \"parallel\", \"parallel\"]} ins(%28 : tensor<256x192x150x150xf32>) outs(%25 : tensor<256x192x150x150xf32>) {\n            ^bb0(%in: f32, %out: f32):\n            %cst_1 = arith.constant 0.000000e+00 : f32\n            %90 = arith.cmpf ugt, %in, %cst_1 : f32\n            %91 = arith.select %90, %in, %cst_1 : f32\n            linalg.yield %91 : f32\n        } -> tensor<256x192x150x150xf32>",
    "wrapped_operation": "#map = affine_map<(d0, d1, d2, d3) -> (d0, d1, d2, d3)>\n        #map2 = affine_map<(d0, d1, d2, d3) -> (0, d1, d2, d3)>\nfunc.func @func_call(%28: tensor<256x192x150x150xf32>, %25: tensor<256x192x150x150xf32>) -> tensor<256x192x150x150xf32> {\n  %ret = linalg.generic {indexing_maps = [#map2, #map], iterator_types = [\"parallel\", \"parallel\", \"parallel\", \"parallel\"]} ins(%28 : tensor<256x192x150x150xf32>) outs(%25 : tensor<256x192x150x150xf32>) {\n            ^bb0(%in: f32, %out: f32):\n            %cst_1 = arith.constant 0.000000e+00 : f32\n            %90 = arith.cmpf ugt, %in, %cst_1 : f32\n            %91 = arith.select %90, %in, %cst_1 : f32\n            linalg.yield %91 : f32\n        } -> tensor<256x192x150x150xf32>\n  return %ret : tensor<256x192x150x150xf32>\n}",
    "lowered_operation": "module {\n  func.func @func_call(%arg0: tensor<256x192x150x150xf32>, %arg1: tensor<256x192x150x150xf32>) -> tensor<256x192x150x150xf32> {\n    %c0 = arith.constant 0 : index\n    %cst = arith.constant 0.000000e+00 : f32\n    %0 = bufferization.to_memref %arg0 : memref<256x192x150x150xf32>\n    %alloc = memref.alloc() {alignment = 64 : i64} : memref<256x192x150x150xf32>\n    affine.for %arg2 = 0 to 256 {\n      affine.for %arg3 = 0 to 192 {\n        affine.for %arg4 = 0 to 150 {\n          affine.for %arg5 = 0 to 150 {\n            %2 = affine.load %0[%c0, %arg3, %arg4, %arg5] : memref<256x192x150x150xf32>\n            %3 = arith.cmpf ugt, %2, %cst : f32\n            %4 = arith.select %3, %2, %cst : f32\n            affine.store %4, %alloc[%arg2, %arg3, %arg4, %arg5] : memref<256x192x150x150xf32>\n          }\n        }\n      }\n    }\n    %1 = bufferization.to_tensor %alloc : memref<256x192x150x150xf32>\n    return %1 : tensor<256x192x150x150xf32>\n  }\n}\n\n",
    "transform_wrapped_operation": "#map = affine_map<(d0, d1, d2, d3) -> (d0, d1, d2, d3)>\n        #map2 = affine_map<(d0, d1, d2, d3) -> (0, d1, d2, d3)>\nmodule attributes {torch.debug_module_name = \"Net\"} {\nfunc.func private @nanoTime() -> i64 attributes { llvm.emit_c_interface }\nfunc.func private @printFlops(f64)\nfunc.func private @printI64(i64)\nfunc.func private @printNewline()\nfunc.func private @printMemrefF32(tensor<*xf32>)\n\n\nfunc.func @matmul() -> tensor<256x192x150x150xf32>{\n\n%val = arith.constant 2.00000e+00 : f32\n%zero = arith.constant 0.00000e+00 : f32\n\n%tmp_28 = bufferization.alloc_tensor() : tensor<256x192x150x150xf32>\n%28 = linalg.fill ins(%val : f32) outs(%tmp_28 : tensor<256x192x150x150xf32>) -> tensor<256x192x150x150xf32>\n%tmp_25 = bufferization.alloc_tensor() : tensor<256x192x150x150xf32>\n%25 = linalg.fill ins(%val : f32) outs(%tmp_25 : tensor<256x192x150x150xf32>) -> tensor<256x192x150x150xf32>\n\n%t0 = func.call @nanoTime() : () -> (i64)\n\n%return_arg = linalg.generic {indexing_maps = [#map2, #map], iterator_types = [\"parallel\", \"parallel\", \"parallel\", \"parallel\"]} ins(%28 : tensor<256x192x150x150xf32>) outs(%25 : tensor<256x192x150x150xf32>) {\n            ^bb0(%in: f32, %out: f32):\n            %cst_1 = arith.constant 0.000000e+00 : f32\n            %90 = arith.cmpf ugt, %in, %cst_1 : f32\n            %91 = arith.select %90, %in, %cst_1 : f32\n            linalg.yield %91 : f32\n        } -> tensor<256x192x150x150xf32>\n%t = func.call @nanoTime() : () -> (i64)\n%delta = arith.subi %t, %t0 : i64\n%fp = arith.uitofp %delta : i64 to f64\n// func.call @printFlops(%fp) : (f64) -> ()\nfunc.call @printI64(%delta) : (i64) -> ()\nfunc.call @printNewline() : () -> ()\n\nreturn %return_arg : tensor<256x192x150x150xf32> \n}\n\nfunc.func @main(){\n    %c1 = arith.constant 1: index\n    %c0 = arith.constant 0 : index\n    %n = arith.constant 2: index\n    scf.for %i = %c0 to %n step %c1 {\n    %outputmain = func.call @matmul() : () -> tensor<256x192x150x150xf32>\n    }\n    return\n}\n}\n",
    "loops_data": {
      "nested_loops": [
        [
          "%arg2",
          0,
          256,
          1
        ],
        [
          "%arg3",
          0,
          192,
          1
        ],
        [
          "%arg4",
          0,
          150,
          1
        ],
        [
          "%arg5",
          0,
          150,
          1
        ]
      ],
      "op_count": {
        "+": 0,
        "-": 0,
        "*": 0,
        "/": 0,
        "exp": 0
      },
      "load_data": [
        [
          "%c0",
          "%arg3",
          "%arg4",
          "%arg5"
        ]
      ],
      "store_data": []
    },
    "execution_time": 942386419
  }
}