{
  "linalg.add ins(%arg0, %arg1: tensor<28x150x7x130xf32>, tensor<28x150x7x130xf32>) outs(%arg2: tensor<28x150x7x130xf32>) -> tensor<28x150x7x130xf32>": {
    "operation": "linalg.add ins(%arg0, %arg1: tensor<28x150x7x130xf32>, tensor<28x150x7x130xf32>) outs(%arg2: tensor<28x150x7x130xf32>) -> tensor<28x150x7x130xf32>",
    "wrapped_operation": "func.func @func_call(%arg0: tensor<28x150x7x130xf32>, %arg1: tensor<28x150x7x130xf32>, %arg2: tensor<28x150x7x130xf32>) -> tensor<28x150x7x130xf32> {\n  %ret = linalg.add ins(%arg0, %arg1: tensor<28x150x7x130xf32>, tensor<28x150x7x130xf32>) outs(%arg2: tensor<28x150x7x130xf32>) -> tensor<28x150x7x130xf32>\n  return %ret : tensor<28x150x7x130xf32>\n}",
    "lowered_operation": "module {\n  func.func @func_call(%arg0: tensor<28x150x7x130xf32>, %arg1: tensor<28x150x7x130xf32>, %arg2: tensor<28x150x7x130xf32>) -> tensor<28x150x7x130xf32> {\n    %0 = bufferization.to_memref %arg1 : memref<28x150x7x130xf32>\n    %1 = bufferization.to_memref %arg0 : memref<28x150x7x130xf32>\n    %alloc = memref.alloc() {alignment = 64 : i64} : memref<28x150x7x130xf32>\n    affine.for %arg3 = 0 to 28 {\n      affine.for %arg4 = 0 to 150 {\n        affine.for %arg5 = 0 to 7 {\n          affine.for %arg6 = 0 to 130 {\n            %3 = affine.load %1[%arg3, %arg4, %arg5, %arg6] : memref<28x150x7x130xf32>\n            %4 = affine.load %0[%arg3, %arg4, %arg5, %arg6] : memref<28x150x7x130xf32>\n            %5 = arith.addf %3, %4 : f32\n            affine.store %5, %alloc[%arg3, %arg4, %arg5, %arg6] : memref<28x150x7x130xf32>\n          }\n        }\n      }\n    }\n    %2 = bufferization.to_tensor %alloc : memref<28x150x7x130xf32>\n    return %2 : tensor<28x150x7x130xf32>\n  }\n}\n\n",
    "transform_wrapped_operation": "module attributes {torch.debug_module_name = \"Net\"} {\nfunc.func private @nanoTime() -> i64 attributes { llvm.emit_c_interface }\nfunc.func private @printFlops(f64)\nfunc.func private @printI64(i64)\nfunc.func private @printNewline()\nfunc.func private @printMemrefF32(tensor<*xf32>)\n\n\nfunc.func @matmul() -> tensor<28x150x7x130xf32>{\n\n%val = arith.constant 2.00000e+00 : f32\n%zero = arith.constant 0.00000e+00 : f32\n\n%tmp_arg0 = bufferization.alloc_tensor() : tensor<28x150x7x130xf32>\n%arg0 = linalg.fill ins(%val : f32) outs(%tmp_arg0 : tensor<28x150x7x130xf32>) -> tensor<28x150x7x130xf32>\n%tmp_arg1 = bufferization.alloc_tensor() : tensor<28x150x7x130xf32>\n%arg1 = linalg.fill ins(%val : f32) outs(%tmp_arg1 : tensor<28x150x7x130xf32>) -> tensor<28x150x7x130xf32>\n%tmp_arg2 = bufferization.alloc_tensor() : tensor<28x150x7x130xf32>\n%arg2 = linalg.fill ins(%val : f32) outs(%tmp_arg2 : tensor<28x150x7x130xf32>) -> tensor<28x150x7x130xf32>\n\n%t0 = func.call @nanoTime() : () -> (i64)\n\n%return_arg = linalg.add ins(%arg0, %arg1: tensor<28x150x7x130xf32>, tensor<28x150x7x130xf32>) outs(%arg2: tensor<28x150x7x130xf32>) -> tensor<28x150x7x130xf32>\n%t = func.call @nanoTime() : () -> (i64)\n%delta = arith.subi %t, %t0 : i64\n%fp = arith.uitofp %delta : i64 to f64\n// func.call @printFlops(%fp) : (f64) -> ()\nfunc.call @printI64(%delta) : (i64) -> ()\nfunc.call @printNewline() : () -> ()\n\nreturn %return_arg : tensor<28x150x7x130xf32> \n}\n\nfunc.func @main(){\n    %c1 = arith.constant 1: index\n    %c0 = arith.constant 0 : index\n    %n = arith.constant 2: index\n    scf.for %i = %c0 to %n step %c1 {\n    %outputmain = func.call @matmul() : () -> tensor<28x150x7x130xf32>\n    }\n    return\n}\n}\n",
    "loops_data": {
      "nested_loops": [
        [
          "%arg3",
          0,
          28,
          1
        ],
        [
          "%arg4",
          0,
          150,
          1
        ],
        [
          "%arg5",
          0,
          7,
          1
        ],
        [
          "%arg6",
          0,
          130,
          1
        ]
      ],
      "op_count": {
        "+": 1,
        "-": 0,
        "*": 0,
        "/": 0,
        "exp": 0
      },
      "load_data": [
        [
          "%arg3",
          "%arg4",
          "%arg5",
          "%arg6"
        ],
        [
          "%arg3",
          "%arg4",
          "%arg5",
          "%arg6"
        ]
      ],
      "store_data": []
    },
    "execution_time": 3638296
  },
  "linalg.add ins(%arg0, %arg1: tensor<7x56x7x112xf32>, tensor<7x56x7x112xf32>) outs(%arg2: tensor<7x56x7x112xf32>) -> tensor<7x56x7x112xf32>": {
    "operation": "linalg.add ins(%arg0, %arg1: tensor<7x56x7x112xf32>, tensor<7x56x7x112xf32>) outs(%arg2: tensor<7x56x7x112xf32>) -> tensor<7x56x7x112xf32>",
    "wrapped_operation": "func.func @func_call(%arg0: tensor<7x56x7x112xf32>, %arg1: tensor<7x56x7x112xf32>, %arg2: tensor<7x56x7x112xf32>) -> tensor<7x56x7x112xf32> {\n  %ret = linalg.add ins(%arg0, %arg1: tensor<7x56x7x112xf32>, tensor<7x56x7x112xf32>) outs(%arg2: tensor<7x56x7x112xf32>) -> tensor<7x56x7x112xf32>\n  return %ret : tensor<7x56x7x112xf32>\n}",
    "lowered_operation": "module {\n  func.func @func_call(%arg0: tensor<7x56x7x112xf32>, %arg1: tensor<7x56x7x112xf32>, %arg2: tensor<7x56x7x112xf32>) -> tensor<7x56x7x112xf32> {\n    %0 = bufferization.to_memref %arg1 : memref<7x56x7x112xf32>\n    %1 = bufferization.to_memref %arg0 : memref<7x56x7x112xf32>\n    %alloc = memref.alloc() {alignment = 64 : i64} : memref<7x56x7x112xf32>\n    affine.for %arg3 = 0 to 7 {\n      affine.for %arg4 = 0 to 56 {\n        affine.for %arg5 = 0 to 7 {\n          affine.for %arg6 = 0 to 112 {\n            %3 = affine.load %1[%arg3, %arg4, %arg5, %arg6] : memref<7x56x7x112xf32>\n            %4 = affine.load %0[%arg3, %arg4, %arg5, %arg6] : memref<7x56x7x112xf32>\n            %5 = arith.addf %3, %4 : f32\n            affine.store %5, %alloc[%arg3, %arg4, %arg5, %arg6] : memref<7x56x7x112xf32>\n          }\n        }\n      }\n    }\n    %2 = bufferization.to_tensor %alloc : memref<7x56x7x112xf32>\n    return %2 : tensor<7x56x7x112xf32>\n  }\n}\n\n",
    "transform_wrapped_operation": "module attributes {torch.debug_module_name = \"Net\"} {\nfunc.func private @nanoTime() -> i64 attributes { llvm.emit_c_interface }\nfunc.func private @printFlops(f64)\nfunc.func private @printI64(i64)\nfunc.func private @printNewline()\nfunc.func private @printMemrefF32(tensor<*xf32>)\n\n\nfunc.func @matmul() -> tensor<7x56x7x112xf32>{\n\n%val = arith.constant 2.00000e+00 : f32\n%zero = arith.constant 0.00000e+00 : f32\n\n%tmp_arg0 = bufferization.alloc_tensor() : tensor<7x56x7x112xf32>\n%arg0 = linalg.fill ins(%val : f32) outs(%tmp_arg0 : tensor<7x56x7x112xf32>) -> tensor<7x56x7x112xf32>\n%tmp_arg1 = bufferization.alloc_tensor() : tensor<7x56x7x112xf32>\n%arg1 = linalg.fill ins(%val : f32) outs(%tmp_arg1 : tensor<7x56x7x112xf32>) -> tensor<7x56x7x112xf32>\n%tmp_arg2 = bufferization.alloc_tensor() : tensor<7x56x7x112xf32>\n%arg2 = linalg.fill ins(%val : f32) outs(%tmp_arg2 : tensor<7x56x7x112xf32>) -> tensor<7x56x7x112xf32>\n\n%t0 = func.call @nanoTime() : () -> (i64)\n\n%return_arg = linalg.add ins(%arg0, %arg1: tensor<7x56x7x112xf32>, tensor<7x56x7x112xf32>) outs(%arg2: tensor<7x56x7x112xf32>) -> tensor<7x56x7x112xf32>\n%t = func.call @nanoTime() : () -> (i64)\n%delta = arith.subi %t, %t0 : i64\n%fp = arith.uitofp %delta : i64 to f64\n// func.call @printFlops(%fp) : (f64) -> ()\nfunc.call @printI64(%delta) : (i64) -> ()\nfunc.call @printNewline() : () -> ()\n\nreturn %return_arg : tensor<7x56x7x112xf32> \n}\n\nfunc.func @main(){\n    %c1 = arith.constant 1: index\n    %c0 = arith.constant 0 : index\n    %n = arith.constant 2: index\n    scf.for %i = %c0 to %n step %c1 {\n    %outputmain = func.call @matmul() : () -> tensor<7x56x7x112xf32>\n    }\n    return\n}\n}\n",
    "loops_data": {
      "nested_loops": [
        [
          "%arg3",
          0,
          7,
          1
        ],
        [
          "%arg4",
          0,
          56,
          1
        ],
        [
          "%arg5",
          0,
          7,
          1
        ],
        [
          "%arg6",
          0,
          112,
          1
        ]
      ],
      "op_count": {
        "+": 1,
        "-": 0,
        "*": 0,
        "/": 0,
        "exp": 0
      },
      "load_data": [
        [
          "%arg3",
          "%arg4",
          "%arg5",
          "%arg6"
        ],
        [
          "%arg3",
          "%arg4",
          "%arg5",
          "%arg6"
        ]
      ],
      "store_data": []
    },
    "execution_time": 243195
  },
  "linalg.add ins(%arg0, %arg1: tensor<56x56x224x7xf32>, tensor<56x56x224x7xf32>) outs(%arg2: tensor<56x56x224x7xf32>) -> tensor<56x56x224x7xf32>": {
    "operation": "linalg.add ins(%arg0, %arg1: tensor<56x56x224x7xf32>, tensor<56x56x224x7xf32>) outs(%arg2: tensor<56x56x224x7xf32>) -> tensor<56x56x224x7xf32>",
    "wrapped_operation": "func.func @func_call(%arg0: tensor<56x56x224x7xf32>, %arg1: tensor<56x56x224x7xf32>, %arg2: tensor<56x56x224x7xf32>) -> tensor<56x56x224x7xf32> {\n  %ret = linalg.add ins(%arg0, %arg1: tensor<56x56x224x7xf32>, tensor<56x56x224x7xf32>) outs(%arg2: tensor<56x56x224x7xf32>) -> tensor<56x56x224x7xf32>\n  return %ret : tensor<56x56x224x7xf32>\n}",
    "lowered_operation": "module {\n  func.func @func_call(%arg0: tensor<56x56x224x7xf32>, %arg1: tensor<56x56x224x7xf32>, %arg2: tensor<56x56x224x7xf32>) -> tensor<56x56x224x7xf32> {\n    %0 = bufferization.to_memref %arg1 : memref<56x56x224x7xf32>\n    %1 = bufferization.to_memref %arg0 : memref<56x56x224x7xf32>\n    %alloc = memref.alloc() {alignment = 64 : i64} : memref<56x56x224x7xf32>\n    affine.for %arg3 = 0 to 56 {\n      affine.for %arg4 = 0 to 56 {\n        affine.for %arg5 = 0 to 224 {\n          affine.for %arg6 = 0 to 7 {\n            %3 = affine.load %1[%arg3, %arg4, %arg5, %arg6] : memref<56x56x224x7xf32>\n            %4 = affine.load %0[%arg3, %arg4, %arg5, %arg6] : memref<56x56x224x7xf32>\n            %5 = arith.addf %3, %4 : f32\n            affine.store %5, %alloc[%arg3, %arg4, %arg5, %arg6] : memref<56x56x224x7xf32>\n          }\n        }\n      }\n    }\n    %2 = bufferization.to_tensor %alloc : memref<56x56x224x7xf32>\n    return %2 : tensor<56x56x224x7xf32>\n  }\n}\n\n",
    "transform_wrapped_operation": "module attributes {torch.debug_module_name = \"Net\"} {\nfunc.func private @nanoTime() -> i64 attributes { llvm.emit_c_interface }\nfunc.func private @printFlops(f64)\nfunc.func private @printI64(i64)\nfunc.func private @printNewline()\nfunc.func private @printMemrefF32(tensor<*xf32>)\n\n\nfunc.func @matmul() -> tensor<56x56x224x7xf32>{\n\n%val = arith.constant 2.00000e+00 : f32\n%zero = arith.constant 0.00000e+00 : f32\n\n%tmp_arg0 = bufferization.alloc_tensor() : tensor<56x56x224x7xf32>\n%arg0 = linalg.fill ins(%val : f32) outs(%tmp_arg0 : tensor<56x56x224x7xf32>) -> tensor<56x56x224x7xf32>\n%tmp_arg1 = bufferization.alloc_tensor() : tensor<56x56x224x7xf32>\n%arg1 = linalg.fill ins(%val : f32) outs(%tmp_arg1 : tensor<56x56x224x7xf32>) -> tensor<56x56x224x7xf32>\n%tmp_arg2 = bufferization.alloc_tensor() : tensor<56x56x224x7xf32>\n%arg2 = linalg.fill ins(%val : f32) outs(%tmp_arg2 : tensor<56x56x224x7xf32>) -> tensor<56x56x224x7xf32>\n\n%t0 = func.call @nanoTime() : () -> (i64)\n\n%return_arg = linalg.add ins(%arg0, %arg1: tensor<56x56x224x7xf32>, tensor<56x56x224x7xf32>) outs(%arg2: tensor<56x56x224x7xf32>) -> tensor<56x56x224x7xf32>\n%t = func.call @nanoTime() : () -> (i64)\n%delta = arith.subi %t, %t0 : i64\n%fp = arith.uitofp %delta : i64 to f64\n// func.call @printFlops(%fp) : (f64) -> ()\nfunc.call @printI64(%delta) : (i64) -> ()\nfunc.call @printNewline() : () -> ()\n\nreturn %return_arg : tensor<56x56x224x7xf32> \n}\n\nfunc.func @main(){\n    %c1 = arith.constant 1: index\n    %c0 = arith.constant 0 : index\n    %n = arith.constant 2: index\n    scf.for %i = %c0 to %n step %c1 {\n    %outputmain = func.call @matmul() : () -> tensor<56x56x224x7xf32>\n    }\n    return\n}\n}\n",
    "loops_data": {
      "nested_loops": [
        [
          "%arg3",
          0,
          56,
          1
        ],
        [
          "%arg4",
          0,
          56,
          1
        ],
        [
          "%arg5",
          0,
          224,
          1
        ],
        [
          "%arg6",
          0,
          7,
          1
        ]
      ],
      "op_count": {
        "+": 1,
        "-": 0,
        "*": 0,
        "/": 0,
        "exp": 0
      },
      "load_data": [
        [
          "%arg3",
          "%arg4",
          "%arg5",
          "%arg6"
        ],
        [
          "%arg3",
          "%arg4",
          "%arg5",
          "%arg6"
        ]
      ],
      "store_data": []
    },
    "execution_time": 5546318
  },
  "linalg.add ins(%arg0, %arg1: tensor<112x240x228x150xf32>, tensor<112x240x228x150xf32>) outs(%arg2: tensor<112x240x228x150xf32>) -> tensor<112x240x228x150xf32>": {
    "operation": "linalg.add ins(%arg0, %arg1: tensor<112x240x228x150xf32>, tensor<112x240x228x150xf32>) outs(%arg2: tensor<112x240x228x150xf32>) -> tensor<112x240x228x150xf32>",
    "wrapped_operation": "func.func @func_call(%arg0: tensor<112x240x228x150xf32>, %arg1: tensor<112x240x228x150xf32>, %arg2: tensor<112x240x228x150xf32>) -> tensor<112x240x228x150xf32> {\n  %ret = linalg.add ins(%arg0, %arg1: tensor<112x240x228x150xf32>, tensor<112x240x228x150xf32>) outs(%arg2: tensor<112x240x228x150xf32>) -> tensor<112x240x228x150xf32>\n  return %ret : tensor<112x240x228x150xf32>\n}",
    "lowered_operation": "module {\n  func.func @func_call(%arg0: tensor<112x240x228x150xf32>, %arg1: tensor<112x240x228x150xf32>, %arg2: tensor<112x240x228x150xf32>) -> tensor<112x240x228x150xf32> {\n    %0 = bufferization.to_memref %arg1 : memref<112x240x228x150xf32>\n    %1 = bufferization.to_memref %arg0 : memref<112x240x228x150xf32>\n    %alloc = memref.alloc() {alignment = 64 : i64} : memref<112x240x228x150xf32>\n    affine.for %arg3 = 0 to 112 {\n      affine.for %arg4 = 0 to 240 {\n        affine.for %arg5 = 0 to 228 {\n          affine.for %arg6 = 0 to 150 {\n            %3 = affine.load %1[%arg3, %arg4, %arg5, %arg6] : memref<112x240x228x150xf32>\n            %4 = affine.load %0[%arg3, %arg4, %arg5, %arg6] : memref<112x240x228x150xf32>\n            %5 = arith.addf %3, %4 : f32\n            affine.store %5, %alloc[%arg3, %arg4, %arg5, %arg6] : memref<112x240x228x150xf32>\n          }\n        }\n      }\n    }\n    %2 = bufferization.to_tensor %alloc : memref<112x240x228x150xf32>\n    return %2 : tensor<112x240x228x150xf32>\n  }\n}\n\n",
    "transform_wrapped_operation": "module attributes {torch.debug_module_name = \"Net\"} {\nfunc.func private @nanoTime() -> i64 attributes { llvm.emit_c_interface }\nfunc.func private @printFlops(f64)\nfunc.func private @printI64(i64)\nfunc.func private @printNewline()\nfunc.func private @printMemrefF32(tensor<*xf32>)\n\n\nfunc.func @matmul() -> tensor<112x240x228x150xf32>{\n\n%val = arith.constant 2.00000e+00 : f32\n%zero = arith.constant 0.00000e+00 : f32\n\n%tmp_arg0 = bufferization.alloc_tensor() : tensor<112x240x228x150xf32>\n%arg0 = linalg.fill ins(%val : f32) outs(%tmp_arg0 : tensor<112x240x228x150xf32>) -> tensor<112x240x228x150xf32>\n%tmp_arg1 = bufferization.alloc_tensor() : tensor<112x240x228x150xf32>\n%arg1 = linalg.fill ins(%val : f32) outs(%tmp_arg1 : tensor<112x240x228x150xf32>) -> tensor<112x240x228x150xf32>\n%tmp_arg2 = bufferization.alloc_tensor() : tensor<112x240x228x150xf32>\n%arg2 = linalg.fill ins(%val : f32) outs(%tmp_arg2 : tensor<112x240x228x150xf32>) -> tensor<112x240x228x150xf32>\n\n%t0 = func.call @nanoTime() : () -> (i64)\n\n%return_arg = linalg.add ins(%arg0, %arg1: tensor<112x240x228x150xf32>, tensor<112x240x228x150xf32>) outs(%arg2: tensor<112x240x228x150xf32>) -> tensor<112x240x228x150xf32>\n%t = func.call @nanoTime() : () -> (i64)\n%delta = arith.subi %t, %t0 : i64\n%fp = arith.uitofp %delta : i64 to f64\n// func.call @printFlops(%fp) : (f64) -> ()\nfunc.call @printI64(%delta) : (i64) -> ()\nfunc.call @printNewline() : () -> ()\n\nreturn %return_arg : tensor<112x240x228x150xf32> \n}\n\nfunc.func @main(){\n    %c1 = arith.constant 1: index\n    %c0 = arith.constant 0 : index\n    %n = arith.constant 2: index\n    scf.for %i = %c0 to %n step %c1 {\n    %outputmain = func.call @matmul() : () -> tensor<112x240x228x150xf32>\n    }\n    return\n}\n}\n",
    "loops_data": {
      "nested_loops": [
        [
          "%arg3",
          0,
          112,
          1
        ],
        [
          "%arg4",
          0,
          240,
          1
        ],
        [
          "%arg5",
          0,
          228,
          1
        ],
        [
          "%arg6",
          0,
          150,
          1
        ]
      ],
      "op_count": {
        "+": 1,
        "-": 0,
        "*": 0,
        "/": 0,
        "exp": 0
      },
      "load_data": [
        [
          "%arg3",
          "%arg4",
          "%arg5",
          "%arg6"
        ],
        [
          "%arg3",
          "%arg4",
          "%arg5",
          "%arg6"
        ]
      ],
      "store_data": []
    },
    "execution_time": 1110781695
  },
  "linalg.add ins(%arg0, %arg1: tensor<14x28x150x130xf32>, tensor<14x28x150x130xf32>) outs(%arg2: tensor<14x28x150x130xf32>) -> tensor<14x28x150x130xf32>": {
    "operation": "linalg.add ins(%arg0, %arg1: tensor<14x28x150x130xf32>, tensor<14x28x150x130xf32>) outs(%arg2: tensor<14x28x150x130xf32>) -> tensor<14x28x150x130xf32>",
    "wrapped_operation": "func.func @func_call(%arg0: tensor<14x28x150x130xf32>, %arg1: tensor<14x28x150x130xf32>, %arg2: tensor<14x28x150x130xf32>) -> tensor<14x28x150x130xf32> {\n  %ret = linalg.add ins(%arg0, %arg1: tensor<14x28x150x130xf32>, tensor<14x28x150x130xf32>) outs(%arg2: tensor<14x28x150x130xf32>) -> tensor<14x28x150x130xf32>\n  return %ret : tensor<14x28x150x130xf32>\n}",
    "lowered_operation": "module {\n  func.func @func_call(%arg0: tensor<14x28x150x130xf32>, %arg1: tensor<14x28x150x130xf32>, %arg2: tensor<14x28x150x130xf32>) -> tensor<14x28x150x130xf32> {\n    %0 = bufferization.to_memref %arg1 : memref<14x28x150x130xf32>\n    %1 = bufferization.to_memref %arg0 : memref<14x28x150x130xf32>\n    %alloc = memref.alloc() {alignment = 64 : i64} : memref<14x28x150x130xf32>\n    affine.for %arg3 = 0 to 14 {\n      affine.for %arg4 = 0 to 28 {\n        affine.for %arg5 = 0 to 150 {\n          affine.for %arg6 = 0 to 130 {\n            %3 = affine.load %1[%arg3, %arg4, %arg5, %arg6] : memref<14x28x150x130xf32>\n            %4 = affine.load %0[%arg3, %arg4, %arg5, %arg6] : memref<14x28x150x130xf32>\n            %5 = arith.addf %3, %4 : f32\n            affine.store %5, %alloc[%arg3, %arg4, %arg5, %arg6] : memref<14x28x150x130xf32>\n          }\n        }\n      }\n    }\n    %2 = bufferization.to_tensor %alloc : memref<14x28x150x130xf32>\n    return %2 : tensor<14x28x150x130xf32>\n  }\n}\n\n",
    "transform_wrapped_operation": "module attributes {torch.debug_module_name = \"Net\"} {\nfunc.func private @nanoTime() -> i64 attributes { llvm.emit_c_interface }\nfunc.func private @printFlops(f64)\nfunc.func private @printI64(i64)\nfunc.func private @printNewline()\nfunc.func private @printMemrefF32(tensor<*xf32>)\n\n\nfunc.func @matmul() -> tensor<14x28x150x130xf32>{\n\n%val = arith.constant 2.00000e+00 : f32\n%zero = arith.constant 0.00000e+00 : f32\n\n%tmp_arg0 = bufferization.alloc_tensor() : tensor<14x28x150x130xf32>\n%arg0 = linalg.fill ins(%val : f32) outs(%tmp_arg0 : tensor<14x28x150x130xf32>) -> tensor<14x28x150x130xf32>\n%tmp_arg1 = bufferization.alloc_tensor() : tensor<14x28x150x130xf32>\n%arg1 = linalg.fill ins(%val : f32) outs(%tmp_arg1 : tensor<14x28x150x130xf32>) -> tensor<14x28x150x130xf32>\n%tmp_arg2 = bufferization.alloc_tensor() : tensor<14x28x150x130xf32>\n%arg2 = linalg.fill ins(%val : f32) outs(%tmp_arg2 : tensor<14x28x150x130xf32>) -> tensor<14x28x150x130xf32>\n\n%t0 = func.call @nanoTime() : () -> (i64)\n\n%return_arg = linalg.add ins(%arg0, %arg1: tensor<14x28x150x130xf32>, tensor<14x28x150x130xf32>) outs(%arg2: tensor<14x28x150x130xf32>) -> tensor<14x28x150x130xf32>\n%t = func.call @nanoTime() : () -> (i64)\n%delta = arith.subi %t, %t0 : i64\n%fp = arith.uitofp %delta : i64 to f64\n// func.call @printFlops(%fp) : (f64) -> ()\nfunc.call @printI64(%delta) : (i64) -> ()\nfunc.call @printNewline() : () -> ()\n\nreturn %return_arg : tensor<14x28x150x130xf32> \n}\n\nfunc.func @main(){\n    %c1 = arith.constant 1: index\n    %c0 = arith.constant 0 : index\n    %n = arith.constant 2: index\n    scf.for %i = %c0 to %n step %c1 {\n    %outputmain = func.call @matmul() : () -> tensor<14x28x150x130xf32>\n    }\n    return\n}\n}\n",
    "loops_data": {
      "nested_loops": [
        [
          "%arg3",
          0,
          14,
          1
        ],
        [
          "%arg4",
          0,
          28,
          1
        ],
        [
          "%arg5",
          0,
          150,
          1
        ],
        [
          "%arg6",
          0,
          130,
          1
        ]
      ],
      "op_count": {
        "+": 1,
        "-": 0,
        "*": 0,
        "/": 0,
        "exp": 0
      },
      "load_data": [
        [
          "%arg3",
          "%arg4",
          "%arg5",
          "%arg6"
        ],
        [
          "%arg3",
          "%arg4",
          "%arg5",
          "%arg6"
        ]
      ],
      "store_data": []
    },
    "execution_time": 8708677
  },
  "linalg.add ins(%arg0, %arg1: tensor<130x28x7x228xf32>, tensor<130x28x7x228xf32>) outs(%arg2: tensor<130x28x7x228xf32>) -> tensor<130x28x7x228xf32>": {
    "operation": "linalg.add ins(%arg0, %arg1: tensor<130x28x7x228xf32>, tensor<130x28x7x228xf32>) outs(%arg2: tensor<130x28x7x228xf32>) -> tensor<130x28x7x228xf32>",
    "wrapped_operation": "func.func @func_call(%arg0: tensor<130x28x7x228xf32>, %arg1: tensor<130x28x7x228xf32>, %arg2: tensor<130x28x7x228xf32>) -> tensor<130x28x7x228xf32> {\n  %ret = linalg.add ins(%arg0, %arg1: tensor<130x28x7x228xf32>, tensor<130x28x7x228xf32>) outs(%arg2: tensor<130x28x7x228xf32>) -> tensor<130x28x7x228xf32>\n  return %ret : tensor<130x28x7x228xf32>\n}",
    "lowered_operation": "module {\n  func.func @func_call(%arg0: tensor<130x28x7x228xf32>, %arg1: tensor<130x28x7x228xf32>, %arg2: tensor<130x28x7x228xf32>) -> tensor<130x28x7x228xf32> {\n    %0 = bufferization.to_memref %arg1 : memref<130x28x7x228xf32>\n    %1 = bufferization.to_memref %arg0 : memref<130x28x7x228xf32>\n    %alloc = memref.alloc() {alignment = 64 : i64} : memref<130x28x7x228xf32>\n    affine.for %arg3 = 0 to 130 {\n      affine.for %arg4 = 0 to 28 {\n        affine.for %arg5 = 0 to 7 {\n          affine.for %arg6 = 0 to 228 {\n            %3 = affine.load %1[%arg3, %arg4, %arg5, %arg6] : memref<130x28x7x228xf32>\n            %4 = affine.load %0[%arg3, %arg4, %arg5, %arg6] : memref<130x28x7x228xf32>\n            %5 = arith.addf %3, %4 : f32\n            affine.store %5, %alloc[%arg3, %arg4, %arg5, %arg6] : memref<130x28x7x228xf32>\n          }\n        }\n      }\n    }\n    %2 = bufferization.to_tensor %alloc : memref<130x28x7x228xf32>\n    return %2 : tensor<130x28x7x228xf32>\n  }\n}\n\n",
    "transform_wrapped_operation": "module attributes {torch.debug_module_name = \"Net\"} {\nfunc.func private @nanoTime() -> i64 attributes { llvm.emit_c_interface }\nfunc.func private @printFlops(f64)\nfunc.func private @printI64(i64)\nfunc.func private @printNewline()\nfunc.func private @printMemrefF32(tensor<*xf32>)\n\n\nfunc.func @matmul() -> tensor<130x28x7x228xf32>{\n\n%val = arith.constant 2.00000e+00 : f32\n%zero = arith.constant 0.00000e+00 : f32\n\n%tmp_arg0 = bufferization.alloc_tensor() : tensor<130x28x7x228xf32>\n%arg0 = linalg.fill ins(%val : f32) outs(%tmp_arg0 : tensor<130x28x7x228xf32>) -> tensor<130x28x7x228xf32>\n%tmp_arg1 = bufferization.alloc_tensor() : tensor<130x28x7x228xf32>\n%arg1 = linalg.fill ins(%val : f32) outs(%tmp_arg1 : tensor<130x28x7x228xf32>) -> tensor<130x28x7x228xf32>\n%tmp_arg2 = bufferization.alloc_tensor() : tensor<130x28x7x228xf32>\n%arg2 = linalg.fill ins(%val : f32) outs(%tmp_arg2 : tensor<130x28x7x228xf32>) -> tensor<130x28x7x228xf32>\n\n%t0 = func.call @nanoTime() : () -> (i64)\n\n%return_arg = linalg.add ins(%arg0, %arg1: tensor<130x28x7x228xf32>, tensor<130x28x7x228xf32>) outs(%arg2: tensor<130x28x7x228xf32>) -> tensor<130x28x7x228xf32>\n%t = func.call @nanoTime() : () -> (i64)\n%delta = arith.subi %t, %t0 : i64\n%fp = arith.uitofp %delta : i64 to f64\n// func.call @printFlops(%fp) : (f64) -> ()\nfunc.call @printI64(%delta) : (i64) -> ()\nfunc.call @printNewline() : () -> ()\n\nreturn %return_arg : tensor<130x28x7x228xf32> \n}\n\nfunc.func @main(){\n    %c1 = arith.constant 1: index\n    %c0 = arith.constant 0 : index\n    %n = arith.constant 2: index\n    scf.for %i = %c0 to %n step %c1 {\n    %outputmain = func.call @matmul() : () -> tensor<130x28x7x228xf32>\n    }\n    return\n}\n}\n",
    "loops_data": {
      "nested_loops": [
        [
          "%arg3",
          0,
          130,
          1
        ],
        [
          "%arg4",
          0,
          28,
          1
        ],
        [
          "%arg5",
          0,
          7,
          1
        ],
        [
          "%arg6",
          0,
          228,
          1
        ]
      ],
      "op_count": {
        "+": 1,
        "-": 0,
        "*": 0,
        "/": 0,
        "exp": 0
      },
      "load_data": [
        [
          "%arg3",
          "%arg4",
          "%arg5",
          "%arg6"
        ],
        [
          "%arg3",
          "%arg4",
          "%arg5",
          "%arg6"
        ]
      ],
      "store_data": []
    },
    "execution_time": 6306978
  },
  "linalg.add ins(%arg0, %arg1: tensor<112x120x130x56xf32>, tensor<112x120x130x56xf32>) outs(%arg2: tensor<112x120x130x56xf32>) -> tensor<112x120x130x56xf32>": {
    "operation": "linalg.add ins(%arg0, %arg1: tensor<112x120x130x56xf32>, tensor<112x120x130x56xf32>) outs(%arg2: tensor<112x120x130x56xf32>) -> tensor<112x120x130x56xf32>",
    "wrapped_operation": "func.func @func_call(%arg0: tensor<112x120x130x56xf32>, %arg1: tensor<112x120x130x56xf32>, %arg2: tensor<112x120x130x56xf32>) -> tensor<112x120x130x56xf32> {\n  %ret = linalg.add ins(%arg0, %arg1: tensor<112x120x130x56xf32>, tensor<112x120x130x56xf32>) outs(%arg2: tensor<112x120x130x56xf32>) -> tensor<112x120x130x56xf32>\n  return %ret : tensor<112x120x130x56xf32>\n}",
    "lowered_operation": "module {\n  func.func @func_call(%arg0: tensor<112x120x130x56xf32>, %arg1: tensor<112x120x130x56xf32>, %arg2: tensor<112x120x130x56xf32>) -> tensor<112x120x130x56xf32> {\n    %0 = bufferization.to_memref %arg1 : memref<112x120x130x56xf32>\n    %1 = bufferization.to_memref %arg0 : memref<112x120x130x56xf32>\n    %alloc = memref.alloc() {alignment = 64 : i64} : memref<112x120x130x56xf32>\n    affine.for %arg3 = 0 to 112 {\n      affine.for %arg4 = 0 to 120 {\n        affine.for %arg5 = 0 to 130 {\n          affine.for %arg6 = 0 to 56 {\n            %3 = affine.load %1[%arg3, %arg4, %arg5, %arg6] : memref<112x120x130x56xf32>\n            %4 = affine.load %0[%arg3, %arg4, %arg5, %arg6] : memref<112x120x130x56xf32>\n            %5 = arith.addf %3, %4 : f32\n            affine.store %5, %alloc[%arg3, %arg4, %arg5, %arg6] : memref<112x120x130x56xf32>\n          }\n        }\n      }\n    }\n    %2 = bufferization.to_tensor %alloc : memref<112x120x130x56xf32>\n    return %2 : tensor<112x120x130x56xf32>\n  }\n}\n\n",
    "transform_wrapped_operation": "module attributes {torch.debug_module_name = \"Net\"} {\nfunc.func private @nanoTime() -> i64 attributes { llvm.emit_c_interface }\nfunc.func private @printFlops(f64)\nfunc.func private @printI64(i64)\nfunc.func private @printNewline()\nfunc.func private @printMemrefF32(tensor<*xf32>)\n\n\nfunc.func @matmul() -> tensor<112x120x130x56xf32>{\n\n%val = arith.constant 2.00000e+00 : f32\n%zero = arith.constant 0.00000e+00 : f32\n\n%tmp_arg0 = bufferization.alloc_tensor() : tensor<112x120x130x56xf32>\n%arg0 = linalg.fill ins(%val : f32) outs(%tmp_arg0 : tensor<112x120x130x56xf32>) -> tensor<112x120x130x56xf32>\n%tmp_arg1 = bufferization.alloc_tensor() : tensor<112x120x130x56xf32>\n%arg1 = linalg.fill ins(%val : f32) outs(%tmp_arg1 : tensor<112x120x130x56xf32>) -> tensor<112x120x130x56xf32>\n%tmp_arg2 = bufferization.alloc_tensor() : tensor<112x120x130x56xf32>\n%arg2 = linalg.fill ins(%val : f32) outs(%tmp_arg2 : tensor<112x120x130x56xf32>) -> tensor<112x120x130x56xf32>\n\n%t0 = func.call @nanoTime() : () -> (i64)\n\n%return_arg = linalg.add ins(%arg0, %arg1: tensor<112x120x130x56xf32>, tensor<112x120x130x56xf32>) outs(%arg2: tensor<112x120x130x56xf32>) -> tensor<112x120x130x56xf32>\n%t = func.call @nanoTime() : () -> (i64)\n%delta = arith.subi %t, %t0 : i64\n%fp = arith.uitofp %delta : i64 to f64\n// func.call @printFlops(%fp) : (f64) -> ()\nfunc.call @printI64(%delta) : (i64) -> ()\nfunc.call @printNewline() : () -> ()\n\nreturn %return_arg : tensor<112x120x130x56xf32> \n}\n\nfunc.func @main(){\n    %c1 = arith.constant 1: index\n    %c0 = arith.constant 0 : index\n    %n = arith.constant 2: index\n    scf.for %i = %c0 to %n step %c1 {\n    %outputmain = func.call @matmul() : () -> tensor<112x120x130x56xf32>\n    }\n    return\n}\n}\n",
    "loops_data": {
      "nested_loops": [
        [
          "%arg3",
          0,
          112,
          1
        ],
        [
          "%arg4",
          0,
          120,
          1
        ],
        [
          "%arg5",
          0,
          130,
          1
        ],
        [
          "%arg6",
          0,
          56,
          1
        ]
      ],
      "op_count": {
        "+": 1,
        "-": 0,
        "*": 0,
        "/": 0,
        "exp": 0
      },
      "load_data": [
        [
          "%arg3",
          "%arg4",
          "%arg5",
          "%arg6"
        ],
        [
          "%arg3",
          "%arg4",
          "%arg5",
          "%arg6"
        ]
      ],
      "store_data": []
    },
    "execution_time": 117123136
  },
  "linalg.add ins(%arg0, %arg1: tensor<130x240x130x14xf32>, tensor<130x240x130x14xf32>) outs(%arg2: tensor<130x240x130x14xf32>) -> tensor<130x240x130x14xf32>": {
    "operation": "linalg.add ins(%arg0, %arg1: tensor<130x240x130x14xf32>, tensor<130x240x130x14xf32>) outs(%arg2: tensor<130x240x130x14xf32>) -> tensor<130x240x130x14xf32>",
    "wrapped_operation": "func.func @func_call(%arg0: tensor<130x240x130x14xf32>, %arg1: tensor<130x240x130x14xf32>, %arg2: tensor<130x240x130x14xf32>) -> tensor<130x240x130x14xf32> {\n  %ret = linalg.add ins(%arg0, %arg1: tensor<130x240x130x14xf32>, tensor<130x240x130x14xf32>) outs(%arg2: tensor<130x240x130x14xf32>) -> tensor<130x240x130x14xf32>\n  return %ret : tensor<130x240x130x14xf32>\n}",
    "lowered_operation": "module {\n  func.func @func_call(%arg0: tensor<130x240x130x14xf32>, %arg1: tensor<130x240x130x14xf32>, %arg2: tensor<130x240x130x14xf32>) -> tensor<130x240x130x14xf32> {\n    %0 = bufferization.to_memref %arg1 : memref<130x240x130x14xf32>\n    %1 = bufferization.to_memref %arg0 : memref<130x240x130x14xf32>\n    %alloc = memref.alloc() {alignment = 64 : i64} : memref<130x240x130x14xf32>\n    affine.for %arg3 = 0 to 130 {\n      affine.for %arg4 = 0 to 240 {\n        affine.for %arg5 = 0 to 130 {\n          affine.for %arg6 = 0 to 14 {\n            %3 = affine.load %1[%arg3, %arg4, %arg5, %arg6] : memref<130x240x130x14xf32>\n            %4 = affine.load %0[%arg3, %arg4, %arg5, %arg6] : memref<130x240x130x14xf32>\n            %5 = arith.addf %3, %4 : f32\n            affine.store %5, %alloc[%arg3, %arg4, %arg5, %arg6] : memref<130x240x130x14xf32>\n          }\n        }\n      }\n    }\n    %2 = bufferization.to_tensor %alloc : memref<130x240x130x14xf32>\n    return %2 : tensor<130x240x130x14xf32>\n  }\n}\n\n",
    "transform_wrapped_operation": "module attributes {torch.debug_module_name = \"Net\"} {\nfunc.func private @nanoTime() -> i64 attributes { llvm.emit_c_interface }\nfunc.func private @printFlops(f64)\nfunc.func private @printI64(i64)\nfunc.func private @printNewline()\nfunc.func private @printMemrefF32(tensor<*xf32>)\n\n\nfunc.func @matmul() -> tensor<130x240x130x14xf32>{\n\n%val = arith.constant 2.00000e+00 : f32\n%zero = arith.constant 0.00000e+00 : f32\n\n%tmp_arg0 = bufferization.alloc_tensor() : tensor<130x240x130x14xf32>\n%arg0 = linalg.fill ins(%val : f32) outs(%tmp_arg0 : tensor<130x240x130x14xf32>) -> tensor<130x240x130x14xf32>\n%tmp_arg1 = bufferization.alloc_tensor() : tensor<130x240x130x14xf32>\n%arg1 = linalg.fill ins(%val : f32) outs(%tmp_arg1 : tensor<130x240x130x14xf32>) -> tensor<130x240x130x14xf32>\n%tmp_arg2 = bufferization.alloc_tensor() : tensor<130x240x130x14xf32>\n%arg2 = linalg.fill ins(%val : f32) outs(%tmp_arg2 : tensor<130x240x130x14xf32>) -> tensor<130x240x130x14xf32>\n\n%t0 = func.call @nanoTime() : () -> (i64)\n\n%return_arg = linalg.add ins(%arg0, %arg1: tensor<130x240x130x14xf32>, tensor<130x240x130x14xf32>) outs(%arg2: tensor<130x240x130x14xf32>) -> tensor<130x240x130x14xf32>\n%t = func.call @nanoTime() : () -> (i64)\n%delta = arith.subi %t, %t0 : i64\n%fp = arith.uitofp %delta : i64 to f64\n// func.call @printFlops(%fp) : (f64) -> ()\nfunc.call @printI64(%delta) : (i64) -> ()\nfunc.call @printNewline() : () -> ()\n\nreturn %return_arg : tensor<130x240x130x14xf32> \n}\n\nfunc.func @main(){\n    %c1 = arith.constant 1: index\n    %c0 = arith.constant 0 : index\n    %n = arith.constant 2: index\n    scf.for %i = %c0 to %n step %c1 {\n    %outputmain = func.call @matmul() : () -> tensor<130x240x130x14xf32>\n    }\n    return\n}\n}\n",
    "loops_data": {
      "nested_loops": [
        [
          "%arg3",
          0,
          130,
          1
        ],
        [
          "%arg4",
          0,
          240,
          1
        ],
        [
          "%arg5",
          0,
          130,
          1
        ],
        [
          "%arg6",
          0,
          14,
          1
        ]
      ],
      "op_count": {
        "+": 1,
        "-": 0,
        "*": 0,
        "/": 0,
        "exp": 0
      },
      "load_data": [
        [
          "%arg3",
          "%arg4",
          "%arg5",
          "%arg6"
        ],
        [
          "%arg3",
          "%arg4",
          "%arg5",
          "%arg6"
        ]
      ],
      "store_data": []
    },
    "execution_time": 69248129
  },
  "linalg.add ins(%arg0, %arg1: tensor<28x56x240x120xf32>, tensor<28x56x240x120xf32>) outs(%arg2: tensor<28x56x240x120xf32>) -> tensor<28x56x240x120xf32>": {
    "operation": "linalg.add ins(%arg0, %arg1: tensor<28x56x240x120xf32>, tensor<28x56x240x120xf32>) outs(%arg2: tensor<28x56x240x120xf32>) -> tensor<28x56x240x120xf32>",
    "wrapped_operation": "func.func @func_call(%arg0: tensor<28x56x240x120xf32>, %arg1: tensor<28x56x240x120xf32>, %arg2: tensor<28x56x240x120xf32>) -> tensor<28x56x240x120xf32> {\n  %ret = linalg.add ins(%arg0, %arg1: tensor<28x56x240x120xf32>, tensor<28x56x240x120xf32>) outs(%arg2: tensor<28x56x240x120xf32>) -> tensor<28x56x240x120xf32>\n  return %ret : tensor<28x56x240x120xf32>\n}",
    "lowered_operation": "module {\n  func.func @func_call(%arg0: tensor<28x56x240x120xf32>, %arg1: tensor<28x56x240x120xf32>, %arg2: tensor<28x56x240x120xf32>) -> tensor<28x56x240x120xf32> {\n    %0 = bufferization.to_memref %arg1 : memref<28x56x240x120xf32>\n    %1 = bufferization.to_memref %arg0 : memref<28x56x240x120xf32>\n    %alloc = memref.alloc() {alignment = 64 : i64} : memref<28x56x240x120xf32>\n    affine.for %arg3 = 0 to 28 {\n      affine.for %arg4 = 0 to 56 {\n        affine.for %arg5 = 0 to 240 {\n          affine.for %arg6 = 0 to 120 {\n            %3 = affine.load %1[%arg3, %arg4, %arg5, %arg6] : memref<28x56x240x120xf32>\n            %4 = affine.load %0[%arg3, %arg4, %arg5, %arg6] : memref<28x56x240x120xf32>\n            %5 = arith.addf %3, %4 : f32\n            affine.store %5, %alloc[%arg3, %arg4, %arg5, %arg6] : memref<28x56x240x120xf32>\n          }\n        }\n      }\n    }\n    %2 = bufferization.to_tensor %alloc : memref<28x56x240x120xf32>\n    return %2 : tensor<28x56x240x120xf32>\n  }\n}\n\n",
    "transform_wrapped_operation": "module attributes {torch.debug_module_name = \"Net\"} {\nfunc.func private @nanoTime() -> i64 attributes { llvm.emit_c_interface }\nfunc.func private @printFlops(f64)\nfunc.func private @printI64(i64)\nfunc.func private @printNewline()\nfunc.func private @printMemrefF32(tensor<*xf32>)\n\n\nfunc.func @matmul() -> tensor<28x56x240x120xf32>{\n\n%val = arith.constant 2.00000e+00 : f32\n%zero = arith.constant 0.00000e+00 : f32\n\n%tmp_arg0 = bufferization.alloc_tensor() : tensor<28x56x240x120xf32>\n%arg0 = linalg.fill ins(%val : f32) outs(%tmp_arg0 : tensor<28x56x240x120xf32>) -> tensor<28x56x240x120xf32>\n%tmp_arg1 = bufferization.alloc_tensor() : tensor<28x56x240x120xf32>\n%arg1 = linalg.fill ins(%val : f32) outs(%tmp_arg1 : tensor<28x56x240x120xf32>) -> tensor<28x56x240x120xf32>\n%tmp_arg2 = bufferization.alloc_tensor() : tensor<28x56x240x120xf32>\n%arg2 = linalg.fill ins(%val : f32) outs(%tmp_arg2 : tensor<28x56x240x120xf32>) -> tensor<28x56x240x120xf32>\n\n%t0 = func.call @nanoTime() : () -> (i64)\n\n%return_arg = linalg.add ins(%arg0, %arg1: tensor<28x56x240x120xf32>, tensor<28x56x240x120xf32>) outs(%arg2: tensor<28x56x240x120xf32>) -> tensor<28x56x240x120xf32>\n%t = func.call @nanoTime() : () -> (i64)\n%delta = arith.subi %t, %t0 : i64\n%fp = arith.uitofp %delta : i64 to f64\n// func.call @printFlops(%fp) : (f64) -> ()\nfunc.call @printI64(%delta) : (i64) -> ()\nfunc.call @printNewline() : () -> ()\n\nreturn %return_arg : tensor<28x56x240x120xf32> \n}\n\nfunc.func @main(){\n    %c1 = arith.constant 1: index\n    %c0 = arith.constant 0 : index\n    %n = arith.constant 2: index\n    scf.for %i = %c0 to %n step %c1 {\n    %outputmain = func.call @matmul() : () -> tensor<28x56x240x120xf32>\n    }\n    return\n}\n}\n",
    "loops_data": {
      "nested_loops": [
        [
          "%arg3",
          0,
          28,
          1
        ],
        [
          "%arg4",
          0,
          56,
          1
        ],
        [
          "%arg5",
          0,
          240,
          1
        ],
        [
          "%arg6",
          0,
          120,
          1
        ]
      ],
      "op_count": {
        "+": 1,
        "-": 0,
        "*": 0,
        "/": 0,
        "exp": 0
      },
      "load_data": [
        [
          "%arg3",
          "%arg4",
          "%arg5",
          "%arg6"
        ],
        [
          "%arg3",
          "%arg4",
          "%arg5",
          "%arg6"
        ]
      ],
      "store_data": []
    },
    "execution_time": 54233963
  },
  "linalg.add ins(%arg0, %arg1: tensor<15x240x150x14xf32>, tensor<15x240x150x14xf32>) outs(%arg2: tensor<15x240x150x14xf32>) -> tensor<15x240x150x14xf32>": {
    "operation": "linalg.add ins(%arg0, %arg1: tensor<15x240x150x14xf32>, tensor<15x240x150x14xf32>) outs(%arg2: tensor<15x240x150x14xf32>) -> tensor<15x240x150x14xf32>",
    "wrapped_operation": "func.func @func_call(%arg0: tensor<15x240x150x14xf32>, %arg1: tensor<15x240x150x14xf32>, %arg2: tensor<15x240x150x14xf32>) -> tensor<15x240x150x14xf32> {\n  %ret = linalg.add ins(%arg0, %arg1: tensor<15x240x150x14xf32>, tensor<15x240x150x14xf32>) outs(%arg2: tensor<15x240x150x14xf32>) -> tensor<15x240x150x14xf32>\n  return %ret : tensor<15x240x150x14xf32>\n}",
    "lowered_operation": "module {\n  func.func @func_call(%arg0: tensor<15x240x150x14xf32>, %arg1: tensor<15x240x150x14xf32>, %arg2: tensor<15x240x150x14xf32>) -> tensor<15x240x150x14xf32> {\n    %0 = bufferization.to_memref %arg1 : memref<15x240x150x14xf32>\n    %1 = bufferization.to_memref %arg0 : memref<15x240x150x14xf32>\n    %alloc = memref.alloc() {alignment = 64 : i64} : memref<15x240x150x14xf32>\n    affine.for %arg3 = 0 to 15 {\n      affine.for %arg4 = 0 to 240 {\n        affine.for %arg5 = 0 to 150 {\n          affine.for %arg6 = 0 to 14 {\n            %3 = affine.load %1[%arg3, %arg4, %arg5, %arg6] : memref<15x240x150x14xf32>\n            %4 = affine.load %0[%arg3, %arg4, %arg5, %arg6] : memref<15x240x150x14xf32>\n            %5 = arith.addf %3, %4 : f32\n            affine.store %5, %alloc[%arg3, %arg4, %arg5, %arg6] : memref<15x240x150x14xf32>\n          }\n        }\n      }\n    }\n    %2 = bufferization.to_tensor %alloc : memref<15x240x150x14xf32>\n    return %2 : tensor<15x240x150x14xf32>\n  }\n}\n\n",
    "transform_wrapped_operation": "module attributes {torch.debug_module_name = \"Net\"} {\nfunc.func private @nanoTime() -> i64 attributes { llvm.emit_c_interface }\nfunc.func private @printFlops(f64)\nfunc.func private @printI64(i64)\nfunc.func private @printNewline()\nfunc.func private @printMemrefF32(tensor<*xf32>)\n\n\nfunc.func @matmul() -> tensor<15x240x150x14xf32>{\n\n%val = arith.constant 2.00000e+00 : f32\n%zero = arith.constant 0.00000e+00 : f32\n\n%tmp_arg0 = bufferization.alloc_tensor() : tensor<15x240x150x14xf32>\n%arg0 = linalg.fill ins(%val : f32) outs(%tmp_arg0 : tensor<15x240x150x14xf32>) -> tensor<15x240x150x14xf32>\n%tmp_arg1 = bufferization.alloc_tensor() : tensor<15x240x150x14xf32>\n%arg1 = linalg.fill ins(%val : f32) outs(%tmp_arg1 : tensor<15x240x150x14xf32>) -> tensor<15x240x150x14xf32>\n%tmp_arg2 = bufferization.alloc_tensor() : tensor<15x240x150x14xf32>\n%arg2 = linalg.fill ins(%val : f32) outs(%tmp_arg2 : tensor<15x240x150x14xf32>) -> tensor<15x240x150x14xf32>\n\n%t0 = func.call @nanoTime() : () -> (i64)\n\n%return_arg = linalg.add ins(%arg0, %arg1: tensor<15x240x150x14xf32>, tensor<15x240x150x14xf32>) outs(%arg2: tensor<15x240x150x14xf32>) -> tensor<15x240x150x14xf32>\n%t = func.call @nanoTime() : () -> (i64)\n%delta = arith.subi %t, %t0 : i64\n%fp = arith.uitofp %delta : i64 to f64\n// func.call @printFlops(%fp) : (f64) -> ()\nfunc.call @printI64(%delta) : (i64) -> ()\nfunc.call @printNewline() : () -> ()\n\nreturn %return_arg : tensor<15x240x150x14xf32> \n}\n\nfunc.func @main(){\n    %c1 = arith.constant 1: index\n    %c0 = arith.constant 0 : index\n    %n = arith.constant 2: index\n    scf.for %i = %c0 to %n step %c1 {\n    %outputmain = func.call @matmul() : () -> tensor<15x240x150x14xf32>\n    }\n    return\n}\n}\n",
    "loops_data": {
      "nested_loops": [
        [
          "%arg3",
          0,
          15,
          1
        ],
        [
          "%arg4",
          0,
          240,
          1
        ],
        [
          "%arg5",
          0,
          150,
          1
        ],
        [
          "%arg6",
          0,
          14,
          1
        ]
      ],
      "op_count": {
        "+": 1,
        "-": 0,
        "*": 0,
        "/": 0,
        "exp": 0
      },
      "load_data": [
        [
          "%arg3",
          "%arg4",
          "%arg5",
          "%arg6"
        ],
        [
          "%arg3",
          "%arg4",
          "%arg5",
          "%arg6"
        ]
      ],
      "store_data": []
    },
    "execution_time": 8699090
  },
  "linalg.add ins(%arg0, %arg1: tensor<14x228x224x14xf32>, tensor<14x228x224x14xf32>) outs(%arg2: tensor<14x228x224x14xf32>) -> tensor<14x228x224x14xf32>": {
    "operation": "linalg.add ins(%arg0, %arg1: tensor<14x228x224x14xf32>, tensor<14x228x224x14xf32>) outs(%arg2: tensor<14x228x224x14xf32>) -> tensor<14x228x224x14xf32>",
    "wrapped_operation": "func.func @func_call(%arg0: tensor<14x228x224x14xf32>, %arg1: tensor<14x228x224x14xf32>, %arg2: tensor<14x228x224x14xf32>) -> tensor<14x228x224x14xf32> {\n  %ret = linalg.add ins(%arg0, %arg1: tensor<14x228x224x14xf32>, tensor<14x228x224x14xf32>) outs(%arg2: tensor<14x228x224x14xf32>) -> tensor<14x228x224x14xf32>\n  return %ret : tensor<14x228x224x14xf32>\n}",
    "lowered_operation": "module {\n  func.func @func_call(%arg0: tensor<14x228x224x14xf32>, %arg1: tensor<14x228x224x14xf32>, %arg2: tensor<14x228x224x14xf32>) -> tensor<14x228x224x14xf32> {\n    %0 = bufferization.to_memref %arg1 : memref<14x228x224x14xf32>\n    %1 = bufferization.to_memref %arg0 : memref<14x228x224x14xf32>\n    %alloc = memref.alloc() {alignment = 64 : i64} : memref<14x228x224x14xf32>\n    affine.for %arg3 = 0 to 14 {\n      affine.for %arg4 = 0 to 228 {\n        affine.for %arg5 = 0 to 224 {\n          affine.for %arg6 = 0 to 14 {\n            %3 = affine.load %1[%arg3, %arg4, %arg5, %arg6] : memref<14x228x224x14xf32>\n            %4 = affine.load %0[%arg3, %arg4, %arg5, %arg6] : memref<14x228x224x14xf32>\n            %5 = arith.addf %3, %4 : f32\n            affine.store %5, %alloc[%arg3, %arg4, %arg5, %arg6] : memref<14x228x224x14xf32>\n          }\n        }\n      }\n    }\n    %2 = bufferization.to_tensor %alloc : memref<14x228x224x14xf32>\n    return %2 : tensor<14x228x224x14xf32>\n  }\n}\n\n",
    "transform_wrapped_operation": "module attributes {torch.debug_module_name = \"Net\"} {\nfunc.func private @nanoTime() -> i64 attributes { llvm.emit_c_interface }\nfunc.func private @printFlops(f64)\nfunc.func private @printI64(i64)\nfunc.func private @printNewline()\nfunc.func private @printMemrefF32(tensor<*xf32>)\n\n\nfunc.func @matmul() -> tensor<14x228x224x14xf32>{\n\n%val = arith.constant 2.00000e+00 : f32\n%zero = arith.constant 0.00000e+00 : f32\n\n%tmp_arg0 = bufferization.alloc_tensor() : tensor<14x228x224x14xf32>\n%arg0 = linalg.fill ins(%val : f32) outs(%tmp_arg0 : tensor<14x228x224x14xf32>) -> tensor<14x228x224x14xf32>\n%tmp_arg1 = bufferization.alloc_tensor() : tensor<14x228x224x14xf32>\n%arg1 = linalg.fill ins(%val : f32) outs(%tmp_arg1 : tensor<14x228x224x14xf32>) -> tensor<14x228x224x14xf32>\n%tmp_arg2 = bufferization.alloc_tensor() : tensor<14x228x224x14xf32>\n%arg2 = linalg.fill ins(%val : f32) outs(%tmp_arg2 : tensor<14x228x224x14xf32>) -> tensor<14x228x224x14xf32>\n\n%t0 = func.call @nanoTime() : () -> (i64)\n\n%return_arg = linalg.add ins(%arg0, %arg1: tensor<14x228x224x14xf32>, tensor<14x228x224x14xf32>) outs(%arg2: tensor<14x228x224x14xf32>) -> tensor<14x228x224x14xf32>\n%t = func.call @nanoTime() : () -> (i64)\n%delta = arith.subi %t, %t0 : i64\n%fp = arith.uitofp %delta : i64 to f64\n// func.call @printFlops(%fp) : (f64) -> ()\nfunc.call @printI64(%delta) : (i64) -> ()\nfunc.call @printNewline() : () -> ()\n\nreturn %return_arg : tensor<14x228x224x14xf32> \n}\n\nfunc.func @main(){\n    %c1 = arith.constant 1: index\n    %c0 = arith.constant 0 : index\n    %n = arith.constant 2: index\n    scf.for %i = %c0 to %n step %c1 {\n    %outputmain = func.call @matmul() : () -> tensor<14x228x224x14xf32>\n    }\n    return\n}\n}\n",
    "loops_data": {
      "nested_loops": [
        [
          "%arg3",
          0,
          14,
          1
        ],
        [
          "%arg4",
          0,
          228,
          1
        ],
        [
          "%arg5",
          0,
          224,
          1
        ],
        [
          "%arg6",
          0,
          14,
          1
        ]
      ],
      "op_count": {
        "+": 1,
        "-": 0,
        "*": 0,
        "/": 0,
        "exp": 0
      },
      "load_data": [
        [
          "%arg3",
          "%arg4",
          "%arg5",
          "%arg6"
        ],
        [
          "%arg3",
          "%arg4",
          "%arg5",
          "%arg6"
        ]
      ],
      "store_data": []
    },
    "execution_time": 12345013
  },
  "linalg.add ins(%arg0, %arg1: tensor<228x130x28x228xf32>, tensor<228x130x28x228xf32>) outs(%arg2: tensor<228x130x28x228xf32>) -> tensor<228x130x28x228xf32>": {
    "operation": "linalg.add ins(%arg0, %arg1: tensor<228x130x28x228xf32>, tensor<228x130x28x228xf32>) outs(%arg2: tensor<228x130x28x228xf32>) -> tensor<228x130x28x228xf32>",
    "wrapped_operation": "func.func @func_call(%arg0: tensor<228x130x28x228xf32>, %arg1: tensor<228x130x28x228xf32>, %arg2: tensor<228x130x28x228xf32>) -> tensor<228x130x28x228xf32> {\n  %ret = linalg.add ins(%arg0, %arg1: tensor<228x130x28x228xf32>, tensor<228x130x28x228xf32>) outs(%arg2: tensor<228x130x28x228xf32>) -> tensor<228x130x28x228xf32>\n  return %ret : tensor<228x130x28x228xf32>\n}",
    "lowered_operation": "module {\n  func.func @func_call(%arg0: tensor<228x130x28x228xf32>, %arg1: tensor<228x130x28x228xf32>, %arg2: tensor<228x130x28x228xf32>) -> tensor<228x130x28x228xf32> {\n    %0 = bufferization.to_memref %arg1 : memref<228x130x28x228xf32>\n    %1 = bufferization.to_memref %arg0 : memref<228x130x28x228xf32>\n    %alloc = memref.alloc() {alignment = 64 : i64} : memref<228x130x28x228xf32>\n    affine.for %arg3 = 0 to 228 {\n      affine.for %arg4 = 0 to 130 {\n        affine.for %arg5 = 0 to 28 {\n          affine.for %arg6 = 0 to 228 {\n            %3 = affine.load %1[%arg3, %arg4, %arg5, %arg6] : memref<228x130x28x228xf32>\n            %4 = affine.load %0[%arg3, %arg4, %arg5, %arg6] : memref<228x130x28x228xf32>\n            %5 = arith.addf %3, %4 : f32\n            affine.store %5, %alloc[%arg3, %arg4, %arg5, %arg6] : memref<228x130x28x228xf32>\n          }\n        }\n      }\n    }\n    %2 = bufferization.to_tensor %alloc : memref<228x130x28x228xf32>\n    return %2 : tensor<228x130x28x228xf32>\n  }\n}\n\n",
    "transform_wrapped_operation": "module attributes {torch.debug_module_name = \"Net\"} {\nfunc.func private @nanoTime() -> i64 attributes { llvm.emit_c_interface }\nfunc.func private @printFlops(f64)\nfunc.func private @printI64(i64)\nfunc.func private @printNewline()\nfunc.func private @printMemrefF32(tensor<*xf32>)\n\n\nfunc.func @matmul() -> tensor<228x130x28x228xf32>{\n\n%val = arith.constant 2.00000e+00 : f32\n%zero = arith.constant 0.00000e+00 : f32\n\n%tmp_arg0 = bufferization.alloc_tensor() : tensor<228x130x28x228xf32>\n%arg0 = linalg.fill ins(%val : f32) outs(%tmp_arg0 : tensor<228x130x28x228xf32>) -> tensor<228x130x28x228xf32>\n%tmp_arg1 = bufferization.alloc_tensor() : tensor<228x130x28x228xf32>\n%arg1 = linalg.fill ins(%val : f32) outs(%tmp_arg1 : tensor<228x130x28x228xf32>) -> tensor<228x130x28x228xf32>\n%tmp_arg2 = bufferization.alloc_tensor() : tensor<228x130x28x228xf32>\n%arg2 = linalg.fill ins(%val : f32) outs(%tmp_arg2 : tensor<228x130x28x228xf32>) -> tensor<228x130x28x228xf32>\n\n%t0 = func.call @nanoTime() : () -> (i64)\n\n%return_arg = linalg.add ins(%arg0, %arg1: tensor<228x130x28x228xf32>, tensor<228x130x28x228xf32>) outs(%arg2: tensor<228x130x28x228xf32>) -> tensor<228x130x28x228xf32>\n%t = func.call @nanoTime() : () -> (i64)\n%delta = arith.subi %t, %t0 : i64\n%fp = arith.uitofp %delta : i64 to f64\n// func.call @printFlops(%fp) : (f64) -> ()\nfunc.call @printI64(%delta) : (i64) -> ()\nfunc.call @printNewline() : () -> ()\n\nreturn %return_arg : tensor<228x130x28x228xf32> \n}\n\nfunc.func @main(){\n    %c1 = arith.constant 1: index\n    %c0 = arith.constant 0 : index\n    %n = arith.constant 2: index\n    scf.for %i = %c0 to %n step %c1 {\n    %outputmain = func.call @matmul() : () -> tensor<228x130x28x228xf32>\n    }\n    return\n}\n}\n",
    "loops_data": {
      "nested_loops": [
        [
          "%arg3",
          0,
          228,
          1
        ],
        [
          "%arg4",
          0,
          130,
          1
        ],
        [
          "%arg5",
          0,
          28,
          1
        ],
        [
          "%arg6",
          0,
          228,
          1
        ]
      ],
      "op_count": {
        "+": 1,
        "-": 0,
        "*": 0,
        "/": 0,
        "exp": 0
      },
      "load_data": [
        [
          "%arg3",
          "%arg4",
          "%arg5",
          "%arg6"
        ],
        [
          "%arg3",
          "%arg4",
          "%arg5",
          "%arg6"
        ]
      ],
      "store_data": []
    },
    "execution_time": 225201220
  },
  "linalg.add ins(%arg0, %arg1: tensor<228x28x14x240xf32>, tensor<228x28x14x240xf32>) outs(%arg2: tensor<228x28x14x240xf32>) -> tensor<228x28x14x240xf32>": {
    "operation": "linalg.add ins(%arg0, %arg1: tensor<228x28x14x240xf32>, tensor<228x28x14x240xf32>) outs(%arg2: tensor<228x28x14x240xf32>) -> tensor<228x28x14x240xf32>",
    "wrapped_operation": "func.func @func_call(%arg0: tensor<228x28x14x240xf32>, %arg1: tensor<228x28x14x240xf32>, %arg2: tensor<228x28x14x240xf32>) -> tensor<228x28x14x240xf32> {\n  %ret = linalg.add ins(%arg0, %arg1: tensor<228x28x14x240xf32>, tensor<228x28x14x240xf32>) outs(%arg2: tensor<228x28x14x240xf32>) -> tensor<228x28x14x240xf32>\n  return %ret : tensor<228x28x14x240xf32>\n}",
    "lowered_operation": "module {\n  func.func @func_call(%arg0: tensor<228x28x14x240xf32>, %arg1: tensor<228x28x14x240xf32>, %arg2: tensor<228x28x14x240xf32>) -> tensor<228x28x14x240xf32> {\n    %0 = bufferization.to_memref %arg1 : memref<228x28x14x240xf32>\n    %1 = bufferization.to_memref %arg0 : memref<228x28x14x240xf32>\n    %alloc = memref.alloc() {alignment = 64 : i64} : memref<228x28x14x240xf32>\n    affine.for %arg3 = 0 to 228 {\n      affine.for %arg4 = 0 to 28 {\n        affine.for %arg5 = 0 to 14 {\n          affine.for %arg6 = 0 to 240 {\n            %3 = affine.load %1[%arg3, %arg4, %arg5, %arg6] : memref<228x28x14x240xf32>\n            %4 = affine.load %0[%arg3, %arg4, %arg5, %arg6] : memref<228x28x14x240xf32>\n            %5 = arith.addf %3, %4 : f32\n            affine.store %5, %alloc[%arg3, %arg4, %arg5, %arg6] : memref<228x28x14x240xf32>\n          }\n        }\n      }\n    }\n    %2 = bufferization.to_tensor %alloc : memref<228x28x14x240xf32>\n    return %2 : tensor<228x28x14x240xf32>\n  }\n}\n\n",
    "transform_wrapped_operation": "module attributes {torch.debug_module_name = \"Net\"} {\nfunc.func private @nanoTime() -> i64 attributes { llvm.emit_c_interface }\nfunc.func private @printFlops(f64)\nfunc.func private @printI64(i64)\nfunc.func private @printNewline()\nfunc.func private @printMemrefF32(tensor<*xf32>)\n\n\nfunc.func @matmul() -> tensor<228x28x14x240xf32>{\n\n%val = arith.constant 2.00000e+00 : f32\n%zero = arith.constant 0.00000e+00 : f32\n\n%tmp_arg0 = bufferization.alloc_tensor() : tensor<228x28x14x240xf32>\n%arg0 = linalg.fill ins(%val : f32) outs(%tmp_arg0 : tensor<228x28x14x240xf32>) -> tensor<228x28x14x240xf32>\n%tmp_arg1 = bufferization.alloc_tensor() : tensor<228x28x14x240xf32>\n%arg1 = linalg.fill ins(%val : f32) outs(%tmp_arg1 : tensor<228x28x14x240xf32>) -> tensor<228x28x14x240xf32>\n%tmp_arg2 = bufferization.alloc_tensor() : tensor<228x28x14x240xf32>\n%arg2 = linalg.fill ins(%val : f32) outs(%tmp_arg2 : tensor<228x28x14x240xf32>) -> tensor<228x28x14x240xf32>\n\n%t0 = func.call @nanoTime() : () -> (i64)\n\n%return_arg = linalg.add ins(%arg0, %arg1: tensor<228x28x14x240xf32>, tensor<228x28x14x240xf32>) outs(%arg2: tensor<228x28x14x240xf32>) -> tensor<228x28x14x240xf32>\n%t = func.call @nanoTime() : () -> (i64)\n%delta = arith.subi %t, %t0 : i64\n%fp = arith.uitofp %delta : i64 to f64\n// func.call @printFlops(%fp) : (f64) -> ()\nfunc.call @printI64(%delta) : (i64) -> ()\nfunc.call @printNewline() : () -> ()\n\nreturn %return_arg : tensor<228x28x14x240xf32> \n}\n\nfunc.func @main(){\n    %c1 = arith.constant 1: index\n    %c0 = arith.constant 0 : index\n    %n = arith.constant 2: index\n    scf.for %i = %c0 to %n step %c1 {\n    %outputmain = func.call @matmul() : () -> tensor<228x28x14x240xf32>\n    }\n    return\n}\n}\n",
    "loops_data": {
      "nested_loops": [
        [
          "%arg3",
          0,
          228,
          1
        ],
        [
          "%arg4",
          0,
          28,
          1
        ],
        [
          "%arg5",
          0,
          14,
          1
        ],
        [
          "%arg6",
          0,
          240,
          1
        ]
      ],
      "op_count": {
        "+": 1,
        "-": 0,
        "*": 0,
        "/": 0,
        "exp": 0
      },
      "load_data": [
        [
          "%arg3",
          "%arg4",
          "%arg5",
          "%arg6"
        ],
        [
          "%arg3",
          "%arg4",
          "%arg5",
          "%arg6"
        ]
      ],
      "store_data": []
    },
    "execution_time": 25808165
  },
  "linalg.add ins(%arg0, %arg1: tensor<130x56x228x15xf32>, tensor<130x56x228x15xf32>) outs(%arg2: tensor<130x56x228x15xf32>) -> tensor<130x56x228x15xf32>": {
    "operation": "linalg.add ins(%arg0, %arg1: tensor<130x56x228x15xf32>, tensor<130x56x228x15xf32>) outs(%arg2: tensor<130x56x228x15xf32>) -> tensor<130x56x228x15xf32>",
    "wrapped_operation": "func.func @func_call(%arg0: tensor<130x56x228x15xf32>, %arg1: tensor<130x56x228x15xf32>, %arg2: tensor<130x56x228x15xf32>) -> tensor<130x56x228x15xf32> {\n  %ret = linalg.add ins(%arg0, %arg1: tensor<130x56x228x15xf32>, tensor<130x56x228x15xf32>) outs(%arg2: tensor<130x56x228x15xf32>) -> tensor<130x56x228x15xf32>\n  return %ret : tensor<130x56x228x15xf32>\n}",
    "lowered_operation": "module {\n  func.func @func_call(%arg0: tensor<130x56x228x15xf32>, %arg1: tensor<130x56x228x15xf32>, %arg2: tensor<130x56x228x15xf32>) -> tensor<130x56x228x15xf32> {\n    %0 = bufferization.to_memref %arg1 : memref<130x56x228x15xf32>\n    %1 = bufferization.to_memref %arg0 : memref<130x56x228x15xf32>\n    %alloc = memref.alloc() {alignment = 64 : i64} : memref<130x56x228x15xf32>\n    affine.for %arg3 = 0 to 130 {\n      affine.for %arg4 = 0 to 56 {\n        affine.for %arg5 = 0 to 228 {\n          affine.for %arg6 = 0 to 15 {\n            %3 = affine.load %1[%arg3, %arg4, %arg5, %arg6] : memref<130x56x228x15xf32>\n            %4 = affine.load %0[%arg3, %arg4, %arg5, %arg6] : memref<130x56x228x15xf32>\n            %5 = arith.addf %3, %4 : f32\n            affine.store %5, %alloc[%arg3, %arg4, %arg5, %arg6] : memref<130x56x228x15xf32>\n          }\n        }\n      }\n    }\n    %2 = bufferization.to_tensor %alloc : memref<130x56x228x15xf32>\n    return %2 : tensor<130x56x228x15xf32>\n  }\n}\n\n",
    "transform_wrapped_operation": "module attributes {torch.debug_module_name = \"Net\"} {\nfunc.func private @nanoTime() -> i64 attributes { llvm.emit_c_interface }\nfunc.func private @printFlops(f64)\nfunc.func private @printI64(i64)\nfunc.func private @printNewline()\nfunc.func private @printMemrefF32(tensor<*xf32>)\n\n\nfunc.func @matmul() -> tensor<130x56x228x15xf32>{\n\n%val = arith.constant 2.00000e+00 : f32\n%zero = arith.constant 0.00000e+00 : f32\n\n%tmp_arg0 = bufferization.alloc_tensor() : tensor<130x56x228x15xf32>\n%arg0 = linalg.fill ins(%val : f32) outs(%tmp_arg0 : tensor<130x56x228x15xf32>) -> tensor<130x56x228x15xf32>\n%tmp_arg1 = bufferization.alloc_tensor() : tensor<130x56x228x15xf32>\n%arg1 = linalg.fill ins(%val : f32) outs(%tmp_arg1 : tensor<130x56x228x15xf32>) -> tensor<130x56x228x15xf32>\n%tmp_arg2 = bufferization.alloc_tensor() : tensor<130x56x228x15xf32>\n%arg2 = linalg.fill ins(%val : f32) outs(%tmp_arg2 : tensor<130x56x228x15xf32>) -> tensor<130x56x228x15xf32>\n\n%t0 = func.call @nanoTime() : () -> (i64)\n\n%return_arg = linalg.add ins(%arg0, %arg1: tensor<130x56x228x15xf32>, tensor<130x56x228x15xf32>) outs(%arg2: tensor<130x56x228x15xf32>) -> tensor<130x56x228x15xf32>\n%t = func.call @nanoTime() : () -> (i64)\n%delta = arith.subi %t, %t0 : i64\n%fp = arith.uitofp %delta : i64 to f64\n// func.call @printFlops(%fp) : (f64) -> ()\nfunc.call @printI64(%delta) : (i64) -> ()\nfunc.call @printNewline() : () -> ()\n\nreturn %return_arg : tensor<130x56x228x15xf32> \n}\n\nfunc.func @main(){\n    %c1 = arith.constant 1: index\n    %c0 = arith.constant 0 : index\n    %n = arith.constant 2: index\n    scf.for %i = %c0 to %n step %c1 {\n    %outputmain = func.call @matmul() : () -> tensor<130x56x228x15xf32>\n    }\n    return\n}\n}\n",
    "loops_data": {
      "nested_loops": [
        [
          "%arg3",
          0,
          130,
          1
        ],
        [
          "%arg4",
          0,
          56,
          1
        ],
        [
          "%arg5",
          0,
          228,
          1
        ],
        [
          "%arg6",
          0,
          15,
          1
        ]
      ],
      "op_count": {
        "+": 1,
        "-": 0,
        "*": 0,
        "/": 0,
        "exp": 0
      },
      "load_data": [
        [
          "%arg3",
          "%arg4",
          "%arg5",
          "%arg6"
        ],
        [
          "%arg3",
          "%arg4",
          "%arg5",
          "%arg6"
        ]
      ],
      "store_data": []
    },
    "execution_time": 30621674
  },
  "linalg.add ins(%arg0, %arg1: tensor<56x112x112x120xf32>, tensor<56x112x112x120xf32>) outs(%arg2: tensor<56x112x112x120xf32>) -> tensor<56x112x112x120xf32>": {
    "operation": "linalg.add ins(%arg0, %arg1: tensor<56x112x112x120xf32>, tensor<56x112x112x120xf32>) outs(%arg2: tensor<56x112x112x120xf32>) -> tensor<56x112x112x120xf32>",
    "wrapped_operation": "func.func @func_call(%arg0: tensor<56x112x112x120xf32>, %arg1: tensor<56x112x112x120xf32>, %arg2: tensor<56x112x112x120xf32>) -> tensor<56x112x112x120xf32> {\n  %ret = linalg.add ins(%arg0, %arg1: tensor<56x112x112x120xf32>, tensor<56x112x112x120xf32>) outs(%arg2: tensor<56x112x112x120xf32>) -> tensor<56x112x112x120xf32>\n  return %ret : tensor<56x112x112x120xf32>\n}",
    "lowered_operation": "module {\n  func.func @func_call(%arg0: tensor<56x112x112x120xf32>, %arg1: tensor<56x112x112x120xf32>, %arg2: tensor<56x112x112x120xf32>) -> tensor<56x112x112x120xf32> {\n    %0 = bufferization.to_memref %arg1 : memref<56x112x112x120xf32>\n    %1 = bufferization.to_memref %arg0 : memref<56x112x112x120xf32>\n    %alloc = memref.alloc() {alignment = 64 : i64} : memref<56x112x112x120xf32>\n    affine.for %arg3 = 0 to 56 {\n      affine.for %arg4 = 0 to 112 {\n        affine.for %arg5 = 0 to 112 {\n          affine.for %arg6 = 0 to 120 {\n            %3 = affine.load %1[%arg3, %arg4, %arg5, %arg6] : memref<56x112x112x120xf32>\n            %4 = affine.load %0[%arg3, %arg4, %arg5, %arg6] : memref<56x112x112x120xf32>\n            %5 = arith.addf %3, %4 : f32\n            affine.store %5, %alloc[%arg3, %arg4, %arg5, %arg6] : memref<56x112x112x120xf32>\n          }\n        }\n      }\n    }\n    %2 = bufferization.to_tensor %alloc : memref<56x112x112x120xf32>\n    return %2 : tensor<56x112x112x120xf32>\n  }\n}\n\n",
    "transform_wrapped_operation": "module attributes {torch.debug_module_name = \"Net\"} {\nfunc.func private @nanoTime() -> i64 attributes { llvm.emit_c_interface }\nfunc.func private @printFlops(f64)\nfunc.func private @printI64(i64)\nfunc.func private @printNewline()\nfunc.func private @printMemrefF32(tensor<*xf32>)\n\n\nfunc.func @matmul() -> tensor<56x112x112x120xf32>{\n\n%val = arith.constant 2.00000e+00 : f32\n%zero = arith.constant 0.00000e+00 : f32\n\n%tmp_arg0 = bufferization.alloc_tensor() : tensor<56x112x112x120xf32>\n%arg0 = linalg.fill ins(%val : f32) outs(%tmp_arg0 : tensor<56x112x112x120xf32>) -> tensor<56x112x112x120xf32>\n%tmp_arg1 = bufferization.alloc_tensor() : tensor<56x112x112x120xf32>\n%arg1 = linalg.fill ins(%val : f32) outs(%tmp_arg1 : tensor<56x112x112x120xf32>) -> tensor<56x112x112x120xf32>\n%tmp_arg2 = bufferization.alloc_tensor() : tensor<56x112x112x120xf32>\n%arg2 = linalg.fill ins(%val : f32) outs(%tmp_arg2 : tensor<56x112x112x120xf32>) -> tensor<56x112x112x120xf32>\n\n%t0 = func.call @nanoTime() : () -> (i64)\n\n%return_arg = linalg.add ins(%arg0, %arg1: tensor<56x112x112x120xf32>, tensor<56x112x112x120xf32>) outs(%arg2: tensor<56x112x112x120xf32>) -> tensor<56x112x112x120xf32>\n%t = func.call @nanoTime() : () -> (i64)\n%delta = arith.subi %t, %t0 : i64\n%fp = arith.uitofp %delta : i64 to f64\n// func.call @printFlops(%fp) : (f64) -> ()\nfunc.call @printI64(%delta) : (i64) -> ()\nfunc.call @printNewline() : () -> ()\n\nreturn %return_arg : tensor<56x112x112x120xf32> \n}\n\nfunc.func @main(){\n    %c1 = arith.constant 1: index\n    %c0 = arith.constant 0 : index\n    %n = arith.constant 2: index\n    scf.for %i = %c0 to %n step %c1 {\n    %outputmain = func.call @matmul() : () -> tensor<56x112x112x120xf32>\n    }\n    return\n}\n}\n",
    "loops_data": {
      "nested_loops": [
        [
          "%arg3",
          0,
          56,
          1
        ],
        [
          "%arg4",
          0,
          112,
          1
        ],
        [
          "%arg5",
          0,
          112,
          1
        ],
        [
          "%arg6",
          0,
          120,
          1
        ]
      ],
      "op_count": {
        "+": 1,
        "-": 0,
        "*": 0,
        "/": 0,
        "exp": 0
      },
      "load_data": [
        [
          "%arg3",
          "%arg4",
          "%arg5",
          "%arg6"
        ],
        [
          "%arg3",
          "%arg4",
          "%arg5",
          "%arg6"
        ]
      ],
      "store_data": []
    },
    "execution_time": 100746421
  },
  "linalg.add ins(%arg0, %arg1: tensor<7x56x120x14xf32>, tensor<7x56x120x14xf32>) outs(%arg2: tensor<7x56x120x14xf32>) -> tensor<7x56x120x14xf32>": {
    "operation": "linalg.add ins(%arg0, %arg1: tensor<7x56x120x14xf32>, tensor<7x56x120x14xf32>) outs(%arg2: tensor<7x56x120x14xf32>) -> tensor<7x56x120x14xf32>",
    "wrapped_operation": "func.func @func_call(%arg0: tensor<7x56x120x14xf32>, %arg1: tensor<7x56x120x14xf32>, %arg2: tensor<7x56x120x14xf32>) -> tensor<7x56x120x14xf32> {\n  %ret = linalg.add ins(%arg0, %arg1: tensor<7x56x120x14xf32>, tensor<7x56x120x14xf32>) outs(%arg2: tensor<7x56x120x14xf32>) -> tensor<7x56x120x14xf32>\n  return %ret : tensor<7x56x120x14xf32>\n}",
    "lowered_operation": "module {\n  func.func @func_call(%arg0: tensor<7x56x120x14xf32>, %arg1: tensor<7x56x120x14xf32>, %arg2: tensor<7x56x120x14xf32>) -> tensor<7x56x120x14xf32> {\n    %0 = bufferization.to_memref %arg1 : memref<7x56x120x14xf32>\n    %1 = bufferization.to_memref %arg0 : memref<7x56x120x14xf32>\n    %alloc = memref.alloc() {alignment = 64 : i64} : memref<7x56x120x14xf32>\n    affine.for %arg3 = 0 to 7 {\n      affine.for %arg4 = 0 to 56 {\n        affine.for %arg5 = 0 to 120 {\n          affine.for %arg6 = 0 to 14 {\n            %3 = affine.load %1[%arg3, %arg4, %arg5, %arg6] : memref<7x56x120x14xf32>\n            %4 = affine.load %0[%arg3, %arg4, %arg5, %arg6] : memref<7x56x120x14xf32>\n            %5 = arith.addf %3, %4 : f32\n            affine.store %5, %alloc[%arg3, %arg4, %arg5, %arg6] : memref<7x56x120x14xf32>\n          }\n        }\n      }\n    }\n    %2 = bufferization.to_tensor %alloc : memref<7x56x120x14xf32>\n    return %2 : tensor<7x56x120x14xf32>\n  }\n}\n\n",
    "transform_wrapped_operation": "module attributes {torch.debug_module_name = \"Net\"} {\nfunc.func private @nanoTime() -> i64 attributes { llvm.emit_c_interface }\nfunc.func private @printFlops(f64)\nfunc.func private @printI64(i64)\nfunc.func private @printNewline()\nfunc.func private @printMemrefF32(tensor<*xf32>)\n\n\nfunc.func @matmul() -> tensor<7x56x120x14xf32>{\n\n%val = arith.constant 2.00000e+00 : f32\n%zero = arith.constant 0.00000e+00 : f32\n\n%tmp_arg0 = bufferization.alloc_tensor() : tensor<7x56x120x14xf32>\n%arg0 = linalg.fill ins(%val : f32) outs(%tmp_arg0 : tensor<7x56x120x14xf32>) -> tensor<7x56x120x14xf32>\n%tmp_arg1 = bufferization.alloc_tensor() : tensor<7x56x120x14xf32>\n%arg1 = linalg.fill ins(%val : f32) outs(%tmp_arg1 : tensor<7x56x120x14xf32>) -> tensor<7x56x120x14xf32>\n%tmp_arg2 = bufferization.alloc_tensor() : tensor<7x56x120x14xf32>\n%arg2 = linalg.fill ins(%val : f32) outs(%tmp_arg2 : tensor<7x56x120x14xf32>) -> tensor<7x56x120x14xf32>\n\n%t0 = func.call @nanoTime() : () -> (i64)\n\n%return_arg = linalg.add ins(%arg0, %arg1: tensor<7x56x120x14xf32>, tensor<7x56x120x14xf32>) outs(%arg2: tensor<7x56x120x14xf32>) -> tensor<7x56x120x14xf32>\n%t = func.call @nanoTime() : () -> (i64)\n%delta = arith.subi %t, %t0 : i64\n%fp = arith.uitofp %delta : i64 to f64\n// func.call @printFlops(%fp) : (f64) -> ()\nfunc.call @printI64(%delta) : (i64) -> ()\nfunc.call @printNewline() : () -> ()\n\nreturn %return_arg : tensor<7x56x120x14xf32> \n}\n\nfunc.func @main(){\n    %c1 = arith.constant 1: index\n    %c0 = arith.constant 0 : index\n    %n = arith.constant 2: index\n    scf.for %i = %c0 to %n step %c1 {\n    %outputmain = func.call @matmul() : () -> tensor<7x56x120x14xf32>\n    }\n    return\n}\n}\n",
    "loops_data": {
      "nested_loops": [
        [
          "%arg3",
          0,
          7,
          1
        ],
        [
          "%arg4",
          0,
          56,
          1
        ],
        [
          "%arg5",
          0,
          120,
          1
        ],
        [
          "%arg6",
          0,
          14,
          1
        ]
      ],
      "op_count": {
        "+": 1,
        "-": 0,
        "*": 0,
        "/": 0,
        "exp": 0
      },
      "load_data": [
        [
          "%arg3",
          "%arg4",
          "%arg5",
          "%arg6"
        ],
        [
          "%arg3",
          "%arg4",
          "%arg5",
          "%arg6"
        ]
      ],
      "store_data": []
    },
    "execution_time": 613349
  },
  "linalg.add ins(%arg0, %arg1: tensor<130x240x150x14xf32>, tensor<130x240x150x14xf32>) outs(%arg2: tensor<130x240x150x14xf32>) -> tensor<130x240x150x14xf32>": {
    "operation": "linalg.add ins(%arg0, %arg1: tensor<130x240x150x14xf32>, tensor<130x240x150x14xf32>) outs(%arg2: tensor<130x240x150x14xf32>) -> tensor<130x240x150x14xf32>",
    "wrapped_operation": "func.func @func_call(%arg0: tensor<130x240x150x14xf32>, %arg1: tensor<130x240x150x14xf32>, %arg2: tensor<130x240x150x14xf32>) -> tensor<130x240x150x14xf32> {\n  %ret = linalg.add ins(%arg0, %arg1: tensor<130x240x150x14xf32>, tensor<130x240x150x14xf32>) outs(%arg2: tensor<130x240x150x14xf32>) -> tensor<130x240x150x14xf32>\n  return %ret : tensor<130x240x150x14xf32>\n}",
    "lowered_operation": "module {\n  func.func @func_call(%arg0: tensor<130x240x150x14xf32>, %arg1: tensor<130x240x150x14xf32>, %arg2: tensor<130x240x150x14xf32>) -> tensor<130x240x150x14xf32> {\n    %0 = bufferization.to_memref %arg1 : memref<130x240x150x14xf32>\n    %1 = bufferization.to_memref %arg0 : memref<130x240x150x14xf32>\n    %alloc = memref.alloc() {alignment = 64 : i64} : memref<130x240x150x14xf32>\n    affine.for %arg3 = 0 to 130 {\n      affine.for %arg4 = 0 to 240 {\n        affine.for %arg5 = 0 to 150 {\n          affine.for %arg6 = 0 to 14 {\n            %3 = affine.load %1[%arg3, %arg4, %arg5, %arg6] : memref<130x240x150x14xf32>\n            %4 = affine.load %0[%arg3, %arg4, %arg5, %arg6] : memref<130x240x150x14xf32>\n            %5 = arith.addf %3, %4 : f32\n            affine.store %5, %alloc[%arg3, %arg4, %arg5, %arg6] : memref<130x240x150x14xf32>\n          }\n        }\n      }\n    }\n    %2 = bufferization.to_tensor %alloc : memref<130x240x150x14xf32>\n    return %2 : tensor<130x240x150x14xf32>\n  }\n}\n\n",
    "transform_wrapped_operation": "module attributes {torch.debug_module_name = \"Net\"} {\nfunc.func private @nanoTime() -> i64 attributes { llvm.emit_c_interface }\nfunc.func private @printFlops(f64)\nfunc.func private @printI64(i64)\nfunc.func private @printNewline()\nfunc.func private @printMemrefF32(tensor<*xf32>)\n\n\nfunc.func @matmul() -> tensor<130x240x150x14xf32>{\n\n%val = arith.constant 2.00000e+00 : f32\n%zero = arith.constant 0.00000e+00 : f32\n\n%tmp_arg0 = bufferization.alloc_tensor() : tensor<130x240x150x14xf32>\n%arg0 = linalg.fill ins(%val : f32) outs(%tmp_arg0 : tensor<130x240x150x14xf32>) -> tensor<130x240x150x14xf32>\n%tmp_arg1 = bufferization.alloc_tensor() : tensor<130x240x150x14xf32>\n%arg1 = linalg.fill ins(%val : f32) outs(%tmp_arg1 : tensor<130x240x150x14xf32>) -> tensor<130x240x150x14xf32>\n%tmp_arg2 = bufferization.alloc_tensor() : tensor<130x240x150x14xf32>\n%arg2 = linalg.fill ins(%val : f32) outs(%tmp_arg2 : tensor<130x240x150x14xf32>) -> tensor<130x240x150x14xf32>\n\n%t0 = func.call @nanoTime() : () -> (i64)\n\n%return_arg = linalg.add ins(%arg0, %arg1: tensor<130x240x150x14xf32>, tensor<130x240x150x14xf32>) outs(%arg2: tensor<130x240x150x14xf32>) -> tensor<130x240x150x14xf32>\n%t = func.call @nanoTime() : () -> (i64)\n%delta = arith.subi %t, %t0 : i64\n%fp = arith.uitofp %delta : i64 to f64\n// func.call @printFlops(%fp) : (f64) -> ()\nfunc.call @printI64(%delta) : (i64) -> ()\nfunc.call @printNewline() : () -> ()\n\nreturn %return_arg : tensor<130x240x150x14xf32> \n}\n\nfunc.func @main(){\n    %c1 = arith.constant 1: index\n    %c0 = arith.constant 0 : index\n    %n = arith.constant 2: index\n    scf.for %i = %c0 to %n step %c1 {\n    %outputmain = func.call @matmul() : () -> tensor<130x240x150x14xf32>\n    }\n    return\n}\n}\n",
    "loops_data": {
      "nested_loops": [
        [
          "%arg3",
          0,
          130,
          1
        ],
        [
          "%arg4",
          0,
          240,
          1
        ],
        [
          "%arg5",
          0,
          150,
          1
        ],
        [
          "%arg6",
          0,
          14,
          1
        ]
      ],
      "op_count": {
        "+": 1,
        "-": 0,
        "*": 0,
        "/": 0,
        "exp": 0
      },
      "load_data": [
        [
          "%arg3",
          "%arg4",
          "%arg5",
          "%arg6"
        ],
        [
          "%arg3",
          "%arg4",
          "%arg5",
          "%arg6"
        ]
      ],
      "store_data": []
    },
    "execution_time": 80145403
  },
  "linalg.add ins(%arg0, %arg1: tensor<56x130x112x240xf32>, tensor<56x130x112x240xf32>) outs(%arg2: tensor<56x130x112x240xf32>) -> tensor<56x130x112x240xf32>": {
    "operation": "linalg.add ins(%arg0, %arg1: tensor<56x130x112x240xf32>, tensor<56x130x112x240xf32>) outs(%arg2: tensor<56x130x112x240xf32>) -> tensor<56x130x112x240xf32>",
    "wrapped_operation": "func.func @func_call(%arg0: tensor<56x130x112x240xf32>, %arg1: tensor<56x130x112x240xf32>, %arg2: tensor<56x130x112x240xf32>) -> tensor<56x130x112x240xf32> {\n  %ret = linalg.add ins(%arg0, %arg1: tensor<56x130x112x240xf32>, tensor<56x130x112x240xf32>) outs(%arg2: tensor<56x130x112x240xf32>) -> tensor<56x130x112x240xf32>\n  return %ret : tensor<56x130x112x240xf32>\n}",
    "lowered_operation": "module {\n  func.func @func_call(%arg0: tensor<56x130x112x240xf32>, %arg1: tensor<56x130x112x240xf32>, %arg2: tensor<56x130x112x240xf32>) -> tensor<56x130x112x240xf32> {\n    %0 = bufferization.to_memref %arg1 : memref<56x130x112x240xf32>\n    %1 = bufferization.to_memref %arg0 : memref<56x130x112x240xf32>\n    %alloc = memref.alloc() {alignment = 64 : i64} : memref<56x130x112x240xf32>\n    affine.for %arg3 = 0 to 56 {\n      affine.for %arg4 = 0 to 130 {\n        affine.for %arg5 = 0 to 112 {\n          affine.for %arg6 = 0 to 240 {\n            %3 = affine.load %1[%arg3, %arg4, %arg5, %arg6] : memref<56x130x112x240xf32>\n            %4 = affine.load %0[%arg3, %arg4, %arg5, %arg6] : memref<56x130x112x240xf32>\n            %5 = arith.addf %3, %4 : f32\n            affine.store %5, %alloc[%arg3, %arg4, %arg5, %arg6] : memref<56x130x112x240xf32>\n          }\n        }\n      }\n    }\n    %2 = bufferization.to_tensor %alloc : memref<56x130x112x240xf32>\n    return %2 : tensor<56x130x112x240xf32>\n  }\n}\n\n",
    "transform_wrapped_operation": "module attributes {torch.debug_module_name = \"Net\"} {\nfunc.func private @nanoTime() -> i64 attributes { llvm.emit_c_interface }\nfunc.func private @printFlops(f64)\nfunc.func private @printI64(i64)\nfunc.func private @printNewline()\nfunc.func private @printMemrefF32(tensor<*xf32>)\n\n\nfunc.func @matmul() -> tensor<56x130x112x240xf32>{\n\n%val = arith.constant 2.00000e+00 : f32\n%zero = arith.constant 0.00000e+00 : f32\n\n%tmp_arg0 = bufferization.alloc_tensor() : tensor<56x130x112x240xf32>\n%arg0 = linalg.fill ins(%val : f32) outs(%tmp_arg0 : tensor<56x130x112x240xf32>) -> tensor<56x130x112x240xf32>\n%tmp_arg1 = bufferization.alloc_tensor() : tensor<56x130x112x240xf32>\n%arg1 = linalg.fill ins(%val : f32) outs(%tmp_arg1 : tensor<56x130x112x240xf32>) -> tensor<56x130x112x240xf32>\n%tmp_arg2 = bufferization.alloc_tensor() : tensor<56x130x112x240xf32>\n%arg2 = linalg.fill ins(%val : f32) outs(%tmp_arg2 : tensor<56x130x112x240xf32>) -> tensor<56x130x112x240xf32>\n\n%t0 = func.call @nanoTime() : () -> (i64)\n\n%return_arg = linalg.add ins(%arg0, %arg1: tensor<56x130x112x240xf32>, tensor<56x130x112x240xf32>) outs(%arg2: tensor<56x130x112x240xf32>) -> tensor<56x130x112x240xf32>\n%t = func.call @nanoTime() : () -> (i64)\n%delta = arith.subi %t, %t0 : i64\n%fp = arith.uitofp %delta : i64 to f64\n// func.call @printFlops(%fp) : (f64) -> ()\nfunc.call @printI64(%delta) : (i64) -> ()\nfunc.call @printNewline() : () -> ()\n\nreturn %return_arg : tensor<56x130x112x240xf32> \n}\n\nfunc.func @main(){\n    %c1 = arith.constant 1: index\n    %c0 = arith.constant 0 : index\n    %n = arith.constant 2: index\n    scf.for %i = %c0 to %n step %c1 {\n    %outputmain = func.call @matmul() : () -> tensor<56x130x112x240xf32>\n    }\n    return\n}\n}\n",
    "loops_data": {
      "nested_loops": [
        [
          "%arg3",
          0,
          56,
          1
        ],
        [
          "%arg4",
          0,
          130,
          1
        ],
        [
          "%arg5",
          0,
          112,
          1
        ],
        [
          "%arg6",
          0,
          240,
          1
        ]
      ],
      "op_count": {
        "+": 1,
        "-": 0,
        "*": 0,
        "/": 0,
        "exp": 0
      },
      "load_data": [
        [
          "%arg3",
          "%arg4",
          "%arg5",
          "%arg6"
        ],
        [
          "%arg3",
          "%arg4",
          "%arg5",
          "%arg6"
        ]
      ],
      "store_data": []
    },
    "execution_time": 235958698
  },
  "linalg.add ins(%arg0, %arg1: tensor<7x15x56x228xf32>, tensor<7x15x56x228xf32>) outs(%arg2: tensor<7x15x56x228xf32>) -> tensor<7x15x56x228xf32>": {
    "operation": "linalg.add ins(%arg0, %arg1: tensor<7x15x56x228xf32>, tensor<7x15x56x228xf32>) outs(%arg2: tensor<7x15x56x228xf32>) -> tensor<7x15x56x228xf32>",
    "wrapped_operation": "func.func @func_call(%arg0: tensor<7x15x56x228xf32>, %arg1: tensor<7x15x56x228xf32>, %arg2: tensor<7x15x56x228xf32>) -> tensor<7x15x56x228xf32> {\n  %ret = linalg.add ins(%arg0, %arg1: tensor<7x15x56x228xf32>, tensor<7x15x56x228xf32>) outs(%arg2: tensor<7x15x56x228xf32>) -> tensor<7x15x56x228xf32>\n  return %ret : tensor<7x15x56x228xf32>\n}",
    "lowered_operation": "module {\n  func.func @func_call(%arg0: tensor<7x15x56x228xf32>, %arg1: tensor<7x15x56x228xf32>, %arg2: tensor<7x15x56x228xf32>) -> tensor<7x15x56x228xf32> {\n    %0 = bufferization.to_memref %arg1 : memref<7x15x56x228xf32>\n    %1 = bufferization.to_memref %arg0 : memref<7x15x56x228xf32>\n    %alloc = memref.alloc() {alignment = 64 : i64} : memref<7x15x56x228xf32>\n    affine.for %arg3 = 0 to 7 {\n      affine.for %arg4 = 0 to 15 {\n        affine.for %arg5 = 0 to 56 {\n          affine.for %arg6 = 0 to 228 {\n            %3 = affine.load %1[%arg3, %arg4, %arg5, %arg6] : memref<7x15x56x228xf32>\n            %4 = affine.load %0[%arg3, %arg4, %arg5, %arg6] : memref<7x15x56x228xf32>\n            %5 = arith.addf %3, %4 : f32\n            affine.store %5, %alloc[%arg3, %arg4, %arg5, %arg6] : memref<7x15x56x228xf32>\n          }\n        }\n      }\n    }\n    %2 = bufferization.to_tensor %alloc : memref<7x15x56x228xf32>\n    return %2 : tensor<7x15x56x228xf32>\n  }\n}\n\n",
    "transform_wrapped_operation": "module attributes {torch.debug_module_name = \"Net\"} {\nfunc.func private @nanoTime() -> i64 attributes { llvm.emit_c_interface }\nfunc.func private @printFlops(f64)\nfunc.func private @printI64(i64)\nfunc.func private @printNewline()\nfunc.func private @printMemrefF32(tensor<*xf32>)\n\n\nfunc.func @matmul() -> tensor<7x15x56x228xf32>{\n\n%val = arith.constant 2.00000e+00 : f32\n%zero = arith.constant 0.00000e+00 : f32\n\n%tmp_arg0 = bufferization.alloc_tensor() : tensor<7x15x56x228xf32>\n%arg0 = linalg.fill ins(%val : f32) outs(%tmp_arg0 : tensor<7x15x56x228xf32>) -> tensor<7x15x56x228xf32>\n%tmp_arg1 = bufferization.alloc_tensor() : tensor<7x15x56x228xf32>\n%arg1 = linalg.fill ins(%val : f32) outs(%tmp_arg1 : tensor<7x15x56x228xf32>) -> tensor<7x15x56x228xf32>\n%tmp_arg2 = bufferization.alloc_tensor() : tensor<7x15x56x228xf32>\n%arg2 = linalg.fill ins(%val : f32) outs(%tmp_arg2 : tensor<7x15x56x228xf32>) -> tensor<7x15x56x228xf32>\n\n%t0 = func.call @nanoTime() : () -> (i64)\n\n%return_arg = linalg.add ins(%arg0, %arg1: tensor<7x15x56x228xf32>, tensor<7x15x56x228xf32>) outs(%arg2: tensor<7x15x56x228xf32>) -> tensor<7x15x56x228xf32>\n%t = func.call @nanoTime() : () -> (i64)\n%delta = arith.subi %t, %t0 : i64\n%fp = arith.uitofp %delta : i64 to f64\n// func.call @printFlops(%fp) : (f64) -> ()\nfunc.call @printI64(%delta) : (i64) -> ()\nfunc.call @printNewline() : () -> ()\n\nreturn %return_arg : tensor<7x15x56x228xf32> \n}\n\nfunc.func @main(){\n    %c1 = arith.constant 1: index\n    %c0 = arith.constant 0 : index\n    %n = arith.constant 2: index\n    scf.for %i = %c0 to %n step %c1 {\n    %outputmain = func.call @matmul() : () -> tensor<7x15x56x228xf32>\n    }\n    return\n}\n}\n",
    "loops_data": {
      "nested_loops": [
        [
          "%arg3",
          0,
          7,
          1
        ],
        [
          "%arg4",
          0,
          15,
          1
        ],
        [
          "%arg5",
          0,
          56,
          1
        ],
        [
          "%arg6",
          0,
          228,
          1
        ]
      ],
      "op_count": {
        "+": 1,
        "-": 0,
        "*": 0,
        "/": 0,
        "exp": 0
      },
      "load_data": [
        [
          "%arg3",
          "%arg4",
          "%arg5",
          "%arg6"
        ],
        [
          "%arg3",
          "%arg4",
          "%arg5",
          "%arg6"
        ]
      ],
      "store_data": []
    },
    "execution_time": 1057996
  },
  "linalg.add ins(%arg0, %arg1: tensor<150x56x56x15xf32>, tensor<150x56x56x15xf32>) outs(%arg2: tensor<150x56x56x15xf32>) -> tensor<150x56x56x15xf32>": {
    "operation": "linalg.add ins(%arg0, %arg1: tensor<150x56x56x15xf32>, tensor<150x56x56x15xf32>) outs(%arg2: tensor<150x56x56x15xf32>) -> tensor<150x56x56x15xf32>",
    "wrapped_operation": "func.func @func_call(%arg0: tensor<150x56x56x15xf32>, %arg1: tensor<150x56x56x15xf32>, %arg2: tensor<150x56x56x15xf32>) -> tensor<150x56x56x15xf32> {\n  %ret = linalg.add ins(%arg0, %arg1: tensor<150x56x56x15xf32>, tensor<150x56x56x15xf32>) outs(%arg2: tensor<150x56x56x15xf32>) -> tensor<150x56x56x15xf32>\n  return %ret : tensor<150x56x56x15xf32>\n}",
    "lowered_operation": "module {\n  func.func @func_call(%arg0: tensor<150x56x56x15xf32>, %arg1: tensor<150x56x56x15xf32>, %arg2: tensor<150x56x56x15xf32>) -> tensor<150x56x56x15xf32> {\n    %0 = bufferization.to_memref %arg1 : memref<150x56x56x15xf32>\n    %1 = bufferization.to_memref %arg0 : memref<150x56x56x15xf32>\n    %alloc = memref.alloc() {alignment = 64 : i64} : memref<150x56x56x15xf32>\n    affine.for %arg3 = 0 to 150 {\n      affine.for %arg4 = 0 to 56 {\n        affine.for %arg5 = 0 to 56 {\n          affine.for %arg6 = 0 to 15 {\n            %3 = affine.load %1[%arg3, %arg4, %arg5, %arg6] : memref<150x56x56x15xf32>\n            %4 = affine.load %0[%arg3, %arg4, %arg5, %arg6] : memref<150x56x56x15xf32>\n            %5 = arith.addf %3, %4 : f32\n            affine.store %5, %alloc[%arg3, %arg4, %arg5, %arg6] : memref<150x56x56x15xf32>\n          }\n        }\n      }\n    }\n    %2 = bufferization.to_tensor %alloc : memref<150x56x56x15xf32>\n    return %2 : tensor<150x56x56x15xf32>\n  }\n}\n\n",
    "transform_wrapped_operation": "module attributes {torch.debug_module_name = \"Net\"} {\nfunc.func private @nanoTime() -> i64 attributes { llvm.emit_c_interface }\nfunc.func private @printFlops(f64)\nfunc.func private @printI64(i64)\nfunc.func private @printNewline()\nfunc.func private @printMemrefF32(tensor<*xf32>)\n\n\nfunc.func @matmul() -> tensor<150x56x56x15xf32>{\n\n%val = arith.constant 2.00000e+00 : f32\n%zero = arith.constant 0.00000e+00 : f32\n\n%tmp_arg0 = bufferization.alloc_tensor() : tensor<150x56x56x15xf32>\n%arg0 = linalg.fill ins(%val : f32) outs(%tmp_arg0 : tensor<150x56x56x15xf32>) -> tensor<150x56x56x15xf32>\n%tmp_arg1 = bufferization.alloc_tensor() : tensor<150x56x56x15xf32>\n%arg1 = linalg.fill ins(%val : f32) outs(%tmp_arg1 : tensor<150x56x56x15xf32>) -> tensor<150x56x56x15xf32>\n%tmp_arg2 = bufferization.alloc_tensor() : tensor<150x56x56x15xf32>\n%arg2 = linalg.fill ins(%val : f32) outs(%tmp_arg2 : tensor<150x56x56x15xf32>) -> tensor<150x56x56x15xf32>\n\n%t0 = func.call @nanoTime() : () -> (i64)\n\n%return_arg = linalg.add ins(%arg0, %arg1: tensor<150x56x56x15xf32>, tensor<150x56x56x15xf32>) outs(%arg2: tensor<150x56x56x15xf32>) -> tensor<150x56x56x15xf32>\n%t = func.call @nanoTime() : () -> (i64)\n%delta = arith.subi %t, %t0 : i64\n%fp = arith.uitofp %delta : i64 to f64\n// func.call @printFlops(%fp) : (f64) -> ()\nfunc.call @printI64(%delta) : (i64) -> ()\nfunc.call @printNewline() : () -> ()\n\nreturn %return_arg : tensor<150x56x56x15xf32> \n}\n\nfunc.func @main(){\n    %c1 = arith.constant 1: index\n    %c0 = arith.constant 0 : index\n    %n = arith.constant 2: index\n    scf.for %i = %c0 to %n step %c1 {\n    %outputmain = func.call @matmul() : () -> tensor<150x56x56x15xf32>\n    }\n    return\n}\n}\n",
    "loops_data": {
      "nested_loops": [
        [
          "%arg3",
          0,
          150,
          1
        ],
        [
          "%arg4",
          0,
          56,
          1
        ],
        [
          "%arg5",
          0,
          56,
          1
        ],
        [
          "%arg6",
          0,
          15,
          1
        ]
      ],
      "op_count": {
        "+": 1,
        "-": 0,
        "*": 0,
        "/": 0,
        "exp": 0
      },
      "load_data": [
        [
          "%arg3",
          "%arg4",
          "%arg5",
          "%arg6"
        ],
        [
          "%arg3",
          "%arg4",
          "%arg5",
          "%arg6"
        ]
      ],
      "store_data": []
    },
    "execution_time": 7830058
  },
  "linalg.add ins(%arg0, %arg1: tensor<240x240x14x14xf32>, tensor<240x240x14x14xf32>) outs(%arg2: tensor<240x240x14x14xf32>) -> tensor<240x240x14x14xf32>": {
    "operation": "linalg.add ins(%arg0, %arg1: tensor<240x240x14x14xf32>, tensor<240x240x14x14xf32>) outs(%arg2: tensor<240x240x14x14xf32>) -> tensor<240x240x14x14xf32>",
    "wrapped_operation": "func.func @func_call(%arg0: tensor<240x240x14x14xf32>, %arg1: tensor<240x240x14x14xf32>, %arg2: tensor<240x240x14x14xf32>) -> tensor<240x240x14x14xf32> {\n  %ret = linalg.add ins(%arg0, %arg1: tensor<240x240x14x14xf32>, tensor<240x240x14x14xf32>) outs(%arg2: tensor<240x240x14x14xf32>) -> tensor<240x240x14x14xf32>\n  return %ret : tensor<240x240x14x14xf32>\n}",
    "lowered_operation": "module {\n  func.func @func_call(%arg0: tensor<240x240x14x14xf32>, %arg1: tensor<240x240x14x14xf32>, %arg2: tensor<240x240x14x14xf32>) -> tensor<240x240x14x14xf32> {\n    %0 = bufferization.to_memref %arg1 : memref<240x240x14x14xf32>\n    %1 = bufferization.to_memref %arg0 : memref<240x240x14x14xf32>\n    %alloc = memref.alloc() {alignment = 64 : i64} : memref<240x240x14x14xf32>\n    affine.for %arg3 = 0 to 240 {\n      affine.for %arg4 = 0 to 240 {\n        affine.for %arg5 = 0 to 14 {\n          affine.for %arg6 = 0 to 14 {\n            %3 = affine.load %1[%arg3, %arg4, %arg5, %arg6] : memref<240x240x14x14xf32>\n            %4 = affine.load %0[%arg3, %arg4, %arg5, %arg6] : memref<240x240x14x14xf32>\n            %5 = arith.addf %3, %4 : f32\n            affine.store %5, %alloc[%arg3, %arg4, %arg5, %arg6] : memref<240x240x14x14xf32>\n          }\n        }\n      }\n    }\n    %2 = bufferization.to_tensor %alloc : memref<240x240x14x14xf32>\n    return %2 : tensor<240x240x14x14xf32>\n  }\n}\n\n",
    "transform_wrapped_operation": "module attributes {torch.debug_module_name = \"Net\"} {\nfunc.func private @nanoTime() -> i64 attributes { llvm.emit_c_interface }\nfunc.func private @printFlops(f64)\nfunc.func private @printI64(i64)\nfunc.func private @printNewline()\nfunc.func private @printMemrefF32(tensor<*xf32>)\n\n\nfunc.func @matmul() -> tensor<240x240x14x14xf32>{\n\n%val = arith.constant 2.00000e+00 : f32\n%zero = arith.constant 0.00000e+00 : f32\n\n%tmp_arg0 = bufferization.alloc_tensor() : tensor<240x240x14x14xf32>\n%arg0 = linalg.fill ins(%val : f32) outs(%tmp_arg0 : tensor<240x240x14x14xf32>) -> tensor<240x240x14x14xf32>\n%tmp_arg1 = bufferization.alloc_tensor() : tensor<240x240x14x14xf32>\n%arg1 = linalg.fill ins(%val : f32) outs(%tmp_arg1 : tensor<240x240x14x14xf32>) -> tensor<240x240x14x14xf32>\n%tmp_arg2 = bufferization.alloc_tensor() : tensor<240x240x14x14xf32>\n%arg2 = linalg.fill ins(%val : f32) outs(%tmp_arg2 : tensor<240x240x14x14xf32>) -> tensor<240x240x14x14xf32>\n\n%t0 = func.call @nanoTime() : () -> (i64)\n\n%return_arg = linalg.add ins(%arg0, %arg1: tensor<240x240x14x14xf32>, tensor<240x240x14x14xf32>) outs(%arg2: tensor<240x240x14x14xf32>) -> tensor<240x240x14x14xf32>\n%t = func.call @nanoTime() : () -> (i64)\n%delta = arith.subi %t, %t0 : i64\n%fp = arith.uitofp %delta : i64 to f64\n// func.call @printFlops(%fp) : (f64) -> ()\nfunc.call @printI64(%delta) : (i64) -> ()\nfunc.call @printNewline() : () -> ()\n\nreturn %return_arg : tensor<240x240x14x14xf32> \n}\n\nfunc.func @main(){\n    %c1 = arith.constant 1: index\n    %c0 = arith.constant 0 : index\n    %n = arith.constant 2: index\n    scf.for %i = %c0 to %n step %c1 {\n    %outputmain = func.call @matmul() : () -> tensor<240x240x14x14xf32>\n    }\n    return\n}\n}\n",
    "loops_data": {
      "nested_loops": [
        [
          "%arg3",
          0,
          240,
          1
        ],
        [
          "%arg4",
          0,
          240,
          1
        ],
        [
          "%arg5",
          0,
          14,
          1
        ],
        [
          "%arg6",
          0,
          14,
          1
        ]
      ],
      "op_count": {
        "+": 1,
        "-": 0,
        "*": 0,
        "/": 0,
        "exp": 0
      },
      "load_data": [
        [
          "%arg3",
          "%arg4",
          "%arg5",
          "%arg6"
        ],
        [
          "%arg3",
          "%arg4",
          "%arg5",
          "%arg6"
        ]
      ],
      "store_data": []
    },
    "execution_time": 14430628
  },
  "linalg.add ins(%arg0, %arg1: tensor<224x7x7x56xf32>, tensor<224x7x7x56xf32>) outs(%arg2: tensor<224x7x7x56xf32>) -> tensor<224x7x7x56xf32>": {
    "operation": "linalg.add ins(%arg0, %arg1: tensor<224x7x7x56xf32>, tensor<224x7x7x56xf32>) outs(%arg2: tensor<224x7x7x56xf32>) -> tensor<224x7x7x56xf32>",
    "wrapped_operation": "func.func @func_call(%arg0: tensor<224x7x7x56xf32>, %arg1: tensor<224x7x7x56xf32>, %arg2: tensor<224x7x7x56xf32>) -> tensor<224x7x7x56xf32> {\n  %ret = linalg.add ins(%arg0, %arg1: tensor<224x7x7x56xf32>, tensor<224x7x7x56xf32>) outs(%arg2: tensor<224x7x7x56xf32>) -> tensor<224x7x7x56xf32>\n  return %ret : tensor<224x7x7x56xf32>\n}",
    "lowered_operation": "module {\n  func.func @func_call(%arg0: tensor<224x7x7x56xf32>, %arg1: tensor<224x7x7x56xf32>, %arg2: tensor<224x7x7x56xf32>) -> tensor<224x7x7x56xf32> {\n    %0 = bufferization.to_memref %arg1 : memref<224x7x7x56xf32>\n    %1 = bufferization.to_memref %arg0 : memref<224x7x7x56xf32>\n    %alloc = memref.alloc() {alignment = 64 : i64} : memref<224x7x7x56xf32>\n    affine.for %arg3 = 0 to 224 {\n      affine.for %arg4 = 0 to 7 {\n        affine.for %arg5 = 0 to 7 {\n          affine.for %arg6 = 0 to 56 {\n            %3 = affine.load %1[%arg3, %arg4, %arg5, %arg6] : memref<224x7x7x56xf32>\n            %4 = affine.load %0[%arg3, %arg4, %arg5, %arg6] : memref<224x7x7x56xf32>\n            %5 = arith.addf %3, %4 : f32\n            affine.store %5, %alloc[%arg3, %arg4, %arg5, %arg6] : memref<224x7x7x56xf32>\n          }\n        }\n      }\n    }\n    %2 = bufferization.to_tensor %alloc : memref<224x7x7x56xf32>\n    return %2 : tensor<224x7x7x56xf32>\n  }\n}\n\n",
    "transform_wrapped_operation": "module attributes {torch.debug_module_name = \"Net\"} {\nfunc.func private @nanoTime() -> i64 attributes { llvm.emit_c_interface }\nfunc.func private @printFlops(f64)\nfunc.func private @printI64(i64)\nfunc.func private @printNewline()\nfunc.func private @printMemrefF32(tensor<*xf32>)\n\n\nfunc.func @matmul() -> tensor<224x7x7x56xf32>{\n\n%val = arith.constant 2.00000e+00 : f32\n%zero = arith.constant 0.00000e+00 : f32\n\n%tmp_arg0 = bufferization.alloc_tensor() : tensor<224x7x7x56xf32>\n%arg0 = linalg.fill ins(%val : f32) outs(%tmp_arg0 : tensor<224x7x7x56xf32>) -> tensor<224x7x7x56xf32>\n%tmp_arg1 = bufferization.alloc_tensor() : tensor<224x7x7x56xf32>\n%arg1 = linalg.fill ins(%val : f32) outs(%tmp_arg1 : tensor<224x7x7x56xf32>) -> tensor<224x7x7x56xf32>\n%tmp_arg2 = bufferization.alloc_tensor() : tensor<224x7x7x56xf32>\n%arg2 = linalg.fill ins(%val : f32) outs(%tmp_arg2 : tensor<224x7x7x56xf32>) -> tensor<224x7x7x56xf32>\n\n%t0 = func.call @nanoTime() : () -> (i64)\n\n%return_arg = linalg.add ins(%arg0, %arg1: tensor<224x7x7x56xf32>, tensor<224x7x7x56xf32>) outs(%arg2: tensor<224x7x7x56xf32>) -> tensor<224x7x7x56xf32>\n%t = func.call @nanoTime() : () -> (i64)\n%delta = arith.subi %t, %t0 : i64\n%fp = arith.uitofp %delta : i64 to f64\n// func.call @printFlops(%fp) : (f64) -> ()\nfunc.call @printI64(%delta) : (i64) -> ()\nfunc.call @printNewline() : () -> ()\n\nreturn %return_arg : tensor<224x7x7x56xf32> \n}\n\nfunc.func @main(){\n    %c1 = arith.constant 1: index\n    %c0 = arith.constant 0 : index\n    %n = arith.constant 2: index\n    scf.for %i = %c0 to %n step %c1 {\n    %outputmain = func.call @matmul() : () -> tensor<224x7x7x56xf32>\n    }\n    return\n}\n}\n",
    "loops_data": {
      "nested_loops": [
        [
          "%arg3",
          0,
          224,
          1
        ],
        [
          "%arg4",
          0,
          7,
          1
        ],
        [
          "%arg5",
          0,
          7,
          1
        ],
        [
          "%arg6",
          0,
          56,
          1
        ]
      ],
      "op_count": {
        "+": 1,
        "-": 0,
        "*": 0,
        "/": 0,
        "exp": 0
      },
      "load_data": [
        [
          "%arg3",
          "%arg4",
          "%arg5",
          "%arg6"
        ],
        [
          "%arg3",
          "%arg4",
          "%arg5",
          "%arg6"
        ]
      ],
      "store_data": []
    },
    "execution_time": 596348
  },
  "linalg.add ins(%arg0, %arg1: tensor<56x150x240x15xf32>, tensor<56x150x240x15xf32>) outs(%arg2: tensor<56x150x240x15xf32>) -> tensor<56x150x240x15xf32>": {
    "operation": "linalg.add ins(%arg0, %arg1: tensor<56x150x240x15xf32>, tensor<56x150x240x15xf32>) outs(%arg2: tensor<56x150x240x15xf32>) -> tensor<56x150x240x15xf32>",
    "wrapped_operation": "func.func @func_call(%arg0: tensor<56x150x240x15xf32>, %arg1: tensor<56x150x240x15xf32>, %arg2: tensor<56x150x240x15xf32>) -> tensor<56x150x240x15xf32> {\n  %ret = linalg.add ins(%arg0, %arg1: tensor<56x150x240x15xf32>, tensor<56x150x240x15xf32>) outs(%arg2: tensor<56x150x240x15xf32>) -> tensor<56x150x240x15xf32>\n  return %ret : tensor<56x150x240x15xf32>\n}",
    "lowered_operation": "module {\n  func.func @func_call(%arg0: tensor<56x150x240x15xf32>, %arg1: tensor<56x150x240x15xf32>, %arg2: tensor<56x150x240x15xf32>) -> tensor<56x150x240x15xf32> {\n    %0 = bufferization.to_memref %arg1 : memref<56x150x240x15xf32>\n    %1 = bufferization.to_memref %arg0 : memref<56x150x240x15xf32>\n    %alloc = memref.alloc() {alignment = 64 : i64} : memref<56x150x240x15xf32>\n    affine.for %arg3 = 0 to 56 {\n      affine.for %arg4 = 0 to 150 {\n        affine.for %arg5 = 0 to 240 {\n          affine.for %arg6 = 0 to 15 {\n            %3 = affine.load %1[%arg3, %arg4, %arg5, %arg6] : memref<56x150x240x15xf32>\n            %4 = affine.load %0[%arg3, %arg4, %arg5, %arg6] : memref<56x150x240x15xf32>\n            %5 = arith.addf %3, %4 : f32\n            affine.store %5, %alloc[%arg3, %arg4, %arg5, %arg6] : memref<56x150x240x15xf32>\n          }\n        }\n      }\n    }\n    %2 = bufferization.to_tensor %alloc : memref<56x150x240x15xf32>\n    return %2 : tensor<56x150x240x15xf32>\n  }\n}\n\n",
    "transform_wrapped_operation": "module attributes {torch.debug_module_name = \"Net\"} {\nfunc.func private @nanoTime() -> i64 attributes { llvm.emit_c_interface }\nfunc.func private @printFlops(f64)\nfunc.func private @printI64(i64)\nfunc.func private @printNewline()\nfunc.func private @printMemrefF32(tensor<*xf32>)\n\n\nfunc.func @matmul() -> tensor<56x150x240x15xf32>{\n\n%val = arith.constant 2.00000e+00 : f32\n%zero = arith.constant 0.00000e+00 : f32\n\n%tmp_arg0 = bufferization.alloc_tensor() : tensor<56x150x240x15xf32>\n%arg0 = linalg.fill ins(%val : f32) outs(%tmp_arg0 : tensor<56x150x240x15xf32>) -> tensor<56x150x240x15xf32>\n%tmp_arg1 = bufferization.alloc_tensor() : tensor<56x150x240x15xf32>\n%arg1 = linalg.fill ins(%val : f32) outs(%tmp_arg1 : tensor<56x150x240x15xf32>) -> tensor<56x150x240x15xf32>\n%tmp_arg2 = bufferization.alloc_tensor() : tensor<56x150x240x15xf32>\n%arg2 = linalg.fill ins(%val : f32) outs(%tmp_arg2 : tensor<56x150x240x15xf32>) -> tensor<56x150x240x15xf32>\n\n%t0 = func.call @nanoTime() : () -> (i64)\n\n%return_arg = linalg.add ins(%arg0, %arg1: tensor<56x150x240x15xf32>, tensor<56x150x240x15xf32>) outs(%arg2: tensor<56x150x240x15xf32>) -> tensor<56x150x240x15xf32>\n%t = func.call @nanoTime() : () -> (i64)\n%delta = arith.subi %t, %t0 : i64\n%fp = arith.uitofp %delta : i64 to f64\n// func.call @printFlops(%fp) : (f64) -> ()\nfunc.call @printI64(%delta) : (i64) -> ()\nfunc.call @printNewline() : () -> ()\n\nreturn %return_arg : tensor<56x150x240x15xf32> \n}\n\nfunc.func @main(){\n    %c1 = arith.constant 1: index\n    %c0 = arith.constant 0 : index\n    %n = arith.constant 2: index\n    scf.for %i = %c0 to %n step %c1 {\n    %outputmain = func.call @matmul() : () -> tensor<56x150x240x15xf32>\n    }\n    return\n}\n}\n",
    "loops_data": {
      "nested_loops": [
        [
          "%arg3",
          0,
          56,
          1
        ],
        [
          "%arg4",
          0,
          150,
          1
        ],
        [
          "%arg5",
          0,
          240,
          1
        ],
        [
          "%arg6",
          0,
          15,
          1
        ]
      ],
      "op_count": {
        "+": 1,
        "-": 0,
        "*": 0,
        "/": 0,
        "exp": 0
      },
      "load_data": [
        [
          "%arg3",
          "%arg4",
          "%arg5",
          "%arg6"
        ],
        [
          "%arg3",
          "%arg4",
          "%arg5",
          "%arg6"
        ]
      ],
      "store_data": []
    },
    "execution_time": 35821378
  },
  "linalg.add ins(%arg0, %arg1: tensor<56x224x240x15xf32>, tensor<56x224x240x15xf32>) outs(%arg2: tensor<56x224x240x15xf32>) -> tensor<56x224x240x15xf32>": {
    "operation": "linalg.add ins(%arg0, %arg1: tensor<56x224x240x15xf32>, tensor<56x224x240x15xf32>) outs(%arg2: tensor<56x224x240x15xf32>) -> tensor<56x224x240x15xf32>",
    "wrapped_operation": "func.func @func_call(%arg0: tensor<56x224x240x15xf32>, %arg1: tensor<56x224x240x15xf32>, %arg2: tensor<56x224x240x15xf32>) -> tensor<56x224x240x15xf32> {\n  %ret = linalg.add ins(%arg0, %arg1: tensor<56x224x240x15xf32>, tensor<56x224x240x15xf32>) outs(%arg2: tensor<56x224x240x15xf32>) -> tensor<56x224x240x15xf32>\n  return %ret : tensor<56x224x240x15xf32>\n}",
    "lowered_operation": "module {\n  func.func @func_call(%arg0: tensor<56x224x240x15xf32>, %arg1: tensor<56x224x240x15xf32>, %arg2: tensor<56x224x240x15xf32>) -> tensor<56x224x240x15xf32> {\n    %0 = bufferization.to_memref %arg1 : memref<56x224x240x15xf32>\n    %1 = bufferization.to_memref %arg0 : memref<56x224x240x15xf32>\n    %alloc = memref.alloc() {alignment = 64 : i64} : memref<56x224x240x15xf32>\n    affine.for %arg3 = 0 to 56 {\n      affine.for %arg4 = 0 to 224 {\n        affine.for %arg5 = 0 to 240 {\n          affine.for %arg6 = 0 to 15 {\n            %3 = affine.load %1[%arg3, %arg4, %arg5, %arg6] : memref<56x224x240x15xf32>\n            %4 = affine.load %0[%arg3, %arg4, %arg5, %arg6] : memref<56x224x240x15xf32>\n            %5 = arith.addf %3, %4 : f32\n            affine.store %5, %alloc[%arg3, %arg4, %arg5, %arg6] : memref<56x224x240x15xf32>\n          }\n        }\n      }\n    }\n    %2 = bufferization.to_tensor %alloc : memref<56x224x240x15xf32>\n    return %2 : tensor<56x224x240x15xf32>\n  }\n}\n\n",
    "transform_wrapped_operation": "module attributes {torch.debug_module_name = \"Net\"} {\nfunc.func private @nanoTime() -> i64 attributes { llvm.emit_c_interface }\nfunc.func private @printFlops(f64)\nfunc.func private @printI64(i64)\nfunc.func private @printNewline()\nfunc.func private @printMemrefF32(tensor<*xf32>)\n\n\nfunc.func @matmul() -> tensor<56x224x240x15xf32>{\n\n%val = arith.constant 2.00000e+00 : f32\n%zero = arith.constant 0.00000e+00 : f32\n\n%tmp_arg0 = bufferization.alloc_tensor() : tensor<56x224x240x15xf32>\n%arg0 = linalg.fill ins(%val : f32) outs(%tmp_arg0 : tensor<56x224x240x15xf32>) -> tensor<56x224x240x15xf32>\n%tmp_arg1 = bufferization.alloc_tensor() : tensor<56x224x240x15xf32>\n%arg1 = linalg.fill ins(%val : f32) outs(%tmp_arg1 : tensor<56x224x240x15xf32>) -> tensor<56x224x240x15xf32>\n%tmp_arg2 = bufferization.alloc_tensor() : tensor<56x224x240x15xf32>\n%arg2 = linalg.fill ins(%val : f32) outs(%tmp_arg2 : tensor<56x224x240x15xf32>) -> tensor<56x224x240x15xf32>\n\n%t0 = func.call @nanoTime() : () -> (i64)\n\n%return_arg = linalg.add ins(%arg0, %arg1: tensor<56x224x240x15xf32>, tensor<56x224x240x15xf32>) outs(%arg2: tensor<56x224x240x15xf32>) -> tensor<56x224x240x15xf32>\n%t = func.call @nanoTime() : () -> (i64)\n%delta = arith.subi %t, %t0 : i64\n%fp = arith.uitofp %delta : i64 to f64\n// func.call @printFlops(%fp) : (f64) -> ()\nfunc.call @printI64(%delta) : (i64) -> ()\nfunc.call @printNewline() : () -> ()\n\nreturn %return_arg : tensor<56x224x240x15xf32> \n}\n\nfunc.func @main(){\n    %c1 = arith.constant 1: index\n    %c0 = arith.constant 0 : index\n    %n = arith.constant 2: index\n    scf.for %i = %c0 to %n step %c1 {\n    %outputmain = func.call @matmul() : () -> tensor<56x224x240x15xf32>\n    }\n    return\n}\n}\n",
    "loops_data": {
      "nested_loops": [
        [
          "%arg3",
          0,
          56,
          1
        ],
        [
          "%arg4",
          0,
          224,
          1
        ],
        [
          "%arg5",
          0,
          240,
          1
        ],
        [
          "%arg6",
          0,
          15,
          1
        ]
      ],
      "op_count": {
        "+": 1,
        "-": 0,
        "*": 0,
        "/": 0,
        "exp": 0
      },
      "load_data": [
        [
          "%arg3",
          "%arg4",
          "%arg5",
          "%arg6"
        ],
        [
          "%arg3",
          "%arg4",
          "%arg5",
          "%arg6"
        ]
      ],
      "store_data": []
    },
    "execution_time": 54211405
  },
  "linalg.add ins(%arg0, %arg1: tensor<120x224x28x150xf32>, tensor<120x224x28x150xf32>) outs(%arg2: tensor<120x224x28x150xf32>) -> tensor<120x224x28x150xf32>": {
    "operation": "linalg.add ins(%arg0, %arg1: tensor<120x224x28x150xf32>, tensor<120x224x28x150xf32>) outs(%arg2: tensor<120x224x28x150xf32>) -> tensor<120x224x28x150xf32>",
    "wrapped_operation": "func.func @func_call(%arg0: tensor<120x224x28x150xf32>, %arg1: tensor<120x224x28x150xf32>, %arg2: tensor<120x224x28x150xf32>) -> tensor<120x224x28x150xf32> {\n  %ret = linalg.add ins(%arg0, %arg1: tensor<120x224x28x150xf32>, tensor<120x224x28x150xf32>) outs(%arg2: tensor<120x224x28x150xf32>) -> tensor<120x224x28x150xf32>\n  return %ret : tensor<120x224x28x150xf32>\n}",
    "lowered_operation": "module {\n  func.func @func_call(%arg0: tensor<120x224x28x150xf32>, %arg1: tensor<120x224x28x150xf32>, %arg2: tensor<120x224x28x150xf32>) -> tensor<120x224x28x150xf32> {\n    %0 = bufferization.to_memref %arg1 : memref<120x224x28x150xf32>\n    %1 = bufferization.to_memref %arg0 : memref<120x224x28x150xf32>\n    %alloc = memref.alloc() {alignment = 64 : i64} : memref<120x224x28x150xf32>\n    affine.for %arg3 = 0 to 120 {\n      affine.for %arg4 = 0 to 224 {\n        affine.for %arg5 = 0 to 28 {\n          affine.for %arg6 = 0 to 150 {\n            %3 = affine.load %1[%arg3, %arg4, %arg5, %arg6] : memref<120x224x28x150xf32>\n            %4 = affine.load %0[%arg3, %arg4, %arg5, %arg6] : memref<120x224x28x150xf32>\n            %5 = arith.addf %3, %4 : f32\n            affine.store %5, %alloc[%arg3, %arg4, %arg5, %arg6] : memref<120x224x28x150xf32>\n          }\n        }\n      }\n    }\n    %2 = bufferization.to_tensor %alloc : memref<120x224x28x150xf32>\n    return %2 : tensor<120x224x28x150xf32>\n  }\n}\n\n",
    "transform_wrapped_operation": "module attributes {torch.debug_module_name = \"Net\"} {\nfunc.func private @nanoTime() -> i64 attributes { llvm.emit_c_interface }\nfunc.func private @printFlops(f64)\nfunc.func private @printI64(i64)\nfunc.func private @printNewline()\nfunc.func private @printMemrefF32(tensor<*xf32>)\n\n\nfunc.func @matmul() -> tensor<120x224x28x150xf32>{\n\n%val = arith.constant 2.00000e+00 : f32\n%zero = arith.constant 0.00000e+00 : f32\n\n%tmp_arg0 = bufferization.alloc_tensor() : tensor<120x224x28x150xf32>\n%arg0 = linalg.fill ins(%val : f32) outs(%tmp_arg0 : tensor<120x224x28x150xf32>) -> tensor<120x224x28x150xf32>\n%tmp_arg1 = bufferization.alloc_tensor() : tensor<120x224x28x150xf32>\n%arg1 = linalg.fill ins(%val : f32) outs(%tmp_arg1 : tensor<120x224x28x150xf32>) -> tensor<120x224x28x150xf32>\n%tmp_arg2 = bufferization.alloc_tensor() : tensor<120x224x28x150xf32>\n%arg2 = linalg.fill ins(%val : f32) outs(%tmp_arg2 : tensor<120x224x28x150xf32>) -> tensor<120x224x28x150xf32>\n\n%t0 = func.call @nanoTime() : () -> (i64)\n\n%return_arg = linalg.add ins(%arg0, %arg1: tensor<120x224x28x150xf32>, tensor<120x224x28x150xf32>) outs(%arg2: tensor<120x224x28x150xf32>) -> tensor<120x224x28x150xf32>\n%t = func.call @nanoTime() : () -> (i64)\n%delta = arith.subi %t, %t0 : i64\n%fp = arith.uitofp %delta : i64 to f64\n// func.call @printFlops(%fp) : (f64) -> ()\nfunc.call @printI64(%delta) : (i64) -> ()\nfunc.call @printNewline() : () -> ()\n\nreturn %return_arg : tensor<120x224x28x150xf32> \n}\n\nfunc.func @main(){\n    %c1 = arith.constant 1: index\n    %c0 = arith.constant 0 : index\n    %n = arith.constant 2: index\n    scf.for %i = %c0 to %n step %c1 {\n    %outputmain = func.call @matmul() : () -> tensor<120x224x28x150xf32>\n    }\n    return\n}\n}\n",
    "loops_data": {
      "nested_loops": [
        [
          "%arg3",
          0,
          120,
          1
        ],
        [
          "%arg4",
          0,
          224,
          1
        ],
        [
          "%arg5",
          0,
          28,
          1
        ],
        [
          "%arg6",
          0,
          150,
          1
        ]
      ],
      "op_count": {
        "+": 1,
        "-": 0,
        "*": 0,
        "/": 0,
        "exp": 0
      },
      "load_data": [
        [
          "%arg3",
          "%arg4",
          "%arg5",
          "%arg6"
        ],
        [
          "%arg3",
          "%arg4",
          "%arg5",
          "%arg6"
        ]
      ],
      "store_data": []
    },
    "execution_time": 137056722
  },
  "linalg.add ins(%arg0, %arg1: tensor<224x112x56x150xf32>, tensor<224x112x56x150xf32>) outs(%arg2: tensor<224x112x56x150xf32>) -> tensor<224x112x56x150xf32>": {
    "operation": "linalg.add ins(%arg0, %arg1: tensor<224x112x56x150xf32>, tensor<224x112x56x150xf32>) outs(%arg2: tensor<224x112x56x150xf32>) -> tensor<224x112x56x150xf32>",
    "wrapped_operation": "func.func @func_call(%arg0: tensor<224x112x56x150xf32>, %arg1: tensor<224x112x56x150xf32>, %arg2: tensor<224x112x56x150xf32>) -> tensor<224x112x56x150xf32> {\n  %ret = linalg.add ins(%arg0, %arg1: tensor<224x112x56x150xf32>, tensor<224x112x56x150xf32>) outs(%arg2: tensor<224x112x56x150xf32>) -> tensor<224x112x56x150xf32>\n  return %ret : tensor<224x112x56x150xf32>\n}",
    "lowered_operation": "module {\n  func.func @func_call(%arg0: tensor<224x112x56x150xf32>, %arg1: tensor<224x112x56x150xf32>, %arg2: tensor<224x112x56x150xf32>) -> tensor<224x112x56x150xf32> {\n    %0 = bufferization.to_memref %arg1 : memref<224x112x56x150xf32>\n    %1 = bufferization.to_memref %arg0 : memref<224x112x56x150xf32>\n    %alloc = memref.alloc() {alignment = 64 : i64} : memref<224x112x56x150xf32>\n    affine.for %arg3 = 0 to 224 {\n      affine.for %arg4 = 0 to 112 {\n        affine.for %arg5 = 0 to 56 {\n          affine.for %arg6 = 0 to 150 {\n            %3 = affine.load %1[%arg3, %arg4, %arg5, %arg6] : memref<224x112x56x150xf32>\n            %4 = affine.load %0[%arg3, %arg4, %arg5, %arg6] : memref<224x112x56x150xf32>\n            %5 = arith.addf %3, %4 : f32\n            affine.store %5, %alloc[%arg3, %arg4, %arg5, %arg6] : memref<224x112x56x150xf32>\n          }\n        }\n      }\n    }\n    %2 = bufferization.to_tensor %alloc : memref<224x112x56x150xf32>\n    return %2 : tensor<224x112x56x150xf32>\n  }\n}\n\n",
    "transform_wrapped_operation": "module attributes {torch.debug_module_name = \"Net\"} {\nfunc.func private @nanoTime() -> i64 attributes { llvm.emit_c_interface }\nfunc.func private @printFlops(f64)\nfunc.func private @printI64(i64)\nfunc.func private @printNewline()\nfunc.func private @printMemrefF32(tensor<*xf32>)\n\n\nfunc.func @matmul() -> tensor<224x112x56x150xf32>{\n\n%val = arith.constant 2.00000e+00 : f32\n%zero = arith.constant 0.00000e+00 : f32\n\n%tmp_arg0 = bufferization.alloc_tensor() : tensor<224x112x56x150xf32>\n%arg0 = linalg.fill ins(%val : f32) outs(%tmp_arg0 : tensor<224x112x56x150xf32>) -> tensor<224x112x56x150xf32>\n%tmp_arg1 = bufferization.alloc_tensor() : tensor<224x112x56x150xf32>\n%arg1 = linalg.fill ins(%val : f32) outs(%tmp_arg1 : tensor<224x112x56x150xf32>) -> tensor<224x112x56x150xf32>\n%tmp_arg2 = bufferization.alloc_tensor() : tensor<224x112x56x150xf32>\n%arg2 = linalg.fill ins(%val : f32) outs(%tmp_arg2 : tensor<224x112x56x150xf32>) -> tensor<224x112x56x150xf32>\n\n%t0 = func.call @nanoTime() : () -> (i64)\n\n%return_arg = linalg.add ins(%arg0, %arg1: tensor<224x112x56x150xf32>, tensor<224x112x56x150xf32>) outs(%arg2: tensor<224x112x56x150xf32>) -> tensor<224x112x56x150xf32>\n%t = func.call @nanoTime() : () -> (i64)\n%delta = arith.subi %t, %t0 : i64\n%fp = arith.uitofp %delta : i64 to f64\n// func.call @printFlops(%fp) : (f64) -> ()\nfunc.call @printI64(%delta) : (i64) -> ()\nfunc.call @printNewline() : () -> ()\n\nreturn %return_arg : tensor<224x112x56x150xf32> \n}\n\nfunc.func @main(){\n    %c1 = arith.constant 1: index\n    %c0 = arith.constant 0 : index\n    %n = arith.constant 2: index\n    scf.for %i = %c0 to %n step %c1 {\n    %outputmain = func.call @matmul() : () -> tensor<224x112x56x150xf32>\n    }\n    return\n}\n}\n",
    "loops_data": {
      "nested_loops": [
        [
          "%arg3",
          0,
          224,
          1
        ],
        [
          "%arg4",
          0,
          112,
          1
        ],
        [
          "%arg5",
          0,
          56,
          1
        ],
        [
          "%arg6",
          0,
          150,
          1
        ]
      ],
      "op_count": {
        "+": 1,
        "-": 0,
        "*": 0,
        "/": 0,
        "exp": 0
      },
      "load_data": [
        [
          "%arg3",
          "%arg4",
          "%arg5",
          "%arg6"
        ],
        [
          "%arg3",
          "%arg4",
          "%arg5",
          "%arg6"
        ]
      ],
      "store_data": []
    },
    "execution_time": 251874543
  },
  "linalg.add ins(%arg0, %arg1: tensor<112x112x15x240xf32>, tensor<112x112x15x240xf32>) outs(%arg2: tensor<112x112x15x240xf32>) -> tensor<112x112x15x240xf32>": {
    "operation": "linalg.add ins(%arg0, %arg1: tensor<112x112x15x240xf32>, tensor<112x112x15x240xf32>) outs(%arg2: tensor<112x112x15x240xf32>) -> tensor<112x112x15x240xf32>",
    "wrapped_operation": "func.func @func_call(%arg0: tensor<112x112x15x240xf32>, %arg1: tensor<112x112x15x240xf32>, %arg2: tensor<112x112x15x240xf32>) -> tensor<112x112x15x240xf32> {\n  %ret = linalg.add ins(%arg0, %arg1: tensor<112x112x15x240xf32>, tensor<112x112x15x240xf32>) outs(%arg2: tensor<112x112x15x240xf32>) -> tensor<112x112x15x240xf32>\n  return %ret : tensor<112x112x15x240xf32>\n}",
    "lowered_operation": "module {\n  func.func @func_call(%arg0: tensor<112x112x15x240xf32>, %arg1: tensor<112x112x15x240xf32>, %arg2: tensor<112x112x15x240xf32>) -> tensor<112x112x15x240xf32> {\n    %0 = bufferization.to_memref %arg1 : memref<112x112x15x240xf32>\n    %1 = bufferization.to_memref %arg0 : memref<112x112x15x240xf32>\n    %alloc = memref.alloc() {alignment = 64 : i64} : memref<112x112x15x240xf32>\n    affine.for %arg3 = 0 to 112 {\n      affine.for %arg4 = 0 to 112 {\n        affine.for %arg5 = 0 to 15 {\n          affine.for %arg6 = 0 to 240 {\n            %3 = affine.load %1[%arg3, %arg4, %arg5, %arg6] : memref<112x112x15x240xf32>\n            %4 = affine.load %0[%arg3, %arg4, %arg5, %arg6] : memref<112x112x15x240xf32>\n            %5 = arith.addf %3, %4 : f32\n            affine.store %5, %alloc[%arg3, %arg4, %arg5, %arg6] : memref<112x112x15x240xf32>\n          }\n        }\n      }\n    }\n    %2 = bufferization.to_tensor %alloc : memref<112x112x15x240xf32>\n    return %2 : tensor<112x112x15x240xf32>\n  }\n}\n\n",
    "transform_wrapped_operation": "module attributes {torch.debug_module_name = \"Net\"} {\nfunc.func private @nanoTime() -> i64 attributes { llvm.emit_c_interface }\nfunc.func private @printFlops(f64)\nfunc.func private @printI64(i64)\nfunc.func private @printNewline()\nfunc.func private @printMemrefF32(tensor<*xf32>)\n\n\nfunc.func @matmul() -> tensor<112x112x15x240xf32>{\n\n%val = arith.constant 2.00000e+00 : f32\n%zero = arith.constant 0.00000e+00 : f32\n\n%tmp_arg0 = bufferization.alloc_tensor() : tensor<112x112x15x240xf32>\n%arg0 = linalg.fill ins(%val : f32) outs(%tmp_arg0 : tensor<112x112x15x240xf32>) -> tensor<112x112x15x240xf32>\n%tmp_arg1 = bufferization.alloc_tensor() : tensor<112x112x15x240xf32>\n%arg1 = linalg.fill ins(%val : f32) outs(%tmp_arg1 : tensor<112x112x15x240xf32>) -> tensor<112x112x15x240xf32>\n%tmp_arg2 = bufferization.alloc_tensor() : tensor<112x112x15x240xf32>\n%arg2 = linalg.fill ins(%val : f32) outs(%tmp_arg2 : tensor<112x112x15x240xf32>) -> tensor<112x112x15x240xf32>\n\n%t0 = func.call @nanoTime() : () -> (i64)\n\n%return_arg = linalg.add ins(%arg0, %arg1: tensor<112x112x15x240xf32>, tensor<112x112x15x240xf32>) outs(%arg2: tensor<112x112x15x240xf32>) -> tensor<112x112x15x240xf32>\n%t = func.call @nanoTime() : () -> (i64)\n%delta = arith.subi %t, %t0 : i64\n%fp = arith.uitofp %delta : i64 to f64\n// func.call @printFlops(%fp) : (f64) -> ()\nfunc.call @printI64(%delta) : (i64) -> ()\nfunc.call @printNewline() : () -> ()\n\nreturn %return_arg : tensor<112x112x15x240xf32> \n}\n\nfunc.func @main(){\n    %c1 = arith.constant 1: index\n    %c0 = arith.constant 0 : index\n    %n = arith.constant 2: index\n    scf.for %i = %c0 to %n step %c1 {\n    %outputmain = func.call @matmul() : () -> tensor<112x112x15x240xf32>\n    }\n    return\n}\n}\n",
    "loops_data": {
      "nested_loops": [
        [
          "%arg3",
          0,
          112,
          1
        ],
        [
          "%arg4",
          0,
          112,
          1
        ],
        [
          "%arg5",
          0,
          15,
          1
        ],
        [
          "%arg6",
          0,
          240,
          1
        ]
      ],
      "op_count": {
        "+": 1,
        "-": 0,
        "*": 0,
        "/": 0,
        "exp": 0
      },
      "load_data": [
        [
          "%arg3",
          "%arg4",
          "%arg5",
          "%arg6"
        ],
        [
          "%arg3",
          "%arg4",
          "%arg5",
          "%arg6"
        ]
      ],
      "store_data": []
    },
    "execution_time": 54677429
  },
  "linalg.add ins(%arg0, %arg1: tensor<28x15x130x228xf32>, tensor<28x15x130x228xf32>) outs(%arg2: tensor<28x15x130x228xf32>) -> tensor<28x15x130x228xf32>": {
    "operation": "linalg.add ins(%arg0, %arg1: tensor<28x15x130x228xf32>, tensor<28x15x130x228xf32>) outs(%arg2: tensor<28x15x130x228xf32>) -> tensor<28x15x130x228xf32>",
    "wrapped_operation": "func.func @func_call(%arg0: tensor<28x15x130x228xf32>, %arg1: tensor<28x15x130x228xf32>, %arg2: tensor<28x15x130x228xf32>) -> tensor<28x15x130x228xf32> {\n  %ret = linalg.add ins(%arg0, %arg1: tensor<28x15x130x228xf32>, tensor<28x15x130x228xf32>) outs(%arg2: tensor<28x15x130x228xf32>) -> tensor<28x15x130x228xf32>\n  return %ret : tensor<28x15x130x228xf32>\n}",
    "lowered_operation": "module {\n  func.func @func_call(%arg0: tensor<28x15x130x228xf32>, %arg1: tensor<28x15x130x228xf32>, %arg2: tensor<28x15x130x228xf32>) -> tensor<28x15x130x228xf32> {\n    %0 = bufferization.to_memref %arg1 : memref<28x15x130x228xf32>\n    %1 = bufferization.to_memref %arg0 : memref<28x15x130x228xf32>\n    %alloc = memref.alloc() {alignment = 64 : i64} : memref<28x15x130x228xf32>\n    affine.for %arg3 = 0 to 28 {\n      affine.for %arg4 = 0 to 15 {\n        affine.for %arg5 = 0 to 130 {\n          affine.for %arg6 = 0 to 228 {\n            %3 = affine.load %1[%arg3, %arg4, %arg5, %arg6] : memref<28x15x130x228xf32>\n            %4 = affine.load %0[%arg3, %arg4, %arg5, %arg6] : memref<28x15x130x228xf32>\n            %5 = arith.addf %3, %4 : f32\n            affine.store %5, %alloc[%arg3, %arg4, %arg5, %arg6] : memref<28x15x130x228xf32>\n          }\n        }\n      }\n    }\n    %2 = bufferization.to_tensor %alloc : memref<28x15x130x228xf32>\n    return %2 : tensor<28x15x130x228xf32>\n  }\n}\n\n",
    "transform_wrapped_operation": "module attributes {torch.debug_module_name = \"Net\"} {\nfunc.func private @nanoTime() -> i64 attributes { llvm.emit_c_interface }\nfunc.func private @printFlops(f64)\nfunc.func private @printI64(i64)\nfunc.func private @printNewline()\nfunc.func private @printMemrefF32(tensor<*xf32>)\n\n\nfunc.func @matmul() -> tensor<28x15x130x228xf32>{\n\n%val = arith.constant 2.00000e+00 : f32\n%zero = arith.constant 0.00000e+00 : f32\n\n%tmp_arg0 = bufferization.alloc_tensor() : tensor<28x15x130x228xf32>\n%arg0 = linalg.fill ins(%val : f32) outs(%tmp_arg0 : tensor<28x15x130x228xf32>) -> tensor<28x15x130x228xf32>\n%tmp_arg1 = bufferization.alloc_tensor() : tensor<28x15x130x228xf32>\n%arg1 = linalg.fill ins(%val : f32) outs(%tmp_arg1 : tensor<28x15x130x228xf32>) -> tensor<28x15x130x228xf32>\n%tmp_arg2 = bufferization.alloc_tensor() : tensor<28x15x130x228xf32>\n%arg2 = linalg.fill ins(%val : f32) outs(%tmp_arg2 : tensor<28x15x130x228xf32>) -> tensor<28x15x130x228xf32>\n\n%t0 = func.call @nanoTime() : () -> (i64)\n\n%return_arg = linalg.add ins(%arg0, %arg1: tensor<28x15x130x228xf32>, tensor<28x15x130x228xf32>) outs(%arg2: tensor<28x15x130x228xf32>) -> tensor<28x15x130x228xf32>\n%t = func.call @nanoTime() : () -> (i64)\n%delta = arith.subi %t, %t0 : i64\n%fp = arith.uitofp %delta : i64 to f64\n// func.call @printFlops(%fp) : (f64) -> ()\nfunc.call @printI64(%delta) : (i64) -> ()\nfunc.call @printNewline() : () -> ()\n\nreturn %return_arg : tensor<28x15x130x228xf32> \n}\n\nfunc.func @main(){\n    %c1 = arith.constant 1: index\n    %c0 = arith.constant 0 : index\n    %n = arith.constant 2: index\n    scf.for %i = %c0 to %n step %c1 {\n    %outputmain = func.call @matmul() : () -> tensor<28x15x130x228xf32>\n    }\n    return\n}\n}\n",
    "loops_data": {
      "nested_loops": [
        [
          "%arg3",
          0,
          28,
          1
        ],
        [
          "%arg4",
          0,
          15,
          1
        ],
        [
          "%arg5",
          0,
          130,
          1
        ],
        [
          "%arg6",
          0,
          228,
          1
        ]
      ],
      "op_count": {
        "+": 1,
        "-": 0,
        "*": 0,
        "/": 0,
        "exp": 0
      },
      "load_data": [
        [
          "%arg3",
          "%arg4",
          "%arg5",
          "%arg6"
        ],
        [
          "%arg3",
          "%arg4",
          "%arg5",
          "%arg6"
        ]
      ],
      "store_data": []
    },
    "execution_time": 15400916
  },
  "linalg.add ins(%arg0, %arg1: tensor<240x228x7x15xf32>, tensor<240x228x7x15xf32>) outs(%arg2: tensor<240x228x7x15xf32>) -> tensor<240x228x7x15xf32>": {
    "operation": "linalg.add ins(%arg0, %arg1: tensor<240x228x7x15xf32>, tensor<240x228x7x15xf32>) outs(%arg2: tensor<240x228x7x15xf32>) -> tensor<240x228x7x15xf32>",
    "wrapped_operation": "func.func @func_call(%arg0: tensor<240x228x7x15xf32>, %arg1: tensor<240x228x7x15xf32>, %arg2: tensor<240x228x7x15xf32>) -> tensor<240x228x7x15xf32> {\n  %ret = linalg.add ins(%arg0, %arg1: tensor<240x228x7x15xf32>, tensor<240x228x7x15xf32>) outs(%arg2: tensor<240x228x7x15xf32>) -> tensor<240x228x7x15xf32>\n  return %ret : tensor<240x228x7x15xf32>\n}",
    "lowered_operation": "module {\n  func.func @func_call(%arg0: tensor<240x228x7x15xf32>, %arg1: tensor<240x228x7x15xf32>, %arg2: tensor<240x228x7x15xf32>) -> tensor<240x228x7x15xf32> {\n    %0 = bufferization.to_memref %arg1 : memref<240x228x7x15xf32>\n    %1 = bufferization.to_memref %arg0 : memref<240x228x7x15xf32>\n    %alloc = memref.alloc() {alignment = 64 : i64} : memref<240x228x7x15xf32>\n    affine.for %arg3 = 0 to 240 {\n      affine.for %arg4 = 0 to 228 {\n        affine.for %arg5 = 0 to 7 {\n          affine.for %arg6 = 0 to 15 {\n            %3 = affine.load %1[%arg3, %arg4, %arg5, %arg6] : memref<240x228x7x15xf32>\n            %4 = affine.load %0[%arg3, %arg4, %arg5, %arg6] : memref<240x228x7x15xf32>\n            %5 = arith.addf %3, %4 : f32\n            affine.store %5, %alloc[%arg3, %arg4, %arg5, %arg6] : memref<240x228x7x15xf32>\n          }\n        }\n      }\n    }\n    %2 = bufferization.to_tensor %alloc : memref<240x228x7x15xf32>\n    return %2 : tensor<240x228x7x15xf32>\n  }\n}\n\n",
    "transform_wrapped_operation": "module attributes {torch.debug_module_name = \"Net\"} {\nfunc.func private @nanoTime() -> i64 attributes { llvm.emit_c_interface }\nfunc.func private @printFlops(f64)\nfunc.func private @printI64(i64)\nfunc.func private @printNewline()\nfunc.func private @printMemrefF32(tensor<*xf32>)\n\n\nfunc.func @matmul() -> tensor<240x228x7x15xf32>{\n\n%val = arith.constant 2.00000e+00 : f32\n%zero = arith.constant 0.00000e+00 : f32\n\n%tmp_arg0 = bufferization.alloc_tensor() : tensor<240x228x7x15xf32>\n%arg0 = linalg.fill ins(%val : f32) outs(%tmp_arg0 : tensor<240x228x7x15xf32>) -> tensor<240x228x7x15xf32>\n%tmp_arg1 = bufferization.alloc_tensor() : tensor<240x228x7x15xf32>\n%arg1 = linalg.fill ins(%val : f32) outs(%tmp_arg1 : tensor<240x228x7x15xf32>) -> tensor<240x228x7x15xf32>\n%tmp_arg2 = bufferization.alloc_tensor() : tensor<240x228x7x15xf32>\n%arg2 = linalg.fill ins(%val : f32) outs(%tmp_arg2 : tensor<240x228x7x15xf32>) -> tensor<240x228x7x15xf32>\n\n%t0 = func.call @nanoTime() : () -> (i64)\n\n%return_arg = linalg.add ins(%arg0, %arg1: tensor<240x228x7x15xf32>, tensor<240x228x7x15xf32>) outs(%arg2: tensor<240x228x7x15xf32>) -> tensor<240x228x7x15xf32>\n%t = func.call @nanoTime() : () -> (i64)\n%delta = arith.subi %t, %t0 : i64\n%fp = arith.uitofp %delta : i64 to f64\n// func.call @printFlops(%fp) : (f64) -> ()\nfunc.call @printI64(%delta) : (i64) -> ()\nfunc.call @printNewline() : () -> ()\n\nreturn %return_arg : tensor<240x228x7x15xf32> \n}\n\nfunc.func @main(){\n    %c1 = arith.constant 1: index\n    %c0 = arith.constant 0 : index\n    %n = arith.constant 2: index\n    scf.for %i = %c0 to %n step %c1 {\n    %outputmain = func.call @matmul() : () -> tensor<240x228x7x15xf32>\n    }\n    return\n}\n}\n",
    "loops_data": {
      "nested_loops": [
        [
          "%arg3",
          0,
          240,
          1
        ],
        [
          "%arg4",
          0,
          228,
          1
        ],
        [
          "%arg5",
          0,
          7,
          1
        ],
        [
          "%arg6",
          0,
          15,
          1
        ]
      ],
      "op_count": {
        "+": 1,
        "-": 0,
        "*": 0,
        "/": 0,
        "exp": 0
      },
      "load_data": [
        [
          "%arg3",
          "%arg4",
          "%arg5",
          "%arg6"
        ],
        [
          "%arg3",
          "%arg4",
          "%arg5",
          "%arg6"
        ]
      ],
      "store_data": []
    },
    "execution_time": 6503936
  },
  "linalg.add ins(%arg0, %arg1: tensor<228x112x14x228xf32>, tensor<228x112x14x228xf32>) outs(%arg2: tensor<228x112x14x228xf32>) -> tensor<228x112x14x228xf32>": {
    "operation": "linalg.add ins(%arg0, %arg1: tensor<228x112x14x228xf32>, tensor<228x112x14x228xf32>) outs(%arg2: tensor<228x112x14x228xf32>) -> tensor<228x112x14x228xf32>",
    "wrapped_operation": "func.func @func_call(%arg0: tensor<228x112x14x228xf32>, %arg1: tensor<228x112x14x228xf32>, %arg2: tensor<228x112x14x228xf32>) -> tensor<228x112x14x228xf32> {\n  %ret = linalg.add ins(%arg0, %arg1: tensor<228x112x14x228xf32>, tensor<228x112x14x228xf32>) outs(%arg2: tensor<228x112x14x228xf32>) -> tensor<228x112x14x228xf32>\n  return %ret : tensor<228x112x14x228xf32>\n}",
    "lowered_operation": "module {\n  func.func @func_call(%arg0: tensor<228x112x14x228xf32>, %arg1: tensor<228x112x14x228xf32>, %arg2: tensor<228x112x14x228xf32>) -> tensor<228x112x14x228xf32> {\n    %0 = bufferization.to_memref %arg1 : memref<228x112x14x228xf32>\n    %1 = bufferization.to_memref %arg0 : memref<228x112x14x228xf32>\n    %alloc = memref.alloc() {alignment = 64 : i64} : memref<228x112x14x228xf32>\n    affine.for %arg3 = 0 to 228 {\n      affine.for %arg4 = 0 to 112 {\n        affine.for %arg5 = 0 to 14 {\n          affine.for %arg6 = 0 to 228 {\n            %3 = affine.load %1[%arg3, %arg4, %arg5, %arg6] : memref<228x112x14x228xf32>\n            %4 = affine.load %0[%arg3, %arg4, %arg5, %arg6] : memref<228x112x14x228xf32>\n            %5 = arith.addf %3, %4 : f32\n            affine.store %5, %alloc[%arg3, %arg4, %arg5, %arg6] : memref<228x112x14x228xf32>\n          }\n        }\n      }\n    }\n    %2 = bufferization.to_tensor %alloc : memref<228x112x14x228xf32>\n    return %2 : tensor<228x112x14x228xf32>\n  }\n}\n\n",
    "transform_wrapped_operation": "module attributes {torch.debug_module_name = \"Net\"} {\nfunc.func private @nanoTime() -> i64 attributes { llvm.emit_c_interface }\nfunc.func private @printFlops(f64)\nfunc.func private @printI64(i64)\nfunc.func private @printNewline()\nfunc.func private @printMemrefF32(tensor<*xf32>)\n\n\nfunc.func @matmul() -> tensor<228x112x14x228xf32>{\n\n%val = arith.constant 2.00000e+00 : f32\n%zero = arith.constant 0.00000e+00 : f32\n\n%tmp_arg0 = bufferization.alloc_tensor() : tensor<228x112x14x228xf32>\n%arg0 = linalg.fill ins(%val : f32) outs(%tmp_arg0 : tensor<228x112x14x228xf32>) -> tensor<228x112x14x228xf32>\n%tmp_arg1 = bufferization.alloc_tensor() : tensor<228x112x14x228xf32>\n%arg1 = linalg.fill ins(%val : f32) outs(%tmp_arg1 : tensor<228x112x14x228xf32>) -> tensor<228x112x14x228xf32>\n%tmp_arg2 = bufferization.alloc_tensor() : tensor<228x112x14x228xf32>\n%arg2 = linalg.fill ins(%val : f32) outs(%tmp_arg2 : tensor<228x112x14x228xf32>) -> tensor<228x112x14x228xf32>\n\n%t0 = func.call @nanoTime() : () -> (i64)\n\n%return_arg = linalg.add ins(%arg0, %arg1: tensor<228x112x14x228xf32>, tensor<228x112x14x228xf32>) outs(%arg2: tensor<228x112x14x228xf32>) -> tensor<228x112x14x228xf32>\n%t = func.call @nanoTime() : () -> (i64)\n%delta = arith.subi %t, %t0 : i64\n%fp = arith.uitofp %delta : i64 to f64\n// func.call @printFlops(%fp) : (f64) -> ()\nfunc.call @printI64(%delta) : (i64) -> ()\nfunc.call @printNewline() : () -> ()\n\nreturn %return_arg : tensor<228x112x14x228xf32> \n}\n\nfunc.func @main(){\n    %c1 = arith.constant 1: index\n    %c0 = arith.constant 0 : index\n    %n = arith.constant 2: index\n    scf.for %i = %c0 to %n step %c1 {\n    %outputmain = func.call @matmul() : () -> tensor<228x112x14x228xf32>\n    }\n    return\n}\n}\n",
    "loops_data": {
      "nested_loops": [
        [
          "%arg3",
          0,
          228,
          1
        ],
        [
          "%arg4",
          0,
          112,
          1
        ],
        [
          "%arg5",
          0,
          14,
          1
        ],
        [
          "%arg6",
          0,
          228,
          1
        ]
      ],
      "op_count": {
        "+": 1,
        "-": 0,
        "*": 0,
        "/": 0,
        "exp": 0
      },
      "load_data": [
        [
          "%arg3",
          "%arg4",
          "%arg5",
          "%arg6"
        ],
        [
          "%arg3",
          "%arg4",
          "%arg5",
          "%arg6"
        ]
      ],
      "store_data": []
    },
    "execution_time": 97955389
  },
  "linalg.add ins(%arg0, %arg1: tensor<14x120x240x120xf32>, tensor<14x120x240x120xf32>) outs(%arg2: tensor<14x120x240x120xf32>) -> tensor<14x120x240x120xf32>": {
    "operation": "linalg.add ins(%arg0, %arg1: tensor<14x120x240x120xf32>, tensor<14x120x240x120xf32>) outs(%arg2: tensor<14x120x240x120xf32>) -> tensor<14x120x240x120xf32>",
    "wrapped_operation": "func.func @func_call(%arg0: tensor<14x120x240x120xf32>, %arg1: tensor<14x120x240x120xf32>, %arg2: tensor<14x120x240x120xf32>) -> tensor<14x120x240x120xf32> {\n  %ret = linalg.add ins(%arg0, %arg1: tensor<14x120x240x120xf32>, tensor<14x120x240x120xf32>) outs(%arg2: tensor<14x120x240x120xf32>) -> tensor<14x120x240x120xf32>\n  return %ret : tensor<14x120x240x120xf32>\n}",
    "lowered_operation": "module {\n  func.func @func_call(%arg0: tensor<14x120x240x120xf32>, %arg1: tensor<14x120x240x120xf32>, %arg2: tensor<14x120x240x120xf32>) -> tensor<14x120x240x120xf32> {\n    %0 = bufferization.to_memref %arg1 : memref<14x120x240x120xf32>\n    %1 = bufferization.to_memref %arg0 : memref<14x120x240x120xf32>\n    %alloc = memref.alloc() {alignment = 64 : i64} : memref<14x120x240x120xf32>\n    affine.for %arg3 = 0 to 14 {\n      affine.for %arg4 = 0 to 120 {\n        affine.for %arg5 = 0 to 240 {\n          affine.for %arg6 = 0 to 120 {\n            %3 = affine.load %1[%arg3, %arg4, %arg5, %arg6] : memref<14x120x240x120xf32>\n            %4 = affine.load %0[%arg3, %arg4, %arg5, %arg6] : memref<14x120x240x120xf32>\n            %5 = arith.addf %3, %4 : f32\n            affine.store %5, %alloc[%arg3, %arg4, %arg5, %arg6] : memref<14x120x240x120xf32>\n          }\n        }\n      }\n    }\n    %2 = bufferization.to_tensor %alloc : memref<14x120x240x120xf32>\n    return %2 : tensor<14x120x240x120xf32>\n  }\n}\n\n",
    "transform_wrapped_operation": "module attributes {torch.debug_module_name = \"Net\"} {\nfunc.func private @nanoTime() -> i64 attributes { llvm.emit_c_interface }\nfunc.func private @printFlops(f64)\nfunc.func private @printI64(i64)\nfunc.func private @printNewline()\nfunc.func private @printMemrefF32(tensor<*xf32>)\n\n\nfunc.func @matmul() -> tensor<14x120x240x120xf32>{\n\n%val = arith.constant 2.00000e+00 : f32\n%zero = arith.constant 0.00000e+00 : f32\n\n%tmp_arg0 = bufferization.alloc_tensor() : tensor<14x120x240x120xf32>\n%arg0 = linalg.fill ins(%val : f32) outs(%tmp_arg0 : tensor<14x120x240x120xf32>) -> tensor<14x120x240x120xf32>\n%tmp_arg1 = bufferization.alloc_tensor() : tensor<14x120x240x120xf32>\n%arg1 = linalg.fill ins(%val : f32) outs(%tmp_arg1 : tensor<14x120x240x120xf32>) -> tensor<14x120x240x120xf32>\n%tmp_arg2 = bufferization.alloc_tensor() : tensor<14x120x240x120xf32>\n%arg2 = linalg.fill ins(%val : f32) outs(%tmp_arg2 : tensor<14x120x240x120xf32>) -> tensor<14x120x240x120xf32>\n\n%t0 = func.call @nanoTime() : () -> (i64)\n\n%return_arg = linalg.add ins(%arg0, %arg1: tensor<14x120x240x120xf32>, tensor<14x120x240x120xf32>) outs(%arg2: tensor<14x120x240x120xf32>) -> tensor<14x120x240x120xf32>\n%t = func.call @nanoTime() : () -> (i64)\n%delta = arith.subi %t, %t0 : i64\n%fp = arith.uitofp %delta : i64 to f64\n// func.call @printFlops(%fp) : (f64) -> ()\nfunc.call @printI64(%delta) : (i64) -> ()\nfunc.call @printNewline() : () -> ()\n\nreturn %return_arg : tensor<14x120x240x120xf32> \n}\n\nfunc.func @main(){\n    %c1 = arith.constant 1: index\n    %c0 = arith.constant 0 : index\n    %n = arith.constant 2: index\n    scf.for %i = %c0 to %n step %c1 {\n    %outputmain = func.call @matmul() : () -> tensor<14x120x240x120xf32>\n    }\n    return\n}\n}\n",
    "loops_data": {
      "nested_loops": [
        [
          "%arg3",
          0,
          14,
          1
        ],
        [
          "%arg4",
          0,
          120,
          1
        ],
        [
          "%arg5",
          0,
          240,
          1
        ],
        [
          "%arg6",
          0,
          120,
          1
        ]
      ],
      "op_count": {
        "+": 1,
        "-": 0,
        "*": 0,
        "/": 0,
        "exp": 0
      },
      "load_data": [
        [
          "%arg3",
          "%arg4",
          "%arg5",
          "%arg6"
        ],
        [
          "%arg3",
          "%arg4",
          "%arg5",
          "%arg6"
        ]
      ],
      "store_data": []
    },
    "execution_time": 58048558
  },
  "linalg.add ins(%arg0, %arg1: tensor<15x14x15x150xf32>, tensor<15x14x15x150xf32>) outs(%arg2: tensor<15x14x15x150xf32>) -> tensor<15x14x15x150xf32>": {
    "operation": "linalg.add ins(%arg0, %arg1: tensor<15x14x15x150xf32>, tensor<15x14x15x150xf32>) outs(%arg2: tensor<15x14x15x150xf32>) -> tensor<15x14x15x150xf32>",
    "wrapped_operation": "func.func @func_call(%arg0: tensor<15x14x15x150xf32>, %arg1: tensor<15x14x15x150xf32>, %arg2: tensor<15x14x15x150xf32>) -> tensor<15x14x15x150xf32> {\n  %ret = linalg.add ins(%arg0, %arg1: tensor<15x14x15x150xf32>, tensor<15x14x15x150xf32>) outs(%arg2: tensor<15x14x15x150xf32>) -> tensor<15x14x15x150xf32>\n  return %ret : tensor<15x14x15x150xf32>\n}",
    "lowered_operation": "module {\n  func.func @func_call(%arg0: tensor<15x14x15x150xf32>, %arg1: tensor<15x14x15x150xf32>, %arg2: tensor<15x14x15x150xf32>) -> tensor<15x14x15x150xf32> {\n    %0 = bufferization.to_memref %arg1 : memref<15x14x15x150xf32>\n    %1 = bufferization.to_memref %arg0 : memref<15x14x15x150xf32>\n    %alloc = memref.alloc() {alignment = 64 : i64} : memref<15x14x15x150xf32>\n    affine.for %arg3 = 0 to 15 {\n      affine.for %arg4 = 0 to 14 {\n        affine.for %arg5 = 0 to 15 {\n          affine.for %arg6 = 0 to 150 {\n            %3 = affine.load %1[%arg3, %arg4, %arg5, %arg6] : memref<15x14x15x150xf32>\n            %4 = affine.load %0[%arg3, %arg4, %arg5, %arg6] : memref<15x14x15x150xf32>\n            %5 = arith.addf %3, %4 : f32\n            affine.store %5, %alloc[%arg3, %arg4, %arg5, %arg6] : memref<15x14x15x150xf32>\n          }\n        }\n      }\n    }\n    %2 = bufferization.to_tensor %alloc : memref<15x14x15x150xf32>\n    return %2 : tensor<15x14x15x150xf32>\n  }\n}\n\n",
    "transform_wrapped_operation": "module attributes {torch.debug_module_name = \"Net\"} {\nfunc.func private @nanoTime() -> i64 attributes { llvm.emit_c_interface }\nfunc.func private @printFlops(f64)\nfunc.func private @printI64(i64)\nfunc.func private @printNewline()\nfunc.func private @printMemrefF32(tensor<*xf32>)\n\n\nfunc.func @matmul() -> tensor<15x14x15x150xf32>{\n\n%val = arith.constant 2.00000e+00 : f32\n%zero = arith.constant 0.00000e+00 : f32\n\n%tmp_arg0 = bufferization.alloc_tensor() : tensor<15x14x15x150xf32>\n%arg0 = linalg.fill ins(%val : f32) outs(%tmp_arg0 : tensor<15x14x15x150xf32>) -> tensor<15x14x15x150xf32>\n%tmp_arg1 = bufferization.alloc_tensor() : tensor<15x14x15x150xf32>\n%arg1 = linalg.fill ins(%val : f32) outs(%tmp_arg1 : tensor<15x14x15x150xf32>) -> tensor<15x14x15x150xf32>\n%tmp_arg2 = bufferization.alloc_tensor() : tensor<15x14x15x150xf32>\n%arg2 = linalg.fill ins(%val : f32) outs(%tmp_arg2 : tensor<15x14x15x150xf32>) -> tensor<15x14x15x150xf32>\n\n%t0 = func.call @nanoTime() : () -> (i64)\n\n%return_arg = linalg.add ins(%arg0, %arg1: tensor<15x14x15x150xf32>, tensor<15x14x15x150xf32>) outs(%arg2: tensor<15x14x15x150xf32>) -> tensor<15x14x15x150xf32>\n%t = func.call @nanoTime() : () -> (i64)\n%delta = arith.subi %t, %t0 : i64\n%fp = arith.uitofp %delta : i64 to f64\n// func.call @printFlops(%fp) : (f64) -> ()\nfunc.call @printI64(%delta) : (i64) -> ()\nfunc.call @printNewline() : () -> ()\n\nreturn %return_arg : tensor<15x14x15x150xf32> \n}\n\nfunc.func @main(){\n    %c1 = arith.constant 1: index\n    %c0 = arith.constant 0 : index\n    %n = arith.constant 2: index\n    scf.for %i = %c0 to %n step %c1 {\n    %outputmain = func.call @matmul() : () -> tensor<15x14x15x150xf32>\n    }\n    return\n}\n}\n",
    "loops_data": {
      "nested_loops": [
        [
          "%arg3",
          0,
          15,
          1
        ],
        [
          "%arg4",
          0,
          14,
          1
        ],
        [
          "%arg5",
          0,
          15,
          1
        ],
        [
          "%arg6",
          0,
          150,
          1
        ]
      ],
      "op_count": {
        "+": 1,
        "-": 0,
        "*": 0,
        "/": 0,
        "exp": 0
      },
      "load_data": [
        [
          "%arg3",
          "%arg4",
          "%arg5",
          "%arg6"
        ],
        [
          "%arg3",
          "%arg4",
          "%arg5",
          "%arg6"
        ]
      ],
      "store_data": []
    },
    "execution_time": 387390
  },
  "linalg.add ins(%arg0, %arg1: tensor<228x15x120x112xf32>, tensor<228x15x120x112xf32>) outs(%arg2: tensor<228x15x120x112xf32>) -> tensor<228x15x120x112xf32>": {
    "operation": "linalg.add ins(%arg0, %arg1: tensor<228x15x120x112xf32>, tensor<228x15x120x112xf32>) outs(%arg2: tensor<228x15x120x112xf32>) -> tensor<228x15x120x112xf32>",
    "wrapped_operation": "func.func @func_call(%arg0: tensor<228x15x120x112xf32>, %arg1: tensor<228x15x120x112xf32>, %arg2: tensor<228x15x120x112xf32>) -> tensor<228x15x120x112xf32> {\n  %ret = linalg.add ins(%arg0, %arg1: tensor<228x15x120x112xf32>, tensor<228x15x120x112xf32>) outs(%arg2: tensor<228x15x120x112xf32>) -> tensor<228x15x120x112xf32>\n  return %ret : tensor<228x15x120x112xf32>\n}",
    "lowered_operation": "module {\n  func.func @func_call(%arg0: tensor<228x15x120x112xf32>, %arg1: tensor<228x15x120x112xf32>, %arg2: tensor<228x15x120x112xf32>) -> tensor<228x15x120x112xf32> {\n    %0 = bufferization.to_memref %arg1 : memref<228x15x120x112xf32>\n    %1 = bufferization.to_memref %arg0 : memref<228x15x120x112xf32>\n    %alloc = memref.alloc() {alignment = 64 : i64} : memref<228x15x120x112xf32>\n    affine.for %arg3 = 0 to 228 {\n      affine.for %arg4 = 0 to 15 {\n        affine.for %arg5 = 0 to 120 {\n          affine.for %arg6 = 0 to 112 {\n            %3 = affine.load %1[%arg3, %arg4, %arg5, %arg6] : memref<228x15x120x112xf32>\n            %4 = affine.load %0[%arg3, %arg4, %arg5, %arg6] : memref<228x15x120x112xf32>\n            %5 = arith.addf %3, %4 : f32\n            affine.store %5, %alloc[%arg3, %arg4, %arg5, %arg6] : memref<228x15x120x112xf32>\n          }\n        }\n      }\n    }\n    %2 = bufferization.to_tensor %alloc : memref<228x15x120x112xf32>\n    return %2 : tensor<228x15x120x112xf32>\n  }\n}\n\n",
    "transform_wrapped_operation": "module attributes {torch.debug_module_name = \"Net\"} {\nfunc.func private @nanoTime() -> i64 attributes { llvm.emit_c_interface }\nfunc.func private @printFlops(f64)\nfunc.func private @printI64(i64)\nfunc.func private @printNewline()\nfunc.func private @printMemrefF32(tensor<*xf32>)\n\n\nfunc.func @matmul() -> tensor<228x15x120x112xf32>{\n\n%val = arith.constant 2.00000e+00 : f32\n%zero = arith.constant 0.00000e+00 : f32\n\n%tmp_arg0 = bufferization.alloc_tensor() : tensor<228x15x120x112xf32>\n%arg0 = linalg.fill ins(%val : f32) outs(%tmp_arg0 : tensor<228x15x120x112xf32>) -> tensor<228x15x120x112xf32>\n%tmp_arg1 = bufferization.alloc_tensor() : tensor<228x15x120x112xf32>\n%arg1 = linalg.fill ins(%val : f32) outs(%tmp_arg1 : tensor<228x15x120x112xf32>) -> tensor<228x15x120x112xf32>\n%tmp_arg2 = bufferization.alloc_tensor() : tensor<228x15x120x112xf32>\n%arg2 = linalg.fill ins(%val : f32) outs(%tmp_arg2 : tensor<228x15x120x112xf32>) -> tensor<228x15x120x112xf32>\n\n%t0 = func.call @nanoTime() : () -> (i64)\n\n%return_arg = linalg.add ins(%arg0, %arg1: tensor<228x15x120x112xf32>, tensor<228x15x120x112xf32>) outs(%arg2: tensor<228x15x120x112xf32>) -> tensor<228x15x120x112xf32>\n%t = func.call @nanoTime() : () -> (i64)\n%delta = arith.subi %t, %t0 : i64\n%fp = arith.uitofp %delta : i64 to f64\n// func.call @printFlops(%fp) : (f64) -> ()\nfunc.call @printI64(%delta) : (i64) -> ()\nfunc.call @printNewline() : () -> ()\n\nreturn %return_arg : tensor<228x15x120x112xf32> \n}\n\nfunc.func @main(){\n    %c1 = arith.constant 1: index\n    %c0 = arith.constant 0 : index\n    %n = arith.constant 2: index\n    scf.for %i = %c0 to %n step %c1 {\n    %outputmain = func.call @matmul() : () -> tensor<228x15x120x112xf32>\n    }\n    return\n}\n}\n",
    "loops_data": {
      "nested_loops": [
        [
          "%arg3",
          0,
          228,
          1
        ],
        [
          "%arg4",
          0,
          15,
          1
        ],
        [
          "%arg5",
          0,
          120,
          1
        ],
        [
          "%arg6",
          0,
          112,
          1
        ]
      ],
      "op_count": {
        "+": 1,
        "-": 0,
        "*": 0,
        "/": 0,
        "exp": 0
      },
      "load_data": [
        [
          "%arg3",
          "%arg4",
          "%arg5",
          "%arg6"
        ],
        [
          "%arg3",
          "%arg4",
          "%arg5",
          "%arg6"
        ]
      ],
      "store_data": []
    },
    "execution_time": 56750911
  },
  "linalg.add ins(%arg0, %arg1: tensor<130x15x130x228xf32>, tensor<130x15x130x228xf32>) outs(%arg2: tensor<130x15x130x228xf32>) -> tensor<130x15x130x228xf32>": {
    "operation": "linalg.add ins(%arg0, %arg1: tensor<130x15x130x228xf32>, tensor<130x15x130x228xf32>) outs(%arg2: tensor<130x15x130x228xf32>) -> tensor<130x15x130x228xf32>",
    "wrapped_operation": "func.func @func_call(%arg0: tensor<130x15x130x228xf32>, %arg1: tensor<130x15x130x228xf32>, %arg2: tensor<130x15x130x228xf32>) -> tensor<130x15x130x228xf32> {\n  %ret = linalg.add ins(%arg0, %arg1: tensor<130x15x130x228xf32>, tensor<130x15x130x228xf32>) outs(%arg2: tensor<130x15x130x228xf32>) -> tensor<130x15x130x228xf32>\n  return %ret : tensor<130x15x130x228xf32>\n}",
    "lowered_operation": "module {\n  func.func @func_call(%arg0: tensor<130x15x130x228xf32>, %arg1: tensor<130x15x130x228xf32>, %arg2: tensor<130x15x130x228xf32>) -> tensor<130x15x130x228xf32> {\n    %0 = bufferization.to_memref %arg1 : memref<130x15x130x228xf32>\n    %1 = bufferization.to_memref %arg0 : memref<130x15x130x228xf32>\n    %alloc = memref.alloc() {alignment = 64 : i64} : memref<130x15x130x228xf32>\n    affine.for %arg3 = 0 to 130 {\n      affine.for %arg4 = 0 to 15 {\n        affine.for %arg5 = 0 to 130 {\n          affine.for %arg6 = 0 to 228 {\n            %3 = affine.load %1[%arg3, %arg4, %arg5, %arg6] : memref<130x15x130x228xf32>\n            %4 = affine.load %0[%arg3, %arg4, %arg5, %arg6] : memref<130x15x130x228xf32>\n            %5 = arith.addf %3, %4 : f32\n            affine.store %5, %alloc[%arg3, %arg4, %arg5, %arg6] : memref<130x15x130x228xf32>\n          }\n        }\n      }\n    }\n    %2 = bufferization.to_tensor %alloc : memref<130x15x130x228xf32>\n    return %2 : tensor<130x15x130x228xf32>\n  }\n}\n\n",
    "transform_wrapped_operation": "module attributes {torch.debug_module_name = \"Net\"} {\nfunc.func private @nanoTime() -> i64 attributes { llvm.emit_c_interface }\nfunc.func private @printFlops(f64)\nfunc.func private @printI64(i64)\nfunc.func private @printNewline()\nfunc.func private @printMemrefF32(tensor<*xf32>)\n\n\nfunc.func @matmul() -> tensor<130x15x130x228xf32>{\n\n%val = arith.constant 2.00000e+00 : f32\n%zero = arith.constant 0.00000e+00 : f32\n\n%tmp_arg0 = bufferization.alloc_tensor() : tensor<130x15x130x228xf32>\n%arg0 = linalg.fill ins(%val : f32) outs(%tmp_arg0 : tensor<130x15x130x228xf32>) -> tensor<130x15x130x228xf32>\n%tmp_arg1 = bufferization.alloc_tensor() : tensor<130x15x130x228xf32>\n%arg1 = linalg.fill ins(%val : f32) outs(%tmp_arg1 : tensor<130x15x130x228xf32>) -> tensor<130x15x130x228xf32>\n%tmp_arg2 = bufferization.alloc_tensor() : tensor<130x15x130x228xf32>\n%arg2 = linalg.fill ins(%val : f32) outs(%tmp_arg2 : tensor<130x15x130x228xf32>) -> tensor<130x15x130x228xf32>\n\n%t0 = func.call @nanoTime() : () -> (i64)\n\n%return_arg = linalg.add ins(%arg0, %arg1: tensor<130x15x130x228xf32>, tensor<130x15x130x228xf32>) outs(%arg2: tensor<130x15x130x228xf32>) -> tensor<130x15x130x228xf32>\n%t = func.call @nanoTime() : () -> (i64)\n%delta = arith.subi %t, %t0 : i64\n%fp = arith.uitofp %delta : i64 to f64\n// func.call @printFlops(%fp) : (f64) -> ()\nfunc.call @printI64(%delta) : (i64) -> ()\nfunc.call @printNewline() : () -> ()\n\nreturn %return_arg : tensor<130x15x130x228xf32> \n}\n\nfunc.func @main(){\n    %c1 = arith.constant 1: index\n    %c0 = arith.constant 0 : index\n    %n = arith.constant 2: index\n    scf.for %i = %c0 to %n step %c1 {\n    %outputmain = func.call @matmul() : () -> tensor<130x15x130x228xf32>\n    }\n    return\n}\n}\n",
    "loops_data": {
      "nested_loops": [
        [
          "%arg3",
          0,
          130,
          1
        ],
        [
          "%arg4",
          0,
          15,
          1
        ],
        [
          "%arg5",
          0,
          130,
          1
        ],
        [
          "%arg6",
          0,
          228,
          1
        ]
      ],
      "op_count": {
        "+": 1,
        "-": 0,
        "*": 0,
        "/": 0,
        "exp": 0
      },
      "load_data": [
        [
          "%arg3",
          "%arg4",
          "%arg5",
          "%arg6"
        ],
        [
          "%arg3",
          "%arg4",
          "%arg5",
          "%arg6"
        ]
      ],
      "store_data": []
    },
    "execution_time": 68789015
  },
  "linalg.add ins(%arg0, %arg1: tensor<28x240x15x14xf32>, tensor<28x240x15x14xf32>) outs(%arg2: tensor<28x240x15x14xf32>) -> tensor<28x240x15x14xf32>": {
    "operation": "linalg.add ins(%arg0, %arg1: tensor<28x240x15x14xf32>, tensor<28x240x15x14xf32>) outs(%arg2: tensor<28x240x15x14xf32>) -> tensor<28x240x15x14xf32>",
    "wrapped_operation": "func.func @func_call(%arg0: tensor<28x240x15x14xf32>, %arg1: tensor<28x240x15x14xf32>, %arg2: tensor<28x240x15x14xf32>) -> tensor<28x240x15x14xf32> {\n  %ret = linalg.add ins(%arg0, %arg1: tensor<28x240x15x14xf32>, tensor<28x240x15x14xf32>) outs(%arg2: tensor<28x240x15x14xf32>) -> tensor<28x240x15x14xf32>\n  return %ret : tensor<28x240x15x14xf32>\n}",
    "lowered_operation": "module {\n  func.func @func_call(%arg0: tensor<28x240x15x14xf32>, %arg1: tensor<28x240x15x14xf32>, %arg2: tensor<28x240x15x14xf32>) -> tensor<28x240x15x14xf32> {\n    %0 = bufferization.to_memref %arg1 : memref<28x240x15x14xf32>\n    %1 = bufferization.to_memref %arg0 : memref<28x240x15x14xf32>\n    %alloc = memref.alloc() {alignment = 64 : i64} : memref<28x240x15x14xf32>\n    affine.for %arg3 = 0 to 28 {\n      affine.for %arg4 = 0 to 240 {\n        affine.for %arg5 = 0 to 15 {\n          affine.for %arg6 = 0 to 14 {\n            %3 = affine.load %1[%arg3, %arg4, %arg5, %arg6] : memref<28x240x15x14xf32>\n            %4 = affine.load %0[%arg3, %arg4, %arg5, %arg6] : memref<28x240x15x14xf32>\n            %5 = arith.addf %3, %4 : f32\n            affine.store %5, %alloc[%arg3, %arg4, %arg5, %arg6] : memref<28x240x15x14xf32>\n          }\n        }\n      }\n    }\n    %2 = bufferization.to_tensor %alloc : memref<28x240x15x14xf32>\n    return %2 : tensor<28x240x15x14xf32>\n  }\n}\n\n",
    "transform_wrapped_operation": "module attributes {torch.debug_module_name = \"Net\"} {\nfunc.func private @nanoTime() -> i64 attributes { llvm.emit_c_interface }\nfunc.func private @printFlops(f64)\nfunc.func private @printI64(i64)\nfunc.func private @printNewline()\nfunc.func private @printMemrefF32(tensor<*xf32>)\n\n\nfunc.func @matmul() -> tensor<28x240x15x14xf32>{\n\n%val = arith.constant 2.00000e+00 : f32\n%zero = arith.constant 0.00000e+00 : f32\n\n%tmp_arg0 = bufferization.alloc_tensor() : tensor<28x240x15x14xf32>\n%arg0 = linalg.fill ins(%val : f32) outs(%tmp_arg0 : tensor<28x240x15x14xf32>) -> tensor<28x240x15x14xf32>\n%tmp_arg1 = bufferization.alloc_tensor() : tensor<28x240x15x14xf32>\n%arg1 = linalg.fill ins(%val : f32) outs(%tmp_arg1 : tensor<28x240x15x14xf32>) -> tensor<28x240x15x14xf32>\n%tmp_arg2 = bufferization.alloc_tensor() : tensor<28x240x15x14xf32>\n%arg2 = linalg.fill ins(%val : f32) outs(%tmp_arg2 : tensor<28x240x15x14xf32>) -> tensor<28x240x15x14xf32>\n\n%t0 = func.call @nanoTime() : () -> (i64)\n\n%return_arg = linalg.add ins(%arg0, %arg1: tensor<28x240x15x14xf32>, tensor<28x240x15x14xf32>) outs(%arg2: tensor<28x240x15x14xf32>) -> tensor<28x240x15x14xf32>\n%t = func.call @nanoTime() : () -> (i64)\n%delta = arith.subi %t, %t0 : i64\n%fp = arith.uitofp %delta : i64 to f64\n// func.call @printFlops(%fp) : (f64) -> ()\nfunc.call @printI64(%delta) : (i64) -> ()\nfunc.call @printNewline() : () -> ()\n\nreturn %return_arg : tensor<28x240x15x14xf32> \n}\n\nfunc.func @main(){\n    %c1 = arith.constant 1: index\n    %c0 = arith.constant 0 : index\n    %n = arith.constant 2: index\n    scf.for %i = %c0 to %n step %c1 {\n    %outputmain = func.call @matmul() : () -> tensor<28x240x15x14xf32>\n    }\n    return\n}\n}\n",
    "loops_data": {
      "nested_loops": [
        [
          "%arg3",
          0,
          28,
          1
        ],
        [
          "%arg4",
          0,
          240,
          1
        ],
        [
          "%arg5",
          0,
          15,
          1
…
        ],
        [
          "%arg4",
          0,
          224,
          1
        ],
        [
          "%arg5",
          0,
          224,
          1
        ]
      ],
      "op_count": {
        "+": 0,
        "-": 0,
        "*": 0,
        "/": 0,
        "exp": 0
      },
      "load_data": [
        [
          "%c0",
          "%arg3",
          "%arg4",
          "%arg5"
        ]
      ],
      "store_data": []
    },
    "execution_time": 3001118954
  },
  "linalg.generic {indexing_maps = [#map2, #map], iterator_types = [\"parallel\", \"parallel\", \"parallel\", \"parallel\"]} ins(%28 : tensor<128x48x130x130xf32>) outs(%25 : tensor<128x48x130x130xf32>) {\n            ^bb0(%in: f32, %out: f32):\n            %cst_1 = arith.constant 0.000000e+00 : f32\n            %90 = arith.cmpf ugt, %in, %cst_1 : f32\n            %91 = arith.select %90, %in, %cst_1 : f32\n            linalg.yield %91 : f32\n        } -> tensor<128x48x130x130xf32>": {
    "operation": "linalg.generic {indexing_maps = [#map2, #map], iterator_types = [\"parallel\", \"parallel\", \"parallel\", \"parallel\"]} ins(%28 : tensor<128x48x130x130xf32>) outs(%25 : tensor<128x48x130x130xf32>) {\n            ^bb0(%in: f32, %out: f32):\n            %cst_1 = arith.constant 0.000000e+00 : f32\n            %90 = arith.cmpf ugt, %in, %cst_1 : f32\n            %91 = arith.select %90, %in, %cst_1 : f32\n            linalg.yield %91 : f32\n        } -> tensor<128x48x130x130xf32>",
    "wrapped_operation": "#map = affine_map<(d0, d1, d2, d3) -> (d0, d1, d2, d3)>\n        #map2 = affine_map<(d0, d1, d2, d3) -> (0, d1, d2, d3)>\nfunc.func @func_call(%28: tensor<128x48x130x130xf32>, %25: tensor<128x48x130x130xf32>) -> tensor<128x48x130x130xf32> {\n  %ret = linalg.generic {indexing_maps = [#map2, #map], iterator_types = [\"parallel\", \"parallel\", \"parallel\", \"parallel\"]} ins(%28 : tensor<128x48x130x130xf32>) outs(%25 : tensor<128x48x130x130xf32>) {\n            ^bb0(%in: f32, %out: f32):\n            %cst_1 = arith.constant 0.000000e+00 : f32\n            %90 = arith.cmpf ugt, %in, %cst_1 : f32\n            %91 = arith.select %90, %in, %cst_1 : f32\n            linalg.yield %91 : f32\n        } -> tensor<128x48x130x130xf32>\n  return %ret : tensor<128x48x130x130xf32>\n}",
    "lowered_operation": "module {\n  func.func @func_call(%arg0: tensor<128x48x130x130xf32>, %arg1: tensor<128x48x130x130xf32>) -> tensor<128x48x130x130xf32> {\n    %c0 = arith.constant 0 : index\n    %cst = arith.constant 0.000000e+00 : f32\n    %0 = bufferization.to_memref %arg0 : memref<128x48x130x130xf32>\n    %alloc = memref.alloc() {alignment = 64 : i64} : memref<128x48x130x130xf32>\n    affine.for %arg2 = 0 to 128 {\n      affine.for %arg3 = 0 to 48 {\n        affine.for %arg4 = 0 to 130 {\n          affine.for %arg5 = 0 to 130 {\n            %2 = affine.load %0[%c0, %arg3, %arg4, %arg5] : memref<128x48x130x130xf32>\n            %3 = arith.cmpf ugt, %2, %cst : f32\n            %4 = arith.select %3, %2, %cst : f32\n            affine.store %4, %alloc[%arg2, %arg3, %arg4, %arg5] : memref<128x48x130x130xf32>\n          }\n        }\n      }\n    }\n    %1 = bufferization.to_tensor %alloc : memref<128x48x130x130xf32>\n    return %1 : tensor<128x48x130x130xf32>\n  }\n}\n\n",
    "transform_wrapped_operation": "#map = affine_map<(d0, d1, d2, d3) -> (d0, d1, d2, d3)>\n        #map2 = affine_map<(d0, d1, d2, d3) -> (0, d1, d2, d3)>\nmodule attributes {torch.debug_module_name = \"Net\"} {\nfunc.func private @nanoTime() -> i64 attributes { llvm.emit_c_interface }\nfunc.func private @printFlops(f64)\nfunc.func private @printI64(i64)\nfunc.func private @printNewline()\nfunc.func private @printMemrefF32(tensor<*xf32>)\n\n\nfunc.func @matmul() -> tensor<128x48x130x130xf32>{\n\n%val = arith.constant 2.00000e+00 : f32\n%zero = arith.constant 0.00000e+00 : f32\n\n%tmp_28 = bufferization.alloc_tensor() : tensor<128x48x130x130xf32>\n%28 = linalg.fill ins(%val : f32) outs(%tmp_28 : tensor<128x48x130x130xf32>) -> tensor<128x48x130x130xf32>\n%tmp_25 = bufferization.alloc_tensor() : tensor<128x48x130x130xf32>\n%25 = linalg.fill ins(%val : f32) outs(%tmp_25 : tensor<128x48x130x130xf32>) -> tensor<128x48x130x130xf32>\n\n%t0 = func.call @nanoTime() : () -> (i64)\n\n%return_arg = linalg.generic {indexing_maps = [#map2, #map], iterator_types = [\"parallel\", \"parallel\", \"parallel\", \"parallel\"]} ins(%28 : tensor<128x48x130x130xf32>) outs(%25 : tensor<128x48x130x130xf32>) {\n            ^bb0(%in: f32, %out: f32):\n            %cst_1 = arith.constant 0.000000e+00 : f32\n            %90 = arith.cmpf ugt, %in, %cst_1 : f32\n            %91 = arith.select %90, %in, %cst_1 : f32\n            linalg.yield %91 : f32\n        } -> tensor<128x48x130x130xf32>\n%t = func.call @nanoTime() : () -> (i64)\n%delta = arith.subi %t, %t0 : i64\n%fp = arith.uitofp %delta : i64 to f64\n// func.call @printFlops(%fp) : (f64) -> ()\nfunc.call @printI64(%delta) : (i64) -> ()\nfunc.call @printNewline() : () -> ()\n\nreturn %return_arg : tensor<128x48x130x130xf32> \n}\n\nfunc.func @main(){\n    %c1 = arith.constant 1: index\n    %c0 = arith.constant 0 : index\n    %n = arith.constant 2: index\n    scf.for %i = %c0 to %n step %c1 {\n    %outputmain = func.call @matmul() : () -> tensor<128x48x130x130xf32>\n    }\n    return\n}\n}\n",
    "loops_data": {
      "nested_loops": [
        [
          "%arg2",
          0,
          128,
          1
        ],
        [
          "%arg3",
          0,
          48,
          1
        ],
        [
          "%arg4",
          0,
          130,
          1
        ],
        [
          "%arg5",
          0,
          130,
          1
        ]
      ],
      "op_count": {
        "+": 0,
        "-": 0,
        "*": 0,
        "/": 0,
        "exp": 0
      },
      "load_data": [
        [
          "%c0",
          "%arg3",
          "%arg4",
          "%arg5"
        ]
      ],
      "store_data": []
    },
    "execution_time": 85763513
  },
  "linalg.generic {indexing_maps = [#map2, #map], iterator_types = [\"parallel\", \"parallel\", \"parallel\", \"parallel\"]} ins(%28 : tensor<256x32x224x224xf32>) outs(%25 : tensor<256x32x224x224xf32>) {\n            ^bb0(%in: f32, %out: f32):\n            %cst_1 = arith.constant 0.000000e+00 : f32\n            %90 = arith.cmpf ugt, %in, %cst_1 : f32\n            %91 = arith.select %90, %in, %cst_1 : f32\n            linalg.yield %91 : f32\n        } -> tensor<256x32x224x224xf32>": {
    "operation": "linalg.generic {indexing_maps = [#map2, #map], iterator_types = [\"parallel\", \"parallel\", \"parallel\", \"parallel\"]} ins(%28 : tensor<256x32x224x224xf32>) outs(%25 : tensor<256x32x224x224xf32>) {\n            ^bb0(%in: f32, %out: f32):\n            %cst_1 = arith.constant 0.000000e+00 : f32\n            %90 = arith.cmpf ugt, %in, %cst_1 : f32\n            %91 = arith.select %90, %in, %cst_1 : f32\n            linalg.yield %91 : f32\n        } -> tensor<256x32x224x224xf32>",
    "wrapped_operation": "#map = affine_map<(d0, d1, d2, d3) -> (d0, d1, d2, d3)>\n        #map2 = affine_map<(d0, d1, d2, d3) -> (0, d1, d2, d3)>\nfunc.func @func_call(%28: tensor<256x32x224x224xf32>, %25: tensor<256x32x224x224xf32>) -> tensor<256x32x224x224xf32> {\n  %ret = linalg.generic {indexing_maps = [#map2, #map], iterator_types = [\"parallel\", \"parallel\", \"parallel\", \"parallel\"]} ins(%28 : tensor<256x32x224x224xf32>) outs(%25 : tensor<256x32x224x224xf32>) {\n            ^bb0(%in: f32, %out: f32):\n            %cst_1 = arith.constant 0.000000e+00 : f32\n            %90 = arith.cmpf ugt, %in, %cst_1 : f32\n            %91 = arith.select %90, %in, %cst_1 : f32\n            linalg.yield %91 : f32\n        } -> tensor<256x32x224x224xf32>\n  return %ret : tensor<256x32x224x224xf32>\n}",
    "lowered_operation": "module {\n  func.func @func_call(%arg0: tensor<256x32x224x224xf32>, %arg1: tensor<256x32x224x224xf32>) -> tensor<256x32x224x224xf32> {\n    %c0 = arith.constant 0 : index\n    %cst = arith.constant 0.000000e+00 : f32\n    %0 = bufferization.to_memref %arg0 : memref<256x32x224x224xf32>\n    %alloc = memref.alloc() {alignment = 64 : i64} : memref<256x32x224x224xf32>\n    affine.for %arg2 = 0 to 256 {\n      affine.for %arg3 = 0 to 32 {\n        affine.for %arg4 = 0 to 224 {\n          affine.for %arg5 = 0 to 224 {\n            %2 = affine.load %0[%c0, %arg3, %arg4, %arg5] : memref<256x32x224x224xf32>\n            %3 = arith.cmpf ugt, %2, %cst : f32\n            %4 = arith.select %3, %2, %cst : f32\n            affine.store %4, %alloc[%arg2, %arg3, %arg4, %arg5] : memref<256x32x224x224xf32>\n          }\n        }\n      }\n    }\n    %1 = bufferization.to_tensor %alloc : memref<256x32x224x224xf32>\n    return %1 : tensor<256x32x224x224xf32>\n  }\n}\n\n",
    "transform_wrapped_operation": "#map = affine_map<(d0, d1, d2, d3) -> (d0, d1, d2, d3)>\n        #map2 = affine_map<(d0, d1, d2, d3) -> (0, d1, d2, d3)>\nmodule attributes {torch.debug_module_name = \"Net\"} {\nfunc.func private @nanoTime() -> i64 attributes { llvm.emit_c_interface }\nfunc.func private @printFlops(f64)\nfunc.func private @printI64(i64)\nfunc.func private @printNewline()\nfunc.func private @printMemrefF32(tensor<*xf32>)\n\n\nfunc.func @matmul() -> tensor<256x32x224x224xf32>{\n\n%val = arith.constant 2.00000e+00 : f32\n%zero = arith.constant 0.00000e+00 : f32\n\n%tmp_28 = bufferization.alloc_tensor() : tensor<256x32x224x224xf32>\n%28 = linalg.fill ins(%val : f32) outs(%tmp_28 : tensor<256x32x224x224xf32>) -> tensor<256x32x224x224xf32>\n%tmp_25 = bufferization.alloc_tensor() : tensor<256x32x224x224xf32>\n%25 = linalg.fill ins(%val : f32) outs(%tmp_25 : tensor<256x32x224x224xf32>) -> tensor<256x32x224x224xf32>\n\n%t0 = func.call @nanoTime() : () -> (i64)\n\n%return_arg = linalg.generic {indexing_maps = [#map2, #map], iterator_types = [\"parallel\", \"parallel\", \"parallel\", \"parallel\"]} ins(%28 : tensor<256x32x224x224xf32>) outs(%25 : tensor<256x32x224x224xf32>) {\n            ^bb0(%in: f32, %out: f32):\n            %cst_1 = arith.constant 0.000000e+00 : f32\n            %90 = arith.cmpf ugt, %in, %cst_1 : f32\n            %91 = arith.select %90, %in, %cst_1 : f32\n            linalg.yield %91 : f32\n        } -> tensor<256x32x224x224xf32>\n%t = func.call @nanoTime() : () -> (i64)\n%delta = arith.subi %t, %t0 : i64\n%fp = arith.uitofp %delta : i64 to f64\n// func.call @printFlops(%fp) : (f64) -> ()\nfunc.call @printI64(%delta) : (i64) -> ()\nfunc.call @printNewline() : () -> ()\n\nreturn %return_arg : tensor<256x32x224x224xf32> \n}\n\nfunc.func @main(){\n    %c1 = arith.constant 1: index\n    %c0 = arith.constant 0 : index\n    %n = arith.constant 2: index\n    scf.for %i = %c0 to %n step %c1 {\n    %outputmain = func.call @matmul() : () -> tensor<256x32x224x224xf32>\n    }\n    return\n}\n}\n",
    "loops_data": {
      "nested_loops": [
        [
          "%arg2",
          0,
          256,
          1
        ],
        [
          "%arg3",
          0,
          32,
          1
        ],
        [
          "%arg4",
          0,
          224,
          1
        ],
        [
          "%arg5",
          0,
          224,
          1
        ]
      ],
      "op_count": {
        "+": 0,
        "-": 0,
        "*": 0,
        "/": 0,
        "exp": 0
      },
      "load_data": [
        [
          "%c0",
          "%arg3",
          "%arg4",
          "%arg5"
        ]
      ],
      "store_data": []
    },
    "execution_time": 330816074
  },
  "linalg.generic {indexing_maps = [#map2, #map], iterator_types = [\"parallel\", \"parallel\", \"parallel\", \"parallel\"]} ins(%28 : tensor<256x32x150x150xf32>) outs(%25 : tensor<256x32x150x150xf32>) {\n            ^bb0(%in: f32, %out: f32):\n            %cst_1 = arith.constant 0.000000e+00 : f32\n            %90 = arith.cmpf ugt, %in, %cst_1 : f32\n            %91 = arith.select %90, %in, %cst_1 : f32\n            linalg.yield %91 : f32\n        } -> tensor<256x32x150x150xf32>": {
    "operation": "linalg.generic {indexing_maps = [#map2, #map], iterator_types = [\"parallel\", \"parallel\", \"parallel\", \"parallel\"]} ins(%28 : tensor<256x32x150x150xf32>) outs(%25 : tensor<256x32x150x150xf32>) {\n            ^bb0(%in: f32, %out: f32):\n            %cst_1 = arith.constant 0.000000e+00 : f32\n            %90 = arith.cmpf ugt, %in, %cst_1 : f32\n            %91 = arith.select %90, %in, %cst_1 : f32\n            linalg.yield %91 : f32\n        } -> tensor<256x32x150x150xf32>",
    "wrapped_operation": "#map = affine_map<(d0, d1, d2, d3) -> (d0, d1, d2, d3)>\n        #map2 = affine_map<(d0, d1, d2, d3) -> (0, d1, d2, d3)>\nfunc.func @func_call(%28: tensor<256x32x150x150xf32>, %25: tensor<256x32x150x150xf32>) -> tensor<256x32x150x150xf32> {\n  %ret = linalg.generic {indexing_maps = [#map2, #map], iterator_types = [\"parallel\", \"parallel\", \"parallel\", \"parallel\"]} ins(%28 : tensor<256x32x150x150xf32>) outs(%25 : tensor<256x32x150x150xf32>) {\n            ^bb0(%in: f32, %out: f32):\n            %cst_1 = arith.constant 0.000000e+00 : f32\n            %90 = arith.cmpf ugt, %in, %cst_1 : f32\n            %91 = arith.select %90, %in, %cst_1 : f32\n            linalg.yield %91 : f32\n        } -> tensor<256x32x150x150xf32>\n  return %ret : tensor<256x32x150x150xf32>\n}",
    "lowered_operation": "module {\n  func.func @func_call(%arg0: tensor<256x32x150x150xf32>, %arg1: tensor<256x32x150x150xf32>) -> tensor<256x32x150x150xf32> {\n    %c0 = arith.constant 0 : index\n    %cst = arith.constant 0.000000e+00 : f32\n    %0 = bufferization.to_memref %arg0 : memref<256x32x150x150xf32>\n    %alloc = memref.alloc() {alignment = 64 : i64} : memref<256x32x150x150xf32>\n    affine.for %arg2 = 0 to 256 {\n      affine.for %arg3 = 0 to 32 {\n        affine.for %arg4 = 0 to 150 {\n          affine.for %arg5 = 0 to 150 {\n            %2 = affine.load %0[%c0, %arg3, %arg4, %arg5] : memref<256x32x150x150xf32>\n            %3 = arith.cmpf ugt, %2, %cst : f32\n            %4 = arith.select %3, %2, %cst : f32\n            affine.store %4, %alloc[%arg2, %arg3, %arg4, %arg5] : memref<256x32x150x150xf32>\n          }\n        }\n      }\n    }\n    %1 = bufferization.to_tensor %alloc : memref<256x32x150x150xf32>\n    return %1 : tensor<256x32x150x150xf32>\n  }\n}\n\n",
    "transform_wrapped_operation": "#map = affine_map<(d0, d1, d2, d3) -> (d0, d1, d2, d3)>\n        #map2 = affine_map<(d0, d1, d2, d3) -> (0, d1, d2, d3)>\nmodule attributes {torch.debug_module_name = \"Net\"} {\nfunc.func private @nanoTime() -> i64 attributes { llvm.emit_c_interface }\nfunc.func private @printFlops(f64)\nfunc.func private @printI64(i64)\nfunc.func private @printNewline()\nfunc.func private @printMemrefF32(tensor<*xf32>)\n\n\nfunc.func @matmul() -> tensor<256x32x150x150xf32>{\n\n%val = arith.constant 2.00000e+00 : f32\n%zero = arith.constant 0.00000e+00 : f32\n\n%tmp_28 = bufferization.alloc_tensor() : tensor<256x32x150x150xf32>\n%28 = linalg.fill ins(%val : f32) outs(%tmp_28 : tensor<256x32x150x150xf32>) -> tensor<256x32x150x150xf32>\n%tmp_25 = bufferization.alloc_tensor() : tensor<256x32x150x150xf32>\n%25 = linalg.fill ins(%val : f32) outs(%tmp_25 : tensor<256x32x150x150xf32>) -> tensor<256x32x150x150xf32>\n\n%t0 = func.call @nanoTime() : () -> (i64)\n\n%return_arg = linalg.generic {indexing_maps = [#map2, #map], iterator_types = [\"parallel\", \"parallel\", \"parallel\", \"parallel\"]} ins(%28 : tensor<256x32x150x150xf32>) outs(%25 : tensor<256x32x150x150xf32>) {\n            ^bb0(%in: f32, %out: f32):\n            %cst_1 = arith.constant 0.000000e+00 : f32\n            %90 = arith.cmpf ugt, %in, %cst_1 : f32\n            %91 = arith.select %90, %in, %cst_1 : f32\n            linalg.yield %91 : f32\n        } -> tensor<256x32x150x150xf32>\n%t = func.call @nanoTime() : () -> (i64)\n%delta = arith.subi %t, %t0 : i64\n%fp = arith.uitofp %delta : i64 to f64\n// func.call @printFlops(%fp) : (f64) -> ()\nfunc.call @printI64(%delta) : (i64) -> ()\nfunc.call @printNewline() : () -> ()\n\nreturn %return_arg : tensor<256x32x150x150xf32> \n}\n\nfunc.func @main(){\n    %c1 = arith.constant 1: index\n    %c0 = arith.constant 0 : index\n    %n = arith.constant 2: index\n    scf.for %i = %c0 to %n step %c1 {\n    %outputmain = func.call @matmul() : () -> tensor<256x32x150x150xf32>\n    }\n    return\n}\n}\n",
    "loops_data": {
      "nested_loops": [
        [
          "%arg2",
          0,
          256,
          1
        ],
        [
          "%arg3",
          0,
          32,
          1
        ],
        [
          "%arg4",
          0,
          150,
          1
        ],
        [
          "%arg5",
          0,
          150,
          1
        ]
      ],
      "op_count": {
        "+": 0,
        "-": 0,
        "*": 0,
        "/": 0,
        "exp": 0
      },
      "load_data": [
        [
          "%c0",
          "%arg3",
          "%arg4",
          "%arg5"
        ]
      ],
      "store_data": []
    },
    "execution_time": 150565058
  },
  "linalg.generic {indexing_maps = [#map2, #map], iterator_types = [\"parallel\", \"parallel\", \"parallel\", \"parallel\"]} ins(%28 : tensor<256x96x228x228xf32>) outs(%25 : tensor<256x96x228x228xf32>) {\n            ^bb0(%in: f32, %out: f32):\n            %cst_1 = arith.constant 0.000000e+00 : f32\n            %90 = arith.cmpf ugt, %in, %cst_1 : f32\n            %91 = arith.select %90, %in, %cst_1 : f32\n            linalg.yield %91 : f32\n        } -> tensor<256x96x228x228xf32>": {
    "operation": "linalg.generic {indexing_maps = [#map2, #map], iterator_types = [\"parallel\", \"parallel\", \"parallel\", \"parallel\"]} ins(%28 : tensor<256x96x228x228xf32>) outs(%25 : tensor<256x96x228x228xf32>) {\n            ^bb0(%in: f32, %out: f32):\n            %cst_1 = arith.constant 0.000000e+00 : f32\n            %90 = arith.cmpf ugt, %in, %cst_1 : f32\n            %91 = arith.select %90, %in, %cst_1 : f32\n            linalg.yield %91 : f32\n        } -> tensor<256x96x228x228xf32>",
    "wrapped_operation": "#map = affine_map<(d0, d1, d2, d3) -> (d0, d1, d2, d3)>\n        #map2 = affine_map<(d0, d1, d2, d3) -> (0, d1, d2, d3)>\nfunc.func @func_call(%28: tensor<256x96x228x228xf32>, %25: tensor<256x96x228x228xf32>) -> tensor<256x96x228x228xf32> {\n  %ret = linalg.generic {indexing_maps = [#map2, #map], iterator_types = [\"parallel\", \"parallel\", \"parallel\", \"parallel\"]} ins(%28 : tensor<256x96x228x228xf32>) outs(%25 : tensor<256x96x228x228xf32>) {\n            ^bb0(%in: f32, %out: f32):\n            %cst_1 = arith.constant 0.000000e+00 : f32\n            %90 = arith.cmpf ugt, %in, %cst_1 : f32\n            %91 = arith.select %90, %in, %cst_1 : f32\n            linalg.yield %91 : f32\n        } -> tensor<256x96x228x228xf32>\n  return %ret : tensor<256x96x228x228xf32>\n}",
    "lowered_operation": "module {\n  func.func @func_call(%arg0: tensor<256x96x228x228xf32>, %arg1: tensor<256x96x228x228xf32>) -> tensor<256x96x228x228xf32> {\n    %c0 = arith.constant 0 : index\n    %cst = arith.constant 0.000000e+00 : f32\n    %0 = bufferization.to_memref %arg0 : memref<256x96x228x228xf32>\n    %alloc = memref.alloc() {alignment = 64 : i64} : memref<256x96x228x228xf32>\n    affine.for %arg2 = 0 to 256 {\n      affine.for %arg3 = 0 to 96 {\n        affine.for %arg4 = 0 to 228 {\n          affine.for %arg5 = 0 to 228 {\n            %2 = affine.load %0[%c0, %arg3, %arg4, %arg5] : memref<256x96x228x228xf32>\n            %3 = arith.cmpf ugt, %2, %cst : f32\n            %4 = arith.select %3, %2, %cst : f32\n            affine.store %4, %alloc[%arg2, %arg3, %arg4, %arg5] : memref<256x96x228x228xf32>\n          }\n        }\n      }\n    }\n    %1 = bufferization.to_tensor %alloc : memref<256x96x228x228xf32>\n    return %1 : tensor<256x96x228x228xf32>\n  }\n}\n\n",
    "transform_wrapped_operation": "#map = affine_map<(d0, d1, d2, d3) -> (d0, d1, d2, d3)>\n        #map2 = affine_map<(d0, d1, d2, d3) -> (0, d1, d2, d3)>\nmodule attributes {torch.debug_module_name = \"Net\"} {\nfunc.func private @nanoTime() -> i64 attributes { llvm.emit_c_interface }\nfunc.func private @printFlops(f64)\nfunc.func private @printI64(i64)\nfunc.func private @printNewline()\nfunc.func private @printMemrefF32(tensor<*xf32>)\n\n\nfunc.func @matmul() -> tensor<256x96x228x228xf32>{\n\n%val = arith.constant 2.00000e+00 : f32\n%zero = arith.constant 0.00000e+00 : f32\n\n%tmp_28 = bufferization.alloc_tensor() : tensor<256x96x228x228xf32>\n%28 = linalg.fill ins(%val : f32) outs(%tmp_28 : tensor<256x96x228x228xf32>) -> tensor<256x96x228x228xf32>\n%tmp_25 = bufferization.alloc_tensor() : tensor<256x96x228x228xf32>\n%25 = linalg.fill ins(%val : f32) outs(%tmp_25 : tensor<256x96x228x228xf32>) -> tensor<256x96x228x228xf32>\n\n%t0 = func.call @nanoTime() : () -> (i64)\n\n%return_arg = linalg.generic {indexing_maps = [#map2, #map], iterator_types = [\"parallel\", \"parallel\", \"parallel\", \"parallel\"]} ins(%28 : tensor<256x96x228x228xf32>) outs(%25 : tensor<256x96x228x228xf32>) {\n            ^bb0(%in: f32, %out: f32):\n            %cst_1 = arith.constant 0.000000e+00 : f32\n            %90 = arith.cmpf ugt, %in, %cst_1 : f32\n            %91 = arith.select %90, %in, %cst_1 : f32\n            linalg.yield %91 : f32\n        } -> tensor<256x96x228x228xf32>\n%t = func.call @nanoTime() : () -> (i64)\n%delta = arith.subi %t, %t0 : i64\n%fp = arith.uitofp %delta : i64 to f64\n// func.call @printFlops(%fp) : (f64) -> ()\nfunc.call @printI64(%delta) : (i64) -> ()\nfunc.call @printNewline() : () -> ()\n\nreturn %return_arg : tensor<256x96x228x228xf32> \n}\n\nfunc.func @main(){\n    %c1 = arith.constant 1: index\n    %c0 = arith.constant 0 : index\n    %n = arith.constant 2: index\n    scf.for %i = %c0 to %n step %c1 {\n    %outputmain = func.call @matmul() : () -> tensor<256x96x228x228xf32>\n    }\n    return\n}\n}\n",
    "loops_data": {
      "nested_loops": [
        [
          "%arg2",
          0,
          256,
          1
        ],
        [
          "%arg3",
          0,
          96,
          1
        ],
        [
          "%arg4",
          0,
          228,
          1
        ],
        [
          "%arg5",
          0,
          228,
          1
        ]
      ],
      "op_count": {
        "+": 0,
        "-": 0,
        "*": 0,
        "/": 0,
        "exp": 0
      },
      "load_data": [
        [
          "%c0",
          "%arg3",
          "%arg4",
          "%arg5"
        ]
      ],
      "store_data": []
    },
    "execution_time": 1097713124
  },
  "linalg.generic {indexing_maps = [#map2, #map], iterator_types = [\"parallel\", \"parallel\", \"parallel\", \"parallel\"]} ins(%28 : tensor<128x32x28x28xf32>) outs(%25 : tensor<128x32x28x28xf32>) {\n            ^bb0(%in: f32, %out: f32):\n            %cst_1 = arith.constant 0.000000e+00 : f32\n            %90 = arith.cmpf ugt, %in, %cst_1 : f32\n            %91 = arith.select %90, %in, %cst_1 : f32\n            linalg.yield %91 : f32\n        } -> tensor<128x32x28x28xf32>": {
    "operation": "linalg.generic {indexing_maps = [#map2, #map], iterator_types = [\"parallel\", \"parallel\", \"parallel\", \"parallel\"]} ins(%28 : tensor<128x32x28x28xf32>) outs(%25 : tensor<128x32x28x28xf32>) {\n            ^bb0(%in: f32, %out: f32):\n            %cst_1 = arith.constant 0.000000e+00 : f32\n            %90 = arith.cmpf ugt, %in, %cst_1 : f32\n            %91 = arith.select %90, %in, %cst_1 : f32\n            linalg.yield %91 : f32\n        } -> tensor<128x32x28x28xf32>",
    "wrapped_operation": "#map = affine_map<(d0, d1, d2, d3) -> (d0, d1, d2, d3)>\n        #map2 = affine_map<(d0, d1, d2, d3) -> (0, d1, d2, d3)>\nfunc.func @func_call(%28: tensor<128x32x28x28xf32>, %25: tensor<128x32x28x28xf32>) -> tensor<128x32x28x28xf32> {\n  %ret = linalg.generic {indexing_maps = [#map2, #map], iterator_types = [\"parallel\", \"parallel\", \"parallel\", \"parallel\"]} ins(%28 : tensor<128x32x28x28xf32>) outs(%25 : tensor<128x32x28x28xf32>) {\n            ^bb0(%in: f32, %out: f32):\n            %cst_1 = arith.constant 0.000000e+00 : f32\n            %90 = arith.cmpf ugt, %in, %cst_1 : f32\n            %91 = arith.select %90, %in, %cst_1 : f32\n            linalg.yield %91 : f32\n        } -> tensor<128x32x28x28xf32>\n  return %ret : tensor<128x32x28x28xf32>\n}",
    "lowered_operation": "module {\n  func.func @func_call(%arg0: tensor<128x32x28x28xf32>, %arg1: tensor<128x32x28x28xf32>) -> tensor<128x32x28x28xf32> {\n    %c0 = arith.constant 0 : index\n    %cst = arith.constant 0.000000e+00 : f32\n    %0 = bufferization.to_memref %arg0 : memref<128x32x28x28xf32>\n    %alloc = memref.alloc() {alignment = 64 : i64} : memref<128x32x28x28xf32>\n    affine.for %arg2 = 0 to 128 {\n      affine.for %arg3 = 0 to 32 {\n        affine.for %arg4 = 0 to 28 {\n          affine.for %arg5 = 0 to 28 {\n            %2 = affine.load %0[%c0, %arg3, %arg4, %arg5] : memref<128x32x28x28xf32>\n            %3 = arith.cmpf ugt, %2, %cst : f32\n            %4 = arith.select %3, %2, %cst : f32\n            affine.store %4, %alloc[%arg2, %arg3, %arg4, %arg5] : memref<128x32x28x28xf32>\n          }\n        }\n      }\n    }\n    %1 = bufferization.to_tensor %alloc : memref<128x32x28x28xf32>\n    return %1 : tensor<128x32x28x28xf32>\n  }\n}\n\n",
    "transform_wrapped_operation": "#map = affine_map<(d0, d1, d2, d3) -> (d0, d1, d2, d3)>\n        #map2 = affine_map<(d0, d1, d2, d3) -> (0, d1, d2, d3)>\nmodule attributes {torch.debug_module_name = \"Net\"} {\nfunc.func private @nanoTime() -> i64 attributes { llvm.emit_c_interface }\nfunc.func private @printFlops(f64)\nfunc.func private @printI64(i64)\nfunc.func private @printNewline()\nfunc.func private @printMemrefF32(tensor<*xf32>)\n\n\nfunc.func @matmul() -> tensor<128x32x28x28xf32>{\n\n%val = arith.constant 2.00000e+00 : f32\n%zero = arith.constant 0.00000e+00 : f32\n\n%tmp_28 = bufferization.alloc_tensor() : tensor<128x32x28x28xf32>\n%28 = linalg.fill ins(%val : f32) outs(%tmp_28 : tensor<128x32x28x28xf32>) -> tensor<128x32x28x28xf32>\n%tmp_25 = bufferization.alloc_tensor() : tensor<128x32x28x28xf32>\n%25 = linalg.fill ins(%val : f32) outs(%tmp_25 : tensor<128x32x28x28xf32>) -> tensor<128x32x28x28xf32>\n\n%t0 = func.call @nanoTime() : () -> (i64)\n\n%return_arg = linalg.generic {indexing_maps = [#map2, #map], iterator_types = [\"parallel\", \"parallel\", \"parallel\", \"parallel\"]} ins(%28 : tensor<128x32x28x28xf32>) outs(%25 : tensor<128x32x28x28xf32>) {\n            ^bb0(%in: f32, %out: f32):\n            %cst_1 = arith.constant 0.000000e+00 : f32\n            %90 = arith.cmpf ugt, %in, %cst_1 : f32\n            %91 = arith.select %90, %in, %cst_1 : f32\n            linalg.yield %91 : f32\n        } -> tensor<128x32x28x28xf32>\n%t = func.call @nanoTime() : () -> (i64)\n%delta = arith.subi %t, %t0 : i64\n%fp = arith.uitofp %delta : i64 to f64\n// func.call @printFlops(%fp) : (f64) -> ()\nfunc.call @printI64(%delta) : (i64) -> ()\nfunc.call @printNewline() : () -> ()\n\nreturn %return_arg : tensor<128x32x28x28xf32> \n}\n\nfunc.func @main(){\n    %c1 = arith.constant 1: index\n    %c0 = arith.constant 0 : index\n    %n = arith.constant 2: index\n    scf.for %i = %c0 to %n step %c1 {\n    %outputmain = func.call @matmul() : () -> tensor<128x32x28x28xf32>\n    }\n    return\n}\n}\n",
    "loops_data": {
      "nested_loops": [
        [
          "%arg2",
          0,
          128,
          1
        ],
        [
          "%arg3",
          0,
          32,
          1
        ],
        [
          "%arg4",
          0,
          28,
          1
        ],
        [
          "%arg5",
          0,
          28,
          1
        ]
      ],
      "op_count": {
        "+": 0,
        "-": 0,
        "*": 0,
        "/": 0,
        "exp": 0
      },
      "load_data": [
        [
          "%c0",
          "%arg3",
          "%arg4",
          "%arg5"
        ]
      ],
      "store_data": []
    },
    "execution_time": 2335317
  },
  "linalg.generic {indexing_maps = [#map2, #map], iterator_types = [\"parallel\", \"parallel\", \"parallel\", \"parallel\"]} ins(%28 : tensor<256x384x15x15xf32>) outs(%25 : tensor<256x384x15x15xf32>) {\n            ^bb0(%in: f32, %out: f32):\n            %cst_1 = arith.constant 0.000000e+00 : f32\n            %90 = arith.cmpf ugt, %in, %cst_1 : f32\n            %91 = arith.select %90, %in, %cst_1 : f32\n            linalg.yield %91 : f32\n        } -> tensor<256x384x15x15xf32>": {
    "operation": "linalg.generic {indexing_maps = [#map2, #map], iterator_types = [\"parallel\", \"parallel\", \"parallel\", \"parallel\"]} ins(%28 : tensor<256x384x15x15xf32>) outs(%25 : tensor<256x384x15x15xf32>) {\n            ^bb0(%in: f32, %out: f32):\n            %cst_1 = arith.constant 0.000000e+00 : f32\n            %90 = arith.cmpf ugt, %in, %cst_1 : f32\n            %91 = arith.select %90, %in, %cst_1 : f32\n            linalg.yield %91 : f32\n        } -> tensor<256x384x15x15xf32>",
    "wrapped_operation": "#map = affine_map<(d0, d1, d2, d3) -> (d0, d1, d2, d3)>\n        #map2 = affine_map<(d0, d1, d2, d3) -> (0, d1, d2, d3)>\nfunc.func @func_call(%28: tensor<256x384x15x15xf32>, %25: tensor<256x384x15x15xf32>) -> tensor<256x384x15x15xf32> {\n  %ret = linalg.generic {indexing_maps = [#map2, #map], iterator_types = [\"parallel\", \"parallel\", \"parallel\", \"parallel\"]} ins(%28 : tensor<256x384x15x15xf32>) outs(%25 : tensor<256x384x15x15xf32>) {\n            ^bb0(%in: f32, %out: f32):\n            %cst_1 = arith.constant 0.000000e+00 : f32\n            %90 = arith.cmpf ugt, %in, %cst_1 : f32\n            %91 = arith.select %90, %in, %cst_1 : f32\n            linalg.yield %91 : f32\n        } -> tensor<256x384x15x15xf32>\n  return %ret : tensor<256x384x15x15xf32>\n}",
    "lowered_operation": "module {\n  func.func @func_call(%arg0: tensor<256x384x15x15xf32>, %arg1: tensor<256x384x15x15xf32>) -> tensor<256x384x15x15xf32> {\n    %c0 = arith.constant 0 : index\n    %cst = arith.constant 0.000000e+00 : f32\n    %0 = bufferization.to_memref %arg0 : memref<256x384x15x15xf32>\n    %alloc = memref.alloc() {alignment = 64 : i64} : memref<256x384x15x15xf32>\n    affine.for %arg2 = 0 to 256 {\n      affine.for %arg3 = 0 to 384 {\n        affine.for %arg4 = 0 to 15 {\n          affine.for %arg5 = 0 to 15 {\n            %2 = affine.load %0[%c0, %arg3, %arg4, %arg5] : memref<256x384x15x15xf32>\n            %3 = arith.cmpf ugt, %2, %cst : f32\n            %4 = arith.select %3, %2, %cst : f32\n            affine.store %4, %alloc[%arg2, %arg3, %arg4, %arg5] : memref<256x384x15x15xf32>\n          }\n        }\n      }\n    }\n    %1 = bufferization.to_tensor %alloc : memref<256x384x15x15xf32>\n    return %1 : tensor<256x384x15x15xf32>\n  }\n}\n\n",
    "transform_wrapped_operation": "#map = affine_map<(d0, d1, d2, d3) -> (d0, d1, d2, d3)>\n        #map2 = affine_map<(d0, d1, d2, d3) -> (0, d1, d2, d3)>\nmodule attributes {torch.debug_module_name = \"Net\"} {\nfunc.func private @nanoTime() -> i64 attributes { llvm.emit_c_interface }\nfunc.func private @printFlops(f64)\nfunc.func private @printI64(i64)\nfunc.func private @printNewline()\nfunc.func private @printMemrefF32(tensor<*xf32>)\n\n\nfunc.func @matmul() -> tensor<256x384x15x15xf32>{\n\n%val = arith.constant 2.00000e+00 : f32\n%zero = arith.constant 0.00000e+00 : f32\n\n%tmp_28 = bufferization.alloc_tensor() : tensor<256x384x15x15xf32>\n%28 = linalg.fill ins(%val : f32) outs(%tmp_28 : tensor<256x384x15x15xf32>) -> tensor<256x384x15x15xf32>\n%tmp_25 = bufferization.alloc_tensor() : tensor<256x384x15x15xf32>\n%25 = linalg.fill ins(%val : f32) outs(%tmp_25 : tensor<256x384x15x15xf32>) -> tensor<256x384x15x15xf32>\n\n%t0 = func.call @nanoTime() : () -> (i64)\n\n%return_arg = linalg.generic {indexing_maps = [#map2, #map], iterator_types = [\"parallel\", \"parallel\", \"parallel\", \"parallel\"]} ins(%28 : tensor<256x384x15x15xf32>) outs(%25 : tensor<256x384x15x15xf32>) {\n            ^bb0(%in: f32, %out: f32):\n            %cst_1 = arith.constant 0.000000e+00 : f32\n            %90 = arith.cmpf ugt, %in, %cst_1 : f32\n            %91 = arith.select %90, %in, %cst_1 : f32\n            linalg.yield %91 : f32\n        } -> tensor<256x384x15x15xf32>\n%t = func.call @nanoTime() : () -> (i64)\n%delta = arith.subi %t, %t0 : i64\n%fp = arith.uitofp %delta : i64 to f64\n// func.call @printFlops(%fp) : (f64) -> ()\nfunc.call @printI64(%delta) : (i64) -> ()\nfunc.call @printNewline() : () -> ()\n\nreturn %return_arg : tensor<256x384x15x15xf32> \n}\n\nfunc.func @main(){\n    %c1 = arith.constant 1: index\n    %c0 = arith.constant 0 : index\n    %n = arith.constant 2: index\n    scf.for %i = %c0 to %n step %c1 {\n    %outputmain = func.call @matmul() : () -> tensor<256x384x15x15xf32>\n    }\n    return\n}\n}\n",
    "loops_data": {
      "nested_loops": [
        [
          "%arg2",
          0,
          256,
          1
        ],
        [
          "%arg3",
          0,
          384,
          1
        ],
        [
          "%arg4",
          0,
          15,
          1
        ],
        [
          "%arg5",
          0,
          15,
          1
        ]
      ],
      "op_count": {
        "+": 0,
        "-": 0,
        "*": 0,
        "/": 0,
        "exp": 0
      },
      "load_data": [
        [
          "%c0",
          "%arg3",
          "%arg4",
          "%arg5"
        ]
      ],
      "store_data": []
    },
    "execution_time": 18126454
  },
  "linalg.generic {indexing_maps = [#map2, #map], iterator_types = [\"parallel\", \"parallel\", \"parallel\", \"parallel\"]} ins(%28 : tensor<256x32x112x112xf32>) outs(%25 : tensor<256x32x112x112xf32>) {\n            ^bb0(%in: f32, %out: f32):\n            %cst_1 = arith.constant 0.000000e+00 : f32\n            %90 = arith.cmpf ugt, %in, %cst_1 : f32\n            %91 = arith.select %90, %in, %cst_1 : f32\n            linalg.yield %91 : f32\n        } -> tensor<256x32x112x112xf32>": {
    "operation": "linalg.generic {indexing_maps = [#map2, #map], iterator_types = [\"parallel\", \"parallel\", \"parallel\", \"parallel\"]} ins(%28 : tensor<256x32x112x112xf32>) outs(%25 : tensor<256x32x112x112xf32>) {\n            ^bb0(%in: f32, %out: f32):\n            %cst_1 = arith.constant 0.000000e+00 : f32\n            %90 = arith.cmpf ugt, %in, %cst_1 : f32\n            %91 = arith.select %90, %in, %cst_1 : f32\n            linalg.yield %91 : f32\n        } -> tensor<256x32x112x112xf32>",
    "wrapped_operation": "#map = affine_map<(d0, d1, d2, d3) -> (d0, d1, d2, d3)>\n        #map2 = affine_map<(d0, d1, d2, d3) -> (0, d1, d2, d3)>\nfunc.func @func_call(%28: tensor<256x32x112x112xf32>, %25: tensor<256x32x112x112xf32>) -> tensor<256x32x112x112xf32> {\n  %ret = linalg.generic {indexing_maps = [#map2, #map], iterator_types = [\"parallel\", \"parallel\", \"parallel\", \"parallel\"]} ins(%28 : tensor<256x32x112x112xf32>) outs(%25 : tensor<256x32x112x112xf32>) {\n            ^bb0(%in: f32, %out: f32):\n            %cst_1 = arith.constant 0.000000e+00 : f32\n            %90 = arith.cmpf ugt, %in, %cst_1 : f32\n            %91 = arith.select %90, %in, %cst_1 : f32\n            linalg.yield %91 : f32\n        } -> tensor<256x32x112x112xf32>\n  return %ret : tensor<256x32x112x112xf32>\n}",
    "lowered_operation": "module {\n  func.func @func_call(%arg0: tensor<256x32x112x112xf32>, %arg1: tensor<256x32x112x112xf32>) -> tensor<256x32x112x112xf32> {\n    %c0 = arith.constant 0 : index\n    %cst = arith.constant 0.000000e+00 : f32\n    %0 = bufferization.to_memref %arg0 : memref<256x32x112x112xf32>\n    %alloc = memref.alloc() {alignment = 64 : i64} : memref<256x32x112x112xf32>\n    affine.for %arg2 = 0 to 256 {\n      affine.for %arg3 = 0 to 32 {\n        affine.for %arg4 = 0 to 112 {\n          affine.for %arg5 = 0 to 112 {\n            %2 = affine.load %0[%c0, %arg3, %arg4, %arg5] : memref<256x32x112x112xf32>\n            %3 = arith.cmpf ugt, %2, %cst : f32\n            %4 = arith.select %3, %2, %cst : f32\n            affine.store %4, %alloc[%arg2, %arg3, %arg4, %arg5] : memref<256x32x112x112xf32>\n          }\n        }\n      }\n    }\n    %1 = bufferization.to_tensor %alloc : memref<256x32x112x112xf32>\n    return %1 : tensor<256x32x112x112xf32>\n  }\n}\n\n",
    "transform_wrapped_operation": "#map = affine_map<(d0, d1, d2, d3) -> (d0, d1, d2, d3)>\n        #map2 = affine_map<(d0, d1, d2, d3) -> (0, d1, d2, d3)>\nmodule attributes {torch.debug_module_name = \"Net\"} {\nfunc.func private @nanoTime() -> i64 attributes { llvm.emit_c_interface }\nfunc.func private @printFlops(f64)\nfunc.func private @printI64(i64)\nfunc.func private @printNewline()\nfunc.func private @printMemrefF32(tensor<*xf32>)\n\n\nfunc.func @matmul() -> tensor<256x32x112x112xf32>{\n\n%val = arith.constant 2.00000e+00 : f32\n%zero = arith.constant 0.00000e+00 : f32\n\n%tmp_28 = bufferization.alloc_tensor() : tensor<256x32x112x112xf32>\n%28 = linalg.fill ins(%val : f32) outs(%tmp_28 : tensor<256x32x112x112xf32>) -> tensor<256x32x112x112xf32>\n%tmp_25 = bufferization.alloc_tensor() : tensor<256x32x112x112xf32>\n%25 = linalg.fill ins(%val : f32) outs(%tmp_25 : tensor<256x32x112x112xf32>) -> tensor<256x32x112x112xf32>\n\n%t0 = func.call @nanoTime() : () -> (i64)\n\n%return_arg = linalg.generic {indexing_maps = [#map2, #map], iterator_types = [\"parallel\", \"parallel\", \"parallel\", \"parallel\"]} ins(%28 : tensor<256x32x112x112xf32>) outs(%25 : tensor<256x32x112x112xf32>) {\n            ^bb0(%in: f32, %out: f32):\n            %cst_1 = arith.constant 0.000000e+00 : f32\n            %90 = arith.cmpf ugt, %in, %cst_1 : f32\n            %91 = arith.select %90, %in, %cst_1 : f32\n            linalg.yield %91 : f32\n        } -> tensor<256x32x112x112xf32>\n%t = func.call @nanoTime() : () -> (i64)\n%delta = arith.subi %t, %t0 : i64\n%fp = arith.uitofp %delta : i64 to f64\n// func.call @printFlops(%fp) : (f64) -> ()\nfunc.call @printI64(%delta) : (i64) -> ()\nfunc.call @printNewline() : () -> ()\n\nreturn %return_arg : tensor<256x32x112x112xf32> \n}\n\nfunc.func @main(){\n    %c1 = arith.constant 1: index\n    %c0 = arith.constant 0 : index\n    %n = arith.constant 2: index\n    scf.for %i = %c0 to %n step %c1 {\n    %outputmain = func.call @matmul() : () -> tensor<256x32x112x112xf32>\n    }\n    return\n}\n}\n",
    "loops_data": {
      "nested_loops": [
        [
          "%arg2",
          0,
          256,
          1
        ],
        [
          "%arg3",
          0,
          32,
          1
        ],
        [
          "%arg4",
          0,
          112,
          1
        ],
        [
          "%arg5",
          0,
          112,
          1
        ]
      ],
      "op_count": {
        "+": 0,
        "-": 0,
        "*": 0,
        "/": 0,
        "exp": 0
      },
      "load_data": [
        [
          "%c0",
          "%arg3",
          "%arg4",
          "%arg5"
        ]
      ],
      "store_data": []
    },
    "execution_time": 85198281
  },
  "linalg.generic {indexing_maps = [#map2, #map], iterator_types = [\"parallel\", \"parallel\", \"parallel\", \"parallel\"]} ins(%28 : tensor<256x512x56x56xf32>) outs(%25 : tensor<256x512x56x56xf32>) {\n            ^bb0(%in: f32, %out: f32):\n            %cst_1 = arith.constant 0.000000e+00 : f32\n            %90 = arith.cmpf ugt, %in, %cst_1 : f32\n            %91 = arith.select %90, %in, %cst_1 : f32\n            linalg.yield %91 : f32\n        } -> tensor<256x512x56x56xf32>": {
    "operation": "linalg.generic {indexing_maps = [#map2, #map], iterator_types = [\"parallel\", \"parallel\", \"parallel\", \"parallel\"]} ins(%28 : tensor<256x512x56x56xf32>) outs(%25 : tensor<256x512x56x56xf32>) {\n            ^bb0(%in: f32, %out: f32):\n            %cst_1 = arith.constant 0.000000e+00 : f32\n            %90 = arith.cmpf ugt, %in, %cst_1 : f32\n            %91 = arith.select %90, %in, %cst_1 : f32\n            linalg.yield %91 : f32\n        } -> tensor<256x512x56x56xf32>",
    "wrapped_operation": "#map = affine_map<(d0, d1, d2, d3) -> (d0, d1, d2, d3)>\n        #map2 = affine_map<(d0, d1, d2, d3) -> (0, d1, d2, d3)>\nfunc.func @func_call(%28: tensor<256x512x56x56xf32>, %25: tensor<256x512x56x56xf32>) -> tensor<256x512x56x56xf32> {\n  %ret = linalg.generic {indexing_maps = [#map2, #map], iterator_types = [\"parallel\", \"parallel\", \"parallel\", \"parallel\"]} ins(%28 : tensor<256x512x56x56xf32>) outs(%25 : tensor<256x512x56x56xf32>) {\n            ^bb0(%in: f32, %out: f32):\n            %cst_1 = arith.constant 0.000000e+00 : f32\n            %90 = arith.cmpf ugt, %in, %cst_1 : f32\n            %91 = arith.select %90, %in, %cst_1 : f32\n            linalg.yield %91 : f32\n        } -> tensor<256x512x56x56xf32>\n  return %ret : tensor<256x512x56x56xf32>\n}",
    "lowered_operation": "module {\n  func.func @func_call(%arg0: tensor<256x512x56x56xf32>, %arg1: tensor<256x512x56x56xf32>) -> tensor<256x512x56x56xf32> {\n    %c0 = arith.constant 0 : index\n    %cst = arith.constant 0.000000e+00 : f32\n    %0 = bufferization.to_memref %arg0 : memref<256x512x56x56xf32>\n    %alloc = memref.alloc() {alignment = 64 : i64} : memref<256x512x56x56xf32>\n    affine.for %arg2 = 0 to 256 {\n      affine.for %arg3 = 0 to 512 {\n        affine.for %arg4 = 0 to 56 {\n          affine.for %arg5 = 0 to 56 {\n            %2 = affine.load %0[%c0, %arg3, %arg4, %arg5] : memref<256x512x56x56xf32>\n            %3 = arith.cmpf ugt, %2, %cst : f32\n            %4 = arith.select %3, %2, %cst : f32\n            affine.store %4, %alloc[%arg2, %arg3, %arg4, %arg5] : memref<256x512x56x56xf32>\n          }\n        }\n      }\n    }\n    %1 = bufferization.to_tensor %alloc : memref<256x512x56x56xf32>\n    return %1 : tensor<256x512x56x56xf32>\n  }\n}\n\n",
    "transform_wrapped_operation": "#map = affine_map<(d0, d1, d2, d3) -> (d0, d1, d2, d3)>\n        #map2 = affine_map<(d0, d1, d2, d3) -> (0, d1, d2, d3)>\nmodule attributes {torch.debug_module_name = \"Net\"} {\nfunc.func private @nanoTime() -> i64 attributes { llvm.emit_c_interface }\nfunc.func private @printFlops(f64)\nfunc.func private @printI64(i64)\nfunc.func private @printNewline()\nfunc.func private @printMemrefF32(tensor<*xf32>)\n\n\nfunc.func @matmul() -> tensor<256x512x56x56xf32>{\n\n%val = arith.constant 2.00000e+00 : f32\n%zero = arith.constant 0.00000e+00 : f32\n\n%tmp_28 = bufferization.alloc_tensor() : tensor<256x512x56x56xf32>\n%28 = linalg.fill ins(%val : f32) outs(%tmp_28 : tensor<256x512x56x56xf32>) -> tensor<256x512x56x56xf32>\n%tmp_25 = bufferization.alloc_tensor() : tensor<256x512x56x56xf32>\n%25 = linalg.fill ins(%val : f32) outs(%tmp_25 : tensor<256x512x56x56xf32>) -> tensor<256x512x56x56xf32>\n\n%t0 = func.call @nanoTime() : () -> (i64)\n\n%return_arg = linalg.generic {indexing_maps = [#map2, #map], iterator_types = [\"parallel\", \"parallel\", \"parallel\", \"parallel\"]} ins(%28 : tensor<256x512x56x56xf32>) outs(%25 : tensor<256x512x56x56xf32>) {\n            ^bb0(%in: f32, %out: f32):\n            %cst_1 = arith.constant 0.000000e+00 : f32\n            %90 = arith.cmpf ugt, %in, %cst_1 : f32\n            %91 = arith.select %90, %in, %cst_1 : f32\n            linalg.yield %91 : f32\n        } -> tensor<256x512x56x56xf32>\n%t = func.call @nanoTime() : () -> (i64)\n%delta = arith.subi %t, %t0 : i64\n%fp = arith.uitofp %delta : i64 to f64\n// func.call @printFlops(%fp) : (f64) -> ()\nfunc.call @printI64(%delta) : (i64) -> ()\nfunc.call @printNewline() : () -> ()\n\nreturn %return_arg : tensor<256x512x56x56xf32> \n}\n\nfunc.func @main(){\n    %c1 = arith.constant 1: index\n    %c0 = arith.constant 0 : index\n    %n = arith.constant 2: index\n    scf.for %i = %c0 to %n step %c1 {\n    %outputmain = func.call @matmul() : () -> tensor<256x512x56x56xf32>\n    }\n    return\n}\n}\n",
    "loops_data": {
      "nested_loops": [
        [
          "%arg2",
          0,
          256,
          1
        ],
        [
          "%arg3",
          0,
          512,
          1
        ],
        [
          "%arg4",
          0,
          56,
          1
        ],
        [
          "%arg5",
          0,
          56,
          1
        ]
      ],
      "op_count": {
        "+": 0,
        "-": 0,
        "*": 0,
        "/": 0,
        "exp": 0
      },
      "load_data": [
        [
          "%c0",
          "%arg3",
          "%arg4",
          "%arg5"
        ]
      ],
      "store_data": []
    },
    "execution_time": 347747154
  },
  "linalg.generic {indexing_maps = [#map2, #map], iterator_types = [\"parallel\", \"parallel\", \"parallel\", \"parallel\"]} ins(%28 : tensor<256x192x150x150xf32>) outs(%25 : tensor<256x192x150x150xf32>) {\n            ^bb0(%in: f32, %out: f32):\n            %cst_1 = arith.constant 0.000000e+00 : f32\n            %90 = arith.cmpf ugt, %in, %cst_1 : f32\n            %91 = arith.select %90, %in, %cst_1 : f32\n            linalg.yield %91 : f32\n        } -> tensor<256x192x150x150xf32>": {
    "operation": "linalg.generic {indexing_maps = [#map2, #map], iterator_types = [\"parallel\", \"parallel\", \"parallel\", \"parallel\"]} ins(%28 : tensor<256x192x150x150xf32>) outs(%25 : tensor<256x192x150x150xf32>) {\n            ^bb0(%in: f32, %out: f32):\n            %cst_1 = arith.constant 0.000000e+00 : f32\n            %90 = arith.cmpf ugt, %in, %cst_1 : f32\n            %91 = arith.select %90, %in, %cst_1 : f32\n            linalg.yield %91 : f32\n        } -> tensor<256x192x150x150xf32>",
    "wrapped_operation": "#map = affine_map<(d0, d1, d2, d3) -> (d0, d1, d2, d3)>\n        #map2 = affine_map<(d0, d1, d2, d3) -> (0, d1, d2, d3)>\nfunc.func @func_call(%28: tensor<256x192x150x150xf32>, %25: tensor<256x192x150x150xf32>) -> tensor<256x192x150x150xf32> {\n  %ret = linalg.generic {indexing_maps = [#map2, #map], iterator_types = [\"parallel\", \"parallel\", \"parallel\", \"parallel\"]} ins(%28 : tensor<256x192x150x150xf32>) outs(%25 : tensor<256x192x150x150xf32>) {\n            ^bb0(%in: f32, %out: f32):\n            %cst_1 = arith.constant 0.000000e+00 : f32\n            %90 = arith.cmpf ugt, %in, %cst_1 : f32\n            %91 = arith.select %90, %in, %cst_1 : f32\n            linalg.yield %91 : f32\n        } -> tensor<256x192x150x150xf32>\n  return %ret : tensor<256x192x150x150xf32>\n}",
    "lowered_operation": "module {\n  func.func @func_call(%arg0: tensor<256x192x150x150xf32>, %arg1: tensor<256x192x150x150xf32>) -> tensor<256x192x150x150xf32> {\n    %c0 = arith.constant 0 : index\n    %cst = arith.constant 0.000000e+00 : f32\n    %0 = bufferization.to_memref %arg0 : memref<256x192x150x150xf32>\n    %alloc = memref.alloc() {alignment = 64 : i64} : memref<256x192x150x150xf32>\n    affine.for %arg2 = 0 to 256 {\n      affine.for %arg3 = 0 to 192 {\n        affine.for %arg4 = 0 to 150 {\n          affine.for %arg5 = 0 to 150 {\n            %2 = affine.load %0[%c0, %arg3, %arg4, %arg5] : memref<256x192x150x150xf32>\n            %3 = arith.cmpf ugt, %2, %cst : f32\n            %4 = arith.select %3, %2, %cst : f32\n            affine.store %4, %alloc[%arg2, %arg3, %arg4, %arg5] : memref<256x192x150x150xf32>\n          }\n        }\n      }\n    }\n    %1 = bufferization.to_tensor %alloc : memref<256x192x150x150xf32>\n    return %1 : tensor<256x192x150x150xf32>\n  }\n}\n\n",
    "transform_wrapped_operation": "#map = affine_map<(d0, d1, d2, d3) -> (d0, d1, d2, d3)>\n        #map2 = affine_map<(d0, d1, d2, d3) -> (0, d1, d2, d3)>\nmodule attributes {torch.debug_module_name = \"Net\"} {\nfunc.func private @nanoTime() -> i64 attributes { llvm.emit_c_interface }\nfunc.func private @printFlops(f64)\nfunc.func private @printI64(i64)\nfunc.func private @printNewline()\nfunc.func private @printMemrefF32(tensor<*xf32>)\n\n\nfunc.func @matmul() -> tensor<256x192x150x150xf32>{\n\n%val = arith.constant 2.00000e+00 : f32\n%zero = arith.constant 0.00000e+00 : f32\n\n%tmp_28 = bufferization.alloc_tensor() : tensor<256x192x150x150xf32>\n%28 = linalg.fill ins(%val : f32) outs(%tmp_28 : tensor<256x192x150x150xf32>) -> tensor<256x192x150x150xf32>\n%tmp_25 = bufferization.alloc_tensor() : tensor<256x192x150x150xf32>\n%25 = linalg.fill ins(%val : f32) outs(%tmp_25 : tensor<256x192x150x150xf32>) -> tensor<256x192x150x150xf32>\n\n%t0 = func.call @nanoTime() : () -> (i64)\n\n%return_arg = linalg.generic {indexing_maps = [#map2, #map], iterator_types = [\"parallel\", \"parallel\", \"parallel\", \"parallel\"]} ins(%28 : tensor<256x192x150x150xf32>) outs(%25 : tensor<256x192x150x150xf32>) {\n            ^bb0(%in: f32, %out: f32):\n            %cst_1 = arith.constant 0.000000e+00 : f32\n            %90 = arith.cmpf ugt, %in, %cst_1 : f32\n            %91 = arith.select %90, %in, %cst_1 : f32\n            linalg.yield %91 : f32\n        } -> tensor<256x192x150x150xf32>\n%t = func.call @nanoTime() : () -> (i64)\n%delta = arith.subi %t, %t0 : i64\n%fp = arith.uitofp %delta : i64 to f64\n// func.call @printFlops(%fp) : (f64) -> ()\nfunc.call @printI64(%delta) : (i64) -> ()\nfunc.call @printNewline() : () -> ()\n\nreturn %return_arg : tensor<256x192x150x150xf32> \n}\n\nfunc.func @main(){\n    %c1 = arith.constant 1: index\n    %c0 = arith.constant 0 : index\n    %n = arith.constant 2: index\n    scf.for %i = %c0 to %n step %c1 {\n    %outputmain = func.call @matmul() : () -> tensor<256x192x150x150xf32>\n    }\n    return\n}\n}\n",
    "loops_data": {
      "nested_loops": [
        [
          "%arg2",
          0,
          256,
          1
        ],
        [
          "%arg3",
          0,
          192,
          1
        ],
        [
          "%arg4",
          0,
          150,
          1
        ],
        [
          "%arg5",
          0,
          150,
          1
        ]
      ],
      "op_count": {
        "+": 0,
        "-": 0,
        "*": 0,
        "/": 0,
        "exp": 0
      },
      "load_data": [
        [
          "%c0",
          "%arg3",
          "%arg4",
          "%arg5"
        ]
      ],
      "store_data": []
    },
    "execution_time": 942386419
  }
}