{"0": ["#map = affine_map<(d0, d1, d2, d3) -> (d3)>\n#map1 = affine_map<(d0, d1, d2, d3) -> (d0, d1, d2, d3)>\nmodule {\n  func.func @wrapper() {\n    %cst = arith.constant 2.000000e+00 : f32\n    %0 = bufferization.alloc_tensor() : tensor<666x1x1x224xf32>\n    %1 = linalg.fill ins(%cst : f32) outs(%0 : tensor<666x1x1x224xf32>) -> tensor<666x1x1x224xf32>\n    %2 = bufferization.alloc_tensor() : tensor<2240x1x1x224xf32>\n    %3 = linalg.fill ins(%cst : f32) outs(%2 : tensor<2240x1x1x224xf32>) -> tensor<2240x1x1x224xf32>\n    %4 = bufferization.alloc_tensor() : tensor<2240xf32>\n    %5 = linalg.fill ins(%cst : f32) outs(%4 : tensor<2240xf32>) -> tensor<2240xf32>\n    %6 = tensor.empty() : tensor<666x1x1x2240xf32>\n    %7 = linalg.generic {indexing_maps = [#map, #map1], iterator_types = [\"parallel\", \"parallel\", \"parallel\", \"parallel\"]} ins(%5 : tensor<2240xf32>) outs(%6 : tensor<666x1x1x2240xf32>) {\n    ^bb0(%in: f32, %out: f32):\n      linalg.yield %in : f32\n    } -> tensor<666x1x1x2240xf32>\n    %8 = linalg.conv_2d_nhwc_fhwc {dilations = dense<1> : tensor<2xi64>, strides = dense<1> : tensor<2xi64>} ins(%1, %3 : tensor<666x1x1x224xf32>, tensor<2240x1x1x224xf32>) outs(%7 : tensor<666x1x1x2240xf32>) -> tensor<666x1x1x2240xf32>\n    return\n  }\n}\n\n", "#map = affine_map<(d0, d1, d2, d3) -> (d0, 0, 0, d3)>\n#map1 = affine_map<(d0, d1, d2, d3) -> (d0, d1, d2, d3)>\nmodule {\n  func.func @wrapper() {\n    %cst = arith.constant 2.000000e+00 : f32\n    %0 = bufferization.alloc_tensor() : tensor<666x1x1x26xf32>\n    %1 = linalg.fill ins(%cst : f32) outs(%0 : tensor<666x1x1x26xf32>) -> tensor<666x1x1x26xf32>\n    %2 = tensor.empty() : tensor<666x1x1x26xf32>\n    %3 = linalg.generic {indexing_maps = [#map, #map1], iterator_types = [\"parallel\", \"parallel\", \"parallel\", \"parallel\"]} ins(%1 : tensor<666x1x1x26xf32>) outs(%2 : tensor<666x1x1x26xf32>) {\n    ^bb0(%in: f32, %out: f32):\n      %cst_0 = arith.constant 0.000000e+00 : f32\n      %cst_1 = arith.constant 3.40282347E+38 : f32\n      %4 = arith.minimumf %in, %cst_1 : f32\n      %5 = arith.maximumf %4, %cst_0 : f32\n      linalg.yield %5 : f32\n    } -> tensor<666x1x1x26xf32>\n    return\n  }\n}\n\n", "#map = affine_map<(d0, d1, d2, d3) -> (d0, d1, d2, d3)>\n#map1 = affine_map<(d0, d1, d2, d3) -> (0, 0, 0, d3)>\nmodule {\n  func.func @wrapper() {\n    %cst = arith.constant 2.000000e+00 : f32\n    %0 = bufferization.alloc_tensor() : tensor<666x7x7x1728xf32>\n    %1 = linalg.fill ins(%cst : f32) outs(%0 : tensor<666x7x7x1728xf32>) -> tensor<666x7x7x1728xf32>\n    %2 = bufferization.alloc_tensor() : tensor<1x1x1x1728xf32>\n    %3 = linalg.fill ins(%cst : f32) outs(%2 : tensor<1x1x1x1728xf32>) -> tensor<1x1x1x1728xf32>\n    %4 = tensor.empty() : tensor<666x7x7x1728xf32>\n    %5 = linalg.generic {indexing_maps = [#map, #map1, #map], iterator_types = [\"parallel\", \"parallel\", \"parallel\", \"parallel\"]} ins(%1, %3 : tensor<666x7x7x1728xf32>, tensor<1x1x1x1728xf32>) outs(%4 : tensor<666x7x7x1728xf32>) {\n    ^bb0(%in: f32, %in_0: f32, %out: f32):\n      %6 = arith.addf %in, %in_0 : f32\n      linalg.yield %6 : f32\n    } -> tensor<666x7x7x1728xf32>\n    return\n  }\n}\n\n", "#map = affine_map<(d0, d1, d2, d3) -> (d0, d1, d2, 0)>\n#map1 = affine_map<(d0, d1, d2, d3) -> (d0, d1, d2, d3)>\nmodule {\n  func.func @wrapper() {\n    %cst = arith.constant 2.000000e+00 : f32\n    %0 = bufferization.alloc_tensor() : tensor<666x56x56x1xf32>\n    %1 = linalg.fill ins(%cst : f32) outs(%0 : tensor<666x56x56x1xf32>) -> tensor<666x56x56x1xf32>\n    %2 = tensor.empty() : tensor<666x56x56x1xf32>\n    %3 = linalg.generic {indexing_maps = [#map, #map1], iterator_types = [\"parallel\", \"parallel\", \"parallel\", \"parallel\"]} ins(%1 : tensor<666x56x56x1xf32>) outs(%2 : tensor<666x56x56x1xf32>) {\n    ^bb0(%in: f32, %out: f32):\n      %4 = math.rsqrt %in : f32\n      linalg.yield %4 : f32\n    } -> tensor<666x56x56x1xf32>\n    return\n  }\n}\n\n", "#map = affine_map<(d0, d1, d2, d3) -> (d3)>\n#map1 = affine_map<(d0, d1, d2, d3) -> (d0, d1, d2, d3)>\nmodule {\n  func.func @wrapper() {\n    %cst = arith.constant 2.000000e+00 : f32\n    %0 = bufferization.alloc_tensor() : tensor<666x28x28x512xf32>\n    %1 = linalg.fill ins(%cst : f32) outs(%0 : tensor<666x28x28x512xf32>) -> tensor<666x28x28x512xf32>\n    %2 = bufferization.alloc_tensor() : tensor<512x1x1x512xf32>\n    %3 = linalg.fill ins(%cst : f32) outs(%2 : tensor<512x1x1x512xf32>) -> tensor<512x1x1x512xf32>\n    %4 = bufferization.alloc_tensor() : tensor<512xf32>\n    %5 = linalg.fill ins(%cst : f32) outs(%4 : tensor<512xf32>) -> tensor<512xf32>\n    %6 = tensor.empty() : tensor<666x28x28x512xf32>\n    %7 = linalg.generic {indexing_maps = [#map, #map1], iterator_types = [\"parallel\", \"parallel\", \"parallel\", \"parallel\"]} ins(%5 : tensor<512xf32>) outs(%6 : tensor<666x28x28x512xf32>) {\n    ^bb0(%in: f32, %out: f32):\n      linalg.yield %in : f32\n    } -> tensor<666x28x28x512xf32>\n    %8 = linalg.conv_2d_nhwc_fhwc {dilations = dense<1> : tensor<2xi64>, strides = dense<1> : tensor<2xi64>} ins(%1, %3 : tensor<666x28x28x512xf32>, tensor<512x1x1x512xf32>) outs(%7 : tensor<666x28x28x512xf32>) -> tensor<666x28x28x512xf32>\n    return\n  }\n}\n\n", "#map = affine_map<(d0, d1, d2, d3) -> (d0, d1, d2, d3)>\n#map1 = affine_map<(d0, d1, d2, d3) -> (0, 0, 0, d3)>\nmodule {\n  func.func @wrapper() {\n    %cst = arith.constant 2.000000e+00 : f32\n    %0 = bufferization.alloc_tensor() : tensor<666x42x42x168xf32>\n    %1 = linalg.fill ins(%cst : f32) outs(%0 : tensor<666x42x42x168xf32>) -> tensor<666x42x42x168xf32>\n    %2 = bufferization.alloc_tensor() : tensor<1x1x1x168xf32>\n    %3 = linalg.fill ins(%cst : f32) outs(%2 : tensor<1x1x1x168xf32>) -> tensor<1x1x1x168xf32>\n    %4 = tensor.empty() : tensor<666x42x42x168xf32>\n    %5 = linalg.generic {indexing_maps = [#map, #map1, #map], iterator_types = [\"parallel\", \"parallel\", \"parallel\", \"parallel\"]} ins(%1, %3 : tensor<666x42x42x168xf32>, tensor<1x1x1x168xf32>) outs(%4 : tensor<666x42x42x168xf32>) {\n    ^bb0(%in: f32, %in_0: f32, %out: f32):\n      %6 = arith.addf %in, %in_0 : f32\n      linalg.yield %6 : f32\n    } -> tensor<666x42x42x168xf32>\n    return\n  }\n}\n\n", "#map = affine_map<(d0, d1, d2, d3) -> (d0, d1, d2, d3)>\nmodule {\n  func.func @wrapper() {\n    %cst = arith.constant 2.000000e+00 : f32\n    %0 = bufferization.alloc_tensor() : tensor<666x56x56x11xf32>\n    %1 = linalg.fill ins(%cst : f32) outs(%0 : tensor<666x56x56x11xf32>) -> tensor<666x56x56x11xf32>\n    %2 = bufferization.alloc_tensor() : tensor<666x56x56x11xf32>\n    %3 = linalg.fill ins(%cst : f32) outs(%2 : tensor<666x56x56x11xf32>) -> tensor<666x56x56x11xf32>\n    %4 = tensor.empty() : tensor<666x56x56x11xf32>\n    %5 = linalg.generic {indexing_maps = [#map, #map, #map], iterator_types = [\"parallel\", \"parallel\", \"parallel\", \"parallel\"]} ins(%1, %3 : tensor<666x56x56x11xf32>, tensor<666x56x56x11xf32>) outs(%4 : tensor<666x56x56x11xf32>) {\n    ^bb0(%in: f32, %in_0: f32, %out: f32):\n      %6 = arith.addf %in, %in_0 : f32\n      linalg.yield %6 : f32\n    } -> tensor<666x56x56x11xf32>\n    return\n  }\n}\n\n", "#map = affine_map<(d0, d1) -> (d0, d1)>\nmodule {\n  func.func @wrapper() {\n    %cst = arith.constant 2.000000e+00 : f32\n    %0 = bufferization.alloc_tensor() : tensor<666x1536xf32>\n    %1 = linalg.fill ins(%cst : f32) outs(%0 : tensor<666x1536xf32>) -> tensor<666x1536xf32>\n    %2 = bufferization.alloc_tensor() : tensor<666x1536xf32>\n    %3 = linalg.fill ins(%cst : f32) outs(%2 : tensor<666x1536xf32>) -> tensor<666x1536xf32>\n    %4 = tensor.empty() : tensor<666x1536xf32>\n    %5 = linalg.generic {indexing_maps = [#map, #map, #map], iterator_types = [\"parallel\", \"parallel\"]} ins(%1, %3 : tensor<666x1536xf32>, tensor<666x1536xf32>) outs(%4 : tensor<666x1536xf32>) {\n    ^bb0(%in: f32, %in_0: f32, %out: f32):\n      %6 = arith.addf %in, %in_0 : f32\n      linalg.yield %6 : f32\n    } -> tensor<666x1536xf32>\n    return\n  }\n}\n\n", "#map = affine_map<(d0, d1, d2, d3) -> (d3)>\n#map1 = affine_map<(d0, d1, d2, d3) -> (d0, d1, d2, d3)>\nmodule {\n  func.func @wrapper() {\n    %cst = arith.constant 2.000000e+00 : f32\n    %0 = bufferization.alloc_tensor() : tensor<666x1x1x48xf32>\n    %1 = linalg.fill ins(%cst : f32) outs(%0 : tensor<666x1x1x48xf32>) -> tensor<666x1x1x48xf32>\n    %2 = bufferization.alloc_tensor() : tensor<12x1x1x48xf32>\n    %3 = linalg.fill ins(%cst : f32) outs(%2 : tensor<12x1x1x48xf32>) -> tensor<12x1x1x48xf32>\n    %4 = bufferization.alloc_tensor() : tensor<12xf32>\n    %5 = linalg.fill ins(%cst : f32) outs(%4 : tensor<12xf32>) -> tensor<12xf32>\n    %6 = tensor.empty() : tensor<666x1x1x12xf32>\n    %7 = linalg.generic {indexing_maps = [#map, #map1], iterator_types = [\"parallel\", \"parallel\", \"parallel\", \"parallel\"]} ins(%5 : tensor<12xf32>) outs(%6 : tensor<666x1x1x12xf32>) {\n    ^bb0(%in: f32, %out: f32):\n      linalg.yield %in : f32\n    } -> tensor<666x1x1x12xf32>\n    %8 = linalg.conv_2d_nhwc_fhwc {dilations = dense<1> : tensor<2xi64>, strides = dense<1> : tensor<2xi64>} ins(%1, %3 : tensor<666x1x1x48xf32>, tensor<12x1x1x48xf32>) outs(%7 : tensor<666x1x1x12xf32>) -> tensor<666x1x1x12xf32>\n    return\n  }\n}\n\n", "#map = affine_map<(d0, d1) -> (d0, d1)>\n#map1 = affine_map<(d0, d1) -> (0, 0)>\nmodule {\n  func.func @wrapper() {\n    %cst = arith.constant 2.000000e+00 : f32\n    %0 = bufferization.alloc_tensor() : tensor<666x2048xf32>\n    %1 = linalg.fill ins(%cst : f32) outs(%0 : tensor<666x2048xf32>) -> tensor<666x2048xf32>\n    %2 = bufferization.alloc_tensor() : tensor<1x1xf32>\n    %3 = linalg.fill ins(%cst : f32) outs(%2 : tensor<1x1xf32>) -> tensor<1x1xf32>\n    %4 = tensor.empty() : tensor<666x2048xf32>\n    %5 = linalg.generic {indexing_maps = [#map, #map1, #map], iterator_types = [\"parallel\", \"parallel\"]} ins(%1, %3 : tensor<666x2048xf32>, tensor<1x1xf32>) outs(%4 : tensor<666x2048xf32>) {\n    ^bb0(%in: f32, %in_0: f32, %out: f32):\n      %6 = arith.mulf %in, %in_0 : f32\n      linalg.yield %6 : f32\n    } -> tensor<666x2048xf32>\n    return\n  }\n}\n\n", "#map = affine_map<(d0, d1, d2, d3) -> (d0, d1, d2, d3)>\n#map1 = affine_map<(d0, d1, d2, d3) -> (0, 0, 0, d3)>\nmodule {\n  func.func @wrapper() {\n    %cst = arith.constant 2.000000e+00 : f32\n    %0 = bufferization.alloc_tensor() : tensor<666x56x56x120xf32>\n    %1 = linalg.fill ins(%cst : f32) outs(%0 : tensor<666x56x56x120xf32>) -> tensor<666x56x56x120xf32>\n    %2 = bufferization.alloc_tensor() : tensor<1x1x1x120xf32>\n    %3 = linalg.fill ins(%cst : f32) outs(%2 : tensor<1x1x1x120xf32>) -> tensor<1x1x1x120xf32>\n    %4 = tensor.empty() : tensor<666x56x56x120xf32>\n    %5 = linalg.generic {indexing_maps = [#map, #map1, #map], iterator_types = [\"parallel\", \"parallel\", \"parallel\", \"parallel\"]} ins(%1, %3 : tensor<666x56x56x120xf32>, tensor<1x1x1x120xf32>) outs(%4 : tensor<666x56x56x120xf32>) {\n    ^bb0(%in: f32, %in_0: f32, %out: f32):\n      %6 = arith.addf %in, %in_0 : f32\n      linalg.yield %6 : f32\n    } -> tensor<666x56x56x120xf32>\n    return\n  }\n}\n\n", "#map = affine_map<(d0, d1, d2, d3) -> (d0, d1, d2, d3)>\n#map1 = affine_map<(d0, d1, d2, d3) -> (0, 0, 0, d3)>\nmodule {\n  func.func @wrapper() {\n    %cst = arith.constant 2.000000e+00 : f32\n    %0 = bufferization.alloc_tensor() : tensor<666x28x28x896xf32>\n    %1 = linalg.fill ins(%cst : f32) outs(%0 : tensor<666x28x28x896xf32>) -> tensor<666x28x28x896xf32>\n    %2 = bufferization.alloc_tensor() : tensor<1x1x1x896xf32>\n    %3 = linalg.fill ins(%cst : f32) outs(%2 : tensor<1x1x1x896xf32>) -> tensor<1x1x1x896xf32>\n    %4 = tensor.empty() : tensor<666x28x28x896xf32>\n    %5 = linalg.generic {indexing_maps = [#map, #map1, #map], iterator_types = [\"parallel\", \"parallel\", \"parallel\", \"parallel\"]} ins(%1, %3 : tensor<666x28x28x896xf32>, tensor<1x1x1x896xf32>) outs(%4 : tensor<666x28x28x896xf32>) {\n    ^bb0(%in: f32, %in_0: f32, %out: f32):\n      %6 = arith.addf %in, %in_0 : f32\n      linalg.yield %6 : f32\n    } -> tensor<666x28x28x896xf32>\n    return\n  }\n}\n\n", "#map = affine_map<(d0, d1, d2, d3) -> (d0, d1, d2, d3)>\n#map1 = affine_map<(d0, d1, d2, d3) -> (0, 0, 0, d3)>\nmodule {\n  func.func @wrapper() {\n    %cst = arith.constant 2.000000e+00 : f32\n    %0 = bufferization.alloc_tensor() : tensor<666x35x35x256xf32>\n    %1 = linalg.fill ins(%cst : f32) outs(%0 : tensor<666x35x35x256xf32>) -> tensor<666x35x35x256xf32>\n    %2 = bufferization.alloc_tensor() : tensor<1x1x1x256xf32>\n    %3 = linalg.fill ins(%cst : f32) outs(%2 : tensor<1x1x1x256xf32>) -> tensor<1x1x1x256xf32>\n    %4 = tensor.empty() : tensor<666x35x35x256xf32>\n    %5 = linalg.generic {indexing_maps = [#map, #map1, #map], iterator_types = [\"parallel\", \"parallel\", \"parallel\", \"parallel\"]} ins(%1, %3 : tensor<666x35x35x256xf32>, tensor<1x1x1x256xf32>) outs(%4 : tensor<666x35x35x256xf32>) {\n    ^bb0(%in: f32, %in_0: f32, %out: f32):\n      %6 = arith.mulf %in, %in_0 : f32\n      linalg.yield %6 : f32\n    } -> tensor<666x35x35x256xf32>\n    return\n  }\n}\n\n", "#map = affine_map<(d0, d1, d2, d3) -> (d0, d1, d2, d3)>\n#map1 = affine_map<(d0, d1, d2, d3) -> (0, 0, 0, d3)>\nmodule {\n  func.func @wrapper() {\n    %cst = arith.constant 2.000000e+00 : f32\n    %0 = bufferization.alloc_tensor() : tensor<666x56x56x112xf32>\n    %1 = linalg.fill ins(%cst : f32) outs(%0 : tensor<666x56x56x112xf32>) -> tensor<666x56x56x112xf32>\n    %2 = bufferization.alloc_tensor() : tensor<1x1x1x112xf32>\n    %3 = linalg.fill ins(%cst : f32) outs(%2 : tensor<1x1x1x112xf32>) -> tensor<1x1x1x112xf32>\n    %4 = tensor.empty() : tensor<666x56x56x112xf32>\n    %5 = linalg.generic {indexing_maps = [#map, #map1, #map], iterator_types = [\"parallel\", \"parallel\", \"parallel\", \"parallel\"]} ins(%1, %3 : tensor<666x56x56x112xf32>, tensor<1x1x1x112xf32>) outs(%4 : tensor<666x56x56x112xf32>) {\n    ^bb0(%in: f32, %in_0: f32, %out: f32):\n      %6 = arith.subf %in, %in_0 : f32\n      linalg.yield %6 : f32\n    } -> tensor<666x56x56x112xf32>\n    return\n  }\n}\n\n", "#map = affine_map<(d0, d1, d2, d3) -> (d0, d1, d2, d3)>\nmodule {\n  func.func @wrapper() {\n    %cst = arith.constant 2.000000e+00 : f32\n    %0 = bufferization.alloc_tensor() : tensor<666x28x28x2048xf32>\n    %1 = linalg.fill ins(%cst : f32) outs(%0 : tensor<666x28x28x2048xf32>) -> tensor<666x28x28x2048xf32>\n    %2 = tensor.empty() : tensor<666x28x28x2048xf32>\n    %3 = linalg.generic {indexing_maps = [#map, #map], iterator_types = [\"parallel\", \"parallel\", \"parallel\", \"parallel\"]} ins(%1 : tensor<666x28x28x2048xf32>) outs(%2 : tensor<666x28x28x2048xf32>) {\n    ^bb0(%in: f32, %out: f32):\n      %4 = math.erf %in : f32\n      linalg.yield %4 : f32\n    } -> tensor<666x28x28x2048xf32>\n    return\n  }\n}\n\n", "#map = affine_map<(d0, d1, d2, d3) -> (d3)>\n#map1 = affine_map<(d0, d1, d2, d3) -> (d0, d1, d2, d3)>\nmodule {\n  func.func @wrapper() {\n    %cst = arith.constant 2.000000e+00 : f32\n    %0 = bufferization.alloc_tensor() : tensor<666x83x83x42xf32>\n    %1 = linalg.fill ins(%cst : f32) outs(%0 : tensor<666x83x83x42xf32>) -> tensor<666x83x83x42xf32>\n    %2 = bufferization.alloc_tensor() : tensor<42x1x1x42xf32>\n    %3 = linalg.fill ins(%cst : f32) outs(%2 : tensor<42x1x1x42xf32>) -> tensor<42x1x1x42xf32>\n    %4 = bufferization.alloc_tensor() : tensor<42xf32>\n    %5 = linalg.fill ins(%cst : f32) outs(%4 : tensor<42xf32>) -> tensor<42xf32>\n    %6 = tensor.empty() : tensor<666x83x83x42xf32>\n    %7 = linalg.generic {indexing_maps = [#map, #map1], iterator_types = [\"parallel\", \"parallel\", \"parallel\", \"parallel\"]} ins(%5 : tensor<42xf32>) outs(%6 : tensor<666x83x83x42xf32>) {\n    ^bb0(%in: f32, %out: f32):\n      linalg.yield %in : f32\n    } -> tensor<666x83x83x42xf32>\n    %8 = linalg.conv_2d_nhwc_fhwc {dilations = dense<1> : tensor<2xi64>, strides = dense<1> : tensor<2xi64>} ins(%1, %3 : tensor<666x83x83x42xf32>, tensor<42x1x1x42xf32>) outs(%7 : tensor<666x83x83x42xf32>) -> tensor<666x83x83x42xf32>\n    return\n  }\n}\n\n", "#map = affine_map<(d0, d1) -> (d0, d1)>\nmodule {\n  func.func @wrapper() {\n    %cst = arith.constant 2.000000e+00 : f32\n    %0 = bufferization.alloc_tensor() : tensor<666x1024xf32>\n    %1 = linalg.fill ins(%cst : f32) outs(%0 : tensor<666x1024xf32>) -> tensor<666x1024xf32>\n    %2 = bufferization.alloc_tensor() : tensor<666x1024xf32>\n    %3 = linalg.fill ins(%cst : f32) outs(%2 : tensor<666x1024xf32>) -> tensor<666x1024xf32>\n    %4 = tensor.empty() : tensor<666x1024xf32>\n    %5 = linalg.generic {indexing_maps = [#map, #map, #map], iterator_types = [\"parallel\", \"parallel\"]} ins(%1, %3 : tensor<666x1024xf32>, tensor<666x1024xf32>) outs(%4 : tensor<666x1024xf32>) {\n    ^bb0(%in: f32, %in_0: f32, %out: f32):\n      %6 = arith.mulf %in, %in_0 : f32\n      linalg.yield %6 : f32\n    } -> tensor<666x1024xf32>\n    return\n  }\n}\n\n", "#map = affine_map<(d0, d1, d2, d3) -> (d0, d1, d2, d3)>\nmodule {\n  func.func @wrapper() {\n    %cst = arith.constant 2.000000e+00 : f32\n    %0 = bufferization.alloc_tensor() : tensor<666x7x7x1728xf32>\n    %1 = linalg.fill ins(%cst : f32) outs(%0 : tensor<666x7x7x1728xf32>) -> tensor<666x7x7x1728xf32>\n    %2 = tensor.empty() : tensor<666x7x7x1728xf32>\n    %3 = linalg.generic {indexing_maps = [#map, #map], iterator_types = [\"parallel\", \"parallel\", \"parallel\", \"parallel\"]} ins(%1 : tensor<666x7x7x1728xf32>) outs(%2 : tensor<666x7x7x1728xf32>) {\n    ^bb0(%in: f32, %out: f32):\n      %cst_0 = arith.constant 0.000000e+00 : f32\n      %cst_1 = arith.constant 3.40282347E+38 : f32\n      %4 = arith.minimumf %in, %cst_1 : f32\n      %5 = arith.maximumf %4, %cst_0 : f32\n      linalg.yield %5 : f32\n    } -> tensor<666x7x7x1728xf32>\n    return\n  }\n}\n\n", "#map = affine_map<(d0, d1, d2, d3) -> (d3)>\n#map1 = affine_map<(d0, d1, d2, d3) -> (d0, d1, d2, d3)>\nmodule {\n  func.func @wrapper() {\n    %cst = arith.constant 2.000000e+00 : f32\n    %0 = bufferization.alloc_tensor() : tensor<666x7x7x176xf32>\n    %1 = linalg.fill ins(%cst : f32) outs(%0 : tensor<666x7x7x176xf32>) -> tensor<666x7x7x176xf32>\n    %2 = bufferization.alloc_tensor() : tensor<5x5x176x1xf32>\n    %3 = linalg.fill ins(%cst : f32) outs(%2 : tensor<5x5x176x1xf32>) -> tensor<5x5x176x1xf32>\n    %4 = bufferization.alloc_tensor() : tensor<176xf32>\n    %5 = linalg.fill ins(%cst : f32) outs(%4 : tensor<176xf32>) -> tensor<176xf32>\n    %cst_0 = arith.constant 0.000000e+00 : f32\n    %padded = tensor.pad %1 low[0, 2, 2, 0] high[0, 2, 2, 0] {\n    ^bb0(%arg0: index, %arg1: index, %arg2: index, %arg3: index):\n      tensor.yield %cst_0 : f32\n    } : tensor<666x7x7x176xf32> to tensor<666x11x11x176xf32>\n    %6 = tensor.empty() : tensor<666x7x7x176x1xf32>\n    %cst_1 = arith.constant 0.000000e+00 : f32\n    %7 = linalg.fill ins(%cst_1 : f32) outs(%6 : tensor<666x7x7x176x1xf32>) -> tensor<666x7x7x176x1xf32>\n    %8 = tensor.empty() : tensor<666x7x7x176xf32>\n    %9 = linalg.depthwise_conv_2d_nhwc_hwcm {dilations = dense<1> : tensor<2xi64>, strides = dense<1> : tensor<2xi64>} ins(%padded, %3 : tensor<666x11x11x176xf32>, tensor<5x5x176x1xf32>) outs(%7 : tensor<666x7x7x176x1xf32>) -> tensor<666x7x7x176x1xf32>\n    %collapsed = tensor.collapse_shape %9 [[0], [1], [2], [3, 4]] : tensor<666x7x7x176x1xf32> into tensor<666x7x7x176xf32>\n    %10 = linalg.generic {indexing_maps = [#map, #map1, #map1], iterator_types = [\"parallel\", \"parallel\", \"parallel\", \"parallel\"]} ins(%5, %collapsed : tensor<176xf32>, tensor<666x7x7x176xf32>) outs(%8 : tensor<666x7x7x176xf32>) {\n    ^bb0(%in: f32, %in_2: f32, %out: f32):\n      %11 = arith.addf %in, %in_2 : f32\n      linalg.yield %11 : f32\n    } -> tensor<666x7x7x176xf32>\n    return\n  }\n}\n\n", "#map = affine_map<(d0, d1, d2, d3) -> (d3)>\n#map1 = affine_map<(d0, d1, d2, d3) -> (d0, d1, d2, d3)>\nmodule {\n  func.func @wrapper() {\n    %cst = arith.constant 2.000000e+00 : f32\n    %0 = bufferization.alloc_tensor() : tensor<666x113x113x96xf32>\n    %1 = linalg.fill ins(%cst : f32) outs(%0 : tensor<666x113x113x96xf32>) -> tensor<666x113x113x96xf32>\n    %2 = bufferization.alloc_tensor() : tensor<3x3x96x1xf32>\n    %3 = linalg.fill ins(%cst : f32) outs(%2 : tensor<3x3x96x1xf32>) -> tensor<3x3x96x1xf32>\n    %4 = bufferization.alloc_tensor() : tensor<96xf32>\n    %5 = linalg.fill ins(%cst : f32) outs(%4 : tensor<96xf32>) -> tensor<96xf32>\n    %6 = tensor.empty() : tensor<666x56x56x96x1xf32>\n    %cst_0 = arith.constant 0.000000e+00 : f32\n    %7 = linalg.fill ins(%cst_0 : f32) outs(%6 : tensor<666x56x56x96x1xf32>) -> tensor<666x56x56x96x1xf32>\n    %8 = tensor.empty() : tensor<666x56x56x96xf32>\n    %9 = linalg.depthwise_conv_2d_nhwc_hwcm {dilations = dense<1> : tensor<2xi64>, strides = dense<2> : tensor<2xi64>} ins(%1, %3 : tensor<666x113x113x96xf32>, tensor<3x3x96x1xf32>) outs(%7 : tensor<666x56x56x96x1xf32>) -> tensor<666x56x56x96x1xf32>\n    %collapsed = tensor.collapse_shape %9 [[0], [1], [2], [3, 4]] : tensor<666x56x56x96x1xf32> into tensor<666x56x56x96xf32>\n    %10 = linalg.generic {indexing_maps = [#map, #map1, #map1], iterator_types = [\"parallel\", \"parallel\", \"parallel\", \"parallel\"]} ins(%5, %collapsed : tensor<96xf32>, tensor<666x56x56x96xf32>) outs(%8 : tensor<666x56x56x96xf32>) {\n    ^bb0(%in: f32, %in_1: f32, %out: f32):\n      %11 = arith.addf %in, %in_1 : f32\n      linalg.yield %11 : f32\n    } -> tensor<666x56x56x96xf32>\n    return\n  }\n}\n\n", "#map = affine_map<(d0, d1, d2, d3) -> (d0, d1, d2, d3)>\nmodule {\n  func.func @wrapper() {\n    %cst = arith.constant 2.000000e+00 : f32\n    %0 = bufferization.alloc_tensor() : tensor<666x56x56x104xf32>\n    %1 = linalg.fill ins(%cst : f32) outs(%0 : tensor<666x56x56x104xf32>) -> tensor<666x56x56x104xf32>\n    %2 = tensor.empty() : tensor<666x56x56x104xf32>\n    %3 = linalg.generic {indexing_maps = [#map, #map], iterator_types = [\"parallel\", \"parallel\", \"parallel\", \"parallel\"]} ins(%1 : tensor<666x56x56x104xf32>) outs(%2 : tensor<666x56x56x104xf32>) {\n    ^bb0(%in: f32, %out: f32):\n      %cst_0 = arith.constant 0.000000e+00 : f32\n      %cst_1 = arith.constant 3.40282347E+38 : f32\n      %4 = arith.minimumf %in, %cst_1 : f32\n      %5 = arith.maximumf %4, %cst_0 : f32\n      linalg.yield %5 : f32\n    } -> tensor<666x56x56x104xf32>\n    return\n  }\n}\n\n", "#map = affine_map<(d0, d1, d2, d3) -> (d3)>\n#map1 = affine_map<(d0, d1, d2, d3) -> (d0, d1, d2, d3)>\nmodule {\n  func.func @wrapper() {\n    %cst = arith.constant 2.000000e+00 : f32\n    %0 = bufferization.alloc_tensor() : tensor<666x14x14x480xf32>\n    %1 = linalg.fill ins(%cst : f32) outs(%0 : tensor<666x14x14x480xf32>) -> tensor<666x14x14x480xf32>\n    %2 = bufferization.alloc_tensor() : tensor<128x1x1x480xf32>\n    %3 = linalg.fill ins(%cst : f32) outs(%2 : tensor<128x1x1x480xf32>) -> tensor<128x1x1x480xf32>\n    %4 = bufferization.alloc_tensor() : tensor<128xf32>\n    %5 = linalg.fill ins(%cst : f32) outs(%4 : tensor<128xf32>) -> tensor<128xf32>\n    %6 = tensor.empty() : tensor<666x14x14x128xf32>\n    %7 = linalg.generic {indexing_maps = [#map, #map1], iterator_types = [\"parallel\", \"parallel\", \"parallel\", \"parallel\"]} ins(%5 : tensor<128xf32>) outs(%6 : tensor<666x14x14x128xf32>) {\n    ^bb0(%in: f32, %out: f32):\n      linalg.yield %in : f32\n    } -> tensor<666x14x14x128xf32>\n    %8 = linalg.conv_2d_nhwc_fhwc {dilations = dense<1> : tensor<2xi64>, strides = dense<1> : tensor<2xi64>} ins(%1, %3 : tensor<666x14x14x480xf32>, tensor<128x1x1x480xf32>) outs(%7 : tensor<666x14x14x128xf32>) -> tensor<666x14x14x128xf32>\n    return\n  }\n}\n\n", "#map = affine_map<(d0, d1, d2, d3) -> (d3)>\n#map1 = affine_map<(d0, d1, d2, d3) -> (d0, d1, d2, d3)>\nmodule {\n  func.func @wrapper() {\n    %cst = arith.constant 2.000000e+00 : f32\n    %0 = bufferization.alloc_tensor() : tensor<666x56x56x336xf32>\n    %1 = linalg.fill ins(%cst : f32) outs(%0 : tensor<666x56x56x336xf32>) -> tensor<666x56x56x336xf32>\n    %2 = bufferization.alloc_tensor() : tensor<672x1x1x336xf32>\n    %3 = linalg.fill ins(%cst : f32) outs(%2 : tensor<672x1x1x336xf32>) -> tensor<672x1x1x336xf32>\n    %4 = bufferization.alloc_tensor() : tensor<672xf32>\n    %5 = linalg.fill ins(%cst : f32) outs(%4 : tensor<672xf32>) -> tensor<672xf32>\n    %6 = tensor.empty() : tensor<666x56x56x672xf32>\n    %7 = linalg.generic {indexing_maps = [#map, #map1], iterator_types = [\"parallel\", \"parallel\", \"parallel\", \"parallel\"]} ins(%5 : tensor<672xf32>) outs(%6 : tensor<666x56x56x672xf32>) {\n    ^bb0(%in: f32, %out: f32):\n      linalg.yield %in : f32\n    } -> tensor<666x56x56x672xf32>\n    %8 = linalg.conv_2d_nhwc_fhwc {dilations = dense<1> : tensor<2xi64>, strides = dense<1> : tensor<2xi64>} ins(%1, %3 : tensor<666x56x56x336xf32>, tensor<672x1x1x336xf32>) outs(%7 : tensor<666x56x56x672xf32>) -> tensor<666x56x56x672xf32>\n    return\n  }\n}\n\n", "#map = affine_map<(d0, d1, d2, d3) -> (d0, d1, d2, d3)>\n#map1 = affine_map<(d0, d1, d2, d3) -> (0, 0, 0, d3)>\nmodule {\n  func.func @wrapper() {\n    %cst = arith.constant 2.000000e+00 : f32\n    %0 = bufferization.alloc_tensor() : tensor<666x14x14x88xf32>\n    %1 = linalg.fill ins(%cst : f32) outs(%0 : tensor<666x14x14x88xf32>) -> tensor<666x14x14x88xf32>\n    %2 = bufferization.alloc_tensor() : tensor<1x1x1x88xf32>\n    %3 = linalg.fill ins(%cst : f32) outs(%2 : tensor<1x1x1x88xf32>) -> tensor<1x1x1x88xf32>\n    %4 = tensor.empty() : tensor<666x14x14x88xf32>\n    %5 = linalg.generic {indexing_maps = [#map, #map1, #map], iterator_types = [\"parallel\", \"parallel\", \"parallel\", \"parallel\"]} ins(%1, %3 : tensor<666x14x14x88xf32>, tensor<1x1x1x88xf32>) outs(%4 : tensor<666x14x14x88xf32>) {\n    ^bb0(%in: f32, %in_0: f32, %out: f32):\n      %6 = arith.subf %in, %in_0 : f32\n      linalg.yield %6 : f32\n    } -> tensor<666x14x14x88xf32>\n    return\n  }\n}\n\n", "#map = affine_map<(d0, d1, d2, d3) -> (d3)>\n#map1 = affine_map<(d0, d1, d2, d3) -> (d0, d1, d2, d3)>\nmodule {\n  func.func @wrapper() {\n    %cst = arith.constant 2.000000e+00 : f32\n    %0 = bufferization.alloc_tensor() : tensor<666x56x56x192xf32>\n    %1 = linalg.fill ins(%cst : f32) outs(%0 : tensor<666x56x56x192xf32>) -> tensor<666x56x56x192xf32>\n    %2 = bufferization.alloc_tensor() : tensor<384x2x2x192xf32>\n    %3 = linalg.fill ins(%cst : f32) outs(%2 : tensor<384x2x2x192xf32>) -> tensor<384x2x2x192xf32>\n    %4 = bufferization.alloc_tensor() : tensor<384xf32>\n    %5 = linalg.fill ins(%cst : f32) outs(%4 : tensor<384xf32>) -> tensor<384xf32>\n    %6 = tensor.empty() : tensor<666x28x28x384xf32>\n    %7 = linalg.generic {indexing_maps = [#map, #map1], iterator_types = [\"parallel\", \"parallel\", \"parallel\", \"parallel\"]} ins(%5 : tensor<384xf32>) outs(%6 : tensor<666x28x28x384xf32>) {\n    ^bb0(%in: f32, %out: f32):\n      linalg.yield %in : f32\n    } -> tensor<666x28x28x384xf32>\n    %8 = linalg.conv_2d_nhwc_fhwc {dilations = dense<1> : tensor<2xi64>, strides = dense<2> : tensor<2xi64>} ins(%1, %3 : tensor<666x56x56x192xf32>, tensor<384x2x2x192xf32>) outs(%7 : tensor<666x28x28x384xf32>) -> tensor<666x28x28x384xf32>\n    return\n  }\n}\n\n", "#map = affine_map<(d0, d1, d2, d3) -> (d0, d1, d2, d3)>\n#map1 = affine_map<(d0, d1, d2, d3) -> (0, 0, 0, d3)>\nmodule {\n  func.func @wrapper() {\n    %cst = arith.constant 2.000000e+00 : f32\n    %0 = bufferization.alloc_tensor() : tensor<666x8x8x1536xf32>\n    %1 = linalg.fill ins(%cst : f32) outs(%0 : tensor<666x8x8x1536xf32>) -> tensor<666x8x8x1536xf32>\n    %2 = bufferization.alloc_tensor() : tensor<1x1x1x1536xf32>\n    %3 = linalg.fill ins(%cst : f32) outs(%2 : tensor<1x1x1x1536xf32>) -> tensor<1x1x1x1536xf32>\n    %4 = tensor.empty() : tensor<666x8x8x1536xf32>\n    %5 = linalg.generic {indexing_maps = [#map, #map1, #map], iterator_types = [\"parallel\", \"parallel\", \"parallel\", \"parallel\"]} ins(%1, %3 : tensor<666x8x8x1536xf32>, tensor<1x1x1x1536xf32>) outs(%4 : tensor<666x8x8x1536xf32>) {\n    ^bb0(%in: f32, %in_0: f32, %out: f32):\n      %6 = arith.addf %in, %in_0 : f32\n      linalg.yield %6 : f32\n    } -> tensor<666x8x8x1536xf32>\n    return\n  }\n}\n\n", "#map = affine_map<(d0, d1, d2, d3) -> (d0, d1, d2, d3)>\n#map1 = affine_map<(d0, d1, d2, d3) -> (0, 0, 0, d3)>\nmodule {\n  func.func @wrapper() {\n    %cst = arith.constant 2.000000e+00 : f32\n    %0 = bufferization.alloc_tensor() : tensor<666x7x7x2048xf32>\n    %1 = linalg.fill ins(%cst : f32) outs(%0 : tensor<666x7x7x2048xf32>) -> tensor<666x7x7x2048xf32>\n    %2 = bufferization.alloc_tensor() : tensor<1x1x1x2048xf32>\n    %3 = linalg.fill ins(%cst : f32) outs(%2 : tensor<1x1x1x2048xf32>) -> tensor<1x1x1x2048xf32>\n    %4 = tensor.empty() : tensor<666x7x7x2048xf32>\n    %5 = linalg.generic {indexing_maps = [#map, #map1, #map], iterator_types = [\"parallel\", \"parallel\", \"parallel\", \"parallel\"]} ins(%1, %3 : tensor<666x7x7x2048xf32>, tensor<1x1x1x2048xf32>) outs(%4 : tensor<666x7x7x2048xf32>) {\n    ^bb0(%in: f32, %in_0: f32, %out: f32):\n      %6 = arith.addf %in, %in_0 : f32\n      linalg.yield %6 : f32\n    } -> tensor<666x7x7x2048xf32>\n    return\n  }\n}\n\n", "#map = affine_map<(d0, d1, d2, d3) -> (d0, d1, d2, d3)>\n#map1 = affine_map<(d0, d1, d2, d3) -> (0, 0, 0, d3)>\nmodule {\n  func.func @wrapper() {\n    %cst = arith.constant 2.000000e+00 : f32\n    %0 = bufferization.alloc_tensor() : tensor<666x56x56x168xf32>\n    %1 = linalg.fill ins(%cst : f32) outs(%0 : tensor<666x56x56x168xf32>) -> tensor<666x56x56x168xf32>\n    %2 = bufferization.alloc_tensor() : tensor<1x1x1x168xf32>\n    %3 = linalg.fill ins(%cst : f32) outs(%2 : tensor<1x1x1x168xf32>) -> tensor<1x1x1x168xf32>\n    %4 = tensor.empty() : tensor<666x56x56x168xf32>\n    %5 = linalg.generic {indexing_maps = [#map, #map1, #map], iterator_types = [\"parallel\", \"parallel\", \"parallel\", \"parallel\"]} ins(%1, %3 : tensor<666x56x56x168xf32>, tensor<1x1x1x168xf32>) outs(%4 : tensor<666x56x56x168xf32>) {\n    ^bb0(%in: f32, %in_0: f32, %out: f32):\n      %6 = arith.subf %in, %in_0 : f32\n      linalg.yield %6 : f32\n    } -> tensor<666x56x56x168xf32>\n    return\n  }\n}\n\n", "#map = affine_map<(d0, d1, d2, d3) -> (d0, d1, d2, d3)>\n#map1 = affine_map<(d0, d1, d2, d3) -> (0, 0, 0, d3)>\nmodule {\n  func.func @wrapper() {\n    %cst = arith.constant 2.000000e+00 : f32\n    %0 = bufferization.alloc_tensor() : tensor<666x42x42x336xf32>\n    %1 = linalg.fill ins(%cst : f32) outs(%0 : tensor<666x42x42x336xf32>) -> tensor<666x42x42x336xf32>\n    %2 = bufferization.alloc_tensor() : tensor<1x1x1x336xf32>\n    %3 = linalg.fill ins(%cst : f32) outs(%2 : tensor<1x1x1x336xf32>) -> tensor<1x1x1x336xf32>\n    %4 = tensor.empty() : tensor<666x42x42x336xf32>\n    %5 = linalg.generic {indexing_maps = [#map, #map1, #map], iterator_types = [\"parallel\", \"parallel\", \"parallel\", \"parallel\"]} ins(%1, %3 : tensor<666x42x42x336xf32>, tensor<1x1x1x336xf32>) outs(%4 : tensor<666x42x42x336xf32>) {\n    ^bb0(%in: f32, %in_0: f32, %out: f32):\n      %6 = arith.mulf %in, %in_0 : f32\n      linalg.yield %6 : f32\n    } -> tensor<666x42x42x336xf32>\n    return\n  }\n}\n\n", "#map = affine_map<(d0) -> (d0)>\nmodule {\n  func.func @wrapper() {\n    %cst = arith.constant 2.000000e+00 : f32\n    %0 = bufferization.alloc_tensor() : tensor<696xf32>\n    %1 = linalg.fill ins(%cst : f32) outs(%0 : tensor<696xf32>) -> tensor<696xf32>\n    %2 = tensor.empty() : tensor<696xf32>\n    %3 = linalg.generic {indexing_maps = [#map, #map], iterator_types = [\"parallel\"]} ins(%1 : tensor<696xf32>) outs(%2 : tensor<696xf32>) {\n    ^bb0(%in: f32, %out: f32):\n      %4 = math.rsqrt %in : f32\n      linalg.yield %4 : f32\n    } -> tensor<696xf32>\n    return\n  }\n}\n\n", "#map = affine_map<(d0, d1, d2, d3) -> (d0, d1, d2, d3)>\n#map1 = affine_map<(d0, d1, d2, d3) -> (0, 0, 0, d3)>\nmodule {\n  func.func @wrapper() {\n    %cst = arith.constant 2.000000e+00 : f32\n    %0 = bufferization.alloc_tensor() : tensor<666x21x21x672xf32>\n    %1 = linalg.fill ins(%cst : f32) outs(%0 : tensor<666x21x21x672xf32>) -> tensor<666x21x21x672xf32>\n    %2 = bufferization.alloc_tensor() : tensor<1x1x1x672xf32>\n    %3 = linalg.fill ins(%cst : f32) outs(%2 : tensor<1x1x1x672xf32>) -> tensor<1x1x1x672xf32>\n    %4 = tensor.empty() : tensor<666x21x21x672xf32>\n    %5 = linalg.generic {indexing_maps = [#map, #map1, #map], iterator_types = [\"parallel\", \"parallel\", \"parallel\", \"parallel\"]} ins(%1, %3 : tensor<666x21x21x672xf32>, tensor<1x1x1x672xf32>) outs(%4 : tensor<666x21x21x672xf32>) {\n    ^bb0(%in: f32, %in_0: f32, %out: f32):\n      %6 = arith.mulf %in, %in_0 : f32\n      linalg.yield %6 : f32\n    } -> tensor<666x21x21x672xf32>\n    return\n  }\n}\n\n", "#map = affine_map<(d0, d1, d2, d3) -> (d3)>\n#map1 = affine_map<(d0, d1, d2, d3) -> (d0, d1, d2, d3)>\nmodule {\n  func.func @wrapper() {\n    %cst = arith.constant 2.000000e+00 : f32\n    %0 = bufferization.alloc_tensor() : tensor<666x14x14x1312xf32>\n    %1 = linalg.fill ins(%cst : f32) outs(%0 : tensor<666x14x14x1312xf32>) -> tensor<666x14x14x1312xf32>\n    %2 = bufferization.alloc_tensor() : tensor<128x1x1x1312xf32>\n    %3 = linalg.fill ins(%cst : f32) outs(%2 : tensor<128x1x1x1312xf32>) -> tensor<128x1x1x1312xf32>\n    %4 = bufferization.alloc_tensor() : tensor<128xf32>\n    %5 = linalg.fill ins(%cst : f32) outs(%4 : tensor<128xf32>) -> tensor<128xf32>\n    %6 = tensor.empty() : tensor<666x14x14x128xf32>\n    %7 = linalg.generic {indexing_maps = [#map, #map1], iterator_types = [\"parallel\", \"parallel\", \"parallel\", \"parallel\"]} ins(%5 : tensor<128xf32>) outs(%6 : tensor<666x14x14x128xf32>) {\n    ^bb0(%in: f32, %out: f32):\n      linalg.yield %in : f32\n    } -> tensor<666x14x14x128xf32>\n    %8 = linalg.conv_2d_nhwc_fhwc {dilations = dense<1> : tensor<2xi64>, strides = dense<1> : tensor<2xi64>} ins(%1, %3 : tensor<666x14x14x1312xf32>, tensor<128x1x1x1312xf32>) outs(%7 : tensor<666x14x14x128xf32>) -> tensor<666x14x14x128xf32>\n    return\n  }\n}\n\n", "#map = affine_map<(d0, d1, d2, d3) -> (d0, 0, 0, d3)>\n#map1 = affine_map<(d0, d1, d2, d3) -> (d0, d1, d2, d3)>\nmodule {\n  func.func @wrapper() {\n    %cst = arith.constant 2.000000e+00 : f32\n    %0 = bufferization.alloc_tensor() : tensor<666x1x1x368xf32>\n    %1 = linalg.fill ins(%cst : f32) outs(%0 : tensor<666x1x1x368xf32>) -> tensor<666x1x1x368xf32>\n    %2 = tensor.empty() : tensor<666x1x1x368xf32>\n    %3 = linalg.generic {indexing_maps = [#map, #map1], iterator_types = [\"parallel\", \"parallel\", \"parallel\", \"parallel\"]} ins(%1 : tensor<666x1x1x368xf32>) outs(%2 : tensor<666x1x1x368xf32>) {\n    ^bb0(%in: f32, %out: f32):\n      %cst_0 = arith.constant 1.000000e+00 : f32\n      %4 = arith.negf %in : f32\n      %5 = math.exp %4 : f32\n      %6 = arith.addf %5, %cst_0 : f32\n      %7 = arith.divf %cst_0, %6 : f32\n      linalg.yield %7 : f32\n    } -> tensor<666x1x1x368xf32>\n    return\n  }\n}\n\n", "#map = affine_map<(d0, d1, d2, d3) -> (d0, d1, d2, d3)>\nmodule {\n  func.func @wrapper() {\n    %cst = arith.constant 2.000000e+00 : f32\n    %0 = bufferization.alloc_tensor() : tensor<666x29x29x88xf32>\n    %1 = linalg.fill ins(%cst : f32) outs(%0 : tensor<666x29x29x88xf32>) -> tensor<666x29x29x88xf32>\n    %cst_0 = arith.constant 0.000000e+00 : f32\n    %2 = tensor.empty() : tensor<666x14x14x88xf32>\n    %3 = linalg.fill ins(%cst_0 : f32) outs(%2 : tensor<666x14x14x88xf32>) -> tensor<666x14x14x88xf32>\n    %4 = tensor.empty() : tensor<3x3xf32>\n    %5 = linalg.pooling_nhwc_sum {dilations = dense<1> : vector<2xi64>, strides = dense<2> : vector<2xi64>} ins(%1, %4 : tensor<666x29x29x88xf32>, tensor<3x3xf32>) outs(%3 : tensor<666x14x14x88xf32>) -> tensor<666x14x14x88xf32>\n    %c1 = arith.constant 1 : index\n    %c14 = arith.constant 14 : index\n    %c2 = arith.constant 2 : index\n    %c14_1 = arith.constant 14 : index\n    %c1_2 = arith.constant 1 : index\n    %6 = arith.subi %c14, %c1_2 : index\n    %7 = arith.subi %c14_1, %c1_2 : index\n    %8 = tensor.empty() : tensor<666x14x14x88xf32>\n    %9 = linalg.generic {indexing_maps = [#map, #map], iterator_types = [\"parallel\", \"parallel\", \"parallel\", \"parallel\"]} ins(%5 : tensor<666x14x14x88xf32>) outs(%8 : tensor<666x14x14x88xf32>) {\n    ^bb0(%in: f32, %out: f32):\n      %c0 = arith.constant 0 : index\n      %c2_3 = arith.constant 2 : index\n      %c3 = arith.constant 3 : index\n      %10 = linalg.index 1 : index\n      %11 = arith.subi %6, %10 : index\n      %12 = arith.muli %10, %c2_3 : index\n      %13 = arith.muli %11, %c2_3 : index\n      %14 = arith.cmpi slt, %c3, %c1_2 : index\n      %15 = arith.select %14, %c1_2, %c3 : index\n      %c2_4 = arith.constant 2 : index\n      %c3_5 = arith.constant 3 : index\n      %16 = linalg.index 2 : index\n      %17 = arith.subi %7, %16 : index\n      %18 = arith.muli %16, %c2_4 : index\n      %19 = arith.muli %17, %c2_4 : index\n      %20 = arith.cmpi slt, %c3_5, %c1_2 : index\n      %21 = arith.select %20, %c1_2, %c3_5 : index\n      %22 = arith.muli %15, %21 : index\n      %23 = arith.index_cast %22 : index to i32\n      %24 = arith.sitofp %23 : i32 to f32\n      %25 = arith.divf %in, %24 : f32\n      linalg.yield %25 : f32\n    } -> tensor<666x14x14x88xf32>\n    return\n  }\n}\n\n", "#map = affine_map<(d0, d1, d2, d3) -> (d0, d1, d2, d3)>\n#map1 = affine_map<(d0, d1, d2, d3) -> (0, 0, 0, d3)>\nmodule {\n  func.func @wrapper() {\n    %cst = arith.constant 2.000000e+00 : f32\n    %0 = bufferization.alloc_tensor() : tensor<666x35x35x48xf32>\n    %1 = linalg.fill ins(%cst : f32) outs(%0 : tensor<666x35x35x48xf32>) -> tensor<666x35x35x48xf32>\n    %2 = bufferization.alloc_tensor() : tensor<1x1x1x48xf32>\n    %3 = linalg.fill ins(%cst : f32) outs(%2 : tensor<1x1x1x48xf32>) -> tensor<1x1x1x48xf32>\n    %4 = tensor.empty() : tensor<666x35x35x48xf32>\n    %5 = linalg.generic {indexing_maps = [#map, #map1, #map], iterator_types = [\"parallel\", \"parallel\", \"parallel\", \"parallel\"]} ins(%1, %3 : tensor<666x35x35x48xf32>, tensor<1x1x1x48xf32>) outs(%4 : tensor<666x35x35x48xf32>) {\n    ^bb0(%in: f32, %in_0: f32, %out: f32):\n      %6 = arith.subf %in, %in_0 : f32\n      linalg.yield %6 : f32\n    } -> tensor<666x35x35x48xf32>\n    return\n  }\n}\n\n", "#map = affine_map<(d0, d1, d2, d3) -> (d0, d1, d2, d3)>\nmodule {\n  func.func @wrapper() {\n    %cst = arith.constant 2.000000e+00 : f32\n    %0 = bufferization.alloc_tensor() : tensor<666x28x28x168xf32>\n    %1 = linalg.fill ins(%cst : f32) outs(%0 : tensor<666x28x28x168xf32>) -> tensor<666x28x28x168xf32>\n    %2 = bufferization.alloc_tensor() : tensor<666x28x28x168xf32>\n    %3 = linalg.fill ins(%cst : f32) outs(%2 : tensor<666x28x28x168xf32>) -> tensor<666x28x28x168xf32>\n    %4 = tensor.empty() : tensor<666x28x28x168xf32>\n    %5 = linalg.generic {indexing_maps = [#map, #map, #map], iterator_types = [\"parallel\", \"parallel\", \"parallel\", \"parallel\"]} ins(%1, %3 : tensor<666x28x28x168xf32>, tensor<666x28x28x168xf32>) outs(%4 : tensor<666x28x28x168xf32>) {\n    ^bb0(%in: f32, %in_0: f32, %out: f32):\n      %6 = arith.addf %in, %in_0 : f32\n      linalg.yield %6 : f32\n    } -> tensor<666x28x28x168xf32>\n    return\n  }\n}\n\n", "#map = affine_map<(d0, d1, d2, d3) -> (d0, d1, d2, d3)>\n#map1 = affine_map<(d0, d1, d2, d3) -> (0, 0, 0, d3)>\nmodule {\n  func.func @wrapper() {\n    %cst = arith.constant 2.000000e+00 : f32\n    %0 = bufferization.alloc_tensor() : tensor<666x28x28x784xf32>\n    %1 = linalg.fill ins(%cst : f32) outs(%0 : tensor<666x28x28x784xf32>) -> tensor<666x28x28x784xf32>\n    %2 = bufferization.alloc_tensor() : tensor<1x1x1x784xf32>\n    %3 = linalg.fill ins(%cst : f32) outs(%2 : tensor<1x1x1x784xf32>) -> tensor<1x1x1x784xf32>\n    %4 = tensor.empty() : tensor<666x28x28x784xf32>\n    %5 = linalg.generic {indexing_maps = [#map, #map1, #map], iterator_types = [\"parallel\", \"parallel\", \"parallel\", \"parallel\"]} ins(%1, %3 : tensor<666x28x28x784xf32>, tensor<1x1x1x784xf32>) outs(%4 : tensor<666x28x28x784xf32>) {\n    ^bb0(%in: f32, %in_0: f32, %out: f32):\n      %6 = arith.addf %in, %in_0 : f32\n      linalg.yield %6 : f32\n    } -> tensor<666x28x28x784xf32>\n    return\n  }\n}\n\n", "#map = affine_map<(d0, d1, d2, d3) -> (d0, d1, d2, 0)>\n#map1 = affine_map<(d0, d1, d2, d3) -> (d0, d1, d2, d3)>\nmodule {\n  func.func @wrapper() {\n    %cst = arith.constant 2.000000e+00 : f32\n    %0 = bufferization.alloc_tensor() : tensor<666x14x14x1xf32>\n    %1 = linalg.fill ins(%cst : f32) outs(%0 : tensor<666x14x14x1xf32>) -> tensor<666x14x14x1xf32>\n    %2 = bufferization.alloc_tensor() : tensor<666x14x14x768xf32>\n    %3 = linalg.fill ins(%cst : f32) outs(%2 : tensor<666x14x14x768xf32>) -> tensor<666x14x14x768xf32>\n    %4 = tensor.empty() : tensor<666x14x14x768xf32>\n    %5 = linalg.generic {indexing_maps = [#map, #map1, #map1], iterator_types = [\"parallel\", \"parallel\", \"parallel\", \"parallel\"]} ins(%1, %3 : tensor<666x14x14x1xf32>, tensor<666x14x14x768xf32>) outs(%4 : tensor<666x14x14x768xf32>) {\n    ^bb0(%in: f32, %in_0: f32, %out: f32):\n      %6 = arith.mulf %in, %in_0 : f32\n      linalg.yield %6 : f32\n    } -> tensor<666x14x14x768xf32>\n    return\n  }\n}\n\n", "#map = affine_map<(d0) -> (d0)>\nmodule {\n  func.func @wrapper() {\n    %cst = arith.constant 2.000000e+00 : f32\n    %0 = bufferization.alloc_tensor() : tensor<1536xf32>\n    %1 = linalg.fill ins(%cst : f32) outs(%0 : tensor<1536xf32>) -> tensor<1536xf32>\n    %2 = tensor.empty() : tensor<1536xf32>\n    %3 = linalg.generic {indexing_maps = [#map, #map], iterator_types = [\"parallel\"]} ins(%1 : tensor<1536xf32>) outs(%2 : tensor<1536xf32>) {\n    ^bb0(%in: f32, %out: f32):\n      %4 = math.rsqrt %in : f32\n      linalg.yield %4 : f32\n    } -> tensor<1536xf32>\n    return\n  }\n}\n\n", "#map = affine_map<(d0, d1) -> (d0, d1)>\n#map1 = affine_map<(d0, d1) -> (0, 0)>\nmodule {\n  func.func @wrapper() {\n    %cst = arith.constant 2.000000e+00 : f32\n    %0 = bufferization.alloc_tensor() : tensor<666x888xf32>\n    %1 = linalg.fill ins(%cst : f32) outs(%0 : tensor<666x888xf32>) -> tensor<666x888xf32>\n    %2 = bufferization.alloc_tensor() : tensor<1x1xf32>\n    %3 = linalg.fill ins(%cst : f32) outs(%2 : tensor<1x1xf32>) -> tensor<1x1xf32>\n    %4 = tensor.empty() : tensor<666x888xf32>\n    %5 = linalg.generic {indexing_maps = [#map, #map1, #map], iterator_types = [\"parallel\", \"parallel\"]} ins(%1, %3 : tensor<666x888xf32>, tensor<1x1xf32>) outs(%4 : tensor<666x888xf32>) {\n    ^bb0(%in: f32, %in_0: f32, %out: f32):\n      %6 = arith.mulf %in, %in_0 : f32\n      linalg.yield %6 : f32\n    } -> tensor<666x888xf32>\n    return\n  }\n}\n\n", "#map = affine_map<(d0, d1) -> (d0, d1)>\n#map1 = affine_map<(d0, d1) -> (0, 0)>\nmodule {\n  func.func @wrapper() {\n    %cst = arith.constant 2.000000e+00 : f32\n    %0 = bufferization.alloc_tensor() : tensor<666x2016xf32>\n    %1 = linalg.fill ins(%cst : f32) outs(%0 : tensor<666x2016xf32>) -> tensor<666x2016xf32>\n    %2 = bufferization.alloc_tensor() : tensor<1x1xf32>\n    %3 = linalg.fill ins(%cst : f32) outs(%2 : tensor<1x1xf32>) -> tensor<1x1xf32>\n    %4 = tensor.empty() : tensor<666x2016xf32>\n    %5 = linalg.generic {indexing_maps = [#map, #map1, #map], iterator_types = [\"parallel\", \"parallel\"]} ins(%1, %3 : tensor<666x2016xf32>, tensor<1x1xf32>) outs(%4 : tensor<666x2016xf32>) {\n    ^bb0(%in: f32, %in_0: f32, %out: f32):\n      %6 = arith.mulf %in, %in_0 : f32\n      linalg.yield %6 : f32\n    } -> tensor<666x2016xf32>\n    return\n  }\n}\n\n", "#map = affine_map<(d0, d1, d2, d3) -> (d0, d1, d2, d3)>\n#map1 = affine_map<(d0, d1, d2, d3) -> (0, 0, 0, d3)>\nmodule {\n  func.func @wrapper() {\n    %cst = arith.constant 2.000000e+00 : f32\n    %0 = bufferization.alloc_tensor() : tensor<666x56x56x216xf32>\n    %1 = linalg.fill ins(%cst : f32) outs(%0 : tensor<666x56x56x216xf32>) -> tensor<666x56x56x216xf32>\n    %2 = bufferization.alloc_tensor() : tensor<1x1x1x216xf32>\n    %3 = linalg.fill ins(%cst : f32) outs(%2 : tensor<1x1x1x216xf32>) -> tensor<1x1x1x216xf32>\n    %4 = tensor.empty() : tensor<666x56x56x216xf32>\n    %5 = linalg.generic {indexing_maps = [#map, #map1, #map], iterator_types = [\"parallel\", \"parallel\", \"parallel\", \"parallel\"]} ins(%1, %3 : tensor<666x56x56x216xf32>, tensor<1x1x1x216xf32>) outs(%4 : tensor<666x56x56x216xf32>) {\n    ^bb0(%in: f32, %in_0: f32, %out: f32):\n      %6 = arith.subf %in, %in_0 : f32\n      linalg.yield %6 : f32\n    } -> tensor<666x56x56x216xf32>\n    return\n  }\n}\n\n", "#map = affine_map<(d0, d1, d2, d3) -> (d0, d1, d2, d3)>\nmodule {\n  func.func @wrapper() {\n    %cst = arith.constant 2.000000e+00 : f32\n    %0 = bufferization.alloc_tensor() : tensor<666x17x17x256xf32>\n    %1 = linalg.fill ins(%cst : f32) outs(%0 : tensor<666x17x17x256xf32>) -> tensor<666x17x17x256xf32>\n    %2 = tensor.empty() : tensor<666x17x17x256xf32>\n    %3 = linalg.generic {indexing_maps = [#map, #map], iterator_types = [\"parallel\", \"parallel\", \"parallel\", \"parallel\"]} ins(%1 : tensor<666x17x17x256xf32>) outs(%2 : tensor<666x17x17x256xf32>) {\n    ^bb0(%in: f32, %out: f32):\n      %cst_0 = arith.constant 0.000000e+00 : f32\n      %cst_1 = arith.constant 3.40282347E+38 : f32\n      %4 = arith.minimumf %in, %cst_1 : f32\n      %5 = arith.maximumf %4, %cst_0 : f32\n      linalg.yield %5 : f32\n    } -> tensor<666x17x17x256xf32>\n    return\n  }\n}\n\n", "#map = affine_map<(d0, d1, d2, d3) -> (d0, d1, d2, d3)>\nmodule {\n  func.func @wrapper() {\n    %cst = arith.constant 2.000000e+00 : f32\n    %0 = bufferization.alloc_tensor() : tensor<666x56x56x80xf32>\n    %1 = linalg.fill ins(%cst : f32) outs(%0 : tensor<666x56x56x80xf32>) -> tensor<666x56x56x80xf32>\n    %2 = tensor.empty() : tensor<666x56x56x80xf32>\n    %3 = linalg.generic {indexing_maps = [#map, #map], iterator_types = [\"parallel\", \"parallel\", \"parallel\", \"parallel\"]} ins(%1 : tensor<666x56x56x80xf32>) outs(%2 : tensor<666x56x56x80xf32>) {\n    ^bb0(%in: f32, %out: f32):\n      %cst_0 = arith.constant 0.000000e+00 : f32\n      %cst_1 = arith.constant 3.40282347E+38 : f32\n      %4 = arith.minimumf %in, %cst_1 : f32\n      %5 = arith.maximumf %4, %cst_0 : f32\n      linalg.yield %5 : f32\n    } -> tensor<666x56x56x80xf32>\n    return\n  }\n}\n\n", "#map = affine_map<(d0, d1) -> (d0, d1)>\nmodule {\n  func.func @wrapper() {\n    %cst = arith.constant 2.000000e+00 : f32\n    %0 = bufferization.alloc_tensor() : tensor<666x768xf32>\n    %1 = linalg.fill ins(%cst : f32) outs(%0 : tensor<666x768xf32>) -> tensor<666x768xf32>\n    %2 = bufferization.alloc_tensor() : tensor<666x768xf32>\n    %3 = linalg.fill ins(%cst : f32) outs(%2 : tensor<666x768xf32>) -> tensor<666x768xf32>\n    %4 = tensor.empty() : tensor<666x768xf32>\n    %5 = linalg.generic {indexing_maps = [#map, #map, #map], iterator_types = [\"parallel\", \"parallel\"]} ins(%1, %3 : tensor<666x768xf32>, tensor<666x768xf32>) outs(%4 : tensor<666x768xf32>) {\n    ^bb0(%in: f32, %in_0: f32, %out: f32):\n      %6 = arith.addf %in, %in_0 : f32\n      linalg.yield %6 : f32\n    } -> tensor<666x768xf32>\n    return\n  }\n}\n\n", "#map = affine_map<(d0, d1, d2, d3) -> (d0, d1, d2, 0)>\n#map1 = affine_map<(d0, d1, d2, d3) -> (0, 0, 0, d3)>\n#map2 = affine_map<(d0, d1, d2, d3) -> (d0, d1, d2, d3)>\nmodule {\n  func.func @wrapper() {\n    %cst = arith.constant 2.000000e+00 : f32\n    %0 = bufferization.alloc_tensor() : tensor<666x7x7x1xf32>\n    %1 = linalg.fill ins(%cst : f32) outs(%0 : tensor<666x7x7x1xf32>) -> tensor<666x7x7x1xf32>\n    %2 = bufferization.alloc_tensor() : tensor<1x1x1x768xf32>\n    %3 = linalg.fill ins(%cst : f32) outs(%2 : tensor<1x1x1x768xf32>) -> tensor<1x1x1x768xf32>\n    %4 = tensor.empty() : tensor<666x7x7x768xf32>\n    %5 = linalg.generic {indexing_maps = [#map, #map1, #map2], iterator_types = [\"parallel\", \"parallel\", \"parallel\", \"parallel\"]} ins(%1, %3 : tensor<666x7x7x1xf32>, tensor<1x1x1x768xf32>) outs(%4 : tensor<666x7x7x768xf32>) {\n    ^bb0(%in: f32, %in_0: f32, %out: f32):\n      %6 = arith.mulf %in, %in_0 : f32\n      linalg.yield %6 : f32\n    } -> tensor<666x7x7x768xf32>\n    return\n  }\n}\n\n", "#map = affine_map<(d0, d1, d2, d3) -> (d0, d1, d2, d3)>\n#map1 = affine_map<(d0, d1, d2, d3) -> (0, 0, 0, d3)>\nmodule {\n  func.func @wrapper() {\n    %cst = arith.constant 2.000000e+00 : f32\n    %0 = bufferization.alloc_tensor() : tensor<666x7x7x1760xf32>\n    %1 = linalg.fill ins(%cst : f32) outs(%0 : tensor<666x7x7x1760xf32>) -> tensor<666x7x7x1760xf32>\n    %2 = bufferization.alloc_tensor() : tensor<1x1x1x1760xf32>\n    %3 = linalg.fill ins(%cst : f32) outs(%2 : tensor<1x1x1x1760xf32>) -> tensor<1x1x1x1760xf32>\n    %4 = tensor.empty() : tensor<666x7x7x1760xf32>\n    %5 = linalg.generic {indexing_maps = [#map, #map1, #map], iterator_types = [\"parallel\", \"parallel\", \"parallel\", \"parallel\"]} ins(%1, %3 : tensor<666x7x7x1760xf32>, tensor<1x1x1x1760xf32>) outs(%4 : tensor<666x7x7x1760xf32>) {\n    ^bb0(%in: f32, %in_0: f32, %out: f32):\n      %6 = arith.addf %in, %in_0 : f32\n      linalg.yield %6 : f32\n    } -> tensor<666x7x7x1760xf32>\n    return\n  }\n}\n\n", "#map = affine_map<(d0, d1, d2, d3) -> (d0, 0, 0, d3)>\n#map1 = affine_map<(d0, d1, d2, d3) -> (d0, d1, d2, d3)>\nmodule {\n  func.func @wrapper() {\n    %cst = arith.constant 2.000000e+00 : f32\n    %0 = bufferization.alloc_tensor() : tensor<666x1x1x128xf32>\n    %1 = linalg.fill ins(%cst : f32) outs(%0 : tensor<666x1x1x128xf32>) -> tensor<666x1x1x128xf32>\n    %2 = tensor.empty() : tensor<666x1x1x128xf32>\n    %3 = linalg.generic {indexing_maps = [#map, #map1], iterator_types = [\"parallel\", \"parallel\", \"parallel\", \"parallel\"]} ins(%1 : tensor<666x1x1x128xf32>) outs(%2 : tensor<666x1x1x128xf32>) {\n    ^bb0(%in: f32, %out: f32):\n      %cst_0 = arith.constant 0.000000e+00 : f32\n      %cst_1 = arith.constant 3.40282347E+38 : f32\n      %4 = arith.minimumf %in, %cst_1 : f32\n      %5 = arith.maximumf %4, %cst_0 : f32\n      linalg.yield %5 : f32\n    } -> tensor<666x1x1x128xf32>\n    return\n  }\n}\n\n", "#map = affine_map<(d0, d1, d2, d3) -> (d0, d1, d2, d3)>\nmodule {\n  func.func @wrapper() {\n    %cst = arith.constant 2.000000e+00 : f32\n    %0 = bufferization.alloc_tensor() : tensor<666x28x28x112xf32>\n    %1 = linalg.fill ins(%cst : f32) outs(%0 : tensor<666x28x28x112xf32>) -> tensor<666x28x28x112xf32>\n    %2 = bufferization.alloc_tensor() : tensor<666x28x28x112xf32>\n    %3 = linalg.fill ins(%cst : f32) outs(%2 : tensor<666x28x28x112xf32>) -> tensor<666x28x28x112xf32>\n    %4 = tensor.empty() : tensor<666x28x28x112xf32>\n    %5 = linalg.generic {indexing_maps = [#map, #map, #map], iterator_types = [\"parallel\", \"parallel\", \"parallel\", \"parallel\"]} ins(%1, %3 : tensor<666x28x28x112xf32>, tensor<666x28x28x112xf32>) outs(%4 : tensor<666x28x28x112xf32>) {\n    ^bb0(%in: f32, %in_0: f32, %out: f32):\n      %6 = arith.addf %in, %in_0 : f32\n      linalg.yield %6 : f32\n    } -> tensor<666x28x28x112xf32>\n    return\n  }\n}\n\n", "#map = affine_map<(d0, d1, d2, d3) -> (d0, d1, d2, d3)>\nmodule {\n  func.func @wrapper() {\n    %cst = arith.constant 2.000000e+00 : f32\n    %0 = bufferization.alloc_tensor() : tensor<666x56x56x144xf32>\n    %1 = linalg.fill ins(%cst : f32) outs(%0 : tensor<666x56x56x144xf32>) -> tensor<666x56x56x144xf32>\n    %2 = tensor.empty() : tensor<666x56x56x144xf32>\n    %3 = linalg.generic {indexing_maps = [#map, #map], iterator_types = [\"parallel\", \"parallel\", \"parallel\", \"parallel\"]} ins(%1 : tensor<666x56x56x144xf32>) outs(%2 : tensor<666x56x56x144xf32>) {\n    ^bb0(%in: f32, %out: f32):\n      %cst_0 = arith.constant 0.000000e+00 : f32\n      %cst_1 = arith.constant 3.40282347E+38 : f32\n      %4 = arith.minimumf %in, %cst_1 : f32\n      %5 = arith.maximumf %4, %cst_0 : f32\n      linalg.yield %5 : f32\n    } -> tensor<666x56x56x144xf32>\n    return\n  }\n}\n\n", "#map = affine_map<(d0, d1, d2, d3) -> (d0, d1, d2, d3)>\n#map1 = affine_map<(d0, d1, d2, d3) -> (0, 0, 0, d3)>\nmodule {\n  func.func @wrapper() {\n    %cst = arith.constant 2.000000e+00 : f32\n    %0 = bufferization.alloc_tensor() : tensor<666x7x7x1632xf32>\n    %1 = linalg.fill ins(%cst : f32) outs(%0 : tensor<666x7x7x1632xf32>) -> tensor<666x7x7x1632xf32>\n    %2 = bufferization.alloc_tensor() : tensor<1x1x1x1632xf32>\n    %3 = linalg.fill ins(%cst : f32) outs(%2 : tensor<1x1x1x1632xf32>) -> tensor<1x1x1x1632xf32>\n    %4 = tensor.empty() : tensor<666x7x7x1632xf32>\n    %5 = linalg.generic {indexing_maps = [#map, #map1, #map], iterator_types = [\"parallel\", \"parallel\", \"parallel\", \"parallel\"]} ins(%1, %3 : tensor<666x7x7x1632xf32>, tensor<1x1x1x1632xf32>) outs(%4 : tensor<666x7x7x1632xf32>) {\n    ^bb0(%in: f32, %in_0: f32, %out: f32):\n      %6 = arith.subf %in, %in_0 : f32\n      linalg.yield %6 : f32\n    } -> tensor<666x7x7x1632xf32>\n    return\n  }\n}\n\n", "#map = affine_map<(d0, d1, d2, d3) -> (d3)>\n#map1 = affine_map<(d0, d1, d2, d3) -> (d0, d1, d2, d3)>\nmodule {\n  func.func @wrapper() {\n    %cst = arith.constant 2.000000e+00 : f32\n    %0 = bufferization.alloc_tensor() : tensor<666x1x1x324xf32>\n    %1 = linalg.fill ins(%cst : f32) outs(%0 : tensor<666x1x1x324xf32>) -> tensor<666x1x1x324xf32>\n    %2 = bufferization.alloc_tensor() : tensor<1296x1x1x324xf32>\n    %3 = linalg.fill ins(%cst : f32) outs(%2 : tensor<1296x1x1x324xf32>) -> tensor<1296x1x1x324xf32>\n    %4 = bufferization.alloc_tensor() : tensor<1296xf32>\n    %5 = linalg.fill ins(%cst : f32) outs(%4 : tensor<1296xf32>) -> tensor<1296xf32>\n    %6 = tensor.empty() : tensor<666x1x1x1296xf32>\n    %7 = linalg.generic {indexing_maps = [#map, #map1], iterator_types = [\"parallel\", \"parallel\", \"parallel\", \"parallel\"]} ins(%5 : tensor<1296xf32>) outs(%6 : tensor<666x1x1x1296xf32>) {\n    ^bb0(%in: f32, %out: f32):\n      linalg.yield %in : f32\n    } -> tensor<666x1x1x1296xf32>\n    %8 = linalg.conv_2d_nhwc_fhwc {dilations = dense<1> : tensor<2xi64>, strides = dense<1> : tensor<2xi64>} ins(%1, %3 : tensor<666x1x1x324xf32>, tensor<1296x1x1x324xf32>) outs(%7 : tensor<666x1x1x1296xf32>) -> tensor<666x1x1x1296xf32>\n    return\n  }\n}\n\n", "module {\n  func.func @wrapper() {\n    %cst = arith.constant 2.000000e+00 : f32\n    %0 = bufferization.alloc_tensor() : tensor<666x1536xf32>\n    %1 = linalg.fill ins(%cst : f32) outs(%0 : tensor<666x1536xf32>) -> tensor<666x1536xf32>\n    %2 = tensor.empty() : tensor<666xf32>\n    %cst_0 = arith.constant 0.000000e+00 : f32\n    %3 = linalg.fill ins(%cst_0 : f32) outs(%2 : tensor<666xf32>) -> tensor<666xf32>\n    %reduced = linalg.reduce ins(%1 : tensor<666x1536xf32>) outs(%3 : tensor<666xf32>) dimensions = [1] \n      (%in: f32, %init: f32) {\n        %4 = arith.addf %in, %init : f32\n        linalg.yield %4 : f32\n      }\n    %expanded = tensor.expand_shape %reduced [[0, 1]] : tensor<666xf32> into tensor<666x1xf32>\n    return\n  }\n}\n\n", "#map = affine_map<(d0, d1, d2, d3) -> (d3)>\n#map1 = affine_map<(d0, d1, d2, d3) -> (d0, d1, d2, d3)>\nmodule {\n  func.func @wrapper() {\n    %cst = arith.constant 2.000000e+00 : f32\n    %0 = bufferization.alloc_tensor() : tensor<666x14x14x288xf32>\n    %1 = linalg.fill ins(%cst : f32) outs(%0 : tensor<666x14x14x288xf32>) -> tensor<666x14x14x288xf32>\n    %2 = bufferization.alloc_tensor() : tensor<672x1x1x288xf32>\n    %3 = linalg.fill ins(%cst : f32) outs(%2 : tensor<672x1x1x288xf32>) -> tensor<672x1x1x288xf32>\n    %4 = bufferization.alloc_tensor() : tensor<672xf32>\n    %5 = linalg.fill ins(%cst : f32) outs(%4 : tensor<672xf32>) -> tensor<672xf32>\n    %6 = tensor.empty() : tensor<666x14x14x672xf32>\n    %7 = linalg.generic {indexing_maps = [#map, #map1], iterator_types = [\"parallel\", \"parallel\", \"parallel\", \"parallel\"]} ins(%5 : tensor<672xf32>) outs(%6 : tensor<666x14x14x672xf32>) {\n    ^bb0(%in: f32, %out: f32):\n      linalg.yield %in : f32\n    } -> tensor<666x14x14x672xf32>\n    %8 = linalg.conv_2d_nhwc_fhwc {dilations = dense<1> : tensor<2xi64>, strides = dense<1> : tensor<2xi64>} ins(%1, %3 : tensor<666x14x14x288xf32>, tensor<672x1x1x288xf32>) outs(%7 : tensor<666x14x14x672xf32>) -> tensor<666x14x14x672xf32>\n    return\n  }\n}\n\n", "#map = affine_map<(d0, d1, d2, d3) -> (d0, d1, d2, d3)>\nmodule {\n  func.func @wrapper() {\n    %cst = arith.constant 2.000000e+00 : f32\n    %0 = bufferization.alloc_tensor() : tensor<666x7x7x768xf32>\n    %1 = linalg.fill ins(%cst : f32) outs(%0 : tensor<666x7x7x768xf32>) -> tensor<666x7x7x768xf32>\n    %2 = tensor.empty() : tensor<666x7x7x768xf32>\n    %3 = linalg.generic {indexing_maps = [#map, #map, #map], iterator_types = [\"parallel\", \"parallel\", \"parallel\", \"parallel\"]} ins(%1, %1 : tensor<666x7x7x768xf32>, tensor<666x7x7x768xf32>) outs(%2 : tensor<666x7x7x768xf32>) {\n    ^bb0(%in: f32, %in_0: f32, %out: f32):\n      %4 = arith.mulf %in, %in_0 : f32\n      linalg.yield %4 : f32\n    } -> tensor<666x7x7x768xf32>\n    return\n  }\n}\n\n", "#map = affine_map<(d0, d1, d2, d3) -> (d3)>\n#map1 = affine_map<(d0, d1, d2, d3) -> (d0, d1, d2, d3)>\nmodule {\n  func.func @wrapper() {\n    %cst = arith.constant 2.000000e+00 : f32\n    %0 = bufferization.alloc_tensor() : tensor<666x14x14x1392xf32>\n    %1 = linalg.fill ins(%cst : f32) outs(%0 : tensor<666x14x14x1392xf32>) -> tensor<666x14x14x1392xf32>\n    %2 = bufferization.alloc_tensor() : tensor<1392x1x1x1392xf32>\n    %3 = linalg.fill ins(%cst : f32) outs(%2 : tensor<1392x1x1x1392xf32>) -> tensor<1392x1x1x1392xf32>\n    %4 = bufferization.alloc_tensor() : tensor<1392xf32>\n    %5 = linalg.fill ins(%cst : f32) outs(%4 : tensor<1392xf32>) -> tensor<1392xf32>\n    %6 = tensor.empty() : tensor<666x14x14x1392xf32>\n    %7 = linalg.generic {indexing_maps = [#map, #map1], iterator_types = [\"parallel\", \"parallel\", \"parallel\", \"parallel\"]} ins(%5 : tensor<1392xf32>) outs(%6 : tensor<666x14x14x1392xf32>) {\n    ^bb0(%in: f32, %out: f32):\n      linalg.yield %in : f32\n    } -> tensor<666x14x14x1392xf32>\n    %8 = linalg.conv_2d_nhwc_fhwc {dilations = dense<1> : tensor<2xi64>, strides = dense<1> : tensor<2xi64>} ins(%1, %3 : tensor<666x14x14x1392xf32>, tensor<1392x1x1x1392xf32>) outs(%7 : tensor<666x14x14x1392xf32>) -> tensor<666x14x14x1392xf32>\n    return\n  }\n}\n\n", "#map = affine_map<(d0, d1, d2, d3) -> (d0, d1, d2, d3)>\n#map1 = affine_map<(d0, d1, d2, d3) -> (0, 0, 0, d3)>\nmodule {\n  func.func @wrapper() {\n    %cst = arith.constant 2.000000e+00 : f32\n    %0 = bufferization.alloc_tensor() : tensor<666x7x7x1696xf32>\n    %1 = linalg.fill ins(%cst : f32) outs(%0 : tensor<666x7x7x1696xf32>) -> tensor<666x7x7x1696xf32>\n    %2 = bufferization.alloc_tensor() : tensor<1x1x1x1696xf32>\n    %3 = linalg.fill ins(%cst : f32) outs(%2 : tensor<1x1x1x1696xf32>) -> tensor<1x1x1x1696xf32>\n    %4 = tensor.empty() : tensor<666x7x7x1696xf32>\n    %5 = linalg.generic {indexing_maps = [#map, #map1, #map], iterator_types = [\"parallel\", \"parallel\", \"parallel\", \"parallel\"]} ins(%1, %3 : tensor<666x7x7x1696xf32>, tensor<1x1x1x1696xf32>) outs(%4 : tensor<666x7x7x1696xf32>) {\n    ^bb0(%in: f32, %in_0: f32, %out: f32):\n      %6 = arith.mulf %in, %in_0 : f32\n      linalg.yield %6 : f32\n    } -> tensor<666x7x7x1696xf32>\n    return\n  }\n}\n\n", "#map = affine_map<(d0, d1, d2, d3) -> (d3)>\n#map1 = affine_map<(d0, d1, d2, d3) -> (d0, d1, d2, d3)>\nmodule {\n  func.func @wrapper() {\n    %cst = arith.constant 2.000000e+00 : f32\n    %0 = bufferization.alloc_tensor() : tensor<666x56x56x48xf32>\n    %1 = linalg.fill ins(%cst : f32) outs(%0 : tensor<666x56x56x48xf32>) -> tensor<666x56x56x48xf32>\n    %2 = bufferization.alloc_tensor() : tensor<104x1x1x48xf32>\n    %3 = linalg.fill ins(%cst : f32) outs(%2 : tensor<104x1x1x48xf32>) -> tensor<104x1x1x48xf32>\n    %4 = bufferization.alloc_tensor() : tensor<104xf32>\n    %5 = linalg.fill ins(%cst : f32) outs(%4 : tensor<104xf32>) -> tensor<104xf32>\n    %6 = tensor.empty() : tensor<666x28x28x104xf32>\n    %7 = linalg.generic {indexing_maps = [#map, #map1], iterator_types = [\"parallel\", \"parallel\", \"parallel\", \"parallel\"]} ins(%5 : tensor<104xf32>) outs(%6 : tensor<666x28x28x104xf32>) {\n    ^bb0(%in: f32, %out: f32):\n      linalg.yield %in : f32\n    } -> tensor<666x28x28x104xf32>\n    %8 = linalg.conv_2d_nhwc_fhwc {dilations = dense<1> : tensor<2xi64>, strides = dense<2> : tensor<2xi64>} ins(%1, %3 : tensor<666x56x56x48xf32>, tensor<104x1x1x48xf32>) outs(%7 : tensor<666x28x28x104xf32>) -> tensor<666x28x28x104xf32>\n    return\n  }\n}\n\n", "#map = affine_map<(d0, d1, d2, d3) -> (d0, d1, d2, d3)>\n#map1 = affine_map<(d0, d1, d2, d3) -> (0, 0, 0, d3)>\nmodule {\n  func.func @wrapper() {\n    %cst = arith.constant 2.000000e+00 : f32\n    %0 = bufferization.alloc_tensor() : tensor<666x7x7x1296xf32>\n    %1 = linalg.fill ins(%cst : f32) outs(%0 : tensor<666x7x7x1296xf32>) -> tensor<666x7x7x1296xf32>\n    %2 = bufferization.alloc_tensor() : tensor<1x1x1x1296xf32>\n    %3 = linalg.fill ins(%cst : f32) outs(%2 : tensor<1x1x1x1296xf32>) -> tensor<1x1x1x1296xf32>\n    %4 = tensor.empty() : tensor<666x7x7x1296xf32>\n    %5 = linalg.generic {indexing_maps = [#map, #map1, #map], iterator_types = [\"parallel\", \"parallel\", \"parallel\", \"parallel\"]} ins(%1, %3 : tensor<666x7x7x1296xf32>, tensor<1x1x1x1296xf32>) outs(%4 : tensor<666x7x7x1296xf32>) {\n    ^bb0(%in: f32, %in_0: f32, %out: f32):\n      %6 = arith.addf %in, %in_0 : f32\n      linalg.yield %6 : f32\n    } -> tensor<666x7x7x1296xf32>\n    return\n  }\n}\n\n", "#map = affine_map<(d0, d1, d2, d3) -> (d0, d1, d2, d3)>\nmodule {\n  func.func @wrapper() {\n    %cst = arith.constant 2.000000e+00 : f32\n    %0 = bufferization.alloc_tensor() : tensor<666x112x112x80xf32>\n    %1 = linalg.fill ins(%cst : f32) outs(%0 : tensor<666x112x112x80xf32>) -> tensor<666x112x112x80xf32>\n    %2 = tensor.empty() : tensor<666x112x112x80xf32>\n    %3 = linalg.generic {indexing_maps = [#map, #map], iterator_types = [\"parallel\", \"parallel\", \"parallel\", \"parallel\"]} ins(%1 : tensor<666x112x112x80xf32>) outs(%2 : tensor<666x112x112x80xf32>) {\n    ^bb0(%in: f32, %out: f32):\n      %cst_0 = arith.constant 0.000000e+00 : f32\n      %cst_1 = arith.constant 3.40282347E+38 : f32\n      %4 = arith.minimumf %in, %cst_1 : f32\n      %5 = arith.maximumf %4, %cst_0 : f32\n      linalg.yield %5 : f32\n    } -> tensor<666x112x112x80xf32>\n    return\n  }\n}\n\n", "#map = affine_map<(d0, d1, d2, d3) -> (0, 0, 0, d3)>\n#map1 = affine_map<(d0, d1, d2, d3) -> (d0, d1, d2, d3)>\nmodule {\n  func.func @wrapper() {\n    %cst = arith.constant 2.000000e+00 : f32\n    %0 = bufferization.alloc_tensor() : tensor<1x1x1x1024xf32>\n    %1 = linalg.fill ins(%cst : f32) outs(%0 : tensor<1x1x1x1024xf32>) -> tensor<1x1x1x1024xf32>\n    %2 = bufferization.alloc_tensor() : tensor<666x7x7x1024xf32>\n    %3 = linalg.fill ins(%cst : f32) outs(%2 : tensor<666x7x7x1024xf32>) -> tensor<666x7x7x1024xf32>\n    %4 = tensor.empty() : tensor<666x7x7x1024xf32>\n    %5 = linalg.generic {indexing_maps = [#map, #map1, #map1], iterator_types = [\"parallel\", \"parallel\", \"parallel\", \"parallel\"]} ins(%1, %3 : tensor<1x1x1x1024xf32>, tensor<666x7x7x1024xf32>) outs(%4 : tensor<666x7x7x1024xf32>) {\n    ^bb0(%in: f32, %in_0: f32, %out: f32):\n      %6 = arith.subf %in, %in_0 : f32\n      linalg.yield %6 : f32\n    } -> tensor<666x7x7x1024xf32>\n    return\n  }\n}\n\n", "#map = affine_map<(d0, d1, d2, d3) -> (d0, d1, d2, d3)>\n#map1 = affine_map<(d0, d1, d2, d3) -> (0, 0, 0, d3)>\nmodule {\n  func.func @wrapper() {\n    %cst = arith.constant 2.000000e+00 : f32\n    %0 = bufferization.alloc_tensor() : tensor<666x14x14x2048xf32>\n    %1 = linalg.fill ins(%cst : f32) outs(%0 : tensor<666x14x14x2048xf32>) -> tensor<666x14x14x2048xf32>\n    %2 = bufferization.alloc_tensor() : tensor<1x1x1x2048xf32>\n    %3 = linalg.fill ins(%cst : f32) outs(%2 : tensor<1x1x1x2048xf32>) -> tensor<1x1x1x2048xf32>\n    %4 = tensor.empty() : tensor<666x14x14x2048xf32>\n    %5 = linalg.generic {indexing_maps = [#map, #map1, #map], iterator_types = [\"parallel\", \"parallel\", \"parallel\", \"parallel\"]} ins(%1, %3 : tensor<666x14x14x2048xf32>, tensor<1x1x1x2048xf32>) outs(%4 : tensor<666x14x14x2048xf32>) {\n    ^bb0(%in: f32, %in_0: f32, %out: f32):\n      %6 = arith.addf %in, %in_0 : f32\n      linalg.yield %6 : f32\n    } -> tensor<666x14x14x2048xf32>\n    return\n  }\n}\n\n", "#map = affine_map<(d0) -> (d0)>\nmodule {\n  func.func @wrapper() {\n    %cst = arith.constant 2.000000e+00 : f32\n    %0 = bufferization.alloc_tensor() : tensor<720xf32>\n    %1 = linalg.fill ins(%cst : f32) outs(%0 : tensor<720xf32>) -> tensor<720xf32>\n    %2 = tensor.empty() : tensor<720xf32>\n    %3 = linalg.generic {indexing_maps = [#map, #map], iterator_types = [\"parallel\"]} ins(%1 : tensor<720xf32>) outs(%2 : tensor<720xf32>) {\n    ^bb0(%in: f32, %out: f32):\n      %4 = math.rsqrt %in : f32\n      linalg.yield %4 : f32\n    } -> tensor<720xf32>\n    return\n  }\n}\n\n", "#map = affine_map<(d0, d1) -> (d0, d1)>\n#map1 = affine_map<(d0, d1) -> (0, 0)>\nmodule {\n  func.func @wrapper() {\n    %cst = arith.constant 2.000000e+00 : f32\n    %0 = bufferization.alloc_tensor() : tensor<666x1008xf32>\n    %1 = linalg.fill ins(%cst : f32) outs(%0 : tensor<666x1008xf32>) -> tensor<666x1008xf32>\n    %2 = bufferization.alloc_tensor() : tensor<1x1xf32>\n    %3 = linalg.fill ins(%cst : f32) outs(%2 : tensor<1x1xf32>) -> tensor<1x1xf32>\n    %4 = tensor.empty() : tensor<666x1008xf32>\n    %5 = linalg.generic {indexing_maps = [#map, #map1, #map], iterator_types = [\"parallel\", \"parallel\"]} ins(%1, %3 : tensor<666x1008xf32>, tensor<1x1xf32>) outs(%4 : tensor<666x1008xf32>) {\n    ^bb0(%in: f32, %in_0: f32, %out: f32):\n      %6 = arith.mulf %in, %in_0 : f32\n      linalg.yield %6 : f32\n    } -> tensor<666x1008xf32>\n    return\n  }\n}\n\n", "#map = affine_map<(d0, d1, d2, d3) -> (d0, d1, d2, d3)>\n#map1 = affine_map<(d0, d1, d2, d3) -> (0, 0, 0, d3)>\nmodule {\n  func.func @wrapper() {\n    %cst = arith.constant 2.000000e+00 : f32\n    %0 = bufferization.alloc_tensor() : tensor<666x7x7x1008xf32>\n    %1 = linalg.fill ins(%cst : f32) outs(%0 : tensor<666x7x7x1008xf32>) -> tensor<666x7x7x1008xf32>\n    %2 = bufferization.alloc_tensor() : tensor<1x1x1x1008xf32>\n    %3 = linalg.fill ins(%cst : f32) outs(%2 : tensor<1x1x1x1008xf32>) -> tensor<1x1x1x1008xf32>\n    %4 = tensor.empty() : tensor<666x7x7x1008xf32>\n    %5 = linalg.generic {indexing_maps = [#map, #map1, #map], iterator_types = [\"parallel\", \"parallel\", \"parallel\", \"parallel\"]} ins(%1, %3 : tensor<666x7x7x1008xf32>, tensor<1x1x1x1008xf32>) outs(%4 : tensor<666x7x7x1008xf32>) {\n    ^bb0(%in: f32, %in_0: f32, %out: f32):\n      %6 = arith.subf %in, %in_0 : f32\n      linalg.yield %6 : f32\n    } -> tensor<666x7x7x1008xf32>\n    return\n  }\n}\n\n", "#map = affine_map<(d0) -> (d0)>\nmodule {\n  func.func @wrapper() {\n    %cst = arith.constant 2.000000e+00 : f32\n    %0 = bufferization.alloc_tensor() : tensor<440xf32>\n    %1 = linalg.fill ins(%cst : f32) outs(%0 : tensor<440xf32>) -> tensor<440xf32>\n    %2 = tensor.empty() : tensor<440xf32>\n    %3 = linalg.generic {indexing_maps = [#map, #map], iterator_types = [\"parallel\"]} ins(%1 : tensor<440xf32>) outs(%2 : tensor<440xf32>) {\n    ^bb0(%in: f32, %out: f32):\n      %4 = math.rsqrt %in : f32\n      linalg.yield %4 : f32\n    } -> tensor<440xf32>\n    return\n  }\n}\n\n", "#map = affine_map<(d0, d1, d2, d3) -> (d3)>\n#map1 = affine_map<(d0, d1, d2, d3) -> (d0, d1, d2, d3)>\nmodule {\n  func.func @wrapper() {\n    %cst = arith.constant 2.000000e+00 : f32\n    %0 = bufferization.alloc_tensor() : tensor<666x28x28x22xf32>\n    %1 = linalg.fill ins(%cst : f32) outs(%0 : tensor<666x28x28x22xf32>) -> tensor<666x28x28x22xf32>\n    %2 = bufferization.alloc_tensor() : tensor<7x7x22x1xf32>\n    %3 = linalg.fill ins(%cst : f32) outs(%2 : tensor<7x7x22x1xf32>) -> tensor<7x7x22x1xf32>\n    %4 = bufferization.alloc_tensor() : tensor<22xf32>\n    %5 = linalg.fill ins(%cst : f32) outs(%4 : tensor<22xf32>) -> tensor<22xf32>\n    %cst_0 = arith.constant 0.000000e+00 : f32\n    %padded = tensor.pad %1 low[0, 3, 3, 0] high[0, 3, 3, 0] {\n    ^bb0(%arg0: index, %arg1: index, %arg2: index, %arg3: index):\n      tensor.yield %cst_0 : f32\n    } : tensor<666x28x28x22xf32> to tensor<666x34x34x22xf32>\n    %6 = tensor.empty() : tensor<666x28x28x22x1xf32>\n    %cst_1 = arith.constant 0.000000e+00 : f32\n    %7 = linalg.fill ins(%cst_1 : f32) outs(%6 : tensor<666x28x28x22x1xf32>) -> tensor<666x28x28x22x1xf32>\n    %8 = tensor.empty() : tensor<666x28x28x22xf32>\n    %9 = linalg.depthwise_conv_2d_nhwc_hwcm {dilations = dense<1> : tensor<2xi64>, strides = dense<1> : tensor<2xi64>} ins(%padded, %3 : tensor<666x34x34x22xf32>, tensor<7x7x22x1xf32>) outs(%7 : tensor<666x28x28x22x1xf32>) -> tensor<666x28x28x22x1xf32>\n    %collapsed = tensor.collapse_shape %9 [[0], [1], [2], [3, 4]] : tensor<666x28x28x22x1xf32> into tensor<666x28x28x22xf32>\n    %10 = linalg.generic {indexing_maps = [#map, #map1, #map1], iterator_types = [\"parallel\", \"parallel\", \"parallel\", \"parallel\"]} ins(%5, %collapsed : tensor<22xf32>, tensor<666x28x28x22xf32>) outs(%8 : tensor<666x28x28x22xf32>) {\n    ^bb0(%in: f32, %in_2: f32, %out: f32):\n      %11 = arith.addf %in, %in_2 : f32\n      linalg.yield %11 : f32\n    } -> tensor<666x28x28x22xf32>\n    return\n  }\n}\n\n", "#map = affine_map<(d0) -> (d0)>\nmodule {\n  func.func @wrapper() {\n    %cst = arith.constant 2.000000e+00 : f32\n    %0 = bufferization.alloc_tensor() : tensor<1664xf32>\n    %1 = linalg.fill ins(%cst : f32) outs(%0 : tensor<1664xf32>) -> tensor<1664xf32>\n    %2 = tensor.empty() : tensor<1664xf32>\n    %3 = linalg.generic {indexing_maps = [#map, #map], iterator_types = [\"parallel\"]} ins(%1 : tensor<1664xf32>) outs(%2 : tensor<1664xf32>) {\n    ^bb0(%in: f32, %out: f32):\n      %4 = math.rsqrt %in : f32\n      linalg.yield %4 : f32\n    } -> tensor<1664xf32>\n    return\n  }\n}\n\n", "#map = affine_map<(d0, d1, d2, d3) -> (d3)>\n#map1 = affine_map<(d0, d1, d2, d3) -> (d0, d1, d2, d3)>\nmodule {\n  func.func @wrapper() {\n    %cst = arith.constant 2.000000e+00 : f32\n    %0 = bufferization.alloc_tensor() : tensor<666x7x7x1624xf32>\n    %1 = linalg.fill ins(%cst : f32) outs(%0 : tensor<666x7x7x1624xf32>) -> tensor<666x7x7x1624xf32>\n    %2 = bufferization.alloc_tensor() : tensor<1624x1x1x1624xf32>\n    %3 = linalg.fill ins(%cst : f32) outs(%2 : tensor<1624x1x1x1624xf32>) -> tensor<1624x1x1x1624xf32>\n    %4 = bufferization.alloc_tensor() : tensor<1624xf32>\n    %5 = linalg.fill ins(%cst : f32) outs(%4 : tensor<1624xf32>) -> tensor<1624xf32>\n    %6 = tensor.empty() : tensor<666x7x7x1624xf32>\n    %7 = linalg.generic {indexing_maps = [#map, #map1], iterator_types = [\"parallel\", \"parallel\", \"parallel\", \"parallel\"]} ins(%5 : tensor<1624xf32>) outs(%6 : tensor<666x7x7x1624xf32>) {\n    ^bb0(%in: f32, %out: f32):\n      linalg.yield %in : f32\n    } -> tensor<666x7x7x1624xf32>\n    %8 = linalg.conv_2d_nhwc_fhwc {dilations = dense<1> : tensor<2xi64>, strides = dense<1> : tensor<2xi64>} ins(%1, %3 : tensor<666x7x7x1624xf32>, tensor<1624x1x1x1624xf32>) outs(%7 : tensor<666x7x7x1624xf32>) -> tensor<666x7x7x1624xf32>\n    return\n  }\n}\n\n", "#map = affine_map<(d0, d1, d2, d3) -> (d0, d1, d2, d3)>\nmodule {\n  func.func @wrapper() {\n    %cst = arith.constant 2.000000e+00 : f32\n    %0 = bufferization.alloc_tensor() : tensor<666x28x28x128xf32>\n    %1 = linalg.fill ins(%cst : f32) outs(%0 : tensor<666x28x28x128xf32>) -> tensor<666x28x28x128xf32>\n    %2 = tensor.empty() : tensor<666x28x28x128xf32>\n    %3 = linalg.generic {indexing_maps = [#map, #map], iterator_types = [\"parallel\", \"parallel\", \"parallel\", \"parallel\"]} ins(%1 : tensor<666x28x28x128xf32>) outs(%2 : tensor<666x28x28x128xf32>) {\n    ^bb0(%in: f32, %out: f32):\n      %cst_0 = arith.constant 0.000000e+00 : f32\n      %cst_1 = arith.constant 3.40282347E+38 : f32\n      %4 = arith.minimumf %in, %cst_1 : f32\n      %5 = arith.maximumf %4, %cst_0 : f32\n      linalg.yield %5 : f32\n    } -> tensor<666x28x28x128xf32>\n    return\n  }\n}\n\n", "#map = affine_map<(d0, d1, d2, d3) -> (d0, d1, d2, d3)>\nmodule {\n  func.func @wrapper() {\n    %cst = arith.constant 2.000000e+00 : f32\n    %0 = bufferization.alloc_tensor() : tensor<666x7x7x440xf32>\n    %1 = linalg.fill ins(%cst : f32) outs(%0 : tensor<666x7x7x440xf32>) -> tensor<666x7x7x440xf32>\n    %2 = bufferization.alloc_tensor() : tensor<666x7x7x440xf32>\n    %3 = linalg.fill ins(%cst : f32) outs(%2 : tensor<666x7x7x440xf32>) -> tensor<666x7x7x440xf32>\n    %4 = tensor.empty() : tensor<666x7x7x440xf32>\n    %5 = linalg.generic {indexing_maps = [#map, #map, #map], iterator_types = [\"parallel\", \"parallel\", \"parallel\", \"parallel\"]} ins(%1, %3 : tensor<666x7x7x440xf32>, tensor<666x7x7x440xf32>) outs(%4 : tensor<666x7x7x440xf32>) {\n    ^bb0(%in: f32, %in_0: f32, %out: f32):\n      %6 = arith.addf %in, %in_0 : f32\n      linalg.yield %6 : f32\n    } -> tensor<666x7x7x440xf32>\n    return\n  }\n}\n\n", "#map = affine_map<(d0, d1, d2, d3) -> (d0, d1, d2, d3)>\n#map1 = affine_map<(d0, d1, d2, d3) -> (0, 0, 0, d3)>\nmodule {\n  func.func @wrapper() {\n    %cst = arith.constant 2.000000e+00 : f32\n    %0 = bufferization.alloc_tensor() : tensor<666x14x14x1344xf32>\n    %1 = linalg.fill ins(%cst : f32) outs(%0 : tensor<666x14x14x1344xf32>) -> tensor<666x14x14x1344xf32>\n    %2 = bufferization.alloc_tensor() : tensor<1x1x1x1344xf32>\n    %3 = linalg.fill ins(%cst : f32) outs(%2 : tensor<1x1x1x1344xf32>) -> tensor<1x1x1x1344xf32>\n    %4 = tensor.empty() : tensor<666x14x14x1344xf32>\n    %5 = linalg.generic {indexing_maps = [#map, #map1, #map], iterator_types = [\"parallel\", \"parallel\", \"parallel\", \"parallel\"]} ins(%1, %3 : tensor<666x14x14x1344xf32>, tensor<1x1x1x1344xf32>) outs(%4 : tensor<666x14x14x1344xf32>) {\n    ^bb0(%in: f32, %in_0: f32, %out: f32):\n      %6 = arith.addf %in, %in_0 : f32\n      linalg.yield %6 : f32\n    } -> tensor<666x14x14x1344xf32>\n    return\n  }\n}\n\n", "#map = affine_map<(d0, d1, d2, d3) -> (d3)>\n#map1 = affine_map<(d0, d1, d2, d3) -> (d0, d1, d2, d3)>\nmodule {\n  func.func @wrapper() {\n    %cst = arith.constant 2.000000e+00 : f32\n    %0 = bufferization.alloc_tensor() : tensor<666x7x7x1216xf32>\n    %1 = linalg.fill ins(%cst : f32) outs(%0 : tensor<666x7x7x1216xf32>) -> tensor<666x7x7x1216xf32>\n    %2 = bufferization.alloc_tensor() : tensor<128x1x1x1216xf32>\n    %3 = linalg.fill ins(%cst : f32) outs(%2 : tensor<128x1x1x1216xf32>) -> tensor<128x1x1x1216xf32>\n    %4 = bufferization.alloc_tensor() : tensor<128xf32>\n    %5 = linalg.fill ins(%cst : f32) outs(%4 : tensor<128xf32>) -> tensor<128xf32>\n    %6 = tensor.empty() : tensor<666x7x7x128xf32>\n    %7 = linalg.generic {indexing_maps = [#map, #map1], iterator_types = [\"parallel\", \"parallel\", \"parallel\", \"parallel\"]} ins(%5 : tensor<128xf32>) outs(%6 : tensor<666x7x7x128xf32>) {\n    ^bb0(%in: f32, %out: f32):\n      linalg.yield %in : f32\n    } -> tensor<666x7x7x128xf32>\n    %8 = linalg.conv_2d_nhwc_fhwc {dilations = dense<1> : tensor<2xi64>, strides = dense<1> : tensor<2xi64>} ins(%1, %3 : tensor<666x7x7x1216xf32>, tensor<128x1x1x1216xf32>) outs(%7 : tensor<666x7x7x128xf32>) -> tensor<666x7x7x128xf32>\n    return\n  }\n}\n\n", "#map = affine_map<(d0) -> (d0)>\n#map1 = affine_map<(d0) -> (0)>\nmodule {\n  func.func @wrapper() {\n    %cst = arith.constant 2.000000e+00 : f32\n    %0 = bufferization.alloc_tensor() : tensor<1600xf32>\n    %1 = linalg.fill ins(%cst : f32) outs(%0 : tensor<1600xf32>) -> tensor<1600xf32>\n    %2 = bufferization.alloc_tensor() : tensor<1xf32>\n    %3 = linalg.fill ins(%cst : f32) outs(%2 : tensor<1xf32>) -> tensor<1xf32>\n    %4 = tensor.empty() : tensor<1600xf32>\n    %5 = linalg.generic {indexing_maps = [#map, #map1, #map], iterator_types = [\"parallel\"]} ins(%1, %3 : tensor<1600xf32>, tensor<1xf32>) outs(%4 : tensor<1600xf32>) {\n    ^bb0(%in: f32, %in_0: f32, %out: f32):\n      %6 = arith.addf %in, %in_0 : f32\n      linalg.yield %6 : f32\n    } -> tensor<1600xf32>\n    return\n  }\n}\n\n", "#map = affine_map<(d0, d1, d2, d3) -> (d0, d1, d2, d3)>\nmodule {\n  func.func @wrapper() {\n    %cst = arith.constant 2.000000e+00 : f32\n    %0 = bufferization.alloc_tensor() : tensor<666x7x7x576xf32>\n    %1 = linalg.fill ins(%cst : f32) outs(%0 : tensor<666x7x7x576xf32>) -> tensor<666x7x7x576xf32>\n    %2 = tensor.empty() : tensor<666x7x7x576xf32>\n    %3 = linalg.generic {indexing_maps = [#map, #map], iterator_types = [\"parallel\", \"parallel\", \"parallel\", \"parallel\"]} ins(%1 : tensor<666x7x7x576xf32>) outs(%2 : tensor<666x7x7x576xf32>) {\n    ^bb0(%in: f32, %out: f32):\n      %cst_0 = arith.constant 0.000000e+00 : f32\n      %cst_1 = arith.constant 6.000000e+00 : f32\n      %4 = arith.minimumf %in, %cst_1 : f32\n      %5 = arith.maximumf %4, %cst_0 : f32\n      linalg.yield %5 : f32\n    } -> tensor<666x7x7x576xf32>\n    return\n  }\n}\n\n", "#map = affine_map<(d0, d1, d2, d3) -> (d0, d1, d2, d3)>\nmodule {\n  func.func @wrapper() {\n    %cst = arith.constant 2.000000e+00 : f32\n    %0 = bufferization.alloc_tensor() : tensor<666x28x28x560xf32>\n    %1 = linalg.fill ins(%cst : f32) outs(%0 : tensor<666x28x28x560xf32>) -> tensor<666x28x28x560xf32>\n    %2 = tensor.empty() : tensor<666x28x28x560xf32>\n    %3 = linalg.generic {indexing_maps = [#map, #map], iterator_types = [\"parallel\", \"parallel\", \"parallel\", \"parallel\"]} ins(%1 : tensor<666x28x28x560xf32>) outs(%2 : tensor<666x28x28x560xf32>) {\n    ^bb0(%in: f32, %out: f32):\n      %cst_0 = arith.constant 0.000000e+00 : f32\n      %cst_1 = arith.constant 3.40282347E+38 : f32\n      %4 = arith.minimumf %in, %cst_1 : f32\n      %5 = arith.maximumf %4, %cst_0 : f32\n      linalg.yield %5 : f32\n    } -> tensor<666x28x28x560xf32>\n    return\n  }\n}\n\n", "#map = affine_map<(d0, d1, d2, d3) -> (d3)>\n#map1 = affine_map<(d0, d1, d2, d3) -> (d0, d1, d2, d3)>\nmodule {\n  func.func @wrapper() {\n    %cst = arith.constant 2.000000e+00 : f32\n    %0 = bufferization.alloc_tensor() : tensor<666x1x1x448xf32>\n    %1 = linalg.fill ins(%cst : f32) outs(%0 : tensor<666x1x1x448xf32>) -> tensor<666x1x1x448xf32>\n    %2 = bufferization.alloc_tensor() : tensor<42x1x1x448xf32>\n    %3 = linalg.fill ins(%cst : f32) outs(%2 : tensor<42x1x1x448xf32>) -> tensor<42x1x1x448xf32>\n    %4 = bufferization.alloc_tensor() : tensor<42xf32>\n    %5 = linalg.fill ins(%cst : f32) outs(%4 : tensor<42xf32>) -> tensor<42xf32>\n    %6 = tensor.empty() : tensor<666x1x1x42xf32>\n    %7 = linalg.generic {indexing_maps = [#map, #map1], iterator_types = [\"parallel\", \"parallel\", \"parallel\", \"parallel\"]} ins(%5 : tensor<42xf32>) outs(%6 : tensor<666x1x1x42xf32>) {\n    ^bb0(%in: f32, %out: f32):\n      linalg.yield %in : f32\n    } -> tensor<666x1x1x42xf32>\n    %8 = linalg.conv_2d_nhwc_fhwc {dilations = dense<1> : tensor<2xi64>, strides = dense<1> : tensor<2xi64>} ins(%1, %3 : tensor<666x1x1x448xf32>, tensor<42x1x1x448xf32>) outs(%7 : tensor<666x1x1x42xf32>) -> tensor<666x1x1x42xf32>\n    return\n  }\n}\n\n", "#map = affine_map<(d0, d1, d2, d3) -> (d3)>\n#map1 = affine_map<(d0, d1, d2, d3) -> (d0, d1, d2, d3)>\nmodule {\n  func.func @wrapper() {\n    %cst = arith.constant 2.000000e+00 : f32\n    %0 = bufferization.alloc_tensor() : tensor<666x147x147x128xf32>\n    %1 = linalg.fill ins(%cst : f32) outs(%0 : tensor<666x147x147x128xf32>) -> tensor<666x147x147x128xf32>\n    %2 = bufferization.alloc_tensor() : tensor<128x1x1x128xf32>\n    %3 = linalg.fill ins(%cst : f32) outs(%2 : tensor<128x1x1x128xf32>) -> tensor<128x1x1x128xf32>\n    %4 = bufferization.alloc_tensor() : tensor<128xf32>\n    %5 = linalg.fill ins(%cst : f32) outs(%4 : tensor<128xf32>) -> tensor<128xf32>\n    %6 = tensor.empty() : tensor<666x147x147x128xf32>\n    %7 = linalg.generic {indexing_maps = [#map, #map1], iterator_types = [\"parallel\", \"parallel\", \"parallel\", \"parallel\"]} ins(%5 : tensor<128xf32>) outs(%6 : tensor<666x147x147x128xf32>) {\n    ^bb0(%in: f32, %out: f32):\n      linalg.yield %in : f32\n    } -> tensor<666x147x147x128xf32>\n    %8 = linalg.conv_2d_nhwc_fhwc {dilations = dense<1> : tensor<2xi64>, strides = dense<1> : tensor<2xi64>} ins(%1, %3 : tensor<666x147x147x128xf32>, tensor<128x1x1x128xf32>) outs(%7 : tensor<666x147x147x128xf32>) -> tensor<666x147x147x128xf32>\n    return\n  }\n}\n\n", "#map = affine_map<(d0) -> (d0)>\n#map1 = affine_map<(d0) -> (0)>\nmodule {\n  func.func @wrapper() {\n    %cst = arith.constant 2.000000e+00 : f32\n    %0 = bufferization.alloc_tensor() : tensor<1472xf32>\n    %1 = linalg.fill ins(%cst : f32) outs(%0 : tensor<1472xf32>) -> tensor<1472xf32>\n    %2 = bufferization.alloc_tensor() : tensor<1xf32>\n    %3 = linalg.fill ins(%cst : f32) outs(%2 : tensor<1xf32>) -> tensor<1xf32>\n    %4 = tensor.empty() : tensor<1472xf32>\n    %5 = linalg.generic {indexing_maps = [#map, #map1, #map], iterator_types = [\"parallel\"]} ins(%1, %3 : tensor<1472xf32>, tensor<1xf32>) outs(%4 : tensor<1472xf32>) {\n    ^bb0(%in: f32, %in_0: f32, %out: f32):\n      %6 = arith.addf %in, %in_0 : f32\n      linalg.yield %6 : f32\n    } -> tensor<1472xf32>\n    return\n  }\n}\n\n", "module {\n  func.func @wrapper() {\n    %cst = arith.constant 2.000000e+00 : f32\n    %0 = bufferization.alloc_tensor() : tensor<666x1x28x696xf32>\n    %1 = linalg.fill ins(%cst : f32) outs(%0 : tensor<666x1x28x696xf32>) -> tensor<666x1x28x696xf32>\n    %2 = tensor.empty() : tensor<666x1x696xf32>\n    %cst_0 = arith.constant 0.000000e+00 : f32\n    %3 = linalg.fill ins(%cst_0 : f32) outs(%2 : tensor<666x1x696xf32>) -> tensor<666x1x696xf32>\n    %reduced = linalg.reduce ins(%1 : tensor<666x1x28x696xf32>) outs(%3 : tensor<666x1x696xf32>) dimensions = [2] \n      (%in: f32, %init: f32) {\n        %4 = arith.addf %in, %init : f32\n        linalg.yield %4 : f32\n      }\n    %expanded = tensor.expand_shape %reduced [[0], [1], [2, 3]] : tensor<666x1x696xf32> into tensor<666x1x1x696xf32>\n    return\n  }\n}\n\n", "#map = affine_map<(d0, d1, d2, d3) -> (d3)>\n#map1 = affine_map<(d0, d1, d2, d3) -> (d0, d1, d2, d3)>\nmodule {\n  func.func @wrapper() {\n    %cst = arith.constant 2.000000e+00 : f32\n    %0 = bufferization.alloc_tensor() : tensor<666x7x7x1824xf32>\n    %1 = linalg.fill ins(%cst : f32) outs(%0 : tensor<666x7x7x1824xf32>) -> tensor<666x7x7x1824xf32>\n    %2 = bufferization.alloc_tensor() : tensor<128x1x1x1824xf32>\n    %3 = linalg.fill ins(%cst : f32) outs(%2 : tensor<128x1x1x1824xf32>) -> tensor<128x1x1x1824xf32>\n    %4 = bufferization.alloc_tensor() : tensor<128xf32>\n    %5 = linalg.fill ins(%cst : f32) outs(%4 : tensor<128xf32>) -> tensor<128xf32>\n    %6 = tensor.empty() : tensor<666x7x7x128xf32>\n    %7 = linalg.generic {indexing_maps = [#map, #map1], iterator_types = [\"parallel\", \"parallel\", \"parallel\", \"parallel\"]} ins(%5 : tensor<128xf32>) outs(%6 : tensor<666x7x7x128xf32>) {\n    ^bb0(%in: f32, %out: f32):\n      linalg.yield %in : f32\n    } -> tensor<666x7x7x128xf32>\n    %8 = linalg.conv_2d_nhwc_fhwc {dilations = dense<1> : tensor<2xi64>, strides = dense<1> : tensor<2xi64>} ins(%1, %3 : tensor<666x7x7x1824xf32>, tensor<128x1x1x1824xf32>) outs(%7 : tensor<666x7x7x128xf32>) -> tensor<666x7x7x128xf32>\n    return\n  }\n}\n\n", "#map = affine_map<(d0, d1, d2, d3) -> (d3)>\n#map1 = affine_map<(d0, d1, d2, d3) -> (d0, d1, d2, d3)>\nmodule {\n  func.func @wrapper() {\n    %cst = arith.constant 2.000000e+00 : f32\n    %0 = bufferization.alloc_tensor() : tensor<666x14x14x1760xf32>\n    %1 = linalg.fill ins(%cst : f32) outs(%0 : tensor<666x14x14x1760xf32>) -> tensor<666x14x14x1760xf32>\n    %2 = bufferization.alloc_tensor() : tensor<128x1x1x1760xf32>\n    %3 = linalg.fill ins(%cst : f32) outs(%2 : tensor<128x1x1x1760xf32>) -> tensor<128x1x1x1760xf32>\n    %4 = bufferization.alloc_tensor() : tensor<128xf32>\n    %5 = linalg.fill ins(%cst : f32) outs(%4 : tensor<128xf32>) -> tensor<128xf32>\n    %6 = tensor.empty() : tensor<666x14x14x128xf32>\n    %7 = linalg.generic {indexing_maps = [#map, #map1], iterator_types = [\"parallel\", \"parallel\", \"parallel\", \"parallel\"]} ins(%5 : tensor<128xf32>) outs(%6 : tensor<666x14x14x128xf32>) {\n    ^bb0(%in: f32, %out: f32):\n      linalg.yield %in : f32\n    } -> tensor<666x14x14x128xf32>\n    %8 = linalg.conv_2d_nhwc_fhwc {dilations = dense<1> : tensor<2xi64>, strides = dense<1> : tensor<2xi64>} ins(%1, %3 : tensor<666x14x14x1760xf32>, tensor<128x1x1x1760xf32>) outs(%7 : tensor<666x14x14x128xf32>) -> tensor<666x14x14x128xf32>\n    return\n  }\n}\n\n", "#map = affine_map<(d0, d1, d2, d3) -> (d3)>\n#map1 = affine_map<(d0, d1, d2, d3) -> (d0, d1, d2, d3)>\nmodule {\n  func.func @wrapper() {\n    %cst = arith.constant 2.000000e+00 : f32\n    %0 = bufferization.alloc_tensor() : tensor<666x112x112x32xf32>\n    %1 = linalg.fill ins(%cst : f32) outs(%0 : tensor<666x112x112x32xf32>) -> tensor<666x112x112x32xf32>\n    %2 = bufferization.alloc_tensor() : tensor<256x1x1x32xf32>\n    %3 = linalg.fill ins(%cst : f32) outs(%2 : tensor<256x1x1x32xf32>) -> tensor<256x1x1x32xf32>\n    %4 = bufferization.alloc_tensor() : tensor<256xf32>\n    %5 = linalg.fill ins(%cst : f32) outs(%4 : tensor<256xf32>) -> tensor<256xf32>\n    %6 = tensor.empty() : tensor<666x112x112x256xf32>\n    %7 = linalg.generic {indexing_maps = [#map, #map1], iterator_types = [\"parallel\", \"parallel\", \"parallel\", \"parallel\"]} ins(%5 : tensor<256xf32>) outs(%6 : tensor<666x112x112x256xf32>) {\n    ^bb0(%in: f32, %out: f32):\n      linalg.yield %in : f32\n    } -> tensor<666x112x112x256xf32>\n    %8 = linalg.conv_2d_nhwc_fhwc {dilations = dense<1> : tensor<2xi64>, strides = dense<1> : tensor<2xi64>} ins(%1, %3 : tensor<666x112x112x32xf32>, tensor<256x1x1x32xf32>) outs(%7 : tensor<666x112x112x256xf32>) -> tensor<666x112x112x256xf32>\n    return\n  }\n}\n\n", "#map = affine_map<(d0, d1, d2, d3) -> (d0, d1, d2, d3)>\n#map1 = affine_map<(d0, d1, d2, d3) -> (0, 0, 0, d3)>\nmodule {\n  func.func @wrapper() {\n    %cst = arith.constant 2.000000e+00 : f32\n    %0 = bufferization.alloc_tensor() : tensor<666x14x14x416xf32>\n    %1 = linalg.fill ins(%cst : f32) outs(%0 : tensor<666x14x14x416xf32>) -> tensor<666x14x14x416xf32>\n    %2 = bufferization.alloc_tensor() : tensor<1x1x1x416xf32>\n    %3 = linalg.fill ins(%cst : f32) outs(%2 : tensor<1x1x1x416xf32>) -> tensor<1x1x1x416xf32>\n    %4 = tensor.empty() : tensor<666x14x14x416xf32>\n    %5 = linalg.generic {indexing_maps = [#map, #map1, #map], iterator_types = [\"parallel\", \"parallel\", \"parallel\", \"parallel\"]} ins(%1, %3 : tensor<666x14x14x416xf32>, tensor<1x1x1x416xf32>) outs(%4 : tensor<666x14x14x416xf32>) {\n    ^bb0(%in: f32, %in_0: f32, %out: f32):\n      %6 = arith.subf %in, %in_0 : f32\n      linalg.yield %6 : f32\n    } -> tensor<666x14x14x416xf32>\n    return\n  }\n}\n\n", "#map = affine_map<(d0, d1, d2, d3) -> (d0, d1, d2, d3)>\nmodule {\n  func.func @wrapper() {\n    %cst = arith.constant 2.000000e+00 : f32\n    %0 = bufferization.alloc_tensor() : tensor<666x7x7x672xf32>\n    %1 = linalg.fill ins(%cst : f32) outs(%0 : tensor<666x7x7x672xf32>) -> tensor<666x7x7x672xf32>\n    %2 = tensor.empty() : tensor<666x7x7x672xf32>\n    %3 = linalg.generic {indexing_maps = [#map, #map], iterator_types = [\"parallel\", \"parallel\", \"parallel\", \"parallel\"]} ins(%1 : tensor<666x7x7x672xf32>) outs(%2 : tensor<666x7x7x672xf32>) {\n    ^bb0(%in: f32, %out: f32):\n      %cst_0 = arith.constant 0.000000e+00 : f32\n      %cst_1 = arith.constant 3.40282347E+38 : f32\n      %4 = arith.minimumf %in, %cst_1 : f32\n      %5 = arith.maximumf %4, %cst_0 : f32\n      linalg.yield %5 : f32\n    } -> tensor<666x7x7x672xf32>\n    return\n  }\n}\n\n", "#map = affine_map<(d0) -> (d0)>\n#map1 = affine_map<(d0) -> (0)>\nmodule {\n  func.func @wrapper() {\n    %cst = arith.constant 2.000000e+00 : f32\n    %0 = bufferization.alloc_tensor() : tensor<22xf32>\n    %1 = linalg.fill ins(%cst : f32) outs(%0 : tensor<22xf32>) -> tensor<22xf32>\n    %2 = bufferization.alloc_tensor() : tensor<1xf32>\n    %3 = linalg.fill ins(%cst : f32) outs(%2 : tensor<1xf32>) -> tensor<1xf32>\n    %4 = tensor.empty() : tensor<22xf32>\n    %5 = linalg.generic {indexing_maps = [#map, #map1, #map], iterator_types = [\"parallel\"]} ins(%1, %3 : tensor<22xf32>, tensor<1xf32>) outs(%4 : tensor<22xf32>) {\n    ^bb0(%in: f32, %in_0: f32, %out: f32):\n      %6 = arith.addf %in, %in_0 : f32\n      linalg.yield %6 : f32\n    } -> tensor<22xf32>\n    return\n  }\n}\n\n", "#map = affine_map<(d0, d1, d2, d3) -> (d0, d1, d2, d3)>\n#map1 = affine_map<(d0, d1, d2, d3) -> (0, 0, 0, d3)>\nmodule {\n  func.func @wrapper() {\n    %cst = arith.constant 2.000000e+00 : f32\n    %0 = bufferization.alloc_tensor() : tensor<666x28x28x576xf32>\n    %1 = linalg.fill ins(%cst : f32) outs(%0 : tensor<666x28x28x576xf32>) -> tensor<666x28x28x576xf32>\n    %2 = bufferization.alloc_tensor() : tensor<1x1x1x576xf32>\n    %3 = linalg.fill ins(%cst : f32) outs(%2 : tensor<1x1x1x576xf32>) -> tensor<1x1x1x576xf32>\n    %4 = tensor.empty() : tensor<666x28x28x576xf32>\n    %5 = linalg.generic {indexing_maps = [#map, #map1, #map], iterator_types = [\"parallel\", \"parallel\", \"parallel\", \"parallel\"]} ins(%1, %3 : tensor<666x28x28x576xf32>, tensor<1x1x1x576xf32>) outs(%4 : tensor<666x28x28x576xf32>) {\n    ^bb0(%in: f32, %in_0: f32, %out: f32):\n      %6 = arith.addf %in, %in_0 : f32\n      linalg.yield %6 : f32\n    } -> tensor<666x28x28x576xf32>\n    return\n  }\n}\n\n", "#map = affine_map<(d0, d1, d2, d3) -> (d0, 0, 0, d3)>\n#map1 = affine_map<(d0, d1, d2, d3) -> (d0, d1, d2, d3)>\nmodule {\n  func.func @wrapper() {\n    %cst = arith.constant 2.000000e+00 : f32\n    %0 = bufferization.alloc_tensor() : tensor<666x1x1x112xf32>\n    %1 = linalg.fill ins(%cst : f32) outs(%0 : tensor<666x1x1x112xf32>) -> tensor<666x1x1x112xf32>\n    %2 = bufferization.alloc_tensor() : tensor<666x28x28x112xf32>\n    %3 = linalg.fill ins(%cst : f32) outs(%2 : tensor<666x28x28x112xf32>) -> tensor<666x28x28x112xf32>\n    %4 = tensor.empty() : tensor<666x28x28x112xf32>\n    %5 = linalg.generic {indexing_maps = [#map, #map1, #map1], iterator_types = [\"parallel\", \"parallel\", \"parallel\", \"parallel\"]} ins(%1, %3 : tensor<666x1x1x112xf32>, tensor<666x28x28x112xf32>) outs(%4 : tensor<666x28x28x112xf32>) {\n    ^bb0(%in: f32, %in_0: f32, %out: f32):\n      %6 = arith.mulf %in, %in_0 : f32\n      linalg.yield %6 : f32\n    } -> tensor<666x28x28x112xf32>\n    return\n  }\n}\n\n", "#map = affine_map<(d0) -> (d0)>\nmodule {\n  func.func @wrapper() {\n    %cst = arith.constant 2.000000e+00 : f32\n    %0 = bufferization.alloc_tensor() : tensor<56xf32>\n    %1 = linalg.fill ins(%cst : f32) outs(%0 : tensor<56xf32>) -> tensor<56xf32>\n    %2 = tensor.empty() : tensor<56xf32>\n    %3 = linalg.generic {indexing_maps = [#map, #map], iterator_types = [\"parallel\"]} ins(%1 : tensor<56xf32>) outs(%2 : tensor<56xf32>) {\n    ^bb0(%in: f32, %out: f32):\n      %4 = math.rsqrt %in : f32\n      linalg.yield %4 : f32\n    } -> tensor<56xf32>\n    return\n  }\n}\n\n", "#map = affine_map<(d0, d1, d2, d3) -> (d3)>\n#map1 = affine_map<(d0, d1, d2, d3) -> (d0, d1, d2, d3)>\nmodule {\n  func.func @wrapper() {\n    %cst = arith.constant 2.000000e+00 : f32\n    %0 = bufferization.alloc_tensor() : tensor<666x1x1x32xf32>\n    %1 = linalg.fill ins(%cst : f32) outs(%0 : tensor<666x1x1x32xf32>) -> tensor<666x1x1x32xf32>\n    %2 = bufferization.alloc_tensor() : tensor<128x1x1x32xf32>\n    %3 = linalg.fill ins(%cst : f32) outs(%2 : tensor<128x1x1x32xf32>) -> tensor<128x1x1x32xf32>\n    %4 = bufferization.alloc_tensor() : tensor<128xf32>\n    %5 = linalg.fill ins(%cst : f32) outs(%4 : tensor<128xf32>) -> tensor<128xf32>\n    %6 = tensor.empty() : tensor<666x1x1x128xf32>\n    %7 = linalg.generic {indexing_maps = [#map, #map1], iterator_types = [\"parallel\", \"parallel\", \"parallel\", \"parallel\"]} ins(%5 : tensor<128xf32>) outs(%6 : tensor<666x1x1x128xf32>) {\n    ^bb0(%in: f32, %out: f32):\n      linalg.yield %in : f32\n    } -> tensor<666x1x1x128xf32>\n    %8 = linalg.conv_2d_nhwc_fhwc {dilations = dense<1> : tensor<2xi64>, strides = dense<1> : tensor<2xi64>} ins(%1, %3 : tensor<666x1x1x32xf32>, tensor<128x1x1x32xf32>) outs(%7 : tensor<666x1x1x128xf32>) -> tensor<666x1x1x128xf32>\n    return\n  }\n}\n\n", "#map = affine_map<(d0, d1, d2, d3) -> (d0, d1, d2, 0)>\n#map1 = affine_map<(d0, d1, d2, d3) -> (d0, d1, d2, d3)>\nmodule {\n  func.func @wrapper() {\n    %cst = arith.constant 2.000000e+00 : f32\n    %0 = bufferization.alloc_tensor() : tensor<666x28x28x1xf32>\n    %1 = linalg.fill ins(%cst : f32) outs(%0 : tensor<666x28x28x1xf32>) -> tensor<666x28x28x1xf32>\n    %2 = bufferization.alloc_tensor() : tensor<666x28x28x192xf32>\n    %3 = linalg.fill ins(%cst : f32) outs(%2 : tensor<666x28x28x192xf32>) -> tensor<666x28x28x192xf32>\n    %4 = tensor.empty() : tensor<666x28x28x192xf32>\n    %5 = linalg.generic {indexing_maps = [#map, #map1, #map1], iterator_types = [\"parallel\", \"parallel\", \"parallel\", \"parallel\"]} ins(%1, %3 : tensor<666x28x28x1xf32>, tensor<666x28x28x192xf32>) outs(%4 : tensor<666x28x28x192xf32>) {\n    ^bb0(%in: f32, %in_0: f32, %out: f32):\n      %6 = arith.mulf %in, %in_0 : f32\n      linalg.yield %6 : f32\n    } -> tensor<666x28x28x192xf32>\n    return\n  }\n}\n\n", "#map = affine_map<(d0, d1, d2, d3) -> (d3)>\n#map1 = affine_map<(d0, d1, d2, d3) -> (d0, d1, d2, d3)>\nmodule {\n  func.func @wrapper() {\n    %cst = arith.constant 2.000000e+00 : f32\n    %0 = bufferization.alloc_tensor() : tensor<666x14x14x1232xf32>\n    %1 = linalg.fill ins(%cst : f32) outs(%0 : tensor<666x14x14x1232xf32>) -> tensor<666x14x14x1232xf32>\n    %2 = bufferization.alloc_tensor() : tensor<3024x1x1x1232xf32>\n    %3 = linalg.fill ins(%cst : f32) outs(%2 : tensor<3024x1x1x1232xf32>) -> tensor<3024x1x1x1232xf32>\n    %4 = bufferization.alloc_tensor() : tensor<3024xf32>\n    %5 = linalg.fill ins(%cst : f32) outs(%4 : tensor<3024xf32>) -> tensor<3024xf32>\n    %6 = tensor.empty() : tensor<666x7x7x3024xf32>\n    %7 = linalg.generic {indexing_maps = [#map, #map1], iterator_types = [\"parallel\", \"parallel\", \"parallel\", \"parallel\"]} ins(%5 : tensor<3024xf32>) outs(%6 : tensor<666x7x7x3024xf32>) {\n    ^bb0(%in: f32, %out: f32):\n      linalg.yield %in : f32\n    } -> tensor<666x7x7x3024xf32>\n    %8 = linalg.conv_2d_nhwc_fhwc {dilations = dense<1> : tensor<2xi64>, strides = dense<2> : tensor<2xi64>} ins(%1, %3 : tensor<666x14x14x1232xf32>, tensor<3024x1x1x1232xf32>) outs(%7 : tensor<666x7x7x3024xf32>) -> tensor<666x7x7x3024xf32>\n    return\n  }\n}\n\n", "#map = affine_map<(d0, d1, d2, d3) -> (d0, d1, d2, d3)>\n#map1 = affine_map<(d0, d1, d2, d3) -> (0, 0, 0, d3)>\nmodule {\n  func.func @wrapper() {\n    %cst = arith.constant 2.000000e+00 : f32\n    %0 = bufferization.alloc_tensor() : tensor<666x35x35x48xf32>\n    %1 = linalg.fill ins(%cst : f32) outs(%0 : tensor<666x35x35x48xf32>) -> tensor<666x35x35x48xf32>\n    %2 = bufferization.alloc_tensor() : tensor<1x1x1x48xf32>\n    %3 = linalg.fill ins(%cst : f32) outs(%2 : tensor<1x1x1x48xf32>) -> tensor<1x1x1x48xf32>\n    %4 = tensor.empty() : tensor<666x35x35x48xf32>\n    %5 = linalg.generic {indexing_maps = [#map, #map1, #map], iterator_types = [\"parallel\", \"parallel\", \"parallel\", \"parallel\"]} ins(%1, %3 : tensor<666x35x35x48xf32>, tensor<1x1x1x48xf32>) outs(%4 : tensor<666x35x35x48xf32>) {\n    ^bb0(%in: f32, %in_0: f32, %out: f32):\n      %6 = arith.mulf %in, %in_0 : f32\n      linalg.yield %6 : f32\n    } -> tensor<666x35x35x48xf32>\n    return\n  }\n}\n\n", "#map = affine_map<(d0, d1, d2, d3) -> (d0, d1, d2, d3)>\nmodule {\n  func.func @wrapper() {\n    %cst = arith.constant 2.000000e+00 : f32\n    %0 = bufferization.alloc_tensor() : tensor<666x7x7x1512xf32>\n    %1 = linalg.fill ins(%cst : f32) outs(%0 : tensor<666x7x7x1512xf32>) -> tensor<666x7x7x1512xf32>\n    %2 = bufferization.alloc_tensor() : tensor<666x7x7x1512xf32>\n    %3 = linalg.fill ins(%cst : f32) outs(%2 : tensor<666x7x7x1512xf32>) -> tensor<666x7x7x1512xf32>\n    %4 = tensor.empty() : tensor<666x7x7x1512xf32>\n    %5 = linalg.generic {indexing_maps = [#map, #map, #map], iterator_types = [\"parallel\", \"parallel\", \"parallel\", \"parallel\"]} ins(%1, %3 : tensor<666x7x7x1512xf32>, tensor<666x7x7x1512xf32>) outs(%4 : tensor<666x7x7x1512xf32>) {\n    ^bb0(%in: f32, %in_0: f32, %out: f32):\n      %6 = arith.addf %in, %in_0 : f32\n      linalg.yield %6 : f32\n    } -> tensor<666x7x7x1512xf32>\n    return\n  }\n}\n\n", "module {\n  func.func @wrapper() {\n    %cst = arith.constant 2.000000e+00 : f32\n    %0 = bufferization.alloc_tensor() : tensor<666x1x7x2016xf32>\n    %1 = linalg.fill ins(%cst : f32) outs(%0 : tensor<666x1x7x2016xf32>) -> tensor<666x1x7x2016xf32>\n    %2 = tensor.empty() : tensor<666x1x2016xf32>\n    %cst_0 = arith.constant 0.000000e+00 : f32\n    %3 = linalg.fill ins(%cst_0 : f32) outs(%2 : tensor<666x1x2016xf32>) -> tensor<666x1x2016xf32>\n    %reduced = linalg.reduce ins(%1 : tensor<666x1x7x2016xf32>) outs(%3 : tensor<666x1x2016xf32>) dimensions = [2] \n      (%in: f32, %init: f32) {\n        %4 = arith.addf %in, %init : f32\n        linalg.yield %4 : f32\n      }\n    %expanded = tensor.expand_shape %reduced [[0], [1], [2, 3]] : tensor<666x1x2016xf32> into tensor<666x1x1x2016xf32>\n    return\n  }\n}\n\n", "#map = affine_map<(d0, d1, d2, d3) -> (d0, d1, d2, d3)>\n#map1 = affine_map<(d0, d1, d2, d3) -> (0, 0, 0, d3)>\nmodule {\n  func.func @wrapper() {\n    %cst = arith.constant 2.000000e+00 : f32\n    %0 = bufferization.alloc_tensor() : tensor<666x7x7x992xf32>\n    %1 = linalg.fill ins(%cst : f32) outs(%0 : tensor<666x7x7x992xf32>) -> tensor<666x7x7x992xf32>\n    %2 = bufferization.alloc_tensor() : tensor<1x1x1x992xf32>\n    %3 = linalg.fill ins(%cst : f32) outs(%2 : tensor<1x1x1x992xf32>) -> tensor<1x1x1x992xf32>\n    %4 = tensor.empty() : tensor<666x7x7x992xf32>\n    %5 = linalg.generic {indexing_maps = [#map, #map1, #map], iterator_types = [\"parallel\", \"parallel\", \"parallel\", \"parallel\"]} ins(%1, %3 : tensor<666x7x7x992xf32>, tensor<1x1x1x992xf32>) outs(%4 : tensor<666x7x7x992xf32>) {\n    ^bb0(%in: f32, %in_0: f32, %out: f32):\n      %6 = arith.addf %in, %in_0 : f32\n      linalg.yield %6 : f32\n    } -> tensor<666x7x7x992xf32>\n    return\n  }\n}\n\n", "#map = affine_map<(d0) -> (d0)>\n#map1 = affine_map<(d0) -> (0)>\nmodule {\n  func.func @wrapper() {\n    %cst = arith.constant 2.000000e+00 : f32\n    %0 = bufferization.alloc_tensor() : tensor<208xf32>\n    %1 = linalg.fill ins(%cst : f32) outs(%0 : tensor<208xf32>) -> tensor<208xf32>\n    %2 = bufferization.alloc_tensor() : tensor<1xf32>\n    %3 = linalg.fill ins(%cst : f32) outs(%2 : tensor<1xf32>) -> tensor<1xf32>\n    %4 = tensor.empty() : tensor<208xf32>\n    %5 = linalg.generic {indexing_maps = [#map, #map1, #map], iterator_types = [\"parallel\"]} ins(%1, %3 : tensor<208xf32>, tensor<1xf32>) outs(%4 : tensor<208xf32>) {\n    ^bb0(%in: f32, %in_0: f32, %out: f32):\n      %6 = arith.addf %in, %in_0 : f32\n      linalg.yield %6 : f32\n    } -> tensor<208xf32>\n    return\n  }\n}\n\n", "#map = affine_map<(d0, d1, d2, d3) -> (d0, 0, 0, d3)>\n#map1 = affine_map<(d0, d1, d2, d3) -> (d0, d1, d2, d3)>\nmodule {\n  func.func @wrapper() {\n    %cst = arith.constant 2.000000e+00 : f32\n    %0 = bufferization.alloc_tensor() : tensor<666x1x1x144xf32>\n    %1 = linalg.fill ins(%cst : f32) outs(%0 : tensor<666x1x1x144xf32>) -> tensor<666x1x1x144xf32>\n    %2 = tensor.empty() : tensor<666x1x1x144xf32>\n    %3 = linalg.generic {indexing_maps = [#map, #map1], iterator_types = [\"parallel\", \"parallel\", \"parallel\", \"parallel\"]} ins(%1 : tensor<666x1x1x144xf32>) outs(%2 : tensor<666x1x1x144xf32>) {\n    ^bb0(%in: f32, %out: f32):\n      %cst_0 = arith.constant 0.000000e+00 : f32\n      %cst_1 = arith.constant 3.40282347E+38 : f32\n      %4 = arith.minimumf %in, %cst_1 : f32\n      %5 = arith.maximumf %4, %cst_0 : f32\n      linalg.yield %5 : f32\n    } -> tensor<666x1x1x144xf32>\n    return\n  }\n}\n\n", "module {\n  func.func @wrapper() {\n    %cst = arith.constant 2.000000e+00 : f32\n    %0 = bufferization.alloc_tensor() : tensor<1x130536x3072xf32>\n    %1 = linalg.fill ins(%cst : f32) outs(%0 : tensor<1x130536x3072xf32>) -> tensor<1x130536x3072xf32>\n    %2 = bufferization.alloc_tensor() : tensor<1x3072x768xf32>\n    %3 = linalg.fill ins(%cst : f32) outs(%2 : tensor<1x3072x768xf32>) -> tensor<1x3072x768xf32>\n    %cst_0 = arith.constant 0.000000e+00 : f32\n    %4 = tensor.empty() : tensor<1x130536x768xf32>\n    %5 = linalg.fill ins(%cst_0 : f32) outs(%4 : tensor<1x130536x768xf32>) -> tensor<1x130536x768xf32>\n    %6 = linalg.batch_matmul ins(%1, %3 : tensor<1x130536x3072xf32>, tensor<1x3072x768xf32>) outs(%5 : tensor<1x130536x768xf32>) -> tensor<1x130536x768xf32>\n    return\n  }\n}\n\n", "#map = affine_map<(d0, d1, d2, d3) -> (d0, d1, d2, d3)>\nmodule {\n  func.func @wrapper() {\n    %cst = arith.constant 2.000000e+00 : f32\n    %0 = bufferization.alloc_tensor() : tensor<666x7x7x2048xf32>\n    %1 = linalg.fill ins(%cst : f32) outs(%0 : tensor<666x7x7x2048xf32>) -> tensor<666x7x7x2048xf32>\n    %2 = tensor.empty() : tensor<666x7x7x2048xf32>\n    %3 = linalg.generic {indexing_maps = [#map, #map], iterator_types = [\"parallel\", \"parallel\", \"parallel\", \"parallel\"]} ins(%1 : tensor<666x7x7x2048xf32>) outs(%2 : tensor<666x7x7x2048xf32>) {\n    ^bb0(%in: f32, %out: f32):\n      %cst_0 = arith.constant 0.000000e+00 : f32\n      %cst_1 = arith.constant 3.40282347E+38 : f32\n      %4 = arith.minimumf %in, %cst_1 : f32\n      %5 = arith.maximumf %4, %cst_0 : f32\n      linalg.yield %5 : f32\n    } -> tensor<666x7x7x2048xf32>\n    return\n  }\n}\n\n", "#map = affine_map<(d0, d1, d2, d3) -> (d0, 0, 0, d3)>\n#map1 = affine_map<(d0, d1, d2, d3) -> (d0, d1, d2, d3)>\nmodule {\n  func.func @wrapper() {\n    %cst = arith.constant 2.000000e+00 : f32\n    %0 = bufferization.alloc_tensor() : tensor<666x1x1x336xf32>\n    %1 = linalg.fill ins(%cst : f32) outs(%0 : tensor<666x1x1x336xf32>) -> tensor<666x1x1x336xf32>\n    %2 = tensor.empty() : tensor<666x1x1x336xf32>\n    %3 = linalg.generic {indexing_maps = [#map, #map1], iterator_types = [\"parallel\", \"parallel\", \"parallel\", \"parallel\"]} ins(%1 : tensor<666x1x1x336xf32>) outs(%2 : tensor<666x1x1x336xf32>) {\n    ^bb0(%in: f32, %out: f32):\n      %cst_0 = arith.constant 1.000000e+00 : f32\n      %4 = arith.negf %in : f32\n      %5 = math.exp %4 : f32\n      %6 = arith.addf %5, %cst_0 : f32\n      %7 = arith.divf %cst_0, %6 : f32\n      linalg.yield %7 : f32\n    } -> tensor<666x1x1x336xf32>\n    return\n  }\n}\n\n", "#map = affine_map<(d0, d1, d2, d3) -> (d3)>\n#map1 = affine_map<(d0, d1, d2, d3) -> (d0, d1, d2, d3)>\nmodule {\n  func.func @wrapper() {\n    %cst = arith.constant 2.000000e+00 : f32\n    %0 = bufferization.alloc_tensor() : tensor<666x7x7x864xf32>\n    %1 = linalg.fill ins(%cst : f32) outs(%0 : tensor<666x7x7x864xf32>) -> tensor<666x7x7x864xf32>\n    %2 = bufferization.alloc_tensor() : tensor<128x1x1x864xf32>\n    %3 = linalg.fill ins(%cst : f32) outs(%2 : tensor<128x1x1x864xf32>) -> tensor<128x1x1x864xf32>\n    %4 = bufferization.alloc_tensor() : tensor<128xf32>\n    %5 = linalg.fill ins(%cst : f32) outs(%4 : tensor<128xf32>) -> tensor<128xf32>\n    %6 = tensor.empty() : tensor<666x7x7x128xf32>\n    %7 = linalg.generic {indexing_maps = [#map, #map1], iterator_types = [\"parallel\", \"parallel\", \"parallel\", \"parallel\"]} ins(%5 : tensor<128xf32>) outs(%6 : tensor<666x7x7x128xf32>) {\n    ^bb0(%in: f32, %out: f32):\n      linalg.yield %in : f32\n    } -> tensor<666x7x7x128xf32>\n    %8 = linalg.conv_2d_nhwc_fhwc {dilations = dense<1> : tensor<2xi64>, strides = dense<1> : tensor<2xi64>} ins(%1, %3 : tensor<666x7x7x864xf32>, tensor<128x1x1x864xf32>) outs(%7 : tensor<666x7x7x128xf32>) -> tensor<666x7x7x128xf32>\n    return\n  }\n}\n\n", "#map = affine_map<(d0, d1, d2, d3) -> (d0, d1, d2, d3)>\n#map1 = affine_map<(d0, d1, d2, d3) -> (0, 0, 0, d3)>\nmodule {\n  func.func @wrapper() {\n    %cst = arith.constant 2.000000e+00 : f32\n    %0 = bufferization.alloc_tensor() : tensor<666x7x7x608xf32>\n    %1 = linalg.fill ins(%cst : f32) outs(%0 : tensor<666x7x7x608xf32>) -> tensor<666x7x7x608xf32>\n    %2 = bufferization.alloc_tensor() : tensor<1x1x1x608xf32>\n    %3 = linalg.fill ins(%cst : f32) outs(%2 : tensor<1x1x1x608xf32>) -> tensor<1x1x1x608xf32>\n    %4 = tensor.empty() : tensor<666x7x7x608xf32>\n    %5 = linalg.generic {indexing_maps = [#map, #map1, #map], iterator_types = [\"parallel\", \"parallel\", \"parallel\", \"parallel\"]} ins(%1, %3 : tensor<666x7x7x608xf32>, tensor<1x1x1x608xf32>) outs(%4 : tensor<666x7x7x608xf32>) {\n    ^bb0(%in: f32, %in_0: f32, %out: f32):\n      %6 = arith.subf %in, %in_0 : f32\n      linalg.yield %6 : f32\n    } -> tensor<666x7x7x608xf32>\n    return\n  }\n}\n\n", "#map = affine_map<(d0, d1, d2, d3) -> (d0, d1, d2, 0)>\n#map1 = affine_map<(d0, d1, d2, d3) -> (d0, d1, d2, d3)>\nmodule {\n  func.func @wrapper() {\n    %cst = arith.constant 2.000000e+00 : f32\n    %0 = bufferization.alloc_tensor() : tensor<666x7x7x1xf32>\n    %1 = linalg.fill ins(%cst : f32) outs(%0 : tensor<666x7x7x1xf32>) -> tensor<666x7x7x1xf32>\n    %2 = bufferization.alloc_tensor() : tensor<666x7x7x2048xf32>\n    %3 = linalg.fill ins(%cst : f32) outs(%2 : tensor<666x7x7x2048xf32>) -> tensor<666x7x7x2048xf32>\n    %4 = tensor.empty() : tensor<666x7x7x2048xf32>\n    %5 = linalg.generic {indexing_maps = [#map, #map1, #map1], iterator_types = [\"parallel\", \"parallel\", \"parallel\", \"parallel\"]} ins(%1, %3 : tensor<666x7x7x1xf32>, tensor<666x7x7x2048xf32>) outs(%4 : tensor<666x7x7x2048xf32>) {\n    ^bb0(%in: f32, %in_0: f32, %out: f32):\n      %6 = arith.mulf %in, %in_0 : f32\n      linalg.yield %6 : f32\n    } -> tensor<666x7x7x2048xf32>\n    return\n  }\n}\n\n", "#map = affine_map<(d0, d1, d2, d3) -> (d0, d1, d2, d3)>\n#map1 = affine_map<(d0, d1, d2, d3) -> (0, 0, 0, d3)>\nmodule {\n  func.func @wrapper() {\n    %cst = arith.constant 2.000000e+00 : f32\n    %0 = bufferization.alloc_tensor() : tensor<666x14x14x960xf32>\n    %1 = linalg.fill ins(%cst : f32) outs(%0 : tensor<666x14x14x960xf32>) -> tensor<666x14x14x960xf32>\n    %2 = bufferization.alloc_tensor() : tensor<1x1x1x960xf32>\n    %3 = linalg.fill ins(%cst : f32) outs(%2 : tensor<1x1x1x960xf32>) -> tensor<1x1x1x960xf32>\n    %4 = tensor.empty() : tensor<666x14x14x960xf32>\n    %5 = linalg.generic {indexing_maps = [#map, #map1, #map], iterator_types = [\"parallel\", \"parallel\", \"parallel\", \"parallel\"]} ins(%1, %3 : tensor<666x14x14x960xf32>, tensor<1x1x1x960xf32>) outs(%4 : tensor<666x14x14x960xf32>) {\n    ^bb0(%in: f32, %in_0: f32, %out: f32):\n      %6 = arith.subf %in, %in_0 : f32\n      linalg.yield %6 : f32\n    } -> tensor<666x14x14x960xf32>\n    return\n  }\n}\n\n", "#map = affine_map<(d0, d1, d2, d3) -> (d0, d1, d2, d3)>\n#map1 = affine_map<(d0, d1, d2, d3) -> (0, 0, 0, d3)>\nmodule {\n  func.func @wrapper() {\n    %cst = arith.constant 2.000000e+00 : f32\n    %0 = bufferization.alloc_tensor() : tensor<666x28x28x448xf32>\n    %1 = linalg.fill ins(%cst : f32) outs(%0 : tensor<666x28x28x448xf32>) -> tensor<666x28x28x448xf32>\n    %2 = bufferization.alloc_tensor() : tensor<1x1x1x448xf32>\n    %3 = linalg.fill ins(%cst : f32) outs(%2 : tensor<1x1x1x448xf32>) -> tensor<1x1x1x448xf32>\n    %4 = tensor.empty() : tensor<666x28x28x448xf32>\n    %5 = linalg.generic {indexing_maps = [#map, #map1, #map], iterator_types = [\"parallel\", \"parallel\", \"parallel\", \"parallel\"]} ins(%1, %3 : tensor<666x28x28x448xf32>, tensor<1x1x1x448xf32>) outs(%4 : tensor<666x28x28x448xf32>) {\n    ^bb0(%in: f32, %in_0: f32, %out: f32):\n      %6 = arith.mulf %in, %in_0 : f32\n      linalg.yield %6 : f32\n    } -> tensor<666x28x28x448xf32>\n    return\n  }\n}\n\n", "#map = affine_map<(d0, d1, d2, d3) -> (d0, d1, d2, d3)>\nmodule {\n  func.func @wrapper() {\n    %cst = arith.constant 2.000000e+00 : f32\n    %0 = bufferization.alloc_tensor() : tensor<666x7x7x608xf32>\n    %1 = linalg.fill ins(%cst : f32) outs(%0 : tensor<666x7x7x608xf32>) -> tensor<666x7x7x608xf32>\n    %2 = bufferization.alloc_tensor() : tensor<666x7x7x608xf32>\n    %3 = linalg.fill ins(%cst : f32) outs(%2 : tensor<666x7x7x608xf32>) -> tensor<666x7x7x608xf32>\n    %4 = tensor.empty() : tensor<666x7x7x608xf32>\n    %5 = linalg.generic {indexing_maps = [#map, #map, #map], iterator_types = [\"parallel\", \"parallel\", \"parallel\", \"parallel\"]} ins(%1, %3 : tensor<666x7x7x608xf32>, tensor<666x7x7x608xf32>) outs(%4 : tensor<666x7x7x608xf32>) {\n    ^bb0(%in: f32, %in_0: f32, %out: f32):\n      %6 = arith.addf %in, %in_0 : f32\n      linalg.yield %6 : f32\n    } -> tensor<666x7x7x608xf32>\n    return\n  }\n}\n\n", "#map = affine_map<(d0, d1, d2, d3) -> (d0, d1, d2, d3)>\n#map1 = affine_map<(d0, d1, d2, d3) -> (0, 0, 0, d3)>\nmodule {\n  func.func @wrapper() {\n    %cst = arith.constant 2.000000e+00 : f32\n    %0 = bufferization.alloc_tensor() : tensor<666x112x112x224xf32>\n    %1 = linalg.fill ins(%cst : f32) outs(%0 : tensor<666x112x112x224xf32>) -> tensor<666x112x112x224xf32>\n    %2 = bufferization.alloc_tensor() : tensor<1x1x1x224xf32>\n    %3 = linalg.fill ins(%cst : f32) outs(%2 : tensor<1x1x1x224xf32>) -> tensor<1x1x1x224xf32>\n    %4 = tensor.empty() : tensor<666x112x112x224xf32>\n    %5 = linalg.generic {indexing_maps = [#map, #map1, #map], iterator_types = [\"parallel\", \"parallel\", \"parallel\", \"parallel\"]} ins(%1, %3 : tensor<666x112x112x224xf32>, tensor<1x1x1x224xf32>) outs(%4 : tensor<666x112x112x224xf32>) {\n    ^bb0(%in: f32, %in_0: f32, %out: f32):\n      %6 = arith.subf %in, %in_0 : f32\n      linalg.yield %6 : f32\n    } -> tensor<666x112x112x224xf32>\n    return\n  }\n}\n\n", "module {\n  func.func @wrapper() {\n    %cst = arith.constant 2.000000e+00 : f32\n    %0 = bufferization.alloc_tensor() : tensor<666x1x8x2048xf32>\n    %1 = linalg.fill ins(%cst : f32) outs(%0 : tensor<666x1x8x2048xf32>) -> tensor<666x1x8x2048xf32>\n    %2 = tensor.empty() : tensor<666x1x2048xf32>\n    %cst_0 = arith.constant 0.000000e+00 : f32\n    %3 = linalg.fill ins(%cst_0 : f32) outs(%2 : tensor<666x1x2048xf32>) -> tensor<666x1x2048xf32>\n    %reduced = linalg.reduce ins(%1 : tensor<666x1x8x2048xf32>) outs(%3 : tensor<666x1x2048xf32>) dimensions = [2] \n      (%in: f32, %init: f32) {\n        %4 = arith.addf %in, %init : f32\n        linalg.yield %4 : f32\n      }\n    %expanded = tensor.expand_shape %reduced [[0], [1], [2, 3]] : tensor<666x1x2048xf32> into tensor<666x1x1x2048xf32>\n    return\n  }\n}\n\n", "#map = affine_map<(d0) -> (d0)>\n#map1 = affine_map<(d0) -> (0)>\nmodule {\n  func.func @wrapper() {\n    %cst = arith.constant 2.000000e+00 : f32\n    %0 = bufferization.alloc_tensor() : tensor<42xf32>\n    %1 = linalg.fill ins(%cst : f32) outs(%0 : tensor<42xf32>) -> tensor<42xf32>\n    %2 = bufferization.alloc_tensor() : tensor<1xf32>\n    %3 = linalg.fill ins(%cst : f32) outs(%2 : tensor<1xf32>) -> tensor<1xf32>\n    %4 = tensor.empty() : tensor<42xf32>\n    %5 = linalg.generic {indexing_maps = [#map, #map1, #map], iterator_types = [\"parallel\"]} ins(%1, %3 : tensor<42xf32>, tensor<1xf32>) outs(%4 : tensor<42xf32>) {\n    ^bb0(%in: f32, %in_0: f32, %out: f32):\n      %6 = arith.addf %in, %in_0 : f32\n      linalg.yield %6 : f32\n    } -> tensor<42xf32>\n    return\n  }\n}\n\n", "#map = affine_map<(d0, d1, d2, d3) -> (d0, d1, d2, d3)>\nmodule {\n  func.func @wrapper() {\n    %cst = arith.constant 2.000000e+00 : f32\n    %0 = bufferization.alloc_tensor() : tensor<666x28x28x256xf32>\n    %1 = linalg.fill ins(%cst : f32) outs(%0 : tensor<666x28x28x256xf32>) -> tensor<666x28x28x256xf32>\n    %2 = bufferization.alloc_tensor() : tensor<666x28x28x256xf32>\n    %3 = linalg.fill ins(%cst : f32) outs(%2 : tensor<666x28x28x256xf32>) -> tensor<666x28x28x256xf32>\n    %4 = tensor.empty() : tensor<666x28x28x256xf32>\n    %5 = linalg.generic {indexing_maps = [#map, #map, #map], iterator_types = [\"parallel\", \"parallel\", \"parallel\", \"parallel\"]} ins(%1, %3 : tensor<666x28x28x256xf32>, tensor<666x28x28x256xf32>) outs(%4 : tensor<666x28x28x256xf32>) {\n    ^bb0(%in: f32, %in_0: f32, %out: f32):\n      %6 = arith.addf %in, %in_0 : f32\n      linalg.yield %6 : f32\n    } -> tensor<666x28x28x256xf32>\n    return\n  }\n}\n\n", "#map = affine_map<(d0, d1, d2, d3) -> (d0, d1, d2, d3)>\nmodule {\n  func.func @wrapper() {\n    %cst = arith.constant 2.000000e+00 : f32\n    %0 = bufferization.alloc_tensor() : tensor<666x14x14x768xf32>\n    %1 = linalg.fill ins(%cst : f32) outs(%0 : tensor<666x14x14x768xf32>) -> tensor<666x14x14x768xf32>\n    %2 = tensor.empty() : tensor<666x14x14x768xf32>\n    %3 = linalg.generic {indexing_maps = [#map, #map], iterator_types = [\"parallel\", \"parallel\", \"parallel\", \"parallel\"]} ins(%1 : tensor<666x14x14x768xf32>) outs(%2 : tensor<666x14x14x768xf32>) {\n    ^bb0(%in: f32, %out: f32):\n      %cst_0 = arith.constant 0.000000e+00 : f32\n      %cst_1 = arith.constant 3.40282347E+38 : f32\n      %4 = arith.minimumf %in, %cst_1 : f32\n      %5 = arith.maximumf %4, %cst_0 : f32\n      linalg.yield %5 : f32\n    } -> tensor<666x14x14x768xf32>\n    return\n  }\n}\n\n", "#map = affine_map<(d0, d1, d2, d3) -> (d0, 0, 0, d3)>\n#map1 = affine_map<(d0, d1, d2, d3) -> (d0, d1, d2, d3)>\nmodule {\n  func.func @wrapper() {\n    %cst = arith.constant 2.000000e+00 : f32\n    %0 = bufferization.alloc_tensor() : tensor<666x1x1x16xf32>\n    %1 = linalg.fill ins(%cst : f32) outs(%0 : tensor<666x1x1x16xf32>) -> tensor<666x1x1x16xf32>\n    %2 = tensor.empty() : tensor<666x1x1x16xf32>\n    %3 = linalg.generic {indexing_maps = [#map, #map1], iterator_types = [\"parallel\", \"parallel\", \"parallel\", \"parallel\"]} ins(%1 : tensor<666x1x1x16xf32>) outs(%2 : tensor<666x1x1x16xf32>) {\n    ^bb0(%in: f32, %out: f32):\n      %cst_0 = arith.constant 0.000000e+00 : f32\n      %cst_1 = arith.constant 3.40282347E+38 : f32\n      %4 = arith.minimumf %in, %cst_1 : f32\n      %5 = arith.maximumf %4, %cst_0 : f32\n      linalg.yield %5 : f32\n    } -> tensor<666x1x1x16xf32>\n    return\n  }\n}\n\n", "#map = affine_map<(d0, d1, d2, d3) -> (d3)>\n#map1 = affine_map<(d0, d1, d2, d3) -> (d0, d1, d2, d3)>\nmodule {\n  func.func @wrapper() {\n    %cst = arith.constant 2.000000e+00 : f32\n    %0 = bufferization.alloc_tensor() : tensor<666x1x1x224xf32>\n    %1 = linalg.fill ins(%cst : f32) outs(%0 : tensor<666x1x1x224xf32>) -> tensor<666x1x1x224xf32>\n    %2 = bufferization.alloc_tensor() : tensor<56x1x1x224xf32>\n    %3 = linalg.fill ins(%cst : f32) outs(%2 : tensor<56x1x1x224xf32>) -> tensor<56x1x1x224xf32>\n    %4 = bufferization.alloc_tensor() : tensor<56xf32>\n    %5 = linalg.fill ins(%cst : f32) outs(%4 : tensor<56xf32>) -> tensor<56xf32>\n    %6 = tensor.empty() : tensor<666x1x1x56xf32>\n    %7 = linalg.generic {indexing_maps = [#map, #map1], iterator_types = [\"parallel\", \"parallel\", \"parallel\", \"parallel\"]} ins(%5 : tensor<56xf32>) outs(%6 : tensor<666x1x1x56xf32>) {\n    ^bb0(%in: f32, %out: f32):\n      linalg.yield %in : f32\n    } -> tensor<666x1x1x56xf32>\n    %8 = linalg.conv_2d_nhwc_fhwc {dilations = dense<1> : tensor<2xi64>, strides = dense<1> : tensor<2xi64>} ins(%1, %3 : tensor<666x1x1x224xf32>, tensor<56x1x1x224xf32>) outs(%7 : tensor<666x1x1x56xf32>) -> tensor<666x1x1x56xf32>\n    return\n  }\n}\n\n", "#map = affine_map<(d0, d1, d2, d3) -> (d0, d1, d2, d3)>\n#map1 = affine_map<(d0, d1, d2, d3) -> (0, 0, 0, d3)>\nmodule {\n  func.func @wrapper() {\n    %cst = arith.constant 2.000000e+00 : f32\n    %0 = bufferization.alloc_tensor() : tensor<666x28x28x432xf32>\n    %1 = linalg.fill ins(%cst : f32) outs(%0 : tensor<666x28x28x432xf32>) -> tensor<666x28x28x432xf32>\n    %2 = bufferization.alloc_tensor() : tensor<1x1x1x432xf32>\n    %3 = linalg.fill ins(%cst : f32) outs(%2 : tensor<1x1x1x432xf32>) -> tensor<1x1x1x432xf32>\n    %4 = tensor.empty() : tensor<666x28x28x432xf32>\n    %5 = linalg.generic {indexing_maps = [#map, #map1, #map], iterator_types = [\"parallel\", \"parallel\", \"parallel\", \"parallel\"]} ins(%1, %3 : tensor<666x28x28x432xf32>, tensor<1x1x1x432xf32>) outs(%4 : tensor<666x28x28x432xf32>) {\n    ^bb0(%in: f32, %in_0: f32, %out: f32):\n      %6 = arith.subf %in, %in_0 : f32\n      linalg.yield %6 : f32\n    } -> tensor<666x28x28x432xf32>\n    return\n  }\n}\n\n", "module {\n  func.func @wrapper() {\n    %cst = arith.constant 2.000000e+00 : f32\n    %0 = bufferization.alloc_tensor() : tensor<666x28x28x104xf32>\n    %1 = linalg.fill ins(%cst : f32) outs(%0 : tensor<666x28x28x104xf32>) -> tensor<666x28x28x104xf32>\n    %2 = tensor.empty() : tensor<666x28x104xf32>\n    %cst_0 = arith.constant 0.000000e+00 : f32\n    %3 = linalg.fill ins(%cst_0 : f32) outs(%2 : tensor<666x28x104xf32>) -> tensor<666x28x104xf32>\n    %reduced = linalg.reduce ins(%1 : tensor<666x28x28x104xf32>) outs(%3 : tensor<666x28x104xf32>) dimensions = [1] \n      (%in: f32, %init: f32) {\n        %4 = arith.addf %in, %init : f32\n        linalg.yield %4 : f32\n      }\n    %expanded = tensor.expand_shape %reduced [[0], [1, 2], [3]] : tensor<666x28x104xf32> into tensor<666x1x28x104xf32>\n    return\n  }\n}\n\n", "#map = affine_map<(d0, d1, d2, d3) -> (d0, d1, d2, d3)>\n#map1 = affine_map<(d0, d1, d2, d3) -> (0, 0, 0, d3)>\nmodule {\n  func.func @wrapper() {\n    %cst = arith.constant 2.000000e+00 : f32\n    %0 = bufferization.alloc_tensor() : tensor<666x28x28x480xf32>\n    %1 = linalg.fill ins(%cst : f32) outs(%0 : tensor<666x28x28x480xf32>) -> tensor<666x28x28x480xf32>\n    %2 = bufferization.alloc_tensor() : tensor<1x1x1x480xf32>\n    %3 = linalg.fill ins(%cst : f32) outs(%2 : tensor<1x1x1x480xf32>) -> tensor<1x1x1x480xf32>\n    %4 = tensor.empty() : tensor<666x28x28x480xf32>\n    %5 = linalg.generic {indexing_maps = [#map, #map1, #map], iterator_types = [\"parallel\", \"parallel\", \"parallel\", \"parallel\"]} ins(%1, %3 : tensor<666x28x28x480xf32>, tensor<1x1x1x480xf32>) outs(%4 : tensor<666x28x28x480xf32>) {\n    ^bb0(%in: f32, %in_0: f32, %out: f32):\n      %6 = arith.mulf %in, %in_0 : f32\n      linalg.yield %6 : f32\n    } -> tensor<666x28x28x480xf32>\n    return\n  }\n}\n\n", "#map = affine_map<(d0, d1, d2, d3) -> (d0, d1, d2, d3)>\nmodule {\n  func.func @wrapper() {\n    %cst = arith.constant 2.000000e+00 : f32\n    %0 = bufferization.alloc_tensor() : tensor<666x28x28x96xf32>\n    %1 = linalg.fill ins(%cst : f32) outs(%0 : tensor<666x28x28x96xf32>) -> tensor<666x28x28x96xf32>\n    %2 = tensor.empty() : tensor<666x28x28x96xf32>\n    %3 = linalg.generic {indexing_maps = [#map, #map], iterator_types = [\"parallel\", \"parallel\", \"parallel\", \"parallel\"]} ins(%1 : tensor<666x28x28x96xf32>) outs(%2 : tensor<666x28x28x96xf32>) {\n    ^bb0(%in: f32, %out: f32):\n      %cst_0 = arith.constant 0.000000e+00 : f32\n      %cst_1 = arith.constant 3.40282347E+38 : f32\n      %4 = arith.minimumf %in, %cst_1 : f32\n      %5 = arith.maximumf %4, %cst_0 : f32\n      linalg.yield %5 : f32\n    } -> tensor<666x28x28x96xf32>\n    return\n  }\n}\n\n", "#map = affine_map<(d0, d1, d2, d3) -> (d0, d1, d2, d3)>\n#map1 = affine_map<(d0, d1, d2, d3) -> (0, 0, 0, d3)>\nmodule {\n  func.func @wrapper() {\n    %cst = arith.constant 2.000000e+00 : f32\n    %0 = bufferization.alloc_tensor() : tensor<666x14x14x1600xf32>\n    %1 = linalg.fill ins(%cst : f32) outs(%0 : tensor<666x14x14x1600xf32>) -> tensor<666x14x14x1600xf32>\n    %2 = bufferization.alloc_tensor() : tensor<1x1x1x1600xf32>\n    %3 = linalg.fill ins(%cst : f32) outs(%2 : tensor<1x1x1x1600xf32>) -> tensor<1x1x1x1600xf32>\n    %4 = tensor.empty() : tensor<666x14x14x1600xf32>\n    %5 = linalg.generic {indexing_maps = [#map, #map1, #map], iterator_types = [\"parallel\", \"parallel\", \"parallel\", \"parallel\"]} ins(%1, %3 : tensor<666x14x14x1600xf32>, tensor<1x1x1x1600xf32>) outs(%4 : tensor<666x14x14x1600xf32>) {\n    ^bb0(%in: f32, %in_0: f32, %out: f32):\n      %6 = arith.addf %in, %in_0 : f32\n      linalg.yield %6 : f32\n    } -> tensor<666x14x14x1600xf32>\n    return\n  }\n}\n\n", "#map = affine_map<(d0, d1, d2, d3) -> (d0, d1, d2, d3)>\n#map1 = affine_map<(d0, d1, d2, d3) -> (0, 0, 0, d3)>\nmodule {\n  func.func @wrapper() {\n    %cst = arith.constant 2.000000e+00 : f32\n    %0 = bufferization.alloc_tensor() : tensor<666x112x112x224xf32>\n    %1 = linalg.fill ins(%cst : f32) outs(%0 : tensor<666x112x112x224xf32>) -> tensor<666x112x112x224xf32>\n    %2 = bufferization.alloc_tensor() : tensor<1x1x1x224xf32>\n    %3 = linalg.fill ins(%cst : f32) outs(%2 : tensor<1x1x1x224xf32>) -> tensor<1x1x1x224xf32>\n    %4 = tensor.empty() : tensor<666x112x112x224xf32>\n    %5 = linalg.generic {indexing_maps = [#map, #map1, #map], iterator_types = [\"parallel\", \"parallel\", \"parallel\", \"parallel\"]} ins(%1, %3 : tensor<666x112x112x224xf32>, tensor<1x1x1x224xf32>) outs(%4 : tensor<666x112x112x224xf32>) {\n    ^bb0(%in: f32, %in_0: f32, %out: f32):\n      %6 = arith.mulf %in, %in_0 : f32\n      linalg.yield %6 : f32\n    } -> tensor<666x112x112x224xf32>\n    return\n  }\n}\n\n", "#map = affine_map<(d0, d1, d2, d3) -> (d0, d1, d2, d3)>\n#map1 = affine_map<(d0, d1, d2, d3) -> (0, 0, 0, d3)>\nmodule {\n  func.func @wrapper() {\n    %cst = arith.constant 2.000000e+00 : f32\n    %0 = bufferization.alloc_tensor() : tensor<666x7x7x1280xf32>\n    %1 = linalg.fill ins(%cst : f32) outs(%0 : tensor<666x7x7x1280xf32>) -> tensor<666x7x7x1280xf32>\n    %2 = bufferization.alloc_tensor() : tensor<1x1x1x1280xf32>\n    %3 = linalg.fill ins(%cst : f32) outs(%2 : tensor<1x1x1x1280xf32>) -> tensor<1x1x1x1280xf32>\n    %4 = tensor.empty() : tensor<666x7x7x1280xf32>\n    %5 = linalg.generic {indexing_maps = [#map, #map1, #map], iterator_types = [\"parallel\", \"parallel\", \"parallel\", \"parallel\"]} ins(%1, %3 : tensor<666x7x7x1280xf32>, tensor<1x1x1x1280xf32>) outs(%4 : tensor<666x7x7x1280xf32>) {\n    ^bb0(%in: f32, %in_0: f32, %out: f32):\n      %6 = arith.addf %in, %in_0 : f32\n      linalg.yield %6 : f32\n    } -> tensor<666x7x7x1280xf32>\n    return\n  }\n}\n\n", "#map = affine_map<(d0, d1, d2, d3) -> (d0, d1, d2, d3)>\n#map1 = affine_map<(d0, d1, d2, d3) -> (0, 0, 0, d3)>\nmodule {\n  func.func @wrapper() {\n    %cst = arith.constant 2.000000e+00 : f32\n    %0 = bufferization.alloc_tensor() : tensor<666x28x28x32xf32>\n    %1 = linalg.fill ins(%cst : f32) outs(%0 : tensor<666x28x28x32xf32>) -> tensor<666x28x28x32xf32>\n    %2 = bufferization.alloc_tensor() : tensor<1x1x1x32xf32>\n    %3 = linalg.fill ins(%cst : f32) outs(%2 : tensor<1x1x1x32xf32>) -> tensor<1x1x1x32xf32>\n    %4 = tensor.empty() : tensor<666x28x28x32xf32>\n    %5 = linalg.generic {indexing_maps = [#map, #map1, #map], iterator_types = [\"parallel\", \"parallel\", \"parallel\", \"parallel\"]} ins(%1, %3 : tensor<666x28x28x32xf32>, tensor<1x1x1x32xf32>) outs(%4 : tensor<666x28x28x32xf32>) {\n    ^bb0(%in: f32, %in_0: f32, %out: f32):\n      %6 = arith.addf %in, %in_0 : f32\n      linalg.yield %6 : f32\n    } -> tensor<666x28x28x32xf32>\n    return\n  }\n}\n\n", "#map = affine_map<(d0) -> (d0)>\n#map1 = affine_map<(d0) -> (0)>\nmodule {\n  func.func @wrapper() {\n    %cst = arith.constant 2.000000e+00 : f32\n    %0 = bufferization.alloc_tensor() : tensor<128xf32>\n    %1 = linalg.fill ins(%cst : f32) outs(%0 : tensor<128xf32>) -> tensor<128xf32>\n    %2 = bufferization.alloc_tensor() : tensor<1xf32>\n    %3 = linalg.fill ins(%cst : f32) outs(%2 : tensor<1xf32>) -> tensor<1xf32>\n    %4 = tensor.empty() : tensor<128xf32>\n    %5 = linalg.generic {indexing_maps = [#map, #map1, #map], iterator_types = [\"parallel\"]} ins(%1, %3 : tensor<128xf32>, tensor<1xf32>) outs(%4 : tensor<128xf32>) {\n    ^bb0(%in: f32, %in_0: f32, %out: f32):\n      %6 = arith.addf %in, %in_0 : f32\n      linalg.yield %6 : f32\n    } -> tensor<128xf32>\n    return\n  }\n}\n\n", "#map = affine_map<(d0, d1, d2, d3) -> (d0, d1, d2, d3)>\nmodule {\n  func.func @wrapper() {\n    %cst = arith.constant 2.000000e+00 : f32\n    %0 = bufferization.alloc_tensor() : tensor<666x14x14x208xf32>\n    %1 = linalg.fill ins(%cst : f32) outs(%0 : tensor<666x14x14x208xf32>) -> tensor<666x14x14x208xf32>\n    %2 = bufferization.alloc_tensor() : tensor<666x14x14x208xf32>\n    %3 = linalg.fill ins(%cst : f32) outs(%2 : tensor<666x14x14x208xf32>) -> tensor<666x14x14x208xf32>\n    %4 = tensor.empty() : tensor<666x14x14x208xf32>\n    %5 = linalg.generic {indexing_maps = [#map, #map, #map], iterator_types = [\"parallel\", \"parallel\", \"parallel\", \"parallel\"]} ins(%1, %3 : tensor<666x14x14x208xf32>, tensor<666x14x14x208xf32>) outs(%4 : tensor<666x14x14x208xf32>) {\n    ^bb0(%in: f32, %in_0: f32, %out: f32):\n      %6 = arith.addf %in, %in_0 : f32\n      linalg.yield %6 : f32\n    } -> tensor<666x14x14x208xf32>\n    return\n  }\n}\n\n", "#map = affine_map<(d0, d1, d2, d3) -> (d0, d1, d2, d3)>\nmodule {\n  func.func @wrapper() {\n    %cst = arith.constant 2.000000e+00 : f32\n    %0 = bufferization.alloc_tensor() : tensor<666x14x14x896xf32>\n    %1 = linalg.fill ins(%cst : f32) outs(%0 : tensor<666x14x14x896xf32>) -> tensor<666x14x14x896xf32>\n    %2 = bufferization.alloc_tensor() : tensor<666x14x14x896xf32>\n    %3 = linalg.fill ins(%cst : f32) outs(%2 : tensor<666x14x14x896xf32>) -> tensor<666x14x14x896xf32>\n    %4 = tensor.empty() : tensor<666x14x14x896xf32>\n    %5 = linalg.generic {indexing_maps = [#map, #map, #map], iterator_types = [\"parallel\", \"parallel\", \"parallel\", \"parallel\"]} ins(%1, %3 : tensor<666x14x14x896xf32>, tensor<666x14x14x896xf32>) outs(%4 : tensor<666x14x14x896xf32>) {\n    ^bb0(%in: f32, %in_0: f32, %out: f32):\n      %6 = arith.addf %in, %in_0 : f32\n      linalg.yield %6 : f32\n    } -> tensor<666x14x14x896xf32>\n    return\n  }\n}\n\n", "#map = affine_map<(d0, d1, d2, d3) -> (d0, d1, d2, d3)>\nmodule {\n  func.func @wrapper() {\n    %cst = arith.constant 2.000000e+00 : f32\n    %0 = bufferization.alloc_tensor() : tensor<666x167x167x42xf32>\n    %1 = linalg.fill ins(%cst : f32) outs(%0 : tensor<666x167x167x42xf32>) -> tensor<666x167x167x42xf32>\n    %cst_0 = arith.constant 0.000000e+00 : f32\n    %2 = tensor.empty() : tensor<666x83x83x42xf32>\n    %3 = linalg.fill ins(%cst_0 : f32) outs(%2 : tensor<666x83x83x42xf32>) -> tensor<666x83x83x42xf32>\n    %4 = tensor.empty() : tensor<3x3xf32>\n    %5 = linalg.pooling_nhwc_sum {dilations = dense<1> : vector<2xi64>, strides = dense<2> : vector<2xi64>} ins(%1, %4 : tensor<666x167x167x42xf32>, tensor<3x3xf32>) outs(%3 : tensor<666x83x83x42xf32>) -> tensor<666x83x83x42xf32>\n    %c1 = arith.constant 1 : index\n    %c83 = arith.constant 83 : index\n    %c2 = arith.constant 2 : index\n    %c83_1 = arith.constant 83 : index\n    %c1_2 = arith.constant 1 : index\n    %6 = arith.subi %c83, %c1_2 : index\n    %7 = arith.subi %c83_1, %c1_2 : index\n    %8 = tensor.empty() : tensor<666x83x83x42xf32>\n    %9 = linalg.generic {indexing_maps = [#map, #map], iterator_types = [\"parallel\", \"parallel\", \"parallel\", \"parallel\"]} ins(%5 : tensor<666x83x83x42xf32>) outs(%8 : tensor<666x83x83x42xf32>) {\n    ^bb0(%in: f32, %out: f32):\n      %c0 = arith.constant 0 : index\n      %c2_3 = arith.constant 2 : index\n      %c3 = arith.constant 3 : index\n      %10 = linalg.index 1 : index\n      %11 = arith.subi %6, %10 : index\n      %12 = arith.muli %10, %c2_3 : index\n      %13 = arith.muli %11, %c2_3 : index\n      %14 = arith.cmpi slt, %c3, %c1_2 : index\n      %15 = arith.select %14, %c1_2, %c3 : index\n      %c2_4 = arith.constant 2 : index\n      %c3_5 = arith.constant 3 : index\n      %16 = linalg.index 2 : index\n      %17 = arith.subi %7, %16 : index\n      %18 = arith.muli %16, %c2_4 : index\n      %19 = arith.muli %17, %c2_4 : index\n      %20 = arith.cmpi slt, %c3_5, %c1_2 : index\n      %21 = arith.select %20, %c1_2, %c3_5 : index\n      %22 = arith.muli %15, %21 : index\n      %23 = arith.index_cast %22 : index to i32\n      %24 = arith.sitofp %23 : i32 to f32\n      %25 = arith.divf %in, %24 : f32\n      linalg.yield %25 : f32\n    } -> tensor<666x83x83x42xf32>\n    return\n  }\n}\n\n", "#map = affine_map<(d0, d1, d2, d3) -> (d0, d1, d2, d3)>\n#map1 = affine_map<(d0, d1, d2, d3) -> (0, 0, 0, d3)>\nmodule {\n  func.func @wrapper() {\n    %cst = arith.constant 2.000000e+00 : f32\n    %0 = bufferization.alloc_tensor() : tensor<666x14x14x720xf32>\n    %1 = linalg.fill ins(%cst : f32) outs(%0 : tensor<666x14x14x720xf32>) -> tensor<666x14x14x720xf32>\n    %2 = bufferization.alloc_tensor() : tensor<1x1x1x720xf32>\n    %3 = linalg.fill ins(%cst : f32) outs(%2 : tensor<1x1x1x720xf32>) -> tensor<1x1x1x720xf32>\n    %4 = tensor.empty() : tensor<666x14x14x720xf32>\n    %5 = linalg.generic {indexing_maps = [#map, #map1, #map], iterator_types = [\"parallel\", \"parallel\", \"parallel\", \"parallel\"]} ins(%1, %3 : tensor<666x14x14x720xf32>, tensor<1x1x1x720xf32>) outs(%4 : tensor<666x14x14x720xf32>) {\n    ^bb0(%in: f32, %in_0: f32, %out: f32):\n      %6 = arith.subf %in, %in_0 : f32\n      linalg.yield %6 : f32\n    } -> tensor<666x14x14x720xf32>\n    return\n  }\n}\n\n", "module {\n  func.func @wrapper() {\n    %cst = arith.constant 2.000000e+00 : f32\n    %0 = bufferization.alloc_tensor() : tensor<666x1x28x128xf32>\n    %1 = linalg.fill ins(%cst : f32) outs(%0 : tensor<666x1x28x128xf32>) -> tensor<666x1x28x128xf32>\n    %2 = tensor.empty() : tensor<666x1x128xf32>\n    %cst_0 = arith.constant 0.000000e+00 : f32\n    %3 = linalg.fill ins(%cst_0 : f32) outs(%2 : tensor<666x1x128xf32>) -> tensor<666x1x128xf32>\n    %reduced = linalg.reduce ins(%1 : tensor<666x1x28x128xf32>) outs(%3 : tensor<666x1x128xf32>) dimensions = [2] \n      (%in: f32, %init: f32) {\n        %4 = arith.addf %in, %init : f32\n        linalg.yield %4 : f32\n      }\n    %expanded = tensor.expand_shape %reduced [[0], [1], [2, 3]] : tensor<666x1x128xf32> into tensor<666x1x1x128xf32>\n    return\n  }\n}\n\n", "#map = affine_map<(d0, d1, d2, d3) -> (d3)>\n#map1 = affine_map<(d0, d1, d2, d3) -> (d0, d1, d2, d3)>\nmodule {\n  func.func @wrapper() {\n    %cst = arith.constant 2.000000e+00 : f32\n    %0 = bufferization.alloc_tensor() : tensor<666x28x28x120xf32>\n    %1 = linalg.fill ins(%cst : f32) outs(%0 : tensor<666x28x28x120xf32>) -> tensor<666x28x28x120xf32>\n    %2 = bufferization.alloc_tensor() : tensor<336x1x1x120xf32>\n    %3 = linalg.fill ins(%cst : f32) outs(%2 : tensor<336x1x1x120xf32>) -> tensor<336x1x1x120xf32>\n    %4 = bufferization.alloc_tensor() : tensor<336xf32>\n    %5 = linalg.fill ins(%cst : f32) outs(%4 : tensor<336xf32>) -> tensor<336xf32>\n    %6 = tensor.empty() : tensor<666x28x28x336xf32>\n    %7 = linalg.generic {indexing_maps = [#map, #map1], iterator_types = [\"parallel\", \"parallel\", \"parallel\", \"parallel\"]} ins(%5 : tensor<336xf32>) outs(%6 : tensor<666x28x28x336xf32>) {\n    ^bb0(%in: f32, %out: f32):\n      linalg.yield %in : f32\n    } -> tensor<666x28x28x336xf32>\n    %8 = linalg.conv_2d_nhwc_fhwc {dilations = dense<1> : tensor<2xi64>, strides = dense<1> : tensor<2xi64>} ins(%1, %3 : tensor<666x28x28x120xf32>, tensor<336x1x1x120xf32>) outs(%7 : tensor<666x28x28x336xf32>) -> tensor<666x28x28x336xf32>\n    return\n  }\n}\n\n", "#map = affine_map<(d0, d1, d2, d3) -> (d0, d1, d2, d3)>\nmodule {\n  func.func @wrapper() {\n    %cst = arith.constant 2.000000e+00 : f32\n    %0 = bufferization.alloc_tensor() : tensor<666x28x28x1024xf32>\n    %1 = linalg.fill ins(%cst : f32) outs(%0 : tensor<666x28x28x1024xf32>) -> tensor<666x28x28x1024xf32>\n    %2 = bufferization.alloc_tensor() : tensor<666x28x28x1024xf32>\n    %3 = linalg.fill ins(%cst : f32) outs(%2 : tensor<666x28x28x1024xf32>) -> tensor<666x28x28x1024xf32>\n    %4 = tensor.empty() : tensor<666x28x28x1024xf32>\n    %5 = linalg.generic {indexing_maps = [#map, #map, #map], iterator_types = [\"parallel\", \"parallel\", \"parallel\", \"parallel\"]} ins(%1, %3 : tensor<666x28x28x1024xf32>, tensor<666x28x28x1024xf32>) outs(%4 : tensor<666x28x28x1024xf32>) {\n    ^bb0(%in: f32, %in_0: f32, %out: f32):\n      %6 = arith.mulf %in, %in_0 : f32\n      linalg.yield %6 : f32\n    } -> tensor<666x28x28x1024xf32>\n    return\n  }\n}\n\n", "#map = affine_map<(d0) -> (d0)>\nmodule {\n  func.func @wrapper() {\n    %cst = arith.constant 2.000000e+00 : f32\n    %0 = bufferization.alloc_tensor() : tensor<1344xf32>\n    %1 = linalg.fill ins(%cst : f32) outs(%0 : tensor<1344xf32>) -> tensor<1344xf32>\n    %2 = tensor.empty() : tensor<1344xf32>\n    %3 = linalg.generic {indexing_maps = [#map, #map], iterator_types = [\"parallel\"]} ins(%1 : tensor<1344xf32>) outs(%2 : tensor<1344xf32>) {\n    ^bb0(%in: f32, %out: f32):\n      %4 = math.rsqrt %in : f32\n      linalg.yield %4 : f32\n    } -> tensor<1344xf32>\n    return\n  }\n}\n\n", "#map = affine_map<(d0, d1, d2, d3) -> (d0, d1, d2, d3)>\nmodule {\n  func.func @wrapper() {\n    %cst = arith.constant 2.000000e+00 : f32\n    %0 = bufferization.alloc_tensor() : tensor<666x112x112x32xf32>\n    %1 = linalg.fill ins(%cst : f32) outs(%0 : tensor<666x112x112x32xf32>) -> tensor<666x112x112x32xf32>\n    %2 = tensor.empty() : tensor<666x112x112x32xf32>\n    %3 = linalg.generic {indexing_maps = [#map, #map], iterator_types = [\"parallel\", \"parallel\", \"parallel\", \"parallel\"]} ins(%1 : tensor<666x112x112x32xf32>) outs(%2 : tensor<666x112x112x32xf32>) {\n    ^bb0(%in: f32, %out: f32):\n      %cst_0 = arith.constant 0.000000e+00 : f32\n      %cst_1 = arith.constant 6.000000e+00 : f32\n      %4 = arith.minimumf %in, %cst_1 : f32\n      %5 = arith.maximumf %4, %cst_0 : f32\n      linalg.yield %5 : f32\n    } -> tensor<666x112x112x32xf32>\n    return\n  }\n}\n\n", "#map = affine_map<(d0, d1, d2, d3) -> (d0, d1, d2, d3)>\n#map1 = affine_map<(d0, d1, d2, d3) -> (0, 0, 0, d3)>\nmodule {\n  func.func @wrapper() {\n    %cst = arith.constant 2.000000e+00 : f32\n    %0 = bufferization.alloc_tensor() : tensor<666x28x28x208xf32>\n    %1 = linalg.fill ins(%cst : f32) outs(%0 : tensor<666x28x28x208xf32>) -> tensor<666x28x28x208xf32>\n    %2 = bufferization.alloc_tensor() : tensor<1x1x1x208xf32>\n    %3 = linalg.fill ins(%cst : f32) outs(%2 : tensor<1x1x1x208xf32>) -> tensor<1x1x1x208xf32>\n    %4 = tensor.empty() : tensor<666x28x28x208xf32>\n    %5 = linalg.generic {indexing_maps = [#map, #map1, #map], iterator_types = [\"parallel\", \"parallel\", \"parallel\", \"parallel\"]} ins(%1, %3 : tensor<666x28x28x208xf32>, tensor<1x1x1x208xf32>) outs(%4 : tensor<666x28x28x208xf32>) {\n    ^bb0(%in: f32, %in_0: f32, %out: f32):\n      %6 = arith.addf %in, %in_0 : f32\n      linalg.yield %6 : f32\n    } -> tensor<666x28x28x208xf32>\n    return\n  }\n}\n\n", "#map = affine_map<(d0, d1, d2, d3) -> (d0, d1, d2, d3)>\n#map1 = affine_map<(d0, d1, d2, d3) -> (0, 0, 0, d3)>\nmodule {\n  func.func @wrapper() {\n    %cst = arith.constant 2.000000e+00 : f32\n    %0 = bufferization.alloc_tensor() : tensor<666x14x14x152xf32>\n    %1 = linalg.fill ins(%cst : f32) outs(%0 : tensor<666x14x14x152xf32>) -> tensor<666x14x14x152xf32>\n    %2 = bufferization.alloc_tensor() : tensor<1x1x1x152xf32>\n    %3 = linalg.fill ins(%cst : f32) outs(%2 : tensor<1x1x1x152xf32>) -> tensor<1x1x1x152xf32>\n    %4 = tensor.empty() : tensor<666x14x14x152xf32>\n    %5 = linalg.generic {indexing_maps = [#map, #map1, #map], iterator_types = [\"parallel\", \"parallel\", \"parallel\", \"parallel\"]} ins(%1, %3 : tensor<666x14x14x152xf32>, tensor<1x1x1x152xf32>) outs(%4 : tensor<666x14x14x152xf32>) {\n    ^bb0(%in: f32, %in_0: f32, %out: f32):\n      %6 = arith.addf %in, %in_0 : f32\n      linalg.yield %6 : f32\n    } -> tensor<666x14x14x152xf32>\n    return\n  }\n}\n\n", "module {\n  func.func @wrapper() {\n    %cst = arith.constant 2.000000e+00 : f32\n    %0 = bufferization.alloc_tensor() : tensor<1x32634x3072xf32>\n    %1 = linalg.fill ins(%cst : f32) outs(%0 : tensor<1x32634x3072xf32>) -> tensor<1x32634x3072xf32>\n    %2 = bufferization.alloc_tensor() : tensor<1x3072x768xf32>\n    %3 = linalg.fill ins(%cst : f32) outs(%2 : tensor<1x3072x768xf32>) -> tensor<1x3072x768xf32>\n    %cst_0 = arith.constant 0.000000e+00 : f32\n    %4 = tensor.empty() : tensor<1x32634x768xf32>\n    %5 = linalg.fill ins(%cst_0 : f32) outs(%4 : tensor<1x32634x768xf32>) -> tensor<1x32634x768xf32>\n    %6 = linalg.batch_matmul ins(%1, %3 : tensor<1x32634x3072xf32>, tensor<1x3072x768xf32>) outs(%5 : tensor<1x32634x768xf32>) -> tensor<1x32634x768xf32>\n    return\n  }\n}\n\n", "#map = affine_map<(d0, d1, d2, d3) -> (d0, d1, d2, d3)>\n#map1 = affine_map<(d0, d1, d2, d3) -> (0, 0, 0, d3)>\nmodule {\n  func.func @wrapper() {\n    %cst = arith.constant 2.000000e+00 : f32\n    %0 = bufferization.alloc_tensor() : tensor<666x14x14x1312xf32>\n    %1 = linalg.fill ins(%cst : f32) outs(%0 : tensor<666x14x14x1312xf32>) -> tensor<666x14x14x1312xf32>\n    %2 = bufferization.alloc_tensor() : tensor<1x1x1x1312xf32>\n    %3 = linalg.fill ins(%cst : f32) outs(%2 : tensor<1x1x1x1312xf32>) -> tensor<1x1x1x1312xf32>\n    %4 = tensor.empty() : tensor<666x14x14x1312xf32>\n    %5 = linalg.generic {indexing_maps = [#map, #map1, #map], iterator_types = [\"parallel\", \"parallel\", \"parallel\", \"parallel\"]} ins(%1, %3 : tensor<666x14x14x1312xf32>, tensor<1x1x1x1312xf32>) outs(%4 : tensor<666x14x14x1312xf32>) {\n    ^bb0(%in: f32, %in_0: f32, %out: f32):\n      %6 = arith.subf %in, %in_0 : f32\n      linalg.yield %6 : f32\n    } -> tensor<666x14x14x1312xf32>\n    return\n  }\n}\n\n", "#map = affine_map<(d0, d1, d2, d3) -> (d0, d1, d2, d3)>\nmodule {\n  func.func @wrapper() {\n    %cst = arith.constant 2.000000e+00 : f32\n    %0 = bufferization.alloc_tensor() : tensor<666x14x14x2048xf32>\n    %1 = linalg.fill ins(%cst : f32) outs(%0 : tensor<666x14x14x2048xf32>) -> tensor<666x14x14x2048xf32>\n    %2 = tensor.empty() : tensor<666x14x14x2048xf32>\n    %3 = linalg.generic {indexing_maps = [#map, #map], iterator_types = [\"parallel\", \"parallel\", \"parallel\", \"parallel\"]} ins(%1 : tensor<666x14x14x2048xf32>) outs(%2 : tensor<666x14x14x2048xf32>) {\n    ^bb0(%in: f32, %out: f32):\n      %cst_0 = arith.constant 0.000000e+00 : f32\n      %cst_1 = arith.constant 3.40282347E+38 : f32\n      %4 = arith.minimumf %in, %cst_1 : f32\n      %5 = arith.maximumf %4, %cst_0 : f32\n      linalg.yield %5 : f32\n    } -> tensor<666x14x14x2048xf32>\n    return\n  }\n}\n\n", "#map = affine_map<(d0, d1, d2, d3) -> (d0, d1, d2, d3)>\n#map1 = affine_map<(d0, d1, d2, d3) -> (0, 0, 0, d3)>\nmodule {\n  func.func @wrapper() {\n    %cst = arith.constant 2.000000e+00 : f32\n    %0 = bufferization.alloc_tensor() : tensor<666x56x56x80xf32>\n    %1 = linalg.fill ins(%cst : f32) outs(%0 : tensor<666x56x56x80xf32>) -> tensor<666x56x56x80xf32>\n    %2 = bufferization.alloc_tensor() : tensor<1x1x1x80xf32>\n    %3 = linalg.fill ins(%cst : f32) outs(%2 : tensor<1x1x1x80xf32>) -> tensor<1x1x1x80xf32>\n    %4 = tensor.empty() : tensor<666x56x56x80xf32>\n    %5 = linalg.generic {indexing_maps = [#map, #map1, #map], iterator_types = [\"parallel\", \"parallel\", \"parallel\", \"parallel\"]} ins(%1, %3 : tensor<666x56x56x80xf32>, tensor<1x1x1x80xf32>) outs(%4 : tensor<666x56x56x80xf32>) {\n    ^bb0(%in: f32, %in_0: f32, %out: f32):\n      %6 = arith.addf %in, %in_0 : f32\n      linalg.yield %6 : f32\n    } -> tensor<666x56x56x80xf32>\n    return\n  }\n}\n\n", "#map = affine_map<(d0, d1, d2, d3) -> (d0, d1, d2, d3)>\nmodule {\n  func.func @wrapper() {\n    %cst = arith.constant 2.000000e+00 : f32\n    %0 = bufferization.alloc_tensor() : tensor<666x224x224x64xf32>\n    %1 = linalg.fill ins(%cst : f32) outs(%0 : tensor<666x224x224x64xf32>) -> tensor<666x224x224x64xf32>\n    %2 = tensor.empty() : tensor<666x224x224x64xf32>\n    %3 = linalg.generic {indexing_maps = [#map, #map], iterator_types = [\"parallel\", \"parallel\", \"parallel\", \"parallel\"]} ins(%1 : tensor<666x224x224x64xf32>) outs(%2 : tensor<666x224x224x64xf32>) {\n    ^bb0(%in: f32, %out: f32):\n      %cst_0 = arith.constant 0.000000e+00 : f32\n      %cst_1 = arith.constant 3.40282347E+38 : f32\n      %4 = arith.minimumf %in, %cst_1 : f32\n      %5 = arith.maximumf %4, %cst_0 : f32\n      linalg.yield %5 : f32\n    } -> tensor<666x224x224x64xf32>\n    return\n  }\n}\n\n", "#map = affine_map<(d0, d1, d2, d3) -> (d0, d1, d2, d3)>\nmodule {\n  func.func @wrapper() {\n    %cst = arith.constant 2.000000e+00 : f32\n    %0 = bufferization.alloc_tensor() : tensor<666x56x56x144xf32>\n    %1 = linalg.fill ins(%cst : f32) outs(%0 : tensor<666x56x56x144xf32>) -> tensor<666x56x56x144xf32>\n    %2 = tensor.empty() : tensor<666x56x56x144xf32>\n    %3 = linalg.generic {indexing_maps = [#map, #map], iterator_types = [\"parallel\", \"parallel\", \"parallel\", \"parallel\"]} ins(%1 : tensor<666x56x56x144xf32>) outs(%2 : tensor<666x56x56x144xf32>) {\n    ^bb0(%in: f32, %out: f32):\n      %cst_0 = arith.constant 0.000000e+00 : f32\n      %cst_1 = arith.constant 6.000000e+00 : f32\n      %4 = arith.minimumf %in, %cst_1 : f32\n      %5 = arith.maximumf %4, %cst_0 : f32\n      linalg.yield %5 : f32\n    } -> tensor<666x56x56x144xf32>\n    return\n  }\n}\n\n", "#map = affine_map<(d0) -> (d0)>\nmodule {\n  func.func @wrapper() {\n    %cst = arith.constant 2.000000e+00 : f32\n    %0 = bufferization.alloc_tensor() : tensor<64xf32>\n    %1 = linalg.fill ins(%cst : f32) outs(%0 : tensor<64xf32>) -> tensor<64xf32>\n    %2 = tensor.empty() : tensor<64xf32>\n    %3 = linalg.generic {indexing_maps = [#map, #map], iterator_types = [\"parallel\"]} ins(%1 : tensor<64xf32>) outs(%2 : tensor<64xf32>) {\n    ^bb0(%in: f32, %out: f32):\n      %4 = math.rsqrt %in : f32\n      linalg.yield %4 : f32\n    } -> tensor<64xf32>\n    return\n  }\n}\n\n", "#map = affine_map<(d0, d1, d2, d3) -> (d3)>\n#map1 = affine_map<(d0, d1, d2, d3) -> (d0, d1, d2, d3)>\nmodule {\n  func.func @wrapper() {\n    %cst = arith.constant 2.000000e+00 : f32\n    %0 = bufferization.alloc_tensor() : tensor<666x56x56x72xf32>\n    %1 = linalg.fill ins(%cst : f32) outs(%0 : tensor<666x56x56x72xf32>) -> tensor<666x56x56x72xf32>\n    %2 = bufferization.alloc_tensor() : tensor<216x1x1x72xf32>\n    %3 = linalg.fill ins(%cst : f32) outs(%2 : tensor<216x1x1x72xf32>) -> tensor<216x1x1x72xf32>\n    %4 = bufferization.alloc_tensor() : tensor<216xf32>\n    %5 = linalg.fill ins(%cst : f32) outs(%4 : tensor<216xf32>) -> tensor<216xf32>\n    %6 = tensor.empty() : tensor<666x28x28x216xf32>\n    %7 = linalg.generic {indexing_maps = [#map, #map1], iterator_types = [\"parallel\", \"parallel\", \"parallel\", \"parallel\"]} ins(%5 : tensor<216xf32>) outs(%6 : tensor<666x28x28x216xf32>) {\n    ^bb0(%in: f32, %out: f32):\n      linalg.yield %in : f32\n    } -> tensor<666x28x28x216xf32>\n    %8 = linalg.conv_2d_nhwc_fhwc {dilations = dense<1> : tensor<2xi64>, strides = dense<2> : tensor<2xi64>} ins(%1, %3 : tensor<666x56x56x72xf32>, tensor<216x1x1x72xf32>) outs(%7 : tensor<666x28x28x216xf32>) -> tensor<666x28x28x216xf32>\n    return\n  }\n}\n\n", "module {\n  func.func @wrapper() {\n    %cst = arith.constant 2.000000e+00 : f32\n    %0 = bufferization.alloc_tensor() : tensor<666x1024xf32>\n    %1 = linalg.fill ins(%cst : f32) outs(%0 : tensor<666x1024xf32>) -> tensor<666x1024xf32>\n    %2 = tensor.empty() : tensor<666xf32>\n    %cst_0 = arith.constant 0.000000e+00 : f32\n    %3 = linalg.fill ins(%cst_0 : f32) outs(%2 : tensor<666xf32>) -> tensor<666xf32>\n    %reduced = linalg.reduce ins(%1 : tensor<666x1024xf32>) outs(%3 : tensor<666xf32>) dimensions = [1] \n      (%in: f32, %init: f32) {\n        %4 = arith.addf %in, %init : f32\n        linalg.yield %4 : f32\n      }\n    %expanded = tensor.expand_shape %reduced [[0, 1]] : tensor<666xf32> into tensor<666x1xf32>\n    return\n  }\n}\n\n", "#map = affine_map<(d0, d1, d2, d3) -> (d0, d1, d2, d3)>\n#map1 = affine_map<(d0, d1, d2, d3) -> (0, 0, 0, d3)>\nmodule {\n  func.func @wrapper() {\n    %cst = arith.constant 2.000000e+00 : f32\n    %0 = bufferization.alloc_tensor() : tensor<666x14x14x1056xf32>\n    %1 = linalg.fill ins(%cst : f32) outs(%0 : tensor<666x14x14x1056xf32>) -> tensor<666x14x14x1056xf32>\n    %2 = bufferization.alloc_tensor() : tensor<1x1x1x1056xf32>\n    %3 = linalg.fill ins(%cst : f32) outs(%2 : tensor<1x1x1x1056xf32>) -> tensor<1x1x1x1056xf32>\n    %4 = tensor.empty() : tensor<666x14x14x1056xf32>\n    %5 = linalg.generic {indexing_maps = [#map, #map1, #map], iterator_types = [\"parallel\", \"parallel\", \"parallel\", \"parallel\"]} ins(%1, %3 : tensor<666x14x14x1056xf32>, tensor<1x1x1x1056xf32>) outs(%4 : tensor<666x14x14x1056xf32>) {\n    ^bb0(%in: f32, %in_0: f32, %out: f32):\n      %6 = arith.subf %in, %in_0 : f32\n      linalg.yield %6 : f32\n    } -> tensor<666x14x14x1056xf32>\n    return\n  }\n}\n\n", "#map = affine_map<(d0, d1, d2, d3) -> (d0, d1, d2, d3)>\n#map1 = affine_map<(d0, d1, d2, d3) -> (0, 0, 0, d3)>\nmodule {\n  func.func @wrapper() {\n    %cst = arith.constant 2.000000e+00 : f32\n    %0 = bufferization.alloc_tensor() : tensor<666x147x147x32xf32>\n    %1 = linalg.fill ins(%cst : f32) outs(%0 : tensor<666x147x147x32xf32>) -> tensor<666x147x147x32xf32>\n    %2 = bufferization.alloc_tensor() : tensor<1x1x1x32xf32>\n    %3 = linalg.fill ins(%cst : f32) outs(%2 : tensor<1x1x1x32xf32>) -> tensor<1x1x1x32xf32>\n    %4 = tensor.empty() : tensor<666x147x147x32xf32>\n    %5 = linalg.generic {indexing_maps = [#map, #map1, #map], iterator_types = [\"parallel\", \"parallel\", \"parallel\", \"parallel\"]} ins(%1, %3 : tensor<666x147x147x32xf32>, tensor<1x1x1x32xf32>) outs(%4 : tensor<666x147x147x32xf32>) {\n    ^bb0(%in: f32, %in_0: f32, %out: f32):\n      %6 = arith.subf %in, %in_0 : f32\n      linalg.yield %6 : f32\n    } -> tensor<666x147x147x32xf32>\n    return\n  }\n}\n\n", "#map = affine_map<(d0, d1, d2, d3) -> (d3)>\n#map1 = affine_map<(d0, d1, d2, d3) -> (d0, d1, d2, d3)>\nmodule {\n  func.func @wrapper() {\n    %cst = arith.constant 2.000000e+00 : f32\n    %0 = bufferization.alloc_tensor() : tensor<666x7x7x576xf32>\n    %1 = linalg.fill ins(%cst : f32) outs(%0 : tensor<666x7x7x576xf32>) -> tensor<666x7x7x576xf32>\n    %2 = bufferization.alloc_tensor() : tensor<160x1x1x576xf32>\n    %3 = linalg.fill ins(%cst : f32) outs(%2 : tensor<160x1x1x576xf32>) -> tensor<160x1x1x576xf32>\n    %4 = bufferization.alloc_tensor() : tensor<160xf32>\n    %5 = linalg.fill ins(%cst : f32) outs(%4 : tensor<160xf32>) -> tensor<160xf32>\n    %6 = tensor.empty() : tensor<666x7x7x160xf32>\n    %7 = linalg.generic {indexing_maps = [#map, #map1], iterator_types = [\"parallel\", \"parallel\", \"parallel\", \"parallel\"]} ins(%5 : tensor<160xf32>) outs(%6 : tensor<666x7x7x160xf32>) {\n    ^bb0(%in: f32, %out: f32):\n      linalg.yield %in : f32\n    } -> tensor<666x7x7x160xf32>\n    %8 = linalg.conv_2d_nhwc_fhwc {dilations = dense<1> : tensor<2xi64>, strides = dense<1> : tensor<2xi64>} ins(%1, %3 : tensor<666x7x7x576xf32>, tensor<160x1x1x576xf32>) outs(%7 : tensor<666x7x7x160xf32>) -> tensor<666x7x7x160xf32>\n    return\n  }\n}\n\n", "#map = affine_map<(d0, d1, d2, d3) -> (d3)>\n#map1 = affine_map<(d0, d1, d2, d3) -> (d0, d1, d2, d3)>\nmodule {\n  func.func @wrapper() {\n    %cst = arith.constant 2.000000e+00 : f32\n    %0 = bufferization.alloc_tensor() : tensor<666x19x19x728xf32>\n    %1 = linalg.fill ins(%cst : f32) outs(%0 : tensor<666x19x19x728xf32>) -> tensor<666x19x19x728xf32>\n    %2 = bufferization.alloc_tensor() : tensor<1024x1x1x728xf32>\n    %3 = linalg.fill ins(%cst : f32) outs(%2 : tensor<1024x1x1x728xf32>) -> tensor<1024x1x1x728xf32>\n    %4 = bufferization.alloc_tensor() : tensor<1024xf32>\n    %5 = linalg.fill ins(%cst : f32) outs(%4 : tensor<1024xf32>) -> tensor<1024xf32>\n    %6 = tensor.empty() : tensor<666x19x19x1024xf32>\n    %7 = linalg.generic {indexing_maps = [#map, #map1], iterator_types = [\"parallel\", \"parallel\", \"parallel\", \"parallel\"]} ins(%5 : tensor<1024xf32>) outs(%6 : tensor<666x19x19x1024xf32>) {\n    ^bb0(%in: f32, %out: f32):\n      linalg.yield %in : f32\n    } -> tensor<666x19x19x1024xf32>\n    %8 = linalg.conv_2d_nhwc_fhwc {dilations = dense<1> : tensor<2xi64>, strides = dense<1> : tensor<2xi64>} ins(%1, %3 : tensor<666x19x19x728xf32>, tensor<1024x1x1x728xf32>) outs(%7 : tensor<666x19x19x1024xf32>) -> tensor<666x19x19x1024xf32>\n    return\n  }\n}\n\n", "#map = affine_map<(d0, d1, d2, d3) -> (d0, 0, 0, d3)>\n#map1 = affine_map<(d0, d1, d2, d3) -> (d0, d1, d2, d3)>\nmodule {\n  func.func @wrapper() {\n    %cst = arith.constant 2.000000e+00 : f32\n    %0 = bufferization.alloc_tensor() : tensor<666x1x1x448xf32>\n    %1 = linalg.fill ins(%cst : f32) outs(%0 : tensor<666x1x1x448xf32>) -> tensor<666x1x1x448xf32>\n    %2 = bufferization.alloc_tensor() : tensor<666x28x28x448xf32>\n    %3 = linalg.fill ins(%cst : f32) outs(%2 : tensor<666x28x28x448xf32>) -> tensor<666x28x28x448xf32>\n    %4 = tensor.empty() : tensor<666x28x28x448xf32>\n    %5 = linalg.generic {indexing_maps = [#map, #map1, #map1], iterator_types = [\"parallel\", \"parallel\", \"parallel\", \"parallel\"]} ins(%1, %3 : tensor<666x1x1x448xf32>, tensor<666x28x28x448xf32>) outs(%4 : tensor<666x28x28x448xf32>) {\n    ^bb0(%in: f32, %in_0: f32, %out: f32):\n      %6 = arith.mulf %in, %in_0 : f32\n      linalg.yield %6 : f32\n    } -> tensor<666x28x28x448xf32>\n    return\n  }\n}\n\n", "#map = affine_map<(d0, d1) -> (d0, d1)>\n#map1 = affine_map<(d0, d1) -> (d0, 0)>\nmodule {\n  func.func @wrapper() {\n    %cst = arith.constant 2.000000e+00 : f32\n    %0 = bufferization.alloc_tensor() : tensor<666x1000xf32>\n    %1 = linalg.fill ins(%cst : f32) outs(%0 : tensor<666x1000xf32>) -> tensor<666x1000xf32>\n    %2 = bufferization.alloc_tensor() : tensor<666x1xf32>\n    %3 = linalg.fill ins(%cst : f32) outs(%2 : tensor<666x1xf32>) -> tensor<666x1xf32>\n    %4 = tensor.empty() : tensor<666x1000xf32>\n    %5 = linalg.generic {indexing_maps = [#map, #map1, #map], iterator_types = [\"parallel\", \"parallel\"]} ins(%1,…
 f32) outs(%2 : tensor<666x14x256xf32>) -> tensor<666x14x256xf32>\n    %reduced = linalg.reduce ins(%1 : tensor<666x14x14x256xf32>) outs(%3 : tensor<666x14x256xf32>) dimensions = [1] \n      (%in: f32, %init: f32) {\n        %4 = arith.addf %in, %init : f32\n        linalg.yield %4 : f32\n      }\n    %expanded = tensor.expand_shape %reduced [[0], [1, 2], [3]] : tensor<666x14x256xf32> into tensor<666x1x14x256xf32>\n    return\n  }\n}\n\n", "#map = affine_map<(d0) -> (d0)>\nmodule {\n  func.func @wrapper() {\n    %cst = arith.constant 2.000000e+00 : f32\n    %0 = bufferization.alloc_tensor() : tensor<640xf32>\n    %1 = linalg.fill ins(%cst : f32) outs(%0 : tensor<640xf32>) -> tensor<640xf32>\n    %2 = tensor.empty() : tensor<640xf32>\n    %3 = linalg.generic {indexing_maps = [#map, #map], iterator_types = [\"parallel\"]} ins(%1 : tensor<640xf32>) outs(%2 : tensor<640xf32>) {\n    ^bb0(%in: f32, %out: f32):\n      %4 = math.rsqrt %in : f32\n      linalg.yield %4 : f32\n    } -> tensor<640xf32>\n    return\n  }\n}\n\n", "#map = affine_map<(d0, d1, d2, d3) -> (d0, d1, d2, d3)>\nmodule {\n  func.func @wrapper() {\n    %cst = arith.constant 2.000000e+00 : f32\n    %0 = bufferization.alloc_tensor() : tensor<666x83x83x42xf32>\n    %1 = linalg.fill ins(%cst : f32) outs(%0 : tensor<666x83x83x42xf32>) -> tensor<666x83x83x42xf32>\n    %2 = bufferization.alloc_tensor() : tensor<666x83x83x42xf32>\n    %3 = linalg.fill ins(%cst : f32) outs(%2 : tensor<666x83x83x42xf32>) -> tensor<666x83x83x42xf32>\n    %4 = tensor.empty() : tensor<666x83x83x42xf32>\n    %5 = linalg.generic {indexing_maps = [#map, #map, #map], iterator_types = [\"parallel\", \"parallel\", \"parallel\", \"parallel\"]} ins(%1, %3 : tensor<666x83x83x42xf32>, tensor<666x83x83x42xf32>) outs(%4 : tensor<666x83x83x42xf32>) {\n    ^bb0(%in: f32, %in_0: f32, %out: f32):\n      %6 = arith.addf %in, %in_0 : f32\n      linalg.yield %6 : f32\n    } -> tensor<666x83x83x42xf32>\n    return\n  }\n}\n\n", "#map = affine_map<(d0, d1, d2, d3) -> (d0, d1, d2, d3)>\n#map1 = affine_map<(d0, d1, d2, d3) -> (0, 0, 0, d3)>\nmodule {\n  func.func @wrapper() {\n    %cst = arith.constant 2.000000e+00 : f32\n    %0 = bufferization.alloc_tensor() : tensor<666x28x28x696xf32>\n    %1 = linalg.fill ins(%cst : f32) outs(%0 : tensor<666x28x28x696xf32>) -> tensor<666x28x28x696xf32>\n    %2 = bufferization.alloc_tensor() : tensor<1x1x1x696xf32>\n    %3 = linalg.fill ins(%cst : f32) outs(%2 : tensor<1x1x1x696xf32>) -> tensor<1x1x1x696xf32>\n    %4 = tensor.empty() : tensor<666x28x28x696xf32>\n    %5 = linalg.generic {indexing_maps = [#map, #map1, #map], iterator_types = [\"parallel\", \"parallel\", \"parallel\", \"parallel\"]} ins(%1, %3 : tensor<666x28x28x696xf32>, tensor<1x1x1x696xf32>) outs(%4 : tensor<666x28x28x696xf32>) {\n    ^bb0(%in: f32, %in_0: f32, %out: f32):\n      %6 = arith.addf %in, %in_0 : f32\n      linalg.yield %6 : f32\n    } -> tensor<666x28x28x696xf32>\n    return\n  }\n}\n\n", "module {\n  func.func @wrapper() {\n    %cst = arith.constant 2.000000e+00 : f32\n    %0 = bufferization.alloc_tensor() : tensor<666x14x14x1392xf32>\n    %1 = linalg.fill ins(%cst : f32) outs(%0 : tensor<666x14x14x1392xf32>) -> tensor<666x14x14x1392xf32>\n    %2 = tensor.empty() : tensor<666x14x1392xf32>\n    %cst_0 = arith.constant 0.000000e+00 : f32\n    %3 = linalg.fill ins(%cst_0 : f32) outs(%2 : tensor<666x14x1392xf32>) -> tensor<666x14x1392xf32>\n    %reduced = linalg.reduce ins(%1 : tensor<666x14x14x1392xf32>) outs(%3 : tensor<666x14x1392xf32>) dimensions = [1] \n      (%in: f32, %init: f32) {\n        %4 = arith.addf %in, %init : f32\n        linalg.yield %4 : f32\n      }\n    %expanded = tensor.expand_shape %reduced [[0], [1, 2], [3]] : tensor<666x14x1392xf32> into tensor<666x1x14x1392xf32>\n    return\n  }\n}\n\n", "#map = affine_map<(d0, d1, d2, d3) -> (d0, 0, 0, d3)>\n#map1 = affine_map<(d0, d1, d2, d3) -> (0, 0, 0, 0)>\n#map2 = affine_map<(d0, d1, d2, d3) -> (d0, d1, d2, d3)>\nmodule {\n  func.func @wrapper() {\n    %cst = arith.constant 2.000000e+00 : f32\n    %0 = bufferization.alloc_tensor() : tensor<666x1x1x888xf32>\n    %1 = linalg.fill ins(%cst : f32) outs(%0 : tensor<666x1x1x888xf32>) -> tensor<666x1x1x888xf32>\n    %2 = bufferization.alloc_tensor() : tensor<1x1x1x1xf32>\n    %3 = linalg.fill ins(%cst : f32) outs(%2 : tensor<1x1x1x1xf32>) -> tensor<1x1x1x1xf32>\n    %4 = tensor.empty() : tensor<666x1x1x888xf32>\n    %5 = linalg.generic {indexing_maps = [#map, #map1, #map2], iterator_types = [\"parallel\", \"parallel\", \"parallel\", \"parallel\"]} ins(%1, %3 : tensor<666x1x1x888xf32>, tensor<1x1x1x1xf32>) outs(%4 : tensor<666x1x1x888xf32>) {\n    ^bb0(%in: f32, %in_0: f32, %out: f32):\n      %6 = arith.mulf %in, %in_0 : f32\n      linalg.yield %6 : f32\n    } -> tensor<666x1x1x888xf32>\n    return\n  }\n}\n\n", "#map = affine_map<(d0, d1, d2, d3) -> (d0, d1, d2, d3)>\nmodule {\n  func.func @wrapper() {\n    %cst = arith.constant 2.000000e+00 : f32\n    %0 = bufferization.alloc_tensor() : tensor<666x28x28x144xf32>\n    %1 = linalg.fill ins(%cst : f32) outs(%0 : tensor<666x28x28x144xf32>) -> tensor<666x28x28x144xf32>\n    %2 = tensor.empty() : tensor<666x28x28x144xf32>\n    %3 = linalg.generic {indexing_maps = [#map, #map], iterator_types = [\"parallel\", \"parallel\", \"parallel\", \"parallel\"]} ins(%1 : tensor<666x28x28x144xf32>) outs(%2 : tensor<666x28x28x144xf32>) {\n    ^bb0(%in: f32, %out: f32):\n      %cst_0 = arith.constant 0.000000e+00 : f32\n      %cst_1 = arith.constant 6.000000e+00 : f32\n      %4 = arith.minimumf %in, %cst_1 : f32\n      %5 = arith.maximumf %4, %cst_0 : f32\n      linalg.yield %5 : f32\n    } -> tensor<666x28x28x144xf32>\n    return\n  }\n}\n\n", "#map = affine_map<(d0, d1, d2, d3) -> (d3)>\n#map1 = affine_map<(d0, d1, d2, d3) -> (d0, d1, d2, d3)>\nmodule {\n  func.func @wrapper() {\n    %cst = arith.constant 2.000000e+00 : f32\n    %0 = bufferization.alloc_tensor() : tensor<666x1x1x336xf32>\n    %1 = linalg.fill ins(%cst : f32) outs(%0 : tensor<666x1x1x336xf32>) -> tensor<666x1x1x336xf32>\n    %2 = bufferization.alloc_tensor() : tensor<30x1x1x336xf32>\n    %3 = linalg.fill ins(%cst : f32) outs(%2 : tensor<30x1x1x336xf32>) -> tensor<30x1x1x336xf32>\n    %4 = bufferization.alloc_tensor() : tensor<30xf32>\n    %5 = linalg.fill ins(%cst : f32) outs(%4 : tensor<30xf32>) -> tensor<30xf32>\n    %6 = tensor.empty() : tensor<666x1x1x30xf32>\n    %7 = linalg.generic {indexing_maps = [#map, #map1], iterator_types = [\"parallel\", \"parallel\", \"parallel\", \"parallel\"]} ins(%5 : tensor<30xf32>) outs(%6 : tensor<666x1x1x30xf32>) {\n    ^bb0(%in: f32, %out: f32):\n      linalg.yield %in : f32\n    } -> tensor<666x1x1x30xf32>\n    %8 = linalg.conv_2d_nhwc_fhwc {dilations = dense<1> : tensor<2xi64>, strides = dense<1> : tensor<2xi64>} ins(%1, %3 : tensor<666x1x1x336xf32>, tensor<30x1x1x336xf32>) outs(%7 : tensor<666x1x1x30xf32>) -> tensor<666x1x1x30xf32>\n    return\n  }\n}\n\n", "#map = affine_map<(d0, d1, d2, d3) -> (d0, d1, d2, d3)>\n#map1 = affine_map<(d0, d1, d2, d3) -> (0, 0, 0, d3)>\nmodule {\n  func.func @wrapper() {\n    %cst = arith.constant 2.000000e+00 : f32\n    %0 = bufferization.alloc_tensor() : tensor<666x7x7x1568xf32>\n    %1 = linalg.fill ins(%cst : f32) outs(%0 : tensor<666x7x7x1568xf32>) -> tensor<666x7x7x1568xf32>\n    %2 = bufferization.alloc_tensor() : tensor<1x1x1x1568xf32>\n    %3 = linalg.fill ins(%cst : f32) outs(%2 : tensor<1x1x1x1568xf32>) -> tensor<1x1x1x1568xf32>\n    %4 = tensor.empty() : tensor<666x7x7x1568xf32>\n    %5 = linalg.generic {indexing_maps = [#map, #map1, #map], iterator_types = [\"parallel\", \"parallel\", \"parallel\", \"parallel\"]} ins(%1, %3 : tensor<666x7x7x1568xf32>, tensor<1x1x1x1568xf32>) outs(%4 : tensor<666x7x7x1568xf32>) {\n    ^bb0(%in: f32, %in_0: f32, %out: f32):\n      %6 = arith.mulf %in, %in_0 : f32\n      linalg.yield %6 : f32\n    } -> tensor<666x7x7x1568xf32>\n    return\n  }\n}\n\n", "#map = affine_map<(d0, d1, d2, d3) -> (d3)>\n#map1 = affine_map<(d0, d1, d2, d3) -> (d0, d1, d2, d3)>\nmodule {\n  func.func @wrapper() {\n    %cst = arith.constant 2.000000e+00 : f32\n    %0 = bufferization.alloc_tensor() : tensor<666x1x1x38xf32>\n    %1 = linalg.fill ins(%cst : f32) outs(%0 : tensor<666x1x1x38xf32>) -> tensor<666x1x1x38xf32>\n    %2 = bufferization.alloc_tensor() : tensor<152x1x1x38xf32>\n    %3 = linalg.fill ins(%cst : f32) outs(%2 : tensor<152x1x1x38xf32>) -> tensor<152x1x1x38xf32>\n    %4 = bufferization.alloc_tensor() : tensor<152xf32>\n    %5 = linalg.fill ins(%cst : f32) outs(%4 : tensor<152xf32>) -> tensor<152xf32>\n    %6 = tensor.empty() : tensor<666x1x1x152xf32>\n    %7 = linalg.generic {indexing_maps = [#map, #map1], iterator_types = [\"parallel\", \"parallel\", \"parallel\", \"parallel\"]} ins(%5 : tensor<152xf32>) outs(%6 : tensor<666x1x1x152xf32>) {\n    ^bb0(%in: f32, %out: f32):\n      linalg.yield %in : f32\n    } -> tensor<666x1x1x152xf32>\n    %8 = linalg.conv_2d_nhwc_fhwc {dilations = dense<1> : tensor<2xi64>, strides = dense<1> : tensor<2xi64>} ins(%1, %3 : tensor<666x1x1x38xf32>, tensor<152x1x1x38xf32>) outs(%7 : tensor<666x1x1x152xf32>) -> tensor<666x1x1x152xf32>\n    return\n  }\n}\n\n", "#map = affine_map<(d0, d1, d2, d3) -> (d0, d1, d2, d3)>\nmodule {\n  func.func @wrapper() {\n    %cst = arith.constant 2.000000e+00 : f32\n    %0 = bufferization.alloc_tensor() : tensor<666x28x28x1344xf32>\n    %1 = linalg.fill ins(%cst : f32) outs(%0 : tensor<666x28x28x1344xf32>) -> tensor<666x28x28x1344xf32>\n    %2 = tensor.empty() : tensor<666x28x28x1344xf32>\n    %3 = linalg.generic {indexing_maps = [#map, #map], iterator_types = [\"parallel\", \"parallel\", \"parallel\", \"parallel\"]} ins(%1 : tensor<666x28x28x1344xf32>) outs(%2 : tensor<666x28x28x1344xf32>) {\n    ^bb0(%in: f32, %out: f32):\n      %cst_0 = arith.constant 0.000000e+00 : f32\n      %cst_1 = arith.constant 3.40282347E+38 : f32\n      %4 = arith.minimumf %in, %cst_1 : f32\n      %5 = arith.maximumf %4, %cst_0 : f32\n      linalg.yield %5 : f32\n    } -> tensor<666x28x28x1344xf32>\n    return\n  }\n}\n\n", "#map = affine_map<(d0, d1, d2, d3) -> (d3)>\n#map1 = affine_map<(d0, d1, d2, d3) -> (d0, d1, d2, d3)>\nmodule {\n  func.func @wrapper() {\n    %cst = arith.constant 2.000000e+00 : f32\n    %0 = bufferization.alloc_tensor() : tensor<666x1x1x224xf32>\n    %1 = linalg.fill ins(%cst : f32) outs(%0 : tensor<666x1x1x224xf32>) -> tensor<666x1x1x224xf32>\n    %2 = bufferization.alloc_tensor() : tensor<8x1x1x224xf32>\n    %3 = linalg.fill ins(%cst : f32) outs(%2 : tensor<8x1x1x224xf32>) -> tensor<8x1x1x224xf32>\n    %4 = bufferization.alloc_tensor() : tensor<8xf32>\n    %5 = linalg.fill ins(%cst : f32) outs(%4 : tensor<8xf32>) -> tensor<8xf32>\n    %6 = tensor.empty() : tensor<666x1x1x8xf32>\n    %7 = linalg.generic {indexing_maps = [#map, #map1], iterator_types = [\"parallel\", \"parallel\", \"parallel\", \"parallel\"]} ins(%5 : tensor<8xf32>) outs(%6 : tensor<666x1x1x8xf32>) {\n    ^bb0(%in: f32, %out: f32):\n      linalg.yield %in : f32\n    } -> tensor<666x1x1x8xf32>\n    %8 = linalg.conv_2d_nhwc_fhwc {dilations = dense<1> : tensor<2xi64>, strides = dense<1> : tensor<2xi64>} ins(%1, %3 : tensor<666x1x1x224xf32>, tensor<8x1x1x224xf32>) outs(%7 : tensor<666x1x1x8xf32>) -> tensor<666x1x1x8xf32>\n    return\n  }\n}\n\n", "#map = affine_map<(d0, d1, d2, d3) -> (d0, d1, d2, d3)>\n#map1 = affine_map<(d0, d1, d2, d3) -> (0, 0, 0, d3)>\nmodule {\n  func.func @wrapper() {\n    %cst = arith.constant 2.000000e+00 : f32\n    %0 = bufferization.alloc_tensor() : tensor<666x14x14x912xf32>\n    %1 = linalg.fill ins(%cst : f32) outs(%0 : tensor<666x14x14x912xf32>) -> tensor<666x14x14x912xf32>\n    %2 = bufferization.alloc_tensor() : tensor<1x1x1x912xf32>\n    %3 = linalg.fill ins(%cst : f32) outs(%2 : tensor<1x1x1x912xf32>) -> tensor<1x1x1x912xf32>\n    %4 = tensor.empty() : tensor<666x14x14x912xf32>\n    %5 = linalg.generic {indexing_maps = [#map, #map1, #map], iterator_types = [\"parallel\", \"parallel\", \"parallel\", \"parallel\"]} ins(%1, %3 : tensor<666x14x14x912xf32>, tensor<1x1x1x912xf32>) outs(%4 : tensor<666x14x14x912xf32>) {\n    ^bb0(%in: f32, %in_0: f32, %out: f32):\n      %6 = arith.addf %in, %in_0 : f32\n      linalg.yield %6 : f32\n    } -> tensor<666x14x14x912xf32>\n    return\n  }\n}\n\n", "#map = affine_map<(d0, d1, d2, d3) -> (d0, d1, d2, d3)>\nmodule {\n  func.func @wrapper() {\n    %cst = arith.constant 2.000000e+00 : f32\n    %0 = bufferization.alloc_tensor() : tensor<666x14x14x176xf32>\n    %1 = linalg.fill ins(%cst : f32) outs(%0 : tensor<666x14x14x176xf32>) -> tensor<666x14x14x176xf32>\n    %2 = tensor.empty() : tensor<666x14x14x176xf32>\n    %3 = linalg.generic {indexing_maps = [#map, #map], iterator_types = [\"parallel\", \"parallel\", \"parallel\", \"parallel\"]} ins(%1 : tensor<666x14x14x176xf32>) outs(%2 : tensor<666x14x14x176xf32>) {\n    ^bb0(%in: f32, %out: f32):\n      %cst_0 = arith.constant 0.000000e+00 : f32\n      %cst_1 = arith.constant 3.40282347E+38 : f32\n      %4 = arith.minimumf %in, %cst_1 : f32\n      %5 = arith.maximumf %4, %cst_0 : f32\n      linalg.yield %5 : f32\n    } -> tensor<666x14x14x176xf32>\n    return\n  }\n}\n\n", "#map = affine_map<(d0, d1, d2, d3) -> (d0, d1, d2, d3)>\nmodule {\n  func.func @wrapper() {\n    %cst = arith.constant 2.000000e+00 : f32\n    %0 = bufferization.alloc_tensor() : tensor<666x56x56x1024xf32>\n    %1 = linalg.fill ins(%cst : f32) outs(%0 : tensor<666x56x56x1024xf32>) -> tensor<666x56x56x1024xf32>\n    %2 = bufferization.alloc_tensor() : tensor<666x56x56x1024xf32>\n    %3 = linalg.fill ins(%cst : f32) outs(%2 : tensor<666x56x56x1024xf32>) -> tensor<666x56x56x1024xf32>\n    %4 = tensor.empty() : tensor<666x56x56x1024xf32>\n    %5 = linalg.generic {indexing_maps = [#map, #map, #map], iterator_types = [\"parallel\", \"parallel\", \"parallel\", \"parallel\"]} ins(%1, %3 : tensor<666x56x56x1024xf32>, tensor<666x56x56x1024xf32>) outs(%4 : tensor<666x56x56x1024xf32>) {\n    ^bb0(%in: f32, %in_0: f32, %out: f32):\n      %6 = arith.mulf %in, %in_0 : f32\n      linalg.yield %6 : f32\n    } -> tensor<666x56x56x1024xf32>\n    return\n  }\n}\n\n", "#map = affine_map<(d0) -> (d0)>\nmodule {\n  func.func @wrapper() {\n    %cst = arith.constant 2.000000e+00 : f32\n    %0 = bufferization.alloc_tensor() : tensor<528xf32>\n    %1 = linalg.fill ins(%cst : f32) outs(%0 : tensor<528xf32>) -> tensor<528xf32>\n    %2 = tensor.empty() : tensor<528xf32>\n    %3 = linalg.generic {indexing_maps = [#map, #map], iterator_types = [\"parallel\"]} ins(%1 : tensor<528xf32>) outs(%2 : tensor<528xf32>) {\n    ^bb0(%in: f32, %out: f32):\n      %4 = math.rsqrt %in : f32\n      linalg.yield %4 : f32\n    } -> tensor<528xf32>\n    return\n  }\n}\n\n", "module {\n  func.func @wrapper() {\n    %cst = arith.constant 2.000000e+00 : f32\n    %0 = bufferization.alloc_tensor() : tensor<666x1x10x2048xf32>\n    %1 = linalg.fill ins(%cst : f32) outs(%0 : tensor<666x1x10x2048xf32>) -> tensor<666x1x10x2048xf32>\n    %2 = tensor.empty() : tensor<666x1x2048xf32>\n    %cst_0 = arith.constant 0.000000e+00 : f32\n    %3 = linalg.fill ins(%cst_0 : f32) outs(%2 : tensor<666x1x2048xf32>) -> tensor<666x1x2048xf32>\n    %reduced = linalg.reduce ins(%1 : tensor<666x1x10x2048xf32>) outs(%3 : tensor<666x1x2048xf32>) dimensions = [2] \n      (%in: f32, %init: f32) {\n        %4 = arith.addf %in, %init : f32\n        linalg.yield %4 : f32\n      }\n    %expanded = tensor.expand_shape %reduced [[0], [1], [2, 3]] : tensor<666x1x2048xf32> into tensor<666x1x1x2048xf32>\n    return\n  }\n}\n\n", "#map = affine_map<(d0, d1, d2, d3) -> (d3)>\n#map1 = affine_map<(d0, d1, d2, d3) -> (d0, d1, d2, d3)>\nmodule {\n  func.func @wrapper() {\n    %cst = arith.constant 2.000000e+00 : f32\n    %0 = bufferization.alloc_tensor() : tensor<666x14x14x560xf32>\n    %1 = linalg.fill ins(%cst : f32) outs(%0 : tensor<666x14x14x560xf32>) -> tensor<666x14x14x560xf32>\n    %2 = bufferization.alloc_tensor() : tensor<1360x1x1x560xf32>\n    %3 = linalg.fill ins(%cst : f32) outs(%2 : tensor<1360x1x1x560xf32>) -> tensor<1360x1x1x560xf32>\n    %4 = bufferization.alloc_tensor() : tensor<1360xf32>\n    %5 = linalg.fill ins(%cst : f32) outs(%4 : tensor<1360xf32>) -> tensor<1360xf32>\n    %6 = tensor.empty() : tensor<666x14x14x1360xf32>\n    %7 = linalg.generic {indexing_maps = [#map, #map1], iterator_types = [\"parallel\", \"parallel\", \"parallel\", \"parallel\"]} ins(%5 : tensor<1360xf32>) outs(%6 : tensor<666x14x14x1360xf32>) {\n    ^bb0(%in: f32, %out: f32):\n      linalg.yield %in : f32\n    } -> tensor<666x14x14x1360xf32>\n    %8 = linalg.conv_2d_nhwc_fhwc {dilations = dense<1> : tensor<2xi64>, strides = dense<1> : tensor<2xi64>} ins(%1, %3 : tensor<666x14x14x560xf32>, tensor<1360x1x1x560xf32>) outs(%7 : tensor<666x14x14x1360xf32>) -> tensor<666x14x14x1360xf32>\n    return\n  }\n}\n\n", "#map = affine_map<(d0, d1, d2, d3) -> (d0, d1, d2, d3)>\nmodule {\n  func.func @wrapper() {\n    %cst = arith.constant 2.000000e+00 : f32\n    %0 = bufferization.alloc_tensor() : tensor<666x28x28x192xf32>\n    %1 = linalg.fill ins(%cst : f32) outs(%0 : tensor<666x28x28x192xf32>) -> tensor<666x28x28x192xf32>\n    %2 = bufferization.alloc_tensor() : tensor<666x28x28x192xf32>\n    %3 = linalg.fill ins(%cst : f32) outs(%2 : tensor<666x28x28x192xf32>) -> tensor<666x28x28x192xf32>\n    %4 = tensor.empty() : tensor<666x28x28x192xf32>\n    %5 = linalg.generic {indexing_maps = [#map, #map, #map], iterator_types = [\"parallel\", \"parallel\", \"parallel\", \"parallel\"]} ins(%1, %3 : tensor<666x28x28x192xf32>, tensor<666x28x28x192xf32>) outs(%4 : tensor<666x28x28x192xf32>) {\n    ^bb0(%in: f32, %in_0: f32, %out: f32):\n      %6 = arith.addf %in, %in_0 : f32\n      linalg.yield %6 : f32\n    } -> tensor<666x28x28x192xf32>\n    return\n  }\n}\n\n", "#map = affine_map<(d0, d1, d2, d3) -> (d3)>\n#map1 = affine_map<(d0, d1, d2, d3) -> (d0, d1, d2, d3)>\nmodule {\n  func.func @wrapper() {\n    %cst = arith.constant 2.000000e+00 : f32\n    %0 = bufferization.alloc_tensor() : tensor<666x112x112x32xf32>\n    %1 = linalg.fill ins(%cst : f32) outs(%0 : tensor<666x112x112x32xf32>) -> tensor<666x112x112x32xf32>\n    %2 = bufferization.alloc_tensor() : tensor<144x1x1x32xf32>\n    %3 = linalg.fill ins(%cst : f32) outs(%2 : tensor<144x1x1x32xf32>) -> tensor<144x1x1x32xf32>\n    %4 = bufferization.alloc_tensor() : tensor<144xf32>\n    %5 = linalg.fill ins(%cst : f32) outs(%4 : tensor<144xf32>) -> tensor<144xf32>\n    %6 = tensor.empty() : tensor<666x112x112x144xf32>\n    %7 = linalg.generic {indexing_maps = [#map, #map1], iterator_types = [\"parallel\", \"parallel\", \"parallel\", \"parallel\"]} ins(%5 : tensor<144xf32>) outs(%6 : tensor<666x112x112x144xf32>) {\n    ^bb0(%in: f32, %out: f32):\n      linalg.yield %in : f32\n    } -> tensor<666x112x112x144xf32>\n    %8 = linalg.conv_2d_nhwc_fhwc {dilations = dense<1> : tensor<2xi64>, strides = dense<1> : tensor<2xi64>} ins(%1, %3 : tensor<666x112x112x32xf32>, tensor<144x1x1x32xf32>) outs(%7 : tensor<666x112x112x144xf32>) -> tensor<666x112x112x144xf32>\n    return\n  }\n}\n\n", "#map = affine_map<(d0, d1, d2, d3) -> (d0, d1, d2, d3)>\nmodule {\n  func.func @wrapper() {\n    %cst = arith.constant 2.000000e+00 : f32\n    %0 = bufferization.alloc_tensor() : tensor<666x74x74x128xf32>\n    %1 = linalg.fill ins(%cst : f32) outs(%0 : tensor<666x74x74x128xf32>) -> tensor<666x74x74x128xf32>\n    %2 = bufferization.alloc_tensor() : tensor<666x74x74x128xf32>\n    %3 = linalg.fill ins(%cst : f32) outs(%2 : tensor<666x74x74x128xf32>) -> tensor<666x74x74x128xf32>\n    %4 = tensor.empty() : tensor<666x74x74x128xf32>\n    %5 = linalg.generic {indexing_maps = [#map, #map, #map], iterator_types = [\"parallel\", \"parallel\", \"parallel\", \"parallel\"]} ins(%1, %3 : tensor<666x74x74x128xf32>, tensor<666x74x74x128xf32>) outs(%4 : tensor<666x74x74x128xf32>) {\n    ^bb0(%in: f32, %in_0: f32, %out: f32):\n      %6 = arith.addf %in, %in_0 : f32\n      linalg.yield %6 : f32\n    } -> tensor<666x74x74x128xf32>\n    return\n  }\n}\n\n", "module {\n  func.func @wrapper() {\n    %cst = arith.constant 2.000000e+00 : f32\n    %0 = bufferization.alloc_tensor() : tensor<666x28x28x512xf32>\n    %1 = linalg.fill ins(%cst : f32) outs(%0 : tensor<666x28x28x512xf32>) -> tensor<666x28x28x512xf32>\n    %cst_0 = arith.constant -3.40282347E+38 : f32\n    %2 = tensor.empty() : tensor<666x14x14x512xf32>\n    %3 = linalg.fill ins(%cst_0 : f32) outs(%2 : tensor<666x14x14x512xf32>) -> tensor<666x14x14x512xf32>\n    %4 = tensor.empty() : tensor<2x2xf32>\n    %5 = linalg.pooling_nhwc_max {dilations = dense<1> : vector<2xi64>, strides = dense<2> : vector<2xi64>} ins(%1, %4 : tensor<666x28x28x512xf32>, tensor<2x2xf32>) outs(%3 : tensor<666x14x14x512xf32>) -> tensor<666x14x14x512xf32>\n    return\n  }\n}\n\n", "#map = affine_map<(d0, d1, d2, d3) -> (d3)>\n#map1 = affine_map<(d0, d1, d2, d3) -> (d0, d1, d2, d3)>\nmodule {\n  func.func @wrapper() {\n    %cst = arith.constant 2.000000e+00 : f32\n    %0 = bufferization.alloc_tensor() : tensor<666x56x56x32xf32>\n    %1 = linalg.fill ins(%cst : f32) outs(%0 : tensor<666x56x56x32xf32>) -> tensor<666x56x56x32xf32>\n    %2 = bufferization.alloc_tensor() : tensor<64x1x1x32xf32>\n    %3 = linalg.fill ins(%cst : f32) outs(%2 : tensor<64x1x1x32xf32>) -> tensor<64x1x1x32xf32>\n    %4 = bufferization.alloc_tensor() : tensor<64xf32>\n    %5 = linalg.fill ins(%cst : f32) outs(%4 : tensor<64xf32>) -> tensor<64xf32>\n    %6 = tensor.empty() : tensor<666x56x56x64xf32>\n    %7 = linalg.generic {indexing_maps = [#map, #map1], iterator_types = [\"parallel\", \"parallel\", \"parallel\", \"parallel\"]} ins(%5 : tensor<64xf32>) outs(%6 : tensor<666x56x56x64xf32>) {\n    ^bb0(%in: f32, %out: f32):\n      linalg.yield %in : f32\n    } -> tensor<666x56x56x64xf32>\n    %8 = linalg.conv_2d_nhwc_fhwc {dilations = dense<1> : tensor<2xi64>, strides = dense<1> : tensor<2xi64>} ins(%1, %3 : tensor<666x56x56x32xf32>, tensor<64x1x1x32xf32>) outs(%7 : tensor<666x56x56x64xf32>) -> tensor<666x56x56x64xf32>\n    return\n  }\n}\n\n", "#map = affine_map<(d0, d1, d2, d3) -> (d3)>\n#map1 = affine_map<(d0, d1, d2, d3) -> (d0, d1, d2, d3)>\nmodule {\n  func.func @wrapper() {\n    %cst = arith.constant 2.000000e+00 : f32\n    %0 = bufferization.alloc_tensor() : tensor<666x28x28x64xf32>\n    %1 = linalg.fill ins(%cst : f32) outs(%0 : tensor<666x28x28x64xf32>) -> tensor<666x28x28x64xf32>\n    %2 = bufferization.alloc_tensor() : tensor<256x1x1x64xf32>\n    %3 = linalg.fill ins(%cst : f32) outs(%2 : tensor<256x1x1x64xf32>) -> tensor<256x1x1x64xf32>\n    %4 = bufferization.alloc_tensor() : tensor<256xf32>\n    %5 = linalg.fill ins(%cst : f32) outs(%4 : tensor<256xf32>) -> tensor<256xf32>\n    %6 = tensor.empty() : tensor<666x28x28x256xf32>\n    %7 = linalg.generic {indexing_maps = [#map, #map1], iterator_types = [\"parallel\", \"parallel\", \"parallel\", \"parallel\"]} ins(%5 : tensor<256xf32>) outs(%6 : tensor<666x28x28x256xf32>) {\n    ^bb0(%in: f32, %out: f32):\n      linalg.yield %in : f32\n    } -> tensor<666x28x28x256xf32>\n    %8 = linalg.conv_2d_nhwc_fhwc {dilations = dense<1> : tensor<2xi64>, strides = dense<1> : tensor<2xi64>} ins(%1, %3 : tensor<666x28x28x64xf32>, tensor<256x1x1x64xf32>) outs(%7 : tensor<666x28x28x256xf32>) -> tensor<666x28x28x256xf32>\n    return\n  }\n}\n\n", "#map = affine_map<(d0, d1, d2, d3) -> (d0, 0, 0, d3)>\n#map1 = affine_map<(d0, d1, d2, d3) -> (0, 0, 0, 0)>\n#map2 = affine_map<(d0, d1, d2, d3) -> (d0, d1, d2, d3)>\nmodule {\n  func.func @wrapper() {\n    %cst = arith.constant 2.000000e+00 : f32\n    %0 = bufferization.alloc_tensor() : tensor<666x1x1x48xf32>\n    %1 = linalg.fill ins(%cst : f32) outs(%0 : tensor<666x1x1x48xf32>) -> tensor<666x1x1x48xf32>\n    %2 = bufferization.alloc_tensor() : tensor<1x1x1x1xf32>\n    %3 = linalg.fill ins(%cst : f32) outs(%2 : tensor<1x1x1x1xf32>) -> tensor<1x1x1x1xf32>\n    %4 = tensor.empty() : tensor<666x1x1x48xf32>\n    %5 = linalg.generic {indexing_maps = [#map, #map1, #map2], iterator_types = [\"parallel\", \"parallel\", \"parallel\", \"parallel\"]} ins(%1, %3 : tensor<666x1x1x48xf32>, tensor<1x1x1x1xf32>) outs(%4 : tensor<666x1x1x48xf32>) {\n    ^bb0(%in: f32, %in_0: f32, %out: f32):\n      %6 = arith.mulf %in, %in_0 : f32\n      linalg.yield %6 : f32\n    } -> tensor<666x1x1x48xf32>\n    return\n  }\n}\n\n", "#map = affine_map<(d0, d1) -> (d0, d1)>\n#map1 = affine_map<(d0, d1) -> (0, 0)>\nmodule {\n  func.func @wrapper() {\n    %cst = arith.constant 2.000000e+00 : f32\n    %0 = bufferization.alloc_tensor() : tensor<666x2240xf32>\n    %1 = linalg.fill ins(%cst : f32) outs(%0 : tensor<666x2240xf32>) -> tensor<666x2240xf32>\n    %2 = bufferization.alloc_tensor() : tensor<1x1xf32>\n    %3 = linalg.fill ins(%cst : f32) outs(%2 : tensor<1x1xf32>) -> tensor<1x1xf32>\n    %4 = tensor.empty() : tensor<666x2240xf32>\n    %5 = linalg.generic {indexing_maps = [#map, #map1, #map], iterator_types = [\"parallel\", \"parallel\"]} ins(%1, %3 : tensor<666x2240xf32>, tensor<1x1xf32>) outs(%4 : tensor<666x2240xf32>) {\n    ^bb0(%in: f32, %in_0: f32, %out: f32):\n      %6 = arith.mulf %in, %in_0 : f32\n      linalg.yield %6 : f32\n    } -> tensor<666x2240xf32>\n    return\n  }\n}\n\n", "#map = affine_map<(d0, d1, d2, d3) -> (d0, d1, d2, d3)>\n#map1 = affine_map<(d0, d1, d2, d3) -> (0, 0, 0, d3)>\nmodule {\n  func.func @wrapper() {\n    %cst = arith.constant 2.000000e+00 : f32\n    %0 = bufferization.alloc_tensor() : tensor<666x14x14x1280xf32>\n    %1 = linalg.fill ins(%cst : f32) outs(%0 : tensor<666x14x14x1280xf32>) -> tensor<666x14x14x1280xf32>\n    %2 = bufferization.alloc_tensor() : tensor<1x1x1x1280xf32>\n    %3 = linalg.fill ins(%cst : f32) outs(%2 : tensor<1x1x1x1280xf32>) -> tensor<1x1x1x1280xf32>\n    %4 = tensor.empty() : tensor<666x14x14x1280xf32>\n    %5 = linalg.generic {indexing_maps = [#map, #map1, #map], iterator_types = [\"parallel\", \"parallel\", \"parallel\", \"parallel\"]} ins(%1, %3 : tensor<666x14x14x1280xf32>, tensor<1x1x1x1280xf32>) outs(%4 : tensor<666x14x14x1280xf32>) {\n    ^bb0(%in: f32, %in_0: f32, %out: f32):\n      %6 = arith.subf %in, %in_0 : f32\n      linalg.yield %6 : f32\n    } -> tensor<666x14x14x1280xf32>\n    return\n  }\n}\n\n", "#map = affine_map<(d0, d1, d2, d3) -> (d0, d1, d2, d3)>\n#map1 = affine_map<(d0, d1, d2, d3) -> (0, 0, 0, d3)>\nmodule {\n  func.func @wrapper() {\n    %cst = arith.constant 2.000000e+00 : f32\n    %0 = bufferization.alloc_tensor() : tensor<666x112x112x32xf32>\n    %1 = linalg.fill ins(%cst : f32) outs(%0 : tensor<666x112x112x32xf32>) -> tensor<666x112x112x32xf32>\n    %2 = bufferization.alloc_tensor() : tensor<1x1x1x32xf32>\n    %3 = linalg.fill ins(%cst : f32) outs(%2 : tensor<1x1x1x32xf32>) -> tensor<1x1x1x32xf32>\n    %4 = tensor.empty() : tensor<666x112x112x32xf32>\n    %5 = linalg.generic {indexing_maps = [#map, #map1, #map], iterator_types = [\"parallel\", \"parallel\", \"parallel\", \"parallel\"]} ins(%1, %3 : tensor<666x112x112x32xf32>, tensor<1x1x1x32xf32>) outs(%4 : tensor<666x112x112x32xf32>) {\n    ^bb0(%in: f32, %in_0: f32, %out: f32):\n      %6 = arith.subf %in, %in_0 : f32\n      linalg.yield %6 : f32\n    } -> tensor<666x112x112x32xf32>\n    return\n  }\n}\n\n", "#map = affine_map<(d0, d1, d2, d3) -> (d3)>\n#map1 = affine_map<(d0, d1, d2, d3) -> (d0, d1, d2, d3)>\nmodule {\n  func.func @wrapper() {\n    %cst = arith.constant 2.000000e+00 : f32\n    %0 = bufferization.alloc_tensor() : tensor<666x14x14x1344xf32>\n    %1 = linalg.fill ins(%cst : f32) outs(%0 : tensor<666x14x14x1344xf32>) -> tensor<666x14x14x1344xf32>\n    %2 = bufferization.alloc_tensor() : tensor<2520x1x1x1344xf32>\n    %3 = linalg.fill ins(%cst : f32) outs(%2 : tensor<2520x1x1x1344xf32>) -> tensor<2520x1x1x1344xf32>\n    %4 = bufferization.alloc_tensor() : tensor<2520xf32>\n    %5 = linalg.fill ins(%cst : f32) outs(%4 : tensor<2520xf32>) -> tensor<2520xf32>\n    %6 = tensor.empty() : tensor<666x7x7x2520xf32>\n    %7 = linalg.generic {indexing_maps = [#map, #map1], iterator_types = [\"parallel\", \"parallel\", \"parallel\", \"parallel\"]} ins(%5 : tensor<2520xf32>) outs(%6 : tensor<666x7x7x2520xf32>) {\n    ^bb0(%in: f32, %out: f32):\n      linalg.yield %in : f32\n    } -> tensor<666x7x7x2520xf32>\n    %8 = linalg.conv_2d_nhwc_fhwc {dilations = dense<1> : tensor<2xi64>, strides = dense<2> : tensor<2xi64>} ins(%1, %3 : tensor<666x14x14x1344xf32>, tensor<2520x1x1x1344xf32>) outs(%7 : tensor<666x7x7x2520xf32>) -> tensor<666x7x7x2520xf32>\n    return\n  }\n}\n\n", "#map = affine_map<(d0, d1, d2, d3) -> (d3)>\n#map1 = affine_map<(d0, d1, d2, d3) -> (d0, d1, d2, d3)>\nmodule {\n  func.func @wrapper() {\n    %cst = arith.constant 2.000000e+00 : f32\n    %0 = bufferization.alloc_tensor() : tensor<666x56x56x96xf32>\n    %1 = linalg.fill ins(%cst : f32) outs(%0 : tensor<666x56x56x96xf32>) -> tensor<666x56x56x96xf32>\n    %2 = bufferization.alloc_tensor() : tensor<192x1x1x96xf32>\n    %3 = linalg.fill ins(%cst : f32) outs(%2 : tensor<192x1x1x96xf32>) -> tensor<192x1x1x96xf32>\n    %4 = bufferization.alloc_tensor() : tensor<192xf32>\n    %5 = linalg.fill ins(%cst : f32) outs(%4 : tensor<192xf32>) -> tensor<192xf32>\n    %6 = tensor.empty() : tensor<666x56x56x192xf32>\n    %7 = linalg.generic {indexing_maps = [#map, #map1], iterator_types = [\"parallel\", \"parallel\", \"parallel\", \"parallel\"]} ins(%5 : tensor<192xf32>) outs(%6 : tensor<666x56x56x192xf32>) {\n    ^bb0(%in: f32, %out: f32):\n      linalg.yield %in : f32\n    } -> tensor<666x56x56x192xf32>\n    %8 = linalg.conv_2d_nhwc_fhwc {dilations = dense<1> : tensor<2xi64>, strides = dense<1> : tensor<2xi64>} ins(%1, %3 : tensor<666x56x56x96xf32>, tensor<192x1x1x96xf32>) outs(%7 : tensor<666x56x56x192xf32>) -> tensor<666x56x56x192xf32>\n    return\n  }\n}\n\n", "#map = affine_map<(d0, d1, d2, d3) -> (d0, d1, d2, d3)>\n#map1 = affine_map<(d0, d1, d2, d3) -> (0, 0, 0, d3)>\nmodule {\n  func.func @wrapper() {\n    %cst = arith.constant 2.000000e+00 : f32\n    %0 = bufferization.alloc_tensor() : tensor<666x7x7x3712xf32>\n    %1 = linalg.fill ins(%cst : f32) outs(%0 : tensor<666x7x7x3712xf32>) -> tensor<666x7x7x3712xf32>\n    %2 = bufferization.alloc_tensor() : tensor<1x1x1x3712xf32>\n    %3 = linalg.fill ins(%cst : f32) outs(%2 : tensor<1x1x1x3712xf32>) -> tensor<1x1x1x3712xf32>\n    %4 = tensor.empty() : tensor<666x7x7x3712xf32>\n    %5 = linalg.generic {indexing_maps = [#map, #map1, #map], iterator_types = [\"parallel\", \"parallel\", \"parallel\", \"parallel\"]} ins(%1, %3 : tensor<666x7x7x3712xf32>, tensor<1x1x1x3712xf32>) outs(%4 : tensor<666x7x7x3712xf32>) {\n    ^bb0(%in: f32, %in_0: f32, %out: f32):\n      %6 = arith.mulf %in, %in_0 : f32\n      linalg.yield %6 : f32\n    } -> tensor<666x7x7x3712xf32>\n    return\n  }\n}\n\n", "#map = affine_map<(d0, d1, d2, d3) -> (d3)>\n#map1 = affine_map<(d0, d1, d2, d3) -> (d0, d1, d2, d3)>\nmodule {\n  func.func @wrapper() {\n    %cst = arith.constant 2.000000e+00 : f32\n    %0 = bufferization.alloc_tensor() : tensor<666x1x1x42xf32>\n    %1 = linalg.fill ins(%cst : f32) outs(%0 : tensor<666x1x1x42xf32>) -> tensor<666x1x1x42xf32>\n    %2 = bufferization.alloc_tensor() : tensor<448x1x1x42xf32>\n    %3 = linalg.fill ins(%cst : f32) outs(%2 : tensor<448x1x1x42xf32>) -> tensor<448x1x1x42xf32>\n    %4 = bufferization.alloc_tensor() : tensor<448xf32>\n    %5 = linalg.fill ins(%cst : f32) outs(%4 : tensor<448xf32>) -> tensor<448xf32>\n    %6 = tensor.empty() : tensor<666x1x1x448xf32>\n    %7 = linalg.generic {indexing_maps = [#map, #map1], iterator_types = [\"parallel\", \"parallel\", \"parallel\", \"parallel\"]} ins(%5 : tensor<448xf32>) outs(%6 : tensor<666x1x1x448xf32>) {\n    ^bb0(%in: f32, %out: f32):\n      linalg.yield %in : f32\n    } -> tensor<666x1x1x448xf32>\n    %8 = linalg.conv_2d_nhwc_fhwc {dilations = dense<1> : tensor<2xi64>, strides = dense<1> : tensor<2xi64>} ins(%1, %3 : tensor<666x1x1x42xf32>, tensor<448x1x1x42xf32>) outs(%7 : tensor<666x1x1x448xf32>) -> tensor<666x1x1x448xf32>\n    return\n  }\n}\n\n", "#map = affine_map<(d0, d1, d2, d3) -> (d3)>\n#map1 = affine_map<(d0, d1, d2, d3) -> (d0, d1, d2, d3)>\nmodule {\n  func.func @wrapper() {\n    %cst = arith.constant 2.000000e+00 : f32\n    %0 = bufferization.alloc_tensor() : tensor<666x14x14x288xf32>\n    %1 = linalg.fill ins(%cst : f32) outs(%0 : tensor<666x14x14x288xf32>) -> tensor<666x14x14x288xf32>\n    %2 = bufferization.alloc_tensor() : tensor<128x1x1x288xf32>\n    %3 = linalg.fill ins(%cst : f32) outs(%2 : tensor<128x1x1x288xf32>) -> tensor<128x1x1x288xf32>\n    %4 = bufferization.alloc_tensor() : tensor<128xf32>\n    %5 = linalg.fill ins(%cst : f32) outs(%4 : tensor<128xf32>) -> tensor<128xf32>\n    %6 = tensor.empty() : tensor<666x14x14x128xf32>\n    %7 = linalg.generic {indexing_maps = [#map, #map1], iterator_types = [\"parallel\", \"parallel\", \"parallel\", \"parallel\"]} ins(%5 : tensor<128xf32>) outs(%6 : tensor<666x14x14x128xf32>) {\n    ^bb0(%in: f32, %out: f32):\n      linalg.yield %in : f32\n    } -> tensor<666x14x14x128xf32>\n    %8 = linalg.conv_2d_nhwc_fhwc {dilations = dense<1> : tensor<2xi64>, strides = dense<1> : tensor<2xi64>} ins(%1, %3 : tensor<666x14x14x288xf32>, tensor<128x1x1x288xf32>) outs(%7 : tensor<666x14x14x128xf32>) -> tensor<666x14x14x128xf32>\n    return\n  }\n}\n\n", "#map = affine_map<(d0, d1, d2, d3) -> (d0, 0, 0, d3)>\n#map1 = affine_map<(d0, d1, d2, d3) -> (d0, d1, d2, d3)>\nmodule {\n  func.func @wrapper() {\n    %cst = arith.constant 2.000000e+00 : f32\n    %0 = bufferization.alloc_tensor() : tensor<666x1x1x38xf32>\n    %1 = linalg.fill ins(%cst : f32) outs(%0 : tensor<666x1x1x38xf32>) -> tensor<666x1x1x38xf32>\n    %2 = tensor.empty() : tensor<666x1x1x38xf32>\n    %3 = linalg.generic {indexing_maps = [#map, #map1], iterator_types = [\"parallel\", \"parallel\", \"parallel\", \"parallel\"]} ins(%1 : tensor<666x1x1x38xf32>) outs(%2 : tensor<666x1x1x38xf32>) {\n    ^bb0(%in: f32, %out: f32):\n      %cst_0 = arith.constant 0.000000e+00 : f32\n      %cst_1 = arith.constant 3.40282347E+38 : f32\n      %4 = arith.minimumf %in, %cst_1 : f32\n      %5 = arith.maximumf %4, %cst_0 : f32\n      linalg.yield %5 : f32\n    } -> tensor<666x1x1x38xf32>\n    return\n  }\n}\n\n", "module {\n  func.func @wrapper() {\n    %cst = arith.constant 2.000000e+00 : f32\n    %0 = bufferization.alloc_tensor() : tensor<666x17x17x768xf32>\n    %1 = linalg.fill ins(%cst : f32) outs(%0 : tensor<666x17x17x768xf32>) -> tensor<666x17x17x768xf32>\n    %cst_0 = arith.constant -3.40282347E+38 : f32\n    %2 = tensor.empty() : tensor<666x8x8x768xf32>\n    %3 = linalg.fill ins(%cst_0 : f32) outs(%2 : tensor<666x8x8x768xf32>) -> tensor<666x8x8x768xf32>\n    %4 = tensor.empty() : tensor<3x3xf32>\n    %5 = linalg.pooling_nhwc_max {dilations = dense<1> : vector<2xi64>, strides = dense<2> : vector<2xi64>} ins(%1, %4 : tensor<666x17x17x768xf32>, tensor<3x3xf32>) outs(%3 : tensor<666x8x8x768xf32>) -> tensor<666x8x8x768xf32>\n    return\n  }\n}\n\n", "#map = affine_map<(d0, d1, d2, d3) -> (d0, d1, d2, d3)>\nmodule {\n  func.func @wrapper() {\n    %cst = arith.constant 2.000000e+00 : f32\n    %0 = bufferization.alloc_tensor() : tensor<666x14x14x1232xf32>\n    %1 = linalg.fill ins(%cst : f32) outs(%0 : tensor<666x14x14x1232xf32>) -> tensor<666x14x14x1232xf32>\n    %2 = tensor.empty() : tensor<666x14x14x1232xf32>\n    %3 = linalg.generic {indexing_maps = [#map, #map], iterator_types = [\"parallel\", \"parallel\", \"parallel\", \"parallel\"]} ins(%1 : tensor<666x14x14x1232xf32>) outs(%2 : tensor<666x14x14x1232xf32>) {\n    ^bb0(%in: f32, %out: f32):\n      %cst_0 = arith.constant 0.000000e+00 : f32\n      %cst_1 = arith.constant 3.40282347E+38 : f32\n      %4 = arith.minimumf %in, %cst_1 : f32\n      %5 = arith.maximumf %4, %cst_0 : f32\n      linalg.yield %5 : f32\n    } -> tensor<666x14x14x1232xf32>\n    return\n  }\n}\n\n", "#map = affine_map<(d0, d1, d2, d3) -> (d3)>\n#map1 = affine_map<(d0, d1, d2, d3) -> (d0, d1, d2, d3)>\nmodule {\n  func.func @wrapper() {\n    %cst = arith.constant 2.000000e+00 : f32\n    %0 = bufferization.alloc_tensor() : tensor<666x14x14x576xf32>\n    %1 = linalg.fill ins(%cst : f32) outs(%0 : tensor<666x14x14x576xf32>) -> tensor<666x14x14x576xf32>\n    %2 = bufferization.alloc_tensor() : tensor<1296x1x1x576xf32>\n    %3 = linalg.fill ins(%cst : f32) outs(%2 : tensor<1296x1x1x576xf32>) -> tensor<1296x1x1x576xf32>\n    %4 = bufferization.alloc_tensor() : tensor<1296xf32>\n    %5 = linalg.fill ins(%cst : f32) outs(%4 : tensor<1296xf32>) -> tensor<1296xf32>\n    %6 = tensor.empty() : tensor<666x14x14x1296xf32>\n    %7 = linalg.generic {indexing_maps = [#map, #map1], iterator_types = [\"parallel\", \"parallel\", \"parallel\", \"parallel\"]} ins(%5 : tensor<1296xf32>) outs(%6 : tensor<666x14x14x1296xf32>) {\n    ^bb0(%in: f32, %out: f32):\n      linalg.yield %in : f32\n    } -> tensor<666x14x14x1296xf32>\n    %8 = linalg.conv_2d_nhwc_fhwc {dilations = dense<1> : tensor<2xi64>, strides = dense<1> : tensor<2xi64>} ins(%1, %3 : tensor<666x14x14x576xf32>, tensor<1296x1x1x576xf32>) outs(%7 : tensor<666x14x14x1296xf32>) -> tensor<666x14x14x1296xf32>\n    return\n  }\n}\n\n", "#map = affine_map<(d0) -> (d0)>\n#map1 = affine_map<(d0) -> (0)>\nmodule {\n  func.func @wrapper() {\n    %cst = arith.constant 2.000000e+00 : f32\n    %0 = bufferization.alloc_tensor() : tensor<480xf32>\n    %1 = linalg.fill ins(%cst : f32) outs(%0 : tensor<480xf32>) -> tensor<480xf32>\n    %2 = bufferization.alloc_tensor() : tensor<1xf32>\n    %3 = linalg.fill ins(%cst : f32) outs(%2 : tensor<1xf32>) -> tensor<1xf32>\n    %4 = tensor.empty() : tensor<480xf32>\n    %5 = linalg.generic {indexing_maps = [#map, #map1, #map], iterator_types = [\"parallel\"]} ins(%1, %3 : tensor<480xf32>, tensor<1xf32>) outs(%4 : tensor<480xf32>) {\n    ^bb0(%in: f32, %in_0: f32, %out: f32):\n      %6 = arith.addf %in, %in_0 : f32\n      linalg.yield %6 : f32\n    } -> tensor<480xf32>\n    return\n  }\n}\n\n", "#map = affine_map<(d0, d1, d2, d3) -> (d0, d1, d2, d3)>\nmodule {\n  func.func @wrapper() {\n    %cst = arith.constant 2.000000e+00 : f32\n    %0 = bufferization.alloc_tensor() : tensor<666x14x14x240xf32>\n    %1 = linalg.fill ins(%cst : f32) outs(%0 : tensor<666x14x14x240xf32>) -> tensor<666x14x14x240xf32>\n    %2 = tensor.empty() : tensor<666x14x14x240xf32>\n    %3 = linalg.generic {indexing_maps = [#map, #map], iterator_types = [\"parallel\", \"parallel\", \"parallel\", \"parallel\"]} ins(%1 : tensor<666x14x14x240xf32>) outs(%2 : tensor<666x14x14x240xf32>) {\n    ^bb0(%in: f32, %out: f32):\n      %cst_0 = arith.constant 0.000000e+00 : f32\n      %cst_1 = arith.constant 3.40282347E+38 : f32\n      %4 = arith.minimumf %in, %cst_1 : f32\n      %5 = arith.maximumf %4, %cst_0 : f32\n      linalg.yield %5 : f32\n    } -> tensor<666x14x14x240xf32>\n    return\n  }\n}\n\n", "#map = affine_map<(d0, d1, d2, d3) -> (d0, d1, d2, d3)>\n#map1 = affine_map<(d0, d1, d2, d3) -> (0, 0, 0, d3)>\nmodule {\n  func.func @wrapper() {\n    %cst = arith.constant 2.000000e+00 : f32\n    %0 = bufferization.alloc_tensor() : tensor<666x7x7x1472xf32>\n    %1 = linalg.fill ins(%cst : f32) outs(%0 : tensor<666x7x7x1472xf32>) -> tensor<666x7x7x1472xf32>\n    %2 = bufferization.alloc_tensor() : tensor<1x1x1x1472xf32>\n    %3 = linalg.fill ins(%cst : f32) outs(%2 : tensor<1x1x1x1472xf32>) -> tensor<1x1x1x1472xf32>\n    %4 = tensor.empty() : tensor<666x7x7x1472xf32>\n    %5 = linalg.generic {indexing_maps = [#map, #map1, #map], iterator_types = [\"parallel\", \"parallel\", \"parallel\", \"parallel\"]} ins(%1, %3 : tensor<666x7x7x1472xf32>, tensor<1x1x1x1472xf32>) outs(%4 : tensor<666x7x7x1472xf32>) {\n    ^bb0(%in: f32, %in_0: f32, %out: f32):\n      %6 = arith.mulf %in, %in_0 : f32\n      linalg.yield %6 : f32\n    } -> tensor<666x7x7x1472xf32>\n    return\n  }\n}\n\n", "#map = affine_map<(d0, d1, d2, d3) -> (d3)>\n#map1 = affine_map<(d0, d1, d2, d3) -> (d0, d1, d2, d3)>\nmodule {\n  func.func @wrapper() {\n    %cst = arith.constant 2.000000e+00 : f32\n    %0 = bufferization.alloc_tensor() : tensor<666x17x17x128xf32>\n    %1 = linalg.fill ins(%cst : f32) outs(%0 : tensor<666x17x17x128xf32>) -> tensor<666x17x17x128xf32>\n    %2 = bufferization.alloc_tensor() : tensor<192x1x7x128xf32>\n    %3 = linalg.fill ins(%cst : f32) outs(%2 : tensor<192x1x7x128xf32>) -> tensor<192x1x7x128xf32>\n    %4 = bufferization.alloc_tensor() : tensor<192xf32>\n    %5 = linalg.fill ins(%cst : f32) outs(%4 : tensor<192xf32>) -> tensor<192xf32>\n    %cst_0 = arith.constant 0.000000e+00 : f32\n    %padded = tensor.pad %1 low[0, 0, 3, 0] high[0, 0, 3, 0] {\n    ^bb0(%arg0: index, %arg1: index, %arg2: index, %arg3: index):\n      tensor.yield %cst_0 : f32\n    } : tensor<666x17x17x128xf32> to tensor<666x17x23x128xf32>\n    %6 = tensor.empty() : tensor<666x17x17x192xf32>\n    %7 = linalg.generic {indexing_maps = [#map, #map1], iterator_types = [\"parallel\", \"parallel\", \"parallel\", \"parallel\"]} ins(%5 : tensor<192xf32>) outs(%6 : tensor<666x17x17x192xf32>) {\n    ^bb0(%in: f32, %out: f32):\n      linalg.yield %in : f32\n    } -> tensor<666x17x17x192xf32>\n    %8 = linalg.conv_2d_nhwc_fhwc {dilations = dense<1> : tensor<2xi64>, strides = dense<1> : tensor<2xi64>} ins(%padded, %3 : tensor<666x17x23x128xf32>, tensor<192x1x7x128xf32>) outs(%7 : tensor<666x17x17x192xf32>) -> tensor<666x17x17x192xf32>\n    return\n  }\n}\n\n", "#map = affine_map<(d0, d1, d2, d3) -> (d0, d1, d2, d3)>\nmodule {\n  func.func @wrapper() {\n    %cst = arith.constant 2.000000e+00 : f32\n    %0 = bufferization.alloc_tensor() : tensor<666x14x14x1568xf32>\n    %1 = linalg.fill ins(%cst : f32) outs(%0 : tensor<666x14x14x1568xf32>) -> tensor<666x14x14x1568xf32>\n    %2 = tensor.empty() : tensor<666x14x14x1568xf32>\n    %3 = linalg.generic {indexing_maps = [#map, #map], iterator_types = [\"parallel\", \"parallel\", \"parallel\", \"parallel\"]} ins(%1 : tensor<666x14x14x1568xf32>) outs(%2 : tensor<666x14x14x1568xf32>) {\n    ^bb0(%in: f32, %out: f32):\n      %cst_0 = arith.constant 0.000000e+00 : f32\n      %cst_1 = arith.constant 3.40282347E+38 : f32\n      %4 = arith.minimumf %in, %cst_1 : f32\n      %5 = arith.maximumf %4, %cst_0 : f32\n      linalg.yield %5 : f32\n    } -> tensor<666x14x14x1568xf32>\n    return\n  }\n}\n\n", "#map = affine_map<(d0, d1, d2, d3) -> (d0, d1, d2, d3)>\n#map1 = affine_map<(d0, d1, d2, d3) -> (0, 0, 0, d3)>\nmodule {\n  func.func @wrapper() {\n    %cst = arith.constant 2.000000e+00 : f32\n    %0 = bufferization.alloc_tensor() : tensor<666x14x14x888xf32>\n    %1 = linalg.fill ins(%cst : f32) outs(%0 : tensor<666x14x14x888xf32>) -> tensor<666x14x14x888xf32>\n    %2 = bufferization.alloc_tensor() : tensor<1x1x1x888xf32>\n    %3 = linalg.fill ins(%cst : f32) outs(%2 : tensor<1x1x1x888xf32>) -> tensor<1x1x1x888xf32>\n    %4 = tensor.empty() : tensor<666x14x14x888xf32>\n    %5 = linalg.generic {indexing_maps = [#map, #map1, #map], iterator_types = [\"parallel\", \"parallel\", \"parallel\", \"parallel\"]} ins(%1, %3 : tensor<666x14x14x888xf32>, tensor<1x1x1x888xf32>) outs(%4 : tensor<666x14x14x888xf32>) {\n    ^bb0(%in: f32, %in_0: f32, %out: f32):\n      %6 = arith.mulf %in, %in_0 : f32\n      linalg.yield %6 : f32\n    } -> tensor<666x14x14x888xf32>\n    return\n  }\n}\n\n", "#map = affine_map<(d0, d1, d2, d3) -> (d0, d1, d2, d3)>\nmodule {\n  func.func @wrapper() {\n    %cst = arith.constant 2.000000e+00 : f32\n    %0 = bufferization.alloc_tensor() : tensor<666x14x14x560xf32>\n    %1 = linalg.fill ins(%cst : f32) outs(%0 : tensor<666x14x14x560xf32>) -> tensor<666x14x14x560xf32>\n    %2 = bufferization.alloc_tensor() : tensor<666x14x14x560xf32>\n    %3 = linalg.fill ins(%cst : f32) outs(%2 : tensor<666x14x14x560xf32>) -> tensor<666x14x14x560xf32>\n    %4 = tensor.empty() : tensor<666x14x14x560xf32>\n    %5 = linalg.generic {indexing_maps = [#map, #map, #map], iterator_types = [\"parallel\", \"parallel\", \"parallel\", \"parallel\"]} ins(%1, %3 : tensor<666x14x14x560xf32>, tensor<666x14x14x560xf32>) outs(%4 : tensor<666x14x14x560xf32>) {\n    ^bb0(%in: f32, %in_0: f32, %out: f32):\n      %6 = arith.addf %in, %in_0 : f32\n      linalg.yield %6 : f32\n    } -> tensor<666x14x14x560xf32>\n    return\n  }\n}\n\n", "#map = affine_map<(d0, d1, d2, d3) -> (d0, d1, d2, d3)>\nmodule {\n  func.func @wrapper() {\n    %cst = arith.constant 2.000000e+00 : f32\n    %0 = bufferization.alloc_tensor() : tensor<666x7x7x1248xf32>\n    %1 = linalg.fill ins(%cst : f32) outs(%0 : tensor<666x7x7x1248xf32>) -> tensor<666x7x7x1248xf32>\n    %2 = tensor.empty() : tensor<666x7x7x1248xf32>\n    %3 = linalg.generic {indexing_maps = [#map, #map], iterator_types = [\"parallel\", \"parallel\", \"parallel\", \"parallel\"]} ins(%1 : tensor<666x7x7x1248xf32>) outs(%2 : tensor<666x7x7x1248xf32>) {\n    ^bb0(%in: f32, %out: f32):\n      %cst_0 = arith.constant 0.000000e+00 : f32\n      %cst_1 = arith.constant 3.40282347E+38 : f32\n      %4 = arith.minimumf %in, %cst_1 : f32\n      %5 = arith.maximumf %4, %cst_0 : f32\n      linalg.yield %5 : f32\n    } -> tensor<666x7x7x1248xf32>\n    return\n  }\n}\n\n", "#map = affine_map<(d0, d1, d2, d3) -> (d0, d1, d2, d3)>\nmodule {\n  func.func @wrapper() {\n    %cst = arith.constant 2.000000e+00 : f32\n    %0 = bufferization.alloc_tensor() : tensor<666x14x14x2048xf32>\n    %1 = linalg.fill ins(%cst : f32) outs(%0 : tensor<666x14x14x2048xf32>) -> tensor<666x14x14x2048xf32>\n    %2 = tensor.empty() : tensor<666x14x14x2048xf32>\n    %3 = linalg.generic {indexing_maps = [#map, #map], iterator_types = [\"parallel\", \"parallel\", \"parallel\", \"parallel\"]} ins(%1 : tensor<666x14x14x2048xf32>) outs(%2 : tensor<666x14x14x2048xf32>) {\n    ^bb0(%in: f32, %out: f32):\n      %4 = math.erf %in : f32\n      linalg.yield %4 : f32\n    } -> tensor<666x14x14x2048xf32>\n    return\n  }\n}\n\n", "#map = affine_map<(d0, d1, d2, d3) -> (d0, d1, d2, d3)>\n#map1 = affine_map<(d0, d1, d2, d3) -> (0, 0, 0, d3)>\nmodule {\n  func.func @wrapper() {\n    %cst = arith.constant 2.000000e+00 : f32\n    %0 = bufferization.alloc_tensor() : tensor<666x7x7x1008xf32>\n    %1 = linalg.fill ins(%cst : f32) outs(%0 : tensor<666x7x7x1008xf32>) -> tensor<666x7x7x1008xf32>\n    %2 = bufferization.alloc_tensor() : tensor<1x1x1x1008xf32>\n    %3 = linalg.fill ins(%cst : f32) outs(%2 : tensor<1x1x1x1008xf32>) -> tensor<1x1x1x1008xf32>\n    %4 = tensor.empty() : tensor<666x7x7x1008xf32>\n    %5 = linalg.generic {indexing_maps = [#map, #map1, #map], iterator_types = [\"parallel\", \"parallel\", \"parallel\", \"parallel\"]} ins(%1, %3 : tensor<666x7x7x1008xf32>, tensor<1x1x1x1008xf32>) outs(%4 : tensor<666x7x7x1008xf32>) {\n    ^bb0(%in: f32, %in_0: f32, %out: f32):\n      %6 = arith.addf %in, %in_0 : f32\n      linalg.yield %6 : f32\n    } -> tensor<666x7x7x1008xf32>\n    return\n  }\n}\n\n", "#map = affine_map<(d0, d1, d2, d3) -> (d0, d1, d2, d3)>\n#map1 = affine_map<(d0, d1, d2, d3) -> (0, 0, 0, d3)>\nmodule {\n  func.func @wrapper() {\n    %cst = arith.constant 2.000000e+00 : f32\n    %0 = bufferization.alloc_tensor() : tensor<666x28x28x104xf32>\n    %1 = linalg.fill ins(%cst : f32) outs(%0 : tensor<666x28x28x104xf32>) -> tensor<666x28x28x104xf32>\n    %2 = bufferization.alloc_tensor() : tensor<1x1x1x104xf32>\n    %3 = linalg.fill ins(%cst : f32) outs(%2 : tensor<1x1x1x104xf32>) -> tensor<1x1x1x104xf32>\n    %4 = tensor.empty() : tensor<666x28x28x104xf32>\n    %5 = linalg.generic {indexing_maps = [#map, #map1, #map], iterator_types = [\"parallel\", \"parallel\", \"parallel\", \"parallel\"]} ins(%1, %3 : tensor<666x28x28x104xf32>, tensor<1x1x1x104xf32>) outs(%4 : tensor<666x28x28x104xf32>) {\n    ^bb0(%in: f32, %in_0: f32, %out: f32):\n      %6 = arith.subf %in, %in_0 : f32\n      linalg.yield %6 : f32\n    } -> tensor<666x28x28x104xf32>\n    return\n  }\n}\n\n", "#map = affine_map<(d0, d1, d2, d3) -> (d0, d1, d2, d3)>\nmodule {\n  func.func @wrapper() {\n    %cst = arith.constant 2.000000e+00 : f32\n    %0 = bufferization.alloc_tensor() : tensor<666x28x28x104xf32>\n    %1 = linalg.fill ins(%cst : f32) outs(%0 : tensor<666x28x28x104xf32>) -> tensor<666x28x28x104xf32>\n    %2 = bufferization.alloc_tensor() : tensor<666x28x28x104xf32>\n    %3 = linalg.fill ins(%cst : f32) outs(%2 : tensor<666x28x28x104xf32>) -> tensor<666x28x28x104xf32>\n    %4 = tensor.empty() : tensor<666x28x28x104xf32>\n    %5 = linalg.generic {indexing_maps = [#map, #map, #map], iterator_types = [\"parallel\", \"parallel\", \"parallel\", \"parallel\"]} ins(%1, %3 : tensor<666x28x28x104xf32>, tensor<666x28x28x104xf32>) outs(%4 : tensor<666x28x28x104xf32>) {\n    ^bb0(%in: f32, %in_0: f32, %out: f32):\n      %6 = arith.addf %in, %in_0 : f32\n      linalg.yield %6 : f32\n    } -> tensor<666x28x28x104xf32>\n    return\n  }\n}\n\n", "#map = affine_map<(d0, d1, d2, d3) -> (d3)>\n#map1 = affine_map<(d0, d1, d2, d3) -> (d0, d1, d2, d3)>\nmodule {\n  func.func @wrapper() {\n    %cst = arith.constant 2.000000e+00 : f32\n    %0 = bufferization.alloc_tensor() : tensor<666x1x1x8xf32>\n    %1 = linalg.fill ins(%cst : f32) outs(%0 : tensor<666x1x1x8xf32>) -> tensor<666x1x1x8xf32>\n    %2 = bufferization.alloc_tensor() : tensor<72x1x1x8xf32>\n    %3 = linalg.fill ins(%cst : f32) outs(%2 : tensor<72x1x1x8xf32>) -> tensor<72x1x1x8xf32>\n    %4 = bufferization.alloc_tensor() : tensor<72xf32>\n    %5 = linalg.fill ins(%cst : f32) outs(%4 : tensor<72xf32>) -> tensor<72xf32>\n    %6 = tensor.empty() : tensor<666x1x1x72xf32>\n    %7 = linalg.generic {indexing_maps = [#map, #map1], iterator_types = [\"parallel\", \"parallel\", \"parallel\", \"parallel\"]} ins(%5 : tensor<72xf32>) outs(%6 : tensor<666x1x1x72xf32>) {\n    ^bb0(%in: f32, %out: f32):\n      linalg.yield %in : f32\n    } -> tensor<666x1x1x72xf32>\n    %8 = linalg.conv_2d_nhwc_fhwc {dilations = dense<1> : tensor<2xi64>, strides = dense<1> : tensor<2xi64>} ins(%1, %3 : tensor<666x1x1x8xf32>, tensor<72x1x1x8xf32>) outs(%7 : tensor<666x1x1x72xf32>) -> tensor<666x1x1x72xf32>\n    return\n  }\n}\n\n"]}