#map = affine_map<(d0, d1) -> (d0 + d1)>
#map1 = affine_map<(d0, d1) -> (d0 * 2 + d1)>
module attributes {tf.versions = {bad_consumers = [], min_consumer = 12 : i32, producer = 1482 : i32}, tf_saved_model.semantics} {
  "tf_saved_model.global_tensor"() {is_mutable, sym_name = "__sm_node26__model.layer-0.kernel", tf_saved_model.exported_names = [], type = tensor<3x3x3x2xf32>, value = dense<[[[[… > : tensor<3x3x3x2xf32>} : () -> ()
  "tf_saved_model.global_tensor"() {is_mutable, sym_name = "__sm_node27__model.layer-0.bias", tf_saved_model.exported_names = [], type = tensor<2xf32>, value = dense<0.000000e+00> : tensor<2xf32>} : () -> ()
  "tf_saved_model.global_tensor"() {is_mutable, sym_name = "__sm_node41__model.layer-2.kernel", tf_saved_model.exported_names = [], type = tensor<3x3x2x3xf32>, value = dense<[[[[… > : tensor<3x3x2x3xf32>} : () -> ()
  "tf_saved_model.global_tensor"() {is_mutable, sym_name = "__sm_node42__model.layer-2.bias", tf_saved_model.exported_names = [], type = tensor<3xf32>, value = dense<0.000000e+00> : tensor<3xf32>} : () -> ()
  "tf_saved_model.global_tensor"() {is_mutable, sym_name = "__sm_node62__model.layer-5.kernel", tf_saved_model.exported_names = [], type = tensor<75x4xf32>, value = dense<"…"> : tensor<75x4xf32>} : () -> ()
  "tf_saved_model.global_tensor"() {is_mutable, sym_name = "__sm_node63__model.layer-5.bias", tf_saved_model.exported_names = [], type = tensor<4xf32>, value = dense<0.000000e+00> : tensor<4xf32>} : () -> ()
  "tf_saved_model.global_tensor"() {is_mutable, sym_name = "__sm_node70__model.layer-6.kernel", tf_saved_model.exported_names = [], type = tensor<4x1xf32>, value = dense<[[0.725377917], [-0.0616925955], [0.417314529], [0.662358046]]> : tensor<4x1xf32>} : () -> ()
  "tf_saved_model.global_tensor"() {is_mutable, sym_name = "__sm_node71__model.layer-6.bias", tf_saved_model.exported_names = [], type = tensor<1xf32>, value = dense<0.000000e+00> : tensor<1xf32>} : () -> ()
  func.func @__inference_my_predict_1640(%arg0: tensor<16x28x28x3xf32> {tf._user_specified_name = "x", tf_saved_model.index_path = [0]}, %arg1: tensor<!tf_type.resource<tensor<3x3x3x2xf32>>> {tf._user_specified_name = "resource", tf_saved_model.bound_input = @"__sm_node26__model.layer-0.kernel"}, %arg2: tensor<!tf_type.resource<tensor<2xf32>>> {tf._user_specified_name = "resource", tf_saved_model.bound_input = @"__sm_node27__model.layer-0.bias"}, %arg3: tensor<!tf_type.resource<tensor<3x3x2x3xf32>>> {tf._user_specified_name = "resource", tf_saved_model.bound_input = @"__sm_node41__model.layer-2.kernel"}, %arg4: tensor<!tf_type.resource<tensor<3xf32>>> {tf._user_specified_name = "resource", tf_saved_model.bound_input = @"__sm_node42__model.layer-2.bias"}, %arg5: tensor<!tf_type.resource<tensor<75x4xf32>>> {tf._user_specified_name = "resource", tf_saved_model.bound_input = @"__sm_node62__model.layer-5.kernel"}, %arg6: tensor<!tf_type.resource<tensor<4xf32>>> {tf._user_specified_name = "resource", tf_saved_model.bound_input = @"__sm_node63__model.layer-5.bias"}, %arg7: tensor<!tf_type.resource<tensor<4x1xf32>>> {tf._user_specified_name = "resource", tf_saved_model.bound_input = @"__sm_node70__model.layer-6.kernel"}, %arg8: tensor<!tf_type.resource<tensor<1xf32>>> {tf._user_specified_name = "resource", tf_saved_model.bound_input = @"__sm_node71__model.layer-6.bias"}) -> (tensor<16x1xf32> {tf_saved_model.index_path = []}) attributes {tf._construction_context = "kEagerRuntime", tf._input_shapes = [#tf_type.shape<16x28x28x3>, #tf_type.shape<>, #tf_type.shape<>, #tf_type.shape<>, #tf_type.shape<>, #tf_type.shape<>, #tf_type.shape<>, #tf_type.shape<>, #tf_type.shape<>], tf.signature.is_stateful, tf_saved_model.exported_names = ["my_predict"]} {
    %cst = arith.constant 0.000000e+00 : f32
    %cst_0 = arith.constant 3.40282347E+38 : f32
    %cst_1 = arith.constant -3.40282347E+38 : f32
    %cst_2 = arith.constant 1.000000e+00 : f32
    %0 = bufferization.to_memref %arg0 : memref<16x28x28x3xf32>
    %1 = "tf.ReadVariableOp"(%arg4) : (tensor<!tf_type.resource<tensor<3xf32>>>) -> tensor<3xf32>
    %2 = bufferization.to_memref %1 : memref<3xf32>
    %3 = "tf.ReadVariableOp"(%arg3) : (tensor<!tf_type.resource<tensor<3x3x2x3xf32>>>) -> tensor<3x3x2x3xf32>
    %4 = bufferization.to_memref %3 : memref<3x3x2x3xf32>
    %5 = "tf.ReadVariableOp"(%arg2) : (tensor<!tf_type.resource<tensor<2xf32>>>) -> tensor<2xf32>
    %6 = bufferization.to_memref %5 : memref<2xf32>
    %7 = "tf.ReadVariableOp"(%arg1) : (tensor<!tf_type.resource<tensor<3x3x3x2xf32>>>) -> tensor<3x3x3x2xf32>
    %8 = bufferization.to_memref %7 : memref<3x3x3x2xf32>
    %9 = "tf.ReadVariableOp"(%arg8) : (tensor<!tf_type.resource<tensor<1xf32>>>) -> tensor<1xf32>
    %10 = "tf.ReadVariableOp"(%arg7) : (tensor<!tf_type.resource<tensor<4x1xf32>>>) -> tensor<4x1xf32>
    %11 = "tf.ReadVariableOp"(%arg6) : (tensor<!tf_type.resource<tensor<4xf32>>>) -> tensor<4xf32>
    %12 = bufferization.to_memref %11 : memref<4xf32>
    %13 = "tf.ReadVariableOp"(%arg5) : (tensor<!tf_type.resource<tensor<75x4xf32>>>) -> tensor<75x4xf32>
    %alloc = memref.alloc() {alignment = 64 : i64} : memref<16x26x26x2xf32>
    affine.for %arg9 = 0 to 16 {
      affine.for %arg10 = 0 to 26 {
        affine.for %arg11 = 0 to 26 {
          affine.for %arg12 = 0 to 2 {
            affine.store %cst, %alloc[%arg9, %arg10, %arg11, %arg12] : memref<16x26x26x2xf32>
          }
        }
      }
    }
    %alloc_3 = memref.alloc() {alignment = 64 : i64} : memref<16x26x26x2xf32>
    memref.copy %alloc, %alloc_3 : memref<16x26x26x2xf32> to memref<16x26x26x2xf32>
    affine.for %arg9 = 0 to 16 {
      affine.for %arg10 = 0 to 26 {
        affine.for %arg11 = 0 to 26 {
          affine.for %arg12 = 0 to 2 {
            affine.for %arg13 = 0 to 3 {
              affine.for %arg14 = 0 to 3 {
                affine.for %arg15 = 0 to 3 {
                  %26 = affine.apply #map(%arg10, %arg13)
                  %27 = affine.apply #map(%arg11, %arg14)
                  %28 = affine.load %0[%arg9, %26, %27, %arg15] : memref<16x28x28x3xf32>
                  %29 = affine.load %8[%arg13, %arg14, %arg15, %arg12] : memref<3x3x3x2xf32>
                  %30 = affine.load %alloc_3[%arg9, %arg10, %arg11, %arg12] : memref<16x26x26x2xf32>
                  %31 = arith.mulf %28, %29 : f32
                  %32 = arith.addf %30, %31 : f32
                  affine.store %32, %alloc_3[%arg9, %arg10, %arg11, %arg12] : memref<16x26x26x2xf32>
                }
              }
            }
          }
        }
      }
    }
    %alloc_4 = memref.alloc() {alignment = 64 : i64} : memref<16x26x26x2xf32>
    affine.for %arg9 = 0 to 16 {
      affine.for %arg10 = 0 to 26 {
        affine.for %arg11 = 0 to 26 {
          affine.for %arg12 = 0 to 2 {
            %26 = affine.load %6[%arg12] : memref<2xf32>
            %27 = affine.load %alloc_3[%arg9, %arg10, %arg11, %arg12] : memref<16x26x26x2xf32>
            %28 = arith.addf %26, %27 : f32
            %29 = arith.minimumf %28, %cst_0 : f32
            %30 = arith.maximumf %29, %cst : f32
            affine.store %30, %alloc_4[%arg9, %arg10, %arg11, %arg12] : memref<16x26x26x2xf32>
          }
        }
      }
    }
    %alloc_5 = memref.alloc() {alignment = 64 : i64} : memref<16x13x13x2xf32>
    affine.for %arg9 = 0 to 16 {
      affine.for %arg10 = 0 to 13 {
        affine.for %arg11 = 0 to 13 {
          affine.for %arg12 = 0 to 2 {
            affine.store %cst_1, %alloc_5[%arg9, %arg10, %arg11, %arg12] : memref<16x13x13x2xf32>
          }
        }
      }
    }
    %alloc_6 = memref.alloc() {alignment = 64 : i64} : memref<16x13x13x2xf32>
    memref.copy %alloc_5, %alloc_6 : memref<16x13x13x2xf32> to memref<16x13x13x2xf32>
    affine.for %arg9 = 0 to 16 {
      affine.for %arg10 = 0 to 13 {
        affine.for %arg11 = 0 to 13 {
          affine.for %arg12 = 0 to 2 {
            affine.for %arg13 = 0 to 2 {
              affine.for %arg14 = 0 to 2 {
                %26 = affine.apply #map1(%arg10, %arg13)
                %27 = affine.apply #map1(%arg11, %arg14)
                %28 = affine.load %alloc_4[%arg9, %26, %27, %arg12] : memref<16x26x26x2xf32>
                %29 = affine.load %alloc_6[%arg9, %arg10, %arg11, %arg12] : memref<16x13x13x2xf32>
                %30 = arith.maximumf %29, %28 : f32
                affine.store %30, %alloc_6[%arg9, %arg10, %arg11, %arg12] : memref<16x13x13x2xf32>
              }
            }
          }
        }
      }
    }
    %alloc_7 = memref.alloc() {alignment = 64 : i64} : memref<16x11x11x3xf32>
    affine.for %arg9 = 0 to 16 {
      affine.for %arg10 = 0 to 11 {
        affine.for %arg11 = 0 to 11 {
          affine.for %arg12 = 0 to 3 {
            affine.store %cst, %alloc_7[%arg9, %arg10, %arg11, %arg12] : memref<16x11x11x3xf32>
          }
        }
      }
    }
    %alloc_8 = memref.alloc() {alignment = 64 : i64} : memref<16x11x11x3xf32>
    memref.copy %alloc_7, %alloc_8 : memref<16x11x11x3xf32> to memref<16x11x11x3xf32>
    affine.for %arg9 = 0 to 16 {
      affine.for %arg10 = 0 to 11 {
        affine.for %arg11 = 0 to 11 {
          affine.for %arg12 = 0 to 3 {
            affine.for %arg13 = 0 to 3 {
              affine.for %arg14 = 0 to 3 {
                affine.for %arg15 = 0 to 2 {
                  %26 = affine.apply #map(%arg10, %arg13)
                  %27 = affine.apply #map(%arg11, %arg14)
                  %28 = affine.load %alloc_6[%arg9, %26, %27, %arg15] : memref<16x13x13x2xf32>
                  %29 = affine.load %4[%arg13, %arg14, %arg15, %arg12] : memref<3x3x2x3xf32>
                  %30 = affine.load %alloc_8[%arg9, %arg10, %arg11, %arg12] : memref<16x11x11x3xf32>
                  %31 = arith.mulf %28, %29 : f32
                  %32 = arith.addf %30, %31 : f32
                  affine.store %32, %alloc_8[%arg9, %arg10, %arg11, %arg12] : memref<16x11x11x3xf32>
                }
              }
            }
          }
        }
      }
    }
    %alloc_9 = memref.alloc() {alignment = 64 : i64} : memref<16x11x11x3xf32>
    affine.for %arg9 = 0 to 16 {
      affine.for %arg10 = 0 to 11 {
        affine.for %arg11 = 0 to 11 {
          affine.for %arg12 = 0 to 3 {
            %26 = affine.load %2[%arg12] : memref<3xf32>
            %27 = affine.load %alloc_8[%arg9, %arg10, %arg11, %arg12] : memref<16x11x11x3xf32>
            %28 = arith.addf %26, %27 : f32
            %29 = arith.minimumf %28, %cst_0 : f32
            %30 = arith.maximumf %29, %cst : f32
            affine.store %30, %alloc_9[%arg9, %arg10, %arg11, %arg12] : memref<16x11x11x3xf32>
          }
        }
      }
    }
    %alloc_10 = memref.alloc() {alignment = 64 : i64} : memref<16x5x5x3xf32>
    affine.for %arg9 = 0 to 16 {
      affine.for %arg10 = 0 to 5 {
        affine.for %arg11 = 0 to 5 {
          affine.for %arg12 = 0 to 3 {
            affine.store %cst_1, %alloc_10[%arg9, %arg10, %arg11, %arg12] : memref<16x5x5x3xf32>
          }
        }
      }
    }
    %alloc_11 = memref.alloc() {alignment = 64 : i64} : memref<16x5x5x3xf32>
    memref.copy %alloc_10, %alloc_11 : memref<16x5x5x3xf32> to memref<16x5x5x3xf32>
    affine.for %arg9 = 0 to 16 {
      affine.for %arg10 = 0 to 5 {
        affine.for %arg11 = 0 to 5 {
          affine.for %arg12 = 0 to 3 {
            affine.for %arg13 = 0 to 2 {
              affine.for %arg14 = 0 to 2 {
                %26 = affine.apply #map1(%arg10, %arg13)
                %27 = affine.apply #map1(%arg11, %arg14)
                %28 = affine.load %alloc_9[%arg9, %26, %27, %arg12] : memref<16x11x11x3xf32>
                %29 = affine.load %alloc_11[%arg9, %arg10, %arg11, %arg12] : memref<16x5x5x3xf32>
                %30 = arith.maximumf %29, %28 : f32
                affine.store %30, %alloc_11[%arg9, %arg10, %arg11, %arg12] : memref<16x5x5x3xf32>
              }
            }
          }
        }
      }
    }
    %14 = bufferization.to_tensor %alloc_11 : memref<16x5x5x3xf32>
    %collapsed = tensor.collapse_shape %14 [[0], [1, 2, 3]] : tensor<16x5x5x3xf32> into tensor<16x75xf32>
    %expanded = tensor.expand_shape %collapsed [[0, 1], [2]] : tensor<16x75xf32> into tensor<1x16x75xf32>
    %15 = bufferization.to_memref %expanded : memref<1x16x75xf32>
    %expanded_12 = tensor.expand_shape %13 [[0, 1], [2]] : tensor<75x4xf32> into tensor<1x75x4xf32>
    %16 = bufferization.to_memref %expanded_12 : memref<1x75x4xf32>
    %alloc_13 = memref.alloc() {alignment = 64 : i64} : memref<1x16x4xf32>
    affine.for %arg9 = 0 to 1 {
      affine.for %arg10 = 0 to 16 {
        affine.for %arg11 = 0 to 4 {
          affine.store %cst, %alloc_13[%arg9, %arg10, %arg11] : memref<1x16x4xf32>
        }
      }
    }
    %alloc_14 = memref.alloc() {alignment = 64 : i64} : memref<1x16x4xf32>
    memref.copy %alloc_13, %alloc_14 : memref<1x16x4xf32> to memref<1x16x4xf32>
    affine.for %arg9 = 0 to 1 {
      affine.for %arg10 = 0 to 16 {
        affine.for %arg11 = 0 to 4 {
          affine.for %arg12 = 0 to 75 {
            %26 = affine.load %15[%arg9, %arg10, %arg12] : memref<1x16x75xf32>
            %27 = affine.load %16[%arg9, %arg12, %arg11] : memref<1x75x4xf32>
            %28 = affine.load %alloc_14[%arg9, %arg10, %arg11] : memref<1x16x4xf32>
            %29 = arith.mulf %26, %27 : f32
            %30 = arith.addf %28, %29 : f32
            affine.store %30, %alloc_14[%arg9, %arg10, %arg11] : memref<1x16x4xf32>
          }
        }
      }
    }
    %17 = bufferization.to_tensor %alloc_14 : memref<1x16x4xf32>
    %collapsed_15 = tensor.collapse_shape %17 [[0, 1], [2]] : tensor<1x16x4xf32> into tensor<16x4xf32>
    %18 = bufferization.to_memref %collapsed_15 : memref<16x4xf32>
    %alloc_16 = memref.alloc() {alignment = 64 : i64} : memref<16x4xf32>
    affine.for %arg9 = 0 to 16 {
      affine.for %arg10 = 0 to 4 {
        %26 = affine.load %18[%arg9, %arg10] : memref<16x4xf32>
        %27 = affine.load %12[%arg10] : memref<4xf32>
        %28 = arith.addf %26, %27 : f32
        %29 = arith.minimumf %28, %cst_0 : f32
        %30 = arith.maximumf %29, %cst : f32
        affine.store %30, %alloc_16[%arg9, %arg10] : memref<16x4xf32>
      }
    }
    %19 = bufferization.to_tensor %alloc_16 : memref<16x4xf32>
    %expanded_17 = tensor.expand_shape %19 [[0, 1], [2]] : tensor<16x4xf32> into tensor<1x16x4xf32>
    %20 = bufferization.to_memref %expanded_17 : memref<1x16x4xf32>
    %expanded_18 = tensor.expand_shape %10 [[0, 1], [2]] : tensor<4x1xf32> into tensor<1x4x1xf32>
    %21 = bufferization.to_memref %expanded_18 : memref<1x4x1xf32>
    %alloc_19 = memref.alloc() {alignment = 64 : i64} : memref<1x16x1xf32>
    affine.for %arg9 = 0 to 1 {
      affine.for %arg10 = 0 to 16 {
        affine.for %arg11 = 0 to 1 {
          affine.store %cst, %alloc_19[%arg9, %arg10, %arg11] : memref<1x16x1xf32>
        }
      }
    }
    %alloc_20 = memref.alloc() {alignment = 64 : i64} : memref<1x16x1xf32>
    memref.copy %alloc_19, %alloc_20 : memref<1x16x1xf32> to memref<1x16x1xf32>
    affine.for %arg9 = 0 to 1 {
      affine.for %arg10 = 0 to 16 {
        affine.for %arg11 = 0 to 1 {
          affine.for %arg12 = 0 to 4 {
            %26 = affine.load %20[%arg9, %arg10, %arg12] : memref<1x16x4xf32>
            %27 = affine.load %21[%arg9, %arg12, %arg11] : memref<1x4x1xf32>
            %28 = affine.load %alloc_20[%arg9, %arg10, %arg11] : memref<1x16x1xf32>
            %29 = arith.mulf %26, %27 : f32
            %30 = arith.addf %28, %29 : f32
            affine.store %30, %alloc_20[%arg9, %arg10, %arg11] : memref<1x16x1xf32>
          }
        }
      }
    }
    %22 = bufferization.to_tensor %alloc_20 : memref<1x16x1xf32>
    %collapsed_21 = tensor.collapse_shape %22 [[0, 1, 2]] : tensor<1x16x1xf32> into tensor<16xf32>
    %23 = bufferization.to_memref %collapsed_21 : memref<16xf32>
    %collapsed_22 = tensor.collapse_shape %9 [] : tensor<1xf32> into tensor<f32>
    %24 = bufferization.to_memref %collapsed_22 : memref<f32>
    %alloc_23 = memref.alloc() {alignment = 64 : i64} : memref<16xf32>
    affine.for %arg9 = 0 to 16 {
      %26 = affine.load %23[%arg9] : memref<16xf32>
      %27 = affine.load %24[] : memref<f32>
      %28 = arith.addf %26, %27 : f32
      %29 = arith.subf %28, %28 : f32
      %30 = math.exp %29 : f32
      %31 = arith.divf %cst_2, %30 : f32
      %32 = arith.mulf %30, %31 : f32
      affine.store %32, %alloc_23[%arg9] : memref<16xf32>
    }
    %25 = bufferization.to_tensor %alloc_23 : memref<16xf32>
    %expanded_24 = tensor.expand_shape %25 [[0, 1]] : tensor<16xf32> into tensor<16x1xf32>
    return %expanded_24 : tensor<16x1xf32>
  }
}

