module attributes {tf.versions = {bad_consumers = [], min_consumer = 12 : i32, producer = 1482 : i32}, tf_saved_model.semantics} {
  "tf_saved_model.global_tensor"() {is_mutable, sym_name = "__sm_node26__model.layer-0.kernel", tf_saved_model.exported_names = [], type = tensor<3x3x3x2xf32>, value = dense<[[[[… > : tensor<3x3x3x2xf32>} : () -> ()
  "tf_saved_model.global_tensor"() {is_mutable, sym_name = "__sm_node27__model.layer-0.bias", tf_saved_model.exported_names = [], type = tensor<2xf32>, value = dense<0.000000e+00> : tensor<2xf32>} : () -> ()
  "tf_saved_model.global_tensor"() {is_mutable, sym_name = "__sm_node41__model.layer-2.kernel", tf_saved_model.exported_names = [], type = tensor<3x3x2x3xf32>, value = dense<[[[[… > : tensor<3x3x2x3xf32>} : () -> ()
  "tf_saved_model.global_tensor"() {is_mutable, sym_name = "__sm_node42__model.layer-2.bias", tf_saved_model.exported_names = [], type = tensor<3xf32>, value = dense<0.000000e+00> : tensor<3xf32>} : () -> ()
  "tf_saved_model.global_tensor"() {is_mutable, sym_name = "__sm_node62__model.layer-5.kernel", tf_saved_model.exported_names = [], type = tensor<75x4xf32>, value = dense<"…"> : tensor<75x4xf32>} : () -> ()
  "tf_saved_model.global_tensor"() {is_mutable, sym_name = "__sm_node63__model.layer-5.bias", tf_saved_model.exported_names = [], type = tensor<4xf32>, value = dense<0.000000e+00> : tensor<4xf32>} : () -> ()
  "tf_saved_model.global_tensor"() {is_mutable, sym_name = "__sm_node70__model.layer-6.kernel", tf_saved_model.exported_names = [], type = tensor<4x1xf32>, value = dense<[[0.725377917], [-0.0616925955], [0.417314529], [0.662358046]]> : tensor<4x1xf32>} : () -> ()
  "tf_saved_model.global_tensor"() {is_mutable, sym_name = "__sm_node71__model.layer-6.bias", tf_saved_model.exported_names = [], type = tensor<1xf32>, value = dense<0.000000e+00> : tensor<1xf32>} : () -> ()
  func.func @__inference_my_predict_1640(%arg0: tensor<16x28x28x3xf32> {tf._user_specified_name = "x", tf_saved_model.index_path = [0]}, %arg1: tensor<!tf_type.resource<tensor<3x3x3x2xf32>>> {tf._user_specified_name = "resource", tf_saved_model.bound_input = @"__sm_node26__model.layer-0.kernel"}, %arg2: tensor<!tf_type.resource<tensor<2xf32>>> {tf._user_specified_name = "resource", tf_saved_model.bound_input = @"__sm_node27__model.layer-0.bias"}, %arg3: tensor<!tf_type.resource<tensor<3x3x2x3xf32>>> {tf._user_specified_name = "resource", tf_saved_model.bound_input = @"__sm_node41__model.layer-2.kernel"}, %arg4: tensor<!tf_type.resource<tensor<3xf32>>> {tf._user_specified_name = "resource", tf_saved_model.bound_input = @"__sm_node42__model.layer-2.bias"}, %arg5: tensor<!tf_type.resource<tensor<75x4xf32>>> {tf._user_specified_name = "resource", tf_saved_model.bound_input = @"__sm_node62__model.layer-5.kernel"}, %arg6: tensor<!tf_type.resource<tensor<4xf32>>> {tf._user_specified_name = "resource", tf_saved_model.bound_input = @"__sm_node63__model.layer-5.bias"}, %arg7: tensor<!tf_type.resource<tensor<4x1xf32>>> {tf._user_specified_name = "resource", tf_saved_model.bound_input = @"__sm_node70__model.layer-6.kernel"}, %arg8: tensor<!tf_type.resource<tensor<1xf32>>> {tf._user_specified_name = "resource", tf_saved_model.bound_input = @"__sm_node71__model.layer-6.bias"}) -> (tensor<16x1xf32> {tf_saved_model.index_path = []}) attributes {tf._construction_context = "kEagerRuntime", tf._input_shapes = [#tf_type.shape<16x28x28x3>, #tf_type.shape<>, #tf_type.shape<>, #tf_type.shape<>, #tf_type.shape<>, #tf_type.shape<>, #tf_type.shape<>, #tf_type.shape<>, #tf_type.shape<>], tf.signature.is_stateful, tf_saved_model.exported_names = ["my_predict"]} {
    %cst = "tf.Const"() {device = "", value = dense<[-1, 75]> : tensor<2xi32>} : () -> tensor<2xi32>
    %0 = "tf.ReadVariableOp"(%arg4) : (tensor<!tf_type.resource<tensor<3xf32>>>) -> tensor<3xf32>
    %1 = "tf.ReadVariableOp"(%arg3) : (tensor<!tf_type.resource<tensor<3x3x2x3xf32>>>) -> tensor<3x3x2x3xf32>
    %2 = "tf.ReadVariableOp"(%arg2) : (tensor<!tf_type.resource<tensor<2xf32>>>) -> tensor<2xf32>
    %3 = "tf.ReadVariableOp"(%arg1) : (tensor<!tf_type.resource<tensor<3x3x3x2xf32>>>) -> tensor<3x3x3x2xf32>
    %4 = "tf.ReadVariableOp"(%arg8) : (tensor<!tf_type.resource<tensor<1xf32>>>) -> tensor<1xf32>
    %5 = "tf.ReadVariableOp"(%arg7) : (tensor<!tf_type.resource<tensor<4x1xf32>>>) -> tensor<4x1xf32>
    %6 = "tf.ReadVariableOp"(%arg6) : (tensor<!tf_type.resource<tensor<4xf32>>>) -> tensor<4xf32>
    %7 = "tf.ReadVariableOp"(%arg5) : (tensor<!tf_type.resource<tensor<75x4xf32>>>) -> tensor<75x4xf32>
    %8 = "tf.Conv2D"(%arg0, %3) {data_format = "NHWC", device = "", dilations = [1, 1, 1, 1], explicit_paddings = [], padding = "VALID", strides = [1, 1, 1, 1], use_cudnn_on_gpu = true} : (tensor<16x28x28x3xf32>, tensor<3x3x3x2xf32>) -> tensor<16x26x26x2xf32>
    %9 = "tf.BiasAdd"(%8, %2) {data_format = "NHWC", device = ""} : (tensor<16x26x26x2xf32>, tensor<2xf32>) -> tensor<16x26x26x2xf32>
    %10 = "tf.Relu"(%9) {device = ""} : (tensor<16x26x26x2xf32>) -> tensor<16x26x26x2xf32>
    %11 = "tf.MaxPool"(%10) {data_format = "NHWC", device = "", explicit_paddings = [], ksize = [1, 2, 2, 1], padding = "VALID", strides = [1, 2, 2, 1]} : (tensor<16x26x26x2xf32>) -> tensor<16x13x13x2xf32>
    %12 = "tf.Conv2D"(%11, %1) {data_format = "NHWC", device = "", dilations = [1, 1, 1, 1], explicit_paddings = [], padding = "VALID", strides = [1, 1, 1, 1], use_cudnn_on_gpu = true} : (tensor<16x13x13x2xf32>, tensor<3x3x2x3xf32>) -> tensor<16x11x11x3xf32>
    %13 = "tf.BiasAdd"(%12, %0) {data_format = "NHWC", device = ""} : (tensor<16x11x11x3xf32>, tensor<3xf32>) -> tensor<16x11x11x3xf32>
    %14 = "tf.Relu"(%13) {device = ""} : (tensor<16x11x11x3xf32>) -> tensor<16x11x11x3xf32>
    %15 = "tf.MaxPool"(%14) {data_format = "NHWC", device = "", explicit_paddings = [], ksize = [1, 2, 2, 1], padding = "VALID", strides = [1, 2, 2, 1]} : (tensor<16x11x11x3xf32>) -> tensor<16x5x5x3xf32>
    %16 = "tf.Reshape"(%15, %cst) {device = ""} : (tensor<16x5x5x3xf32>, tensor<2xi32>) -> tensor<16x75xf32>
    %17 = "tf.MatMul"(%16, %7) {device = "", transpose_a = false, transpose_b = false} : (tensor<16x75xf32>, tensor<75x4xf32>) -> tensor<16x4xf32>
    %18 = "tf.BiasAdd"(%17, %6) {data_format = "NHWC", device = ""} : (tensor<16x4xf32>, tensor<4xf32>) -> tensor<16x4xf32>
    %19 = "tf.Relu"(%18) {device = ""} : (tensor<16x4xf32>) -> tensor<16x4xf32>
    %20 = "tf.MatMul"(%19, %5) {device = "", transpose_a = false, transpose_b = false} : (tensor<16x4xf32>, tensor<4x1xf32>) -> tensor<16x1xf32>
    %21 = "tf.BiasAdd"(%20, %4) {data_format = "NHWC", device = ""} : (tensor<16x1xf32>, tensor<1xf32>) -> tensor<16x1xf32>
    %22 = "tf.Softmax"(%21) {device = ""} : (tensor<16x1xf32>) -> tensor<16x1xf32>
    %23 = "tf.Identity"(%22) {device = ""} : (tensor<16x1xf32>) -> tensor<16x1xf32>
    return %23 : tensor<16x1xf32>
  }
  func.func private @__inference__wrapped_model_2220(%arg0: tensor<?x28x28x3xf32> {tf._user_specified_name = "conv2d_input"}, %arg1: tensor<!tf_type.resource> {tf._user_specified_name = "resource"}, %arg2: tensor<!tf_type.resource> {tf._user_specified_name = "resource"}, %arg3: tensor<!tf_type.resource> {tf._user_specified_name = "resource"}, %arg4: tensor<!tf_type.resource> {tf._user_specified_name = "resource"}, %arg5: tensor<!tf_type.resource> {tf._user_specified_name = "resource"}, %arg6: tensor<!tf_type.resource> {tf._user_specified_name = "resource"}, %arg7: tensor<!tf_type.resource> {tf._user_specified_name = "resource"}, %arg8: tensor<!tf_type.resource> {tf._user_specified_name = "resource"}) -> tensor<?x1xf32> attributes {tf._construction_context = "kEagerRuntime", tf._input_shapes = [#tf_type.shape<?x28x28x3>, #tf_type.shape<>, #tf_type.shape<>, #tf_type.shape<>, #tf_type.shape<>, #tf_type.shape<>, #tf_type.shape<>, #tf_type.shape<>, #tf_type.shape<>], tf.signature.is_stateful} {
    %cst = "tf.Const"() {device = "", value = dense<[-1, 75]> : tensor<2xi32>} : () -> tensor<2xi32>
    %0 = "tf.ReadVariableOp"(%arg4) {device = ""} : (tensor<!tf_type.resource>) -> tensor<3xf32>
    %1 = "tf.ReadVariableOp"(%arg3) {device = ""} : (tensor<!tf_type.resource>) -> tensor<3x3x2x3xf32>
    %2 = "tf.ReadVariableOp"(%arg2) {device = ""} : (tensor<!tf_type.resource>) -> tensor<2xf32>
    %3 = "tf.ReadVariableOp"(%arg1) {device = ""} : (tensor<!tf_type.resource>) -> tensor<3x3x3x2xf32>
    %4 = "tf.Conv2D"(%arg0, %3) {data_format = "NHWC", device = "", dilations = [1, 1, 1, 1], explicit_paddings = [], padding = "VALID", strides = [1, 1, 1, 1], use_cudnn_on_gpu = true} : (tensor<?x28x28x3xf32>, tensor<3x3x3x2xf32>) -> tensor<?x26x26x2xf32>
    %5 = "tf.BiasAdd"(%4, %2) {data_format = "NHWC", device = ""} : (tensor<?x26x26x2xf32>, tensor<2xf32>) -> tensor<?x26x26x2xf32>
    %6 = "tf.Relu"(%5) {device = ""} : (tensor<?x26x26x2xf32>) -> tensor<?x26x26x2xf32>
    %7 = "tf.MaxPool"(%6) {data_format = "NHWC", device = "", explicit_paddings = [], ksize = [1, 2, 2, 1], padding = "VALID", strides = [1, 2, 2, 1]} : (tensor<?x26x26x2xf32>) -> tensor<?x13x13x2xf32>
    %8 = "tf.Conv2D"(%7, %1) {data_format = "NHWC", device = "", dilations = [1, 1, 1, 1], explicit_paddings = [], padding = "VALID", strides = [1, 1, 1, 1], use_cudnn_on_gpu = true} : (tensor<?x13x13x2xf32>, tensor<3x3x2x3xf32>) -> tensor<?x11x11x3xf32>
    %9 = "tf.BiasAdd"(%8, %0) {data_format = "NHWC", device = ""} : (tensor<?x11x11x3xf32>, tensor<3xf32>) -> tensor<?x11x11x3xf32>
    %10 = "tf.Relu"(%9) {device = ""} : (tensor<?x11x11x3xf32>) -> tensor<?x11x11x3xf32>
    %11 = "tf.MaxPool"(%10) {data_format = "NHWC", device = "", explicit_paddings = [], ksize = [1, 2, 2, 1], padding = "VALID", strides = [1, 2, 2, 1]} : (tensor<?x11x11x3xf32>) -> tensor<?x5x5x3xf32>
    %12 = "tf.Reshape"(%11, %cst) {device = ""} : (tensor<?x5x5x3xf32>, tensor<2xi32>) -> tensor<?x75xf32>
    %13 = "tf.ReadVariableOp"(%arg8) {device = ""} : (tensor<!tf_type.resource>) -> tensor<1xf32>
    %14 = "tf.ReadVariableOp"(%arg7) {device = ""} : (tensor<!tf_type.resource>) -> tensor<4x1xf32>
    %15 = "tf.ReadVariableOp"(%arg6) {device = ""} : (tensor<!tf_type.resource>) -> tensor<4xf32>
    %16 = "tf.ReadVariableOp"(%arg5) {device = ""} : (tensor<!tf_type.resource>) -> tensor<75x4xf32>
    %17 = "tf.MatMul"(%12, %16) {device = "", transpose_a = false, transpose_b = false} : (tensor<?x75xf32>, tensor<75x4xf32>) -> tensor<?x4xf32>
    %18 = "tf.BiasAdd"(%17, %15) {data_format = "NHWC", device = ""} : (tensor<?x4xf32>, tensor<4xf32>) -> tensor<?x4xf32>
    %19 = "tf.Relu"(%18) {device = ""} : (tensor<?x4xf32>) -> tensor<?x4xf32>
    %20 = "tf.MatMul"(%19, %14) {device = "", transpose_a = false, transpose_b = false} : (tensor<?x4xf32>, tensor<4x1xf32>) -> tensor<?x1xf32>
    %21 = "tf.BiasAdd"(%20, %13) {data_format = "NHWC", device = ""} : (tensor<?x1xf32>, tensor<1xf32>) -> tensor<?x1xf32>
    %22 = "tf.Softmax"(%21) {device = ""} : (tensor<?x1xf32>) -> tensor<?x1xf32>
    %23 = "tf.Identity"(%22) {device = ""} : (tensor<?x1xf32>) -> tensor<?x1xf32>
    return %23 : tensor<?x1xf32>
  }
  func.func private @__inference_conv2d_1_layer_call_and_return_conditional_losses_2720(%arg0: tensor<?x13x13x2xf32> {tf._user_specified_name = "inputs"}, %arg1: tensor<!tf_type.resource> {tf._user_specified_name = "resource"}, %arg2: tensor<!tf_type.resource> {tf._user_specified_name = "resource"}) -> tensor<?x11x11x3xf32> attributes {tf._construction_context = "kEagerRuntime", tf._input_shapes = [#tf_type.shape<?x13x13x2>, #tf_type.shape<>, #tf_type.shape<>], tf.signature.is_stateful} {
    %0 = "tf.ReadVariableOp"(%arg2) {device = ""} : (tensor<!tf_type.resource>) -> tensor<3xf32>
    %1 = "tf.ReadVariableOp"(%arg1) {device = ""} : (tensor<!tf_type.resource>) -> tensor<3x3x2x3xf32>
    %2 = "tf.Conv2D"(%arg0, %1) {data_format = "NHWC", device = "", dilations = [1, 1, 1, 1], explicit_paddings = [], padding = "VALID", strides = [1, 1, 1, 1], use_cudnn_on_gpu = true} : (tensor<?x13x13x2xf32>, tensor<3x3x2x3xf32>) -> tensor<?x11x11x3xf32>
    %3 = "tf.BiasAdd"(%2, %0) {data_format = "NHWC", device = ""} : (tensor<?x11x11x3xf32>, tensor<3xf32>) -> tensor<?x11x11x3xf32>
    %4 = "tf.Relu"(%3) {device = ""} : (tensor<?x11x11x3xf32>) -> tensor<?x11x11x3xf32>
    %5 = "tf.Identity"(%4) {device = ""} : (tensor<?x11x11x3xf32>) -> tensor<?x11x11x3xf32>
    return %5 : tensor<?x11x11x3xf32>
  }
  func.func private @__inference_conv2d_1_layer_call_and_return_conditional_losses_4790(%arg0: tensor<?x13x13x2xf32> {tf._user_specified_name = "inputs"}, %arg1: tensor<!tf_type.resource> {tf._user_specified_name = "resource"}, %arg2: tensor<!tf_type.resource> {tf._user_specified_name = "resource"}) -> tensor<?x11x11x3xf32> attributes {tf._construction_context = "kEagerRuntime", tf._input_shapes = [#tf_type.shape<?x13x13x2>, #tf_type.shape<>, #tf_type.shape<>], tf.signature.is_stateful} {
    %0 = "tf.ReadVariableOp"(%arg2) {device = ""} : (tensor<!tf_type.resource>) -> tensor<3xf32>
    %1 = "tf.ReadVariableOp"(%arg1) {device = ""} : (tensor<!tf_type.resource>) -> tensor<3x3x2x3xf32>
    %2 = "tf.Conv2D"(%arg0, %1) {data_format = "NHWC", device = "", dilations = [1, 1, 1, 1], explicit_paddings = [], padding = "VALID", strides = [1, 1, 1, 1], use_cudnn_on_gpu = true} : (tensor<?x13x13x2xf32>, tensor<3x3x2x3xf32>) -> tensor<?x11x11x3xf32>
    %3 = "tf.BiasAdd"(%2, %0) {data_format = "NHWC", device = ""} : (tensor<?x11x11x3xf32>, tensor<3xf32>) -> tensor<?x11x11x3xf32>
    %4 = "tf.Relu"(%3) {device = ""} : (tensor<?x11x11x3xf32>) -> tensor<?x11x11x3xf32>
    %5 = "tf.Identity"(%4) {device = ""} : (tensor<?x11x11x3xf32>) -> tensor<?x11x11x3xf32>
    return %5 : tensor<?x11x11x3xf32>
  }
  func.func private @__inference_conv2d_1_layer_call_fn_4680(%arg0: tensor<?x13x13x2xf32> {tf._user_specified_name = "inputs"}, %arg1: tensor<!tf_type.resource> {tf._user_specified_name = "462"}, %arg2: tensor<!tf_type.resource> {tf._user_specified_name = "464"}) -> tensor<?x?x?x?xf32> attributes {tf._construction_context = "kEagerRuntime", tf._input_shapes = [#tf_type.shape<?x13x13x2>, #tf_type.shape<>, #tf_type.shape<>], tf.signature.is_stateful} {
    %0 = "tf.StatefulPartitionedCall"(%arg0, %arg1, %arg2) {_collective_manager_ids = [], _read_only_resource_inputs = [1, 2], config = "", config_proto = "\0A\07\0A\03CPU\10\01\0A\07\0A\03GPU\10\002\02J\008\01\82\01\00", device = "", executor_type = "", f = @__inference_conv2d_1_layer_call_and_return_conditional_losses_2720} : (tensor<?x13x13x2xf32>, tensor<!tf_type.resource>, tensor<!tf_type.resource>) -> tensor<?x?x?x?xf32>
    %1 = "tf.Identity"(%0) {device = ""} : (tensor<?x?x?x?xf32>) -> tensor<?x?x?x?xf32>
    return %1 : tensor<?x?x?x?xf32>
  }
  func.func private @__inference_conv2d_layer_call_and_return_conditional_losses_2550(%arg0: tensor<?x28x28x3xf32> {tf._user_specified_name = "inputs"}, %arg1: tensor<!tf_type.resource> {tf._user_specified_name = "resource"}, %arg2: tensor<!tf_type.resource> {tf._user_specified_name = "resource"}) -> tensor<?x26x26x2xf32> attributes {tf._construction_context = "kEagerRuntime", tf._input_shapes = [#tf_type.shape<?x28x28x3>, #tf_type.shape<>, #tf_type.shape<>], tf.signature.is_stateful} {
    %0 = "tf.ReadVariableOp"(%arg2) {device = ""} : (tensor<!tf_type.resource>) -> tensor<2xf32>
    %1 = "tf.ReadVariableOp"(%arg1) {device = ""} : (tensor<!tf_type.resource>) -> tensor<3x3x3x2xf32>
    %2 = "tf.Conv2D"(%arg0, %1) {data_format = "NHWC", device = "", dilations = [1, 1, 1, 1], explicit_paddings = [], padding = "VALID", strides = [1, 1, 1, 1], use_cudnn_on_gpu = true} : (tensor<?x28x28x3xf32>, tensor<3x3x3x2xf32>) -> tensor<?x26x26x2xf32>
    %3 = "tf.BiasAdd"(%2, %0) {data_format = "NHWC", device = ""} : (tensor<?x26x26x2xf32>, tensor<2xf32>) -> tensor<?x26x26x2xf32>
    %4 = "tf.Relu"(%3) {device = ""} : (tensor<?x26x26x2xf32>) -> tensor<?x26x26x2xf32>
    %5 = "tf.Identity"(%4) {device = ""} : (tensor<?x26x26x2xf32>) -> tensor<?x26x26x2xf32>
    return %5 : tensor<?x26x26x2xf32>
  }
  func.func private @__inference_conv2d_layer_call_and_return_conditional_losses_4490(%arg0: tensor<?x28x28x3xf32> {tf._user_specified_name = "inputs"}, %arg1: tensor<!tf_type.resource> {tf._user_specified_name = "resource"}, %arg2: tensor<!tf_type.resource> {tf._user_specified_name = "resource"}) -> tensor<?x26x26x2xf32> attributes {tf._construction_context = "kEagerRuntime", tf._input_shapes = [#tf_type.shape<?x28x28x3>, #tf_type.shape<>, #tf_type.shape<>], tf.signature.is_stateful} {
    %0 = "tf.ReadVariableOp"(%arg2) {device = ""} : (tensor<!tf_type.resource>) -> tensor<2xf32>
    %1 = "tf.ReadVariableOp"(%arg1) {device = ""} : (tensor<!tf_type.resource>) -> tensor<3x3x3x2xf32>
    %2 = "tf.Conv2D"(%arg0, %1) {data_format = "NHWC", device = "", dilations = [1, 1, 1, 1], explicit_paddings = [], padding = "VALID", strides = [1, 1, 1, 1], use_cudnn_on_gpu = true} : (tensor<?x28x28x3xf32>, tensor<3x3x3x2xf32>) -> tensor<?x26x26x2xf32>
    %3 = "tf.BiasAdd"(%2, %0) {data_format = "NHWC", device = ""} : (tensor<?x26x26x2xf32>, tensor<2xf32>) -> tensor<?x26x26x2xf32>
    %4 = "tf.Relu"(%3) {device = ""} : (tensor<?x26x26x2xf32>) -> tensor<?x26x26x2xf32>
    %5 = "tf.Identity"(%4) {device = ""} : (tensor<?x26x26x2xf32>) -> tensor<?x26x26x2xf32>
    return %5 : tensor<?x26x26x2xf32>
  }
  func.func private @__inference_conv2d_layer_call_fn_4380(%arg0: tensor<?x28x28x3xf32> {tf._user_specified_name = "inputs"}, %arg1: tensor<!tf_type.resource> {tf._user_specified_name = "432"}, %arg2: tensor<!tf_type.resource> {tf._user_specified_name = "434"}) -> tensor<?x?x?x?xf32> attributes {tf._construction_context = "kEagerRuntime", tf._input_shapes = [#tf_type.shape<?x28x28x3>, #tf_type.shape<>, #tf_type.shape<>], tf.signature.is_stateful} {
    %0 = "tf.StatefulPartitionedCall"(%arg0, %arg1, %arg2) {_collective_manager_ids = [], _read_only_resource_inputs = [1, 2], config = "", config_proto = "\0A\07\0A\03CPU\10\01\0A\07\0A\03GPU\10\002\02J\008\01\82\01\00", device = "", executor_type = "", f = @__inference_conv2d_layer_call_and_return_conditional_losses_2550} : (tensor<?x28x28x3xf32>, tensor<!tf_type.resource>, tensor<!tf_type.resource>) -> tensor<?x?x?x?xf32>
    %1 = "tf.Identity"(%0) {device = ""} : (tensor<?x?x?x?xf32>) -> tensor<?x?x?x?xf32>
    return %1 : tensor<?x?x?x?xf32>
  }
  func.func private @__inference_dense_1_layer_call_and_return_conditional_losses_3120(%arg0: tensor<?x4xf32> {tf._user_specified_name = "inputs"}, %arg1: tensor<!tf_type.resource> {tf._user_specified_name = "resource"}, %arg2: tensor<!tf_type.resource> {tf._user_specified_name = "resource"}) -> tensor<?x1xf32> attributes {tf._construction_context = "kEagerRuntime", tf._input_shapes = [#tf_type.shape<?x4>, #tf_type.shape<>, #tf_type.shape<>], tf.signature.is_stateful} {
    %0 = "tf.ReadVariableOp"(%arg2) {device = ""} : (tensor<!tf_type.resource>) -> tensor<1xf32>
    %1 = "tf.ReadVariableOp"(%arg1) {device = ""} : (tensor<!tf_type.resource>) -> tensor<4x1xf32>
    %2 = "tf.MatMul"(%arg0, %1) {device = "", transpose_a = false, transpose_b = false} : (tensor<?x4xf32>, tensor<4x1xf32>) -> tensor<?x1xf32>
    %3 = "tf.BiasAdd"(%2, %0) {data_format = "NHWC", device = ""} : (tensor<?x1xf32>, tensor<1xf32>) -> tensor<?x1xf32>
    %4 = "tf.Softmax"(%3) {device = ""} : (tensor<?x1xf32>) -> tensor<?x1xf32>
    %5 = "tf.Identity"(%4) {device = ""} : (tensor<?x1xf32>) -> tensor<?x1xf32>
    return %5 : tensor<?x1xf32>
  }
  func.func private @__inference_dense_1_layer_call_and_return_conditional_losses_5400(%arg0: tensor<?x4xf32> {tf._user_specified_name = "inputs"}, %arg1: tensor<!tf_type.resource> {tf._user_specified_name = "resource"}, %arg2: tensor<!tf_type.resource> {tf._user_specified_name = "resource"}) -> tensor<?x1xf32> attributes {tf._construction_context = "kEagerRuntime", tf._input_shapes = [#tf_type.shape<?x4>, #tf_type.shape<>, #tf_type.shape<>], tf.signature.is_stateful} {
    %0 = "tf.ReadVariableOp"(%arg2) {device = ""} : (tensor<!tf_type.resource>) -> tensor<1xf32>
    %1 = "tf.ReadVariableOp"(%arg1) {device = ""} : (tensor<!tf_type.resource>) -> tensor<4x1xf32>
    %2 = "tf.MatMul"(%arg0, %1) {device = "", transpose_a = false, transpose_b = false} : (tensor<?x4xf32>, tensor<4x1xf32>) -> tensor<?x1xf32>
    %3 = "tf.BiasAdd"(%2, %0) {data_format = "NHWC", device = ""} : (tensor<?x1xf32>, tensor<1xf32>) -> tensor<?x1xf32>
    %4 = "tf.Softmax"(%3) {device = ""} : (tensor<?x1xf32>) -> tensor<?x1xf32>
    %5 = "tf.Identity"(%4) {device = ""} : (tensor<?x1xf32>) -> tensor<?x1xf32>
    return %5 : tensor<?x1xf32>
  }
  func.func private @__inference_dense_1_layer_call_fn_5290(%arg0: tensor<?x4xf32> {tf._user_specified_name = "inputs"}, %arg1: tensor<!tf_type.resource> {tf._user_specified_name = "523"}, %arg2: tensor<!tf_type.resource> {tf._user_specified_name = "525"}) -> tensor<?x?xf32> attributes {tf._construction_context = "kEagerRuntime", tf._input_shapes = [#tf_type.shape<?x4>, #tf_type.shape<>, #tf_type.shape<>], tf.signature.is_stateful} {
    %0 = "tf.StatefulPartitionedCall"(%arg0, %arg1, %arg2) {_collective_manager_ids = [], _read_only_resource_inputs = [1, 2], config = "", config_proto = "\0A\07\0A\03CPU\10\01\0A\07\0A\03GPU\10\002\02J\008\01\82\01\00", device = "", executor_type = "", f = @__inference_dense_1_layer_call_and_return_conditional_losses_3120} : (tensor<?x4xf32>, tensor<!tf_type.resource>, tensor<!tf_type.resource>) -> tensor<?x?xf32>
    %1 = "tf.Identity"(%0) {device = ""} : (tensor<?x?xf32>) -> tensor<?x?xf32>
    return %1 : tensor<?x?xf32>
  }
  func.func private @__inference_dense_layer_call_and_return_conditional_losses_2960(%arg0: tensor<?x75xf32> {tf._user_specified_name = "inputs"}, %arg1: tensor<!tf_type.resource> {tf._user_specified_name = "resource"}, %arg2: tensor<!tf_type.resource> {tf._user_specified_name = "resource"}) -> tensor<?x4xf32> attributes {tf._construction_context = "kEagerRuntime", tf._input_shapes = [#tf_type.shape<?x75>, #tf_type.shape<>, #tf_type.shape<>], tf.signature.is_stateful} {
    %0 = "tf.ReadVariableOp"(%arg2) {device = ""} : (tensor<!tf_type.resource>) -> tensor<4xf32>
    %1 = "tf.ReadVariableOp"(%arg1) {device = ""} : (tensor<!tf_type.resource>) -> tensor<75x4xf32>
    %2 = "tf.MatMul"(%arg0, %1) {device = "", transpose_a = false, transpose_b = false} : (tensor<?x75xf32>, tensor<75x4xf32>) -> tensor<?x4xf32>
    %3 = "tf.BiasAdd"(%2, %0) {data_format = "NHWC", device = ""} : (tensor<?x4xf32>, tensor<4xf32>) -> tensor<?x4xf32>
    %4 = "tf.Relu"(%3) {device = ""} : (tensor<?x4xf32>) -> tensor<?x4xf32>
    %5 = "tf.Identity"(%4) {device = ""} : (tensor<?x4xf32>) -> tensor<?x4xf32>
    return %5 : tensor<?x4xf32>
  }
  func.func private @__inference_dense_layer_call_and_return_conditional_losses_5200(%arg0: tensor<?x75xf32> {tf._user_specified_name = "inputs"}, %arg1: tensor<!tf_type.resource> {tf._user_specified_name = "resource"}, %arg2: tensor<!tf_type.resource> {tf._user_specified_name = "resource"}) -> tensor<?x4xf32> attributes {tf._construction_context = "kEagerRuntime", tf._input_shapes = [#tf_type.shape<?x75>, #tf_type.shape<>, #tf_type.shape<>], tf.signature.is_stateful} {
    %0 = "tf.ReadVariableOp"(%arg2) {device = ""} : (tensor<!tf_type.resource>) -> tensor<4xf32>
    %1 = "tf.ReadVariableOp"(%arg1) {device = ""} : (tensor<!tf_type.resource>) -> tensor<75x4xf32>
    %2 = "tf.MatMul"(%arg0, %1) {device = "", transpose_a = false, transpose_b = false} : (tensor<?x75xf32>, tensor<75x4xf32>) -> tensor<?x4xf32>
    %3 = "tf.BiasAdd"(%2, %0) {data_format = "NHWC", device = ""} : (tensor<?x4xf32>, tensor<4xf32>) -> tensor<?x4xf32>
    %4 = "tf.Relu"(%3) {device = ""} : (tensor<?x4xf32>) -> tensor<?x4xf32>
    %5 = "tf.Identity"(%4) {device = ""} : (tensor<?x4xf32>) -> tensor<?x4xf32>
    return %5 : tensor<?x4xf32>
  }
  func.func private @__inference_dense_layer_call_fn_5090(%arg0: tensor<?x75xf32> {tf._user_specified_name = "inputs"}, %arg1: tensor<!tf_type.resource> {tf._user_specified_name = "503"}, %arg2: tensor<!tf_type.resource> {tf._user_specified_name = "505"}) -> tensor<?x?xf32> attributes {tf._construction_context = "kEagerRuntime", tf._input_shapes = [#tf_type.shape<?x75>, #tf_type.shape<>, #tf_type.shape<>], tf.signature.is_stateful} {
    %0 = "tf.StatefulPartitionedCall"(%arg0, %arg1, %arg2) {_collective_manager_ids = [], _read_only_resource_inputs = [1, 2], config = "", config_proto = "\0A\07\0A\03CPU\10\01\0A\07\0A\03GPU\10\002\02J\008\01\82\01\00", device = "", executor_type = "", f = @__inference_dense_layer_call_and_return_conditional_losses_2960} : (tensor<?x75xf32>, tensor<!tf_type.resource>, tensor<!tf_type.resource>) -> tensor<?x?xf32>
    %1 = "tf.Identity"(%0) {device = ""} : (tensor<?x?xf32>) -> tensor<?x?xf32>
    return %1 : tensor<?x?xf32>
  }
  func.func private @__inference_flatten_layer_call_and_return_conditional_losses_2840(%arg0: tensor<?x5x5x3xf32> {tf._user_specified_name = "inputs"}) -> tensor<?x75xf32> attributes {tf._construction_context = "kEagerRuntime", tf._input_shapes = [#tf_type.shape<?x5x5x3>]} {
    %cst = "tf.Const"() {device = "", value = dense<[-1, 75]> : tensor<2xi32>} : () -> tensor<2xi32>
    %0 = "tf.Reshape"(%arg0, %cst) {device = ""} : (tensor<?x5x5x3xf32>, tensor<2xi32>) -> tensor<?x75xf32>
    %1 = "tf.Identity"(%0) {device = ""} : (tensor<?x75xf32>) -> tensor<?x75xf32>
    return %1 : tensor<?x75xf32>
  }
  func.func private @__inference_flatten_layer_call_and_return_conditional_losses_5000(%arg0: tensor<?x5x5x3xf32> {tf._user_specified_name = "inputs"}) -> tensor<?x75xf32> attributes {tf._construction_context = "kEagerRuntime", tf._input_shapes = [#tf_type.shape<?x5x5x3>]} {
    %cst = "tf.Const"() {device = "", value = dense<[-1, 75]> : tensor<2xi32>} : () -> tensor<2xi32>
    %0 = "tf.Reshape"(%arg0, %cst) {device = ""} : (tensor<?x5x5x3xf32>, tensor<2xi32>) -> tensor<?x75xf32>
    %1 = "tf.Identity"(%0) {device = ""} : (tensor<?x75xf32>) -> tensor<?x75xf32>
    return %1 : tensor<?x75xf32>
  }
  func.func private @__inference_flatten_layer_call_fn_4940(%arg0: tensor<?x5x5x3xf32> {tf._user_specified_name = "inputs"}) -> tensor<?x75xf32> attributes {tf._construction_context = "kEagerRuntime", tf._input_shapes = [#tf_type.shape<?x5x5x3>]} {
    %0 = "tf.PartitionedCall"(%arg0) {_collective_manager_ids = [], _read_only_resource_inputs = [], config = "", config_proto = "\0A\07\0A\03CPU\10\01\0A\07\0A\03GPU\10\002\02J\008\01\82\01\00", device = "", executor_type = "", f = @__inference_flatten_layer_call_and_return_conditional_losses_2840} : (tensor<?x5x5x3xf32>) -> tensor<?x75xf32>
    %1 = "tf.Identity"(%0) {device = ""} : (tensor<?x75xf32>) -> tensor<?x75xf32>
    return %1 : tensor<?x75xf32>
  }
  func.func private @__inference_max_pooling2d_1_layer_call_and_return_conditional_losses_2370(%arg0: tensor<?x?x?x?xf32> {tf._user_specified_name = "inputs"}) -> tensor<?x?x?x?xf32> attributes {tf._construction_context = "kEagerRuntime", tf._input_shapes = [#tf_type.shape<?x?x?x?>]} {
    %0 = "tf.MaxPool"(%arg0) {data_format = "NHWC", device = "", explicit_paddings = [], ksize = [1, 2, 2, 1], padding = "VALID", strides = [1, 2, 2, 1]} : (tensor<?x?x?x?xf32>) -> tensor<?x?x?x?xf32>
    %1 = "tf.Identity"(%0) {device = ""} : (tensor<?x?x?x?xf32>) -> tensor<?x?x?x?xf32>
    return %1 : tensor<?x?x?x?xf32>
  }
  func.func private @__inference_max_pooling2d_1_layer_call_and_return_conditional_losses_4890(%arg0: tensor<?x?x?x?xf32> {tf._user_specified_name = "inputs"}) -> tensor<?x?x?x?xf32> attributes {tf._construction_context = "kEagerRuntime", tf._input_shapes = [#tf_type.shape<?x?x?x?>]} {
    %0 = "tf.MaxPool"(%arg0) {data_format = "NHWC", device = "", explicit_paddings = [], ksize = [1, 2, 2, 1], padding = "VALID", strides = [1, 2, 2, 1]} : (tensor<?x?x?x?xf32>) -> tensor<?x?x?x?xf32>
    %1 = "tf.Identity"(%0) {device = ""} : (tensor<?x?x?x?xf32>) -> tensor<?x?x?x?xf32>
    return %1 : tensor<?x?x?x?xf32>
  }
  func.func private @__inference_max_pooling2d_1_layer_call_fn_4840(%arg0: tensor<?x?x?x?xf32> {tf._user_specified_name = "inputs"}) -> tensor<?x?x?x?xf32> attributes {tf._construction_context = "kEagerRuntime", tf._input_shapes = [#tf_type.shape<?x?x?x?>]} {
    %0 = "tf.PartitionedCall"(%arg0) {_collective_manager_ids = [], _read_only_resource_inputs = [], config = "", config_proto = "\0A\07\0A\03CPU\10\01\0A\07\0A\03GPU\10\002\02J\008\01\82\01\00", device = "", executor_type = "", f = @__inference_max_pooling2d_1_layer_call_and_return_conditional_losses_2370} : (tensor<?x?x?x?xf32>) -> tensor<?x?x?x?xf32>
    %1 = "tf.Identity"(%0) {device = ""} : (tensor<?x?x?x?xf32>) -> tensor<?x?x?x?xf32>
    return %1 : tensor<?x?x?x?xf32>
  }
  func.func private @__inference_max_pooling2d_layer_call_and_return_conditional_losses_2270(%arg0: tensor<?x?x?x?xf32> {tf._user_specified_name = "inputs"}) -> tensor<?x?x?x?xf32> attributes {tf._construction_context = "kEagerRuntime", tf._input_shapes = [#tf_type.shape<?x?x?x?>]} {
    %0 = "tf.MaxPool"(%arg0) {data_format = "NHWC", device = "", explicit_paddings = [], ksize = [1, 2, 2, 1], padding = "VALID", strides = [1, 2, 2, 1]} : (tensor<?x?x?x?xf32>) -> tensor<?x?x?x?xf32>
    %1 = "tf.Identity"(%0) {device = ""} : (tensor<?x?x?x?xf32>) -> tensor<?x?x?x?xf32>
    return %1 : tensor<?x?x?x?xf32>
  }
  func.func private @__inference_max_pooling2d_layer_call_and_return_conditional_losses_4590(%arg0: tensor<?x?x?x?xf32> {tf._user_specified_name = "inputs"}) -> tensor<?x?x?x?xf32> attributes {tf._construction_context = "kEagerRuntime", tf._input_shapes = [#tf_type.shape<?x?x?x?>]} {
    %0 = "tf.MaxPool"(%arg0) {data_format = "NHWC", device = "", explicit_paddings = [], ksize = [1, 2, 2, 1], padding = "VALID", strides = [1, 2, 2, 1]} : (tensor<?x?x?x?xf32>) -> tensor<?x?x?x?xf32>
    %1 = "tf.Identity"(%0) {device = ""} : (tensor<?x?x?x?xf32>) -> tensor<?x?x?x?xf32>
    return %1 : tensor<?x?x?x?xf32>
  }
  func.func private @__inference_max_pooling2d_layer_call_fn_4540(%arg0: tensor<?x?x?x?xf32> {tf._user_specified_name = "inputs"}) -> tensor<?x?x?x?xf32> attributes {tf._construction_context = "kEagerRuntime", tf._input_shapes = [#tf_type.shape<?x?x?x?>]} {
    %0 = "tf.PartitionedCall"(%arg0) {_collective_manager_ids = [], _read_only_resource_inputs = [], config = "", config_proto = "\0A\07\0A\03CPU\10\01\0A\07\0A\03GPU\10\002\02J\008\01\82\01\00", device = "", executor_type = "", f = @__inference_max_pooling2d_layer_call_and_return_conditional_losses_2270} : (tensor<?x?x?x?xf32>) -> tensor<?x?x?x?xf32>
    %1 = "tf.Identity"(%0) {device = ""} : (tensor<?x?x?x?xf32>) -> tensor<?x?x?x?xf32>
    return %1 : tensor<?x?x?x?xf32>
  }
  func.func private @__inference_sequential_layer_call_and_return_conditional_losses_3190(%arg0: tensor<?x28x28x3xf32> {tf._user_specified_name = "conv2d_input"}, %arg1: tensor<!tf_type.resource> {tf._user_specified_name = "256"}, %arg2: tensor<!tf_type.resource> {tf._user_specified_name = "258"}, %arg3: tensor<!tf_type.resource> {tf._user_specified_name = "273"}, %arg4: tensor<!tf_type.resource> {tf._user_specified_name = "275"}, %arg5: tensor<!tf_type.resource> {tf._user_specified_name = "297"}, %arg6: tensor<!tf_type.resource> {tf._user_specified_name = "299"}, %arg7: tensor<!tf_type.resource> {tf._user_specified_name = "313"}, %arg8: tensor<!tf_type.resource> {tf._user_specified_name = "315"}) -> tensor<?x?xf32> attributes {tf._construction_context = "kEagerRuntime", tf._input_shapes = [#tf_type.shape<?x28x28x3>, #tf_type.shape<>, #tf_type.shape<>, #tf_type.shape<>, #tf_type.shape<>, #tf_type.shape<>, #tf_type.shape<>, #tf_type.shape<>, #tf_type.shape<>], tf.signature.is_stateful} {
    %0 = "tf.StatefulPartitionedCall"(%arg0, %arg1, %arg2) {_collective_manager_ids = [], _read_only_resource_inputs = [1, 2], config = "", config_proto = "\0A\07\0A\03CPU\10\01\0A\07\0A\03GPU\10\002\02J\008\01\82\01\00", device = "", executor_type = "", f = @__inference_conv2d_layer_call_and_return_conditional_losses_2550} : (tensor<?x28x28x3xf32>, tensor<!tf_type.resource>, tensor<!tf_type.resource>) -> tensor<?x?x?x?xf32>
    %1 = "tf.PartitionedCall"(%0) {_collective_manager_ids = [], _read_only_resource_inputs = [], config = "", config_proto = "\0A\07\0A\03CPU\10\01\0A\07\0A\03GPU\10\002\02J\008\01\82\01\00", device = "", executor_type = "", f = @__inference_max_pooling2d_layer_call_and_return_conditional_losses_2270} : (tensor<?x?x?x?xf32>) -> tensor<?x?x?x?xf32>
    %2 = "tf.StatefulPartitionedCall"(%1, %arg3, %arg4) {_collective_manager_ids = [], _read_only_resource_inputs = [1, 2], config = "", config_proto = "\0A\07\0A\03CPU\10\01\0A\07\0A\03GPU\10\002\02J\008\01\82\01\00", device = "", executor_type = "", f = @__inference_conv2d_1_layer_call_and_return_conditional_losses_2720} : (tensor<?x?x?x?xf32>, tensor<!tf_type.resource>, tensor<!tf_type.resource>) -> tensor<?x?x?x?xf32>
    %3 = "tf.PartitionedCall"(%2) {_collective_manager_ids = [], _read_only_resource_inputs = [], config = "", config_proto = "\0A\07\0A\03CPU\10\01\0A\07\0A\03GPU\10\002\02J\008\01\82\01\00", device = "", executor_type = "", f = @__inference_max_pooling2d_1_layer_call_and_return_conditional_losses_2370} : (tensor<?x?x?x?xf32>) -> tensor<?x?x?x?xf32>
    %4 = "tf.PartitionedCall"(%3) {_collective_manager_ids = [], _read_only_resource_inputs = [], config = "", config_proto = "\0A\07\0A\03CPU\10\01\0A\07\0A\03GPU\10\002\02J\008\01\82\01\00", device = "", executor_type = "", f = @__inference_flatten_layer_call_and_return_conditional_losses_2840} : (tensor<?x?x?x?xf32>) -> tensor<?x75xf32>
    %5 = "tf.StatefulPartitionedCall"(%4, %arg5, %arg6) {_collective_manager_ids = [], _read_only_resource_inputs = [1, 2], config = "", config_proto = "\0A\07\0A\03CPU\10\01\0A\07\0A\03GPU\10\002\02J\008\01\82\01\00", device = "", executor_type = "", f = @__inference_dense_layer_call_and_return_conditional_losses_2960} : (tensor<?x75xf32>, tensor<!tf_type.resource>, tensor<!tf_type.resource>) -> tensor<?x?xf32>
    %6 = "tf.StatefulPartitionedCall"(%5, %arg7, %arg8) {_collective_manager_ids = [], _read_only_resource_inputs = [1, 2], config = "", config_proto = "\0A\07\0A\03CPU\10\01\0A\07\0A\03GPU\10\002\02J\008\01\82\01\00", device = "", executor_type = "", f = @__inference_dense_1_layer_call_and_return_conditional_losses_3120} : (tensor<?x?xf32>, tensor<!tf_type.resource>, tensor<!tf_type.resource>) -> tensor<?x?xf32>
    %7 = "tf.Identity"(%6) {device = ""} : (tensor<?x?xf32>) -> tensor<?x?xf32>
    return %7 : tensor<?x?xf32>
  }
  func.func private @__inference_sequential_layer_call_and_return_conditional_losses_3460(%arg0: tensor<?x28x28x3xf32> {tf._user_specified_name = "conv2d_input"}, %arg1: tensor<!tf_type.resource> {tf._user_specified_name = "322"}, %arg2: tensor<!tf_type.resource> {tf._user_specified_name = "324"}, %arg3: tensor<!tf_type.resource> {tf._user_specified_name = "328"}, %arg4: tensor<!tf_type.resource> {tf._user_specified_name = "330"}, %arg5: tensor<!tf_type.resource> {tf._user_specified_name = "335"}, %arg6: tensor<!tf_type.resource> {tf._user_specified_name = "337"}, %arg7: tensor<!tf_type.resource> {tf._user_specified_name = "340"}, %arg8: tensor<!tf_type.resource> {tf._user_specified_name = "342"}) -> tensor<?x?xf32> attributes {tf._construction_context = "kEagerRuntime", tf._input_shapes = [#tf_type.shape<?x28x28x3>, #tf_type.shape<>, #tf_type.shape<>, #tf_type.shape<>, #tf_type.shape<>, #tf_type.shape<>, #tf_type.shape<>, #tf_type.shape<>, #tf_type.shape<>], tf.signature.is_stateful} {
    %0 = "tf.StatefulPartitionedCall"(%arg0, %arg1, %arg2) {_collective_manager_ids = [], _read_only_resource_inputs = [1, 2], config = "", config_proto = "\0A\07\0A\03CPU\10\01\0A\07\0A\03GPU\10\002\02J\008\01\82\01\00", device = "", executor_type = "", f = @__inference_conv2d_layer_call_and_return_conditional_losses_2550} : (tensor<?x28x28x3xf32>, tensor<!tf_type.resource>, tensor<!tf_type.resource>) -> tensor<?x?x?x?xf32>
    %1 = "tf.PartitionedCall"(%0) {_collective_manager_ids = [], _read_only_resource_inputs = [], config = "", config_proto = "\0A\07\0A\03CPU\10\01\0A\07\0A\03GPU\10\002\02J\008\01\82\01\00", device = "", executor_type = "", f = @__inference_max_pooling2d_layer_call_and_return_conditional_losses_2270} : (tensor<?x?x?x?xf32>) -> tensor<?x?x?x?xf32>
    %2 = "tf.StatefulPartitionedCall"(%1, %arg3, %arg4) {_collective_manager_ids = [], _read_only_resource_inputs = [1, 2], config = "", config_proto = "\0A\07\0A\03CPU\10\01\0A\07\0A\03GPU\10\002\02J\008\01\82\01\00", device = "", executor_type = "", f = @__inference_conv2d_1_layer_call_and_return_conditional_losses_2720} : (tensor<?x?x?x?xf32>, tensor<!tf_type.resource>, tensor<!tf_type.resource>) -> tensor<?x?x?x?xf32>
    %3 = "tf.PartitionedCall"(%2) {_collective_manager_ids = [], _read_only_resource_inputs = [], config = "", config_proto = "\0A\07\0A\03CPU\10\01\0A\07\0A\03GPU\10\002\02J\008\01\82\01\00", device = "", executor_type = "", f = @__inference_max_pooling2d_1_layer_call_and_return_conditional_losses_2370} : (tensor<?x?x?x?xf32>) -> tensor<?x?x?x?xf32>
    %4 = "tf.PartitionedCall"(%3) {_collective_manager_ids = [], _read_only_resource_inputs = [], config = "", config_proto = "\0A\07\0A\03CPU\10\01\0A\07\0A\03GPU\10\002\02J\008\01\82\01\00", device = "", executor_type = "", f = @__inference_flatten_layer_call_and_return_conditional_losses_2840} : (tensor<?x?x?x?xf32>) -> tensor<?x75xf32>
    %5 = "tf.StatefulPartitionedCall"(%4, %arg5, %arg6) {_collective_manager_ids = [], _read_only_resource_inputs = [1, 2], config = "", config_proto = "\0A\07\0A\03CPU\10\01\0A\07\0A\03GPU\10\002\02J\008\01\82\01\00", device = "", executor_type = "", f = @__inference_dense_layer_call_and_return_conditional_losses_2960} : (tensor<?x75xf32>, tensor<!tf_type.resource>, tensor<!tf_type.resource>) -> tensor<?x?xf32>
    %6 = "tf.StatefulPartitionedCall"(%5, %arg7, %arg8) {_collective_manager_ids = [], _read_only_resource_inputs = [1, 2], config = "", config_proto = "\0A\07\0A\03CPU\10\01\0A\07\0A\03GPU\10\002\02J\008\01\82\01\00", device = "", executor_type = "", f = @__inference_dense_1_layer_call_and_return_conditional_losses_3120} : (tensor<?x?xf32>, tensor<!tf_type.resource>, tensor<!tf_type.resource>) -> tensor<?x?xf32>
    %7 = "tf.Identity"(%6) {device = ""} : (tensor<?x?xf32>) -> tensor<?x?xf32>
    return %7 : tensor<?x?xf32>
  }
  func.func private @__inference_sequential_layer_call_fn_3670(%arg0: tensor<?x28x28x3xf32> {tf._user_specified_name = "conv2d_input"}, %arg1: tensor<!tf_type.resource> {tf._user_specified_name = "349"}, %arg2: tensor<!tf_type.resource> {tf._user_specified_name = "351"}, %arg3: tensor<!tf_type.resource> {tf._user_specified_name = "353"}, %arg4: tensor<!tf_type.resource> {tf._user_specified_name = "355"}, %arg5: tensor<!tf_type.resource> {tf._user_specified_name = "357"}, %arg6: tensor<!tf_type.resource> {tf._user_specified_name = "359"}, %arg7: tensor<!tf_type.resource> {tf._user_specified_name = "361"}, %arg8: tensor<!tf_type.resource> {tf._user_specified_name = "363"}) -> tensor<?x?xf32> attributes {tf._construction_context = "kEagerRuntime", tf._input_shapes = [#tf_type.shape<?x28x28x3>, #tf_type.shape<>, #tf_type.shape<>, #tf_type.shape<>, #tf_type.shape<>, #tf_type.shape<>, #tf_type.shape<>, #tf_type.shape<>, #tf_type.shape<>], tf.signature.is_stateful} {
    %0 = "tf.StatefulPartitionedCall"(%arg0, %arg1, %arg2, %arg3, %arg4, %arg5, %arg6, %arg7, %arg8) {_collective_manager_ids = [], _read_only_resource_inputs = [1, 2, 3, 4, 5, 6, 7, 8], config = "", config_proto = "\0A\07\0A\03CPU\10\01\0A\07\0A\03GPU\10\002\02J\008\01\82\01\00", device = "", executor_type = "", f = @__inference_sequential_layer_call_and_return_conditional_losses_3190} : (tensor<?x28x28x3xf32>, tensor<!tf_type.resource>, tensor<!tf_type.resource>, tensor<!tf_type.resource>, tensor<!tf_type.resource>, tensor<!tf_type.resource>, tensor<!tf_type.resource>, tensor<!tf_type.resource>, tensor<!tf_type.resource>) -> tensor<?x?xf32>
    %1 = "tf.Identity"(%0) {device = ""} : (tensor<?x?xf32>) -> tensor<?x?xf32>
    return %1 : tensor<?x?xf32>
  }
  func.func private @__inference_sequential_layer_call_fn_3880(%arg0: tensor<?x28x28x3xf32> {tf._user_specified_name = "conv2d_input"}, %arg1: tensor<!tf_type.resource> {tf._user_specified_name = "370"}, %arg2: tensor<!tf_type.resource> {tf._user_specified_name = "372"}, %arg3: tensor<!tf_type.resource> {tf._user_specified_name = "374"}, %arg4: tensor<!tf_type.resource> {tf._user_specified_name = "376"}, %arg5: tensor<!tf_type.resource> {tf._user_specified_name = "378"}, %arg6: tensor<!tf_type.resource> {tf._user_specified_name = "380"}, %arg7: tensor<!tf_type.resource> {tf._user_specified_name = "382"}, %arg8: tensor<!tf_type.resource> {tf._user_specified_name = "384"}) -> tensor<?x?xf32> attributes {tf._construction_context = "kEagerRuntime", tf._input_shapes = [#tf_type.shape<?x28x28x3>, #tf_type.shape<>, #tf_type.shape<>, #tf_type.shape<>, #tf_type.shape<>, #tf_type.shape<>, #tf_type.shape<>, #tf_type.shape<>, #tf_type.shape<>], tf.signature.is_stateful} {
    %0 = "tf.StatefulPartitionedCall"(%arg0, %arg1, %arg2, %arg3, %arg4, %arg5, %arg6, %arg7, %arg8) {_collective_manager_ids = [], _read_only_resource_inputs = [1, 2, 3, 4, 5, 6, 7, 8], config = "", config_proto = "\0A\07\0A\03CPU\10\01\0A\07\0A\03GPU\10\002\02J\008\01\82\01\00", device = "", executor_type = "", f = @__inference_sequential_layer_call_and_return_conditional_losses_3460} : (tensor<?x28x28x3xf32>, tensor<!tf_type.resource>, tensor<!tf_type.resource>, tensor<!tf_type.resource>, tensor<!tf_type.resource>, tensor<!tf_type.resource>, tensor<!tf_type.resource>, tensor<!tf_type.resource>, tensor<!tf_type.resource>) -> tensor<?x?xf32>
    %1 = "tf.Identity"(%0) {device = ""} : (tensor<?x?xf32>) -> tensor<?x?xf32>
    return %1 : tensor<?x?xf32>
  }
}

