module attributes {tf.versions = {bad_consumers = [], min_consumer = 12 : i32, producer = 1482 : i32}, tf_saved_model.semantics} {
  "tf_saved_model.global_tensor"() {is_mutable, sym_name = "__sm_node26__model.layer-0.kernel", tf_saved_model.exported_names = [], type = tensor<3x3x3x2xf32>, value = dense<[[[[… > : tensor<3x3x3x2xf32>} : () -> ()
  "tf_saved_model.global_tensor"() {is_mutable, sym_name = "__sm_node27__model.layer-0.bias", tf_saved_model.exported_names = [], type = tensor<2xf32>, value = dense<0.000000e+00> : tensor<2xf32>} : () -> ()
  "tf_saved_model.global_tensor"() {is_mutable, sym_name = "__sm_node41__model.layer-2.kernel", tf_saved_model.exported_names = [], type = tensor<3x3x2x3xf32>, value = dense<[[[[… > : tensor<3x3x2x3xf32>} : () -> ()
  "tf_saved_model.global_tensor"() {is_mutable, sym_name = "__sm_node42__model.layer-2.bias", tf_saved_model.exported_names = [], type = tensor<3xf32>, value = dense<0.000000e+00> : tensor<3xf32>} : () -> ()
  "tf_saved_model.global_tensor"() {is_mutable, sym_name = "__sm_node62__model.layer-5.kernel", tf_saved_model.exported_names = [], type = tensor<75x4xf32>, value = dense<"…"> : tensor<75x4xf32>} : () -> ()
  "tf_saved_model.global_tensor"() {is_mutable, sym_name = "__sm_node63__model.layer-5.bias", tf_saved_model.exported_names = [], type = tensor<4xf32>, value = dense<0.000000e+00> : tensor<4xf32>} : () -> ()
  "tf_saved_model.global_tensor"() {is_mutable, sym_name = "__sm_node70__model.layer-6.kernel", tf_saved_model.exported_names = [], type = tensor<4x1xf32>, value = dense<[[0.725377917], [-0.0616925955], [0.417314529], [0.662358046]]> : tensor<4x1xf32>} : () -> ()
  "tf_saved_model.global_tensor"() {is_mutable, sym_name = "__sm_node71__model.layer-6.bias", tf_saved_model.exported_names = [], type = tensor<1xf32>, value = dense<0.000000e+00> : tensor<1xf32>} : () -> ()
  func.func @__inference_my_predict_1640(%arg0: tensor<16x28x28x3xf32> {tf._user_specified_name = "x", tf_saved_model.index_path = [0]}, %arg1: tensor<!tf_type.resource<tensor<3x3x3x2xf32>>> {tf._user_specified_name = "resource", tf_saved_model.bound_input = @"__sm_node26__model.layer-0.kernel"}, %arg2: tensor<!tf_type.resource<tensor<2xf32>>> {tf._user_specified_name = "resource", tf_saved_model.bound_input = @"__sm_node27__model.layer-0.bias"}, %arg3: tensor<!tf_type.resource<tensor<3x3x2x3xf32>>> {tf._user_specified_name = "resource", tf_saved_model.bound_input = @"__sm_node41__model.layer-2.kernel"}, %arg4: tensor<!tf_type.resource<tensor<3xf32>>> {tf._user_specified_name = "resource", tf_saved_model.bound_input = @"__sm_node42__model.layer-2.bias"}, %arg5: tensor<!tf_type.resource<tensor<75x4xf32>>> {tf._user_specified_name = "resource", tf_saved_model.bound_input = @"__sm_node62__model.layer-5.kernel"}, %arg6: tensor<!tf_type.resource<tensor<4xf32>>> {tf._user_specified_name = "resource", tf_saved_model.bound_input = @"__sm_node63__model.layer-5.bias"}, %arg7: tensor<!tf_type.resource<tensor<4x1xf32>>> {tf._user_specified_name = "resource", tf_saved_model.bound_input = @"__sm_node70__model.layer-6.kernel"}, %arg8: tensor<!tf_type.resource<tensor<1xf32>>> {tf._user_specified_name = "resource", tf_saved_model.bound_input = @"__sm_node71__model.layer-6.bias"}) -> (tensor<16x1xf32> {tf_saved_model.index_path = []}) attributes {tf._construction_context = "kEagerRuntime", tf._input_shapes = [#tf_type.shape<16x28x28x3>, #tf_type.shape<>, #tf_type.shape<>, #tf_type.shape<>, #tf_type.shape<>, #tf_type.shape<>, #tf_type.shape<>, #tf_type.shape<>, #tf_type.shape<>], tf.signature.is_stateful, tf_saved_model.exported_names = ["my_predict"]} {
    %0 = "tosa.const"() <{value = dense<[3, 0, 1, 2]> : tensor<4xi32>}> : () -> tensor<4xi32>
    %1 = "tf.ReadVariableOp"(%arg4) : (tensor<!tf_type.resource<tensor<3xf32>>>) -> tensor<3xf32>
    %2 = "tf.ReadVariableOp"(%arg3) : (tensor<!tf_type.resource<tensor<3x3x2x3xf32>>>) -> tensor<3x3x2x3xf32>
    %3 = "tf.ReadVariableOp"(%arg2) : (tensor<!tf_type.resource<tensor<2xf32>>>) -> tensor<2xf32>
    %4 = "tf.ReadVariableOp"(%arg1) : (tensor<!tf_type.resource<tensor<3x3x3x2xf32>>>) -> tensor<3x3x3x2xf32>
    %5 = "tf.ReadVariableOp"(%arg8) : (tensor<!tf_type.resource<tensor<1xf32>>>) -> tensor<1xf32>
    %6 = "tf.ReadVariableOp"(%arg7) : (tensor<!tf_type.resource<tensor<4x1xf32>>>) -> tensor<4x1xf32>
    %7 = "tf.ReadVariableOp"(%arg6) : (tensor<!tf_type.resource<tensor<4xf32>>>) -> tensor<4xf32>
    %8 = "tf.ReadVariableOp"(%arg5) : (tensor<!tf_type.resource<tensor<75x4xf32>>>) -> tensor<75x4xf32>
    %9 = tosa.transpose %4, %0 : (tensor<3x3x3x2xf32>, tensor<4xi32>) -> tensor<2x3x3x3xf32>
    %10 = tosa.conv2d %arg0, %9, %3 {dilation = array<i64: 1, 1>, pad = array<i64: 0, 0, 0, 0>, stride = array<i64: 1, 1>} : (tensor<16x28x28x3xf32>, tensor<2x3x3x3xf32>, tensor<2xf32>) -> tensor<16x26x26x2xf32>
    %11 = tosa.clamp %10 {max_fp = 3.40282347E+38 : f32, max_int = 2147483647 : i64, min_fp = 0.000000e+00 : f32, min_int = 0 : i64} : (tensor<16x26x26x2xf32>) -> tensor<16x26x26x2xf32>
    %12 = tosa.max_pool2d %11 {kernel = array<i64: 2, 2>, pad = array<i64: 0, 0, 0, 0>, stride = array<i64: 2, 2>} : (tensor<16x26x26x2xf32>) -> tensor<16x13x13x2xf32>
    %13 = tosa.transpose %2, %0 : (tensor<3x3x2x3xf32>, tensor<4xi32>) -> tensor<3x3x3x2xf32>
    %14 = tosa.conv2d %12, %13, %1 {dilation = array<i64: 1, 1>, pad = array<i64: 0, 0, 0, 0>, stride = array<i64: 1, 1>} : (tensor<16x13x13x2xf32>, tensor<3x3x3x2xf32>, tensor<3xf32>) -> tensor<16x11x11x3xf32>
    %15 = tosa.clamp %14 {max_fp = 3.40282347E+38 : f32, max_int = 2147483647 : i64, min_fp = 0.000000e+00 : f32, min_int = 0 : i64} : (tensor<16x11x11x3xf32>) -> tensor<16x11x11x3xf32>
    %16 = tosa.max_pool2d %15 {kernel = array<i64: 2, 2>, pad = array<i64: 0, 0, 0, 0>, stride = array<i64: 2, 2>} : (tensor<16x11x11x3xf32>) -> tensor<16x5x5x3xf32>
    %17 = tosa.reshape %16 {new_shape = array<i64: 1, 16, 75>} : (tensor<16x5x5x3xf32>) -> tensor<1x16x75xf32>
    %18 = tosa.reshape %8 {new_shape = array<i64: 1, 75, 4>} : (tensor<75x4xf32>) -> tensor<1x75x4xf32>
    %19 = tosa.matmul %17, %18 : (tensor<1x16x75xf32>, tensor<1x75x4xf32>) -> tensor<1x16x4xf32>
    %20 = tosa.reshape %19 {new_shape = array<i64: 16, 4>} : (tensor<1x16x4xf32>) -> tensor<16x4xf32>
    %21 = tosa.reshape %7 {new_shape = array<i64: 1, 4>} : (tensor<4xf32>) -> tensor<1x4xf32>
    %22 = tosa.add %20, %21 : (tensor<16x4xf32>, tensor<1x4xf32>) -> tensor<16x4xf32>
    %23 = tosa.clamp %22 {max_fp = 3.40282347E+38 : f32, max_int = 2147483647 : i64, min_fp = 0.000000e+00 : f32, min_int = 0 : i64} : (tensor<16x4xf32>) -> tensor<16x4xf32>
    %24 = tosa.reshape %23 {new_shape = array<i64: 1, 16, 4>} : (tensor<16x4xf32>) -> tensor<1x16x4xf32>
    %25 = tosa.reshape %6 {new_shape = array<i64: 1, 4, 1>} : (tensor<4x1xf32>) -> tensor<1x4x1xf32>
    %26 = tosa.matmul %24, %25 : (tensor<1x16x4xf32>, tensor<1x4x1xf32>) -> tensor<1x16x1xf32>
    %27 = tosa.reshape %26 {new_shape = array<i64: 16, 1>} : (tensor<1x16x1xf32>) -> tensor<16x1xf32>
    %28 = tosa.reshape %5 {new_shape = array<i64: 1, 1>} : (tensor<1xf32>) -> tensor<1x1xf32>
    %29 = tosa.add %27, %28 : (tensor<16x1xf32>, tensor<1x1xf32>) -> tensor<16x1xf32>
    %30 = tosa.sub %29, %29 : (tensor<16x1xf32>, tensor<16x1xf32>) -> tensor<16x1xf32>
    %31 = tosa.exp %30 : (tensor<16x1xf32>) -> tensor<16x1xf32>
    %32 = tosa.reciprocal %31 : (tensor<16x1xf32>) -> tensor<16x1xf32>
    %33 = tosa.mul %31, %32 {shift = 0 : i32} : (tensor<16x1xf32>, tensor<16x1xf32>) -> tensor<16x1xf32>
    return %33 : tensor<16x1xf32>
  }
}

