#map = affine_map<(d0, d1, d2, d3) -> (d1, d2, d3, d0)>
#map1 = affine_map<(d0, d1, d2, d3) -> (d0, d1, d2, d3)>
#map2 = affine_map<(d0, d1, d2, d3) -> (d3, d0, d1, d2)>
#map3 = affine_map<(d0, d1, d2, d3) -> (d3)>
#map4 = affine_map<(d0, d1) -> (d0, d1)>
#map5 = affine_map<(d0, d1) -> (0, d1)>
#map6 = affine_map<(d0, d1) -> (d0, 0)>
#map7 = affine_map<(d0, d1) -> (0, 0)>
module attributes {tf.versions = {bad_consumers = [], min_consumer = 12 : i32, producer = 1482 : i32}, tf_saved_model.semantics} {
  "tf_saved_model.global_tensor"() {is_mutable, sym_name = "__sm_node26__model.layer-0.kernel", tf_saved_model.exported_names = [], type = tensor<3x3x3x2xf32>, value = dense<[[[[… > : tensor<3x3x3x2xf32>} : () -> ()
  "tf_saved_model.global_tensor"() {is_mutable, sym_name = "__sm_node27__model.layer-0.bias", tf_saved_model.exported_names = [], type = tensor<2xf32>, value = dense<0.000000e+00> : tensor<2xf32>} : () -> ()
  "tf_saved_model.global_tensor"() {is_mutable, sym_name = "__sm_node41__model.layer-2.kernel", tf_saved_model.exported_names = [], type = tensor<3x3x2x3xf32>, value = dense<[[[[… > : tensor<3x3x2x3xf32>} : () -> ()
  "tf_saved_model.global_tensor"() {is_mutable, sym_name = "__sm_node42__model.layer-2.bias", tf_saved_model.exported_names = [], type = tensor<3xf32>, value = dense<0.000000e+00> : tensor<3xf32>} : () -> ()
  "tf_saved_model.global_tensor"() {is_mutable, sym_name = "__sm_node62__model.layer-5.kernel", tf_saved_model.exported_names = [], type = tensor<75x4xf32>, value = dense<"…"> : tensor<75x4xf32>} : () -> ()
  "tf_saved_model.global_tensor"() {is_mutable, sym_name = "__sm_node63__model.layer-5.bias", tf_saved_model.exported_names = [], type = tensor<4xf32>, value = dense<0.000000e+00> : tensor<4xf32>} : () -> ()
  "tf_saved_model.global_tensor"() {is_mutable, sym_name = "__sm_node70__model.layer-6.kernel", tf_saved_model.exported_names = [], type = tensor<4x1xf32>, value = dense<[[0.725377917], [-0.0616925955], [0.417314529], [0.662358046]]> : tensor<4x1xf32>} : () -> ()
  "tf_saved_model.global_tensor"() {is_mutable, sym_name = "__sm_node71__model.layer-6.bias", tf_saved_model.exported_names = [], type = tensor<1xf32>, value = dense<0.000000e+00> : tensor<1xf32>} : () -> ()
  func.func @__inference_my_predict_1640(%arg0: tensor<16x28x28x3xf32> {tf._user_specified_name = "x", tf_saved_model.index_path = [0]}, %arg1: tensor<!tf_type.resource<tensor<3x3x3x2xf32>>> {tf._user_specified_name = "resource", tf_saved_model.bound_input = @"__sm_node26__model.layer-0.kernel"}, %arg2: tensor<!tf_type.resource<tensor<2xf32>>> {tf._user_specified_name = "resource", tf_saved_model.bound_input = @"__sm_node27__model.layer-0.bias"}, %arg3: tensor<!tf_type.resource<tensor<3x3x2x3xf32>>> {tf._user_specified_name = "resource", tf_saved_model.bound_input = @"__sm_node41__model.layer-2.kernel"}, %arg4: tensor<!tf_type.resource<tensor<3xf32>>> {tf._user_specified_name = "resource", tf_saved_model.bound_input = @"__sm_node42__model.layer-2.bias"}, %arg5: tensor<!tf_type.resource<tensor<75x4xf32>>> {tf._user_specified_name = "resource", tf_saved_model.bound_input = @"__sm_node62__model.layer-5.kernel"}, %arg6: tensor<!tf_type.resource<tensor<4xf32>>> {tf._user_specified_name = "resource", tf_saved_model.bound_input = @"__sm_node63__model.layer-5.bias"}, %arg7: tensor<!tf_type.resource<tensor<4x1xf32>>> {tf._user_specified_name = "resource", tf_saved_model.bound_input = @"__sm_node70__model.layer-6.kernel"}, %arg8: tensor<!tf_type.resource<tensor<1xf32>>> {tf._user_specified_name = "resource", tf_saved_model.bound_input = @"__sm_node71__model.layer-6.bias"}) -> (tensor<16x1xf32> {tf_saved_model.index_path = []}) attributes {tf._construction_context = "kEagerRuntime", tf._input_shapes = [#tf_type.shape<16x28x28x3>, #tf_type.shape<>, #tf_type.shape<>, #tf_type.shape<>, #tf_type.shape<>, #tf_type.shape<>, #tf_type.shape<>, #tf_type.shape<>, #tf_type.shape<>], tf.signature.is_stateful, tf_saved_model.exported_names = ["my_predict"]} {
    %cst = arith.constant dense<[3, 0, 1, 2]> : tensor<4xi32>
    %0 = "tf.ReadVariableOp"(%arg4) : (tensor<!tf_type.resource<tensor<3xf32>>>) -> tensor<3xf32>
    %1 = "tf.ReadVariableOp"(%arg3) : (tensor<!tf_type.resource<tensor<3x3x2x3xf32>>>) -> tensor<3x3x2x3xf32>
    %2 = "tf.ReadVariableOp"(%arg2) : (tensor<!tf_type.resource<tensor<2xf32>>>) -> tensor<2xf32>
    %3 = "tf.ReadVariableOp"(%arg1) : (tensor<!tf_type.resource<tensor<3x3x3x2xf32>>>) -> tensor<3x3x3x2xf32>
    %4 = "tf.ReadVariableOp"(%arg8) : (tensor<!tf_type.resource<tensor<1xf32>>>) -> tensor<1xf32>
    %5 = "tf.ReadVariableOp"(%arg7) : (tensor<!tf_type.resource<tensor<4x1xf32>>>) -> tensor<4x1xf32>
    %6 = "tf.ReadVariableOp"(%arg6) : (tensor<!tf_type.resource<tensor<4xf32>>>) -> tensor<4xf32>
    %7 = "tf.ReadVariableOp"(%arg5) : (tensor<!tf_type.resource<tensor<75x4xf32>>>) -> tensor<75x4xf32>
    %8 = tensor.empty() : tensor<2x3x3x3xf32>
    %9 = linalg.generic {indexing_maps = [#map, #map1], iterator_types = ["parallel", "parallel", "parallel", "parallel"]} ins(%3 : tensor<3x3x3x2xf32>) outs(%8 : tensor<2x3x3x3xf32>) {
    ^bb0(%in: f32, %out: f32):
      linalg.yield %in : f32
    } -> tensor<2x3x3x3xf32>
    %cst_0 = arith.constant dense<[1, 2, 3, 0]> : tensor<4xi64>
    %10 = tensor.empty() : tensor<3x3x3x2xf32>
    %11 = linalg.generic {indexing_maps = [#map2, #map1], iterator_types = ["parallel", "parallel", "parallel", "parallel"]} ins(%9 : tensor<2x3x3x3xf32>) outs(%10 : tensor<3x3x3x2xf32>) {
    ^bb0(%in: f32, %out: f32):
      linalg.yield %in : f32
    } -> tensor<3x3x3x2xf32>
    %12 = tensor.empty() : tensor<16x26x26x2xf32>
    %cst_1 = arith.constant 0.000000e+00 : f32
    %13 = linalg.fill ins(%cst_1 : f32) outs(%12 : tensor<16x26x26x2xf32>) -> tensor<16x26x26x2xf32>
    %14 = tensor.empty() : tensor<16x26x26x2xf32>
    %15 = linalg.conv_2d_nhwc_hwcf {dilations = dense<1> : tensor<2xi64>, strides = dense<1> : tensor<2xi64>} ins(%arg0, %11 : tensor<16x28x28x3xf32>, tensor<3x3x3x2xf32>) outs(%13 : tensor<16x26x26x2xf32>) -> tensor<16x26x26x2xf32>
    %16 = linalg.generic {indexing_maps = [#map3, #map1, #map1], iterator_types = ["parallel", "parallel", "parallel", "parallel"]} ins(%2, %15 : tensor<2xf32>, tensor<16x26x26x2xf32>) outs(%14 : tensor<16x26x26x2xf32>) {
    ^bb0(%in: f32, %in_15: f32, %out: f32):
      %58 = arith.addf %in, %in_15 : f32
      linalg.yield %58 : f32
    } -> tensor<16x26x26x2xf32>
    %17 = tensor.empty() : tensor<16x26x26x2xf32>
    %18 = linalg.generic {indexing_maps = [#map1, #map1], iterator_types = ["parallel", "parallel", "parallel", "parallel"]} ins(%16 : tensor<16x26x26x2xf32>) outs(%17 : tensor<16x26x26x2xf32>) {
    ^bb0(%in: f32, %out: f32):
      %cst_15 = arith.constant 0.000000e+00 : f32
      %cst_16 = arith.constant 3.40282347E+38 : f32
      %58 = arith.minf %in, %cst_16 : f32
      %59 = arith.maxf %58, %cst_15 : f32
      linalg.yield %59 : f32
    } -> tensor<16x26x26x2xf32>
    %cst_2 = arith.constant -3.40282347E+38 : f32
    %19 = tensor.empty() : tensor<16x13x13x2xf32>
    %20 = linalg.fill ins(%cst_2 : f32) outs(%19 : tensor<16x13x13x2xf32>) -> tensor<16x13x13x2xf32>
    %21 = tensor.empty() : tensor<2x2xf32>
    %22 = linalg.pooling_nhwc_max {dilations = dense<1> : vector<2xi64>, strides = dense<2> : vector<2xi64>} ins(%18, %21 : tensor<16x26x26x2xf32>, tensor<2x2xf32>) outs(%20 : tensor<16x13x13x2xf32>) -> tensor<16x13x13x2xf32>
    %23 = tensor.empty() : tensor<3x3x3x2xf32>
    %24 = linalg.generic {indexing_maps = [#map, #map1], iterator_types = ["parallel", "parallel", "parallel", "parallel"]} ins(%1 : tensor<3x3x2x3xf32>) outs(%23 : tensor<3x3x3x2xf32>) {
    ^bb0(%in: f32, %out: f32):
      linalg.yield %in : f32
    } -> tensor<3x3x3x2xf32>
    %cst_3 = arith.constant dense<[1, 2, 3, 0]> : tensor<4xi64>
    %25 = tensor.empty() : tensor<3x3x2x3xf32>
    %26 = linalg.generic {indexing_maps = [#map2, #map1], iterator_types = ["parallel", "parallel", "parallel", "parallel"]} ins(%24 : tensor<3x3x3x2xf32>) outs(%25 : tensor<3x3x2x3xf32>) {
    ^bb0(%in: f32, %out: f32):
      linalg.yield %in : f32
    } -> tensor<3x3x2x3xf32>
    %27 = tensor.empty() : tensor<16x11x11x3xf32>
    %cst_4 = arith.constant 0.000000e+00 : f32
    %28 = linalg.fill ins(%cst_4 : f32) outs(%27 : tensor<16x11x11x3xf32>) -> tensor<16x11x11x3xf32>
    %29 = tensor.empty() : tensor<16x11x11x3xf32>
    %30 = linalg.conv_2d_nhwc_hwcf {dilations = dense<1> : tensor<2xi64>, strides = dense<1> : tensor<2xi64>} ins(%22, %26 : tensor<16x13x13x2xf32>, tensor<3x3x2x3xf32>) outs(%28 : tensor<16x11x11x3xf32>) -> tensor<16x11x11x3xf32>
    %31 = linalg.generic {indexing_maps = [#map3, #map1, #map1], iterator_types = ["parallel", "parallel", "parallel", "parallel"]} ins(%0, %30 : tensor<3xf32>, tensor<16x11x11x3xf32>) outs(%29 : tensor<16x11x11x3xf32>) {
    ^bb0(%in: f32, %in_15: f32, %out: f32):
      %58 = arith.addf %in, %in_15 : f32
      linalg.yield %58 : f32
    } -> tensor<16x11x11x3xf32>
    %32 = tensor.empty() : tensor<16x11x11x3xf32>
    %33 = linalg.generic {indexing_maps = [#map1, #map1], iterator_types = ["parallel", "parallel", "parallel", "parallel"]} ins(%31 : tensor<16x11x11x3xf32>) outs(%32 : tensor<16x11x11x3xf32>) {
    ^bb0(%in: f32, %out: f32):
      %cst_15 = arith.constant 0.000000e+00 : f32
      %cst_16 = arith.constant 3.40282347E+38 : f32
      %58 = arith.minf %in, %cst_16 : f32
      %59 = arith.maxf %58, %cst_15 : f32
      linalg.yield %59 : f32
    } -> tensor<16x11x11x3xf32>
    %cst_5 = arith.constant -3.40282347E+38 : f32
    %34 = tensor.empty() : tensor<16x5x5x3xf32>
    %35 = linalg.fill ins(%cst_5 : f32) outs(%34 : tensor<16x5x5x3xf32>) -> tensor<16x5x5x3xf32>
    %36 = tensor.empty() : tensor<2x2xf32>
    %37 = linalg.pooling_nhwc_max {dilations = dense<1> : vector<2xi64>, strides = dense<2> : vector<2xi64>} ins(%33, %36 : tensor<16x11x11x3xf32>, tensor<2x2xf32>) outs(%35 : tensor<16x5x5x3xf32>) -> tensor<16x5x5x3xf32>
    %collapsed = tensor.collapse_shape %37 [[0], [1, 2, 3]] : tensor<16x5x5x3xf32> into tensor<16x75xf32>
    %expanded = tensor.expand_shape %collapsed [[0, 1], [2]] : tensor<16x75xf32> into tensor<1x16x75xf32>
    %expanded_6 = tensor.expand_shape %7 [[0, 1], [2]] : tensor<75x4xf32> into tensor<1x75x4xf32>
    %cst_7 = arith.constant 0.000000e+00 : f32
    %38 = tensor.empty() : tensor<1x16x4xf32>
    %39 = linalg.fill ins(%cst_7 : f32) outs(%38 : tensor<1x16x4xf32>) -> tensor<1x16x4xf32>
    %40 = linalg.batch_matmul ins(%expanded, %expanded_6 : tensor<1x16x75xf32>, tensor<1x75x4xf32>) outs(%39 : tensor<1x16x4xf32>) -> tensor<1x16x4xf32>
    %collapsed_8 = tensor.collapse_shape %40 [[0, 1], [2]] : tensor<1x16x4xf32> into tensor<16x4xf32>
    %expanded_9 = tensor.expand_shape %6 [[0, 1]] : tensor<4xf32> into tensor<1x4xf32>
    %41 = tensor.empty() : tensor<16x4xf32>
    %42 = linalg.generic {indexing_maps = [#map4, #map5, #map4], iterator_types = ["parallel", "parallel"]} ins(%collapsed_8, %expanded_9 : tensor<16x4xf32>, tensor<1x4xf32>) outs(%41 : tensor<16x4xf32>) {
    ^bb0(%in: f32, %in_15: f32, %out: f32):
      %58 = arith.addf %in, %in_15 : f32
      linalg.yield %58 : f32
    } -> tensor<16x4xf32>
    %43 = tensor.empty() : tensor<16x4xf32>
    %44 = linalg.generic {indexing_maps = [#map4, #map4], iterator_types = ["parallel", "parallel"]} ins(%42 : tensor<16x4xf32>) outs(%43 : tensor<16x4xf32>) {
    ^bb0(%in: f32, %out: f32):
      %cst_15 = arith.constant 0.000000e+00 : f32
      %cst_16 = arith.constant 3.40282347E+38 : f32
      %58 = arith.minf %in, %cst_16 : f32
      %59 = arith.maxf %58, %cst_15 : f32
      linalg.yield %59 : f32
    } -> tensor<16x4xf32>
    %expanded_10 = tensor.expand_shape %44 [[0, 1], [2]] : tensor<16x4xf32> into tensor<1x16x4xf32>
    %expanded_11 = tensor.expand_shape %5 [[0, 1], [2]] : tensor<4x1xf32> into tensor<1x4x1xf32>
    %cst_12 = arith.constant 0.000000e+00 : f32
    %45 = tensor.empty() : tensor<1x16x1xf32>
    %46 = linalg.fill ins(%cst_12 : f32) outs(%45 : tensor<1x16x1xf32>) -> tensor<1x16x1xf32>
    %47 = linalg.batch_matmul ins(%expanded_10, %expanded_11 : tensor<1x16x4xf32>, tensor<1x4x1xf32>) outs(%46 : tensor<1x16x1xf32>) -> tensor<1x16x1xf32>
    %collapsed_13 = tensor.collapse_shape %47 [[0, 1], [2]] : tensor<1x16x1xf32> into tensor<16x1xf32>
    %expanded_14 = tensor.expand_shape %4 [[0, 1]] : tensor<1xf32> into tensor<1x1xf32>
    %48 = tensor.empty() : tensor<16x1xf32>
    %49 = linalg.generic {indexing_maps = [#map6, #map7, #map4], iterator_types = ["parallel", "parallel"]} ins(%collapsed_13, %expanded_14 : tensor<16x1xf32>, tensor<1x1xf32>) outs(%48 : tensor<16x1xf32>) {
    ^bb0(%in: f32, %in_15: f32, %out: f32):
      %58 = arith.addf %in, %in_15 : f32
      linalg.yield %58 : f32
    } -> tensor<16x1xf32>
    %50 = tensor.empty() : tensor<16x1xf32>
    %51 = linalg.generic {indexing_maps = [#map6, #map6, #map4], iterator_types = ["parallel", "parallel"]} ins(%49, %49 : tensor<16x1xf32>, tensor<16x1xf32>) outs(%50 : tensor<16x1xf32>) {
    ^bb0(%in: f32, %in_15: f32, %out: f32):
      %58 = arith.subf %in, %in_15 : f32
      linalg.yield %58 : f32
    } -> tensor<16x1xf32>
    %52 = tensor.empty() : tensor<16x1xf32>
    %53 = linalg.generic {indexing_maps = [#map6, #map4], iterator_types = ["parallel", "parallel"]} ins(%51 : tensor<16x1xf32>) outs(%52 : tensor<16x1xf32>) {
    ^bb0(%in: f32, %out: f32):
      %58 = math.exp %in : f32
      linalg.yield %58 : f32
    } -> tensor<16x1xf32>
    %54 = tensor.empty() : tensor<16x1xf32>
    %55 = linalg.generic {indexing_maps = [#map6, #map4], iterator_types = ["parallel", "parallel"]} ins(%53 : tensor<16x1xf32>) outs(%54 : tensor<16x1xf32>) {
    ^bb0(%in: f32, %out: f32):
      %cst_15 = arith.constant 1.000000e+00 : f32
      %58 = arith.divf %cst_15, %in : f32
      linalg.yield %58 : f32
    } -> tensor<16x1xf32>
    %56 = tensor.empty() : tensor<16x1xf32>
    %57 = linalg.generic {indexing_maps = [#map6, #map6, #map4], iterator_types = ["parallel", "parallel"]} ins(%53, %55 : tensor<16x1xf32>, tensor<16x1xf32>) outs(%56 : tensor<16x1xf32>) {
    ^bb0(%in: f32, %in_15: f32, %out: f32):
      %58 = arith.mulf %in, %in_15 : f32
      linalg.yield %58 : f32
    } -> tensor<16x1xf32>
    return %57 : tensor<16x1xf32>
  }
}

